model-RNN-DDPG/just_theta/pi.pth (torch, 123066 bytes, 62 tensors)

gru.weight_ih_l0 f4 [60, 1]
00000000: 0204 a23d f1b6 9fbd 8f60 b2bd 5dff e63d
00000010: 760b 3b3e dd47 8d3b 33c7 18bc 2a88 cdbc
00000020: b1b1 263e 77e7 33be 680e 553d 3090 3a3e
00000030: 4736 41be 1c31 28be cd65 a83c 27d5 953d
00000040: bac7 b7bc 59fb 9a3d e411 d83d 6127 31bd
00000050: 21a5 aa3d 23d1 07be 37ce 453e af70 ed3d
00000060: 3dc7 2d3e c088 8cbb 02d2 0d3e 4b33 67bd
00000070: b081 1b3e ee28 d03d 16be 143e 3ac3 d53d
00000080: 7aca cd3d cd29 983d 3aa4 343e d526 d2bd
00000090: b722 283d eef6 7cbc 6eb6 a13d a949 1c3e
000000a0: 4659 26bd f6e9 85bc 3a34 fc3c 3190 a53d
000000b0: 6029 533d b504 323e 814d 08be 4874 9f3d
000000c0: 4df7 4fbc cfd1 f43d f1b4 cfbd ea5f 173e
000000d0: 0a1b 0dbd b8f1 51bd fc41 02be 342b fa3d
000000e0: 1b99 313e 0673 3b3c ad51 043d 915d a43d
0.07910921 -0.07798565 -0.08709823 0.112791754 0.18266091 0.0043115453 -0.009324837 -0.025089342
0.16278721 -0.17568766 0.052015692 0.18219066 -0.18868361 -0.16424984 0.020556355 0.07316046
-0.022434104 0.07567472 0.10550287 -0.043250445 0.08332277 -0.13263373 0.19316946 0.11593758
0.16970535 -0.004288763 0.13849643 -0.0564454 0.1518619 0.10164057 0.14525637 0.10437627
0.10048385 0.07429848 0.17640772 -0.10261313 0.04104873 -0.015439732 0.07896124 0.15262474
-0.04061248 -0.016346913 0.030786622 0.08084143 0.05155313 0.17384608 -0.13310815 0.07785851
-0.012693238 0.1195408 -0.10141934 0.14782682 -0.034449615 -0.05125591 -0.12720484 0.122152716
0.17343561 0.011440998 0.032304455 0.08025659

gru.weight_hh_l0 f4 [60, 20]
00000000: 5788 9ebd 20f9 043d 99dd aabd f320 323e
00000010: a66e 5d3c 4e75 44bd 00b3 16bc e21e 30be
00000020: 1728 18be a2f0 91bc 4389 863d 39fa 0f3e
00000030: 9c2c b43c 8d15 423d 29af d3bd 507e c7bd
00000040: f481 033e 01cb 40be e38d c63c 3b5b d93c
00000050: 6b21 303b 7fbe 2a3e 7174 0c3e f5d0 213e
00000060: 10e5 a53b 951f 063e 4c15 b0bc ffaf 5abc
00000070: 063b 6abd 9cae 513d f636 cc3d 729d 4dbd
00000080: 54e1 403c fd4d 83bb 2bb6 113d 9543 213e
00000090: d62d 09be 5b0a cc3d b778 04be 868f 1dbe
000000a0: 54ab 013e 49f0 ab3d 2f29 2bbe a4be 973d
000000b0: 1362 143c c41a 5c3d f6d1 0bbe 787b 2ebd
000000c0: 277f 423e 2827 183e 59f7 55bc 773b cfbd
000000d0: b868 d93d dbaa 0bbe c3dd 9cbd f92a b8bd
000000e0: 480b fc3d edfe c0bc f81a 0cbe a2e0 a2bd
000000f0: 98ea 94bd 26e1 93bd d135 213d cc36 9ebd
00000100: e760 c3bd eb15 0c3e de24 a9bd ba6b 3e3e
00000110: 9894 21be 542f 303e 6357 693d 1dd0 5dbc
00000120: 72b8 cfbc ec1e 6e3c c3ae 9dbd a7d4 873c
00000130: e44a 7f3d 75bc 01be 0d7e b93d 04fa bcbd
00000140: 6395 06be 2343 c33d 5ad4 ea3d 8954 e43d
00000150: d80e 6ebd 2281 9abd 795c 403e 19f6 b03c
00000160: 919a d13d 1a93 0f3e 92cd 143e 4e97 41bd
00000170: a55b d13d 17b8 683d ca26 0e3d e549 363d
00000180: 620d 463d d198 04be 6c86 f13d 0424 143e
00000190: 851e 37be b033 7a3d 0062 4dbc 3b1b 033e
000001a0: 8681 343e 7f80 1dbe b803 513c 8555 453e
000001b0: ce67 9bbd 3d6c 3a3d 81ce 973d 6c12 13bd
000001c0: 4c46 403e bceb a5bd 8bdb bcbd 39bd 3dbe
000001d0: 117c ce3d 86d8 313e add8 82bd 5091 3cbc
000001e0: a728 b63c 98af d53d 338a 223e 6f36 88bd
000001f0: fb17 823d 1509 033e 9115 263e 9112 c1bd
00000200: 2917 04be 43c7 63bd 83ce bbbd 8f08 273e
00000210: 964f 153c 3af9 3dbe 4400 2e3e 7291 8a3d
00000220: 5fdd 38be 1489 1cbe f7e8 263e cc1c 243e
00000230: 9bc8 093e 482e 3cbe 58a9 893c 460c a23d
00000240: 5309 1cbe 8438 893d f89a 7d3d d519 7d3d
00000250: d0f5 553d afdd 0c3e 4263 1e3e 216a 5d3d
00000260: f293 413e 8730 593c f448 323e a487 383e
00000270: 5389 403e 9362 3abe f36d 54bd 6181 41be
00000280: c597 4d3b a635 45be 7fb6 19be d057 173e
00000290: 4a26 01bc bad7 37be e7eb 94bc 392a 05be
000002a0: 9dde e53d 5325 373e ad37 2fbe 61f4 3e3e
000002b0: e842 20be 91ce a2bd e2ce 183e 4795 b9bd
000002c0: 9fb3 ce3b fca4 d23d 6ddc 543d 5346 8c3c
000002d0: 5b52 273e 6d25 27be 3fc5 873d 1b3b 7b3d
000002e0: 160e 1b3d b4cd 9dbd ba4f d33d c6dd 013e
000002f0: f8b1 f3bd 3630 df3c fb40 913d f520 2a3e
00000300: 7ab6 193e 4c4d 94bd 2ab0 343e 5ee4 e23d
00000310: a848 a73d e201 37be a610 21bc c7b6 1a3d
00000320: 2c18 a63d abb4 1e3e 0b0b 16bc 7e62 2ebe
00000330: c793 893c d260 06be 7b4f 02be d412 1d3d
00000340: 1883 313d 4b24 b73d d6da c33d ce50 433e
00000350: 6030 133e 5687 7cbc a748 7a3c 73d6 15bd
00000360: d6b9 a6bb 8754 e5bc b59d 17be be33 1dbe
00000370: 91c5 23bc 377b fcbd 5159 54bd 3df0 0c3e
00000380: 2ca7 c13d ab04 3d3d 5d84 c6bd 547d 33bd
00000390: 3481 49bd 8287 443e 37d1 2d3e 034b 8e3d
000003a0: 0c4a 21be 3e33 a53d f8cd 32be 68e1 063e
000003b0: d0a9 d43c 9686 b43d faf5 2f3e cea5 3fbe
000003c0: fd35 053c 228b fe3d 1f76 ef3d 858b a03d
000003d0: f893 00bd a890 d03d 4bbd 223e 8df5 13be
000003e0: 21e7 ec3d a8d3 e8bd 3f1d 1cbe 961b 92bd
000003f0: 9ae9 cdbc d413 bbbd 3c69 443e 566c 80bd
-0.077408485 0.032464147 -0.08343048 0.17395382 0.01351515 -0.047963433 -0.00919795 -0.17199281
-0.14859043 -0.017814938 0.06569149 0.14060296 0.021993928 0.047383834 -0.103361435 -0.09740889
0.12842542 -0.1882744 0.024237579 0.02653276 0.0026875387 0.16674231 0.13716294 0.15802367
0.005062707 0.13097985 -0.02149453 -0.013347625 -0.057185195 0.05119191 0.099714205 -0.05019898
0.011772472 -0.0040070997 0.03557412 0.15748437 -0.13396391 0.09962913 -0.12936674 -0.15386781
0.12663013 0.0839544 -0.16714929 0.07409409 0.009056586 0.053736463 -0.13654312 -0.042598218
0.18993817 0.14858687 -0.013059461 -0.10118764 0.10615677 -0.13639395 -0.07659485 -0.089925714
0.12306839 -0.023559058 -0.13682163 -0.079530016 -0.07271308 -0.07220678 0.039357964 -0.077252954
-0.09539967 0.13680236 -0.08258985 0.18595782 -0.1577934 0.17205554 0.056968104 -0.013538388
-0.025356505 0.01453374 -0.07699349 0.016580893 0.06232728 -0.12669547 0.090572454 -0.09227374
-0.13142924 0.0953429 0.11466284 0.11148936 -0.058119625 -0.075441614 0.18785276 0.021601724
0.10234559 0.14020959 0.14531544 -0.047263436 0.10222558 0.056816187 0.03470496 0.044504065
0.048352607 -0.1294892 0.11793217 0.14466864 -0.17882736 0.06108445 -0.012535572 0.12803356
0.17627534 -0.15381049 0.012757234 0.19270904 -0.075881585 0.04551338 0.07412434 -0.03590624
0.18776816 -0.081016034 -0.09221562 -0.18529214 0.100822575 0.17367753 -0.06388984 -0.011509255
0.022236181 0.104338825 0.15873031 -0.066510074 0.0635223 0.12796433 0.16219164 -0.094273694
-0.1289946 -0.055609953 -0.09170248 0.16311859 0.009113213 -0.18552104 0.16992289 0.06766023
-0.18053196 -0.15286666 0.16299807 0.1602661 0.13455431 -0.1837703 0.016804382 0.07912497
-0.15237932 0.067002326 0.061915368 0.061792213 0.05223638 0.1375644 0.15467551 0.05405629
0.18904093 0.013256199 0.17410642 0.18020493 0.18802385 -0.18201666 -0.05186267 -0.1889701
0.003137098 -0.19258747 -0.15011023 0.14779592 -0.007882664 -0.17953387 -0.018178893 -0.13004388
0.11224101 0.17885332 -0.17111082 0.1864791 -0.15650523 -0.07949556 0.1492267 -0.090616755
0.0063080336 0.102853745 0.051968027 0.017123377 0.1634001 -0.1632287 0.066294186 0.061335664
0.03785523 -0.077052504 0.10317941 0.12682256 -0.11899179 0.027244668 0.07092472 0.16614135
0.15011016 -0.07241306 0.17645326 0.11078714 0.08168155 -0.17871812 -0.009830629 0.037771966
0.08110079 0.15498607 -0.009157906 -0.1702976 0.016794099 -0.13122872 -0.12725632 0.038348034
0.04333791 0.08942469 0.09563224 0.19073793 0.14373922 -0.015413126 0.015276111 -0.036581468
-0.0050880713 -0.027994407 -0.14806254 -0.1535177 -0.009995834 -0.12328189 -0.05184299 0.13763519
0.09455714 0.04614703 -0.09693215 -0.043820694 -0.049195483 0.19192317 0.1697434 0.06947901
-0.15750903 0.08066414 -0.17461383 0.13171923 0.02595988 0.08814733 0.17183676 -0.18715593
0.008130548 0.12428881 0.11692452 0.07839111 -0.031391114 0.10183841 0.15892522 -0.14449139
0.11567522 -0.11368495 -0.15245531 -0.07134168 -0.025135804 -0.09134641 0.19180769 -0.062706634

gru.bias_ih_l0 f4 [60]
00000000: 71eb e83d 6f75 d53d 073a 69bd 4af5 b4bc
00000010: 9801 df3d a0c3 303d ebe1 15bd 5d13 29be
00000020: 47af 4fbd 3aa1 073e 2859 cfbb 2819 09be
00000030: 34ee debd 29d7 3abe c25a 3cbe 53d5 213e
00000040: 40fc 14be 370e cc3d 6812 41be f345 373c
00000050: 6be9 303e 120c 663d cf17 153e df7c de3d
00000060: 6eae 3b3c be85 083e f1c4 893d 5295 2a3d
00000070: a42d cebd 2bb4 9b3d 8f06 a83d 7ac5 e53d
00000080: dceb 20be 3053 9dbd a889 0c3e d60f 2dbe
00000090: e5fe c9bc e4fb 2bbe 27f1 38bb 319a 24be
000000a0: d018 cfbd 29b3 11be 4356 47be 2703 6c3d
000000b0: 66c1 adbd 94b5 903d 5db0 32be 9e0d 113e
000000c0: a6b3 94bc 5bca c23d 2dfc b4bb d27c 1dbe
000000d0: de9d 1fbe 0702 e7bc ec43 1dbe 3724 f1bd
000000e0: 46af 123e e02e 9c3d 57d3 38bd b925 2bbe
0.11373032 0.10422789 -0.056940105 -0.02208962 0.10888976 0.043155313 -0.036592405 -0.16511293
-0.050704267 0.13245097 -0.006327767 -0.13388503 -0.108852774 -0.1824614 -0.18393996 0.15804033
-0.1454935 0.09963649 -0.18854678 0.011186111 0.17276542 0.056163855 0.14559864 0.10863661
0.0114551615 0.13332269 0.06727017 0.04164631 -0.10067299 0.07602724 0.08204376 0.11219306
-0.15714973 -0.076818824 0.13724387 -0.16900572 -0.024657676 -0.16795307 -0.002821991 -0.16074444
-0.101121545 -0.142285 -0.194665 0.057620194 -0.084841534 0.07065883 -0.1745009 0.14165351
-0.01815207 0.095112525 -0.0055232258 -0.15379646 -0.15587565 -0.028199209 -0.15357941 -0.117744856
0.14324674 0.07626128 -0.045123424 -0.16713609

gru.bias_hh_l0 f4 [60]
00000000: 7b3a 843d 380b d7bd 42c5 ea3d 898c de3d
00000010: d1e8 b73d d616 213e a1bb 763d 9d89 3ebe
00000020: 1d14 443e b23d 313e f416 e8bc 73ed eabd
00000030: 9007 02bd 00c6 d2bd 0dc3 38be aa0d 0d3e
00000040: f66d 02be f4a6 8e3d 2cef 303e c9d5 983d
00000050: e55b 30be 8542 f1bd cbfb 0bbe c170 163e
00000060: 5638 85bd 2be6 d5bc 421e 5ebd 9502 323e
00000070: f256 f5bc f240 15be 3963 2a3e 57d8 89bd
00000080: 669e f0bd 615e 0fbe 28f4 133e ceb9 ff3d
00000090: afee 2c3e f2db 2a3e aa7b d3bd 1bc8 13be
000000a0: 034b 003d 74e7 923d e1c6 873d 4b1e ce3d
000000b0: 018b 2d3e 6722 34be 26dc e3bd e0c4 f5bd
000000c0: 0ae9 7b3d 3593 49bd bf15 0b3e 55f1 2dbe
000000d0: 9caf ac3c 80a3 c1bd 8de4 1f3e be66 3a3e
000000e0: 5067 28be 130e a7bd 777a 293e ebde 2c3e
0.06456467 -0.10500187 0.11463405 0.10866649 0.08979953 0.15731367 0.06023753 -0.18607183
0.19148298 0.17308691 -0.028331257 -0.11471071 -0.031745493 -0.10291672 -0.18043156 0.13774744
-0.1273726 0.069654375 0.17278737 0.07462651 -0.17222555 -0.11780266 -0.1367027 0.1469145
-0.06504886 -0.02611073 -0.054228075 0.17383797 -0.029948685 -0.14575556 0.16639413 -0.06730717
-0.11748962 -0.14000846 0.14448607 0.12486611 0.16887926 0.16685465 -0.103263214 -0.14431803
0.031321537 0.071730524 0.0662973 0.10064372 0.16947557 -0.17591248 -0.11125974 -0.120004416
0.06150154 -0.049212653 0.13582514 -0.16986592 0.02107983 -0.09455013 0.15614529 0.18203256
-0.1644566 -0.08156981 0.16550623 0.16881911

gru.weight_ih_l1 f4 [60, 20]
00000000: bb55 af3d 228a 993a 4394 8c3d 7e31 18be
00000010: 27e4 22bd cfc3 0b3e 3450 13bb 0391 8a3d
00000020: 9ee3 ad3d 6a13 febc 1055 163e a915 1c3e
00000030: aee8 a2bb eb3f b7bd 076a b13d f10e 94bd
00000040: 6ef5 443e ceea 033e 891c 493d b793 a23c
00000050: 0334 d6bd 7a09 f2bd 7762 bc3c 6d3a b5bd
00000060: b699 ce3d a0d8 dcbd 012b 233e aa0d 083e
00000070: 7456 42bd ca65 2bbd 02ad 45be dd25 a1bd
00000080: 6965 3fbe d650 2c3e 62c1 30be 94a4 16be
00000090: 1b24 75bd 757e 963d 6f9c 893d b23a 8d3d
000000a0: 8036 85bd 76d3 11be 3a09 283e 27a2 28bd
000000b0: 2d81 14be 0dfd 333e 80dc 1a3e 1613 54bd
000000c0: 2160 893d 4fa6 8e3d 5b79 3fbe f30f 8d3d
000000d0: 43e5 44be 288c ecbd 69cd 303e 714f eabd
000000e0: 875b d3bd bfbc 0bbe 0f28 8cbd 5757 0a3e
000000f0: 7b52 093e a56b 003e 8721 2e3e 608a 903d
00000100: 0dca 203e e983 983d 3621 8d3d dfe8 e23d
00000110: 2b61 cd3d d2e2 75bd 9a00 c0bd 6b0f 2d3e
00000120: 2e47 283d 0eea f33d a5a8 15be e437 983d
00000130: d58b 0d3d 56c3 383e df7e 9b3d 0e57 9a3b
00000140: 8484 f63c d3e5 ae3d fba9 0dbe 855b 193e
00000150: 1481 37be a6bc d23d 71ee 84bd 9569 92bd
00000160: 6251 343e 70e5 27be 489f 153e 57e6 cebd
00000170: 04c9 2abe 1a73 3cbe 3ade 163e 5a8b 1dbe
00000180: acd1 d03d 7ef7 cdbd 4df4 ba3d d50d 9a3c
00000190: 97f5 2f3e b3b1 453e 7c82 5e3c f3ac 42be
000001a0: 4ab2 2a3e 512b 33bd 82aa 04be 2765 043d
000001b0: b931 343e 9395 08be ba9e e73d 6b11 37be
000001c0: 664b 18be 4279 febd e619 43be 1e74 443d
000001d0: e81e b43d caa8 0bbe de3f 26be 7305 12be
000001e0: 6a03 733d 3c7e bbbc f90c fd3d 4bff 06be
000001f0: 2a38 d03d 3cab c8bd 4da5 31be 10c8 1d3e
00000200: 07ba 0fbe b7ee 04be cc2e a1bd 8769 11bd
00000210: d391 343e f176 1d3e 1792 98bc 94cf bb3d
00000220: 0204 f2bc 46be 4ebc 6089 193e 08f9 16be
00000230: 396c 51bd 3f3f 4b3d 8e29 c83d 6071 203d
00000240: 212f 003e 95e0 443e 0901 d5bd aea2 4bbd
00000250: cbc8 45be 8534 243e 5676 1ebe 7679 953d
00000260: a407 003e 0d65 d33d 5503 4c3d d1d7 10be
00000270: af93 32be bd27 ce3d d810 8abd c686 1c3e
00000280: 713b f3bd d7ee 7cbd c88f 83bd 35d4 1e3e
00000290: d542 303e 4b81 633b 6bd0 18be 2927 70bd
000002a0: b8e2 0d3e 7aa4 43be 56dc 66bd e4f1 303d
000002b0: a81d 653d a8cb 2e3e d95b 0cbe 2f5c 313e
000002c0: 8879 163e fff2 18be 21a2 2c3e 2048 f03d
000002d0: b971 b03d 7463 ac3c 4aca 823d 6aa0 1ebe
000002e0: 6a97 183e 3ca7 e7bd 84d2 62bb c4cf 43be
000002f0: bf00 403e b0b7 a03d 9e74 e73c a0c9 1ebe
00000300: b180 183d f0b0 2abe 80f3 3fbe a3a1 1e3e
00000310: f15b 60bd 345c 87bd 1c9e 453e 4890 1cbe
00000320: 2cae 2a3e 5924 983d a047 0bbe 77c6 d1bc
00000330: c418 12be 8559 0fbd 62f0 1b3e 6910 8d3d
00000340: b737 45be 067e 0f3e 3a47 373e f9c5 0a3d
00000350: 7b00 a2bd 0847 a4b9 d150 07be f8da cbbc
00000360: 6fe1 ce3d a3d0 40be 0020 cf3d f0c3 343e
00000370: 4dbd 463d c9fa 123e 82ce 01bc 7ed7 233e
00000380: 1a35 2cbe 708f f1bd 18da 17be ac52 86bc
00000390: 145c f9bd 1f82 0c3e 4d6d b33d dd86 0fbd
000003a0: 274f 063e 8098 11bc ddfe bbbc 58da 1cbe
000003b0: 675b adbd 7008 00bd ead9 b2bd f89c c7bd
000003c0: 9868 8c3a d5f4 d9bd f6cc e83b b9c3 e1bc
000003d0: 0b2d 033e 3fe3 143e 1d0f 27be ef88 c7bd
000003e0: 9436 293e f45e 3cbe eca0 e0bd 64de 06bd
000003f0: d14b 1fbe 5d62 f6bc 4eed 1abe 31c6 1dbe
0.08561274 0.001171414 0.06864216 -0.1486263 -0.039768364 0.13648914 -0.0022478225 0.0676594
0.0849068 -0.031015117 0.14680886 0.15242638 -0.0049715852 -0.08947738 0.08662801 -0.07229412
0.19234249 0.1288254 0.04909948 0.019845827 -0.10459139 -0.11818214 0.02299617 -0.088490345
0.10087912 -0.107835054 0.15934373 0.13286462 -0.04744573 -0.04184512 -0.19304278 -0.0786855
-0.18691029 0.16827711 -0.1726127 -0.14711219 -0.059848886 0.073483385 0.067192905 0.06895961
-0.06504536 -0.14240822 0.1640977 -0.041170266 -0.14502402 0.17577 0.15123177 -0.051776014
0.06707788 0.069653146 -0.18698637 0.06887808 -0.19228081 -0.1155017 0.17265858 -0.114409335
-0.10320192 -0.1364622 -0.06843578 0.1350988 0.1341037 0.12541063 0.17004977 0.07057643
0.15702076 0.07447035 0.068911 0.11079573 0.10028299 -0.060030766 -0.09375115 0.16900413
0.041083507 0.11909877 -0.14615114 0.07432535 0.034557182 0.18043265 0.07592558 0.0047100848
0.030092485 0.08539929 -0.13834374 0.14976318 -0.17920333 0.10289888 -0.064907916 -0.071490444
0.1760917 -0.16396117 0.14611542 -0.101025276 -0.16678244 -0.18403283 0.1473321 -0.1538519
0.10196242 -0.10056971 0.09128628 0.018805424 0.17183529 0.19306068 0.013580915 -0.19011287
0.16669574 -0.04374248 -0.12955669 0.03232303 0.17597093 -0.13338308 0.113095716 -0.17877738
-0.14872512 -0.12425472 -0.19052848 0.0479623 0.087949574 -0.13638607 -0.16235301 -0.14259891
0.059329428 -0.022887342 0.1235599 -0.13183324 0.101669624 -0.09798285 -0.17348213 0.15408349
-0.14035808 -0.12981687 -0.07870254 -0.03550103 0.17633753 0.15377404 -0.018624349 0.09170452
-0.029542927 -0.012618607 0.1499381 -0.14743435 -0.0511286 0.049620863 0.09773551 0.039170623
0.12517978 0.19226296 -0.10400588 -0.04971569 -0.19314878 0.1603566 -0.15474829 0.072985575
0.12502915 0.10322008 0.049807865 -0.14144827 -0.1743915 0.10066173 -0.06741494 0.15285787
-0.11876572 -0.061751213 -0.064239085 0.15510638 0.17212994 0.0034714516 -0.14923255 -0.058631096
0.13856018 -0.19105712 -0.056362472 0.043199435 0.055936486 0.17069876 -0.13706912 0.17320322
0.14694798 -0.14936446 0.16858722 0.11732507 0.08615441 0.021043517 0.0638624 -0.1549088
0.1490151 -0.11311194 -0.003461034 -0.19122225 0.18750285 0.078475356 0.02825385 -0.15506601
0.037232105 -0.16669059 -0.18745232 0.15491347 -0.054775182 -0.06609383 0.19298595 -0.15289414
0.16668004 0.07428808 -0.13601542 -0.02560733 -0.1426726 -0.03499748 0.15228418 0.068878956
-0.19259535 0.14012918 0.17898265 0.033880208 -0.07910248 -0.0003133344 -0.13214423 -0.024884686
0.10101592 -0.18829589 0.101135254 0.17652869 0.048520375 0.1435348 -0.00792277 0.16000172
-0.16817132 -0.11794937 -0.1482929 -0.016396843 -0.12175766 0.13721512 0.08761082 -0.035040725
0.13116132 -0.0088864565 -0.022948677 -0.15317667 -0.08464699 -0.031258047 -0.0873297 -0.09746736
0.0010712324 -0.10642401 0.0071045114 -0.027559148 0.12810151 0.14539813 -0.16314359 -0.09742915
0.16524726 -0.18395597 -0.109681934 -0.032926932 -0.15556265 -0.0300762 -0.15129587 -0.15407635

gru.weight_hh_l1 f4 [60, 20]
00000000: a887 65bc 1e0b a53b 4918 cfbd 38b9 d13d
00000010: 9c69 073e a354 183e 326b 363e 00e1 1abe
00000020: 6fb4 223e e6b8 0a3e 21e2 cb3d 99d8 d8bd
00000030: fb68 bebb 8a05 40be a88a e03d b96a 28bd
00000040: 63bd 22be 396b 2d3e 06c5 ae3d 6824 febd
00000050: de55 373e f907 1bbe a64c 5abd ecc4 ae3d
00000060: 6492 e73b 138c b3bc 7b69 1a3e 4b5a b2bc
00000070: 1530 30bd d908 873d 6549 2c3c cb5d 8fbb
00000080: 3bc5 283e 86ae a2bc 1879 2fbe b0a8 96bd
00000090: a8f0 5cbd c719 433c 5f44 123e 9df3 b2bd
000000a0: 76f8 083e 529c 0ebe 120f a93d 7898 03be
000000b0: 4daf 8ebd ea3c 0f3d baeb c5bd 6cb4 463d
000000c0: e20c b6bd 47fb 0f3e 947b 1ebe 9d3a 0abd
000000d0: 6a19 c8bd 709b 42be 0ee0 663c ee4c 89bd
000000e0: 3433 1bbe b9bd 163e d1a4 2bbe b0ed 0fbe
000000f0: 5db8 f6bc 7227 eb3d d38e e9bd 6c55 5abd
00000100: 52e9 193e d41b 543d ff5b 20bd e5b9 233e
00000110: 709b ed3d 2b1d 32bd 9e03 12be 88b9 8b3c
00000120: 8f9a 96bd 766c b53d a080 f03b f0df 043e
00000130: ecbd c83d fb5c a73c f0b2 0abe e6c4 3abe
00000140: 58b4 01be 3c40 013e db51 b03d 55f7 9cbd
00000150: fc60 ae3d 4b1c cb3d c262 193e 3e7c a4bd
00000160: f6ba dd3d 9e43 11be 565c d73d 9d7f 33be
00000170: 528d 2cbe 01b1 5d3d cbd0 3dbe 9e1a 29be
00000180: a8e6 ed3d 9c04 203e 52aa 0e3e 9478 2ebe
00000190: e3cb 04bb bb94 223e 1038 f1bd 2941 9abd
000001a0: 67af bf3d 2f2c 9ebd 8dd3 8fbc fbc2 36be
000001b0: 2a87 253e 74b5 2cbe b93b cebd b6bf 8a3c
000001c0: 927f 0d3e aab0 2ebe bed2 fa3d fdb1 423e
000001d0: 334d 733c 8201 4dbd d3ae 423d 2a27 f9bd
000001e0: bd6d 94bd 2137 92bc 4d35 efbd 7462 a9bc
000001f0: 2b71 803d 779b 163d 6838 133e 32d3 863d
00000200: a35e 403e cc8f a93d a99c 09be a64f 25be
00000210: aef6 05be 7414 df3c ba90 f9bd e67c 403d
00000220: 0403 07be 476f bebc b5ed a13d c345 babd
00000230: 3872 eb3b e82f 0bbb a9b3 1a3d 6e92 8dbd
00000240: 51dc f9bd 4110 0bbe 849b 2e3d 6e68 74bd
00000250: 9244 d3bd f4fa 823d 2ea2 413e 5d58 063d
00000260: 15a1 cdbd 3aa3 3fbd 5101 be3d fa2b 043e
00000270: c776 35be d2ad 2dbd 5020 853d 9e80 63bd
00000280: 1f99 2fbe c772 973b 4c41 e13c f29c 88bd
00000290: b757 29bd cd48 bcba 8111 e73d 9dee 0b3e
000002a0: 0033 41bc bf53 3d3e fc0f 133e 71d0 503d
000002b0: 21fe e83d e6b9 253e d969 0d3d f313 8bbc
000002c0: 1acb 08be af3a e7bd c149 44bd dfc7 173e
000002d0: fdfe 3f3b 98ae 423e 627d 6dbb 5d2d c13d
000002e0: 7568 0fbe ffc7 36bd afd3 e8bd a4ed 1abe
000002f0: 9c5c eebc a593 143e 0b4e 25be eba2 12bd
00000300: ca4d 153e 6ef5 b93c 5df7 d93d ab4c 0abe
00000310: 26c9 273d f35e d3bc fd5d 2abe 0d5f debd
00000320: 29ff d03d bd8f 09bd aa18 32be 02e0 59bd
00000330: 71a5 f23d 10a4 f1bd a71d aabd 2330 d43d
00000340: cb56 163e 3635 9b3d 95a2 45be 6fb6 29be
00000350: a16c 103e da43 91bd 710d 093e 1530 cebd
00000360: def6 063e 1df1 a2bd 7942 2fbe 3b73 bebd
00000370: b2ca f3bc 1986 133e a899 a73d 14ee 373e
00000380: 9580 3ebe df04 1cbe 4f44 013e a99a ac3d
00000390: 681d 323e 210f 483d cd9b 20be 63df 8cbd
000003a0: adfd 9bbd bae8 6fbd e554 133d aee2 313e
000003b0: f412 b0bd 24da f4bd 2c99 ee3d e376 863d
000003c0: 06bb 383e 378d 34be 71b4 923d f74a 303e
000003d0: 6ad6 193e e738 cbbd 037e be3d e760 5dbc
000003e0: da95 313e 8748 c9bd 301a 6cbd 1a01 9b3d
000003f0: 5834 dd3d 54d9 2fbe 20d3 ee3d ea63 9b3d
-0.014009394 0.0050367257 -0.10112054 0.10240406 0.1322388 0.14876036 0.1781433 -0.15124893
0.15889142 0.13547096 0.0995524 -0.10588188 -0.0058108545 -0.18752113 0.109639466 -0.041117404
-0.15892558 0.16935433 0.08533673 -0.12409288 0.1790385 -0.1513976 -0.053295754 0.085336536
0.0070670117 -0.021917379 0.150793 -0.02177157 -0.043014605 0.065934844 0.0105155455 -0.0043751947
0.16481487 -0.01985861 -0.17136037 -0.07356393 -0.053940445 0.011908001 0.14283894 -0.08737872
0.1337603 -0.13926819 0.082548276 -0.12851131 -0.0696703 0.0349702 -0.09664102 0.048511907
-0.08889176 0.14060698 -0.15476829 -0.033747304 -0.09770472 -0.19004607 0.014091505 -0.06704126
-0.15156251 0.14720811 -0.16762091 -0.14055514 -0.030117208 0.11482133 -0.11404195 -0.05330412
0.15030411 0.05178435 -0.039150234 0.15988882 0.11601913 -0.043484848 -0.14259192 0.017056242
-0.073536985 0.08858578 0.007339552 0.1297605 0.0980185 0.020430079 -0.13544822 -0.18239173
-0.12666452 0.1262216 0.08609363 -0.07664362 0.08514592 0.09917506 0.1497908 -0.0803151
0.108266756 -0.1418595 0.105156586 -0.1752915 -0.16850784 0.054123882 -0.1853668 -0.1651406
0.1161626 0.15626758 0.1393216 -0.17038184 -0.0020263128 0.15877049 -0.11778271 -0.075319596
0.09359627 -0.07723271 -0.01755693 -0.17847817 0.16164842 -0.16866094 -0.10069985 0.016937118
0.13818195 -0.1705958 0.12247227 0.1901321 0.014849949 -0.050050266 0.047530007 -0.12165673
-0.072474934 -0.017848553 -0.11680088 -0.020676829 0.06271585 0.036769357 0.14376986 0.06583251
0.18786101 0.0827938 -0.13438667 -0.16143665 -0.13082382 0.027231432 -0.121858075 0.046994112
-0.13184744 -0.02324642 0.07906667 -0.09095337 0.007185247 -0.002123827 0.037768994 -0.06912695
-0.12200225 -0.13580419 0.04262878 -0.059669904 -0.10315813 0.06395522 0.18909523 0.032799114
-0.100404896 -0.046786524 0.09277595 0.129074 -0.17721091 -0.042402096 0.06500304 -0.05554258
-0.17148255 0.004621837 0.027496956 -0.0667056 -0.041343417 -0.0014364958 0.112826355 0.13665242
-0.0117919445 0.18488978 0.14361566 0.050980035 0.11376596 0.16184196 0.034524772 -0.016977286
-0.13358727 -0.1129049 -0.0479219 0.14822339 0.0029296272 0.19011915 -0.0036238064 0.094324805
-0.14004691 -0.044624325 -0.113685004 -0.15129715 -0.029096894 0.14509447 -0.16143052 -0.035799902
0.14580455 0.022700038 0.10642884 -0.13505809 0.040963314 -0.025802111 -0.16637416 -0.10857973
0.10204918 -0.033584345 -0.17392221 -0.053192146 0.11847962 -0.117988706 -0.08306437 0.10360744
0.14681546 0.075785086 -0.19300301 -0.16573499 0.14103939 -0.0709302 0.13384034 -0.10067765
0.1318011 -0.07956145 -0.17115201 -0.09299322 -0.029759739 0.14406623 0.081836045 0.17961913
-0.18603738 -0.15236233 0.12623714 0.084279366 0.1739403 0.048842553 -0.15684433 -0.06878545
-0.07616744 -0.058571555 0.035969634 0.17371628 -0.08597365 -0.119556695 0.11650309 0.065656446
0.18040094 -0.17631994 0.07163323 0.17216097 0.15023199 -0.09922963 0.093013786 -0.013511873
0.1734232 -0.098282866 -0.05764216 0.075685695 0.108009994 -0.17172748 0.11661363 0.075874165

gru.bias_ih_l1 f4 [60]
00000000: 6595 38bd a605 87bd 8ab3 8e3d 92bb bdbd
00000010: cf12 eabd 90db 263e 10bb 22be 93cc 293e
00000020: a195 eb3d 1684 173e 3ee1 093e 35ed db3d
00000030: 0739 813c 2584 6abd 362e 20bc d31f 3f3e
00000040: ca59 26be 2a97 1cbe 875e 87bd ed28 413e
00000050: 7a0b 76bd aa94 3ebe 1a96 84bd c357 293d
00000060: 64df fabd 4864 893d ce51 ddbd a8cd 89bc
00000070: 511d b4bd cf57 36be fde8 223c 621e 3cbe
00000080: 9ba8 16be ed5d 27be 6bbf 083e b3a5 dbbd
00000090: 1251 fbbd a0a4 1abe d68e d3bd 8f4e 15be
000000a0: c11e 36bd b8f5 57bd 2ebe 0f3e e029 193d
000000b0: 5444 d83d 29b0 773d 70e3 18be b7e7 bab8
000000c0: 3bfd 1d3e 7941 ccbd 5c8f d9bd 8f1c a5bd
000000d0: 033c e0bd 5b2c c4bd 256b 4d3d de29 d43d
000000e0: 985a c93d f4ab 313e d1c4 6a3c 5a11 60be
-0.04506435 -0.06592874 0.06967838 -0.09264292 -0.11429369 0.16294694 -0.15891671 0.16581945
0.11503149 0.1479648 0.1346483 0.10738603 0.015774263 -0.05725493 -0.009776643 0.18664484
-0.1624519 -0.1529204 -0.066098265 0.18863268 -0.06006954 -0.18611398 -0.06473942 0.04134346
-0.1224964 0.0670858 -0.10806619 -0.016821697 -0.08794654 -0.17806934 0.009943244 -0.18370965
-0.14712755 -0.16344424 0.1335427 -0.10724964 -0.12271322 -0.15101862 -0.10329978 -0.14580749
-0.044462923 -0.05272457 0.14037392 0.03739345 0.105599076 0.060470734 -0.1493051 -8.9123314e-05
0.15428631 -0.099734254 -0.10623047 -0.08062088 -0.10948946 -0.09578773 0.05015101 0.10359548
0.098317325 0.17350751 0.014329151 -0.21881619

gru.bias_hh_l1 f4 [60]
00000000: 2349 40be d205 fbbd 19e0 3dbd 7e1b 163e
00000010: cc53 12be c6bc 99bc 5832 0dbd 973d 853c
00000020: c871 373e 51ef 10be 3d6d 12bd 0eb2 343e
00000030: bdc4 debd 4afb c13d 27af 22be 218b ab3d
00000040: 5584 41be 31ec f73d 92a2 ae3c db72 0e3d
00000050: ad6e 993d 01f3 4c3d 2bbc 833d eb9a e43d
00000060: 0a09 3cbe 0a64 2cbe 5a9d b2bd a075 b23d
00000070: b786 8cbd 87f9 f63d 37f1 333e a7c0 04be
00000080: ec2d a93d da10 c1bd 72f5 21bd 953f 663c
00000090: c3d2 e23d d9d4 a8bd 28bc 253e b1a1 113e
000000a0: 44d7 8fbd 1f08 eebd dd7e babd 307e 1e3e
000000b0: 82f9 02be dc73 b2bd ad7b 263e beb2 0fbe
000000c0: a52b 9bbd b386 b53c 306f ecbc af86 c23d
000000d0: f373 1bbe 506e e93c 8e28 f63d e4c6 e93d
000000e0: cc19 2ebd e9cb dc3d d7f9 14be a9a6 9cbc
-0.187779 -0.122569695 -0.046356294 0.14658925 -0.14289778 -0.018766772 -0.03447184 0.01626472
0.17914498 -0.14153792 -0.03574871 0.17646047 -0.108773686 0.09471758 -0.15887128 0.08376146
-0.18898137 0.12105597 0.021317754 0.034777503 0.07491813 0.050036434 0.064323746 0.11162361
-0.18362823 -0.16835037 -0.08721419 0.087138414 -0.06861632 0.12059312 0.17572485 -0.12964116
0.08260712 -0.09427042 -0.039540716 0.014053245 0.11075356 -0.082437225 0.16185057 0.14221837
-0.070234805 -0.11622643 -0.091062285 0.15477824 -0.12790492 -0.08713505 0.16258116 -0.14033028
-0.07576684 0.022158956 -0.028861612 0.09498345 -0.1518095 0.028494984 0.12019454 0.114148885
-0.04250507 0.1078108 -0.14548431 -0.019122439

gru.weight_ih_l2 f4 [60, 20]
00000000: 709a 263c 5a0c 3dbc 2f28 1fbd 04f2 1d3d
00000010: 631d 3bbe 9bf3 afbd 2d41 d23d e9bc 403e
00000020: 3525 44bd 9659 983c 368b b2bc 46d1 91bd
00000030: 81c5 b53c 9f4c 33bd 26d5 e93d fb45 833d
00000040: 2299 ab3d 5921 25bd e144 9ebc 8437 dabd
00000050: e1d5 be3d 25f3 cbbd 3f2c 83bc 4358 98bd
00000060: a6b7 1a3e 0343 213e 04b0 f53c 38eb d73b
00000070: 6079 f53d 6eae f23d 7301 393e 0a03 7abc
00000080: 7fc4 cdbd 030b 2b3b a7df 2ebe fac3 b4bc
00000090: 6fa2 2cbe 224e 0b3d cea9 873d 2ab8 30be
000000a0: a961 223e ad99 4b3d b92c cd3d cca2 abbd
000000b0: aa2e 273e bacd 72bc fe01 323e 7b91 893d
000000c0: e192 173c 9fe2 403e d175 0ebe 1841 11bd
000000d0: 2ffc 573d f221 75bd c439 0ebd 32e4 eb3d
000000e0: 9ed3 df3d 7fb7 22be af79 8fbd 48ee c03c
000000f0: 206e 84bc 7e21 703d b86c d8bd 3051 d4bd
00000100: d5b5 c43c 571a 223e b769 e2bd 465e 36be
00000110: 9475 253e b24f fb3c 4d7a a5bd a2a7 91bd
00000120: 5def 1fbe 9f41 1bbd ce27 063e a19d a53c
00000130: 4ec4 e6bd 6178 a4bc 07d4 d03d 1731 83bd
00000140: 3607 aa3b 1083 e8bc 8892 313e 309d 433e
00000150: 704f 08bd 9b54 783d 9a2e 45be 6a5b 3ebe
00000160: b593 fdbd d9ba 41be 72b7 44bd 13ac 063c
00000170: 3caf 26be e86c d93c 7bc2 67bc ef4e 303e
00000180: 6662 3dbc 22ab 353e 813f cfbd 02b9 92bd
00000190: e1d1 033e 5c61 163e 969e 15be bcaa 273e
000001a0: b5ba 17be 1cfd a9bd e5c9 32be 5e78 45bd
000001b0: bd64 fabd 36b3 bd3d 4365 19be 8f15 2fbd
000001c0: a164 123e 0245 f8bd da13 3c3e 21f2 113e
000001d0: 3e8b 26bd 3fea 0bbc bf27 433d dd57 85bd
000001e0: fdc4 013e 5f6d 2bbe 9655 49bd 2fd1 bcbd
000001f0: 9de5 08be f9d5 4abd 0733 233e a52c 1bbe
00000200: 2c1d 253e 87ee b93d 1796 cabd aad5 123c
00000210: 68a3 f93d a7f9 35bd ae66 32be a3cd 1f3d
00000220: 8042 d7bd 8474 32be da26 ac3d a955 443e
00000230: 33a2 33be d683 893d 6dc7 23bd d7e9 b1bd
00000240: bbbf 1a3e a175 8abd 2685 3ebe 370e 253e
00000250: 3a2c 75bd d2fa 823d 999b de3d 9624 8e3c
00000260: bd11 f3bd a342 c33d b12d 2abb 1e66 ff3d
00000270: d4c4 08be afde 5abd 73c3 3bbe 80f7 25be
00000280: 0bf1 03be 44c2 f1bd 83db 0c3d 3cf3 073e
00000290: 08aa acbd bdf0 933d c47f 033e cc26 0ebe
000002a0: 2ae9 a3bd 64eb 333d 073c 1ebe dd3a 633c
000002b0: 6b2c bf3d 1615 3c3e 96a9 fc3d 4d8e adbd
000002c0: 953c c73d 776b 5cbc 5543 3cbe 93fa b43d
000002d0: 30cc bb3d f2fe b6ba 7f45 b53d 1ef0 c5bd
000002e0: a8e5 b13d fee4 f5bd 9dc4 313d 4e8d 863d
000002f0: b7e7 0d3e ac43 043e 73de d6bd 2c9a e8bb
00000300: 8f20 24bd 8a87 103e d669 25be 88d4 ac3d
00000310: f99a 37be b91c ea3b 62f1 773b cb71 d9bd
00000320: 187f a33c 4cb3 38bc aece 47bd 0737 3bbe
00000330: 68f5 0d3e a6fc 453e 73aa 2a3d dc28 18bc
00000340: f80e 60bc da8f 703c 469a 31be 08a7 cfbd
00000350: 9289 33bd 1e01 16be c9d8 933d 11d9 07be
00000360: 1214 1a3e db98 44be 5d1a 5f3d 03bd 19be
00000370: ce90 083d 1030 aebd 2d3e 983d 9a6a ba3d
00000380: 5aaa 7e3d 4f41 ec3d b430 31be a7e3 0e3c
00000390: bbe7 aebd d7c9 21be 632f 233e 233d 443d
000003a0: 5fb9 023c c66f 453e 4988 00be 98f7 3c3e
000003b0: a271 023e dbdb f9bd f6fc 37be 7471 923d
000003c0: d38b ce3d 2c5c 13be d1a3 f2bc dbd2 243e
000003d0: adba 3a3e 47b0 d7bc 3e54 d7bd 4823 44be
000003e0: a1ed 263e 73e4 3d3e b9e4 213e 795b 3a3e
000003f0: 043c 22be fd08 c13d 9c9b 45be 892d 38be
0.010168657 -0.011538589 -0.03885668 0.038560882 -0.18272929 -0.08591386 0.102663375 0.18822064
-0.047887046 0.018597405 -0.021794897 -0.07119994 0.022188904 -0.043774243 0.11417608 0.06409832
0.08378817 -0.040315006 -0.019319953 -0.1065512 0.09318138 -0.099584855 -0.01601231 -0.074387096
0.15109119 0.15748219 0.029991157 0.0065893196 0.11986041 0.11849676 0.18066959 -0.015259514
-0.10047244 0.0026099093 -0.17077504 -0.022066105 -0.16858838 0.03401006 0.066241845 -0.17257753
0.15857567 0.049707104 0.10018296 -0.083806604 0.16326395 -0.014819557 0.17383572 0.06717201
0.009251327 0.18836449 -0.13912131 -0.03546247 0.052730735 -0.059846826 -0.03472306 0.11518134
0.10929035 -0.1589031 -0.07005631 0.023551121 -0.016165793 0.05862569 -0.105676115 -0.10367048
0.024012486 0.1583036 -0.1105532 -0.178094 0.16158134 0.03067765 -0.08079968 -0.071120515
-0.15618654 -0.037904378 0.13101122 0.020216765 -0.11267911 -0.020076932 0.10196691 -0.064058475
0.005188848 -0.028382808 0.17341053 0.19102931 -0.033278883 0.06062756 -0.19256058 -0.18589559
-0.123816885 -0.18918933 -0.04802651 0.008219737 -0.16277784 0.026541188 -0.014145489 0.17217611
-0.011559105 0.17741063 -0.10119534 -0.07164194 0.12873031 0.14685577 -0.14611277 0.16373724
-0.14817317 -0.0830023 -0.17459829 -0.048210494 -0.122262456 0.092626974 -0.14980035 -0.04274517
0.142962 -0.12122537 0.18366948 0.14252521 -0.040660135 -0.008539735 0.047645327 -0.06510899
0.12672801 -0.1674094 -0.049153887 -0.09219586 -0.1336884 -0.049520466 0.15937434 -0.1515375
0.1612441 0.090786986 -0.098919086 0.008962074 0.121893704 -0.04442754 -0.17421982 0.03901447
-0.10510731 -0.1742726 0.08405848 0.19173302 -0.17542343 0.06714599 -0.03998511 -0.086871795
0.15112202 -0.06760717 -0.1860548 0.16118704 -0.05985663 0.063954964 0.10869522 0.01735143
-0.11868618 0.09534194 -0.0025967176 0.12470649 -0.13356334 -0.053435024 -0.18336277 -0.16207695
-0.1288492 -0.11804631 0.03438903 0.1327638 -0.084308684 0.072236516 0.12841707 -0.13881987
-0.08003457 0.043925658 -0.15452586 0.013869015 0.09334644 0.18367419 0.123370335 -0.08474407
0.09728352 -0.013453356 -0.1838506 0.08836856 0.09169805 -0.0013961478 0.08851146 -0.09664939
0.086863816 -0.120065674 0.043400396 0.065699205 0.13857923 0.1291644 -0.104916476 -0.007098457
-0.040070113 0.14114204 -0.16153654 0.084389746 -0.17930211 0.0071445373 0.0037833084 -0.106174074
0.019958064 -0.011273216 -0.04878109 -0.1828271 0.13863146 0.19334659 0.04166646 -0.009287085
-0.013675444 0.014682734 -0.17344007 -0.101392806 -0.04383237 -0.14648864 0.07219083 -0.13266398
0.15046719 -0.19198935 0.0544685 -0.15013508 0.03334122 -0.08505261 0.07433734 0.09102364
0.06217418 0.11535894 -0.17303735 0.008721269 -0.08540293 -0.15799652 0.15936045 0.047909867
0.007978766 0.1928092 -0.12551989 0.18453825 0.1273866 -0.12200137 -0.1796759 0.07150546
0.10085263 -0.1439063 -0.02961913 0.1609606 0.18235274 -0.026329173 -0.10514115 -0.19154084
0.16301586 0.18544178 0.15809907 0.18198957 -0.15843207 0.094255425 -0.19297642 -0.1798612

gru.weight_hh_l2 f4 [60, 20]
00000000: ffdb 31be 734a 94bc 6d60 31be 20d4 a33d
00000010: c34f b6bc 3bbe f03d c574 f6bd 3a9e 17be
00000020: b699 35bd 3171 cabc c57a 12be b788 323e
00000030: 4ad8 85bd 5ce5 e13d 8671 3b3e d282 94bc
00000040: 6c57 19be 58b0 3fbe 66fd f9bd 9fea 3dbe
00000050: 2007 363e 090c 1dbe 69ce 453e 8962 00be
00000060: 650a 30be 789d 1f3d a1ec 53bc 28bd e13d
00000070: da5b 34bd 0baf 08be 48b9 063e 0ae1 2abe
00000080: b93f 14be 6bd3 70bd f4d1 edbd 4cb3 b8bd
00000090: 9a87 f4bd 28bc 25be 8980 70bd 5246 77bd
000000a0: 5e54 343e 935e 0e3e e738 14be 7314 efbc
000000b0: cb11 acbc accb 1ebe a772 e63d b6a0 ba3b
000000c0: a759 303e 2185 c9bd 46cd cd3b 0d20 c0bd
000000d0: 86a9 26be 1ccf e63c 3eb2 773d 3fa9 4a3d
000000e0: bd93 3c3e 1449 3dbe 402a 353e 9acc 9cbd
000000f0: 4ad2 773c 35d5 8dbd af4b ce3d 7e3b 7fbd
00000100: 3f95 183d e5ac 363e 965e 303e 3f64 f13d
00000110: 51e5 15be 94e7 253d 1a8a 1ebd 5381 f5bd
00000120: ce9e 293e f9aa 213d 07b6 3abe 9450 b5bc
00000130: 4476 32be 44ea 093e 9c7b 1e3e 15e8 113e
00000140: 5c6a 69bd 66b0 dbbd 842a 123d be98 d6bd
00000150: 6ab6 68bd 590f 07be 5716 083e 5566 e3bd
00000160: 1c3b a9bd e058 ccbd efc1 adbd 3b9c dbbc
00000170: f03b 923b e7af 69bd 5c9b 15be d22f e03d
00000180: 8fd3 333e 98d4 0cbe 76aa 023d 8f8c 20be
00000190: 00d0 38be 7361 af3d e74d 1abe adde cfbc
000001a0: 3023 1bbe 60fc 053e eab6 aabc 2777 aabd
000001b0: 0980 2f3e 267a 153d c115 443e 17dd ad3d
000001c0: 93df 773c 9cc3 24bd e824 f5bd 682f 1abe
000001d0: 4718 3c3e 9760 b93d a5dd 123d ce1b 973d
000001e0: 1029 01bd e4ce 25be 2992 163e 254f 143d
000001f0: a96a dfb9 5f5d 133e 35cf 29be 2697 9e3d
00000200: e061 e7bc 0e3a 3a3d 1b1e 80bc 4019 e0bd
00000210: 2fa4 c63c ae70 4f3d 8bfd a0bd 5b13 e3bd
00000220: 2255 0abd 5975 823d 8ab5 b73d 2e54 143d
00000230: 9726 153a 3c3b 163d 81b3 e63d 2b69 f2bd
00000240: 7cb0 663b 8bd5 9ebd 9004 1bbe c27e eabd
00000250: 1c83 01be ef83 10be 57d8 ecbd 2a4a 90bd
00000260: a67a babd a6b6 003e ed18 d93d 0324 61bd
00000270: d7d5 27be 1ea8 ef3d ee7a bebd 2260 1b3e
00000280: 12cc 24be 7fcf 29be 6a1a dbbd fd99 8a3d
00000290: 726f 68bd 4ef1 1a3e e127 33be 50ff bc3d
000002a0: 291b 953d 37f0 163e ec15 64bd f58b bd3d
000002b0: 0150 7fbd 3e0a 23be a9d7 443e 1de9 4abd
000002c0: e4f2 febc 5ca4 3c3d 23ac 07be 5b21 13be
000002d0: bcf8 22be c5df 843d dfc9 d4bd 3c40 fe3c
000002e0: 671a 273e 78be 0f3e 1bdf 353e 4143 1d3d
000002f0: de6d 3cbe e162 b83c 2646 313e 0af1 d13b
00000300: 3a54 b73d f144 ac3d 89ad 7b3d b598 1d3e
00000310: 3e7d 0a3e ec84 873d 28a0 423e f7df d1bd
00000320: 911b 773d 0731 8a3d 737b acbc fede 763d
00000330: 5128 133e b44b d13d 5b64 df3c 200f 6bbd
00000340: aea1 193d 49ac 883d 59b3 9cbc 5d96 45be
00000350: 4f11 20be 4a8d 343e 38c6 4e3d 8fde fd3c
00000360: 1148 cebd 4e00 453e 9753 bd3d 3496 e5bd
00000370: 58e2 2abe 1cbf 093d 45fb e4bd f721 323e
00000380: 3b8e 20be 1770 36be b7e7 3bbe 19f1 13bc
00000390: abb5 16be b965 fa3d cbfa 443e fa4b 80bd
000003a0: 3b2a 0f3e 1ab3 f9bd 06f0 35be 3880 903d
000003b0: b9e4 10bd fd9b 33bd 30e1 393e f65f 28bd
000003c0: 6c36 d2bd 1b29 aebd 592a 1a3e 035f 70bd
000003d0: 46f7 18be bb60 10be 527d 3c3e 4550 e7bc
000003e0: 9e86 2f3e b26f 9d3d f709 1e3d 828f 75bd
000003f0: 4c76 1c3d 6e19 3ebe e9b0 373e 2885 083e
-0.17369078 -0.018101906 -0.1732194 0.07999444 -0.02225483 0.117550336 -0.12033991 -0.14806452
-0.044336043 -0.024712177 -0.14304645 0.17434965 -0.065353945 0.11030075 0.18305025 -0.018128786
-0.14974755 -0.18719614 -0.12206535 -0.18546532 0.17776155 -0.15336622 0.1931702 -0.12537588
-0.17191465 0.038968533 -0.012934835 0.11022407 -0.04403291 -0.13348024 0.13156617 -0.16687408
-0.14477433 -0.058795374 -0.11612311 -0.09018573 -0.119399264 -0.16185057 -0.05871633 -0.060369797
0.17610309 0.13903265 -0.14474832 -0.029184556 -0.021004578 -0.15507382 0.11252337 0.005695428
0.172217 -0.098398454 0.006280574 -0.09381113 -0.16275606 0.02817493 0.06047272 0.049477812
0.18415733 -0.18484908 0.17691898 -0.07656212 0.01512582 -0.06925432 0.10073029 -0.062312596
0.037251707 0.17839392 0.17223582 0.117866985 -0.14638259 0.040504053 -0.038705923 -0.11987557
0.16564485 0.039469693 -0.182335 -0.02213315 -0.17427927 0.13468271 0.1547684 0.14248689
-0.056986198 -0.10727005 0.035685077 -0.10478352 -0.05681459 -0.13189448 0.13289772 -0.11103503
-0.08263227 -0.09977889 -0.084842555 -0.026807895 0.0044627115 -0.05705252 -0.14610046 0.10946621
0.17561172 -0.13752973 0.031900845 -0.15678619 -0.18048096 0.08563509 -0.1506878 -0.025374735
-0.15150142 0.13084555 -0.020839173 -0.08323508 0.17138685 0.036493443 0.19148923 0.08489435
0.015128988 -0.04022561 -0.1196993 -0.15057147 0.18368636 0.09051626 0.035855908 0.0737835
-0.0315333 -0.16192204 0.14704193 0.03620829 -0.00042613343 0.14391087 -0.1658295 0.07743673
-0.028244913 0.04546552 -0.015639355 -0.10942316 0.02424821 0.05064457 -0.078608595 -0.11087676
-0.033772595 0.063700385 0.08970173 0.036213093 0.0005689649 0.036677584 0.112647064 -0.118364654
0.0035200408 -0.07755574 -0.15138459 -0.114499584 -0.1264767 -0.14112829 -0.11564701 -0.07045396
-0.091054246 0.12569675 0.10600457 -0.054965984 -0.16390167 0.11701988 -0.09300791 0.1517339
-0.16093472 -0.1658306 -0.106983975 0.06767652 -0.056746908 0.15131113 -0.17495681 0.092283845
0.07280571 0.14740072 -0.05568497 0.0925521 -0.062332157 -0.15921876 0.19222893 -0.04953872
-0.031121679 0.046055183 -0.13249259 -0.14368193 -0.15915197 0.06487993 -0.10390066 0.031036489
0.16318665 0.14037502 0.17760889 0.038394216 -0.18401286 0.022508087 0.17311916 0.006406908
0.08951612 0.08411587 0.061444793 0.15390284 0.13524339 0.0661715 0.19006407 -0.10247796
0.060329024 0.067476325 -0.021054959 0.060271256 0.14370848 0.10219517 0.027269533 -0.05738747
0.037507705 0.06673486 -0.019128488 -0.1929564 -0.15631603 0.17632023 0.050482005 0.030989913
-0.10072339 0.19238397 0.09244459 -0.112102896 -0.16687906 0.03362952 -0.11180738 0.17395769
-0.15679257 -0.17816196 -0.18350111 -0.00902965 -0.14717738 0.12226433 0.19236295 -0.062644914
0.13980953 -0.12192364 -0.17767343 0.07055706 -0.035374377 -0.043849934 0.18152308 -0.04110714
-0.102642864 -0.08503934 0.15055217 -0.05868436 -0.14938077 -0.140994 0.18407181 -0.028236518
0.17141196 0.0768732 0.038583722 -0.059951313 0.038198754 -0.18564388 0.1793858 0.13332045

gru.bias_ih_l2 f4 [60]
00000000: 593e 2cbe fe51 bebd ba44 e9bd a01f ebbd
00000010: ae7b 39be fdf0 193e 1b51 343c 1a56 0a3e
00000020: f2f4 293e 27cc 11be 078d ba3d 3de1 103d
00000030: c286 7dbd 79f0 a8bd 8438 bcbc d9c0 2d3d
00000040: 734f 87bd 1951 3d3e 9c71 403e f793 963c
00000050: 8581 28be 8231 1abe 2b59 b0bc f8c8 fd3b
00000060: 7901 963c 3a11 eebd 1e26 09bd abb3 1dbe
00000070: cd7a e93d d1da aabd 80df 34be 011d 0dbe
00000080: e1ae a03d a2a2 f73c 9cb2 33be 04b6 7e3d
00000090: 0dfb b4bd b8ad acbd 3792 253d b03a f93d
000000a0: 66c2 afbd 0537 b4bd 8977 1d3e ceb4 593e
000000b0: 34ac 173d 011b b6bd 71bc 4ebd ecef de3d
000000c0: 59ff 12be 88e0 3abe 2b4d 9f3c 8ee3 b13d
000000d0: 1ee0 bcbd e553 c03d 699a 9abd be41 59be
000000e0: 922b fabd acd1 da3d b897 163d 1235 0c3b
-0.16820659 -0.092929825 -0.11390062 -0.11480641 -0.18113586 0.15033336 0.011005665 0.13509408
0.16597345 -0.14238034 0.0910893 0.035371054 -0.061896093 -0.082489915 -0.022976168 0.042420242
-0.066069506 0.18487968 0.18793339 0.018381102 -0.16455658 -0.15057948 -0.021526894 0.0077449046
0.01831125 -0.116243795 -0.033483617 -0.15400569 0.114003755 -0.08342517 -0.17663383 -0.13780595
0.078458555 0.030228917 -0.17548603 0.062185302 -0.08836947 -0.08431572 0.040422644 0.12169397
-0.085820004 -0.08799557 0.1537763 0.21260378 0.03702946 -0.08891869 -0.05047268 0.10885605
-0.1435522 -0.18249714 0.019445976 0.08685981 -0.092224345 0.093910016 -0.07548983 -0.21216485
-0.12215342 0.10684523 0.036765784 0.0021393937

gru.bias_hh_l2 f4 [60]
00000000: cc89 183e e6c2 87bd dc2a b53d d9f3 d73d
00000010: fecc 14be ba0d 073d 4255 2c3d 1198 6dbd
00000020: 117f 24be aae5 2cbd b62b a6bd 92ad 283e
00000030: 73bc c53d c569 29be 1ba6 82bd 23d0 f0bd
00000040: de45 e43d 84e1 e53d dea2 edbd c33e 0dbe
00000050: 4748 12be 7c1a 75bd 1740 203e dae2 d5bd
00000060: 7cd0 22be e29c 00be 24d8 063d c069 c9bd
00000070: fa4f 8c3d aae5 af3d e732 fb3d aae3 e13c
00000080: 04d8 17be f453 2b3e 15e4 2a3d e6fb 883a
00000090: 1bec 06bd 73f4 b33d 5e6d 2bbe 767f 42bd
000000a0: 5454 d8bc 3900 883c bd84 29bd 153d bcbc
000000b0: 243d 24be 259f 963c a4b7 21be 2987 efbb
000000c0: b60f c4bd 1bc4 063e 2082 1c3e c78f b3bd
000000d0: fe26 223e 7e7d 7bbd ec3d 333e 1726 1ebd
000000e0: 4b2e 263d 00fa f9bb 08f6 58bd f250 28be
0.14896315 -0.06628971 0.088460654 0.10544557 -0.14531323 0.032972075 0.042073496 -0.05800635
-0.16064097 -0.042211212 -0.08113806 0.16472462 0.096550845 -0.16544254 -0.06379338 -0.11758449
0.111461386 0.11224654 -0.1160333 -0.13793473 -0.14285384 -0.05983971 0.15649448 -0.10443659
-0.15899843 -0.12559846 0.03292097 -0.09834623 0.06851192 0.08588727 0.12265568 0.027574379
-0.14828497 0.16731244 0.041721422 0.0010451048 -0.03294001 0.08786859 -0.16740939 -0.047484837
-0.026407398 0.016601669 -0.041386355 -0.022978345 -0.16038948 0.018386433 -0.1579271 -0.0073098135
-0.09573309 0.13160746 0.15284014 -0.08767658 0.15835187 -0.061398976 0.1750409 -0.038610544
0.040571492 -0.0076286793 -0.05296901 -0.16437128

gru.weight_ih_l3 f4 [60, 20]
00000000: fe4d 4f3c 544c 04bd cb4e c5bc 8386 733a
00000010: 6d8f d6bc 87bb 463c 8fda d43c 835a 1dbc
00000020: 28e8 17be 95c1 8a3c 2cdb 393c 5e4b 663d
00000030: 9174 1e3e b1b5 0f3e ac51 373d dbc0 0dbd
00000040: 9bf1 55bd ee5e e4bc 8fa3 40be 7b09 8fbd
00000050: 7749 18be 4543 6abb f1a5 043d d931 9d3d
00000060: 2a59 89bd 65be 6ebb 1d66 48bc 58b3 15be
00000070: 27d0 323d 51d2 173e 79ff 44be 9593 ee3d
00000080: 731a 45bd 48eb c4bd 8f5c e83d 2b2c 053e
00000090: 3e4d f43d 42a5 f4bd 31ac 013e 3e22 46be
000000a0: b9bb 2dbe 8380 8abc 0da8 883d f9a3 29bd
000000b0: 041a 8cbd 9b4b 39bd c5e0 c33d 09f0 c6bd
000000c0: fca7 44be 95fa f73d e40a 0d3e 2602 103d
000000d0: 5349 38be 749b 08bd e993 16be 6ef9 b63d
000000e0: 57ea 0dbe fe49 323d c460 36be 3b88 073d
000000f0: 00d7 9c3d fd5e c23c f6b5 01bd e92f c6bc
00000100: fe1d 39be fc36 ffbd d512 69bc 41c8 8d3d
00000110: cc23 3cbe 6fbe 9e3d cd62 0c3e 1efc a9bd
00000120: c65d 60bc 4347 37be a890 0ebe 95f2 ccbd
00000130: 1078 be3d 31e3 7e3c 8758 d5bd 1bc0 403e
00000140: b653 b9bc 5ebb 243e 32cc f93d 6af0 023e
00000150: 3488 23bd c4d7 30be 1770 a43d a27d 2bbd
00000160: 8254 19be fe2d 363d d56c 34be e2af afbd
00000170: be78 823d 211c ebbb 7bf6 323e f830 3d3d
00000180: 75af 3dbe b317 c63c 7905 f03d 3900 a0bd
00000190: afc6 183e ccfa 8fbb 9473 3abe 993e 2a3e
000001a0: 79d3 20be b7d7 063e 1877 b43d 8597 44be
000001b0: dd84 edbd 6fa4 f5bd f27c 9fbd d7d8 9b3d
000001c0: 02ec e13c 1f04 b4bd 66f2 c2bc 4285 c23d
000001d0: 02e4 10bd 7bd7 e3bc a6d2 85bc 7b02 35bc
000001e0: 9b58 afbd 2034 11bd 5985 35be d805 19be
000001f0: 9a1e e3bd d9f7 62bd a505 16be 2685 90bb
00000200: 772c 0f3e daf1 d03d d9e0 33be c62c 91bd
00000210: c447 2b3d a7f5 e53d ba7a 71bd 82ad 3ebe
00000220: 9b59 cf3d 88c9 2b3d 5743 c3bd c850 883d
00000230: 0fbb 17be 3775 3bbe dec2 b1bd 4ede e9bd
00000240: cd5d f13b 6da8 903d fa50 263e 6719 c8bd
00000250: a424 193e 8943 e93d e6b6 213e e5f0 6f3d
00000260: 027f de3b 9d43 3fbd c622 00be a5bd dbbd
00000270: bbbe 93bd dbc9 813d e80d 44be 6b31 aa3d
00000280: 32bd 283e 8cb6 22be 474f 54bd 97ba a53d
00000290: 21ce aebd 5f62 203e 4f01 d8bb 55b9 45be
000002a0: 8045 2abe 800e eb3d b330 3a3e f998 82bd
000002b0: c42c 2b3e 3e88 413e 8e0c d7bd e36b 013e
000002c0: 2c27 2b3e f99d c6bd 1664 9e3d 5e29 9ebd
000002d0: eee9 9bbc e33c a13d e2d5 0f3e cead 0a3e
000002e0: 2a70 ba3d e1f9 8fbd a840 b2bd 5e2b 52bd
000002f0: 2acd 25be b23f c43d 2445 f43c 4816 243e
00000300: 1746 40be 8a4c dabc 3232 e53c 9674 7e3d
00000310: 9dc4 17be 8bf0 373e a704 293e ff0b e7bc
00000320: f1ff 04bd 02d0 02be ed64 3cbe bb68 283e
00000330: 0010 63bd 321f fcbd f733 c53c e8d4 2ebe
00000340: 9492 76bc 5759 003e 1541 873d 2e6d 1f3e
00000350: ac0b 2bbe 5509 8b3d e8b6 61bd 5152 0cba
00000360: 97f5 acbd 4f7e 833d 9e53 df3d 67ef 063e
00000370: 2db8 26be b394 f0bc d6de 8cbd 8025 22be
00000380: 74e4 0dbd 7ff9 443e 6f79 023e d10f 38be
00000390: 63ba 2fbe fa6f 62bd a955 233e de3c ec3d
000003a0: 2f37 153e a9b6 083e cd81 1fbd f8af 3bbe
000003b0: d7fd e8bd 9f1a 04be c019 1bbd 62c8 14bc
000003c0: ca3e 2bbe bc72 733d 0eb6 39bc fa7f d03c
000003d0: 8b68 a6bd 3970 f1bd 1526 1a3a aee1 a63d
000003e0: 117d d9bd 9aba 33bd 3fb0 45be a1ca 4f3d
000003f0: 8892 dc3c ab91 80bd 40aa 0839 c41e 20be
0.012652872 -0.032299355 -0.024085423 0.0009289758 -0.026191438 0.012129671 0.025983123 -0.009604099
-0.14834654 0.01693801 0.011343759 0.05622422 0.15474154 0.14034154 0.044755623 -0.03460775
-0.052232366 -0.027877297 -0.18812393 -0.0698423 -0.14871775 -0.0035745662 0.032384817 0.07675523
-0.0670646 -0.0036429402 -0.012231377 -0.14619195 0.04365554 0.14826323 -0.1923808 0.11649243
-0.048120927 -0.09615189 0.11345779 0.1300513 0.11928795 -0.11945583 0.12663342 -0.19349
-0.16966142 -0.016906982 0.06672678 -0.041416142 -0.068408996 -0.04523812 0.09564356 -0.09713752
-0.19204706 0.121083416 0.13773686 0.0351583 -0.17996721 -0.033351377 -0.14704861 0.08934294
-0.13858925 0.043527596 -0.1781035 0.033088904 0.076581955 0.023726935 -0.031667672 -0.024192767
-0.18077847 -0.12461659 -0.014225681 0.06922961 -0.1837303 0.07751166 0.13709565 -0.08300041
-0.013694232 -0.17898278 -0.1392237 -0.10007206 0.09300244 0.015557096 -0.10417276 0.18823282
-0.022622924 0.160871 0.1219715 0.12787023 -0.039924815 -0.17269808 0.08029192 -0.04186786
-0.14973643 0.044477455 -0.17619641 -0.08578469 0.06370686 -0.007174984 0.17476837 0.04618928
-0.18523963 0.024181223 0.11719794 -0.078125425 0.14919542 -0.004393911 -0.18208152 0.16625442
-0.1570567 0.13168226 0.08811778 -0.19198425 -0.11597607 -0.11994254 -0.07787503 0.07609718
0.027578358 -0.087898485 -0.023797225 0.09498073 -0.035373695 -0.02781271 -0.016335797 -0.011047955
-0.08561822 -0.0354501 -0.1772665 -0.14943635 -0.11089821 -0.055412147 -0.1465059 -0.004410404
0.13981806 0.102023795 -0.17566241 -0.07088618 0.041816488 0.11228495 -0.05895493 -0.18620875
0.10124513 0.041940242 -0.095343284 0.06656033 -0.14817451 -0.18306433 -0.08679746 -0.114193544
0.0073659183 0.07063375 0.16241828 -0.0977047 0.14955384 0.113898344 0.15792426 0.058579344
0.006790043 -0.04669534 -0.12513265 -0.10729531 -0.07214113 0.06337329 -0.1914593 0.08310207
0.16478422 -0.15889949 -0.051833417 0.0809223 -0.0853541 0.15662526 -0.006591953 -0.1930898
-0.16628075 0.11477375 0.1818264 -0.063768335 0.16716295 0.18899629 -0.105004415 0.12638812
0.16714162 -0.096981 0.07733934 -0.07722734 -0.019032445 0.07872941 0.14046434 0.13542864
0.09103425 -0.070300825 -0.087037385 -0.05131089 -0.16191545 0.095824614 0.029818125 0.16024125
-0.18776737 -0.026647825 0.027978037 0.062122904 -0.14821096 0.17962854 0.16505681 -0.028203962
-0.032470647 -0.12774661 -0.18397875 0.16446202 -0.05543518 -0.123106375 0.02407263 -0.17073405
-0.015049595 0.1253408 0.0660421 0.15568992 -0.16703671 0.06788889 -0.055106074 -0.0005352842
-0.0844528 0.06420576 0.109046206 0.13177262 -0.16281195 -0.02936778 -0.0687844 -0.15834618
-0.034641698 0.192358 0.12741636 -0.17974783 -0.17160945 -0.05528257 0.15950646 0.11535047
0.14571832 0.1335093 -0.038942147 -0.18328846 -0.11376541 -0.1290078 -0.037866354 -0.009080978
-0.16723171 0.05943559 -0.011334909 0.025451649 -0.08125409 -0.11788983 0.00058803085 0.08148514
-0.10619558 -0.04387913 -0.19305514 0.05073035 0.02692534 -0.06277784 0.00013033394 -0.15636736
