model-RNN-DDPG/just_theta/pi.pth (torch, 212671 bytes, 142 tensors)

gru.weight_ih_l0 f4 [60, 1]
0	0x3e1611bf	0.14655207
1	0xbd8d1947	-0.06889587
2	0xbe2681f4	-0.1626051
3	0x3dbecb6d	0.09316144
4	0xbe4c3f48	-0.19946015
5	0x3e1815f2	0.14852121
6	0x3d1a827e	0.037722103
7	0x3d515df1	0.05111498
8	0x3e0e2890	0.13882661
9	0xbe0bbb00	-0.13645554
10	0x3ddd5ad6	0.10808341
11	0x3d058bb0	0.03260392
12	0xbe4cfcbe	-0.20018288
13	0x3e34c8c0	0.17654705
14	0xbe3dd61a	-0.18538705
15	0x3e569ff6	0.20959458
16	0xbc951bd9	-0.018201755
17	0xbe41c857	-0.1892408
18	0xbdebdcaa	-0.11516698
19	0x3d47dc14	0.048793867
20	0x3d691c45	0.056911726
21	0xbdb0b72a	-0.08628686
22	0xbc4e0219	-0.012573742
23	0xbe126f45	-0.14300258
24	0x3e21892d	0.15774985
25	0x3d232f05	0.039839763
26	0x3e0cfc0d	0.13768025
27	0x3e1eeee2	0.15520814
28	0xbdd53a0d	-0.10411463
29	0x3e16cac9	0.14725794
30	0xbd9136b4	-0.07090512
31	0xbdd2b505	-0.10288433
32	0x3d9ce31d	0.07660506
33	0xbe350e73	-0.17681293
34	0x3de091e7	0.10965329
35	0xbbdd2408	-0.00674868
36	0xbe06cc78	-0.13163936
37	0xbe0450e2	-0.1292148
38	0xbe37fc92	-0.17967442
39	0xbd84ddb9	-0.06487603
40	0xbe3e716d	-0.18597956
41	0x3dd57f5e	0.10424684
42	0xbd713ffa	-0.058898903
43	0xbe243190	-0.16034532
44	0x3de77565	0.11301688
45	0x3dfd387a	0.12364288
46	0xbcaa4482	-0.02078462
47	0x3dd53e24	0.10412243
48	0x3dbc2b18	0.09187907
49	0x3dfff61b	0.12498113
50	0xbe20d2ef	-0.15705465
51	0x3c03b19b	0.00803795
52	0xbdad5e0a	-0.08465202
53	0x3ceab8c9	0.028652566
54	0x3e3ae7f6	0.18252549
55	0x3ccc9452	0.024973068
56	0xbd25e8f6	-0.040505372
57	0xbc710376	-0.014710298
58	0x3e43d4ad	0.19124098
59	0x3e332b2f	0.17496942

gru.weight_hh_l0 f4 [60, 20]
0	0x3ccecf90	0.025245458
1	0xbd847acb	-0.064687334
2	0xbd8b5abc	-0.068044156
3	0x3e30f53c	0.1728105
4	0x3d826ee7	0.06368809
5	0xbd695af4	-0.056971505
6	0x3e01b5c5	0.12666996
7	0x3b81fae6	0.003966677
8	0xbe347cc8	-0.17625725
9	0x3de7219a	0.11285706
10	0x3e52c5db	0.20583288
11	0x3e3e605d	0.18591447
12	0x3ce49dfd	0.027907366
13	0xbe57c2d0	-0.21070409
14	0x3dc9cfe4	0.09854105
15	0xbd94a675	-0.07258312
16	0x3d665aea	0.056239046
17	0x3e130351	0.14356734
18	0x3a24e398	0.00062900176
19	0x3e0f98f4	0.1402319
20	0xbe28ad33	-0.1647232
21	0xbe3d3b47	-0.18479644
22	0x3e1f9076	0.15582451
23	0x3dd8a1e6	0.10577755
24	0x3cf04d2f	0.029333679
25	0xbcde9353	-0.027169859
26	0x3d6c9dc4	0.057767645
27	0x3ddab619	0.106792636
28	0xbd34a609	-0.044103656
29	0xbc79bd9b	-0.015242959
30	0xbe54341d	-0.20723005
31	0x3e568ac4	0.20951372
32	0x3da20e2a	0.07912858
33	0xbd618cad	-0.0550658
34	0xbe078a01	-0.13236238
35	0xbe0c86f0	-0.1372335
36	0xbc8dc6bb	-0.017306676
37	0x3e1695a9	0.14705528
38	0x3d93d65c	0.0721862
39	0x3dddeae0	0.108358145
40	0xbe13b4ae	-0.14424393
41	0x3d097c52	0.033565827
42	0x3da3f5e5	0.08005885
43	0x3e563e69	0.20922245
44	0xbd9aa3e6	-0.075507924
45	0xbd9260db	-0.0714738
46	0xbe4c87bc	-0.19973654
47	0xbad1c8cc	-0.0016005277
48	0x3a5beb59	0.00083892565
49	0xbd26a698	-0.04068622
50	0x3e4a3d1e	0.19749877
51	0x3d318d5b	0.043347698
52	0x3d60d0cb	0.05488662
53	0x3dccd535	0.100016035
54	0xbda489de	-0.080341086
55	0x3e009f6e	0.12560818
56	0x3e25fa22	0.162087
57	0xbdca36de	-0.09873746
58	0x3e0c8ec2	0.13726333
59	0xbe2c04c4	-0.16798693
60	0x3e4808e9	0.19534649
61	0x3d21ece1	0.039532546
62	0xbe1b4550	-0.1516316
63	0xbc3f4a3e	-0.011675416
64	0xbe18a188	-0.1490537
65	0x3c27f503	0.010251286
66	0x3de4cbdf	0.11171698
67	0xbdf0ee20	-0.11764169
68	0x3e05eb60	0.1307807
69	0x3da5292a	0.08064492
70	0xbe3db769	-0.18526997
71	0xbe0fcc8e	-0.14042875
72	0xbdbc6194	-0.09198299
73	0x3d5921bd	0.05301069
74	0x3dfd9e1a	0.12383671
75	0xbe40cdf4	-0.18828565
76	0x3e12910c	0.14313143
77	0x3e521822	0.20517018
78	0xbe23c1a7	-0.15991841
79	0x3e5496dc	0.20760673
80	0xbdf83af2	-0.12120618
81	0xbe41c7c5	-0.18923862
82	0x3da8bab5	0.082387365
83	0x3d4b6598	0.049657434
84	0x3e0b50bd	0.13605018
85	0x3d9eb7d1	0.07749904
86	0x3de2ad49	0.11068208
87	0x3cb70e71	0.022345753
88	0xbd14b73e	-0.036307566
89	0x3e2d2b7a	0.16911116
90	0xbe3c57fc	-0.18392938
91	0xbd404a78	-0.04694602
92	0x3d2c3d9b	0.04205094
93	0x3e0aafb9	0.13543595
94	0xbe1c9623	-0.15291648
95	0xbe18498f	-0.1487181
96	0x3e1f0da0	0.15532541
97	0xbdce8470	-0.10083854
98	0x3e5218d2	0.2051728
99	0x3e538546	0.20656309
100	0xbc8d0c2a	-0.017217714
101	0xbd512551	-0.05106098
102	0x3e4859e3	0.19565539
103	0xbd431fb7	-0.047637668
104	0xbdca4516	-0.09876458
105	0xbd0548b0	-0.032540023
106	0xbe09250a	-0.13393036
107	0x3dfe658b	0.124217115
108	0x3ddf9771	0.10917557
109	0x3e21eff8	0.15814197
110	0xbc94022a	-0.018067438
111	0xbe2fe0a3	-0.17175536
112	0x396d950d	0.00022657607
113	0x3cb1b929	0.021694737
114	0x3ddc8e67	0.107693486
115	0xbd9ce5b4	-0.07661
116	0xbe4be684	-0.19912153
117	0xbc8fd6c8	-0.01755847
118	0x3ca604d9	0.020265983
119	0xbe06d064	-0.13165432
120	0xbe04f0c3	-0.12982468
121	0xbe296051	-0.16540648
122	0xbddf63ea	-0.10907729
123	0xbe5970dc	-0.21234459
124	0xbdd575e3	-0.10422876
125	0xbe1a5aa4	-0.15073639
126	0xbe1158b6	-0.14193997
127	0x3e5755e2	0.21028855
128	0x3e2e25ca	0.17006603
129	0x3dbb3b50	0.09142172
130	0x3e3fb181	0.18720056
131	0xbe46ec22	-0.19426015
132	0x3d1035ab	0.03520743
133	0x3cf169a3	0.029469317
134	0x3b9db0ca	0.0048123347
135	0xbe0b42b3	-0.13599662
136	0xbe0c1d9b	-0.13683169
137	0xbe29309f	-0.16522454
138	0x3e28acf8	0.16472232
139	0xbe420f6e	-0.18951198
140	0x3de16bfc	0.110069245
141	0xbe0357da	-0.12826481
142	0xbc39a095	-0.01132979
143	0xbcea497c	-0.028599493
144	0xbc025b2c	-0.007956307
145	0xbdc5ecd0	-0.09664309
146	0xbc9403d0	-0.018068224
147	0x3bee31cf	0.0072691212
148	0x3cb44bea	0.022008855
149	0x3dfa79ca	0.12230261
150	0xbbbd33b2	-0.005773985
151	0x3e335c98	0.1751579
152	0x3d01b8de	0.031670444
153	0x3e44c888	0.19217122
154	0x3e19d479	0.15022458
155	0x3c9956f1	0.018718215
156	0xbd2ffc5e	-0.042965285
157	0x3dcc8571	0.099863894
158	0xbdd62c7b	-0.10457703
159	0x3e413625	0.18868311
160	0xbdf81f5f	-0.121153586
161	0x3e535a50	0.2063992
162	0x3e493097	0.19647442
163	0x3cd45651	0.025920065
164	0x3d83f511	0.06443227
165	0x3d962ea6	0.07333116
166	0x3d55920c	0.052141234
167	0xbdc7b272	-0.097508326
168	0x3ce102a4	0.02746708
169	0xbe377863	-0.17917018
170	0x3cdff575	0.027338723
171	0x3e3e1e36	0.18566212
172	0xbc7fa4bd	-0.0156032415
173	0x3e4001f5	0.18750747
174	0xbde9855e	-0.11402391
175	0xbd61a7f6	-0.05509182
176	0xbe3f9078	-0.18707454
177	0x3cd78d94	0.026312627
178	0xbdbe3b19	-0.09288616
179	0xbde67b51	-0.112539895
180	0x3c63bc61	0.0138998935
181	0xbd96be8b	-0.07360562
182	0xbe071398	-0.13191068
183	0x3dc75202	0.097324386
184	0x3e4c2624	0.19936424
185	0x3e1f3563	0.15547709
186	0xbd3febfa	-0.046855904
187	0x3dfc33a4	0.12314537
188	0x3e10ff64	0.14159924
189	0x3e188b7d	0.1489696
190	0x3d83e411	0.064399846
191	0x3dc2fa9e	0.09520458
192	0xbd6b81f1	-0.05749697
193	0xbd8106c4	-0.063001186
194	0x3e3ab560	0.18233252
195	0xbdf556e1	-0.119794615
196	0x3e37f4fa	0.17964545
197	0x3dfdfb95	0.12401501
198	0xbd4fbc96	-0.05071696
199	0x3c8a69c8	0.016896144
200	0xbe58caa5	-0.21171053
201	0xbdbc1b0c	-0.09184846
202	0xbb3c6aaa	-0.00287501
203	0xbdfb9788	-0.12284762
204	0xbdc1912a	-0.09451516
205	0x3dca264a	0.09870584
206	0x3ddf0e06	0.10891347
207	0x3cfc902c	0.030830465
208	0xbe44df91	-0.19225909
209	0x3e56ff71	0.2099588
210	0x3de98946	0.11403136
211	0x3dfd8987	0.12379747
212	0x3e22cb2a	0.15897813
213	0x3d8c9537	0.06864398
214	0x3d0889ec	0.033334658
215	0x3dc3e770	0.095656276
216	0x3e2cb7aa	0.16866937
217	0x3ceab48f	0.02865055
218	0x3d9acca2	0.07558562
219	0xbd05563d	-0.032552946
220	0xbd92748c	-0.07151136
221	0xbe020db8	-0.12700546
222	0x3d34e20b	0.044160884
223	0xbe470ec9	-0.19439234
224	0xbe06d552	-0.13167313
225	0x3d5298ee	0.051415376
226	0x3e3f3b31	0.18674923
227	0x3ceceed4	0.028922476
228	0x3e487493	0.1957572
229	0x3d296a71	0.041361276
230	0xbe4360d0	-0.190799
231	0xbe082426	-0.1329504
232	0xbe396c07	-0.18107615
233	0x3e29c5a4	0.165793
234	0xbd7589c5	-0.05994584
235	0xbe4f2b97	-0.20231472
236	0x3e136f99	0.1439804
237	0x3dc01f49	0.09380967
238	0x3df0f2bf	0.1176505
239	0x3d9d9fa8	0.07696468
240	0x3dbecb38	0.09316105
241	0xbde11bbe	-0.109916195
242	0x3cfd8edc	0.03095191
243	0xbe0fbe3a	-0.1403741
244	0xbd8fabd4	-0.070151955
245	0x3dd8190f	0.105516545
246	0x3de7518a	0.11294849
247	0x3a8466df	0.0010101459
248	0xbe27dc87	-0.16392718
249	0x3d9b1ffc	0.0757446
250	0x3e4a74b5	0.19771083
251	0x3cd487c4	0.025943644
252	0xbbc9da5b	-0.006160063
253	0xbd6eb65e	-0.058279388
254	0xbe4f6727	-0.20254193
255	0xbd919a0c	-0.0710946

gru.bias_ih_l0 f4 [60]
0	0x3dfb1b03	0.122610115
1	0xbe2d2a37	-0.16910635
2	0x3db9aa1a	0.090656474
3	0x3e4c52c7	0.19953452
4	0xbe0dd683	-0.13851361
5	0x3d99e37f	0.075140946
6	0x3cb1e6a6	0.021716427
7	0xbe240a1d	-0.16019483
8	0x3e109584	0.14119536
9	0x3dbb3f59	0.09142942
10	0xbd52af9c	-0.051437005
11	0x3d8654d8	0.065591514
12	0xbe08efba	-0.13372698
13	0x3e1c1b78	0.15244853
14	0xbd4c5def	-0.04989427
15	0xbe117542	-0.14204887
16	0x3d4e7d22	0.050412305
17	0x3d288222	0.04113973
18	0xbd783686	-0.060598873
19	0xbe39efbb	-0.18157856
20	0xbe37e897	-0.1795982
21	0x3bc7f02d	0.006101629
22	0x3e2b29dd	0.16715188
23	0x3adfe5e4	0.0017082063
24	0x3b2b4e45	0.0026139182
25	0xbe232d21	-0.15935184
26	0x3d049bd8	0.032375187
27	0xbe38596f	-0.18002866
28	0x3db5d6e5	0.088788785
29	0x3e5163fb	0.20448296
30	0x3da69e91	0.08135713
31	0xbd2c4855	-0.04206117
32	0xbdb26b86	-0.08711915
33	0xbe2127de	-0.15737864
34	0xbe00b11b	-0.1256756
35	0x3e31518e	0.17316267
36	0x3e26bc78	0.16282833
37	0x3e44d765	0.19222791
38	0x3cb29eb9	0.0218042
39	0x3dd1ff47	0.102537684
40	0xbe3b9578	-0.18318737
41	0x3da31b59	0.079642005
42	0x3e45d9c5	0.19321354
43	0x3dab5d40	0.083673954
44	0xbe5813ee	-0.21101353
45	0x3ccc4e45	0.024939666
46	0xbe328f38	-0.17437446
47	0x3c367d14	0.011138219
48	0xbe26a1ee	-0.16272709
49	0xbaad4f4d	-0.0013222486
50	0xbcca36b0	-0.02468428
51	0x3e4c16ab	0.19930522
52	0x3e087f70	0.13329864
53	0xbe00d5c1	-0.1258154
54	0x3daf01fc	0.085453
55	0x3cb34bf9	0.021886813
56	0xbd8721db	-0.06598254
57	0x3e50ea4e	0.2040188
58	0xbd3d0174	-0.046143964
59	0x3e4b100d	0.19830342

gru.bias_hh_l0 f4 [60]
0	0xbcfb3c2d	-0.030668342
1	0xbc5abf8e	-0.013351334
2	0xbd2ce8f1	-0.042214338
3	0x3e47b2ab	0.1950175
4	0x3e3f5b5d	0.18687196
5	0xbd5c783e	-0.05382561
6	0xbe351e91	-0.17687441
7	0x3cbd7a23	0.023129528
8	0xbe1c53ab	-0.15266292
9	0xbd85fce0	-0.06542373
10	0xbd2b935d	-0.041888583
11	0x3d66e8da	0.05637441
12	0x3e587304	0.21137625
13	0xbe13e063	-0.14441065
14	0xbcb8a49f	-0.022539435
15	0x3e05e360	0.13075018
16	0x3d8bc259	0.06824178
17	0x3d379a7c	0.044825062
18	0xbdaa549d	-0.0831692
19	0x3d98e57c	0.07465646
20	0x3d18e030	0.037323177
21	0x3d2f3c65	0.042782206
22	0xbe48b074	-0.19598562
23	0x3e480434	0.19532853
24	0x3d00f1d1	0.031480614
25	0xbdff904c	-0.12478694
26	0xbd8a0d83	-0.067408584
27	0x3e40cc37	0.18827902
28	0x3d14a1a1	0.036286954
29	0x3e1bb6df	0.15206479
30	0x3dfeaf02	0.12435724
31	0x3d14d8a8	0.036339432
32	0x3bbdb0c3	0.005788894
33	0x3d429f78	0.047515363
34	0x3c05506f	0.008136853
35	0xbd9e16d5	-0.077191986
36	0x3dcb4f63	0.09927251
37	0xbdb6b481	-0.08921147
38	0xbc80b50f	-0.015711335
39	0x3d1efec9	0.0388172
40	0x3d2e6707	0.042578723
41	0xbe2126c3	-0.15737443
42	0x3dff2f40	0.12460184
43	0xbd667839	-0.056266997
44	0x3d2594ec	0.040425226
45	0xbe1c1582	-0.1524258
46	0xbe365d03	-0.17808919
47	0x3db1aedd	0.08675931
48	0x3dfdace5	0.12386493
49	0x3e244dd1	0.1604531
50	0x3db98d09	0.090601034
51	0xbe4b9996	-0.19882807
52	0xbdc1a25e	-0.09454797
53	0xbd1f4e95	-0.0388933
54	0xbdcd593a	-0.10026784
55	0x3e3e06ee	0.18557331
56	0xbd6d3c82	-0.057919033
57	0x3dbedb7a	0.093192056
58	0x3e3425ae	0.17592499
59	0x3da96323	0.08270862

gru.weight_ih_l1 f4 [60, 20]
0	0x3dde1cb5	0.10845319
1	0xbc2cab38	-0.010538869
2	0x3e069e6c	0.1314637
3	0xbdb8bc98	-0.090203464
4	0xbda0cb14	-0.07851234
5	0xbe1f3769	-0.15548481
6	0x3d9c32dc	0.07626888
7	0x3d06b788	0.032889873
8	0xbe294f66	-0.16534194
9	0x3e0c5f8a	0.1370832
10	0xbe4a3a70	-0.19748855
11	0xbe4a8bc5	-0.1977988
12	0x3d86bd74	0.06579104
13	0x3e3f66b2	0.18691519
14	0x3e174519	0.14772452
15	0xbce3ed3c	-0.027823083
16	0x3e1add3a	0.15123454
17	0xbd753ce0	-0.059872508
18	0xbddd02ec	-0.10791573
19	0x3e3868e8	0.18008769
20	0x3e4103f0	0.18849158
21	0x3d3dc9da	0.04633508
22	0x3d6b1c24	0.057399884
23	0x3e3cf591	0.18453051
24	0xbcd7416c	-0.026276313
25	0xbdf64a8e	-0.12025939
26	0xbd6dbc77	-0.058041062
27	0x3d576134	0.052582934
28	0xbe0ec916	-0.13943896
29	0xbdb46e20	-0.08810067
30	0x3e07ff74	0.13281041
31	0xbe09a759	-0.13442744
32	0x3e3ba977	0.18326364
33	0xbdd9cf1a	-0.106352046
34	0xbd214a7f	-0.039377686
35	0x3d06d51c	0.03291808
36	0x3e26014f	0.16211437
37	0x3e21edee	0.15813419
38	0xbe3d5326	-0.1848875
39	0x3cabb3e2	0.020959798
40	0xbe477923	-0.19479804
41	0x3d32cb5a	0.043650962
42	0xbcae82e0	-0.02130264
43	0xbe468ec1	-0.19390394
44	0x3e435f57	0.19079338
45	0xbe26b664	-0.16280514
46	0xbdc15ca9	-0.09441502
47	0xbd2b877e	-0.041877262
48	0xbda616b0	-0.08109796
49	0x3e4dc0e0	0.20093107
50	0xbe529be2	-0.20567277
51	0xbdd4e100	-0.10394478
52	0xbe334159	-0.17505397
53	0x3dc97507	0.09836774
54	0x3dd21b1f	0.10259079
55	0x3e1198d3	0.14218454
56	0x3d142997	0.036172476
57	0x3df5bed7	0.119992904
58	0x3de96aa5	0.11397294
59	0xbe2805d0	-0.16408467
60	0xbca2f67a	-0.01989292
61	0xbcbac2af	-0.02279791
62	0xbe355278	-0.1770724
63	0xbe1ab63c	-0.1510858
64	0x3d5e4fd2	0.05427534
65	0xbe380075	-0.17968924
66	0x3d24f773	0.04027505
67	0xbe4d80bd	-0.20068641
68	0xbe09b0c7	-0.13446341
69	0xbcfd3167	-0.030907346
70	0xbe4efbff	-0.20213316
71	0x3dcb6612	0.09931578
72	0xbe1fe08c	-0.15613002
73	0xbdb725b9	-0.08942742
74	0xbdb50eba	-0.088406995
75	0xbdad6237	-0.084659986
76	0xbd612887	-0.05497029
77	0x3e3ede11	0.18639399
78	0x3dcfe213	0.10150542
79	0x3e12f4eb	0.14351241
80	0x3d92e455	0.07172457
81	0x3dac84ea	0.08423789
82	0x3e0be746	0.13662443
83	0xbe20bddf	-0.1569743
84	0x3ad36d68	0.0016130628
85	0xbc8a2287	-0.016862167
86	0x3e1ed8a4	0.1551233
87	0xbdd560a6	-0.10418825
88	0xbde361fb	-0.11102673
89	0x3d932ea6	0.07186632
90	0x3d393bcb	0.04522304
91	0x3e11d9dc	0.14243263
92	0xbdd50be3	-0.10402658
93	0x3e33e3e4	0.17567402
94	0xbdb269da	-0.08711596
95	0xbe00a231	-0.12561871
96	0x3c3e1a03	0.011602881
97	0xbdaef916	-0.08543603
98	0x3baf4412	0.005348691
99	0xbbed3778	-0.0072392784
100	0x3d48ad28	0.04899326
101	0x3ac563cf	0.0015059653
102	0xbe199753	-0.14999132
103	0xbe00760b	-0.1254503
104	0xbca1d4c9	-0.019754784
105	0x3dfbd442	0.12296344
106	0xbc8f684a	-0.017505784
107	0x3d9adbac	0.0756143
108	0x3cd9ec9b	0.02660208
109	0xbda21621	-0.07914377
110	0xbdf70644	-0.12061742
111	0x3d44f1fa	0.04808233
112	0xbcb571ad	-0.022148931
113	0xbdcecdc5	-0.10097841
114	0xbe50496a	-0.20340505
115	0xbd1b2bce	-0.037883572
116	0x3cc3760b	0.023859998
117	0xbd85c13f	-0.065309994
118	0xbe3a94aa	-0.18220773
119	0xbd9ea0a4	-0.077454835
120	0x3cea8ea6	0.028632473
121	0xbdf87b57	-0.121329
122	0xbe4ae7ad	-0.1981494
123	0x3e200f0d	0.15630741
124	0x3cda17f6	0.026622754
125	0x3dfb555e	0.12272142
126	0xbdfa33b3	-0.12216892
127	0xbe2d6583	-0.16933255
128	0x3e0047c6	0.1252738
129	0xbcf53fad	-0.02993759
130	0xbd4d5a46	-0.05013492
131	0xbe4cdda2	-0.20006421
132	0xbda8e057	-0.082459144
133	0xbdd44279	-0.10364241
134	0xbe3a5ea5	-0.18200167
135	0xbd8c8f72	-0.068632975
136	0xbdbe4277	-0.09290021
137	0xbe0c1f23	-0.13683753
138	0xbc8cd945	-0.017193446
139	0xbdb94847	-0.09046989
140	0xbd176bcc	-0.036968037
141	0x3e07e4b0	0.13270831
142	0x3decadea	0.11556609
143	0x3b94db48	0.004542742
144	0x3ccbe194	0.024887837
145	0xbe1312d0	-0.14362645
146	0xbe48ac6f	-0.19597028
147	0xbe1451fb	-0.14484398
148	0xbc0d5f60	-0.008628696
149	0x3db6b984	0.08922103
150	0x3ddeecdb	0.1088502
151	0x3e205116	0.15655932
152	0xbd90c508	-0.07068831
153	0x3e25e67e	0.16201207
154	0x3de7e5ce	0.11323129
155	0xbe18e05c	-0.14929336
156	0x3d63cb41	0.05561376
157	0xbe259b53	-0.16172533
158	0xbdf9a3cc	-0.12189445
159	0x3e07831d	0.1323361
160	0xbe4289f2	-0.18997934
161	0xbcafc447	-0.021455897
162	0xbcf737e2	-0.030178014
163	0xbe53c942	-0.20682243
164	0xbe3f769d	-0.18697591
165	0xbd92c56d	-0.07166562
166	0x3cd840ac	0.026398025
167	0x3d99be6e	0.07507025
168	0x3d96e04a	0.073669985
169	0x3e4884c5	0.19581898
170	0x3e2643a0	0.16236734
171	0xbd022d54	-0.03178151
172	0xbddc1c91	-0.10747636
173	0x3d9b77ed	0.075912334
174	0x3d0dce59	0.034620617
175	0x3d673e11	0.056455676
176	0x3cec749b	0.028864196
177	0xbadceef3	-0.001685588
178	0x3d4a1adc	0.04934202
179	0x3d893d6c	0.067011684
180	0xbe504e8b	-0.20342462
181	0x3e30578a	0.17220894
182	0xbdb453a0	-0.08805013
183	0x3e2a27bf	0.16616724
184	0xbdf550d8	-0.1197831
185	0xbe305276	-0.17218956
186	0x3e1a2de0	0.15056562
187	0xbd30c27e	-0.043154232
188	0x3aa847ca	0.0012838778
189	0xbd78e607	-0.060766246
190	0xbc1bebb4	-0.009516645
191	0xbd8275d4	-0.0637013
192	0xbdf895a8	-0.1213792
193	0xbe24a751	-0.16079451
194	0xbd886905	-0.06660656
195	0xbd93cf77	-0.07217305
196	0x3d7cb1d2	0.06169302
197	0xbd7b7886	-0.061394237
198	0x3d981754	0.074263245
199	0xbe3bd0bd	-0.18341346
200	0x3d251a01	0.040308002
201	0xbe2be116	-0.16785082
202	0xbe1c0cd9	-0.15239276
203	0xbe08ef36	-0.13372502
204	0x3e3a5963	0.18198161
205	0xbce0e347	-0.027452124
206	0xbe06f82b	-0.13180606
207	0xbd91f61f	-0.07127022
208	0x3d42ee2a	0.047590412
209	0xbcac74f4	-0.021051861
210	0x3deec8f7	0.11659425
211	0xbcc73cd7	-0.024321003
212	0x3e0930ad	0.13397475
213	0x3e148c88	0.14506733
214	0x3cae8125	0.021301815
215	0xbe1f66e5	-0.15566595
216	0x3e2aa9cf	0.1666634
217	0xbccae537	-0.024767501
218	0x3bd19bc0	0.0063967407
219	0x3db535f2	0.0884818
220	0xbb62253c	-0.0034507057
221	0x3e0cdc38	0.13755882
222	0xbe462056	-0.19348273
223	0xbe05d403	-0.13069157
224	0x3e01af7c	0.12664598
225	0x3e53aa3e	0.20670411
226	0x3de49678	0.11161512
227	0x3dcba1cf	0.09942972
228	0xbe547f6f	-0.20751737
229	0xbd2aac0e	-0.04166799
230	0xbe3c54e4	-0.18391758
231	0x3c38d21f	0.0112805655
232	0x3df21479	0.11820311
233	0x3e19b6b1	0.15011097
234	0xbe304ff3	-0.17217998
235	0xbdb4266b	-0.0879639
236	0x3c954c16	0.018224757
237	0xbd6e940d	-0.05824666
238	0xbd576339	-0.05258486
239	0x3e52726a	0.20551458
240	0x3dfeac98	0.124352634
241	0x3dc8120a	0.09769066
242	0xbe18d61d	-0.14925428
243	0x3d830ea8	0.0639928
244	0x3ccbc046	0.024871957
245	0xbde938b1	-0.11387766
246	0xbdefa0fd	-0.11700628
247	0x3d7217da	0.059104778
248	0xbd9b5848	-0.07585198
249	0x3e122bc7	0.14274512
250	0x3e4c58a0	0.19955683
251	0xbdc96519	-0.09833736
252	0x3db2108c	0.08694562
253	0xbd93dd15	-0.072199024
254	0xbdfcea83	-0.12349417
255	0x3dac7c1e	0.08422111

gru.weight_hh_l1 f4 [60, 20]
0	0x3dcf960a	0.101360396
1	0xbe28b103	-0.16473775
2	0x3db5968a	0.08866604
3	0x3df21980	0.1182127
4	0x3e35ffb5	0.17773326
5	0x3d169c2d	0.036770035
6	0x3e51e764	0.20498425
7	0x3dd6d0ac	0.1048902
8	0x3e2b89b9	0.16751756
9	0xbd667cfb	-0.056271534
10	0x3bdc83fb	0.0067296005
11	0x3e11a4fe	0.14223096
12	0xbded0252	-0.11572708
13	0xbc506045	-0.012718265
14	0xbd338bbf	-0.043834444
15	0xbc8aa3b1	-0.016923757
16	0x3e28aee3	0.16472964
17	0xbe2613b1	-0.16218449
18	0xbe310fed	-0.17291231
19	0xbe1c86cf	-0.152858
20	0x3d83372d	0.06407008
21	0xbded5bf5	-0.11589805
22	0x3d49ff24	0.049315587
23	0xbdda310a	-0.10653885
24	0xbe32a249	-0.1744472
25	0xbe56a68f	-0.20961975
26	0xbe25e7a8	-0.16201651
27	0xbd5631fa	-0.052293755
28	0xbd996fd4	-0.07492033
29	0x3e25b62c	0.16182774
30	0x3e3f1879	0.1866168
31	0xbe1d7843	-0.15377907
32	0x3e022bc0	0.12712002
33	0x3d95639c	0.072943896
34	0xbe22255f	-0.15834568
35	0x3d15d9fc	0.03658484
36	0xbd3da32b	-0.046298187
37	0x3c46295a	0.01209482
38	0xbe1af076	-0.15130791
39	0xbdb8174d	-0.08988819
40	0x3d66c493	0.05633981
41	0x3e1ce4bd	0.15321632
42	0xbd1c415b	-0.038148265
43	0x3d489cec	0.048977777
44	0x3e5538ea	0.20822492
45	0x3debc8a3	0.11512878
46	0x3dd1e84a	0.10249384
47	0x3dfdedfc	0.123989075
48	0xbdba6fce	-0.09103356
49	0xbd87f683	-0.06638815
50	0x3d037ce4	0.032101527
51	0x3cfe5334	0.031045534
52	0xbb90e3fd	-0.0044217096
53	0x3e466604	0.19374853
54	0xbdf7eff0	-0.12106311
55	0x3e17f095	0.14837869
56	0x3e334583	0.17506985
57	0x3e54ba3c	0.20774168
58	0xbe1c14dd	-0.15242334
59	0x3d446f88	0.047957927
60	0xbd90e007	-0.0707398
61	0xbd250442	-0.040287264
62	0x3d423660	0.047415137
63	0x3dae4476	0.08509152
64	0xbc139cdd	-0.009009567
65	0xbcc78ab4	-0.024358131
66	0x3da808f0	0.0820483
67	0xbe03aca1	-0.12858821
68	0xbe2d4385	-0.16920288
69	0x3db585bb	0.08863398
70	0x3ce88028	0.028381422
71	0xba9dc2d4	-0.0012036213
72	0x3ded7bf1	0.115959056
73	0xbdc0230d	-0.093816854
74	0xbe32d5c4	-0.17464358
75	0x3e3e6c2a	0.18595949
76	0x3c10ebb2	0.008845257
77	0xbe2c9ec6	-0.16857442
78	0x3d15c461	0.036564235
79	0x3cbf9f67	0.023391439
80	0x3e129786	0.14315614
81	0xbe41831b	-0.18897669
82	0xbd9f1d5f	-0.07769274
83	0x3e2a4a78	0.1662997
84	0x3cc7426a	0.02432366
85	0xbde79062	-0.11306836
86	0x3e21f1ae	0.1581485
87	0xbdf02bc1	-0.117270954
88	0xbd578cfb	-0.052624684
89	0xbe0ef96c	-0.13962334
90	0x3e01f6a2	0.12691739
91	0x3de69186	0.11258225
92	0x3e25641d	0.16151471
93	0xbe383ff1	-0.17993142
94	0x3d150950	0.036385834
95	0xbe0d99da	-0.13828221
96	0x3dc78df1	0.0974387
97	0x3d6dcacc	0.05805473
98	0x3e210b67	0.15727006
99	0xbcacffb6	-0.021118026
100	0xbda3fcd5	-0.08007208
101	0x3e33d85f	0.17563008
102	0xbe5391d8	-0.20661104
103	0x3dbc8203	0.09204485
104	0xbe42222c	-0.18958348
105	0x3e10f743	0.14156823
106	0xbe31ced5	-0.17364056
107	0x3d50cb1b	0.050974946
108	0x3daa9c16	0.08330552
109	0x3d5b995c	0.05361305
110	0xbe54f4b8	-0.20796478
111	0xbd5cea9c	-0.05393468
112	0x3d2ea90c	0.042641684
113	0xbde93bde	-0.11388372
114	0x3e1cdea2	0.15319303
115	0x3e382c50	0.17985654
116	0xbe29e8b7	-0.1659268
117	0xbc8b6908	-0.017017856
118	0x3e540e52	0.20708588
119	0xbe154125	-0.14575632
120	0x3e22902c	0.1587531
121	0xbde7037c	-0.112799615
122	0x3b2e13f2	0.0026562181
123	0x3e283b60	0.164289
124	0xbd98d38d	-0.07462225
125	0x3e4f3da2	0.20238355
126	0xbe0c5d6d	-0.13707514
127	0xbdf3ab6e	-0.11897932
128	0xbe1748b0	-0.14773822
129	0xbdd46d1d	-0.10372374
130	0xbb2c950b	-0.0026333954
131	0x3d503896	0.050835215
132	0x3d42f1d3	0.047593903
133	0xbe3dc483	-0.18531995
134	0xbd60c1c3	-0.054872286
135	0x3dc9db62	0.09856297
136	0xbc1d42f1	-0.00959848
137	0xbc5af22e	-0.013363404
138	0x3dd94901	0.106096275
139	0xbdbca688	-0.09211451
140	0x3a2730e2	0.00063778285
141	0x3c83b206	0.0160761
142	0x3e4aeeb7	0.19817625
143	0xbdeb1d19	-0.11480159
144	0xbd860dd9	-0.0654561
145	0xbe13a60c	-0.1441881
146	0xbc75eb91	-0.015009777
147	0xbe4f7b5d	-0.20261903
148	0xbd5ed01d	-0.05439769
149	0xbe13f770	-0.14449859
150	0xbd9056f5	-0.07047836
151	0x3e377b65	0.17918165
152	0x3e03e9ea	0.128822
153	0x3e4bc2fc	0.198986
154	0x3d86447a	0.065560296
155	0x3e093e19	0.13402595
156	0xbe0c012f	-0.13672327
157	0xbcaebd59	-0.021330522
158	0xbddcc984	-0.107806236
159	0xbde5d09a	-0.11221428
160	0x3dd448f4	0.10365477
161	0xbdd1f35c	-0.10251495
162	0xbc73fcca	-0.014891813
163	0xbe270795	-0.16311486
164	0x3d956ad8	0.072957695
165	0x3e30ed2a	0.17277971
166	0xbd587498	-0.052845567
167	0x3dd8acee	0.10579859
168	0x3dfa8293	0.12231936
169	0xbda02795	-0.0782005
170	0xbe18f6be	-0.14937875
171	0x3dda13f1	0.10648335
172	0x3d88795b	0.06663772
173	0x3cd44153	0.025910055
174	0xbd892d40	-0.06698084
175	0xbe091d51	-0.1339009
176	0xbdc9d5da	-0.09855242
177	0x3de2498d	0.11049185
178	0x3de436f2	0.111432925
179	0xbdc12e86	-0.09432702
180	0x3e4c0404	0.19923407
181	0x3dc37224	0.09543255
182	0xbe47c45c	-0.19508499
183	0x3e54f849	0.20797838
184	0xbcfc3956	-0.030789059
185	0x3c951fbc	0.018203609
186	0xbe0d94c9	-0.13826288
187	0x3e0a616d	0.13513727
188	0x3e2043bc	0.15650839
189	0x3df50ab8	0.11964935
190	0x3e2c8b2b	0.16849963
191	0xbe14fc66	-0.14549407
192	0x3e263395	0.16230614
193	0x3c0d7bb6	0.008635452
194	0xbde2d582	-0.1107588
195	0xbdb2b100	-0.08725166
196	0xbe0d87ff	-0.1382141
197	0xbd460ecf	-0.048353966
198	0xbe4c00e7	-0.19922219
199	0x3dff3bd6	0.12462585
200	0x3ce8b0d2	0.028404627
201	0x3e4c15d1	0.19930197
202	0xbe21fbf0	-0.15818763
203	0x3d9ef29f	0.0776112
204	0x3d3be9f5	0.045877416
205	0xbd93af46	-0.07211165
206	0xbc2e8ca9	-0.010653653
207	0xbc9ecb02	-0.019383911
208	0x3c114db8	0.008868627
209	0x3e4f833b	0.20264904
210	0xbd877009	-0.06613166
211	0x3c9a7e01	0.018858911
212	0x3e292c40	0.16520786
213	0x3a96186d	0.0011451371
214	0xbc815bce	-0.015790846
215	0x3e24e5c3	0.16103272
216	0x3dc554a6	0.09635286
217	0xbe236af4	-0.15958768
218	0xbd88a005	-0.06671146
219	0x3d87e900	0.06636238
220	0x3cc46d5a	0.023977924
221	0xbca50e79	-0.020148503
222	0x3e070e8a	0.1318914
223	0xbca57aeb	-0.020200213
224	0xbde37315	-0.111059345
225	0x3df3058b	0.118662916
226	0x3d477e78	0.048704594
227	0xbe41fca1	-0.18944027
228	0xbe32247d	-0.17396732
229	0xbdb982b9	-0.090581365
230	0xbce4d496	-0.0279334
231	0x3c507dd9	0.012725317
232	0x3e0d9b79	0.1382884
233	0xbdd39f10	-0.10333073
234	0x3d091ad7	0.033472862
235	0xbd807858	-0.06272954
236	0x3c902206	0.017594349
237	0x3dc2e274	0.09515849
238	0x3dbfe7a4	0.09370354
239	0xbdb6a928	-0.08918983
240	0x3e0ff0b7	0.14056669
241	0xbd2b3f97	-0.04180869
242	0x3d9ff673	0.07810678
243	0x3b8fb694	0.0043857787
244	0xbe26fc74	-0.1630724
245	0x3d979ce0	0.074029684
246	0xbe077aa5	-0.13230379
247	0x3b570a1a	0.0032812417
248	0xbe02a997	-0.12760006
249	0xbd8a6b6d	-0.06758771
250	0xbe03765e	-0.12838122
251	0xbdd48091	-0.103760846
252	0x3e4bb18f	0.19891952
253	0xbe40a3b5	-0.1881245
254	0x3d462c0b	0.048381846
255	0xbd99d016	-0.07510392

gru.bias_ih_l1 f4 [60]
0	0xbe0e5a90	-0.13901734
1	0xbe05b54e	-0.13057443
2	0xbe4ac259	-0.198007
3	0xbd7e2b7c	-0.06205319
4	0xbdea4144	-0.1143823
5	0xbbcc37fd	-0.0062322603
6	0xbd1926c6	-0.037390493
7	0x3d16736b	0.036731165
8	0xbe195d47	-0.14976989
9	0x3e121c29	0.14268555
10	0xbcd9bcf1	-0.026579352
11	0x3e045421	0.12922718
12	0x3c28779c	0.010282423
13	0xbd5a2229	-0.053255234
14	0x3d8c8d97	0.068629436
15	0x3e02b729	0.12765183
16	0xbdf60247	-0.12012153
17	0x3e456df9	0.19280232
18	0x3e00af32	0.12566832
19	0xbe0b2dc7	-0.13591681
20	0x3e5004d9	0.20314349
21	0xbe1f9bd7	-0.15586792
22	0xbe39e424	-0.18153435
23	0xbe50a16d	-0.20374079
24	0x3e461f07	0.19347773
25	0x3e015782	0.12631038
26	0xbde7b082	-0.11312963
27	0x3e1d4a48	0.15360367
28	0x3db2c6de	0.08729337
29	0xbd36e7b8	-0.044654578
30	0xbc7c4f53	-0.015399772
31	0x3d1d8e04	0.038465515
32	0x3e0c31e2	0.13690904
33	0x3da2f20c	0.07956323
34	0x3c8f8e53	0.01752392
35	0x3d34adaa	0.04411093
36	0xbd579a15	-0.05263718
37	0x3cea6e74	0.028617121
38	0x3dacc7ff	0.08436584
39	0x3d86c198	0.06579894
40	0x3e28b571	0.16475464
41	0xbdacaa5d	-0.08430932
42	0x3e0681c1	0.13135435
43	0xbc35aeb7	-0.011089019
44	0xbd6b1a8d	-0.057398368
45	0x3cada694	0.021197595
46	0x3df6299f	0.12019657
47	0xbe0fa505	-0.14027794
48	0x3e598385	0.21241577
49	0xbd97771e	-0.07395767
50	0xbe471148	-0.19440186
51	0x3e56d855	0.20980962
52	0xbe2f86e2	-0.17141297
53	0x3db01ec1	0.08599616
54	0xbafe2758	-0.0019390387
55	0xbe11c8f2	-0.14236811
56	0x3e53452b	0.20631854
57	0x3e566b06	0.20939264
58	0xbdbdeb1b	-0.092733584
59	0xbd64767d	-0.05577706

gru.bias_hh_l1 f4 [60]
0	0x3d4ac8c5	0.049507875
1	0x3c811df3	0.015761351
2	0xbe0caa7a	-0.13736907
3	0xbd8189b4	-0.06325093
4	0x3dc31763	0.09525945
5	0x3c19a66e	0.009378059
6	0x3d95b8dc	0.0731065
7	0xbdb7b77a	-0.08970542
8	0x3e47bdcd	0.19505997
9	0xbd777731	-0.060416404
10	0xbbea5884	-0.007151665
11	0x3df63bae	0.12023102
12	0xbce467ed	-0.027881587
13	0x3dc77359	0.09738798
14	0x3e21a870	0.1578691
15	0xbd5f39c6	-0.054498456
16	0x3e237a2f	0.15964578
17	0xbdc1c1c7	-0.09460788
18	0xbe146b09	-0.14493956
19	0xbd25b942	-0.04045988
20	0xbe254f4a	-0.16143528
21	0xbe40adee	-0.18816349
22	0xbbe2c1c9	-0.0069200736
23	0xbd65e890	-0.056129992
24	0xbe17a788	-0.14810002
25	0x3e1289a7	0.14310323
26	0xbc9acba9	-0.01889594
27	0x3b217a10	0.0024639405
28	0x3d6e3c5e	0.05816304
29	0x3e4835ff	0.19551848
30	0x3dd30eb7	0.10305541
31	0x3c46a0e3	0.012123319
32	0xbe57748f	-0.21040557
33	0x3d805620	0.06266427
34	0xbddac6b3	-0.1068243
35	0xbe2df943	-0.16989617
36	0x3d9054bc	0.07047412
37	0x3ccbfe97	0.024901671
38	0x3de8628f	0.113469236
39	0xbe53b926	-0.20676097
40	0xbe131f9b	-0.14367525
41	0xbe2bdbf4	-0.16783124
42	0xbe4ab7e1	-0.19796707
43	0x3e3405ed	0.17580386
44	0xbdfac1ff	-0.12244033
45	0xbd9f47b0	-0.07777345
46	0xbe36faeb	-0.17869155
47	0x3e176016	0.14782748
48	0x3e09db7b	0.13462631
49	0xbdd61972	-0.10454072
50	0x3df71024	0.120636255
51	0xbdce15e3	-0.10062768
52	0xbde8bba0	-0.11363912
53	0x3e49055c	0.1963095
54	0xbdc49f71	-0.096007235
55	0x3e2cc24b	0.16870992
56	0x3c7a25f3	0.015267837
57	0x3e4e1b34	0.20127565
58	0xbe2e4e06	-0.17021951
59	0xbd7812eb	-0.060564917

gru.weight_ih_l2 f4 [60, 20]
0	0x3bd3d87e	0.006465017
1	0x3e2f520b	0.1712114
2	0x3e1677e5	0.14694174
3	0x3dac642e	0.08417545
4	0x3dfa4d08	0.12221724
5	0xbe203acf	-0.15647434
6	0xbe5368c4	-0.20645434
7	0x3e4a7892	0.19772556
8	0x3e28c06b	0.16479652
9	0xbb3fb16f	-0.0029250046
10	0xbe1989f3	-0.1499403
11	0x3e3c1f04	0.18371207
12	0xbc737020	-0.014858276
13	0x3e43ad67	0.19109116
14	0xbc982c77	-0.01857589
15	0x3e0481c1	0.12940122
16	0xbd8ca032	-0.06866492
17	0xbdbb36c8	-0.09141308
18	0x3dc3e83e	0.09565781
19	0xbe47119b	-0.1944031
20	0xbe4e062a	-0.20119539
21	0xbcd0748b	-0.025446197
22	0x3d72f3c9	0.059314523
23	0xbe06beae	-0.13158676
24	0x3dffa236	0.12482111
25	0x3e197d7b	0.14989273
26	0xbe428a52	-0.18998078
27	0xbb9f23f2	-0.00485658
28	0xbb21ace4	-0.0024669701
29	0xbdd07091	-0.1017772
30	0x3e0bba40	0.13645267
31	0xbdb03bee	-0.08605181
32	0x3db60cf6	0.08889191
33	0x3e32b769	0.17452778
34	0x3d1c38c9	0.038140092
35	0x3c6fd6c7	0.014638609
36	0x3daa8687	0.0832644
37	0xbda50872	-0.080582514
38	0x3cc5de3a	0.024153817
39	0xbe0f4d0a	-0.13994232
40	0xbd9854d9	-0.074380584
41	0x3e34abb7	0.17643629
42	0xbdb88ad2	-0.09010853
43	0x3de01224	0.1094096
44	0x3e1136b6	0.14181027
45	0x3de9e0d2	0.11419834
46	0x3e254f1c	0.16143459
47	0xbd19f149	-0.037583623
48	0xbe4ef07e	-0.20208928
49	0x3de0e9dd	0.10982106
50	0xbe375372	-0.17902926
51	0xbd2e7229	-0.04258934
52	0x3e4730b6	0.19452175
53	0x3e2e3463	0.17012171
54	0x3ba5b740	0.0050572455
55	0x3e26dd0b	0.16295259
56	0xbc1f4eb8	-0.009723358
57	0x3a69fb13	0.00089256576
58	0xbe260901	-0.16214372
59	0x3e3db1b6	0.18524823
60	0xbe087a67	-0.13327943
61	0x3e4aa5c1	0.19789793
62	0xbe5876a0	-0.21139002
63	0x3d49b242	0.049242266
64	0xbe01d4e0	-0.12678862
65	0x3c9b0ec0	0.018927932
66	0xbe089f59	-0.13342036
67	0x3c2d51e9	0.010578611
68	0xbe037992	-0.12839344
69	0xbc60cdb4	-0.013720918
70	0x3da7d0ea	0.08194144
71	0xbd7f847a	-0.0623822
72	0xbe478bc5	-0.19486912
73	0x3d8be841	0.06831408
74	0xbd866a27	-0.06563216
75	0x3e1832f1	0.14863183
76	0x3c2df314	0.010617036
77	0xbdbf39cf	-0.09337198
78	0x3d9e0b97	0.07717054
79	0x3dd4f15e	0.103976
80	0xbe08d486	-0.13362321
81	0x3dfabe1f	0.12243294
82	0xbe13856b	-0.14406364
83	0xbde6ea8a	-0.112752035
84	0xbd79bf3c	-0.06097339
85	0x3d6debc2	0.058086164
86	0x3cfe9fb8	0.03108202
87	0x3d8a4952	0.06752266
88	0xbe3bcfea	-0.18341032
89	0x3c8ce540	0.017199159
90	0xbe1604e3	-0.14650302
91	0x3d1705a6	0.03687062
92	0x3d87de82	0.06634237
93	0xbe426d91	-0.18987109
94	0xbd8eba3f	-0.069691174
95	0x3e42c8ae	0.19021866
96	0xbe43fb41	-0.19138815
97	0x3ddddc4a	0.108330324
98	0xbdd90109	-0.105959006
99	0x3db500cc	0.088380426
100	0x3d6b1dd7	0.057401504
101	0x3e08c88f	0.13357757
102	0xbd93d4af	-0.072183006
103	0x3bdb499a	0.0066921236
104	0xbe402f02	-0.18767932
105	0x3e290335	0.1650513
106	0x3e064b64	0.13114697
107	0x3d769fa7	0.06021085
108	0x3c096d0b	0.008387814
109	0x3d636c39	0.05552313
110	0x3e46c046	0.19409284
111	0x3e498e0f	0.19683097
112	0xbddbe988	-0.10737902
113	0x3e216603	0.1576157
114	0x3e36f57f	0.17867087
115	0xbe55edf5	-0.20891555
116	0x3de3a6b6	0.11115782
117	0xbe08b164	-0.13348919
118	0x3e20cf76	0.1570414
119	0x3c6a742a	0.014309922
120	0xbe4af8e9	-0.19821514
121	0x3dbd81f2	0.09253301
122	0x3e59676a	0.21230856
123	0x3dc3a9fc	0.09553906
124	0xbe3acba1	-0.18241741
125	0xbdd8b21a	-0.10580845
126	0x3db57eef	0.08862101
127	0xbd0db59f	-0.034597035
128	0x3e4f50c2	0.2024565
129	0xbe296411	-0.16542079
130	0xbc090c2e	-0.00836472
131	0xbe2ccdc9	-0.16875376
132	0x3a6db924	0.00090684206
133	0xbcceaed4	-0.025229849
134	0xbc0d9a09	-0.008642682
135	0xbdde3dcd	-0.10851631
136	0x3e199168	0.14996874
137	0xbd0ef88f	-0.034905013
138	0xbc464239	-0.01210075
139	0xbd3bf842	-0.045891054
140	0x3e105c96	0.14097819
141	0x3e357991	0.17722155
142	0xbddc6492	-0.1076137
143	0xbd9d356b	-0.07676204
144	0xbd7479f3	-0.059686612
145	0xbd3712bc	-0.0446956
146	0xbd48e6b2	-0.049048133
147	0xbe52ef39	-0.20599069
148	0xbdc73ee8	-0.09728795
149	0x3e1c583d	0.15268035
150	0x3e53a83d	0.20669647
151	0xbd61c78b	-0.05512194
152	0xbcdf95fb	-0.027293196
153	0xbe1cd6e4	-0.1531635
154	0xbe344f9c	-0.17608494
155	0x3cb4eb3b	0.022084823
156	0xbc545f29	-0.012962141
157	0xbde2588b	-0.110520445
158	0x3d8a1b04	0.06743434
159	0xbdec3031	-0.11532629
160	0x3e5549f9	0.20829
161	0x3e2d33cc	0.1691429
162	0x3d034a47	0.03205326
163	0x3e345819	0.17611732
164	0x3cb699e9	0.022290187
165	0xbe3ce241	-0.18445684
166	0x3e097062	0.13421777
167	0x3e021ed1	0.12707068
168	0x3d62da24	0.055383816
169	0xbd0d1c3f	-0.034450766
170	0xbba2bebf	-0.0049665864
171	0xbd42cc62	-0.047558196
172	0x3dbe3ed0	0.09289324
173	0x3df71c0a	0.12065895
174	0x3d119db1	0.035550777
175	0x3e3c7cf8	0.18407047
176	0x3d7515c2	0.059835203
177	0x3e19f848	0.15036118
178	0x3d15947b	0.036518555
179	0x3e1c4e74	0.15264302
180	0x3da06ab1	0.0783285
181	0x3d9e7bda	0.077384666
182	0x3e355441	0.17707922
183	0x3e3e4711	0.18581797
184	0xbe2cfce7	-0.1689335
185	0x3e2aba2f	0.16672586
186	0xbe1aa1d7	-0.151008
187	0x3e50fc37	0.20408712
188	0x3e4a138a	0.19734016
189	0x3d08f2b0	0.03343457
190	0xbdfc21c2	-0.12311126
191	0x3cd286c8	0.025699034
192	0xbe2568b1	-0.16153218
193	0x3e526393	0.20545797
194	0x3e2389b6	0.15970501
195	0xbe126d1b	-0.14299433
196	0xbe25cfa7	-0.16192494
197	0xbdbff772	-0.09373368
198	0x3de0e86b	0.1098183
199	0x3c9fd8a8	0.01951249
200	0xbc72a631	-0.014810131
201	0xbde4771e	-0.11155532
202	0xbe35c427	-0.17750607
203	0x3ddd312d	0.10800395
204	0xbd9cc6a2	-0.07655074
205	0x3e3fafe0	0.18719435
206	0x3d88e5f7	0.06684487
207	0x3d83fff4	0.064453036
208	0xbe05ff4c	-0.1308567
209	0x3e5081a4	0.20361954
210	0xbe218c75	-0.15776236
211	0x3e3c683c	0.18399137
212	0x3da5a3b9	0.08087868
213	0x3bde70aa	0.006788333
214	0xbe2756a5	-0.16341646
215	0xbbac9ac6	-0.005267474
216	0x3ba92b12	0.005162605
217	0xbd565735	-0.05232926
218	0x3d8b5cde	0.068048224
219	0xbe191be0	-0.1495204
220	0x3d0b184b	0.033958714
221	0x3e1ce1ed	0.15320559
222	0xbe34af99	-0.1764511
223	0x3d9157e5	0.07096843
224	0x3e4f73c1	0.20259
225	0xbd4c27df	-0.04984271
226	0xbd71904c	-0.058975503
227	0xbdc9fa61	-0.09862209
228	0x3e3d4e85	0.18486984
229	0x3d059afa	0.0326185
230	0xbd2a94e0	-0.041645885
231	0x3e0404b1	0.12892415
232	0x3c5ac640	0.013352931
233	0x3c7f3d32	0.015578555
234	0x3e0abfc1	0.13549711
235	0x3e106cc0	0.14103985
236	0x3d0fd9d0	0.03511983
237	0x3d9809ee	0.07423769
238	0x3e480ec0	0.19536877
239	0xbc7d6a4e	-0.01546724
240	0x3e25bb10	0.1618464
241	0x3dce01bd	0.10058925
242	0x3d2d2ff0	0.042282045
243	0x3d33184b	0.04372434
244	0xbdfc3f90	-0.12316811
245	0xbe17224f	-0.14759181
246	0x3d924d8d	0.07143698
247	0xbd245bec	-0.040126726
248	0x3dc708d2	0.09718479
249	0xbd342500	-0.0439806
250	0xbcabd0b5	-0.020973543
251	0x3deebcba	0.116570905
252	0xbe0d748f	-0.13813995
253	0x3db8a098	0.09015006
254	0xbe26acdc	-0.16276878
255	0x3e46f57c	0.19429582

gru.weight_hh_l2 f4 [60, 20]
0	0x3e4be5ec	0.19911927
1	0x3c487d47	0.0122369
2	0x3dc19698	0.094525516
3	0xbe11ec7b	-0.14250366
4	0xbe03b23f	-0.12860964
5	0x3de3c44e	0.111214265
6	0x3dec1606	0.11527638
7	0xbd324feb	-0.043533247
8	0xbe311724	-0.17293984
9	0xbdf86617	-0.12128847
10	0xbe28c93f	-0.1648302
11	0x3c402adc	0.0117289685
12	0xbe47443e	-0.19459626
13	0xbda7b7d6	-0.08189361
14	0x3e0a6eac	0.1351878
15	0xbddd283e	-0.10798691
16	0xbe0abdd8	-0.13548982
17	0xbe15e922	-0.14639714
18	0xbd5b4e5f	-0.053541537
19	0xbe1f10d6	-0.15533766
20	0x3e1b4a32	0.15165022
21	0x3db19c01	0.086723335
22	0xbe22f18c	-0.15912455
23	0xbe12f6d9	-0.14351977
24	0xbdb81bd8	-0.08989686
25	0xbe22eb10	-0.15909982
26	0x3dad4177	0.08459752
27	0x3e19c561	0.150167
28	0xbe2588ca	-0.16165462
29	0x3e16f4f7	0.14741884
30	0xbe553d34	-0.20824128
31	0xbd9d6cbc	-0.07686755
32	0x3d4d6333	0.050143432
33	0x3da48a9b	0.080342494
34	0xbe01fff6	-0.12695298
35	0x3e44070b	0.19143312
36	0xbe536ea4	-0.20647675
37	0x3c198a0a	0.00937129
38	0x3e0bc45e	0.13649127
39	0x3e1bf0ea	0.1522862
40	0x3d1741e6	0.03692808
41	0xbe1b9fdd	-0.15197702
42	0xbe1e7dbd	-0.15477653
43	0xbd942272	-0.072331324
44	0xbdc12905	-0.09431652
45	0xbe534ef9	-0.20635594
46	0x3e0a35bc	0.1349706
47	0x3e143946	0.14474973
48	0x3e30ee95	0.17278512
49	0xbe3f63dd	-0.18690439
50	0x3d37fa07	0.04491618
51	0x3d4619d2	0.048364468
52	0x3d9b1a5c	0.07573387
53	0x3c84e0ba	0.01622044
54	0x3e3897ff	0.18026732
55	0xbe0c6630	-0.13710856
56	0xbe4ec21a	-0.20191231
57	0xbd0ab4c7	-0.03386381
58	0xbd4be052	-0.049774475
59	0x3e0725a0	0.13197947
60	0xbe50288a	-0.20327964
61	0x3db0d884	0.08635047
62	0x3d984b95	0.07436291
63	0x3d2f33df	0.042774078
64	0xbc9f8ec6	-0.01947726
65	0x3ce03bd7	0.027372284
66	0x3d9a00ed	0.07519708
67	0xbde2f10c	-0.11081132
68	0x3d63629c	0.055513963
69	0xbd91e400	-0.07123566
70	0x3e34f619	0.17672004
71	0xbcac63e8	-0.021043733
72	0x3e1c47a6	0.15261707
73	0xbd4ce544	-0.050023332
74	0x3e27492d	0.16336508
75	0xbdcf7920	-0.10130525
76	0xbe20dc44	-0.15709025
77	0x3e220e85	0.15825851
78	0x3c8cf41c	0.017206244
79	0xbdf6274c	-0.12019214
80	0xbdc84a1f	-0.097797625
81	0x3e58fa86	0.21189317
82	0xbe0b7835	-0.13620074
83	0xbdfdd545	-0.123941936
84	0x3e4f1758	0.20223749
85	0x3d617fd6	0.055053554
86	0xbdfbb198	-0.12289733
87	0xb9e62cda	-0.00043902436
88	0x3cc69682	0.02424169
89	0xbd8a1e1f	-0.067440264
90	0x3e083a0e	0.13303396
91	0x3d7d8ecc	0.06190376
92	0xbe1b4c01	-0.15165712
93	0xbde3f848	-0.1113134
94	0xbe166342	-0.14686301
95	0x3c587daf	0.013213559
96	0x3de564bb	0.112008534
97	0x3b6844d6	0.003544142
98	0x3d4bd6b2	0.049765296
99	0x3e108793	0.14114217
100	0x3e05b89b	0.13058703
101	0x3dd2cfbc	0.102935284
102	0x3c4d0fd3	0.01251598
103	0xbe2f2c55	-0.17106755
104	0x3d25876c	0.04041235
105	0xbbbe3ec4	-0.005805822
106	0xbdc92110	-0.09820759
107	0xbdc33d36	-0.095331594
108	0xbe35cce6	-0.17753944
109	0x3d90a1a3	0.0706208
110	0xbd3af6b7	-0.04564544
111	0xbe3034ba	-0.17207614
112	0xbda3ddb1	-0.08001269
113	0x3d6738c4	0.05645062
114	0xbe125475	-0.1429003
115	0x3dff0ed5	0.12454001
116	0x3cf14ca5	0.029455492
117	0x3e20a558	0.15688074
118	0xbce5aae5	-0.02803559
119	0xbdcffd28	-0.101557076
120	0xbe30012e	-0.1718795
121	0xbdf41bcf	-0.119193666
122	0x3e49ef83	0.19720273
123	0x3c2d0fc3	0.01056284
124	0xbe351341	-0.17683126
125	0x3d06217d	0.03274678
126	0xbe46b219	-0.19403876
127	0xbdc6d6b4	-0.0970892
128	0x3be71a8b	0.0070527247
129	0x3ca37bb0	0.01995644
130	0x3e303421	0.17207386
131	0xbdb136f8	-0.086530626
132	0xbe579a22	-0.21054891
133	0x3dfed883	0.1244364
134	0xbe44452d	-0.19167013
135	0x3d79bbbd	0.060970057
136	0x3d01a1b8	0.031648368
137	0x3e52d807	0.2059022
138	0x3c067e68	0.008208849
139	0xbd09dc6a	-0.03365747
140	0x3e062a57	0.13102089
141	0xbe4e798b	-0.20163552
142	0x3e31f5ce	0.17378923
143	0xba4e4882	-0.0007869081
144	0x3e3fe317	0.18738972
145	0xbe3c13bb	-0.18366902
146	0x3e37f402	0.17964175
147	0x3e0a25af	0.13490938
148	0xbde1a414	-0.110176235
149	0xbe2cd892	-0.1687949
150	0x3db4d139	0.088289686
151	0xbd1ce0cf	-0.03830033
152	0x3ded265c	0.11579582
153	0xbe4faa44	-0.20279795
154	0xbd1cba71	-0.038263742
155	0xbe25aa20	-0.16178179
156	0x3e034d60	0.12822485
157	0x3cfd1cfc	0.03089761
158	0xbe0bcd55	-0.13652547
159	0xbe0a0ae9	-0.13480724
160	0xbdb7313e	-0.08944939
161	0xbe2dc3e5	-0.16969259
162	0xbe32d232	-0.17462996
163	0xbe189d1f	-0.14903687
164	0x3e1d0a6c	0.15336007
165	0x3d1e6c0a	0.038677253
166	0x3d0471e4	0.032335177
167	0x3e0b174b	0.13583104
168	0x3da7a936	0.08186571
169	0x3de5fe74	0.11230174
170	0xbb9b9e66	-0.004749107
171	0xbe41448b	-0.18873803
172	0xbdd5d942	-0.10441829
173	0xbccadf7f	-0.024764774
174	0xbcf5127f	-0.029916046
175	0x3d5a2727	0.053259995
176	0xbcd97d4b	-0.026549002
177	0xbdf7e1ba	-0.12103601
178	0x3d7f3246	0.062303804
179	0x3e2d98e4	0.16952854
180	0xbdc85df4	-0.09783545
181	0x3def1607	0.11674123
182	0x3e3aee75	0.18255027
183	0xbc1eead5	-0.009699543
184	0xbe1c1ce8	-0.15245402
185	0xbd47042c	-0.048587963
186	0x3e3cf081	0.1845112
187	0xbe2a818b	-0.16650979
188	0x3d95d54f	0.07316076
189	0x3d175c13	0.036953043
190	0xbd8bd353	-0.06827416
191	0x3e155b10	0.14585519
192	0xbdd19039	-0.102325864
193	0x3d8d2b28	0.06892997
194	0xbdf2b18c	-0.11850271
195	0xbcb01aa0	-0.02149707
196	0xbe26a10e	-0.16272375
197	0xbe54d4c4	-0.20784289
198	0x3e46e7a6	0.19424304
199	0xbd7f033c	-0.062258944
200	0x3e27d87e	0.16391179
201	0xbe580038	-0.21093833
202	0xbdf75d01	-0.12078286
203	0x3e4a8db7	0.19780622
204	0x3e448609	0.19191755
205	0x3e53e28c	0.2069189
206	0x3cba491d	0.022739941
207	0xbde30164	-0.110842496
208	0xbd9ea6e0	-0.07746673
209	0xbdc81333	-0.09769287
210	0xbdc217b6	-0.09477179
211	0xbdf6b794	-0.120467335
212	0x3e2993dc	0.1656031
213	0x3d37d09b	0.044876676
214	0xbd202383	-0.039096367
215	0xbe2b7e6e	-0.16747448
216	0xbde0ad11	-0.1097051
217	0x3de9e1ee	0.11420046
218	0xbd24a25a	-0.040193893
219	0xbe1c8c60	-0.15287924
220	0xbc8780c2	-0.016540889
221	0x3d890ab0	0.066914916
222	0xbe446f7b	-0.19183151
223	0xbd1e9b86	-0.038722537
224	0x3dc597ed	0.09648118
225	0x3e0bc6f8	0.1365012
226	0xbe3c445f	-0.18385457
227	0x3dd41f89	0.10357577
228	0x3d5bb158	0.053635925
229	0xbe1c6ea2	-0.15276578
230	0x3e5605f9	0.20900716
231	0x3d4d3bcf	0.050105866
232	0xbca2f98b	-0.019894382
233	0x3c03b7e7	0.008039451
234	0xbd57bd56	-0.0526708
235	0x3daac704	0.083387405
236	0x3d18cba1	0.03730357
237	0xbd743cd8	-0.059628338
238	0x3be7920b	0.00706697
239	0xbe2864ac	-0.16444653
240	0xbd88a6ea	-0.06672461
241	0xbc4b2b1a	-0.012400413
242	0xbe52bf22	-0.20580724
243	0x3e2ac419	0.16676368
244	0x3d1b0c60	0.0378536
245	0xbdac63f1	-0.084175
246	0xbc93be31	-0.018035026
247	0xbdbb670c	-0.09150514
248	0x3d130273	0.035891008
249	0x3e4922eb	0.19642226
250	0x3e4cfc54	0.2001813
251	0xbdd01f3c	-0.101622075
252	0xbdad243c	-0.08454177
253	0x3e00590e	0.12533972
254	0xbdf86e4d	-0.12130413
255	0xbe196a47	-0.14981948

gru.bias_ih_l2 f4 [60]
0	0xbe1a8644	-0.15090281
1	0x3d775135	0.06038018
2	0x3bd880ec	0.0066071656
3	0xbda225b2	-0.07917346
4	0xbe266b2b	-0.16251819
5	0xbddce659	-0.10786123
6	0x3d442573	0.047887277
7	0x3e1c299a	0.15250245
8	0x3d407c73	0.046993684
9	0x3e03878a	0.12844673
10	0x3d8b61c2	0.06805755
11	0x3d8c62d6	0.06854789
12	0xbd109dc4	-0.035306707
13	0x3e33cd10	0.17558694
14	0x3dc961d1	0.0983311
15	0xbe138cd8	-0.14409196
16	0x3ddbf1e3	0.107394956
17	0xbdbaa28c	-0.091130346
18	0xbad2a20d	-0.0016070023
19	0x3d5f8288	0.054567844
20	0xb933c06e	-0.00017142456
21	0xbd928ccf	-0.07155763
22	0xbdbc07f1	-0.09181202
23	0x3e3a8c0a	0.18217483
24	0xbca4eb40	-0.020131707
25	0xbe1290af	-0.14313005
26	0x3d06b3f4	0.03288646
27	0x3e346119	0.17615165
28	0xbd47ef17	-0.048812
29	0xbe0721bf	-0.13196467
30	0x3e016ec0	0.12639904
31	0xbdd9e398	-0.10639113
32	0x3da2775a	0.07932921
33	0xbd923bb9	-0.071402974
34	0x3d8be62b	0.068310104
35	0xbc49cf9d	-0.012317565
36	0xbd9ab1ad	-0.0755342
37	0xbe4b8db8	-0.1987828
38	0xbe2f6826	-0.17129573
39	0x3e005abd	0.12534614
40	0xbe1ee581	-0.15517236
41	0x3e4c662d	0.19960852
42	0xbdb4299d	-0.087969996
43	0xbe1669be	-0.14688775
44	0xbd562df3	-0.052289914
45	0xbd7db6c0	-0.061941862
46	0xbd709c30	-0.058742702
47	0x3deddd05	0.11614422
48	0x3e578d86	0.2105008
49	0x3d9de182	0.07709028
50	0xbe2dd61e	-0.1697621
51	0x3cec74b9	0.028864251
52	0xbd3724f1	-0.044712964
53	0x3e492262	0.19642022
54	0x3e0e9217	0.13922916
55	0x3e4e994a	0.20175663
56	0xbe1a4d40	-0.15068531
57	0x3d6b510c	0.05745034
58	0xbb53d378	-0.003232209
59	0xbcb30cc5	-0.021856675

gru.bias_hh_l2 f4 [60]
0	0xbe4bc76f	-0.19900297
1	0x3e319679	0.17342557
2	0x3e3e7562	0.18599465
3	0x3dba2a13	0.09090056
4	0xbe3e7702	-0.18600085
5	0x3dd5aac6	0.10432963
6	0xbd5ce01b	-0.05392466
7	0xbd6d857a	-0.05798862
8	0x3d878444	0.066170245
9	0xbdc766bb	-0.09736391
10	0x3db6effb	0.089324914
11	0x3dbfaf89	0.093596525
12	0x3e33587e	0.17514226
13	0x3e2da850	0.16958737
14	0x3df48f2b	0.119413696
15	0x3c317896	0.010831973
16	0x3e38ede8	0.18059504
17	0x3e1a2914	0.15054733
18	0x3d321510	0.043477118
19	0x3bdd482d	0.006752989
20	0x3d74b254	0.05974038
21	0xbdde3a0c	-0.10850915
22	0xbdcf0a72	-0.10109414
23	0x3d9d559c	0.07682344
24	0x3e357a64	0.1772247
25	0xbdaf621c	-0.08563635
26	0x3de9be26	0.11413221
27	0xbda5d340	-0.08096933
28	0x3d0538fe	0.032525055
29	0x3e4a3076	0.19745049
30	0xbd2510c1	-0.04029918
31	0x3de2b407	0.11069494
32	0x3bbaf751	0.005705752
33	0x3dc9d809	0.098556586
34	0x3d6405dd	0.055669654
35	0x3a100d26	0.00054951233
36	0x3e1a93eb	0.15095489
37	0xbe42b440	-0.19014072
38	0x3dcf3b21	0.101187
39	0xbe544e52	-0.20733002
40	0x3d8d3bb7	0.06896155
41	0x3e155bc2	0.14585784
42	0xbdd2188e	-0.1025859
43	0x3de28306	0.11060147
44	0xbd8c3240	-0.06845522
45	0xbd60f55a	-0.054921485
46	0xbc8a9154	-0.016915001
47	0x3de5affe	0.112152085
48	0xbcf5af72	-0.029990885
49	0xbd25e836	-0.040504657
50	0xbe24ed64	-0.16106182
51	0x3e1384df	0.14406155
52	0xbbfe68a7	-0.0077639404
53	0xbdc383d9	-0.09546632
54	0xbd35a0b8	-0.044342726
55	0x3e1fae54	0.15593845
56	0xbdfbd692	-0.122967854
57	0x3dc20a3a	0.09474607
58	0xbe134096	-0.14380106
59	0xbd57c636	-0.052679263
