model-RNN-DDPG/just_theta/pi.pth (torch, 71498 bytes, 92 tensors)

gru.weight_ih_l0 f4 [30, 1]
00000000: 7910 babd 6a2a 453c ec61 0a3e 4c63 97be
00000010: 7b4b 363e 40a6 b53d decf 93be 4f50 e83d
00000020: 3425 823e e9e6 1dbe 0503 87be 393e 74be
00000030: 39ec 07be 3a9b 89be a523 8cbe 7e4f 1e3d
00000040: 3094 e8bd 22a2 a83b fff5 e2bd a123 953e
00000050: 4ae0 5d3e 1782 4f3e c288 413e 1f49 a03d
00000060: 1671 9f3d ecfa 60be 6f60 363d 47ad a0bd
00000070: 24b1 83be 81bb 3abe
-0.09085173 0.012034038 0.13513917 -0.29567945 0.17802231 0.088696 -0.28869528 0.11343443
0.2541901 -0.15420116 -0.2636949 -0.23851861 -0.13273706 -0.2687624 -0.27370945 0.03865003
-0.113563895 0.005146281 -0.11082076 0.29128745 0.2166759 0.20264469 0.18899825 0.07826447
0.07785241 -0.21970719 0.04452556 -0.0784555 -0.25721085 -0.1823559

gru.weight_hh_l0 f4 [30, 10]
00000000: 6c2b 153e fd80 fd3d d4eb 86be 0834 7e3e
00000010: 601a 453e 0e9d 58be d9ef 573d be34 f03d
00000020: 33ca f53d ff07 5c3c 1d07 7f3d 9ff9 a7bd
00000030: c29c 6a3d a518 f4bd c66a 5a3e 689d 47be
00000040: b726 1dbe aa29 18be 9874 5bbe 3527 d03d
00000050: b8a1 a73d 4144 953e 237b 99be 76b3 e13d
00000060: cc40 60be 6324 81bd 6255 36bd 9532 7abe
00000070: c15b afbd 2706 cdbd 5c66 bb3c 8b05 e8bd
00000080: 0860 593e 7a5a 963e 83e1 123e d7a8 88be
00000090: 1b31 ca3c 5c13 7abd 7dea 7ebe 9711 85be
000000a0: 22c3 02be 8c14 493d 45f8 073e 0f57 603d
000000b0: 6637 b23d 7bbd 45be 3d6c 823d 11d6 b23d
000000c0: c444 8cbe 2fe8 00be 2f09 58bd 47cb 8c3e
000000d0: 6fbc cf3b 4c2c 7dbe 276a 0dbe 2867 b2bc
000000e0: 0e9c 833e 03b9 5e3e 46ee 06be 587e 7ebe
000000f0: 8232 803d 894c d1bd f0c8 b53c abd2 473e
00000100: ba7f 583e bb95 ea3d 0d63 24be 58bf e53d
00000110: bf12 593e 085f fd3d ca7f 153d a548 6b3e
00000120: 8577 aaba 9218 b9bc 7d91 2dbc 403e 8dbe
00000130: 329c 7dbd 6d14 733e 777f 8f3e 9d91 33be
00000140: 822c 56be b4ee c53d 0dad 8dbe 1e49 16be
00000150: 8e04 08be 07a3 90be 901a 7abe 82b9 58be
00000160: 1cd3 643e e7f5 3cbe ebb7 96bd 7668 cfbb
00000170: 01bf aebc 6e9f 463e cd0b 8b3e 1b79 10be
00000180: e6f4 7c3e 0044 383e 71b2 8abc 7d39 73be
00000190: 6b40 3cbe 4262 4dbe 4470 babd f3d7 a43c
000001a0: 8d3b 91be f112 05be 00f7 e53d da47 82be
000001b0: db83 e4bd 42d8 6bbe 5c2a 983e aeb8 083d
000001c0: fe34 dc3d c714 a3bd 3bb0 87be ca4e 3fbe
000001d0: e842 843e a0dc 89be d3df febd 6d8f 013e
000001e0: e33c 23be 1c31 b4bc 5832 183e da02 cabd
000001f0: e69d be3d 07e9 a6bd a68b bbba ea8b 8a3e
00000200: 8b98 31be 0b6f a2bd 7dca 4bbe fe1b 7d3e
00000210: 4681 aebd 2a2e 2a3d acee 83be 61b8 813e
00000220: e8e8 1c3e c257 423e 0157 3f3e dd49 40bc
00000230: 64d0 133e ea11 d33c 2c11 90be 4a55 953e
00000240: 94d1 d93d b215 063e 7173 833e 4fa5 a93d
00000250: fec3 85be edba 883e eb31 b43d 497d 06be
00000260: 38c2 93be 9b91 993d 9462 32be a6dd 4bbe
00000270: a6c0 8ebe 0f7a 88be 4169 bf3d 10e3 813e
00000280: 1cd2 93bd 7ded 20be 42ec 1c3e a2d7 51bd
00000290: d746 3c3e 4b2c a7bc c74e 1fbe 3ff5 993e
000002a0: abab 773c 0b2c 1c3d 3fa4 13be d927 e53c
000002b0: af05 85be 69ea 6a3e 90f1 c9bd 3e73 19bd
000002c0: c5f9 50be a0b0 5a3d ab93 04bd bbec 2c3d
000002d0: 6eda 7c3e ac36 febc 192b e2bd 7de8 283e
000002e0: e8c3 39be 3909 95bd 8fa5 413e e8d0 653e
000002f0: b5dd 65be 941c 393e 6e25 6b3e 475a 0c3e
00000300: 656f 743d c6a5 92be 66b9 c6bd 58cb 793e
00000310: 6ccd 8bbe 0296 4bbe af0f 8ebe ba0c f63d
00000320: 29df 953d 12ae 3cbd 72b3 5fbe e06a e03d
00000330: 7211 ddbd 301a 993d f8a9 803d fdd3 893d
00000340: cf33 2fbe 3cfa 4ebe 82bb 50be 6f8a 07bd
00000350: 85c3 f4bd 1f9f 23be 6336 613d bf9f c93d
00000360: de0f 7a3e 02e6 98bd 5dda 1d3c bbe4 823e
00000370: 9d1f 06bd 81d1 4f3e 8adc fcbd fa84 65be
00000380: 642c 2c3d 5c7e 473e d732 8e3e 54e2 4bbe
00000390: 2eee c73c a009 4b3e b8f1 02bd 8cb8 74bd
000003a0: 9e6d e3bd 8ead 68be 95f4 3a3e 174f 2cbe
000003b0: 8c93 95be 5382 0fbe 2b49 653e df45 8cbd
000003c0: a507 3e3e f5f5 6b3d e3d5 063d 50a1 77be
000003d0: 953a 09be f398 3cbe 051a c1bd 325d 0d3e
000003e0: 7421 56be 2a86 f3bd e2fa d13c ae1a 84be
000003f0: 2544 c53d 2dce 883e 09a6 653d b4e6 44be
0.14567345 0.12378118 -0.26351798 0.24824536 0.19248343 -0.21153662 0.05271897 0.1172881
0.12001457 0.013429641 0.062262643 -0.08201908 0.057278402 -0.11918763 0.21329793 -0.1949364
-0.153468 -0.14859644 -0.21431196 0.10163728 0.08185142 0.29153636 -0.29976758 0.110205576
-0.21899718 -0.06305768 -0.04451502 -0.24433358 -0.085624225 -0.10010939 0.022875957 -0.11329182
0.2122804 0.29365903 0.14343838 -0.26691315 0.024681618 -0.06105362 -0.24894138 -0.25989982
-0.1276975 0.04909186 0.13278301 0.054770526 0.08701973 -0.19310562 0.06368301 0.08732236
-0.27396214 -0.12588571 -0.052743133 0.27498838 0.0063396017 -0.24723929 -0.13810025 -0.021777704
0.25704998 0.21750264 -0.13176832 -0.24852884 0.062596336 -0.10219676 0.022190541 0.19513957
0.21142474 0.1145434 -0.1605341 0.112181365 0.21198557 0.123716414 0.036498822 0.2297693
-0.001300559 -0.022594724 -0.010593769 -0.27586555 -0.061916538 0.2373826 0.28026935 -0.17536016
-0.20915416 0.0966467 -0.2767109 -0.1467633 -0.13282987 -0.2824938 -0.24424195 -0.21164516
0.22346157 -0.1845318 -0.07359298 -0.0063295914 -0.021331312 0.19396755 0.2715744 -0.14108698
0.24702796 0.1799469 -0.01693079 -0.23752399 -0.18383949 -0.20057014 -0.09103444 0.020122504
-0.28365746 -0.12995507 0.11228752 -0.25445443 -0.11157962 -0.23031715 0.29719818 0.03337925
0.10752295 -0.07962947 -0.2650164 -0.186824 0.25832295 -0.26926136 -0.12445035 0.12652369
-0.15941195 -0.021996073 0.14862955 -0.09863825 0.093074605 -0.08149915 -0.0014308586 0.2705987
-0.17343347 -0.07931336 -0.19901462 0.2471771 -0.08520751 0.04154793 -0.2576803 0.25335982
0.15323222 0.1897879 0.18685533 -0.01173636 0.14434963 0.025765378 -0.281381 0.29166633
0.10635677 0.13094214 0.25674012 0.08283483 -0.26126093 0.26705113 0.087985836 -0.1313373
-0.28859115 0.07498475 -0.17420417 -0.19908771 -0.27881354 -0.26655623 0.093462475 0.25368547
-0.072178096 -0.15715595 0.153245 -0.051231034 0.18386398 -0.020406863 -0.15557395 0.3006992
0.015116612 0.03812794 -0.14418124 0.027973102 -0.259809 0.22940983 -0.098605275 -0.03746342
-0.2040778 0.0533911 -0.03236739 0.04221795 0.246927 -0.031031929 -0.110433765 0.16494937
-0.18141139 -0.0727715 0.18910812 0.22442973 -0.22447856 0.18077308 0.22963497 0.13706313
0.059676547 -0.286421 -0.09703331 0.24393976 -0.27305162 -0.19881442 -0.2774634 0.12014146
0.07317955 -0.046064444 -0.21845797 0.10957885 -0.10794343 0.07475698 0.06282419 0.06729887
-0.17109607 -0.20212644 -0.20384029 -0.033091005 -0.11951355 -0.15978669 0.054983508 0.09844922
0.24420115 -0.074657455 0.009634581 0.25565132 -0.032744993 0.20294763 -0.12346752 -0.22414008
0.04203452 0.19481796 0.27773163 -0.19910556 0.024405565 0.1982789 -0.031968802 -0.05974631
-0.11104892 -0.22722456 0.18257363 -0.16827045 -0.29214132 -0.14014558 0.22391193 -0.06849264
0.18557604 0.05760761 0.032918822 -0.2418263 -0.13401254 -0.1841772 -0.09428791 0.13805082
-0.20911199 -0.11890824 0.025632326 -0.25801605 0.09632138 0.267198 0.056066547 -0.19228631

gru.bias_ih_l0 f4 [30]
00000000: 65e7 a83b 0292 693d f9b7 99be 97ab 75be
00000010: 5958 09be 6c9b fc3d 2cc5 7c3e 0fdb 0a3e
00000020: 9d91 3dbc a4fa b63d 484c 1d3e 09a1 173e
00000030: 13ea 40be 2069 4fbe 8eb4 59be 9aeb 09be
00000040: 32f9 89be 8db9 1f3d 9ab4 75bc 6756 853e
00000050: c7ad 933e 71ec 92be a71e 6f3e e465 6b3d
00000060: 09f9 4b3e c47a 593e f8ca 873e 904b f73d
00000070: f8b1 1dbe 29ce 1ebd
0.0051545375 0.05702401 -0.30023172 -0.23991238 -0.13412608 0.12334332 0.2468459 0.13560127
-0.011570361 0.08934525 0.1536113 0.14807524 -0.18839292 -0.20254946 -0.21260282 -0.13468781
-0.26947933 0.038995314 -0.014996672 0.26042482 0.2884352 -0.28696015 0.23351537 0.057470217
0.19919218 0.21238238 0.2652204 0.12074959 -0.15399921 -0.03877083

gru.bias_hh_l0 f4 [30]
00000000: 013d 14be 0017 223d e3b2 813e 8bfd 573e
00000010: e542 983e 3a7c b7bc b20a 16be f0dd 833e
00000020: a06a 25be 16d3 9a3d b030 f7bd 1e53 cbbd
00000030: 0fe6 713e 407b 73be 17ed cbbd 0bd2 ff3c
00000040: 326c 37be b868 56be dace 833c 065b 6abe
00000050: 57f1 86be b985 e33d ac02 7d38 a8e6 05be
00000060: 087f 0dbe 317e 37be cf2b 993e 2a5b 5e3e
00000070: 73b5 76be b2e5 6bbe
-0.14476396 0.039572716 0.25331792 0.21092813 0.29738536 -0.022398103 -0.14652517 0.25755262
-0.16153955 0.07559793 -0.12069833 -0.09927963 0.23622917 -0.23777485 -0.09957331 0.031228086
-0.17912367 -0.20938385 0.016089845 -0.22886285 -0.26356003 0.1110949 6.032239e-05 -0.1307627
-0.1381799 -0.17919232 0.29916236 0.21714464 -0.24092655 -0.2303684

gru.weight_ih_l1 f4 [30, 10]
00000000: 1667 35be 9afc 543e d292 f3bd 5f26 08be
00000010: f892 413e dadd 3d3e 5681 4cbe bfa8 193d
00000020: d6f0 823c f7c8 833e d561 7dbe 5f2b a83b
00000030: 4072 223e 9b8e aebd b136 64be 12fb 7f3e
00000040: ecf2 803d fb6a 24bd 409f 5a3d 1b0d 213e
00000050: 662c 6a3e 2852 15be 3d44 97bd 482c 7abc
00000060: d50d 223e be13 67be c5f8 563e c994 883e
00000070: e1f0 89be 786d 93bc 5f55 3c3d 415b 23be
00000080: 61df 08be 5220 353e 5b65 82be 96de ccbd
00000090: 23e4 c53d 91de 433e e34d 733c ab87 5a3e
000000a0: b07e aabd 0969 e139 1220 32be be40 733e
000000b0: 2f0d 86be 6233 d0bd fdf0 653e 47c0 293e
000000c0: 3d7b 79be 4b3f 81be d571 c9bc 2b8a 31be
000000d0: 7a05 42be fe4c 073e b31a 22be fdf7 3fbe
000000e0: c95a 213e d119 cc3c eb88 a03d 6c69 033e
000000f0: 325f 833e 4558 803e 5597 c63d eb64 723e
00000100: 1d57 b93d eba7 8a3e dfaf ff3d 26e4 bfbd
00000110: 59b2 813d 80f4 463e dc07 4bbc 3673 92be
00000120: c8e8 b13d 48cf 66be a741 97bc 5693 07be
00000130: a657 393e 73af 2e3e 7c3c 43be bdac 483e
00000140: 4603 91be 2e62 d0bd 4bf2 393e f621 e73c
00000150: 2046 9dbd 7a01 72be 3f87 25bd fee4 8dbd
00000160: 21a9 be3d 7686 5fbe 1a67 fcbd 141a 5dbe
00000170: 4d1b 16be 4859 c3bd 5471 813e d4d5 653e
00000180: 7820 d83d 7988 543e a9a8 6abd e2c9 b03d
00000190: 7bc4 3bbe 9584 993e a847 78be e4fd 40bd
000001a0: 1b5c 773e e630 563d 9825 9dbd 519c 963e
000001b0: 872b 40be 6070 3fbe dd25 30bd 16ed 87be
000001c0: 8e10 763d ed35 1b3d 83bb b9b9 9799 7e3e
000001d0: b8dc ee3d 8f3e 80be 42b2 163e fc6a 553e
000001e0: 64b8 e33d 70e1 b4bc ed5f 8a3d e72e 82be
000001f0: 94ff aebd d032 68be cb00 183e c4f3 bc3d
00000200: 0fa6 4bbe 7613 e63d ba84 503e 7c15 623e
00000210: 4934 b93d ab19 47bd a250 313e 6b18 40be
00000220: 66e7 5ebe 2161 a1bc 8253 1c3e 0c36 89bd
00000230: 3a77 8ebe 4476 7fbe f298 e53d b988 693e
00000240: 4ea2 eebd 1f7c 1ebe 027d 5e3e 1e4b f53d
00000250: 2f9f 6abd 2e10 08be c33f 503e a8a6 293e
00000260: 9aca 9ebd a586 963e 66e4 c1bd 412f 963e
00000270: b5dd 39bb b6b5 c8bd d688 803e 4ff1 043d
00000280: 3706 7f3e fc36 883d 65bb 873d acb5 8bbd
00000290: a2d8 4ebe 606d 98be 8b9e 003e 1129 473e
000002a0: 2c2c 90bd 0ceb 143e c607 483e 4621 3f3e
000002b0: b284 44be 98d9 123e 7cb5 8cbe a096 7a3e
000002c0: 7176 1f3e e9a9 e53d 4ea7 92be 144c 053e
000002d0: 6c95 ef3b 2e2e 803d 89dc a63d 33fe 88bd
000002e0: da89 a03b 7feb 183e 8876 8c3e be3d 22be
000002f0: 81fe 51be 8b49 f1bd 82ff 283e c135 243d
00000300: a3ed 86bc dfb7 d2bd 4b21 cfbd 6455 1abe
00000310: 5386 083d 7bb4 72be 4718 84be eafe 45bc
00000320: 66c6 92be a9e9 1d3d 0e31 41be c000 d73d
00000330: 712e 903c 6caa 8b3e c1c1 8c3e 07c8 8a3e
00000340: 9de7 533e 7e19 4fbd 4f88 5dbd 2f52 54be
00000350: fde2 94be cb63 943c 2814 d3bd 3c4f 743e
00000360: 0c59 5d3e 364f 14be 8574 3c3e d5f1 aa3d
00000370: 8495 56be 5eb4 c3bc 65c6 8dbe 5223 1cbe
00000380: 59ec 59be 227c 8e3e 7914 6abd 1120 0bbe
00000390: e931 313d e5d2 86be 541c 5b3e 267e 97bd
000003a0: df40 833e f4d1 0b3e 5fe6 63be 4a05 94bd
000003b0: e6d2 3c3d df91 95bc 0b7f 913e 209e cbbd
000003c0: a547 bfbd d712 62be d855 78be 7adf c03d
000003d0: d0e7 89bc 0534 493d de09 17be 1bbe 4b3d
000003e0: 029e 893e 6ddc 74be d8a4 6d3e 510a 94be
000003f0: 46ab 983d 6241 5c3e b3b7 83be 1598 8f3e
-0.17715105 0.20799485 -0.11893238 -0.13295887 0.1890372 0.18541661 -0.19971213 0.037514444
0.01598398 0.25739262 -0.24744351 0.0051321234 0.15863895 -0.085232936 -0.22286488 0.2499812
0.06296334 -0.040141087 0.05337453 0.15727656 0.22868499 -0.14582121 -0.07386062 -0.015269347
0.15825589 -0.22566125 0.20993336 0.26676014 -0.2694159 -0.017996535 0.045979854 -0.1595278
-0.13366462 0.1768811 -0.25467953 -0.100033924 0.09662654 0.19127871 0.014850113 0.21340816
-0.08324945 0.00042993602 -0.17395046 0.23755166 -0.26181933 -0.101660505 0.22455211 0.16577254
-0.24363418 -0.252436 -0.024590412 -0.17337863 -0.18947402 0.13212964 -0.15830497 -0.18746944
0.15757288 0.024914654 0.07838615 0.12833184 0.25658566 0.25067344 0.09696833 0.2367131
0.09049819 0.27081236 0.124847166 -0.09369688 0.06332845 0.19429207 -0.012392011 -0.28603524
0.086869776 -0.22540009 -0.018463923 -0.13239798 0.18099841 0.17059116 -0.19066042 0.19597144
-0.2832281 -0.10174976 0.18158834 0.028214436 -0.07679391 -0.23633376 -0.040412184 -0.069284424
0.093096025 -0.21828637 -0.123243526 -0.2159198 -0.14658852 -0.095385134 0.25281775 0.2244485
0.10553068 0.20755185 -0.057289753 0.08632256 -0.1833667 0.29983965 -0.24246085 -0.04711713
0.24156229 0.052292727 -0.07673186 0.29416135 -0.18766604 -0.18695211 -0.04300486 -0.2654807
0.06007438 0.037893225 -0.00035425657 0.24863277 0.116631925 -0.25047728 0.14716437 0.20841593
0.11119154 -0.022080153 0.06756578 -0.2542641 -0.085448414 -0.22675633 0.14844052 0.09226182
-0.19887565 0.11234181 0.20363131 0.22078508 0.09043176 -0.048608463 0.17315915 -0.18759315
-0.21767959 -0.019699635 0.1526623 -0.06699762 -0.27825338 -0.24947459 0.11210813 0.22806062
-0.11652051 -0.15477036 0.21727374 0.11977218 -0.057280716 -0.13287422 0.20336823 0.1656748
-0.07753487 0.293996 -0.09467392 0.29332927 -0.0028360907 -0.098002836 0.25104398 0.032456692
0.24904715 0.066511124 0.066275395 -0.068217605 -0.20199826 -0.29770947 0.1256048 0.1944926
-0.07039675 0.14542788 0.19534215 0.18665037 -0.19191244 0.14340818 -0.27482212 0.24471521
0.15572526 0.112140484 -0.28643268 0.13017303 0.0073115136 0.06258808 0.081475325 -0.0668911
0.0048992457 0.14933585 0.27434182 -0.15843865 -0.20507242 -0.11781605 0.16503718 0.040090326
-0.016470736 -0.10288977 -0.10113772 -0.15071636 0.033331227 -0.2370166 -0.25799772 -0.012084702
-0.2866699 0.038552914 -0.18866369 0.1049819 0.01760027 0.2727846 0.27491572 0.27105734
0.20693822 -0.05056142 -0.054085072 -0.20734476 -0.29079428 0.018113991 -0.10306579 0.2385835
0.21616 -0.14483342 0.18403824 0.08346907 -0.20955473 -0.023889717 -0.27690426 -0.15247849
-0.21281566 0.2782908 -0.05714843 -0.13586451 0.04326049 -0.26332775 0.21397525 -0.07397108
0.2563543 0.1365431 -0.22255848 -0.07227571 0.046099566 -0.018258033 0.2841724 -0.09942269
-0.09339837 -0.220775 -0.24251497 0.09417625 -0.01683417 0.049121875 -0.14749858 0.049741846
0.26878363 -0.23912211 0.23207414 -0.2891412 0.07454543 0.21509317 -0.2572609 0.28045717

gru.weight_hh_l1 f4 [30, 10]
00000000: ba83 7ebd e50f 703e 46a9 7e39 fca2 6cbe
00000010: 6969 62be 572a 073e b480 783e b524 3a3d
00000020: 79d4 693e b78f 6c3e 7f74 063d 253c 2d3e
00000030: 70cd d43d 3c86 7ebd 9f80 623e 3a51 29be
00000040: 99bd 45be d476 843e 8d4a 103e 1723 04bd
00000050: 2f5f 8c3e 2054 4ebd dc95 74be 7e28 16be
00000060: e25e 533e a119 803e d600 48be 99f8 0bbe
00000070: b3d2 32be 3a84 f3bd 120d bf3c c04c 9bbc
00000080: 248c 523e ad08 33be cf64 debc fc4f 4e3e
00000090: 8818 67be 79b6 23be 5712 61be 3fa7 cc3d
000000a0: 3a05 56be f5fc 8bbe 4efd 3cbe 9f76 0bbe
000000b0: 2dfe 8b3e 2900 f23b 5c69 fe3d 39f6 90be
000000c0: e7bd 8ebe cc93 253b ddf7 67be 79ad ea3d
000000d0: 603c 653e 5cb2 b8bd 8981 0c3e eca1 3d3d
000000e0: c5dd 8d3c 5709 e3bd 7a7a 5c3d 46c4 16be
000000f0: bc11 53bd 3e76 893e 5539 ad3d c250 d23d
00000100: ebbe 19be 1903 4c3e be9e 083d ca02 6e3e
00000110: 5713 1bbe 5f5c 64bd 92de 8c3d a2c5 043e
00000120: 2157 08be 9c01 053d f832 57be 1c50 90be
00000130: 8887 6dbe 94a2 11be faad 80be 7fea 0abe
00000140: 2d68 833e 54ba 8fbe 852e 95be b6b2 24be
00000150: 676f 6f3e 3dec 40bd 17f3 bc3d 622d 7d3d
00000160: 0625 89be c0ca 7a3e 88af 283e ba2a 8cbe
00000170: b4e7 cabd 471a 04be cbfa 1ebe 4de6 6dbe
00000180: 5077 46be b49d 0a3d 4008 58be 47f3 62be
00000190: a9e2 593e 6ba2 213c db5e 3fbe 4ce7 703d
000001a0: f717 94be 8e7d 8b3e e8d1 dc3d ed8e 15be
000001b0: a14d 64be 2fdc 913e f6fb 83be cf80 40be
000001c0: 2f62 8abc e5aa aabb 51c2 c23c 52d8 5a3e
000001d0: a5ab 813e 18a2 57bd b840 e3bd f8e4 06be
000001e0: 5466 453e f203 fe3d e528 c7bd 6bd3 1abe
000001f0: dfbd 5b3c cbe1 703e 3517 953e 1279 52bd
00000200: 5730 893e 2ac8 e03b f5a3 b33d fbd4 87be
00000210: 57f8 863e 8af1 553d 260d 83be bcca dc3d
00000220: 9665 fa3c ff89 97be 143f 923e fe96 90bb
00000230: 6e1f 81bc 5bd1 dd3d 94f1 77bd 22e8 6cbe
00000240: 44e0 4bbd 7913 37be ccbc 88bd 5903 6bbe
00000250: a2e7 e73b 8eb2 8b3e cf2b 833e 669a 393e
00000260: dbae 81be c3c0 b93b 007c 81be fd2b 6d3e
00000270: 82bc b0bc 2740 0f3d 426c 803e eae7 09be
00000280: 418d 403e 9b07 0b3e 8490 9dbd 7985 42be
00000290: 91fc 463e 2969 3ebe 2362 893e e2cd 84be
000002a0: b0cc 86be 5c67 8dbd 8171 dd3d 3fb4 803e
000002b0: 4144 23bd 86d9 6fbe 07c1 8fbe 597c 44be
000002c0: b490 5ebe 7a67 8c3d 2288 1e3c 7e34 f13d
000002d0: aad9 dc3d c7b0 5bbe 013c a9bd c02b b9bd
000002e0: d8e6 c4bd e518 813e 8e54 63be 63e5 743e
000002f0: 3f35 81bc f07a 613d c4e7 0d3e 9495 9dbd
00000300: 1604 903e 87a4 473e 03a4 c3bd 1189 853d
00000310: b031 9dbc 3da6 49be 7e20 6bbe 3735 863d
00000320: d984 213e 9605 34be 071b 843e 6759 82be
00000330: 4b12 ecbd 0dfa a5bd b140 b0bd bd72 d73b
00000340: b60e c53d fab7 fb3d 2ef2 98bc 9e37 f63d
00000350: 5b97 4c3e e058 debc d5d5 21be b286 da3d
00000360: a00e 413e d295 2fbe c99d 5a3b d29a 5b3e
00000370: 25fd 3e3e e36e 493e 1884 bc3d c4b8 4a3e
00000380: 1e58 8dbc 1173 253d 9bb3 85be 9d5f 4abe
00000390: d1eb 883d 406f 95be b79f d2bd ac12 98bd
000003a0: f6eb 083e 322f 593e 01c1 dabc 2213 d33d
000003b0: 06b3 1cbd bb36 08bd e08b 213e daec b7bd
000003c0: 7029 ea3d 854c 353e 2bdd 1dbe 988d 3f3e
000003d0: 3b96 f93d c037 1ebe b60f 0fbe 2651 43bd
000003e0: 5269 ffbd da7f 87be 6cd0 083e bac1 7abd
000003f0: 15ed 993d 00d2 2ebe 47fb 0abe 0866 463e
-0.062137343 0.23443563 0.00024286387 -0.23109049 -0.22110523 0.13199745 0.24267846 0.045445163
0.22834958 0.23101698 0.032825943 0.16917475 0.103907466 -0.062139735 0.22119378 -0.16534892
-0.19310607 0.2587191 0.14090939 -0.032260027 0.2741637 -0.050373197 -0.23885292 -0.14663884
0.20641664 0.25019553 -0.19531569 -0.13669051 -0.17463188 -0.118904546 0.023321662 -0.018957496
0.20561272 -0.17483778 -0.027147679 0.20147699 -0.22567952 -0.15987577 -0.21979652 0.09992837
-0.20900431 -0.27341428 -0.18456003 -0.13619469 0.27342358 0.007385273 0.124224395 -0.28312853
-0.2787926 0.0025265096 -0.22653146 0.114588685 0.22386312 -0.09018394 0.13721289 0.046297
0.017317662 -0.11085766 0.05382774 -0.1472331 -0.051530585 0.26848024 0.08458201 0.102693096
-0.15014236 0.19923057 0.033354513 0.23243251 -0.15144096 -0.055752154 0.068783894 0.12966016
-0.13314487 0.032472238 -0.21015537 -0.2818612 -0.23196232 -0.14222175 -0.25132734 -0.13566016
0.25665417 -0.28071845 -0.29137054 -0.16083798 0.2338234 -0.047100294 0.09226053 0.06181086
-0.2678606 0.24491405 0.1647321 -0.27376348 -0.09907475 -0.12900649 -0.15525357 -0.23232384
-0.19381452 0.033841804 -0.21096897 -0.22163115 0.2127787 0.009865384 -0.18688528 0.058814332
-0.28924534 0.27244228 0.10782224 -0.14605303 -0.22295238 0.284883 -0.25778168 -0.18799137
-0.01689252 -0.0052083605 0.023774298 0.21371582 0.25326267 -0.05264482 -0.110963285 -0.13173282
0.19277316 0.12403096 -0.09724597 -0.15119712 0.013411968 0.23523633 0.29119268 -0.051384993
0.26794693 0.006859799 0.08771507 -0.2652968 0.26361343 0.052232303 -0.2559597 0.10780856
0.030566018 -0.2959747 0.2856375 -0.004412531 -0.015762057 0.10830947 -0.06053312 -0.23135427
-0.049774423 -0.17878522 -0.06676635 -0.22950496 0.0070771733 0.27284664 0.2561936 0.18125305
-0.25328717 0.005668731 -0.25289917 0.23161311 -0.021574263 0.03497329 0.25082594 -0.13467374
0.18803884 0.1357712 -0.0769358 -0.18996228 0.19432284 -0.18594803 0.26832685 -0.25938326
-0.2632804 -0.0690448 0.10812665 0.25137517 -0.039860014 -0.23422822 -0.28076956 -0.1918806
-0.21734887 0.06855674 0.009676011 0.1177759 0.107837036 -0.21454154 -0.08263398 -0.09041548
-0.096143425 0.25214306 -0.22200224 0.23915629 -0.01577246 0.055048883 0.13857943 -0.076945454
0.28128117 0.19496356 -0.09552767 0.06520284 -0.019188732 -0.19692321 -0.22961614 0.06553119
0.15773334 -0.17580256 0.2580187 -0.25458834 -0.115269266 -0.08104334 -0.08606089 0.006574957
0.096219465 0.1229095 -0.018670168 0.12022327 0.19979613 -0.027141988 -0.15804227 0.10670222
0.18853235 -0.17146996 0.0033358207 0.21445778 0.18651254 0.19671206 0.092048824 0.19797045
-0.017253932 0.04039294 -0.2611359 -0.19763036 0.066856034 -0.2918644 -0.102843694 -0.074254364
0.13371262 0.2120941 -0.02670336 0.10306384 -0.038256668 -0.03325532 0.15776014 -0.08980723
0.11433685 0.17704971 -0.154164 0.18706357 0.12186857 -0.15450954 -0.13970837 -0.04768481
-0.1247126 -0.2646473 0.13360757 -0.06121991 0.07515923 -0.17072296 -0.13572417 0.1937486

gru.bias_ih_l1 f4 [30]
00000000: 0c16 643c 357f bbbd c24f 983e ed73 acbd
00000010: f2f0 ed3d e88d 333c 2886 863e 4bdc d7bb
00000020: dc58 27be c410 fdbd e32e 303e c070 45be
00000030: 4e59 33be 7365 72be 3a66 64be 0616 1e3e
00000040: a309 af3d 8592 62bc b4df 81bd 4f7d db3c
00000050: a36f 8b3e 1c46 833e 7d14 9dbd f4a3 823e
00000060: 3cd3 8a3d d753 20be be99 fc3d d0d5 cf3d
00000070: 4a25 40be 5622 93be
0.013921272 -0.09155122 0.2974835 -0.084205486 0.11618222 0.010959126 0.26274228 -0.0065875403
-0.16342491 -0.123567134 0.17205386 -0.19281292 -0.17514536 -0.23671512 -0.22304621 0.15438089
0.0854676 -0.013828878 -0.06341496 0.02679315 0.2723361 0.25639427 -0.076699235 0.2551571
0.06778571 -0.15656982 0.123340115 0.101482034 -0.18764225 -0.28737134

gru.bias_hh_l1 f4 [30]
00000000: 7b09 4f3e 9a03 20bd 8ee5 863e 7670 ad3d
00000010: 7250 9abd 964c 2ebc 2727 45be 9280 c53d
00000020: 8f96 983e b66b 683e 3c29 35bd 0272 dc3b
00000030: 7248 cfbc 7392 2a3d ce0c 7d3e aa8a ae3d
00000040: 0f42 a0bc e1ad 29bd 7fe8 243e e878 a4bd
00000050: 90ae 873e 3a77 06bd 1f79 89bd e907 92be
00000060: b6cd d4bd d0c3 383e be0a 273d 40e8 8e3e
00000070: f66e 933e 1c63 6b3e
0.2021846 -0.039065935 0.2634701 0.08468716 -0.07534875 -0.010638377 -0.19253217 0.096436635
0.29802367 0.22697338 -0.044228777 0.006727458 -0.0253031 0.04164357 0.24711916 0.08522542
-0.01956275 -0.04142559 0.16104315 -0.080308735 0.26500368 -0.032828547 -0.06712555 -0.2852166
-0.10390799 0.18043447 0.04078173 0.27911568 0.28795594 0.22987026

gru.weight_ih_l2 f4 [30, 10]
00000000: 7153 aa3d fc35 923e 1bce 993e 56f6 f63d
00000010: 9b70 803d 6e29 95bd 6769 a73d 932e 94be
00000020: 848c 87be 0f7f 8bbe 9307 7cbe 53bf 29be
00000030: a7ee 693e aafd 59be 2755 51be 498d 983e
00000040: eaf2 3abe 1dcc d03c 8e6a 3fbe c8dd 26be
00000050: 60b4 933e a9ff 80be c5e2 a8bd 2d6a 3abe
00000060: 15ac 9e3c 6f17 883e 540f 5d3d 7e34 5a3d
00000070: 5031 3ebe 94d0 943e 6544 8dbd 9d73 69bd
00000080: 027b d73c a881 e13d 7416 c4bd e648 67be
00000090: baaf cdbd 77bc 6a3e d8a0 453d 66e3 393e
000000a0: ec9c 0a3e 2fa4 833d 438f 02bd f524 743d
000000b0: ea9b 8abe dd87 7fbe 3c43 103e 4dd0 a6bd
000000c0: 7fbd 83bd f66f ecbd d00e a9bd b279 6a3d
000000d0: b2f1 5f3e 31b1 6fbe f3e7 64be 2e54 a43d
000000e0: e066 2a3e a7ed 53be 03f8 9ebd d0b9 003e
000000f0: 26b6 bebd 1366 943e 1d34 0a3e 0ca4 62bd
00000100: c48d 40bd cd43 48be efa6 643d ef88 a0bd
00000110: 53a6 b73c 607e 0abe 8858 81be 1ecf eabd
00000120: a8c3 453e 4fe1 613e 2f12 ff3d 5fd3 99be
00000130: 879d 6e3e 402a 95be 0e01 fbbd 6eb2 e73d
00000140: e1eb 4cbd c36b b93d 8c16 943d 2b8d 37be
00000150: dbc3 0d3e d30d 95be 34ca fc3c f424 0fbe
00000160: 913f 983e 62f3 9a3d eef5 9bbc 48f6 6fbe
00000170: 4e8f 1e3e 2946 c3bd 395e 4f3e 9332 013e
00000180: c77b 863e 11a4 11be d3d9 20be 4028 98be
00000190: 15ef 4cbe c87f 54be 0b35 e23c f677 253e
000001a0: f88b 3b3e a858 33bd 48a3 863d c96b 433d
000001b0: b0e2 1cbe 67a4 813d ea27 49be 2504 efbd
000001c0: e090 47be c200 31bd 1c77 163e 2746 d63d
000001d0: 161c 4cbe d644 73be 6796 18be c9ac 463e
000001e0: 88ae 61be aa92 943e 807a 033e ad2e 3fbe
000001f0: df68 863e 5678 4abe 7d65 0cbd 205a 10be
00000200: 4269 7f3e 2412 4a3e 32fd 8e3e d164 d43d
00000210: 573b d83c a17c 93be 8c8d d03c 5377 9dbd
00000220: 68f4 663e af9c 333e d26d 2d3e 4004 54bd
00000230: a7cb e93c f957 9dbc c520 ecbd 6146 2fbe
00000240: ec3e 4abe 56ce 6c3e f8af 96be c369 b1bd
00000250: f01f 1cbd da54 5d3e 9603 cb3a 4733 c03d
00000260: de5f 77be 0337 86bc db2b 7f3e 885a 42be
00000270: 2e18 09be bfda 043e 59a8 26be b1c0 933d
00000280: 733d e63d 30ca 55be 33d9 ac3d 7702 64be
00000290: 9372 f13b 72cc 213e 71d9 e33d e9dc 3d3e
000002a0: 6e65 013e 1619 b63d dba1 57bd a9f9 043e
000002b0: 31db 8fbe 6360 0d3e c9bd 0f3e c09e 98bc
000002c0: 7b03 8f3e b07e d13b c5ce 9b3b 57d2 32be
000002d0: 078e ecbd 3fca 82bd b435 8cbe e586 22be
000002e0: eb21 55be f312 553e 4f56 653e e6aa 69be
000002f0: ea65 a3bd 538f 2c3e b19f 01be f277 683e
00000300: 0720 3ebd 4921 723e 1e31 873e 50e7 41be
00000310: 22ed 0fbe 32be 463e 3d4a 8bbe 98c7 5dbe
00000320: 7041 3d3e b097 b1bd 4d46 5d3d 2fe9 933e
00000330: 56d6 8f3e 653e 673e 4738 503d 17d9 f03c
00000340: cdf5 40be 1f5e 8b3e fdd6 fabd 7225 99be
00000350: ec5e 193e 94da f039 dd61 3fbe d94d 8d3e
00000360: 4c07 b23c 5df6 b73d 81a9 5cbb bb81 a93c
00000370: 9387 2abe 39b1 f93b d50a 373e 9d63 413e
00000380: a936 c6bb b850 c9bd dda0 8fbd bf4a 973e
00000390: 6765 34be 7691 1c3d 8da0 1f3d b2a5 93be
000003a0: 4443 843e 0a51 003e 0e4a 70be 159b 6ebe
000003b0: 56d7 643e 3d16 253e 8291 4d3d 5919 7dbe
000003c0: 9807 3d3e b680 5b3e 5406 0ebe b2b1 2fbe
000003d0: 0e90 153e 9c34 3dbe 4ae2 df3d 2c80 883d
000003e0: 8d87 eb3d f0d8 1f3e fc16 363e 7629 edbc
000003f0: d9ec e13d 4d70 cd3d 59fb 03be 4beb 71be
0.083166964 0.28556812 0.30040058 0.120587036 0.06271478 -0.07283293 0.08174401 -0.28941783
-0.26474392 -0.27245376 -0.24612264 -0.1657689 0.22844945 -0.21288171 -0.2044264 0.29795292
-0.18256727 0.025487954 -0.18692991 -0.1629554 0.28848553 -0.25195053 -0.08246378 -0.18204565
0.019369164 0.26580378 0.053969696 0.053272717 -0.18573499 0.29065382 -0.06897811 -0.056995023
0.026303772 0.11011058 -0.09574595 -0.22586402 -0.10043283 0.22923456 0.048249096 0.18153152
0.13536423 0.064278 -0.031874906 0.059605557 -0.27072078 -0.24954171 0.14088148 -0.08145199
-0.06432628 -0.11544792 -0.082547784 0.057244964 0.21869543 -0.23407437 -0.22354107 0.080238685
0.16640806 -0.20696126 -0.07762148 0.12570882 -0.09312086 0.28984126 0.13496442 -0.05533223
-0.0470102 -0.19557114 0.055823263 -0.07838618 0.022418177 -0.1352477 -0.25262856 -0.11465286
0.19312918 0.22058605 0.1245464 -0.30044076 0.2330228 -0.29133797 -0.122560605 0.1131333
-0.05002964 0.09053757 0.07230863 -0.17924945 0.13844244 -0.2911211 0.030858137 -0.1397894
0.29735997 0.07565953 -0.019038167 -0.23433793 0.15484354 -0.09534866 0.20250787 0.12616949
0.2626631 -0.14222743 -0.15708093 -0.29718208 -0.20013078 -0.2075187 0.027613183 0.16159043
0.18315113 -0.04378572 0.06574112 0.047710214 -0.1532085 0.063301854 -0.19644132 -0.116707124
-0.19488859 -0.043213613 0.14693874 0.10462599 -0.19932589 -0.23756728 -0.14901124 0.1940185
-0.22039235 0.29018146 0.12839699 -0.18670149 0.26251885 -0.19772467 -0.034276474 -0.1409688
0.24942496 0.19733483 0.27927548 0.10370792 0.026395483 -0.28806022 0.02545812 -0.07688775
0.22554171 0.17540239 0.16936424 -0.051761866 0.028539492 -0.019206988 -0.11529688 -0.17116691
-0.19750565 0.23125586 -0.29431129 -0.086627506 -0.038116395 0.216144 0.001548874 0.093847804
-0.24157664 -0.016383654 0.24919073 -0.18979847 -0.1338813 0.1297407 -0.16275157 0.07214487
0.11242189 -0.2087791 0.08439865 -0.22266565 0.0073683946 0.15800646 0.11125458 0.18541302
0.12636349 0.088915035 -0.05264459 0.12985863 -0.28096917 0.138063 0.14037241 -0.018630385
0.27932343 0.006393276 0.0047548735 -0.17463051 -0.11550527 -0.06386232 -0.27384722 -0.1587177
-0.2081372 0.2080801 0.22396205 -0.22819099 -0.07978423 0.16851549 -0.12658574 0.22702006
-0.046417262 0.2364551 0.2640466 -0.18935895 -0.14055303 0.19408491 -0.27205077 -0.2165817
0.18481994 -0.0867151 0.054022122 0.28888842 0.28093213 0.22582395 0.05083492 0.029400392
-0.18843766 0.27220246 -0.12248037 -0.2991138 0.14977616 0.0004593922 -0.18689676 0.27598456
0.021731995 0.08982537 -0.0033670368 0.020691743 -0.1665328 0.0076200035 0.17875226 0.18885656
-0.0060489965 -0.09829849 -0.07013104 0.29549214 -0.17616807 0.03822466 0.038971473 -0.28837353
0.2583257 0.12530914 -0.2346575 -0.23301347 0.22347769 0.16121764 0.050187595 -0.247167
0.18459928 0.21435818 -0.13869601 -0.17157629 0.14605734 -0.184771 0.10931833 0.06665072
0.11500464 0.15610099 0.17782205 -0.028950434 0.11031503 0.10031185 -0.1288885 -0.23624913

gru.weight_hh_l2 f4 [30, 10]
00000000: 5255 f7bd 1147 8abe 7179 57be 6aa8 6f3e
00000010: a011 663e 9c8d 1e3e 2ff7 933e a558 54be
00000020: abe3 6ebd 3e20 423e 1f12 d43d 24fc 70be
00000030: 562e 36be 79f5 d53d 5cd1 fbbc 1b69 83be
00000040: 1df2 8abe 5592 79bd acf7 49be e84c 173d
00000050: a81b 2a3e f1bd 6d3e 2cb4 bebd d71a 4bbd
00000060: 8dc4 a5bd f865 78bc e4bc 543e 0812 5fbe
00000070: a0a2 983d 0a6c 83be 8521 933e 7d6f 833e
00000080: 86f0 70be 3a04 8fbc 7348 0e3e 4466 7c3e
00000090: 8658 393e 5f84 c9bd b84c 3b3e 6fec 833e
000000a0: 1af3 94be 3a7f 503e 3924 ecbd c287 243e
000000b0: d187 cdbd 7a27 333d c374 903e 6ab0 adbd
000000c0: d715 b0bd 24c6 5c3e 6723 46be 90e4 21bd
000000d0: ad38 3cbc a7c3 993e 5f9c 923e 8520 1e3d
000000e0: 439f 463e 5004 97be 1a48 abbc a182 863e
000000f0: 2da2 8d3e 9dbd 373e e559 03bd 6088 28be
00000100: e4f9 963e 4ea6 8bbd bef0 4bbd f171 053e
00000110: 4070 733d 284e 6d3e e20c 05be a086 623e
00000120: 5e2e 973e 4cb9 c33d cb95 e2bd 17d8 95be
00000130: 4bad 91be 8b5e 543e 5ace 023e 9191 17bd
00000140: d4f3 63be a6e3 1cbe 1fb0 983d fed4 28be
00000150: 3df7 00be b9f6 4ebe 8b15 3fbe b86c c9bd
00000160: af83 96be 39ce 75be 2cf0 93be 3eb1 c6bd
00000170: 4e7e 7c3d bb88 643e b456 95be f072 943e
00000180: 7895 623e c6ed 8bbe 391b 933e 3cb1 573e
00000190: f810 14be ce9d 823d b008 10be 0229 b83d
000001a0: 38fc 3f3e d154 183d ecd2 6bbe ca58 52be
000001b0: 923b 90be a268 f6bc df1d 73be 55e9 083e
000001c0: 331f 85be a09a f9bd 4508 7fbe e194 123d
000001d0: 4d8b 2b3e 1e43 fa3d 611d 21be e9f9 d13d
000001e0: 2a0e 7cbd 47d6 813e edf8 4ebd 449b 163e
000001f0: 9119 6d3d b884 483e f17e 933e f450 113e
00000200: bfd6 d93d cc7f 48bd bc63 233e 7824 57be
00000210: d0bd 8f3d 46e5 8d3e fa08 39be 7bf2 d53d
00000220: 5b6e 933e 8fc6 85be 0cd8 303e b33b 5d3d
00000230: 75a7 a9bd 263b be3d 2d50 35bd 40a7 f1bc
00000240: 3e9c b03d c4b6 5cbe 9460 59be 2f90 59bd
00000250: 4d34 08be a2bb 10be 1bce ec3c 0d73 843e
00000260: 8dfe bebd ee83 333d 3f7e 833e f30a 543e
00000270: 69df e5bc eb4c 78be cdbf 07be f608 57be
00000280: 90fc 943e 1432 93be 5f43 18bb 4430 95be
00000290: 328a 673e ee6a ccbd 091f 29be 18eb 053e
000002a0: d8d0 8fbd 4bbe be3d 516c 3d3e 4189 1c3e
000002b0: f032 e13d c3e9 483c c095 8b3e b5e5 8f3e
000002c0: 97cb f1bd da5a 853e f0da d63d 89e0 0abe
000002d0: 73b4 8dbe e863 14bd 6e37 16be 1540 83be
000002e0: 92d5 b93d 7866 ea3c 92d7 87bd 479a 253e
000002f0: 54c9 3d3e 00ba 173e 106b ecbd b650 433e
00000300: 8040 7d3d 9d78 ae3d cac7 e03d 377f 52bd
00000310: b449 8b3e 017c 363e cb97 0abe 4f5a 01bd
00000320: afb3 b13c 1f2d 98be cea4 bfbc 441e 883d
00000330: 4a1a e73b 1d86 a1bd d395 583e dbf9 333d
00000340: 2da9 97be 9801 63bd a442 863e ba40 7ebe
00000350: 760a 3b3e b363 24bd 99e1 46be f2c1 8fbe
00000360: 3351 3cbe 3202 0dbe 2ca5 3b3e 65ed 943e
00000370: 9457 623d bb26 803d ac87 2f3e e58d 64bd
00000380: fc30 4bbe 59f9 1a3e 80f0 7cbd fb9d 463e
00000390: 93d3 f6bd 6129 483d 7b84 d23d 3189 77be
000003a0: 3aa4 593d 3ae5 99be c45c 7ebe 9559 633d
000003b0: d298 4f3e 4ab6 adbd 4bf9 863e fca3 b13c
000003c0: bfed 753d 8681 89be 3fe0 0dbd 6399 4ebd
000003d0: 0585 b7bb 1251 c73d 2f71 49bd 4211 47be
000003e0: 026d 6a3e e57e 9bbd 6c73 95bd e2b1 19bd
000003f0: ea3d de3d 8631 493e ded6 6b3e 3a62 913e
-0.120768204 -0.27007344 -0.2104242 0.23404089 0.22467661 0.15483707 0.28899524 -0.2073694
-0.05832259 0.18957612 0.10355019 -0.23533684 -0.17791113 0.10447211 -0.030739479 -0.25666127
-0.27137843 -0.06093057 -0.19723386 0.036938578 0.16612113 0.23216988 -0.09311709 -0.049586143
-0.0809413 -0.01516103 0.20775181 -0.21784222 0.07452893 -0.25668365 0.2873651 0.25670996
-0.23529252 -0.01745807 0.13894825 0.24648386 0.18100175 -0.09839701 0.18290985 0.25766322
-0.29091722 0.20361033 -0.115303464 0.16067412 -0.100356705 0.04373882 0.28214082 -0.08480914
-0.085979156 0.2155996 -0.19349442 -0.039524615 -0.011488122 0.30032083 0.28634927 0.03860523
0.19396691 -0.29495478 -0.020908404 0.26271537 0.27662793 0.17943425 -0.032068152 -0.16458273
0.29487526 -0.068188295 -0.049790137 0.13031746 0.05943322 0.23174345 -0.12993196 0.22121668
0.29527563 0.09556827 -0.11063727 -0.29266426 -0.28452525 0.2073919 0.1277403 -0.037004057
-0.22260982 -0.15321216 0.074554674 -0.164875 -0.12594314 -0.20211305 -0.18660562 -0.098351896
-0.29397342 -0.24004449 -0.28894174 -0.09701775 0.06164389 0.22317784 -0.29167712 0.2899394
0.2212733 -0.27329844 0.28731707 0.21063703 -0.14459598 0.06377755 -0.14065814 0.089921966
0.18748558 0.037190262 -0.23029679 -0.20541683 -0.2817045 -0.03007919 -0.23741864 0.13370259
-0.26000366 -0.121876955 -0.24905498 0.035786513 0.16752358 0.12219833 -0.15733863 0.10252745
-0.061536945 0.25358793 -0.050530363 0.14707667 0.05788571 0.19581878 0.28807786 0.14191037
0.10636663 -0.04895 0.15956014 -0.21010005 0.07018626 0.27713984 -0.1806983 0.1044664
0.28795132 -0.2612805 0.17269915 0.05401201 -0.08283893 0.092886254 -0.044265915 -0.029498696
0.08623551 -0.21554095 -0.21228248 -0.05311602 -0.13301201 -0.14134076 0.028906872 0.25869027
-0.093258955 0.04382699 0.25682256 0.20707302 -0.028060632 -0.24248092 -0.1325676 -0.20999512
0.2909894 -0.28749144 -0.0023233516 -0.29138386 0.22611311 -0.09981333 -0.16515745 0.13077962
-0.07022256 0.09313639 0.1849835 0.15286733 0.10996044 0.012262764 0.27262688 0.2810494
-0.1180641 0.26045877 0.10490978 -0.13562216 -0.27676734 -0.03622809 -0.14669582 -0.25634828
0.090739384 0.028613314 -0.06632914 0.16172133 0.18533832 0.14817047 -0.11543858 0.19073758
0.06182909 0.08519099 0.10975607 -0.051390853 0.2720467 0.17820741 -0.13534467 -0.031580266
0.021692125 -0.29721925 -0.023394015 0.06646398 0.0070526944 -0.07886908 0.21150903 0.043939453
-0.29621258 -0.05542144 0.26222718 -0.24829379 0.1826571 -0.040134143 -0.19421996 -0.28077656
-0.1839035 -0.13770369 0.18324727 0.29087368 0.055259302 0.06257387 0.17141598 -0.055799384
-0.19842905 0.15134181 -0.061752796 0.19396202 -0.12052073 0.048867587 0.10279175 -0.24173428
0.053135134 -0.30057698 -0.24840075 0.055505354 0.2027314 -0.084820345 0.2636207 0.02168464
0.060041185 -0.2685663 -0.034637686 -0.05043925 -0.005600574 0.0973226 -0.049180206 -0.19440177
0.22893146 -0.075925626 -0.072974056 -0.037523158 0.10851653 0.19647798 0.23031184 0.28395253

gru.bias_ih_l2 f4 [30]
00000000: 8838 15be c04d 21be 6398 01be fad5 513e
00000010: 5803 29be f89e e83c 3db9 8dbc 4238 063e
00000020: 0fe7 443e c157 5a3e 878a 27be 4fc2 8abe
00000030: d952 3a3c e1c4 633e fef1 90be fdfd 86be
00000040: 8372 aa3d 5f56 333d 0068 3d3e 0532 c9bd
00000050: 98b2 1cbe aa50 863e 8093 363e e18f 893b
00000060: 4285 5a3d c74c 2dbd f29b 8dbe d622 813d
00000070: be78 953e 8a7c 7ebe
-0.14572346 -0.15752316 -0.12655787 0.20491782 -0.16505182 0.028396115 -0.017300243 0.13107398
0.19228767 0.21322538 -0.16361438 -0.2710137 0.0113722915 0.22243072 -0.28309625 -0.26365653
0.083226226 0.04378354 0.18496704 -0.098239936 -0.15302503 0.26233417 0.17829704 0.00419806
0.05334974 -0.04230955 -0.2765804 0.063054726 0.2919368 -0.24852195

gru.bias_hh_l2 f4 [30]
00000000: f4fe 0bbe e25a 87be c554 61be b4ca 673d
00000010: d04c 4e3e 0075 42bc 9f6a 1ebe b65f 343c
00000020: b00d 1fbe 0799 9e3b f21d 513e 7972 d93d
00000030: 7a53 ff3c 6690 2a3e 8d6e 823e 34e8 afbd
00000040: 2632 97be 9cc4 533e 540c 97be 37fd 4c3e
00000050: 4191 363e a278 4f3e 0f66 903e ba0d 30be
00000060: cc40 633d 89c8 803e fa5b 173c a6bf 4b3e
00000070: a58f 7ebd fa69 5f3e
-0.13671476 -0.26436526 -0.22004993 0.056589797 0.20146489 -0.011868715 -0.1547036 0.011009147
-0.15532565 0.0048400196 0.2042158 0.10617537 0.031167734 0.16656646 0.2547497 -0.08589211
-0.29530448 0.2068047 -0.29501593 0.20018469 0.17828847 0.20260862 0.28202865 -0.17192736
0.055481717 0.25152996 0.0092382375 0.19897327 -0.06214871 0.2181777

gru.weight_ih_l3 f4 [30, 10]
00000000: d844 80be 826c 97be 5ae7 cb3d 6397 8abe
00000010: aa21 5b3e 29e1 79be aeb8 3fbe 66a1 263e
00000020: aac0 8dbe d735 77bd f921 ad3d b706 81be
00000030: 47c5 723d 6122 7cbe d249 e83d 553b 5f3d
00000040: f625 893e 4c67 613e 7738 953d c0c1 7d3e
00000050: 765e 9abd 7b3c d4bd 3326 1fbe 2f32 5bbe
00000060: 784b 453e 39c4 2b3e 0c57 2cbe 7315 46be
00000070: eb6c 853e 892c ba3c a3d9 edbd 3cad 1cbe
00000080: 1a7e 7c3e ec1a 44bd c8f2 93bd ef90 6ebe
00000090: bd84 2a3c b0b8 1c3d ca44 8f3e a007 6f3e
000000a0: 7592 b03d e1fa 353e 5dde 8cbe 6699 b2bd
000000b0: 1386 1c3e 485f 743e 4a93 913e 2b88 3dbe
000000c0: 561f 8a3e 4e5a 193e f93a 493e 7d9d 163e
000000d0: 139c 55be 7e61 12bc 1226 42be 970a 863e
000000e0: 54f5 63be e15d 163e 97ad a1bd 5c79 37be
000000f0: 95a7 e83d 6163 313e 359a 28be e6d1 62be
00000100: 123d 873e a7e3 9c3d 889c 4dbe aeb3 303e
00000110: 4fc1 653e 5f7b 10be 6679 383e e817 6bbe
00000120: f95e 3abd e1d6 5a3e 5863 573e 73bb da3d
00000130: 3f3e 523d 992a 7ebe b58d aabc 75a1 4e3d
00000140: fdcb e1bd 8b0c 93be c876 293d a2c2 4a3e
00000150: 9876 6f3e 81f8 2ebd 3b0c 993e f757 70be
00000160: 7a08 72be 4166 853d da17 213e 8f43 4abe
00000170: ad39 ed3d 1aaa 6dbe e3e3 eebd fabd 34be
00000180: d307 893d a4cb ff3d a85e 15be 46f1 883b
00000190: 68d4 063d 901f a2bc effc b3bc 6e63 f53c
000001a0: b340 c9bd 1250 4f3e 84ee 2cbe 5908 4d3d
000001b0: 7e79 3a3e 5737 0e3e c2ad 923e 8c24 1e3e
000001c0: 8f87 0cbd a5f7 8c3e cd2b 06be 076a 6e3e
000001d0: a7e5 03be 63bf 6e3e 2acd 0f3d 9c60 203e
000001e0: 1018 27bd a7b6 813e 9866 8cbe 07df 8cbe
000001f0: 2666 60be c685 a1bd e2dd a93d 334e 38be
00000200: 8e1e 92be e995 64be ba00 113c baa1 1a3e
00000210: 7494 65bd a545 863e a14f 58be 3d5a df3d
00000220: 0e38 c83d 8740 363e a5d8 683e 3426 8e3e
00000230: c3b4 843e a843 313e 82dc c63c 11c9 74be
00000240: 18cb 8abd 2c27 38bd a65e 4e3e 4395 293e
00000250: 14e2 8abd 5c16 3dbe bdf5 2fbe f471 8ebd
00000260: bd73 e9bd 73cc 52be a8b9 e03d bbba 9f3c
00000270: 97e5 ca3c 781d 9cbc f1ca 423e b5bd e439
00000280: 4a53 573e 556b 41be 4cbb 2c3e 2e0c 22be
00000290: 27dd 4ebe 94b2 e2bd 9ea6 3c3e 8a3e 2cbe
000002a0: dd9c 8bbe e17e 6e3e 8293 983e dd08 243e
000002b0: 894c 8e3e 3d86 d1bd 2f82 91be 0087 e5bd
000002c0: b579 8ebe 31fb 82be 371b b5bd fa80 c63d
000002d0: 792d 403d c238 423d 38a2 8fbe e33a 1fbd
000002e0: ef6e 28be d214 913e c555 0e3c 4a5b e3bd
000002f0: dc4c a83d 6329 31be a194 1dbd 189f 93bd
00000300: 64be 7fbe 6074 58bd 4459 07bd d967 0b3a
00000310: dfec 09be 047c 303e 5baa 723d 50fc 05be
00000320: ede1 61bd f57a 87be 2ebf 92bd 7586 043e
00000330: 27ed 403e 4efe 0dbe 0ab4 1a3e 3d8a 4fbc
00000340: 3eab b43d a3c2 63be de30 243e a160 903d
00000350: 5a27 4e3e 1e8a 883d fd5b d9bc cdf8 8abe
00000360: 3bc2 153e 4804 1cbe 1915 1cbe 2a5e 16be
00000370: 7df3 e9bd 89fd 36be 6e80 52be 9082 2a3d
00000380: 4f17 37be ce5c 8d3e 5b25 df3c ea81 553e
00000390: 1319 153d 85dc 0d3e a8b1 f43d 2d8e e4bd
000003a0: e4ed 7fbe d253 0a3e 35d0 693e 7ac8 573d
000003b0: 6b2c 9ebd ec86 80bd 250e 613e 807b fb3d
000003c0: a3d0 0fbe 9a59 1d3e 2b82 3abe f09d f8bd
000003d0: c286 52be 4a19 533e dfb2 ebbc 124c 883e
000003e0: ca37 80bd f943 233c 6534 3abe d087 11be
000003f0: 30c9 163e 127f ba3d ffa0 81be 3f9e 203e
-0.25052524 -0.29574972 0.09956236 -0.27068624 0.2139956 -0.24402298 -0.18722793 0.16272506
-0.27686054 -0.06035408 0.084537454 -0.25200436 0.05927017 -0.2462249 0.11342205 0.054499943
0.26786774 0.22012061 0.072861604 0.24780941 -0.07537548 -0.10363098 -0.15541916 -0.21405862
0.1926707 0.16774072 -0.16830081 -0.1934412 0.2605966 0.022726314 -0.116137765 -0.15300459
0.24657479 -0.047877237 -0.07224041 -0.23297475 0.010407624 0.03826207 0.2798217 0.23342752
0.086216845 0.17771484 -0.275134 -0.08720665 0.1528552 0.23864472 0.28432685 -0.18508975
0.26977032 0.14975855 0.19651403 0.14708515 -0.20860319 -0.008934377 -0.18959835 0.26179954
-0.22261554 0.1468425 -0.07894438 -0.17917389 0.11360089 0.17323066 -0.16465075 -0.22150382
0.2641378 0.07660609 -0.20079243 0.17256042 0.22437023 -0.14109562 0.1801506 -0.22958338
-0.04550073 0.21371032 0.2103399 0.10680284 0.051328894 -0.24820937 -0.020819524 0.050446946
-0.11025236 -0.28720507 0.041373044 0.19800809 0.23385084 -0.04271746 0.29892144 -0.23471056
-0.23636046 0.06513644 0.15731755 -0.19752334 0.115832664 -0.2320942 -0.1166456 -0.17650595
0.066909455 0.12490013 -0.1458689 0.0041791527 0.03291741 -0.01979044 -0.021971194 0.029954638
-0.098267935 0.20245388 -0.16887861 0.05005679 0.18210408 0.13888298 0.28648192 0.15443629
-0.034308966 0.27532688 -0.13102646 0.23282634 -0.12880574 0.23315196 0.03510777 0.15661854
-0.040794432 0.25334665 -0.27422023 -0.27513906 -0.21913967 -0.078868434 0.08294274 -0.1799858
-0.28538936 -0.22322811 0.008850271 0.15100756 -0.05604978 0.2622501 -0.21124126 0.109058835
0.097763166 0.17798053 0.22738893 0.27763522 0.2591916 0.17310965 0.024275068 -0.23904826
-0.06777018 -0.044959232 0.20153293 0.16560845 -0.06781402 -0.1846556 -0.17183585 -0.069553286
-0.113990285 -0.20585804 0.10972911 0.01949822 0.02476768 -0.01905702 0.19022729 0.00043628892
0.21027866 -0.188886 0.16868323 -0.15824959 -0.2020155 -0.11069217 0.18422934 -0.16820732
-0.27268115 0.23290588 0.2980004 0.16019006 0.27792767 -0.10230682 -0.28419635 -0.1120739
-0.2782723 -0.2558227 -0.088430814 0.09692569 0.046918366 0.04741741 -0.2805345 -0.038874518
-0.16448568 0.28336197 0.008687441 -0.111013964 0.08217785 -0.17300944 -0.03847182 -0.07208079
-0.24974972 -0.05284536 -0.033044115 0.00053179037 -0.13469265 0.17234808 0.059244495 -0.13084531
-0.0551471 -0.26460996 -0.07165371 0.12941916 0.18840466 -0.13866541 0.15107742 -0.012667236
0.08821724 -0.22242217 0.16034266 0.070496805 0.20132199 0.06666969 -0.026533121 -0.27142945
0.14624874 -0.15236008 -0.15242423 -0.14684358 -0.11423395 -0.17870153 -0.20556805 0.04162842
-0.17879985 0.27609867 0.027239492 0.2085034 0.036400866 0.13853653 0.11947948 -0.111599304
-0.24993092 0.13508537 0.22833331 0.052681424 -0.07723316 -0.06275734 0.21978052 0.12279415
-0.14044432 0.15366212 -0.18213718 -0.12139499 -0.20559219 0.20615116 -0.028771816 0.26620537
-0.06260641 0.009964936 -0.1818405 -0.14211965 0.14725184 0.09106268 -0.25318143 0.15685366

gru.weight_hh_l3 f4 [30, 10]
00000000: b979 443d 399b dbbd 1c3f 933e 74e7 343e
00000010: 1cde b6bd 6a0e bd3d 8938 f63d 3368 1c3e
00000020: ed6e 7bbd a9d9 5b3e 5c42 6cbe c3cd 88be
00000030: cd2b 70be 736a e0bd d044 0cbe 850f 2c3e
00000040: 51aa 5dbe 18cd ad3d b5d1 f2bd 2dc1 623e
00000050: 0d02 a73d 7e62 b03d a7e0 d0bb b706 16be
00000060: f11f 1cbe a3d1 6cbe f103 6dbe 036b 99be
00000070: 00c9 e93d b060 72be e927 67be bed3 0abd
00000080: 3ade 813e a8be 203e 7520 83be 956e 07bd
00000090: 0254 473e cc10 4f3e 374c b23b 8fd8 853e
000000a0: 187e 19be 7cb9 8e3e fad4 023e 418b d83d
000000b0: 7e3a 33bd dd8f 42bd 198b 103e b0ae 8a3e
000000c0: e3d1 8ebd b80f 66be c076 2c3e ac5d fa3d
000000d0: 4cdb 65be c06b 5d3e 68b0 0b3e e7d9 763e
000000e0: 5606 173e a410 19be b75c 833e 7811 0c3e
000000f0: aeb3 f2bd 2229 5c3e 17b5 783e de7b 02be
00000100: 3c59 ed3d f308 46bd 9b88 5fbe 89fd ff3d
00000110: 6e9e 7fbe 0cc6 953d acd8 39be 6102 863e
00000120: 35a0 cb3c f9e7 7abe 7307 7abe c9b3 48be
00000130: 95c4 76be 2003 26bd 9d25 093e f595 2e3e
00000140: 6367 87bd 0e9d 543e 8280 093a d169 983e
00000150: be9e f93d d13a 3abd 0c00 babc fd3a 813e
00000160: e71a ebbd 8203 bf3d e93c fa3d be49 713d
00000170: 8223 55be e065 71bd f70e 05be e388 5ebd
00000180: 717a 953d 8687 79be 309f d1bd 1679 44bd
00000190: a8b1 6d3d dfec 6abe 212e 9d3d af2c 3c3d
000001a0: 3348 2ebb 7b30 72be ab7d 7c3d 88d2 133e
000001b0: 6f1f b8bd 729d c8bc 0c49 4ebe 86c8 8d3e
000001c0: 72f7 913e 8f08 d93d a552 3bbd 61b3 c3bd
000001d0: 6ed6 ca3c eb44 e6bb 7edc 2abe eee6 2b3e
000001e0: 0848 bcbd 267a d1bd 3cde 473e 593c dcbd
000001f0: 7646 b13c ec8f e83a 067b 483d 0759 39be
00000200: e67a 88be 050b 733d 3082 8b3c 2cf1 c6bd
00000210: 9b75 eb3d b0f0 1fbe 33ed 693d 4b93 2c3e
00000220: e402 f03c 1feb 6e3e 8436 11be ff3c 90be
00000230: 214e 253e 54fb 8bbe 7e42 2abe ab24 683e
00000240: 00c6 d23c 59b2 f53d c18e 9a3c 2638 943d
00000250: c387 8c3e d4d3 933e 5bab 263d d773 623e
00000260: 3d14 763e d092 87be 8b74 30bc e649 89bc
00000270: bf5d 48be ba46 a8bd ad3d 463d 2558 823e
00000280: 9ed4 6f3e c3e7 babd 71ef 60be fbf2 883c
00000290: 32e3 903e 2a3d 9fbd 7903 9abd 53d9 82bd
000002a0: 5a70 b2bd e256 19be 4822 843d 36f7 9abd
000002b0: 73b6 66be fe42 a23d 24e6 29be 48b0 253d
000002c0: fccd 84be a8de c2bd 8b2a 92be fb37 8cbe
000002d0: 5e4d 6bbc 50eb bc3d 3959 893e 3490 483e
000002e0: 836f 153e 5d9e 3c3e 29a0 733e 8b78 da3d
000002f0: be1c 993e 17ab 33be ee0e c23c 4a63 3abe
00000300: 9908 98be 9150 6ebe e776 77bd 4005 5f3e
00000310: bd5f bd3c ce9d d63c 18cd 52be 742e 393e
00000320: 68b4 b7bd 419e 323e ab03 42be 3f92 ddbb
00000330: df4a 49be ac3a 033e e05f 983e f099 1fbe
00000340: 6de5 93be 57b3 16be 2c89 943e 0380 97bc
00000350: a7fc 8b3e 548c 2dbe ce8c 873e 742d c63d
00000360: 31e6 353e 20a0 443e 3e8f 023e e3cc 8a3d
00000370: 93af 8b3d 0919 3ebe 8649 6c3c cd8b 7d3c
00000380: 88ee cebd c9db 5c3e 2462 76bd 7bee 92be
00000390: 3004 633e fbc0 15bd 2ce1 023d 8b9e f7bd
000003a0: e119 20be ee50 8f3e 71bc 75be edc4 4e3d
000003b0: 5536 d7bd 9775 39bd fdb4 94bb 31b9 b93c
000003c0: a95a 623e 636c 44be c61d ebbc 4d05 90be
000003d0: 9009 b13d a47f 923e d6f4 8fbe 08f1 3fbe
000003e0: 5a6b 0fbd 5e1a 25bd 65a1 96be 9402 8c3e
000003f0: 79a3 923d 3418 743e 82ff c9bc c5ae 953e
0.047967646 -0.10722966 0.28759086 0.17666417 -0.08929083 0.09231265 0.12022502 0.15274124
-0.061385084 0.2146975 -0.23072189 -0.26719484 -0.23454209 -0.109578036 -0.13698125 0.16802795
-0.21647002 0.08486384 -0.11856405 0.22144003 0.08154688 0.08612536 -0.006374437 -0.14650999
-0.1524656 -0.23126845 -0.23146035 -0.29964456 0.11415291 -0.23669696 -0.22573818 -0.03389334
0.25364858 0.1569773 -0.256107 -0.033064444 0.1946564 0.20221251 0.0054412144 0.26141784
-0.14989507 0.27875888 0.12776557 0.105734356 -0.043756954 -0.04750048 0.14115562 0.270864
-0.069736265 -0.22466934 0.16842175 0.12224898 -0.22446936 0.21623135 0.13641512 0.2410656
0.1474851 -0.14947754 0.25656673 0.13678539 -0.118506774 0.21500066 0.2428783 -0.12742564
0.11589286 -0.04834838 -0.21829455 0.1249953 -0.2496278 0.07313165 -0.1814906 0.2617369
0.024856666 -0.24502553 -0.24416904 -0.19599833 -0.24098428 -0.040530324 0.13393255 0.17049392
-0.06611516 0.20763037 0.00052452844 0.29768232 0.12188481 -0.045466248 -0.0227051 0.25240317
-0.114797406 0.09326841 0.12218649 0.058908217 -0.20814326 -0.058935046 -0.1299399 -0.054329764
0.072987445 -0.24368104 -0.10235441 -0.04796704 0.058030754 -0.22941922 0.07674814 0.04594105
-0.0026593327 -0.23651306 0.061643284 0.1443578 -0.089903705 -0.024489138 -0.20145053 0.2769205
0.28509098 0.105973355 -0.045733113 -0.09555698 0.024760451 -0.0070272586 -0.16685674 0.16787311
-0.09193426 -0.10228376 0.1951837 -0.10753698 0.021640044 0.0017743087 0.04894545 -0.18100367
-0.26656264 0.05933668 0.017029852 -0.09713969 0.11497041 -0.15619159 0.057110976 0.16853063
0.029298253 0.23331879 -0.14180952 -0.28171536 0.16143085 -0.27340186 -0.16626927 0.22670238
0.02572918 0.11996908 0.018866898 0.07237272 0.27447328 0.2887255 0.04069076 0.22114502
0.24031158 -0.26479197 -0.0107699735 -0.01675887 -0.19567011 -0.08216615 0.048398662 0.25457874
0.23420951 -0.09126236 -0.2196634 0.016717425 0.28298336 -0.07775338 -0.075201936 -0.063891076
-0.087128356 -0.1497455 0.06451851 -0.07566683 -0.22530536 0.07922934 -0.16591698 0.040451318
-0.25938404 -0.095151246 -0.28548083 -0.2738646 -0.0143617075 0.0922457 0.26825884 0.19586259
0.1459332 0.18419786 0.23791565 0.10667523 0.2990474 -0.17545734 0.02368876 -0.18201938
-0.2969406 -0.23272921 -0.06041613 0.21779346 0.02311694 0.026198294 -0.2058605 0.18084127
-0.08969957 0.17443182 -0.18946712 -0.0067618187 -0.19657467 0.1281535 0.29760647 -0.15586066
-0.28885975 -0.1471685 0.29010904 -0.018493658 0.27341196 -0.16948062 0.26474613 0.09676638
0.17763592 0.19201708 0.12749955 0.0677736 0.068205975 -0.18564238 0.014421826 0.015475226
-0.1010409 0.21568216 -0.060152188 -0.2869757 0.22169566 -0.036560994 0.031953022 -0.120907865
-0.15634872 0.27991432 -0.23997666 0.05048077 -0.1050841 -0.045278158 -0.004538177 0.022671314
0.22104897 -0.19181971 -0.02870072 -0.28129044 0.08644402 0.28613007 -0.28116482 -0.1874429
-0.035014488 -0.04030835 -0.2942001 0.27345717 0.07160086 0.23837358 -0.024657968 0.292349

gru.bias_ih_l3 f4 [30]
00000000: 966d 4b3e 256f 5b3d b68b 683d c175 cabd
00000010: ff63 033e 24b8 1bbe 6ca9 513d 036b f23d
00000020: 0808 ce3d 8b8f 1c3d b226 77bd 27d7 63bd
00000030: ae22 bf3d 6291 3dbe 66e9 55be bcd9 933e
00000040: 269b 473e f77a 94be 6c77 8e3d 14fe 033e
00000050: 5839 393d f8f6 6a3e 108a 3ebe b354 6d3c
00000060: c4eb 103e 6116 3e3d eb18 793e dc98 083e
00000070: 701d 62bc bb14 96be
0.19866022 0.053572793 0.056773864 -0.09885741 0.12831114 -0.15206963 0.051186964 0.11836817
0.100601256 0.03822283 -0.060339637 -0.055625107 0.093327865 -0.1851249 -0.20889816 0.28877056
0.19492778 -0.29000065 0.06956372 0.12889892 0.045220703 0.22945774 -0.18607354 0.014485526
0.14152437 0.04640806 0.24325912 0.13339561 -0.013800964 -0.2931269

gru.bias_hh_l3 f4 [30]
00000000: 2841 933e bce8 67be f2fa 3a3d 950a 14be
00000010: 75af 71bc abbe 11be e84a 44bd ce75 413e
00000020: 484f 74be a74f ab3b bd3b 243d e261 77bd
00000030: 00ab 883e 0c2e e23c 2d91 96be 29c2 ddbc
00000040: 0155 86bd f3e5 933e 3293 92be 138a 833e
00000050: 13b2 aa3d d943 623e 2ac4 27be 568a bcbd
00000060: a4c3 49be 8531 29bd 5a80 73bd 1d8e 59be
00000070: bda5 213e c364 8bbe
0.28760648 -0.22647375 0.045649476 -0.14457162 -0.014751305 -0.1423289 -0.047923 0.18892595
-0.23858368 0.005228001 0.040096033 -0.060396083 0.26692963 0.027609847 -0.29407635 -0.027070122
-0.06559182 0.28886375 -0.28627926 0.2569128 0.08334746 0.22096194 -0.16383424 -0.09206073
-0.19703537 -0.04130699 -0.059448577 -0.21245618 0.1578588 -0.27225313
