model-RNN-DDPG/just_theta/Q.pth (torch, 123037 bytes, 62 tensors)

gru.weight_ih_l0 f4 [60, 1]
0	0x3d2bbe69	0.041929636
1	0xbdb88d33	-0.090113066
2	0xbe3eabbf	-0.18620203
3	0xbde1197c	-0.10991189
4	0xbe0ba9a0	-0.13638926
5	0xbd86874d	-0.06568775
6	0x3e27b485	0.16377456
7	0x3dbbb0e6	0.091646
8	0x3dd24ac5	0.102681674
9	0xbd9e5894	-0.07731739
10	0x3dd885de	0.10572408
11	0xbe211f69	-0.15734638
12	0x3e20bdeb	0.15697448
13	0xbe35b008	-0.17742932
14	0x3d548045	0.05188014
15	0xbe2e1d14	-0.1700328
16	0x3e405ec4	0.1878615
17	0xbe3e84b5	-0.18605311
18	0x3d325b01	0.04354382
19	0xbdfb90fc	-0.12283513
20	0xbdd0bfec	-0.10192856
21	0x3daa18c5	0.08305506
22	0x3da037e1	0.07823158
23	0x3df5105a	0.119660094
24	0x3e0fc29b	0.1403908
25	0x3e307cd2	0.17235115
26	0x3e0db4b4	0.13838464
27	0x3e0d9edc	0.13830131
28	0xbdd90fcc	-0.10598716
29	0xbd928eea	-0.07156165
30	0xbdc34b9b	-0.09535905
31	0x3e28f627	0.1650015
32	0x3e0d166b	0.13778083
33	0x3e1ff1fe	0.15619656
34	0x3c475a56	0.012167534
35	0xbe110c94	-0.14164954
36	0x3e1c7646	0.15279493
37	0xbd5ed2da	-0.054400302
38	0x3de57e6c	0.11205754
39	0xbbc6ebb6	-0.0060705794
40	0xbdaeec5c	-0.08541176
41	0xbe0648a8	-0.13113654
42	0x3e16b818	0.14718664
43	0xbdbf56b2	-0.09342708
44	0xbcd83ab5	-0.026395181
45	0x3d3fbffb	0.046813946
46	0xbe4e4c28	-0.20146239
47	0x3e0ffc5a	0.14061108
48	0xbdb42347	-0.08795791
49	0x3dc7d81a	0.09758015
50	0xbc81183d	-0.015758628
51	0xbc5f08d7	-0.013612947
52	0xbd117268	-0.035509497
53	0x3d632faa	0.055465378
54	0xbe2f373b	-0.17110913
55	0x3c43796f	0.0119308075
56	0xbe133f00	-0.14379501
57	0xbd79d139	-0.060990546
58	0xbd1d822d	-0.038454223
59	0xbe17afdc	-0.14813179

gru.weight_hh_l0 f4 [60, 20]
0	0x3e038ad1	0.12845923
1	0x3dd26408	0.10272986
2	0xbe1cd67e	-0.15316197
3	0xbe274497	-0.16334759
4	0xbd952ee7	-0.072843365
5	0x3d6d382f	0.05791491
6	0xbe17ea3f	-0.14835452
7	0xbd9d67b7	-0.07685798
8	0x3e0a9ec0	0.13537121
9	0x3d48b9c4	0.049005285
10	0xbe28eb66	-0.16496047
11	0x3d1b32d5	0.037890274
12	0xbc53d173	-0.012928355
13	0xbdb38a23	-0.08766582
14	0xbda1d8eb	-0.07902702
15	0x3e3673ee	0.17817661
16	0x3e1c5875	0.15268119
17	0xbc6e593c	-0.014547642
18	0xbe144161	-0.14478065
19	0xbdb5babf	-0.088735096
20	0xbd82a69c	-0.063794345
21	0x3e1ace5d	0.15117784
22	0xbe3cf4a7	-0.18452702
23	0x3df8a099	0.121400066
24	0xbe3a2082	-0.18176463
25	0x3e1192f1	0.1421621
26	0x3d636354	0.05551465
27	0xbc7f83c6	-0.015595382
28	0xbe0c1a68	-0.13681948
29	0xbe02e4e4	-0.12782627
30	0xbe162eb7	-0.14666258
31	0xbd7671a9	-0.06016699
32	0x3c5b2bff	0.013377189
33	0xbdf298ff	-0.11845588
34	0xbdef8e9e	-0.11697124
35	0xbdf691d9	-0.12039537
36	0xbd65ac21	-0.056072358
37	0x3dcdc5e5	0.10047511
38	0xbe29b224	-0.16571862
39	0xbdcf4d9f	-0.10122227
40	0xbd9beb20	-0.07613206
41	0xbce31dc7	-0.02772416
42	0xbb8e8bfd	-0.004350184
43	0x3da0b717	0.078474216
44	0xbd48fb2c	-0.04906766
45	0x3daa77dd	0.08323643
46	0xbd9de557	-0.07709759
47	0x3d2214e4	0.039570704
48	0x3e3853db	0.18000738
49	0x3e316679	0.17324246
50	0xbdab1b7a	-0.0835485
51	0xbdbf6038	-0.09344524
52	0xbc778e05	-0.015109544
53	0x3d942008	0.07232672
54	0x3dd2006d	0.102539875
55	0xbceea633	-0.029131984
56	0x3d74c06e	0.059753828
57	0xbcf7eaca	-0.030263323
58	0xbe1cf802	-0.15328982
59	0xbe134b97	-0.14384304
60	0x3cd7d193	0.02634505
61	0xbd5f46f5	-0.05451103
62	0x3d944a34	0.072407156
63	0x3e1edc2d	0.15513678
64	0xbdfbf68b	-0.12302884
65	0x3d376830	0.044777095
66	0xbe3efea1	-0.1865182
67	0xbe1bd619	-0.1521839
68	0xbdf646e0	-0.12025237
69	0xbcdbd7e5	-0.026836345
70	0xbdd6adc2	-0.104823604
71	0x3e2525ff	0.16127776
72	0x3db12a48	0.08650643
73	0x3da1f56b	0.07908138
74	0x3ddc7200	0.10763931
75	0x3d87cbf5	0.066306986
76	0x3e1c4c04	0.15263373
77	0x3df45eb6	0.11932127
78	0xbca63076	-0.02028678
79	0x3e41429c	0.18873066
80	0x3db787e4	0.08961466
81	0xbe32c20f	-0.1745684
82	0x3b2a96df	0.0026029868
83	0xbdf40db9	-0.1191668
84	0x3dcb9f42	0.099424854
85	0xbd995be0	-0.07488227
86	0xbe24a1eb	-0.16077392
87	0xbc013a33	-0.007887411
88	0xbdea9e6b	-0.11455997
89	0x3e39b7bf	0.181365
90	0xbe3452d8	-0.17609727
91	0xbddb406b	-0.10705646
92	0xbd7b3f78	-0.061339825
93	0x3e3ffcbf	0.18748759
94	0xbe3af2a7	-0.18256627
95	0xbdf71817	-0.12065142
96	0xbe197126	-0.14984569
97	0x3dee3e78	0.11633009
98	0xbe199cd3	-0.1500123
99	0x3e48bb2a	0.19602647
100	0x3e23adb6	0.15984234
101	0xbe35b35b	-0.177442
102	0xbc5f64c7	-0.013634867
103	0xbe39f3f6	-0.1815947
104	0xbcc560aa	-0.024093945
105	0xbe3e3e9b	-0.1857857
106	0xbddf0e7e	-0.10891436
107	0x3b758d88	0.0037468392
108	0x3e136457	0.14393745
109	0xbe3fb709	-0.18722166
110	0x3e2bc10d	0.16772862
111	0x3dd49716	0.1038038
112	0x3d700916	0.058602415
113	0xbdf5b417	-0.1199724
114	0xbe45d8df	-0.19321011
115	0x3a0f2089	0.0005459865
116	0x3d8595fe	0.06522749
117	0x3d9786d4	0.07398763
118	0xbdc3ec0d	-0.095665075
119	0x3e38da8a	0.18052116
120	0xbe02837e	-0.12745473
121	0xbd167941	-0.03673673
122	0xbe0a6f8f	-0.13519119
123	0xbd101b70	-0.035182416
124	0xbdf80571	-0.12110413
125	0x3e3a72bd	0.18207832
126	0x3de83cd1	0.11339725
127	0x3d69c0cb	0.057068627
128	0xbd49023d	-0.0490744
129	0x3e2ef731	0.17086484
130	0xbe1d10d1	-0.15338446
131	0xbdff5db7	-0.124690466
132	0x3cea0a82	0.028569464
133	0x3e08f10a	0.13373199
134	0x3ccb7b76	0.024839144
135	0x3dacf134	0.08444443
136	0xbe21712d	-0.1576583
137	0x3e1ed6cc	0.15511626
138	0xbdee1541	-0.116251476
139	0x3cce14f9	0.025156485
140	0x3e1987ae	0.14993164
141	0xbc327f69	-0.010894635
142	0x3c0a8052	0.0084534455
143	0x3dd913f2	0.105995074
144	0xbe36a7ce	-0.1783745
145	0x3e0f4006	0.13989267
146	0x3d72cc81	0.05927706
147	0x3e1b0b79	0.15141095
148	0x3dc4dc01	0.09612275
149	0x3ca1f73c	0.01977121
150	0x3cc4a06a	0.024002273
151	0xbdd6d032	-0.10488929
152	0x3c6d0eda	0.014468873
153	0xbdc23ef9	-0.09484667
154	0x3dd59b04	0.104299575
155	0xbcf3cd90	-0.029761106
156	0xbc9ebe5c	-0.01937788
157	0xbb07b3bb	-0.0020706493
158	0xbd1b2c9a	-0.037884332
159	0x3e2d6e4a	0.16936603
160	0xbdc4ce34	-0.096096426
161	0xbe1d7fe1	-0.15380813
162	0x3d44f8cd	0.048088837
163	0xbe3fb02c	-0.18719548
164	0x3db5bb3b	0.08873602
165	0xbdc09751	-0.09403861
166	0xbd51b00e	-0.05119329
167	0xbbf1012c	-0.007354876
168	0x3d8d790a	0.06907852
169	0xbca2d12d	-0.019875133
170	0x3d82d544	0.063883334
171	0x3d798d65	0.06092586
172	0x3df1e10e	0.11810504
173	0x3e08204e	0.13293573
174	0x3befb95f	0.007315799
175	0xbcdc8cda	-0.026922632
176	0x3e1fc5d7	0.15602814
177	0x3e16ea48	0.14737809
178	0xbdc4b3c1	-0.09604598
179	0x3e10ad18	0.1412853
180	0x3e3567bc	0.17715353
181	0x3d239458	0.039936393
182	0xbdfe87c1	-0.12428237
183	0xbd025cd3	-0.031826805
184	0xbe349ea9	-0.17638649
185	0xbc9e9349	-0.01935734
186	0x3dd76fbe	0.1051936
187	0x3aff0117	0.0019455281
188	0xbe483af5	-0.1955374
189	0xbdaf13ed	-0.085487224
190	0xbe1ce5a8	-0.15321982
191	0xbd1a0192	-0.037599154
192	0x3d00e33f	0.03146672
193	0x3d4ba7df	0.04972064
194	0xbde10a29	-0.10988266
195	0xbdb3b3d0	-0.08774531
196	0x3aaf1501	0.00133577
197	0x3dcd4232	0.100223914
198	0xbc0c3883	-0.008558395
199	0x3e4f8f60	0.20269537
200	0x3cf218cf	0.029552845
201	0x3e0d141b	0.13777201
202	0xbdfb4583	-0.12269118
203	0x3c03eff8	0.0080528185
204	0xbe418aad	-0.18900557
205	0x3e010560	0.12599707
206	0xbdae8424	-0.085212976
207	0x3d27489e	0.040840738
208	0xbdc04050	-0.09387267
209	0x3e29b76f	0.1657388
210	0x3b8b1c04	0.004245283
211	0xbd03a757	-0.03214201
212	0x3d7b7f45	0.06140067
213	0xbda1a7df	-0.07893347
214	0x3e3cba39	0.18430413
215	0xbdfce874	-0.123490244
216	0x3db43d36	0.088007376
217	0x3c993ab2	0.018704746
218	0x3dafda39	0.085865445
219	0xbe293988	-0.16525853
220	0x3cd62a04	0.026143081
221	0x3da8ef90	0.08248818
222	0xbdccd55b	-0.10001632
223	0x3de83b47	0.11339431
224	0x3df06bcd	0.11739311
225	0x3d58669c	0.05283223
226	0x3d24bfdc	0.040222034
227	0xbe1feda4	-0.15617996
228	0x3dde58fa	0.10856815
229	0x3d6eae8f	0.05827194
230	0xbe369a42	-0.17832282
231	0x3cb81ac7	0.022473706
232	0xbcc5ba97	-0.024136825
233	0x38ad1fda	8.255216e-05
234	0xbda917c1	-0.08256484
235	0x3d79da3b	0.060999136
236	0xbdf91056	-0.12161319
237	0xbe176b1f	-0.14786957
238	0xbdb70af3	-0.08937635
239	0xbcae115f	-0.021248518
240	0x3db00c5e	0.08596109
241	0x3a78e51f	0.0009494591
242	0x3d256202	0.04037667
243	0x3e0a24c0	0.13490582
244	0x3d9e2f8e	0.07723914
245	0x3e2d6d6c	0.16936272
246	0x3e3cc254	0.18433505
247	0x3db89431	0.0901264
248	0x3a655b0f	0.00087492255
249	0x3db71671	0.08939827
250	0xbdcd4505	-0.1002293
251	0x3e35bc49	0.17747606
252	0xbda5d3dc	-0.080970496
253	0x3d1e66ab	0.03867213
254	0xbda418a7	-0.080125146
255	0x3dff3fda	0.124633506

gru.bias_ih_l0 f4 [60]
0	0x3d6d958c	0.058003947
1	0x3d8cfcce	0.06884156
2	0xbdaec969	-0.0853451
3	0x3e4db228	0.20087492
4	0xbdd3d624	-0.103435785
5	0x3dfbcbdb	0.12294742
6	0xbdd25e92	-0.10271944
7	0x3ddcfbbb	0.10790201
8	0xbcb0cda8	-0.02158244
9	0x3dcd03e2	0.10010506
10	0x3d23e79b	0.040015798
11	0x3e2646e0	0.16237974
12	0xbe18d5d5	-0.1492532
13	0x3e5a839c	0.21339267
14	0xbdefbb68	-0.11705667
15	0x3db6e309	0.08930022
16	0x3d8109f2	0.06300725
17	0x3ddbe317	0.10736673
18	0x3e12cf1c	0.14336818
19	0xbe1b248b	-0.15150659
20	0xbc7c71c1	-0.01540798
21	0xbd10159d	-0.035176862
22	0xbd289062	-0.04115332
23	0x3e21b982	0.15793422
24	0xbe273aeb	-0.16331069
25	0x3e08a12d	0.13342734
26	0x3de1c815	0.11024491
27	0x3ccc7f79	0.024963127
28	0xbda026c6	-0.078198954
29	0xbe32ec45	-0.17472942
30	0xbd4808b3	-0.04883642
31	0xbde03af1	-0.10948742
32	0x3d2548fc	0.040352806
33	0xbe034c31	-0.12822033
34	0x3dac5a5b	0.084156714
35	0xbe36be56	-0.17846045
36	0x3dfdd99a	0.1239502
37	0x3df0393e	0.11729668
38	0xbe3f6a9a	-0.18693009
39	0x3d0e66a5	0.03476586
40	0xbda5c72b	-0.08094629
41	0xbe60554b	-0.21907537
42	0x3df71bd5	0.120658554
43	0xbd6a16fc	-0.057150826
44	0xbc03324b	-0.008007596
45	0x3e211615	0.1573108
46	0x3e6ca178	0.2310847
47	0xbe270993	-0.16312246
48	0xbe7f20c6	-0.24914846
49	0xbda9dd78	-0.08294195
50	0x3e4097ec	0.18807954
51	0x3e86ba65	0.26314083
52	0x3c7563e3	0.014977428
53	0x3e8ba2eb	0.27272734
54	0xbe1108b6	-0.14163479
55	0x3e0e39cf	0.1388924
56	0x3e83e905	0.25763717
57	0xbd24951e	-0.04018127
58	0x3ddf9257	0.10916584
59	0x3e42ac31	0.19010998

gru.bias_hh_l0 f4 [60]
0	0x3dd4ab7d	0.10384271
1	0x3e4faa22	0.20279744
2	0x3e2fee99	0.17180862
3	0x3e0f1ca9	0.13975777
4	0x3e1d6bca	0.1537315
5	0x3e28aed2	0.16472939
6	0x3dd66ba7	0.10469752
7	0x3d950bed	0.07277665
8	0xbe2ce40d	-0.1688387
9	0xbd57eacd	-0.052714158
10	0x3de77245	0.11301092
11	0xbdf214e1	-0.118203886
12	0x3e5fe30a	0.21863952
13	0x3dd09f3a	0.1018662
14	0x3e2a5c00	0.16636658
15	0x3d810fe4	0.06301859
16	0xbd3222e2	-0.043490298
17	0x3dd42b37	0.10359805
18	0x3e0dd7c8	0.13851845
19	0xbe17f072	-0.14837816
20	0x3e0d3de3	0.13793139
21	0x3dd0463c	0.10169646
22	0x3e02fc3c	0.12791532
23	0x3c7f2559	0.015572869
24	0xbdb82a4c	-0.089924425
25	0x3dc48404	0.095954925
26	0xbde20b81	-0.110373504
27	0x3d0b83ee	0.034061365
28	0xbe344a85	-0.17606552
29	0xbdd59d2d	-0.104303695
30	0xbe3ce042	-0.18444923
31	0x3da03923	0.07823398
32	0x3d57c5df	0.05267894
33	0xbc9498b0	-0.018139213
34	0x3dc8d43f	0.09806108
35	0x3cd7b84f	0.026333002
36	0xbaae6eaa	-0.0013308127
37	0xbc826a17	-0.015919728
38	0x3e3db8d9	0.18527545
39	0x3e1aa98c	0.1510374
40	0xbe81ad25	-0.2532741
41	0xbd7ec4f7	-0.06219956
42	0x3d7079b5	0.05870982
43	0xbcd043f6	-0.025423031
44	0xbe28b6ab	-0.16475932
45	0x3c3622ab	0.011116664
46	0xbc532479	-0.012887114
47	0xbc78dea1	-0.015189798
48	0xba61b67b	-0.00086102606
49	0x3e3c278f	0.18374465
50	0x3deecc7a	0.116600946
51	0x3e12e528	0.14345229
52	0x3e3c26ff	0.18374251
53	0x3e7c829d	0.246592
54	0x3d622902	0.05521489
55	0x3c4913ec	0.012272816
56	0xbd1095ab	-0.035298984
57	0xbd9d9359	-0.0769412
58	0x3d8d82d0	0.06909716
59	0x3e71a9c6	0.2359992

gru.weight_ih_l1 f4 [60, 20]
0	0xbdec1a1e	-0.11528419
1	0xbd7ce657	-0.061743107
2	0xbdec1fc9	-0.115295
3	0xbdc14694	-0.0943729
4	0x3dd65286	0.10464959
5	0x3dd20bb0	0.102561355
6	0x3d783826	0.060600422
7	0x3db53dda	0.08849688
8	0xbe0a744e	-0.13520929
9	0x3c7f3715	0.015577097
10	0x3e3122c7	0.17298423
11	0xbe3c8b1f	-0.18412445
12	0xbb62a176	-0.0034581101
13	0xbe00e075	-0.12585624
14	0x3bfaf463	0.0076585277
15	0xbe303f78	-0.17211711
16	0x3e4252ed	0.18976946
17	0x3b835e86	0.004009071
18	0x3d0ddad1	0.034632508
19	0xbd556593	-0.05209882
20	0x3dbb03be	0.09131573
21	0x3e30616b	0.17224662
22	0xbd0f553f	-0.034993406
23	0xbd576f03	-0.052596103
24	0xbdd41e7b	-0.10357376
25	0x3d4b6ab5	0.04966231
26	0x3e3f8137	0.18701635
27	0xbc63f8e4	-0.013914321
28	0x3dc45b33	0.09587707
29	0x3d2fc4f4	0.04291244
30	0xbdbbeb7b	-0.09175774
31	0x3d2977f6	0.04137417
32	0xbdba0e1a	-0.09084721
33	0xbd837ded	-0.06420503
34	0xbe298a08	-0.16556561
35	0x3df41219	0.11917514
36	0xbd3778d2	-0.044792958
37	0x3dd2cb25	0.10292653
38	0x3e343e25	0.17601831
39	0x3dafe318	0.085882366
40	0x3df6fefb	0.120603524
41	0x3d23c63b	0.03998397
42	0x3d6bb56b	0.05754606
43	0x3d127b78	0.03576228
44	0xbe39ab82	-0.18131831
45	0xbc8d0eb6	-0.017218929
46	0xbd2940ef	-0.04132169
47	0xbd0504fd	-0.03247546
48	0xbde52436	-0.11188547
49	0x3dcbdc67	0.09954148
50	0xbdf8ad46	-0.12142424
51	0xbc62a34f	-0.013832881
52	0xbe2b4ba9	-0.16728081
53	0xbe1af942	-0.15134147
54	0x3d5a26b4	0.053259566
55	0xbe2df3d8	-0.1698755
56	0xbdfa0fb7	-0.122100286
57	0xbde6b50f	-0.11265003
58	0xbe20db25	-0.15708597
59	0xbc907f43	-0.017638808
60	0xbe417371	-0.18891694
61	0x3dc795e4	0.09745386
62	0xbb4419f2	-0.0029922691
63	0xbe0793be	-0.13239953
64	0x3d7cea8c	0.06174712
65	0x3e36b2a9	0.17841591
66	0xbe377eb7	-0.17919432
67	0x3e1ed164	0.15509564
68	0xbcc8c53a	-0.024508107
69	0x3c08f9fe	0.008360384
70	0xbd57455d	-0.052556384
71	0xbd2d7eba	-0.042357184
72	0xbcdb5eec	-0.02677866
73	0xbe027df6	-0.12743363
74	0xbd5ee592	-0.054418154
75	0xbe25e245	-0.16199596
76	0x3e33a3ef	0.17543004
77	0xbe47b4c2	-0.19502547
78	0xbe2b5e5e	-0.16735217
79	0xbd62323f	-0.0552237
80	0xbe187164	-0.14887005
81	0xbe269b32	-0.1627014
82	0x3e214af2	0.15751246
83	0x3d4e9250	0.050432503
84	0xbcc09959	-0.023510622
85	0x3e045e5d	0.12926622
86	0x3e140e56	0.14458594
87	0x3d224bc1	0.039623026
88	0xbcd41211	-0.025887521
89	0x3c6ecede	0.014575688
90	0x3dfcb77e	0.12339686
91	0x3d8387b9	0.064223714
92	0x3e3a3a05	0.18186195
93	0x3dd826ef	0.10554301
94	0xbcced4f9	-0.025248038
95	0xbe0affbc	-0.13574117
96	0xbe0dc638	-0.13845146
97	0xbe37eafd	-0.17960735
98	0xbe325f23	-0.17419104
99	0x3c60ca0e	0.013720049
100	0xbdca68a5	-0.098832406
101	0xbdadd57d	-0.08487985
102	0xbc28b2c5	-0.010296528
103	0x3d0df4bf	0.034657236
104	0xbe464ad3	-0.1936448
105	0x3e26d186	0.16290864
106	0x3d5d1bec	0.053981707
107	0x3a8115c5	0.0009848407
108	0x3e17574a	0.14779392
109	0x3c293b23	0.010329041
110	0xbd53c891	-0.051704947
111	0x3e3f42d8	0.18677843
112	0xbdfcfc95	-0.12352864
113	0xbdc66b19	-0.09688396
114	0xbdf0af3a	-0.11752172
115	0x3cd16dfa	0.025565136
116	0x3cb85bd4	0.022504725
117	0x3c9b272d	0.018939579
118	0xbe032aca	-0.12809291
119	0xbd87cd80	-0.06630993
120	0xbe12beab	-0.14330547
121	0x3dc22156	0.094790146
122	0x3d8085a8	0.06275493
123	0xbd61a218	-0.055086225
124	0x3c7cdcc0	0.01543349
125	0x3c580504	0.01318479
126	0xbdf384ff	-0.11890601
127	0x3e0e083d	0.1387033
128	0x3d7ddb65	0.06197681
129	0x3cebbb80	0.02877593
130	0x3e05f309	0.13080992
131	0x3df5d501	0.12003518
132	0x3d47d28b	0.048784774
133	0xbe064bce	-0.13114855
134	0x3d7948dc	0.0608605
135	0x3db0ff22	0.08642413
136	0xbdfca836	-0.12336771
137	0xbe0143f4	-0.12623578
138	0x3e1d46f6	0.153591
139	0xbc492a80	-0.012278199
140	0x3d3a9408	0.04555133
141	0xbc6dc26b	-0.014511685
142	0xbde188e8	-0.11012441
143	0xbd8f38f0	-0.06993282
144	0x3ae7b5f2	0.0017678125
145	0xbd4b3e01	-0.04961968
146	0xbdd30475	-0.103035845
147	0xbda3f3e2	-0.08005501
148	0x3bcd4d86	0.006265345
149	0x3d96b968	0.07359582
150	0x3d026846	0.031837724
151	0xbc377dc4	-0.011199418
152	0x3e0877e9	0.13326992
153	0x3d6fd681	0.058554176
154	0x3e0defc0	0.13860989
155	0xbd41d7f2	-0.047325082
156	0xbc7fe978	-0.015619628
157	0xbe24ae39	-0.16082086
158	0xbca02cb9	-0.019552575
159	0xbd6a3260	-0.057176948
160	0x3dda3366	0.10654335
161	0x3da1c3db	0.078986846
162	0xbd947efd	-0.072507836
163	0x3d91ab56	0.07112758
164	0x3d989184	0.0744963
165	0xbe245398	-0.16047513
166	0x3e2d0ad4	0.16898662
167	0xbaf5004b	-0.0018692104
168	0x3d9128a4	0.0708783
169	0x3c2dc6ea	0.010606507
170	0xbe4208fc	-0.1894874
171	0xbd89d987	-0.06730943
172	0x3dc15a91	0.09441102
173	0x3dd178d8	0.10228127
174	0xbd420e8c	-0.047377154
175	0x3e0d6fc1	0.13812162
176	0x3e1d6c56	0.15373358
177	0x3cfb635d	0.030687029
178	0x3db9687a	0.090531304
179	0x3dd6eb3f	0.104940884
180	0xbbdee091	-0.0068016727
181	0xbcdc35dc	-0.02688115
182	0x3db9d049	0.0907293
183	0xbe1680b9	-0.14697541
184	0x3e2d0b48	0.16898835
185	0xbd967463	-0.07346418
186	0x3e1ebe17	0.15502201
187	0xbe0a8387	-0.13526736
188	0xbd02c8d9	-0.031929825
189	0xbb4c72c9	-0.0031196347
190	0xbd3b3dd9	-0.04571328
191	0xbe03f47a	-0.12886229
192	0xbde1c607	-0.11024099
193	0xbd0a50f6	-0.033768617
194	0x3e262093	0.16223364
195	0x3e02eddf	0.12786053
196	0x3d68e7b1	0.056861583
197	0x3c9d6fa5	0.019218275
198	0xbddb552b	-0.10709604
199	0x3e270ab2	0.16312674
200	0x3df0a6be	0.117505535
201	0x3d9adfb8	0.07562202
202	0xbe38d97d	-0.18051715
203	0x3dd91f02	0.106016174
204	0x3e09aacb	0.13444059
205	0x3e119639	0.14217462
206	0xbd8f4620	-0.06995797
207	0x3cd7065a	0.026248146
208	0x3e095ca0	0.1341424
209	0xbd87e7f5	-0.06636039
210	0x3e3a17d0	0.18173146
211	0x3cb05af8	0.021527752
212	0x3d8b4293	0.067998074
213	0xbcfd30ec	-0.030907117
214	0x3d7b2d97	0.061322775
215	0xbd4f8b27	-0.050669815
216	0x3da972fd	0.082738854
217	0xbde8e174	-0.11371127
218	0x3d6b81ab	0.057496708
219	0x3dfe2ec6	0.12411265
220	0xbc14b5f4	-0.009076584
221	0x3dc91f3e	0.09820412
222	0x3e0ca1f6	0.13733658
223	0x3d988560	0.07447314
224	0xbe30fa8c	-0.17283076
225	0xbbce6daf	-0.0062996964
226	0xbe316fd9	-0.17327823
227	0xbe44934d	-0.19196816
228	0xbe52e532	-0.20595244
229	0xbbbc301f	-0.005743041
230	0x3df7014b	0.120607935
231	0xbe174c4e	-0.14775202
232	0xbdb53b47	-0.08849197
233	0xbcb94826	-0.02261741
234	0x3e249efd	0.16076274
235	0x3cff75c0	0.031184077
236	0xbdff0b57	-0.12453335
237	0xbdaf101c	-0.085479945
238	0xbd033ab1	-0.032038394
239	0xbd1c2de7	-0.038129713
240	0x3db9a772	0.09065141
241	0xbd661462	-0.056171782
242	0xbdf59782	-0.119917884
243	0x3e1dfd94	0.15428764
244	0x3d508340	0.05090642
245	0xbd221c5e	-0.039577834
246	0x3e184d49	0.14873232
247	0x3e20f629	0.15718903
248	0xbdf0a0a0	-0.11749387
249	0xbd1ec4b3	-0.038761806
250	0x3e0cd6dd	0.13753839
251	0xbdf40f9e	-0.11917041
252	0x3e04383e	0.1291208
253	0x3db8e272	0.09027566
254	0xbba03075	-0.004888589
255	0x3d302e11	0.043012682

gru.weight_hh_l1 f4 [60, 20]
0	0xbe3acbf5	-0.18241866
1	0xbd75f705	-0.06005003
2	0xbd1676fa	-0.03673456
3	0x3e1b82a8	0.1518656
4	0x3dbb8478	0.09156126
5	0x3e031fcc	0.12805098
6	0x3dd3d04c	0.10342464
7	0xbbd8e40f	-0.0066189836
8	0xbcd4c984	-0.025974996
9	0xbde891d8	-0.113559425
10	0x3b000410	0.0019533671
11	0xbcc504dc	-0.024050169
12	0x3cf3322c	0.02968701
13	0xbe0503f7	-0.12989794
14	0x3d62612c	0.05526845
15	0xbdc38779	-0.09547324
16	0xbcc49b78	-0.023999915
17	0xbd471817	-0.04860696
18	0x3cbccfcf	0.02304831
19	0x3d28be7f	0.041197296
20	0x3e187b92	0.14890888
21	0xbddddbfc	-0.10832974
22	0xbd9694db	-0.07352611
23	0xbdf14f5c	-0.11782715
24	0xbd3a98e4	-0.045555964
25	0xbc925e82	-0.01786733
26	0xbcfefdc0	-0.031126857
27	0x3dd20c7c	0.102562875
28	0x3cea9927	0.028637482
29	0x3e16820c	0.14698046
30	0x3c8484b2	0.016176555
31	0x3d8d4a23	0.06898906
32	0xbe4513c8	-0.19245827
33	0x3e18c642	0.1491938
34	0xbdc35748	-0.09538132
35	0x3e388827	0.18020688
36	0x3e22c469	0.15895237
37	0xbcd02d81	-0.025412323
38	0x3d8ec463	0.069710515
39	0xbe10ae34	-0.14128953
40	0xbe32f88b	-0.17477624
41	0xbe035a14	-0.12827331
42	0x3e0faf43	0.14031701
43	0x3e1a3db1	0.15062596
44	0x3de32324	0.11090687
45	0x3cd3076f	0.02576038
46	0x3e2b8957	0.1675161
47	0x3dd3cd95	0.10341946
48	0x3e4168f2	0.1888769
49	0x3e385bf8	0.18003833
50	0xbe0010d3	-0.12506418
51	0xbd14091d	-0.036141504
52	0xbe003d0b	-0.12523286
53	0xbe2da7bb	-0.16958515
54	0x3dd07c49	0.101799555
55	0xbde4797a	-0.11155982
56	0x3dce158d	0.10062704
57	0xbd1b6cb5	-0.037945468
58	0xbd30e262	-0.043184645
59	0xbd282d4c	-0.041058823
60	0x3e41377f	0.18868826
61	0x3dc88b3c	0.09792182
62	0xbe40c8b2	-0.18826559
63	0xbb8503bc	-0.004059283
64	0x3cbc9c71	0.023023816
65	0x3c498704	0.012300257
66	0x3e0f07dd	0.13967843
67	0xbc42d1a2	-0.011890801
68	0xbda8f995	-0.08250729
69	0x3da9412d	0.082643844
70	0xbd6f01c1	-0.058351282
71	0xbe583a1d	-0.21115918
72	0x3e3bc497	0.18336712
73	0xbe0f5bc7	-0.13999854
74	0xbc331e2a	-0.010932485
75	0xbd9e7708	-0.07737547
76	0xbe23af3f	-0.1598482
77	0xbdfd5b19	-0.12370891
78	0xbb002b15	-0.001955693
79	0x3e2d95d4	0.16951686
80	0x3df530cc	0.11972198
81	0xbd9f5b6b	-0.077811085
82	0xbe2c7580	-0.16841698
83	0x3c9f46ab	0.019442877
84	0x3da9840a	0.082771376
85	0xbd89dd3f	-0.067316525
86	0xbd835934	-0.064134985
87	0xbdfd0e95	-0.12356297
88	0xbd8844fb	-0.06653782
89	0xbd783002	-0.06059266
90	0x3c7b8ba8	0.015353121
91	0xbe27820e	-0.16358206
92	0xbd8b58e9	-0.06804068
93	0x3d2fe0cb	0.04293899
94	0x3df77138	0.12082142
95	0xbd9a191b	-0.0752432
96	0x3cfa6069	0.03056355
97	0x3e13d835	0.14437945
98	0x3e10e34b	0.14149205
99	0xbddc331c	-0.10751936
100	0xbd8055cd	-0.06266365
101	0xbe20019b	-0.15625612
102	0xbc1f72dd	-0.009731975
103	0x3cd47893	0.0259364
104	0xbe120305	-0.14258964
105	0xbdf9b0a3	-0.12191894
106	0xbdc1a6df	-0.09455656
107	0xbda6c3ad	-0.08142791
108	0x3e0f676d	0.14004298
109	0x3e522a06	0.20523843
110	0xbcb05ef1	-0.021529647
111	0x3de7de3b	0.11321684
112	0x3bba0269	0.005676557
113	0xbe407ed5	-0.18798383
114	0x3d8602e0	0.06543517
115	0xbdf401cc	-0.11914405
116	0x3e0181fd	0.12647243
117	0xbe57a7f6	-0.21060166
118	0xbe4cc397	-0.19996487
119	0xbe2f8bb4	-0.17143136
120	0xbd253f42	-0.04034353
121	0x3e3ad91a	0.1824688
122	0xbe33f48f	-0.1757376
123	0xbbcd1719	-0.006258857
124	0xbd9d0a74	-0.076680094
125	0xbcf5d348	-0.030007973
126	0xbe019d6d	-0.1265771
127	0xbdd898ee	-0.10576044
128	0x3d79a882	0.060951717
129	0xbc7b036e	-0.015320642
130	0xbd867728	-0.06565696
131	0xbe4b8f1e	-0.19878814
132	0x3e0d50ec	0.138004
133	0xbcbdf329	-0.023187237
134	0x3ddd5ef0	0.108091235
135	0xbdedb399	-0.11606521
136	0x3d1c40b4	0.038147643
137	0xbe2061dd	-0.15662332
138	0x3dfd317f	0.12362956
139	0xbe07f3a5	-0.13276537
140	0xbd5e735f	-0.054309245
141	0x3dc8769e	0.097882494
142	0xbe006547	-0.12538634
143	0x3dcaa820	0.098953485
144	0xbe0c51b3	-0.13703041
145	0xbdf16133	-0.117861174
146	0xbe2f9c56	-0.17149481
147	0xbe0b7b6f	-0.13621305
148	0xbe23be1f	-0.15990494
149	0xbdf17d2a	-0.11791451
150	0xbe28baf4	-0.16477567
151	0xbe220415	-0.1582187
152	0xbd81b4a3	-0.06333282
153	0xbd911331	-0.070837386
154	0x3d491ab3	0.049097728
155	0x3d7de629	0.061987076
156	0xbe28a0e0	-0.16467619
157	0x3e108dd3	0.14116602
158	0x3e0cfd06	0.13768396
159	0x3aee9078	0.0018201014
160	0xbdbcc8f1	-0.09218014
161	0x3df171c4	0.11789277
162	0x3e35f6c1	0.1776991
163	0x3e2a452c	0.1662795
164	0x3df1a329	0.117986985
165	0x3d57dc70	0.05270046
166	0xbd811440	-0.063026905
167	0x3cc2e190	0.023789197
168	0xbd3ed334	-0.046588138
169	0xbca2a498	-0.019853875
170	0xbca247ce	-0.01980963
171	0xbe1336c6	-0.14376363
172	0x3d70a296	0.058748804
173	0xbd8c058a	-0.06836994
174	0xbc31de72	-0.010856258
175	0x3e249fab	0.16076533
176	0xbcfabc57	-0.030607386
177	0x3d190104	0.037354484
178	0xbc0a07a6	-0.008424675
179	0x3dd16e8b	0.102261625
180	0xbe024e96	-0.1272529
181	0xbd3f3412	-0.046680517
182	0xbd8ed879	-0.06974883
183	0x37bafa33	2.2289436e-05
184	0xbdea49e3	-0.11439874
185	0xbd50cbf4	-0.050975755
186	0x3e1236dc	0.1427874
187	0x3da2defa	0.07952686
188	0xbd80785e	-0.06272958
189	0x3e351b92	0.17686298
190	0x3e16e57c	0.14735979
191	0xbba30d92	-0.004975983
192	0xbdccbb35	-0.099966444
193	0xbceb8c57	-0.028753443
194	0x3caf734d	0.021417284
195	0xbe10e289	-0.14148916
196	0x3d462935	0.04837914
197	0x3d689e4b	0.056791585
198	0xbd2e0684	-0.042486683
199	0xbc8fc7b5	-0.017551282
200	0x3dc214b0	0.09476602
201	0x3bdde271	0.0067713787
202	0xbd8c5856	-0.06852786
203	0x3d5bf17d	0.053697098
204	0xbd8d0986	-0.06886582
205	0xbd2841e6	-0.04107847
206	0x3c21d8c5	0.009878342
207	0x3bf8777c	0.007582603
208	0x3dac377c	0.0840902
209	0x3e470810	0.1943667
210	0x3e1400b0	0.14453387
211	0xbd2f0c93	-0.0427366
212	0xbc2b6155	-0.0104602175
213	0xbdbf5b2c	-0.093435615
214	0xbd8f8a40	-0.07008791
215	0xbded1376	-0.115759775
216	0x3e54fb15	0.20798905
217	0x3db290eb	0.08719047
218	0xbd765c6b	-0.06014673
219	0x3da69b5e	0.08135103
220	0x3c942fe1	0.018089237
221	0xbd376a4e	-0.044779114
222	0x3e07153b	0.13191693
223	0x3ca04e99	0.019568728
224	0xbe3f102e	-0.18658516
225	0xbe06f8e5	-0.13180883
226	0xbd28293c	-0.04105495
227	0x3dea672f	0.11445462
228	0xbe1c9367	-0.15290605
229	0x3d99582e	0.07487522
230	0x3e38c45b	0.18043654
231	0x3df2b189	0.118502684
232	0x3e3c83b2	0.18409613
233	0x3e11fd6e	0.14256832
234	0xbd61b516	-0.055104338
235	0x3c5a0ecc	0.013309192
236	0xbdac4441	-0.08411456
237	0x3d279dc3	0.040921938
238	0xbc969e36	-0.018385988
239	0xbe21e763	-0.15810923
240	0xbde60e20	-0.11233163
241	0x3cf6f6ad	0.030146921
242	0x3dc3432a	0.09534295
243	0x3d955105	0.07290844
244	0x3e486aaf	0.19571947
245	0x3e375125	0.17902048
246	0x3cddeb3d	0.02708971
247	0x3dc9424d	0.09827099
248	0xbd188b05	-0.037241954
249	0xbd90e663	-0.07075193
250	0xbe055a98	-0.1302284
251	0x3e45a7af	0.19302247
252	0xbc668032	-0.01406865
253	0x3d882a6d	0.06648717
254	0x3da391d4	0.07986799
255	0xbd178edb	-0.037001472

gru.bias_ih_l1 f4 [60]
0	0x3d35edc0	0.04441619
1	0xbbd3780f	-0.006453521
2	0x3d8addc3	0.06780579
3	0xbdc464d7	-0.09589546
4	0xbe54bd15	-0.20775254
5	0xbdf300ca	-0.11865385
6	0x3d7325eb	0.059362333
7	0xbe0eb306	-0.1393548
8	0x3d5276e1	0.051382903
9	0x3e676270	0.22596145
10	0x3e255693	0.16146307
11	0xbd1cbd82	-0.038266666
12	0x3df2fb69	0.11864359
13	0xbd94cd59	-0.072657295
14	0xbcbb58c0	-0.022869468
15	0x3d588c7d	0.052868355
16	0x3e3900af	0.18066667
17	0xbc901b69	-0.017591195
18	0xbe039fd1	-0.12853934
19	0x3dc39a15	0.09550873
20	0xbdd24031	-0.1026615
21	0xbd87b53e	-0.06626366
22	0xbd8007a3	-0.062514566
23	0xbdf0510c	-0.117342085
24	0x3e0f3a82	0.13987163
25	0x3dc996ca	0.09843214
26	0xbe510058	-0.20410287
27	0xbe06d2a7	-0.13166295
28	0xbdfa612b	-0.122255646
29	0x3e19c07f	0.15014838
30	0xbe078fe8	-0.1323849
31	0xbc70ed51	-0.014705018
32	0xbd8d00d2	-0.06884922
33	0xbd622a78	-0.055216283
34	0x3d8eb8d6	0.069688484
35	0x3e30f62c	0.17281407
36	0xbdb133e3	-0.08652475
37	0x3d86ecde	0.065881476
38	0x3e1731c5	0.1476508
39	0x3e17bb2a	0.14817491
40	0x3e6e6dd7	0.23284088
41	0x3dfa8841	0.122330196
42	0xbe44a68a	-0.19204155
43	0xbe4c64fa	-0.19960395
44	0x3d8fe9a5	0.07026986
45	0x3d138a6a	0.036020674
46	0xbca143d7	-0.019685669
47	0xbe64a1ea	-0.2232739
48	0x3e2f6df2	0.17131785
49	0x3baedfcd	0.0053367377
50	0xbdd37c8d	-0.103264906
51	0xbe29a9d4	-0.1656869
52	0x3db38fa5	0.087676324
53	0xbe5215a0	-0.20516062
54	0x3dab19a4	0.083545
55	0x3daf6744	0.08564618
56	0x3cab8abd	0.020940179
57	0xbc9de716	-0.01927523
58	0x3d112aac	0.035441086
59	0x3e3dd41d	0.18537946

gru.bias_hh_l1 f4 [60]
0	0x3bd3bd19	0.006461751
1	0xba038aae	-0.00050179183
2	0x3e18bfea	0.1491696
3	0xbdd04b71	-0.10170639
4	0xbe5cae71	-0.21550919
5	0x3e251fb3	0.16125374
6	0x3e3ae53e	0.18251511
7	0x3ce2bc05	0.027677545
8	0xbe66b4c3	-0.22529893
9	0x3e1005b4	0.14064676
10	0xbd743b68	-0.059626967
11	0xbd3c3f98	-0.045959085
12	0x3d6f7ac7	0.0584667
13	0x3d826002	0.06365968
14	0x3e2de7e7	0.16982995
15	0x3c9db8fe	0.01925325
16	0x3e3e9c9d	0.1861443
17	0xbdf0e8e0	-0.117631674
18	0x3c511705	0.012761836
19	0xbe2afc9d	-0.16697927
20	0xbe1d986e	-0.15390179
21	0x3caa73c6	0.020807158
22	0xbd61b9e4	-0.05510892
23	0xbdd982f7	-0.10620683
24	0x3dac5af4	0.084157854
25	0xbdc328e6	-0.09529285
26	0xbcf763a7	-0.030198885
27	0xbd962dd4	-0.0733296
28	0xbe24e113	-0.16101484
29	0xbe13f7c7	-0.14449988
30	0xbd96498d	-0.073382474
31	0x3d347ea4	0.044066086
32	0x3e016d0d	0.12639256
33	0x3e32b707	0.17452632
34	0x3d8156c8	0.0631538
35	0xbdb69939	-0.08915944
36	0x3dfb1045	0.122589625
37	0x3d007a29	0.0313665
38	0x3cc656a1	0.02421123
39	0x3e111504	0.14168173
40	0xbcda3685	-0.026637325
41	0xbceb030a	-0.028687973
42	0xbe1742cd	-0.14771576
43	0xbe7fd042	-0.24981788
44	0x3da78856	0.08180301
45	0xbb2a37de	-0.002597324
46	0xbe512b35	-0.20426638
47	0x3dfe4f27	0.12417441
48	0xbdbe403c	-0.092895955
49	0x3e35f059	0.17767467
50	0x3d0c647b	0.034275513
51	0xbdf58503	-0.119882606
52	0xbe5a0959	-0.21292628
53	0xbdd8d40b	-0.10587319
54	0x3e3d08d5	0.184604
55	0x3d90e869	0.07075579
56	0x3e2e46d2	0.17019203
57	0xbe33781b	-0.17526285
58	0xbc99b4be	-0.018762942
59	0x3dbbaaa4	0.091634065

gru.weight_ih_l2 f4 [60, 20]
0	0x3e3c474b	0.18386571
1	0xbdf66cab	-0.120324455
2	0x3d03b108	0.032151252
3	0xbda09a2a	-0.078419045
4	0x3e1139a8	0.1418215
5	0xbda1bef0	-0.078977466
6	0xbde76004	-0.112976104
7	0xbe26ee43	-0.16301827
8	0x3db32842	0.08747913
9	0xbb904550	-0.004402794
10	0x3ca034a8	0.019556358
11	0x3e14e6e6	0.14541206
12	0x3dd22d20	0.10262513
13	0x3db03b82	0.086051
14	0xbd3f7f1f	-0.04675209
15	0x3df11d46	0.117731616
16	0x3e20de3f	0.1570978
17	0xbdc7f82c	-0.09764132
18	0xbe247002	-0.16058353
19	0xbdaf6538	-0.08564228
20	0x3dcac652	0.09901108
21	0xbddec15d	-0.10876725
22	0xbe44311b	-0.19159357
23	0xbd207416	-0.03917321
24	0x3d7b1280	0.06129694
25	0x3d42b8bf	0.04753947
26	0x3d7a3410	0.061084807
27	0xbe2f2ed8	-0.17107713
28	0x3d5b19d6	0.053491436
29	0x3dc8727d	0.09787462
30	0xbe0c176d	-0.13680811
31	0xbe0e3787	-0.1388837
32	0x3e249d19	0.16075553
33	0x3de8a235	0.113590635
34	0x3df70cbb	0.12062975
35	0x3d9ff93c	0.078112096
36	0xbd4fb775	-0.050712068
37	0xbe02f683	-0.1278935
38	0xbd170cb2	-0.03687734
39	0x3cb1559a	0.021647263
40	0x3d86690b	0.06563004
41	0xbe000963	-0.12503581
42	0xbde2c931	-0.110735305
43	0xbc21f6c8	-0.009885497
44	0x3df9a7b6	0.121901914
45	0xbe67cc6e	-0.22636577
46	0xbd9ab22d	-0.075535156
47	0xbc391e93	-0.011298793
48	0x3ca1f757	0.019771261
49	0x3dc3b5d6	0.09556167
50	0xbc82e0e5	-0.015976379
51	0x3da9322f	0.08261525
52	0xbdd533fe	-0.10410307
53	0xbe4cbd99	-0.19994201
54	0xbdf32d3d	-0.11873863
55	0x3c361dae	0.011115475
56	0xbcde9a90	-0.02717331
57	0xbe016df5	-0.12639602
58	0xbd91b796	-0.07115094
59	0xbd9dd9e8	-0.07707578
60	0xbd91d02e	-0.07119785
61	0xbcb0a54a	-0.021563191
62	0xbdb91da1	-0.090388544
63	0x3d12cd70	0.03584045
64	0xbe06cc82	-0.13163951
65	0xbe1b8a64	-0.1518951
66	0xbc39393e	-0.0113051515
67	0xbde3a000	-0.11114502
68	0x3c557b0f	0.013029828
69	0xbc5488d5	-0.012972076
70	0x3c390030	0.011291549
71	0xbe1d2e9d	-0.15349813
72	0x3d98a20c	0.07452783
73	0xbe4689ac	-0.19388455
74	0xbe053b65	-0.13010938
75	0xbd322fa3	-0.04350246
76	0x3c5c62f6	0.0134513285
77	0xbe551a93	-0.20810919
78	0xbdbba931	-0.0916313
79	0x3e1ddf45	0.15417202
80	0xbdedc446	-0.11609702
81	0x3dbe7970	0.09300506
82	0xbca64f13	-0.020301377
83	0x3c1da422	0.009621652
84	0xbd3cfb49	-0.04613808
85	0x3d4d82d6	0.050173603
86	0x3dbbc687	0.091687255
87	0x3b965a8f	0.004588432
88	0x3d34de3b	0.044157248
89	0x3e06053a	0.13087931
90	0x3d424056	0.047424637
91	0x3de36577	0.11103337
92	0x3d08a899	0.033363912
93	0xbcc217c3	-0.023692971
94	0xbe029475	-0.12751944
95	0x3d6b09cf	0.0573824
96	0xbe1d5a83	-0.15366559
97	0xbe40a0ea	-0.18811384
98	0xbd93cdec	-0.07217011
99	0x3d1f637c	0.038913235
100	0x3d88a1c0	0.06671476
101	0xbe2f2c1b	-0.17106669
102	0x3e1fd065	0.1560684
103	0xbe41dc66	-0.18931732
104	0xbe0c9d0c	-0.13731784
105	0xbdef481b	-0.11683675
106	0x3debdc3c	0.11516616
107	0xbdbfab77	-0.09358876
108	0x3cb9c2cc	0.022675894
109	0x3da508a9	0.080582924
110	0x3d5822ae	0.052767448
111	0x3d94cf8e	0.072661504
112	0xbe0f18e3	-0.13974337
113	0x3d973873	0.07383814
114	0xbd0adefe	-0.03390407
115	0x3e1ae621	0.1512685
116	0xbde9b279	-0.11410994
117	0x3e1c79d9	0.15280856
118	0xbcfc8a6a	-0.03082772
119	0x3e3d4759	0.18484248
120	0x3db1086f	0.08644187
121	0x3d9aaf02	0.07552911
122	0xbd996846	-0.07490592
123	0x3d9141f5	0.070926584
124	0x3ddeef18	0.10885447
125	0x3dedabf5	0.11605064
126	0x3e106031	0.14099194
127	0xbdd42620	-0.10358834
128	0xbdaabbda	-0.08336611
129	0x3e462ce0	0.19353056
130	0xbe0627dc	-0.13101143
131	0x3d852b3e	0.065023884
132	0xbd280279	-0.041017983
133	0x3e217254	0.15766269
134	0xbd327c0f	-0.043575343
135	0x3e39827c	0.18116182
136	0xbe1f555c	-0.15559906
137	0x3e106bf2	0.14103678
138	0x3d26ff50	0.04077083
139	0x3e2cfaa3	0.16892485
140	0x3affcfcd	0.0019516886
141	0x3dea799a	0.11448975
142	0x3e32aaad	0.1744792
143	0x3dafa0c6	0.08575587
144	0x3d9f0a50	0.07765639
145	0x3dd0f654	0.10203233
146	0xbe408015	-0.1879886
147	0x3e23eafa	0.16007605
148	0x3e458c88	0.1929189
149	0xbdbd7262	-0.092503324
150	0xbdd6f793	-0.1049644
151	0x3df67ac6	0.12035136
152	0x3dece886	0.11567788
153	0x3df1a6c4	0.11799386
154	0xbc8dc70b	-0.017306825
155	0xbda33783	-0.079695724
156	0x3d376f24	0.044783726
157	0x3d2ee4c1	0.042698625
158	0x3e21911b	0.1577801
159	0x3e0ab4e8	0.13545573
160	0x3dce00e8	0.100587666
161	0xbd3e8309	-0.046511684
162	0x3e2a15d7	0.16609894
163	0x3e3d3e08	0.18480694
164	0xbdd73322	-0.105078
165	0x3c5b2217	0.013374827
166	0xbe22d65c	-0.15902084
167	0xbcc0915b	-0.02350681
168	0xbc22b73d	-0.009931383
169	0xbdf93dc8	-0.12169987
170	0x3e06bd33	0.13158111
171	0x3e39e4ac	0.18153638
172	0xbdb87cb0	-0.09008157
173	0xbe2cb5ee	-0.16866276
174	0x3e2b9f6a	0.1676003
175	0xbe3aed71	-0.18254639
176	0xbdbd8e2c	-0.09255633
177	0x3d9bad4e	0.076014146
178	0x3e1a2929	0.15054764
179	0xbe360de0	-0.1777873
180	0xbcc87d68	-0.02447386
181	0x3dd7649b	0.10517236
182	0xbe11c2ac	-0.14234418
183	0xbc8ee98f	-0.017445354
184	0x3e034bf7	0.12821947
185	0xbc2e3a45	-0.01063401
186	0xbe297e1b	-0.16552012
187	0xbe0c2b7d	-0.13688464
188	0x3e4188ea	0.18899885
189	0x3d95d73f	0.073164456
190	0xbe203c1c	-0.1564793
191	0xbdf8c300	-0.12146568
192	0x3b808b0d	0.003922826
193	0x3bc9e0ea	0.006160845
194	0x3d8836c7	0.06651073
195	0x3e400f84	0.18755919
196	0xbd6e070c	-0.05811219
197	0x3e37d58e	0.17952558
198	0xbdff3f48	-0.12463242
199	0x3dd2b74b	0.102888666
200	0xbde8a82a	-0.113602
201	0x3d0b31fd	0.03398322
202	0x3d86513e	0.065584645
203	0x3d0b3078	0.03398177
204	0x3d9f47bc	0.07777354
205	0xbd49c8fc	-0.04926394
206	0xbddb2150	-0.10699713
207	0xbdb76c5a	-0.08956213
208	0x3e20af8b	0.15691964
209	0xbd48f6c5	-0.049063463
210	0xbd81bc0f	-0.063346975
211	0x3e0d18a6	0.13778934
212	0xbe0fe980	-0.14053917
213	0xbd7d94b9	-0.06190941
214	0xbdc2c3e1	-0.09510017
215	0x3e10eb71	0.14152314
216	0x3e4bdef4	0.19909269
217	0x3de8a2a6	0.11359148
218	0xbe39e110	-0.18152261
219	0xbca45fd2	-0.020065222
220	0xbd824464	-0.06360701
221	0x3d64ac71	0.055828515
222	0xbdb0393b	-0.08604666
223	0x3d2b064b	0.04175405
224	0xbda499dc	-0.08037159
225	0xbd6cb064	-0.057785407
226	0x3d829116	0.06375329
227	0x3e184a94	0.148722
228	0x3d687cb1	0.05675954
229	0x3c51658e	0.01278056
230	0xbdb85d6c	-0.09002194
231	0x3b676811	0.003530983
232	0x3e244319	0.1604122
233	0xbe56920a	-0.20954147
234	0xbe0bcb03	-0.13651662
235	0xbd7aa7bf	-0.06119513
236	0xbddb13c7	-0.106971316
237	0xbd3c56e0	-0.045981288
238	0x3df5e80b	0.12007149
239	0x3da2ee8a	0.07955654
240	0x3d7eacf5	0.062176663
241	0x3db07e32	0.0861782
242	0xbe1f032e	-0.15528557
243	0x3e259849	0.16171373
244	0xbd258113	-0.040406298
245	0x3d298a01	0.041391376
246	0x3daf179d	0.08549426
247	0x3e311a0a	0.1729509
248	0x3e4aaed4	0.19793254
249	0x3e0491b1	0.12946202
250	0xbc772aa2	-0.015085848
251	0x3d80d8d9	0.062913604
252	0x3db7e5f7	0.08979409
253	0x3e0f44fe	0.13991162
254	0x3dc682f9	0.0969295
255	0xbde59771	-0.11210526

gru.weight_hh_l2 f4 [60, 20]
0	0x3d95f50b	0.07322129
1	0x3d776cae	0.06040638
2	0x3e11c29a	0.14234391
3	0xbdb7335b	-0.08945342
4	0x3e07dd71	0.13268067
5	0x3d117154	0.03550847
6	0xbdfe5e47	-0.12420326
7	0xbde9f3fd	-0.1142349
8	0xbe3b1452	-0.1826947
9	0x3d3fd5b1	0.04683465
10	0x3cfc1e8c	0.030776285
11	0xbd11d459	-0.0356029
12	0xbda3d832	-0.0800022
13	0x3c6b33a6	0.014355576
14	0x3d89b931	0.067247756
15	0x3dc8ed35	0.09810869
16	0xbd60ad08	-0.054852515
17	0xbd037224	-0.032091275
18	0x3dc18e27	0.094509415
19	0xbd9dd869	-0.077072926
20	0xbe080592	-0.13283375
21	0x3c951802	0.018199924
22	0x3de0c22c	0.10974535
23	0xbcbfb1e1	-0.023400249
24	0xbcd4b46f	-0.025964944
25	0xbc818d6f	-0.015814511
26	0xbd9455ba	-0.072429135
27	0x3de89f6c	0.11358532
28	0xbc8e9999	-0.017407225
29	0xbe3dfcd8	-0.18553483
30	0xbdb8ac61	-0.09017254
31	0xbda8af44	-0.08236554
32	0x3c670352	0.014099913
33	0x3e13fb21	0.14451267
34	0x3de818e5	0.11332873
35	0x3ddaad68	0.10677606
36	0xbe19bc3d	-0.15013213
37	0xbe55d41c	-0.20881695
38	0x3d4ef030	0.05052203
39	0x3e5664f0	0.20936942
40	0x3d3b5e0f	0.045744
41	0x3e3cc036	0.18432698
42	0x3c46ae4c	0.012126517
43	0x3dcf228e	0.10114013
44	0x3e47e127	0.19519483
45	0xbdf7b67c	-0.12095353
46	0x3e49673b	0.19668286
47	0x3e5fc89b	0.21853869
48	0xbc3b3ef3	-0.0114285825
49	0xbd967abf	-0.07347631
50	0xbe2a2660	-0.16616201
51	0x3d61e1aa	0.05514685
52	0x3dd3ac3e	0.10335587
53	0x3c9c5dc9	0.019087689
54	0x3db50da3	0.088404916
55	0x3dc91d2c	0.09820017
56	0x3d8270d3	0.06369176
57	0x3dfb0e38	0.122585714
58	0xbd7e36a9	-0.062063847
59	0x3de03fd7	0.109496765
60	0x3db34fdb	0.087554656
61	0x3e211d51	0.1573384
62	0x3d3a212d	0.045441795
63	0xbc8c783d	-0.017147178
64	0xbd47b9fa	-0.048761345
65	0xbe2ee092	-0.17077854
66	0xbe14126c	-0.14460152
67	0xbe152f97	-0.14568935
68	0x3da2ed76	0.07955448
69	0x3e0152ec	0.12629288
70	0xbd377b29	-0.04479519
71	0xbdf2bd05	-0.11852459
72	0x3e18e264	0.14930111
73	0x3cd4154d	0.025889063
74	0xbdf06ecd	-0.117398836
75	0x3e211fb8	0.15734756
76	0xbe546320	-0.20740938
77	0xbe425446	-0.1897746
78	0x3cc87735	0.024470905
79	0x3dc86074	0.09784022
80	0xbe4458fd	-0.19174571
81	0x3e28cc69	0.16484226
82	0xbdd024e0	-0.10163283
83	0x3d95070c	0.07276735
84	0x3ce54272	0.027985785
85	0x3d9e0236	0.077152655
86	0x3d94519c	0.07242128
87	0xbdc4b5c5	-0.09604982
88	0x3e04ee62	0.12981561
89	0xbd949917	-0.07255762
90	0x3d9086bb	0.07056948
91	0x3ccdd1ad	0.025124395
92	0x3e1696c9	0.14705957
93	0x3e1e26dc	0.15444511
94	0xbdc6f9ae	-0.09715591
95	0xbbd56680	-0.006512463
96	0x3d1b4c7a	0.03791473
97	0x3d7d1d01	0.06179524
98	0xbe1bd111	-0.15216471
99	0xbe396928	-0.1810652
100	0xbdecccd1	-0.11562503
101	0xbe2d161b	-0.16902964
102	0x3e3bfe0c	0.1835863
103	0xbd298e0e	-0.04139524
104	0xbdb55176	-0.08853428
105	0x3d46287e	0.04837846
106	0xbe218d89	-0.15776648
107	0x3e112289	0.1417333
108	0x3c78a814	0.015176792
109	0x3dbb31d1	0.09140361
110	0x3e1ed3db	0.15510504
111	0x3dca18fe	0.09868048
112	0xbc0af927	-0.008482254
113	0xbdc34b84	-0.09535888
114	0xbd2b315e	-0.041795127
115	0x3e00d58d	0.12581463
116	0x3dc75208	0.09732443
117	0xbdf52088	-0.119690955
118	0x3e2bff27	0.16796552
119	0x3e310678	0.17287624
120	0x3e0c25f7	0.13686357
121	0x3b9832a2	0.004644708
122	0x3e246556	0.16054282
123	0x3d896b55	0.06709925
124	0xbc8ba889	-0.017048137
125	0x3e0edca4	0.13951355
126	0xbe1c7b53	-0.1528142
127	0x3e266081	0.16247751
128	0x3bb734ad	0.0055909962
129	0xbd8ebff2	-0.069702044
130	0x3dbeb380	0.09311581
131	0xbe04417a	-0.12915602
132	0x3be44de7	0.0069672945
133	0x3d0c955f	0.03432214
134	0xbdc8c2f6	-0.09802811
135	0xbe1008ee	-0.14065906
136	0x3d98a3ce	0.07453118
137	0xbde95425	-0.113930024
138	0x3e09450d	0.13405247
139	0xbe00e221	-0.12586261
140	0xbe05436e	-0.13014004
141	0xbd936e00	-0.07198715
142	0x3d069105	0.032853145
143	0x3e3b0503	0.1826363
144	0x3d804e23	0.062649034
145	0x3d2a66c3	0.041601907
146	0x3e2ecaec	0.17069596
147	0x3d962989	0.07332141
148	0xbd858703	-0.06519892
149	0x3e17bbc0	0.14817715
150	0x3dc8bdb0	0.09801805
151	0x3d4450b4	0.047928527
152	0x3d19687b	0.037453156
153	0xbdd8fcdf	-0.10595106
154	0x3b9bbdf8	0.0047528706
155	0x3e296f86	0.16546449
156	0x3c95be8a	0.018279333
157	0xbd8a75a9	-0.06760723
158	0x3dc8687c	0.09785554
159	0xbdcd567d	-0.10026262
160	0xbdf65546	-0.12027983
161	0xbdaeec41	-0.085411556
162	0xbe15c8e4	-0.14627415
163	0x3dc4b40b	0.09604653
164	0xbdc71e06	-0.097225234
165	0xbbdd2bbb	-0.006749598
166	0xbe248fcf	-0.16070484
167	0x3d6dceba	0.058058478
168	0x3daa4b19	0.08315105
169	0x3d0a5a68	0.033777624
170	0xbcf26b73	-0.029592251
171	0xbdb58a28	-0.08864242
172	0xbdedcc72	-0.116112605
173	0xbcb3162e	-0.021861162
174	0xbe1a4b13	-0.15067701
175	0xbe38ebdd	-0.18058725
176	0xbc125657	-0.008931718
177	0xbb4511ae	-0.0030070352
178	0x3e480188	0.19531834
179	0xbe22ae1e	-0.15886733
180	0xbdd187ec	-0.10231003
181	0x3d482ccf	0.048870858
182	0x3e2bb240	0.16767216
183	0xbd8ab361	-0.06772495
184	0xbe3200c2	-0.17383102
185	0x3df026bc	0.11726138
186	0x3b5ae1b3	0.0033398687
187	0x3dcf21ea	0.101138905
188	0x3e2eaf13	0.17058973
189	0xbde8b360	-0.11362338
190	0x3d029e41	0.031889204
191	0x3db28e03	0.08718493
192	0xbe37a21e	-0.17932937
193	0x3daa4673	0.08314218
194	0x3dd0d905	0.10197643
195	0x3c3ae191	0.011406318
196	0xbd02d4cf	-0.03194123
197	0x3dd68242	0.104740635
198	0x3db80ee6	0.08987217
199	0x3e26ca8e	0.16288206
200	0xbe390e7b	-0.1807193
201	0x3d843573	0.06455507
202	0x3d82321a	0.06357212
203	0x3e06b610	0.13155389
204	0x3e5158ef	0.20444082
205	0x3e137f42	0.14404014
206	0x3e206c87	0.156664
207	0x3d4ba094	0.049713686
208	0x3dfbbe8f	0.122922055
209	0xbd0d1a5b	-0.034448963
210	0xbdb3320c	-0.0874978
211	0xbe5f079e	-0.2178025
212	0xbd5e45e5	-0.054265875
213	0xbdafa242	-0.0857587
214	0xbd86d496	-0.06583516
215	0x3ded84ff	0.115976326
216	0xbe091734	-0.13387758
217	0xbb91782c	-0.0044393744
218	0x3d82e735	0.063917555
219	0x3d218fe0	0.03944385
220	0xbd9818a7	-0.07426577
221	0x3e0511ee	0.12995121
222	0xbdddc491	-0.10828508
223	0x3d81a3e8	0.06330091
224	0xbd8b64b7	-0.06806319
225	0x3dc866b5	0.09785215
226	0x3c8b34c8	0.016992941
227	0xbde349f8	-0.11098093
228	0x3e11c346	0.14234647
229	0x3d89daa5	0.06731156
230	0x3de4feab	0.111813866
231	0x3e2fafab	0.17156856
232	0xbd6995ad	-0.057027508
233	0xbe03b29e	-0.12861106
234	0x3dc16cf0	0.09444606
235	0x3bb3b466	0.0054841517
236	0xbced2ed5	-0.028952995
237	0x3d589607	0.052877452
238	0xbdcc0ed6	-0.09963767
239	0xbdb7b02f	-0.08969151
240	0xbdefbf99	-0.11706466
241	0x3e3e2cd7	0.18571793
242	0x3c3c5911	0.011495844
243	0x3e0b430b	0.13599794
244	0x3d8bae3b	0.06820341
245	0xbc59e5d5	-0.013299425
246	0x3dae0111	0.08496297
247	0x3c90eeb7	0.017691953
248	0x3dbda9f3	0.09260931
249	0x3e0118f8	0.12607181
250	0xbde71dbe	-0.1128497
251	0xbe3334a4	-0.1750055
252	0xbe321057	-0.17389046
253	0xbc9d6ae8	-0.019216016
254	0xbe1cb7d1	-0.15304495
255	0x3e26d9be	0.16294

gru.bias_ih_l2 f4 [60]
0	0x3d0322f6	0.032015763
1	0x3e2fc65b	0.1716551
2	0x3e204c9b	0.15654223
3	0x3ca15670	0.019694537
4	0x3c226f97	0.0099143
5	0xbcd3361c	-0.025782637
6	0xbe14b4d4	-0.14522105
7	0x3d87cb23	0.06630542
8	0xbc9812a4	-0.018563576
9	0x3dd9c9ea	0.10634215
10	0x3dbe85cf	0.09302866
11	0x3dfc5e04	0.123226196
12	0xbd6891a0	-0.056779504
13	0xbe04e705	-0.12978752
14	0x3da9702a	0.08273347
15	0x3dd49625	0.103802
16	0x3e361abe	0.17783639
17	0xbd579c13	-0.05263908
18	0x3d84c3f5	0.06482688
19	0x3bdfcf66	0.0068301437
20	0xbd852235	-0.06500665
21	0x3d8f6f69	0.07003672
22	0xbe1f4182	-0.15552333
23	0xbe18f8ad	-0.14938612
24	0x3d5cd489	0.053913627
25	0xbd1a57c9	-0.037681375
26	0x3da2627c	0.07928941
27	0x3db0281b	0.086013995
28	0x3d76bf4b	0.060241025
29	0xbe57db4b	-0.21079747
30	0xbe0f380f	-0.13986228
31	0xbe350775	-0.17678626
32	0x3e357a9e	0.17722556
33	0x3c853cab	0.01626428
34	0x3d9b6bcb	0.07588919
35	0x3e0a5762	0.13509896
36	0x3de7d42c	0.113197654
37	0xbdc951eb	-0.09830078
38	0xbd7f10c4	-0.06227185
39	0xbe1fe34b	-0.15614049
40	0xbb040a9c	-0.0020147925
41	0x3e27abfd	0.16374202
42	0x3dd50f80	0.10403347
43	0x3bcead3b	0.006307272
44	0xbdfeb2cc	-0.124364465
45	0x3df66242	0.1203046
46	0x3d845643	0.064617656
47	0x3e574224	0.21021324
48	0xbe48a387	-0.1959363
49	0xbe06ae9a	-0.13152543
50	0xbdfe9055	-0.12429873
51	0xbdce158b	-0.10062703
52	0xbcc72c36	-0.024313074
53	0xbe136141	-0.14392568
54	0x3e118bb4	0.14213449
55	0xbe3873eb	-0.18012969
56	0xbc99fc14	-0.018796958
57	0x3dff5336	0.12467043
58	0x3e3c5d86	0.18395051
59	0x3e3ca029	0.18420471

gru.bias_hh_l2 f4 [60]
0	0xbe0ccd1c	-0.13750118
1	0x3cc983a2	0.0245989
2	0x3d8d837e	0.06909846
3	0x3e356099	0.1771263
4	0xbdfb60af	-0.122743
5	0x3dc13692	0.094342366
6	0x3bf5f076	0.007505472
7	0x3d1d1682	0.038351543
8	0x3dd096c6	0.10185008
9	0x3e58e03f	0.21179293
10	0xbca56ff6	-0.020194989
11	0x3d6396b7	0.055563655
12	0xbde57e53	-0.11205735
13	0xbd1c0c83	-0.03809787
14	0x3e17fc61	0.14842369
15	0x3cda1ab6	0.026624065
16	0x3da36696	0.07978551
17	0x3e44c682	0.1921635
18	0xbe3deb0a	-0.18546692
19	0x3e103c93	0.14085607
20	0xbe121af3	-0.14268093
21	0x3dae031b	0.08496686
22	0x3e2e15b9	0.17000474
23	0xbcbdfbfb	-0.023191443
24	0x3dba0432	0.090828314
25	0xbd962faa	-0.0733331
26	0x3db64322	0.08899523
27	0x3dd76c2e	0.105186805
28	0x3e22d602	0.1590195
29	0x3da66afc	0.081258744
30	0x3d37336a	0.044726767
31	0x3d8c1fde	0.06842016
32	0x3d947da2	0.07250525
33	0xbd567ab6	-0.05236312
34	0xbe0245ac	-0.1272189
35	0xbddf49b2	-0.10902728
36	0xbdf3b935	-0.1190056
37	0xbe15bffa	-0.14624014
38	0x3d2b0f0b	0.041762393
39	0x3be6ce2a	0.0070436196
40	0xbc8c1052	-0.017097626
41	0x3e106237	0.14099966
42	0x3c5d01a3	0.01348916
43	0xbd33a962	-0.043862708
44	0xbc27ac27	-0.010233915
45	0xbd953c76	-0.07286923
46	0xbd54c1b1	-0.05194253
47	0xbdc2bf98	-0.095092
48	0x3cb6edcd	0.02233019
49	0xbdec57ba	-0.1154017
50	0xbe3da324	-0.18519264
51	0xbd08d314	-0.033404425
52	0xbe1bab77	-0.15202127
53	0xbdea72ae	-0.11447655
54	0xbcba3913	-0.022732293
55	0xbe2995c4	-0.16561037
56	0x3d02d2c6	0.03193929
57	0xbe34186c	-0.17587441
58	0xbdd3cdc6	-0.103419825
59	0x3e1bf9d5	0.15232022
