model-RNN-DDPG/just_theta/Q.pth (torch, 111863 bytes, 52 tensors)

gru.weight_ih_l0 f4 [60, 1]
0	0x3dd99980	0.10624981
1	0xbe39d340	-0.18146992
2	0x3e384ac0	0.17997265
3	0xbd8de993	-0.06929316
4	0xbc4b6c38	-0.012415938
5	0x3d0c4876	0.03424879
6	0x3def7f0d	0.11694155
7	0x3d04e6c7	0.03244665
8	0xbd845d94	-0.06463161
9	0xbd82ad0b	-0.063806616
10	0x3b573981	0.0032840671
11	0xbd856d42	-0.0651498
12	0x3c827c36	0.015928369
13	0xbe44ae1e	-0.19207045
14	0x3e422aac	0.1896159
15	0xbe04a346	-0.12952909
16	0xbe276120	-0.16345644
17	0x3d829ccc	0.06377563
18	0x3e0cf86f	0.13766645
19	0x3e0b6912	0.136143
20	0x3e3198f5	0.17343505
21	0xbd80163e	-0.06254242
22	0x3dd095fb	0.101848565
23	0xbe20c943	-0.15701775
24	0x3e3cbf93	0.18432455
25	0xbe3c7ede	-0.18407771
26	0xbe2ce021	-0.16882373
27	0x3e48e220	0.1961751
28	0x3d25a4ed	0.04044049
29	0xbd2b8b42	-0.041880853
30	0xbe52ed99	-0.20598449
31	0xbd77dc0d	-0.06051259
32	0xbe3993bb	-0.18122761
33	0xbe269126	-0.16266307
34	0x3e3f1a59	0.18662395
35	0xbdfc5afb	-0.12322041
36	0xbe282742	-0.16421226
37	0xbe4ca58d	-0.19985028
38	0x3d990b31	0.07472838
39	0xbc96c42e	-0.018404093
40	0xbb08b5d1	-0.0020860324
41	0x3daa3108	0.08310133
42	0xbe0c7d2d	-0.13719626
43	0x3e500103	0.20312886
44	0xbdbc7e31	-0.092037566
45	0xbde0fd47	-0.10985809
46	0xbe1ab8b0	-0.15109515
47	0xbb035f1e	-0.0020045708
48	0xbdbd0ab2	-0.092305556
49	0xbdcc6067	-0.09979325
50	0x3e3c50a9	0.18390144
51	0xbe1ad714	-0.15121108
52	0x3e69944b	0.22810476
53	0xbe17f929	-0.14841141
54	0xbe7138dd	-0.23556848
55	0xbe5c63b6	-0.21522412
56	0x3e33d6f2	0.17562464
57	0xbc0893c6	-0.008336013
58	0xbdc2fa27	-0.09520369
59	0xbd9162fc	-0.07098958

gru.weight_hh_l0 f4 [60, 20]
0	0xbcf7dfe1	-0.030258121
1	0x3e24610b	0.16052644
2	0xbc88c63a	-0.016696084
3	0x3af0d03e	0.0018372608
4	0xbe441623	-0.1914907
5	0x3d45f528	0.048329502
6	0x3d5bed9b	0.053693395
7	0xbb71cd2b	-0.0036895971
8	0xbcce7169	-0.025200563
9	0xbd45bbd4	-0.04827483
10	0xbe4ac30f	-0.19800971
11	0x3e404a56	0.18778357
12	0x3d3f8bb8	0.046764106
13	0xbe515d60	-0.20445776
14	0xbd8cd1fd	-0.068759896
15	0x3e3ca2dc	0.18421501
16	0xbe426deb	-0.18987243
17	0xbdea43b0	-0.114386916
18	0x3d4cf7e1	0.050041083
19	0x3d7e87ee	0.06214135
20	0x3e01f12f	0.1268966
21	0xbe4477ec	-0.19186372
22	0x3da81eb6	0.08208983
23	0x3e1d9e14	0.15392333
24	0xbe1d6dd1	-0.15373923
25	0x3db47723	0.08811786
26	0x3e3f2b07	0.18668757
27	0xbe023f37	-0.12719427
28	0xbe073e27	-0.13207303
29	0x3d1f8637	0.038946357
30	0x3e47734d	0.19477578
31	0xbc3c2359	-0.011483037
32	0x3dfaf41e	0.12253593
33	0x3d82863e	0.06373261
34	0x3d9bb863	0.07603528
35	0xbe039021	-0.1284795
36	0x3d16b9c0	0.03679824
37	0x3df67d86	0.120356604
38	0xbdb52241	-0.08844424
39	0xbe4ab68a	-0.19796196
40	0xbe1a8d19	-0.15092887
41	0x3df7936a	0.12088664
42	0x3bd865b3	0.0066039204
43	0xbe32e0f6	-0.17468628
44	0xbded1379	-0.1157598
45	0xbcdad1c0	-0.026711345
46	0x3d895694	0.067059666
47	0xbded06b1	-0.11573542
48	0xbc14b719	-0.009076857
49	0xbe38b3e5	-0.18037374
50	0xbdf73b7a	-0.12071891
51	0xbe55f9f1	-0.20896126
52	0xbdde31b3	-0.10849323
53	0xbdb4b96a	-0.088244274
54	0x3e00a055	0.12561162
55	0x3e196371	0.1497934
56	0xbdcf1819	-0.10112018
57	0xbe0c2e13	-0.13689451
58	0x3e324784	0.17410094
59	0xbcdf2be8	-0.027242616
60	0x3b90454f	0.0044027935
61	0x3e0ddc29	0.13853516
62	0x3dfe03c1	0.1240306
63	0x3e30b8a6	0.17257938
64	0xbe391d16	-0.18077502
65	0xbe1afb34	-0.15134889
66	0x3db6e2a9	0.08929951
67	0xbe29aafd	-0.16569133
68	0x3e08bd48	0.13353455
69	0xbe282e21	-0.16423847
70	0xbe0e67f0	-0.13906837
71	0x3dfe47ca	0.124160364
72	0x3e28cbc0	0.16483974
73	0xbdd56bc6	-0.10420947
74	0xbe4f0931	-0.2021835
75	0xbdb9ad0e	-0.09066211
76	0x3e2ef30b	0.17084901
77	0x3df38ba3	0.11891868
78	0x3d4f553f	0.050618406
79	0xbdb8d57e	-0.090250954
80	0x3d5a8156	0.053346
81	0xbd490d7e	-0.049085133
82	0x3e411325	0.1885496
83	0xbd51dcf3	-0.051236104
84	0xbe4e84fa	-0.20167914
85	0xbe3fee01	-0.18743135
86	0x3e2a89a7	0.16654073
87	0xbe509fdf	-0.20373486
88	0xbe3f5a0e	-0.18686697
89	0xbe1e7fab	-0.15478389
90	0xbe040197	-0.12891231
91	0x3d329314	0.043597296
92	0xbe27bfc5	-0.16381748
93	0xbe3ccd00	-0.18437576
94	0xbd1ec036	-0.038757525
95	0x3df9fc0c	0.12206277
96	0xbe54e64b	-0.20790975
97	0x3dac2029	0.084045716
98	0xbdd64314	-0.10462013
99	0xbe454446	-0.19264325
100	0xbe2e1310	-0.1699946
101	0x3e002e61	0.12517692
102	0x3da31615	0.07963196
103	0xbc75f301	-0.01501155
104	0xbe008b4f	-0.12553142
105	0xbd5c4ba3	-0.05378307
106	0x3e53fa36	0.20700917
107	0xbdbf8cac	-0.09353003
108	0xbba3c324	-0.004997628
109	0x3ddf79c7	0.10911899
110	0x3e09e201	0.1346512
111	0x3d870a72	0.06593789
112	0xbdbc9602	-0.09208299
113	0xbc1b21fa	-0.00946855
114	0x3e354258	0.1770109
115	0xbdb98bb9	-0.09059853
116	0xbcca0757	-0.024661703
117	0x3e569012	0.20953396
118	0x3dbfeef8	0.093717515
119	0x3e1a1e23	0.15050559
120	0xbe1b3e75	-0.15160544
121	0xbe56c252	-0.20972565
122	0x3d8f43f4	0.06995383
123	0x3bed55ab	0.0072428784
124	0x3deb5209	0.11490256
125	0x3e2b8480	0.16749763
126	0x3de16c96	0.11007039
127	0xbd75b231	-0.05998439
128	0x3e246e69	0.16057743
129	0xbd889cf8	-0.066705644
130	0x3e3a62f4	0.1820181
131	0xbd3cf8a7	-0.04613557
132	0xbe16a909	-0.1471292
133	0x3e220d51	0.15825392
134	0xbc9626f1	-0.018329116
135	0x3c96dc04	0.018415459
136	0x3cd48a3d	0.025944823
137	0xbe3b4787	-0.18289004
138	0xbdcf75c5	-0.10129885
139	0x39f13fe4	0.00046014704
140	0x3e58b0f6	0.21161255
141	0x3cc32333	0.023820495
142	0xbd1ae73e	-0.037818186
143	0x3e2e3b83	0.1701489
144	0xbd97f90e	-0.0742055
145	0xbe10953c	-0.14119428
146	0x3cd197c7	0.025585068
147	0xbd80a3d7	-0.0628125
148	0x3e4dff91	0.20117022
149	0xbded3132	-0.11581649
150	0xbd57cd3a	-0.052685954
151	0x3e315719	0.17318381
152	0x3e44eb28	0.1923033
153	0x3cb4e61f	0.022082387
154	0x3d9a72fb	0.07541462
155	0x3e58019c	0.21094364
156	0x3e1b620f	0.15174125
157	0x3df1eacc	0.11812362
158	0xbe46cdc5	-0.19414432
159	0xbd1b6377	-0.037936654
160	0xbe39187f	-0.18075751
161	0x3de62943	0.11238339
162	0x3e514555	0.20436604
163	0x3db12f68	0.0865162
164	0xbe3d9c32	-0.18516615
165	0x3dd0d00e	0.10195933
166	0xb9f3ded1	-0.00046514583
167	0xbe1fcf94	-0.15606529
168	0xbcc7161d	-0.024302537
169	0xbe0b1c31	-0.13584973
170	0x3e023b6c	0.1271798
171	0x3e0916ca	0.133876
172	0xbdca21fc	-0.09869763
173	0xbdebf7f7	-0.11521905
174	0xbdced3c9	-0.100989886
175	0xbc78e681	-0.015191675
176	0x3e2975ad	0.16548796
177	0x3e374783	0.17898373
178	0xbe01037d	-0.12598987
179	0xbe56ce6b	-0.2097718
180	0xbe3c250f	-0.18373512
181	0xbe58e7ba	-0.21182147
182	0x3e139ec4	0.14416033
183	0x3d97ecde	0.07418226
184	0x3e49daf8	0.19712436
185	0x3e564098	0.20923078
186	0xbe268817	-0.16262852
187	0xbe148bee	-0.14506504
188	0x3d32dc03	0.04366685
189	0x3d311d3c	0.04324077
190	0xba164fba	-0.0005733926
191	0xbcdbc420	-0.026826918
192	0xbd5efafa	-0.05443857
193	0xbe233d60	-0.15941381
194	0x3dfe2f21	0.12411333
195	0xbe0133a3	-0.12617354
196	0xbd820fa1	-0.06350637
197	0xbcb3674f	-0.021899847
198	0x3d2185fd	0.03943442
199	0x3e41dda0	0.189322
200	0xbe59846b	-0.2124192
201	0xbe0721c9	-0.13196482
202	0xbe0c64a4	-0.13710266
203	0x3d448820	0.04798138
204	0x3e40278b	0.18765084
205	0x3e475db6	0.19469342
206	0x3e084837	0.13308798
207	0x3e123318	0.14277303
208	0x3d8d5b78	0.06902212
209	0x3dd8a9ad	0.10579238
210	0xbe0ebece	-0.13939974
211	0x3e1e2611	0.15444209
212	0x3e54f7ff	0.20797728
213	0xbe37a437	-0.17933737
214	0xbe2ee933	-0.17081146
215	0x3dd5944e	0.104286775
216	0xbe4a7103	-0.19769673
217	0x3dfb5f17	0.12273996
218	0x3dda82be	0.10669468
219	0x3de7bca8	0.1131528
220	0x3e1753d4	0.14778072
221	0xbcbea688	-0.023272768
222	0x3c56279b	0.013070966
223	0xbe4c6743	-0.19961266
224	0xbcf1cc2a	-0.029516298
225	0x3e2d50f4	0.16925412
226	0x3d68cbbc	0.05683492
227	0x3e433354	0.19062549
228	0x3e0d0d8a	0.13774696
229	0xbd5de4fe	-0.054173462
230	0x3d917df4	0.07104102
231	0xbe196245	-0.14978893
232	0x3ba7ca36	0.005120541
233	0xbe297168	-0.16547167
234	0xbe4e8550	-0.20168042
235	0xbd385051	-0.04499847
236	0x3e0c46da	0.13698903
237	0xbdf63f1a	-0.120237544
238	0x3cc0d689	0.023539798
239	0xbe55d23a	-0.20880976
240	0x3e5424ab	0.20717113
241	0xbd2a476e	-0.041572027
242	0x3d31c6be	0.043402426
243	0x3e158748	0.14602387
244	0xbd32a62f	-0.043615516
245	0x3dd88d2c	0.105738014
246	0x3cb06b39	0.021535503
247	0xbe31085f	-0.1728835
248	0xbd218ce3	-0.039441
249	0x3e51819f	0.20459603
250	0x3e073cd3	0.13206796
251	0xbdd32baf	-0.10311066
252	0xbd843279	-0.064549394
253	0x3da5519b	0.08072206
254	0xbd208e9c	-0.039198503
255	0xbd81aa93	-0.063313626

gru.bias_ih_l0 f4 [60]
0	0xbc4494b8	-0.011998348
1	0xbe32dee0	-0.17467833
2	0xbdffb6e6	-0.12486057
3	0xbe35ff4f	-0.17773174
4	0xbd0dac33	-0.03458805
5	0x3d41fe52	0.04736168
6	0xbe4bd199	-0.19904174
7	0x3de93718	0.113874614
8	0xbd55470d	-0.052069712
9	0x3d84a864	0.064774305
10	0x3db30d13	0.08742728
11	0x3e131f8b	0.14367501
12	0xbd5f01a0	-0.05444491
13	0x3e1dace2	0.15397981
14	0x3e333a0a	0.17502609
15	0x3e2e74fa	0.1703681
16	0xbe5ecad5	-0.21757062
17	0x3e62be36	0.22142872
18	0xbe4c69a1	-0.19962169
19	0xbe05ae0f	-0.1305468
20	0xbcc13e06	-0.023589145
21	0x3d2f9f65	0.04287662
22	0xbd0c833d	-0.034304846
23	0xbe0b8ee1	-0.13628723
24	0xbe1682f9	-0.146984
25	0xbdd390f3	-0.10330381
26	0xbd6670f4	-0.056260064
27	0x3deffe4e	0.11718427
28	0xbdfa6c41	-0.12227679
29	0x3d0eb2c0	0.034838438
30	0x3bde7b3b	0.0067895926
31	0x3d2694d6	0.040669285
32	0x3e0d03f0	0.13771033
33	0xbcfb2444	-0.030656941
34	0x3c4857a2	0.012227925
35	0x3e2e64ae	0.17030594
36	0x3dd5c767	0.104384236
37	0x3c4529a0	0.01203385
38	0xbde81099	-0.11331291
39	0xbd060d8b	-0.03272776
40	0x3b8bfa62	0.0042717913
41	0x3ce01f3b	0.027358642
42	0xbdd073c8	-0.101783335
43	0xbe1258dd	-0.14291711
44	0xbd37f598	-0.04491195
45	0xbdc82305	-0.097723044
46	0xbda1d844	-0.079025775
47	0xbe5ab6eb	-0.2135884
48	0x3ccf4a94	0.025304116
49	0x3db8da06	0.0902596
50	0xbe61c602	-0.2204819
51	0xbd580b4a	-0.05274514
52	0x3d233901	0.039849285
53	0x3d53ae89	0.05168012
54	0xbe2fabde	-0.17155406
55	0xbcc67f7a	-0.024230707
56	0x3d5fb2f1	0.05461401
57	0x3e272be4	0.16325337
58	0xbe16cee6	-0.14727363
59	0x3b530e3e	0.0032204534

gru.bias_hh_l0 f4 [60]
0	0xbe4e4f91	-0.2014754
1	0xbdde7b70	-0.108633876
2	0x3d0f87da	0.035041668
3	0xbe3d9e62	-0.1851745
4	0x3e475b05	0.19468315
5	0xbd8fbe15	-0.07018677
6	0x3e5ede31	0.21764447
7	0xbd4e29ea	-0.05033294
8	0xbc4f2310	-0.012642637
9	0x3d90ce6c	0.07070622
10	0xbe29b782	-0.16573909
11	0x3e0676a6	0.13131198
12	0x3d81acd9	0.06331796
13	0xbe2dd484	-0.169756
14	0x3e457423	0.19282584
15	0xbe0b477d	-0.1360149
16	0xba87b736	-0.0010354284
17	0x3ce10aad	0.02747091
18	0xbcf29015	-0.02960972
19	0xbe2a7d4e	-0.16649362
20	0x3daaa798	0.08332747
21	0x3d4aed66	0.049542807
22	0xbd202629	-0.039098892
23	0x3d238e96	0.039930902
24	0xbd8cd9a0	-0.06877446
25	0x3e2bbb74	0.16770726
26	0xbe382cc6	-0.1798583
27	0x3e2d3874	0.16916066
28	0xbdc0758b	-0.093974195
29	0x3c9b33ea	0.018945653
30	0xbe16a47c	-0.14711183
31	0xbe333022	-0.1749883
32	0x3d8a5d07	0.06756025
33	0xbd02b289	-0.031908546
34	0x3e147e0f	0.14501213
35	0xbda78fee	-0.08181749
36	0x3e2f1531	0.17097928
37	0xbdca151b	-0.09867307
38	0x3de921f3	0.113834284
39	0xbd824bba	-0.063621
40	0xbe3c590a	-0.1839334
41	0xbd216cd9	-0.039410446
42	0x3dd8ef42	0.1059251
43	0x3dab3d69	0.083613224
44	0x3e0604b3	0.1308773
45	0x3d28a744	0.041175142
46	0x3e268e8d	0.16265316
47	0x3e320503	0.17384724
48	0x3cc7c34c	0.024385117
49	0xbcf3faff	-0.02978277
50	0xbd5a8ab8	-0.05335495
51	0xbd08b780	-0.033378124
52	0xbd323ecf	-0.04351693
53	0xbdff9bfa	-0.12480922
54	0x3e405245	0.18781383
55	0x3d93ae42	0.072109714
56	0xbcee5f4a	-0.029098172
57	0xbe4a5f2b	-0.19762866
58	0xbe18d417	-0.14924656
59	0xbde11c6e	-0.10991751

gru.weight_ih_l1 f4 [60, 20]
0	0x3dd72c06	0.10506444
1	0xbe29383f	-0.16525362
2	0xbe54500f	-0.20733665
3	0x3dd8b820	0.10581994
4	0xbd57c2e1	-0.052676085
5	0x3e5dfe1b	0.21678965
6	0x3e4c52c2	0.19953445
7	0xbe320edd	-0.17388482
8	0xbe16c6f7	-0.14724337
9	0x3d99b589	0.07505328
10	0xbe088b60	-0.13334417
11	0x3dea7798	0.11448592
12	0xbe4a4c1a	-0.19755593
13	0xbcb95269	-0.022622304
14	0xbda578b6	-0.080796644
15	0x3e261b57	0.16221367
16	0x3e3057c2	0.17220977
17	0xbe0f907d	-0.14019962
18	0x3e0a7ba5	0.13523729
19	0xbe180ee9	-0.14849438
20	0x3dc67cf1	0.096917994
21	0x3db05805	0.086105384
22	0x3e3d0c89	0.18461813
23	0xbdfbf6eb	-0.12302955
24	0xbde30e27	-0.11086684
25	0xbe05a3e0	-0.13050795
26	0x3bfe34ea	0.0077577727
27	0xbe353a79	-0.17698087
28	0x3da13d43	0.07873013
29	0x3e0b8256	0.13623938
30	0x3d29f46b	0.04149286
31	0x3cd0a091	0.025467189
32	0x3d908647	0.07056861
33	0xbe28db98	-0.16490018
34	0x3e434a69	0.19071354
35	0xbe45998b	-0.19296853
36	0xbbf5a2ae	-0.0074961996
37	0xbcf299c0	-0.02961433
38	0x3cac6540	0.021044374
39	0x3e29cb55	0.16581471
40	0xbb43b55e	-0.0029862742
41	0x3e4523ab	0.19251888
42	0xbc1e2b24	-0.00965384
43	0xba64ea72	-0.0008732445
44	0xbd46b929	-0.048516426
45	0x3d946bbb	0.072471105
46	0x3ddd251f	0.10798096
47	0x3d7bf154	0.061509445
48	0x3e2b8cf3	0.16752987
49	0xbdddd02e	-0.10830723
50	0xbe0cc12c	-0.13745564
51	0xbe0093e2	-0.12556413
52	0x3d903cd0	0.07042849
53	0x3dc78e92	0.0974399
54	0xbe10eb92	-0.14152363
55	0xbdd4e85d	-0.10395882
56	0x3e347eb5	0.1762646
57	0x3e38a237	0.1803063
58	0x3b8535ce	0.004065252
59	0x3db96aef	0.09053599
60	0xbe0ebe4e	-0.13939783
61	0x3e2e9a02	0.17050937
62	0xbe3ce25e	-0.18445727
63	0x3c1c118e	0.00952567
64	0xbe55a3e0	-0.20863295
65	0x3e31b37f	0.17353629
66	0x3c7e304f	0.015514447
67	0x3dc400c5	0.09570459
68	0xbe0d9dfb	-0.13829796
69	0x3ddee532	0.10883559
70	0x3df8b170	0.121432185
71	0xbdc0dc57	-0.094170265
72	0xbcafbcb3	-0.021452283
73	0xbdf2b30e	-0.11850558
74	0xbde51168	-0.111849606
75	0xbb655b55	-0.0034997065
76	0xbd533cce	-0.05157166
77	0xbe3278a0	-0.17428827
78	0x3d5d9e7f	0.05410623
79	0x3d9316b8	0.07182068
80	0x3e0419a9	0.12900414
81	0x3e499d31	0.1968887
82	0xbe468b78	-0.1938914
83	0x3c4e76a1	0.0126015255
84	0xbd80ec69	-0.06295092
85	0x3d735bf6	0.059413873
86	0xbe14326a	-0.14472356
87	0xbe4dcbd9	-0.20097293
88	0x3e3fa2eb	0.18714492
89	0x3e1eb365	0.15498121
90	0xbe097b13	-0.13425855
91	0x3e548b54	0.20756274
92	0xbcde4e6c	-0.027137004
93	0xbd3794c9	-0.044819627
94	0x3d0fe3d3	0.03512938
95	0xbd6fcb02	-0.058543213
96	0x3d7baaa7	0.061442044
97	0x3d28d2ae	0.041216545
98	0xbd287a11	-0.041132037
99	0xbd8254e8	-0.06363851
100	0xbe220911	-0.15823771
101	0x3d606b73	0.05478997
102	0x3d1bcb15	0.03803547
103	0xbd397cfd	-0.045285214
104	0xbe51da26	-0.20493373
105	0xbdb03ed7	-0.08605736
106	0xbdf34fae	-0.11880432
107	0xbd87d5d9	-0.06632585
108	0x3b801cf2	0.0039097006
109	0xbb243825	-0.0025057879
110	0x3d2fa264	0.042879477
111	0xbd1643c7	-0.03668573
112	0xbe04462e	-0.12917396
113	0xbe127d5b	-0.14305632
114	0xbe4c5c9c	-0.19957203
115	0xbe51d6c4	-0.20492083
116	0xbdc64760	-0.096815825
117	0xbe44cedc	-0.19219536
118	0x3e4efe34	0.20214158
119	0xbe23096e	-0.15921566
120	0xbe0365a8	-0.12831748
121	0xbdbe95b9	-0.09305901
122	0xbdce6f09	-0.10079772
123	0xbe10df64	-0.14147717
124	0xbda61c62	-0.08110882
125	0xbe269d8b	-0.16271035
126	0x3df0b946	0.11754088
127	0x3d0ef4d1	0.034901444
128	0xbb84cc5a	-0.004052681
129	0xbe380ac8	-0.17972863
130	0xbe020fb0	-0.12701297
131	0xbd9aa002	-0.0755005
132	0xbdf04f3d	-0.117338635
133	0x3c855336	0.01627503
134	0x3e03eb9b	0.12882845
135	0x3e263d36	0.16234288
136	0xbe15baaf	-0.14621995
137	0xbd33f43a	-0.043934084
138	0xbe0d5382	-0.13801387
139	0xbd6aef8d	-0.05735736
140	0xbc9d517b	-0.019203892
141	0xbe0ae5a5	-0.13564165
142	0x3e1f4c47	0.15556441
143	0x3e115d85	0.14195831
144	0xbdf48844	-0.11940053
145	0xbe2760f6	-0.16345581
146	0xbd6b5c9c	-0.057461366
147	0x3cc1119a	0.023567963
148	0xbd93d44f	-0.07218229
149	0x3e207f95	0.15673669
150	0xbd106ca9	-0.035259876
151	0xbd1cdc8c	-0.038296267
152	0xbda37cdb	-0.07982799
153	0x3cbf4148	0.023346558
154	0x3c852852	0.016254578
155	0xbdc6bdb0	-0.09704149
156	0x3cff53ed	0.031167949
157	0x3d6343da	0.05548463
158	0xbdfcdba5	-0.12346581
159	0xbc2f0119	-0.010681414
160	0xbd5fcdb1	-0.054639522
161	0x3e3862d9	0.18006457
162	0x3e351c71	0.17686631
163	0x3e0bbc46	0.1364604
164	0x3dadd89c	0.084885806
165	0x3d4da91d	0.050210107
166	0xbcc60943	-0.024174338
167	0x3e108e0d	0.14116688
168	0x3e1515a7	0.14559041
169	0x3de143db	0.109992705
170	0xbb01c454	-0.0019800859
171	0x3d0c7261	0.034288768
172	0x3e6df848	0.23239243
173	0xbcb7de47	-0.022444857
174	0x3e0dd6f3	0.13851528
175	0xbc8721c9	-0.016495602
176	0xbe3e070d	-0.18557377
177	0x3e0672de	0.13129756
178	0xbcdd21a4	-0.02699358
179	0xbc0a779b	-0.008451368
180	0x3bbdf081	0.0057964926
181	0x3bd5a193	0.0065195053
182	0xbd1b1578	-0.03786227
183	0xbd1b64a1	-0.037937764
184	0x3d5e0894	0.0542074
185	0x3d4a959e	0.049459092
186	0xbd5f6909	-0.05454353
187	0xbe196b54	-0.14982349
188	0xbdc9dbd8	-0.09856385
189	0x3e06b08c	0.13153285
190	0xbd86ad95	-0.06576077
191	0x3d390412	0.045169897
192	0x3e109b59	0.1412176
193	0xbe157588	-0.14595616
194	0xbe3e9398	-0.1861099
195	0xbdac8964	-0.08424643
196	0xbe065aee	-0.13120624
197	0xbd3e3d8b	-0.04644541
198	0xbc880cf7	-0.016607745
199	0x3db92265	0.09039763
200	0xbdf1ea47	-0.11812263
201	0x3e363556	0.17793784
202	0x3dd7884b	0.10524043
203	0x3db03f77	0.08605855
204	0xbe45c51c	-0.19313473
205	0xbe58befa	-0.21166602
206	0x3dcec75d	0.10096619
207	0x3d37b609	0.044851337
208	0x3e4d252d	0.20033713
209	0x3e044181	0.12915613
210	0xbe60d7b3	-0.21957283
211	0x3e4e3220	0.20136309
212	0xbe12273a	-0.14272776
213	0x3d7eb8bc	0.062187895
214	0xbcc07cd5	-0.023497025
215	0x3dea3c6e	0.11437307
216	0xbd991245	-0.07474188
217	0xbe2d02a0	-0.16895533
218	0xbdf95b4f	-0.12175619
219	0x3d614af9	0.05500314
220	0xbdffbeba	-0.1248755
221	0x3d076c05	0.033062
222	0xbcc3c8bf	-0.023899434
223	0xbda814a8	-0.08207065
224	0x3e32cbe9	0.17460598
225	0x3e45407e	0.19262883
226	0x3de7fdec	0.11327729
227	0x3d987181	0.07443524
228	0xbe55b48b	-0.20869653
229	0xbd216fbe	-0.039413206
230	0xbd488017	-0.04895028
231	0x3c70dae9	0.01470063
232	0xbda62adf	-0.08113646
233	0xbde269e9	-0.11055357
234	0x3d1a6d1c	0.03770171
235	0xbcf58ab2	-0.029973362
236	0xbdbe095d	-0.0927913
237	0x3dc64039	0.09680218
238	0xbd231757	-0.03981718
239	0x3def1ead	0.11675773
240	0x3dcfbf3e	0.101438984
241	0x3ddc9a1b	0.10771581
242	0x3e3f873f	0.18703936
243	0xbe5baa2a	-0.21451631
244	0x3e1bd670	0.1521852
245	0xbccf0730	-0.025271982
246	0xbdc12ade	-0.094320044
247	0xbe02cd5f	-0.12773655
248	0x3e3f0db0	0.18657565
249	0xbe1a54d6	-0.15071425
250	0xbdbab1ec	-0.09115967
251	0x3aca5828	0.001543765
252	0x3e5662db	0.20936148
253	0xbe1916dd	-0.14950128
254	0x3e4cee33	0.20012741
255	0x3e329e55	0.17443211

gru.weight_hh_l1 f4 [60, 20]
0	0xbc17cc61	-0.009265036
1	0x3e330404	0.17482
2	0xbd3083b2	-0.043094344
3	0x3e4f2e8b	0.20232598
4	0xbe3d889c	-0.18509144
5	0x3dfacbd1	0.12245906
6	0xbe48f374	-0.1962412
7	0xbe24aa58	-0.16080606
8	0xbd29baae	-0.041437797
9	0x3dc1e9e0	0.09468436
10	0x3e13bf19	0.14428367
11	0x3e0be901	0.13663103
12	0xbcb253fc	-0.021768562
13	0xbc9ee654	-0.019396938
14	0xbc8e2d7e	-0.017355677
15	0xbcbe97b7	-0.023265703
16	0xbe1ff7a0	-0.15621805
17	0x3e1bb2e5	0.15204962
18	0x3dd5bd9a	0.10436554
19	0x3e10b79b	0.1413254
20	0x3c4006f6	0.01172041
21	0xbe386c18	-0.18009984
22	0xbd964758	-0.073378265
23	0xbe42acee	-0.1901128
24	0x3e1a683a	0.15078822
25	0xbd5faae2	-0.054606326
26	0x3dd2e994	0.10298458
27	0xbe0f2451	-0.13978697
28	0xbe162954	-0.14664203
29	0x3dadf8c2	0.084947124
30	0xbd012eae	-0.031538658
31	0x3cedd015	0.029029885
32	0x3d51c16d	0.051209856
33	0xbdc2def4	-0.09515181
34	0xbd1e55ad	-0.038655926
35	0x3e2df4ee	0.16987965
36	0x3dd086ec	0.10181984
37	0x3e35e3b1	0.17762639
38	0xbdd7d54c	-0.1053873
39	0x3d8fbedc	0.070188254
40	0x3de68a84	0.112568885
41	0x3baaceb0	0.0052126274
42	0xbd80e78d	-0.06294165
43	0xbd032e0e	-0.032026343
44	0x3e338721	0.17532016
45	0x3d3c82c7	0.046023156
46	0x3e0f633c	0.14002699
47	0xbcd1fca2	-0.02563316
48	0xbcbccefe	-0.02304792
49	0xbdb59235	-0.088657774
50	0xbdbc017f	-0.09179973
51	0xbdb0b627	-0.08628493
52	0x3d90718c	0.07052907
53	0xbdf25486	-0.11832528
54	0x3e44b3cc	0.19209212
55	0xbdacdc56	-0.08440463
56	0xbde963f4	-0.11396018
57	0x3e0a1e76	0.13488182
58	0xbe1d51ff	-0.1536331
59	0x3cc2d901	0.023785116
60	0xbd9008d8	-0.07032937
61	0xbdbc39d7	-0.091907196
62	0x3e12061c	0.14260143
63	0x3d3e0cf1	0.04639906
64	0xbe06f27c	-0.13178438
65	0x3daee4a2	0.08539702
66	0xbe03df87	-0.12878238
67	0xbdbf2cf5	-0.09334747
68	0x3db5e268	0.08881074
69	0x3e565af0	0.20933127
70	0x3e18be40	0.14916325
71	0xbdb836d8	-0.089948356
72	0x3d821b54	0.06352869
73	0xbe13f3e1	-0.14448501
74	0x3e1ad824	0.15121514
75	0x3e4cccf2	0.20000055
76	0xbd320685	-0.04346325
77	0x3e1ddadb	0.15415518
78	0xbca1620a	-0.019700069
79	0xbda768c1	-0.08174277
80	0x3e1867ce	0.14883348
81	0x3c67d994	0.014150996
82	0xbd7087ea	-0.058723368
83	0xbe1f1ff5	-0.15539534
84	0xbdb121a4	-0.086489946
85	0xbe590fdc	-0.21197456
86	0xbe091ea5	-0.13390596
87	0x3e01ea63	0.12687068
88	0x3daa8f57	0.08328121
89	0xbe2febab	-0.17179744
90	0xbe21e870	-0.15811324
91	0xbdfefb3d	-0.12450264
92	0xbd12709d	-0.035751928
93	0xbd5cd751	-0.05391628
94	0xbd9fd552	-0.078043595
95	0x3d38e8e9	0.045143995
96	0x3d0ff01e	0.035141103
97	0x3d774e78	0.060377568
98	0x3e2a7444	0.16645914
99	0x3e1a12e2	0.15046266
100	0x3d74e2f4	0.059786752
101	0x3d9fbd7b	0.077998124
102	0xbdcfbc57	-0.10143345
103	0x3d518fb4	0.051162437
104	0x3e3aa1cc	0.18225783
105	0xbe39b1cd	-0.18134232
106	0x3cc89a37	0.024487598
107	0x3d76fbe5	0.06029882
108	0x3d70f50a	0.058827437
109	0xbde4da4b	-0.111744486
110	0x3e4a5c61	0.19761802
111	0x3df8fac0	0.12157202
112	0x3da393a1	0.07987142
113	0xbd555044	-0.0520785
114	0xbdc2cad5	-0.095113434
115	0xbe27d4b5	-0.16389735
116	0xbcc53d53	-0.024077093
117	0x3db75fd9	0.08953828
118	0x3c177093	0.009243148
119	0xbd378fc2	-0.044814833
120	0x3e117c06	0.14207467
121	0x3e530ec7	0.20611106
122	0xbe663279	-0.22480191
123	0x3d130e0a	0.03590206
124	0xbe29c264	-0.1657806
125	0xbd9dcc0d	-0.07704935
126	0xbe0dffdb	-0.13867132
127	0xbe01c206	-0.1267167
128	0x3d24c4e6	0.04022684
129	0xbdb2bd06	-0.087274596
130	0xbdf55fd1	-0.11981166
131	0x3cb36ddb	0.02190297
132	0xbe07b6fc	-0.13253397
133	0xbdc65548	-0.09684235
134	0xbe1aad66	-0.15105209
135	0xbdcb741a	-0.09934254
136	0xbd487e0d	-0.048948336
137	0xbe42c778	-0.19021404
138	0xbdb5c329	-0.088751145
139	0xbe1639d9	-0.14670505
140	0x3da6a91b	0.08137723
141	0x3e0111ca	0.12604442
142	0xbe028da6	-0.12749347
143	0x3dd742b7	0.10510772
144	0xbe2f9e22	-0.17150167
145	0x3e02bb9c	0.1276688
146	0x3e315340	0.17316914
147	0xbdcbb9ce	-0.09947549
148	0xbdff4d34	-0.12465897
149	0xbe45c044	-0.19311625
150	0x3dfbc6a9	0.12293751
151	0xbe4d0b7d	-0.20023914
152	0xbc372a9d	-0.011179593
153	0x3e46abc1	0.19401456
154	0x3a6bbcf9	0.00089926977
155	0x3e3d1050	0.18463254
156	0x3d39d318	0.04536733
157	0xbe3aa227	-0.18225919
158	0x3e56493d	0.20926376
159	0x3d041114	0.03224285
160	0x3e07c786	0.13259706
161	0xbdd77635	-0.10520593
162	0xbe28029c	-0.16407245
163	0xbbc322aa	-0.00595506
164	0x3e3ed963	0.18637614
165	0xbc192919	-0.009348177
166	0x3e506f13	0.20354871
167	0x3dd3509b	0.10318109
168	0xbc00fb9c	-0.007872488
169	0x3e09ab12	0.13444164
170	0x3d60ac6e	0.05485194
171	0x3e1c1456	0.15242133
172	0x3dcdcc00	0.100486755
173	0x3d6d6b48	0.05796364
174	0x3dfbeb97	0.123007946
175	0xbc1fc3e6	-0.009751296
176	0x3d3b5d88	0.045743495
177	0xbe403209	-0.18769087
178	0x3d6ea7b4	0.058265403
179	0x3e22c610	0.15895867
180	0x3e39f85b	0.18161146
181	0x3e3015b3	0.17195778
182	0x3def3a33	0.116810225
183	0x3d0f267a	0.034948803
184	0xbc834ba3	-0.016027277
185	0x3e4de310	0.20106149
186	0xbe0bb59c	-0.13643497
187	0x3df1b232	0.11801566
188	0xbdb021e0	-0.08600211
189	0xbc0d922f	-0.00864081
190	0xbb4afc70	-0.0030973218
191	0xbe5dea6f	-0.2167146
192	0xbe2ef167	-0.17084275
193	0x3db72619	0.089428134
194	0xbe150b0d	-0.14554997
195	0x3dcd6765	0.100294866
196	0x3d758611	0.05994231
197	0x3e0dc3bd	0.138442
198	0xbda9f65f	-0.08298945
199	0x3d54072a	0.051764645
200	0xbcb7fb4b	-0.022458693
201	0x3dae030a	0.084966734
202	0x3dc43fb4	0.09582463
203	0xbe38a410	-0.18031335
204	0x3dff102b	0.12454256
205	0x3e0fe58c	0.14052409
206	0x3e4245be	0.18971917
207	0x3dc0dd32	0.0941719
208	0xbe04f2e7	-0.12983285
209	0x3e4c71d9	0.19965304
210	0xbe1c69df	-0.15274762
211	0xbe00e444	-0.12587076
212	0x3e4a03d4	0.19728023
213	0xbe12d6f9	-0.14339818
214	0x3e0fe843	0.14053445
215	0xbe52e47d	-0.20594974
216	0xbdfbb376	-0.12290089
217	0xbd95218e	-0.07281791
218	0xbe28195c	-0.16415924
219	0xbc9d8450	-0.01922813
220	0x3da3ca9e	0.079976305
221	0xbcee78f7	-0.029110415
222	0xbe113c44	-0.14183146
223	0xbd05da60	-0.03267896
224	0x3ae92563	0.0017787631
225	0xbd350fca	-0.04420451
226	0xbddd2294	-0.10797611
227	0x3e39a3cb	0.18128888
228	0xbc160e73	-0.009158718
229	0x3db9e729	0.090772934
230	0x3e4ea259	0.20179118
231	0xbda22681	-0.079175
232	0x3d83ec50	0.064415574
233	0xbb41635e	-0.002950869
234	0x3e08d9e8	0.13364375
235	0xbe5abd05	-0.21361168
236	0xbdf30406	-0.11866002
237	0xbe075704	-0.13216788
238	0x3e28a342	0.16468528
239	0xbd23309b	-0.039841276
240	0x3e0c1607	0.13680278
241	0x3dd343d4	0.103156716
242	0x3e2ae66d	0.16689463
243	0x3ce3ce49	0.027808325
244	0x3d0552c8	0.03254965
245	0x3e55780e	0.20846578
246	0xbe5936b2	-0.21212271
247	0xbdbbc31e	-0.09168075
248	0x3d0b999d	0.034082044
249	0xbe5a5704	-0.21322256
250	0xbe5257e7	-0.20541345
251	0xbd94efb7	-0.072722845
252	0xbd4c8387	-0.04993012
253	0xbe4bd2cd	-0.19904633
254	0x3d05a707	0.032629993
255	0xbe2ce0e2	-0.16882661

gru.bias_ih_l1 f4 [60]
0	0xbe21824e	-0.15772364
1	0xbdad7a33	-0.08470573
2	0xbde11d41	-0.10991908
3	0x3e27d3bb	0.16389363
4	0x3e0aa999	0.13541259
5	0xbd203185	-0.039109726
6	0x3e38f343	0.18061547
7	0x3da62aaf	0.0811361
8	0xbe0186db	-0.126491
9	0xbd557a7c	-0.052118763
10	0x3cbc9f8a	0.023025293
11	0xbdebf655	-0.115215935
12	0x3e26f628	0.16304839
13	0x3e341a89	0.17588247
14	0xbe2edbc8	-0.17076027
15	0xbdab6079	-0.0836801
16	0x3cae0495	0.02124242
17	0xbdacdac2	-0.08440162
18	0xbdf1260d	-0.11774836
19	0x3d6a1aec	0.05715458
20	0xbe05a195	-0.1304992
21	0xbdfdfee1	-0.1240213
22	0xbe131604	-0.14363867
23	0x3ddf0068	0.10888749
24	0x3e5ef7e9	0.21774258
25	0xbe227d21	-0.15868045
26	0x3d92d166	0.07168846
27	0x3e254c81	0.16142465
28	0xbbe1a1c7	-0.0068857404
29	0x3e4a7e6b	0.19774787
30	0xbc7e2f35	-0.015514185
31	0xbdbd4115	-0.09240929
32	0xbe2432b6	-0.1603497
33	0xbe63392a	-0.22189775
34	0xbd3b229a	-0.045687295
35	0x3dd5ee67	0.10445862
36	0x3d13b9d6	0.0360659
37	0xbd807987	-0.062731795
38	0x3e4c4095	0.19946511
39	0x3e6cd992	0.23129871
40	0xbe0f5aa5	-0.13999422
41	0x3d862a2e	0.06551014
42	0xbd21b408	-0.03947833
43	0x3dabcf13	0.08389106
44	0x3c0c6b9f	0.008570581
45	0xbbf185a0	-0.0073706657
46	0xbcd79b98	-0.02631931
47	0xbe07e5a3	-0.13271193
48	0xbb92fe16	-0.004485856
49	0xbd9772e3	-0.0739496
50	0xbcf2eafe	-0.029653069
51	0xbcadc9d1	-0.021214398
52	0xbe04da83	-0.1297398
53	0xbe341685	-0.17586716
54	0xbd83ffae	-0.064452514
55	0xbdbc11c6	-0.091830775
56	0x3dfef25a	0.12448569
57	0xbe04a21e	-0.12952468
58	0x3dc58072	0.096436396
59	0xbe2675de	-0.162559

gru.bias_hh_l1 f4 [60]
0	0xbe5bc373	-0.21461277
1	0x3e0c0e52	0.13677338
2	0x3d6bdeaf	0.057585414
3	0xbe6c4a7d	-0.2307529
4	0xbe692351	-0.22767378
5	0xbe6811d6	-0.22663054
6	0x3e0b0df3	0.1357954
7	0x3db58aa0	0.08864331
8	0x3dfc7fa5	0.12329034
9	0xbda89138	-0.08230823
10	0xbd8944ea	-0.067025974
11	0xbe1a9f37	-0.15099798
12	0xbdc3258d	-0.095286466
13	0x3da9f072	0.082978144
14	0x3e1539ae	0.14572784
15	0x3d94d70d	0.0726758
16	0x3d1bb6a6	0.038015984
17	0xbc8e7276	-0.017388564
18	0xbd2a9fa7	-0.041656163
19	0xbe236636	-0.15956959
20	0xbe0b0a90	-0.13578248
21	0xbe29e8ab	-0.16592662
22	0x3d9d042f	0.076668136
23	0x3d9f8b7b	0.07790276
24	0xbe367917	-0.1781963
25	0xbde96470	-0.1139611
26	0xbdfe0900	-0.1240406
27	0xbd85542b	-0.065101944
28	0xbe70cae2	-0.23514894
29	0x3e187608	0.14888775
30	0xbe56db57	-0.20982109
31	0x3de2b706	0.11070065
32	0x3e55c9a9	0.20877708
33	0x3e0d9bc7	0.13828956
34	0xbd8191aa	-0.06326611
35	0xbe4468ed	-0.19180651
36	0xbe1e54c4	-0.15462023
37	0x3d819222	0.06326701
38	0x3e375342	0.17902854
39	0xbdd72b64	-0.10506323
40	0x3dac61db	0.08417102
41	0xbd9c7c60	-0.0764091
42	0x3e2d5b3e	0.16929337
43	0x3d8e7229	0.06955368
44	0x3dfc01c9	0.12305028
45	0xbc10a42b	-0.008828203
46	0xbd552d1c	-0.052044973
47	0x3e735689	0.2376348
48	0xbde6c412	-0.11267866
49	0x3dde23fb	0.108467065
50	0x3e4f1663	0.20223384
51	0x3df494ea	0.119424656
52	0xbe64d910	-0.22348428
53	0xbdb7d854	-0.08976808
54	0xbe062c3e	-0.13102815
55	0xbd9c8cc0	-0.076440334
56	0xbcda4f6f	-0.026649205
57	0xbd66ad16	-0.05631741
58	0xbe21410c	-0.1574747
59	0x3e38f5b4	0.18062478

gru.weight_ih_l2 f4 [60, 20]
0	0x3c0558fb	0.00813889
1	0xbe55b878	-0.2087115
2	0xbdae2113	-0.08502402
3	0x3e581de2	0.2110515
4	0xbd937465	-0.07199935
5	0xbcba164e	-0.022715714
6	0x3da26f92	0.079314366
7	0xbc8d2e0b	-0.017233869
8	0xbdd9ea4b	-0.10640391
9	0xbd76b4c7	-0.060230996
10	0xbe22a136	-0.1588181
11	0xbc9834ad	-0.018579805
12	0xbca1c127	-0.019745423
13	0xbcde4d73	-0.02713654
14	0xbc56286a	-0.013071159
15	0xbe40b8f8	-0.1882056
16	0x3e05002e	0.1298835
17	0xbe15acea	-0.14616743
18	0x3e06d8eb	0.13168685
19	0xbd069ed6	-0.03286632
20	0x3e450901	0.19241716
21	0x3ced4573	0.02896378
22	0x3ccd6d85	0.025076637
23	0x3dad0385	0.08447937
24	0x3c16e0b8	0.009208851
25	0xbe041623	-0.1289907
26	0x3e2184ed	0.15773363
27	0xbd0aedcb	-0.033918183
28	0x3e38a93f	0.18033312
29	0xbe0a3a9c	-0.1349892
30	0x3e2012e1	0.15632202
31	0xbe486fc4	-0.19573885
32	0x3d0f5754	0.034995392
33	0x3e4c7d68	0.19969714
34	0x3e2e4a06	0.17020425
35	0x3b4ab690	0.003093157
36	0x3ca6b784	0.020351179
37	0xbe4cedb9	-0.20012559
38	0xbdfde982	-0.12398054
39	0x3d8017fe	0.06254576
40	0x3dde8ac4	0.10866311
41	0xbe1ab88f	-0.15109466
42	0xbda871fc	-0.08224866
43	0xbe5b2c33	-0.2140358
44	0x3cf7206a	0.030166823
45	0x3de08a0e	0.10963832
46	0x3d570b60	0.052501082
47	0x3d8f3510	0.06992543
48	0xbc9a2e42	-0.018820886
49	0xbd8af8cd	-0.06785736
50	0xbdd787ac	-0.10523924
51	0xbe3eb5eb	-0.18624084
52	0x3e3c9b74	0.18418676
53	0x3e259e88	0.16173756
54	0xbe19f85e	-0.15036151
55	0x3e3c898b	0.18411843
56	0x3e43ee2a	0.19133821
57	0x3e42a1d4	0.19007045
58	0xbe2bb4c6	-0.16768178
59	0xbddf000f	-0.10888683
60	0xbd4d0dcd	-0.05006199
61	0x3dc3cc77	0.09560483
62	0x3e3bef3c	0.1835298
63	0x3e22b358	0.15888727
64	0xbe2428d5	-0.16031201
65	0xbe28973a	-0.16463938
66	0x3c792f46	0.015209025
67	0x3e496014	0.19665557
68	0xbe2c497b	-0.16824906
69	0xbb6b2a89	-0.0035883507
70	0x3dd68c46	0.10475974
71	0x3e4aac79	0.19792356
72	0xbcfce141	-0.030869128
73	0xbc897fb0	-0.016784519
74	0x3e16c62c	0.14724034
75	0xbe3d3332	-0.1847656
76	0xbda67d24	-0.081293374
77	0xbe1bc660	-0.15212393
78	0x3db57ae5	0.08861331
79	0xbe1b254a	-0.15150943
80	0xbd0cbc5a	-0.034359314
81	0xbd62d65f	-0.05538022
82	0x3de5d0a3	0.11221435
83	0xbe37a46b	-0.17933814
84	0xbe0e6919	-0.13907279
85	0xbe01dc3b	-0.12681668
86	0x3dad00b3	0.08447399
87	0xbd2e513e	-0.042557947
88	0xbd1e64c3	-0.038670313
89	0xbdd6f599	-0.10496063
90	0x3e0d76a1	0.13814785
91	0xbb9d078b	-0.004792159
92	0x3e1ed2ad	0.15510054
93	0xbd8dfad3	-0.069326065
94	0x3e1662c0	0.14686108
95	0x3e434d20	0.1907239
96	0x3e345702	0.17611316
97	0xbe094bf8	-0.13407886
98	0x3bb07f90	0.0053863004
99	0x3d99d9bb	0.07512232
100	0xbc8c790a	-0.01714756
101	0x3c8b33a7	0.016992403
102	0xbcad928b	-0.021188041
103	0xbe2a0beb	-0.16606109
104	0xbe31fe2c	-0.17382115
105	0xbe37233c	-0.17884535
106	0xbccb7cde	-0.024839815
107	0xbdec2b7c	-0.115317315
108	0x3caa0929	0.020756321
109	0xbe037fd7	-0.12841736
110	0x3e282543	0.16420464
111	0x3da98ced	0.082788326
112	0x3dddeb36	0.108358786
113	0x3e514276	0.20435509
114	0xbe1f9962	-0.15585855
115	0xbd2c9fa5	-0.042144436
116	0x3e3b8443	0.18312173
117	0x3e42b8cd	0.19015808
118	0x3b8d6e44	0.004316123
119	0xbe1fa025	-0.15588434
120	0xbd4ad22c	-0.04951684
121	0xbca78aeb	-0.020451983
122	0xbdd23529	-0.10264046
123	0x3e02b90c	0.12765902
124	0xbe6828c3	-0.226718
125	0xbdada9e2	-0.08479668
126	0xbde857db	-0.11344882
127	0x3bc00304	0.0058597345
128	0xbd3d7f93	-0.046264242
129	0xbe422555	-0.18959554
130	0x3e030abd	0.12797065
131	0x3d1178f6	0.035515748
132	0x3d95b12e	0.07309185
133	0x3e1c6187	0.15271579
134	0x3c2c4a8b	0.010515819
135	0xbe0b4bb9	-0.13603105
136	0x3d891539	0.06693501
137	0x3ddfce19	0.10927982
138	0xbd2a3481	-0.041553978
139	0x3d8b5010	0.0680238
140	0x3d359a16	0.0443364
141	0x3df043d5	0.11731688
142	0xbe1db0e3	-0.15399508
143	0x3e13f8f2	0.14450434
144	0xbd4b0e2e	-0.04957407
145	0xbd34e405	-0.04416277
146	0xbe08884a	-0.1333324
147	0xbe323aa1	-0.17405178
148	0xbe174829	-0.1477362
149	0xbd2d01b0	-0.042237937
150	0xbcdf3ff1	-0.02725217
151	0xbd8512f1	-0.064977534
152	0xbe0a3027	-0.13494931
153	0xbdba1bc5	-0.09087328
154	0xbd68420e	-0.05670362
155	0x3e6a2510	0.228657
156	0x3dd3f390	0.1034919
157	0xbe33fd7e	-0.17577168
158	0x3e3afac4	0.18259722
159	0x3c4d5526	0.012532508
160	0xbe16bf54	-0.14721423
161	0xbdc586f0	-0.09644878
162	0xbe1a309d	-0.15057607
163	0x3d86c0f1	0.065797694
164	0xbd24e9ab	-0.040261906
165	0xbe331334	-0.17487794
166	0xbe5bfc3b	-0.21482937
167	0xbc22307b	-0.009899254
168	0x3c8409af	0.016117899
169	0x3c102273	0.008797276
170	0x3ddad483	0.10685065
171	0x3e34481f	0.17605637
172	0x3c8c530b	0.017129442
173	0x3d2e4904	0.042550102
174	0xbcb5853f	-0.022158263
175	0x3d26af73	0.040694665
176	0x3e4dde4d	0.20104332
177	0x3e2673db	0.16255133
178	0xbe1df0ec	-0.15423936
179	0xbe433ce6	-0.190662
180	0xbdaca8a4	-0.08430603
181	0x3d3e3f99	0.04644737
182	0xbe35f9c7	-0.17771064
183	0x3dfaca34	0.122455984
184	0xbd5f162a	-0.054464497
185	0xbde26493	-0.11054339
186	0x3de3281b	0.11091634
187	0xbd7f6e7e	-0.062361233
188	0x3e5b1430	0.2139442
189	0x3d919d49	0.07110078
190	0x3e4e94b5	0.20173915
191	0xbe5c09d4	-0.21488124
192	0xba5ee28c	-0.0008502386
193	0xba88b4ba	-0.0010429837
194	0x3b571e00	0.0032824278
195	0xbdef4a25	-0.11684064
196	0xbdc4f057	-0.09616154
197	0x3e58e170	0.21179748
198	0xbd2e916a	-0.042619146
199	0xbd0eb5cd	-0.034841347
200	0xbe2de662	-0.16982415
201	0x3d816f98	0.06320113
202	0xbe135e96	-0.1439155
203	0x3e1f00ea	0.15527692
204	0x3e0aa180	0.1353817
205	0xbe5249b1	-0.20535924
206	0x3d9cdc25	0.07659177
207	0x3d862f52	0.065519944
208	0x3c9f5afa	0.01945256
209	0xbe37f43a	-0.17964259
210	0x3e13a715	0.14419205
211	0x3e4e0e07	0.20122539
212	0x3d593a58	0.053034157
213	0xbd6d774f	-0.05797511
214	0xbe1b2526	-0.1515089
215	0xbe0927b2	-0.13394049
216	0x3e033ac0	0.1281538
217	0xbe34ff72	-0.1767557
218	0xbc2c70c5	-0.010524933
219	0xbccda632	-0.025103662
220	0x3e01d129	0.12677445
221	0xbd9f1e09	-0.077694006
222	0x3e5dcb39	0.21659555
223	0xbe045925	-0.12924631
224	0x3e0759e5	0.13217886
225	0x3e438bf5	0.19096358
226	0xbdf77a9b	-0.12083932
227	0x3d26dfe5	0.040740866
228	0xbe6a2621	-0.22866108
229	0x3d30b33f	0.043139692
230	0xbdef5a5c	-0.116871566
231	0x3e3550ce	0.17706606
232	0x3d48a31f	0.04898369
233	0x3ce31879	0.02772163
234	0x3d36fee3	0.044676673
235	0xbe49323a	-0.19648066
236	0xbd72d841	-0.059288267
237	0xbd5f3428	-0.0544931
238	0x3cd7dc8e	0.026350286
239	0x3dc4510b	0.0958577
240	0x3d120431	0.03564853
241	0xbda3443c	-0.07971999
242	0xbca81e22	-0.020522181
243	0xbe4d467b	-0.20046417
244	0xbd62d71f	-0.055380937
245	0xbdf0fb5b	-0.11766692
246	0xbdaf9d50	-0.08574927
247	0x3d516c6d	0.051128794
248	0xbd130b5d	-0.03589951
249	0x3d500318	0.0507842
250	0x3e2aa1d9	0.16663302
251	0xbdeb21da	-0.11481066
252	0xbda6e8cb	-0.081498705
253	0x3d8ef87b	0.06980988
254	0xbe44e885	-0.19229324
255	0x3decc1b3	0.11560383

gru.weight_hh_l2 f4 [60, 20]
0	0xbe2e1a55	-0.17002232
1	0x3c73a886	0.014871722
2	0x3d94f894	0.07273975
3	0x3dceeeba	0.10104127
4	0x3e385471	0.18000962
5	0x3dc63b73	0.09679308
6	0x3dcec52b	0.100962006
7	0xbd286285	-0.04110958
8	0xbd09aadf	-0.03361022
9	0x3de91c2c	0.113823265
10	0x3cf57a10	0.02996543
11	0xbe1447f0	-0.14480567
12	0x3e47e6ed	0.19521685
13	0xbd1787fc	-0.03699492
14	0x3c969a9c	0.01838427
15	0x3e366d58	0.17815149
16	0xbda8215c	-0.08209488
17	0xbe273347	-0.16328155
18	0xbe3f38d8	-0.18674028
19	0x3aa2508d	0.0012383625
20	0x3dd9b437	0.106300764
21	0x3e3c51b9	0.1839055
22	0xbdea0bfe	-0.114280686
23	0x3cea58fd	0.028606886
24	0x3cbacbd1	0.022802265
25	0xbe225e70	-0.15856338
26	0x3e07ce1d	0.1326222
27	0x3dea61ca	0.11444433
28	0x3dbe3748	0.09287888
29	0xbe4bc829	-0.19900574
30	0x3e391691	0.18075015
31	0xbe46e758	-0.19424188
32	0xbd03b8ef	-0.03215879
33	0xbe3d0658	-0.18459451
34	0xb9132b5f	-0.0001403517
35	0x3d1feaa5	0.039042134
36	0x3dee5d82	0.11638929
37	0x3d9c812c	0.07641825
38	0x3de355e9	0.111003704
39	0xbdcf68ac	-0.101273865
40	0xbe2fa1ad	-0.17151518
41	0x3e3940d6	0.18091139
42	0xbcb6ff74	-0.022338606
43	0x3c5fa773	0.013650763
44	0xbdad7c9a	-0.084710315
45	0x3e2341d5	0.15943082
46	0x3e28a495	0.16469033
47	0xbe60f3eb	-0.21968047
48	0x3e233f3a	0.15942088
49	0xbd781f56	-0.06057676
50	0x3e032c1a	0.12809792
51	0x3df6cf62	0.12051274
52	0x3cb1af94	0.021690167
53	0xbce8a37c	-0.028398268
54	0xbd311226	-0.0432302
55	0xbe4f1fae	-0.20226929
56	0xbdec6c39	-0.11544079
57	0xbd51792d	-0.051140953
58	0x3d100f60	0.035170913
59	0xbdb53ec7	-0.088498645
60	0xbe11736d	-0.14204188
61	0x3d906818	0.07051104
62	0x3bbabf23	0.005699055
63	0xbdc1f851	-0.09471191
64	0xbdb435cf	-0.08799326
65	0x3c8372c8	0.016045943
66	0xbd7098c3	-0.058739435
67	0x3e21a919	0.15787162
68	0x3daa3bd6	0.08312194
69	0xbe5c64ee	-0.21522877
70	0x3d280dcb	0.04102878
71	0xbe11e6ad	-0.14248152
72	0xbb958e08	-0.0045640506
73	0xbd3c6adf	-0.046000358
74	0xbe51a417	-0.20472752
75	0x3e21dc23	0.15806632
76	0x3e09bf51	0.13451888
77	0xbd83aea2	-0.06429793
78	0xbc711f46	-0.014716929
79	0xbdb258d0	-0.08708346
80	0xbc152f18	-0.009105466
81	0x3d759e2d	0.0599653
82	0x3de1fb12	0.11034216
83	0xbdf324bf	-0.11872243
84	0xbe00b3e5	-0.12568624
85	0x3e00cb74	0.12577611
86	0xbe39f132	-0.18158415
87	0xbe56963e	-0.2095575
88	0x3e33c4e4	0.17555577
89	0x3cf9f9ca	0.030514617
90	0x3e46abad	0.19401427
91	0xbe28bf80	-0.16479301
92	0x3be5a617	0.007008325
93	0x3e00c7f7	0.1257628
94	0xbd9fed42	-0.07808925
95	0x3d89c958	0.067278564
96	0x3e21ad67	0.15788804
97	0xbe323887	-0.17404376
98	0x3c4f7df8	0.012664311
99	0xbe4370e0	-0.19086027
100	0x3e2a0551	0.1660359
101	0xbd1441b3	-0.03619547
102	0xbe595f7e	-0.21227834
103	0x3cd45b97	0.02592258
104	0x3e4156d2	0.18880776
105	0xbdc2741d	-0.09494803
106	0x3d5f108e	0.054459147
107	0xbde25aed	-0.11052499
108	0x3e3124d3	0.17299204
109	0xbd36e78e	-0.04465442
110	0x3dde3305	0.10849575
111	0xbd9e5026	-0.07730131
112	0xbde4b9a8	-0.111682236
113	0xbe5414d6	-0.20711073
114	0xbe49f7d5	-0.19723447
115	0x3e509545	0.20369442
116	0xbe144b63	-0.14481883
117	0xbd746265	-0.05966415
118	0x3df35e26	0.11883192
119	0x3d2dd925	0.042443413
120	0xbde11447	-0.10990196
121	0x3e61ddab	0.22057216
122	0xbd9eb6bf	-0.077497
123	0x3d444a27	0.04792228
124	0x3dd201c6	0.102542445
125	0x3d048abd	0.032358874
126	0x3ddc1d16	0.10747735
127	0xbda523ab	-0.08063444
128	0x3e4355ab	0.19075648
129	0xbdfa06c8	-0.12208325
130	0x3e3d3c5c	0.18480057
131	0xbdbc18da	-0.091844276
132	0x3e040889	0.12893881
133	0xbd87fb70	-0.06639755
134	0x3e27b297	0.1637672
135	0xbd06ce6f	-0.032911714
136	0xbd5371cf	-0.05162221
137	0xbe1db6fd	-0.15401836
138	0x3dca1a23	0.098682664
139	0xbe2bee71	-0.16790177
140	0x3ccca857	0.024982614
141	0xbc57b01e	-0.013164548
142	0xbe3b3e87	-0.18285571
143	0x3e046b35	0.12931521
144	0x3e3b7e11	0.1830981
145	0x3ddee087	0.10882669
146	0x3d223d1b	0.039609056
147	0xbe1e5076	-0.15460381
148	0x3e0cc5de	0.13747355
149	0xb9a35e82	-0.00031160197
150	0xbc39d1ac	-0.011341494
151	0x3e6d8112	0.23193768
152	0xbbf3e200	-0.007442713
153	0x3d5b4b81	0.053538803
154	0xbd7e0cba	-0.062023856
155	0xbd16d79f	-0.036826726
156	0xbd9b62f6	-0.07587235
157	0xbcc2b477	-0.023767693
158	0x3e3ae07e	0.182497
159	0x3e016e30	0.1263969
160	0xbe4151f9	-0.18878926
161	0x3e3f1074	0.1865862
162	0x3bb3dee0	0.0054892153
163	0xbe0f4c93	-0.13994054
164	0xbd3d73b8	-0.046252936
165	0x3ce22755	0.027606646
166	0xbe450839	-0.19241418
167	0xbe58f44e	-0.21186945
168	0x3e43763e	0.19088075
169	0xbd0f0039	-0.03491232
170	0xbda17ee9	-0.07885534
171	0xbdaad840	-0.08342028
172	0x3e2f43d9	0.17115726
173	0x3cccbbfe	0.024991985
174	0x3e66e0a3	0.2254663
175	0x3e4ea9b5	0.20181926
176	0xbe4ebe6d	-0.20189829
177	0xbc3e30de	-0.0116083305
178	0x3db34573	0.08753481
179	0x3afb9711	0.0019194802
180	0x3c0a7bf1	0.0084524015
181	0xbe3c3be0	-0.18382215
182	0xbe4b80da	-0.19873372
183	0x3e4c90ff	0.19977187
184	0xbd8bf9a0	-0.068347216
185	0xbd3993d5	-0.045307
186	0xbe4b33f4	-0.19844037
187	0x3da1f9ce	0.079089746
188	0x3c5c93b8	0.013462953
189	0xbd811853	-0.063034676
190	0xbe12a93c	-0.1432237
191	0xbcf53001	-0.029930117
192	0xbde591fa	-0.112094834
193	0x3dba2e1f	0.09090828
194	0x3db198f4	0.086717516
195	0xbe4523a6	-0.1925188
196	0xbdc360c5	-0.09539942
197	0xbde409f3	-0.1113471
198	0x3e0519ea	0.12998167
199	0x3d3ce767	0.04611912
200	0x3e19381f	0.14962815
201	0x3e1daa08	0.15396893
202	0xbe2d4693	-0.16921453
203	0xbdda986c	-0.106736034
204	0x3dcc80e0	0.099855185
205	0xbdf6d395	-0.12052075
206	0xbcca4942	-0.024693135
207	0x3ca50ea8	0.02014859
208	0x3e11cfa3	0.14239363
209	0x3d46335a	0.048388816
210	0xbda084cc	-0.07837829
211	0xbde0fb24	-0.10985401
212	0x3e2d7b78	0.16941631
213	0xbdf23cdb	-0.118280135
214	0x3e30e438	0.17274559
215	0x3c883ff2	0.016632054
216	0xbe0846da	-0.13308278
217	0x3dba0295	0.09082524
218	0xbdfb74c4	-0.12278131
219	0xbd9292c6	-0.07156901
220	0xbe5166a5	-0.20449312
221	0xbdadab36	-0.084799215
222	0xbccd794a	-0.02508225
223	0x3de62940	0.112383366
224	0xbe41d491	-0.18928744
225	0xbd82748e	-0.06369887
226	0xbdbaebbe	-0.091269955
227	0x3d4f1dc8	0.05056551
228	0x3d34bbb3	0.044124316
229	0xbe3ac80a	-0.18240371
230	0x3d6c149f	0.057636853
231	0xbe3fbbe0	-0.18724012
232	0xbe2c44de	-0.16823146
233	0xbdd57932	-0.10423507
234	0x3d78ed2d	0.060773063
235	0xbc1ae6dc	-0.009454455
236	0xbe232518	-0.15932119
237	0x3e355e39	0.17711724
238	0xbbdc2f7f	-0.006719529
239	0x3e061fc1	0.1309805
240	0x3e0714bd	0.13191505
241	0xbdde13c4	-0.10843614
242	0x3e4c05a5	0.19924028
243	0x3d6a55f3	0.057210874
244	0xbe574af3	-0.21024685
245	0xbd281033	-0.041031074
246	0x3e336566	0.17519149
247	0xbd83c084	-0.06433204
248	0x3e380dbc	0.17973989
249	0x3e496f26	0.19671306
250	0x3de17376	0.110083506
251	0xbd1f1eca	-0.038847722
252	0xbe19a4de	-0.15004298
253	0x3b85b15d	0.0040799812
254	0x3cce9382	0.025216822
255	0x3ccf0876	0.02527259

gru.bias_ih_l2 f4 [60]
0	0xbe23ec26	-0.16008052
1	0xbd301fd5	-0.042999107
2	0xbe0103a0	-0.12599039
3	0xbe565891	-0.20932223
4	0xbe500d28	-0.20317519
5	0xbd9d25e0	-0.0767324
6	0x3db0bd64	0.086298734
7	0x3d6f1ff8	0.058380097
8	0x3e2f587f	0.17123602
9	0xbdcb5bbe	-0.09929608
10	0xbe4d2e98	-0.20037305
11	0xbded66d4	-0.115918785
12	0xbbce54f9	-0.0062967506
13	0xbde81d54	-0.11333719
14	0x3d0462e9	0.03232089
15	0x3d2babe8	0.04191199
16	0x3d706c01	0.05869675
17	0xbbb10e61	-0.0054033254
18	0x3da96896	0.08271901
19	0x3e4e7795	0.20162804
20	0x3d41e33a	0.04733584
21	0x3e2daa6f	0.16959547
22	0x3e190eb1	0.1494701
23	0xbd878e59	-0.066189475
24	0xbe072fb4	-0.13201791
25	0x3e47e4a8	0.19520819
26	0x3e494e05	0.19658668
27	0x3e2f6a2f	0.1713035
28	0xbde5668b	-0.11201199
29	0xbd06338a	-0.032763995
30	0xbc747b98	-0.014922045
31	0x3e41ffb9	0.18945207
32	0xbe02e116	-0.12781176
33	0xbde89565	-0.1135662
34	0x3d8294db	0.06376048
35	0x3ddeb040	0.10873461
36	0xbd155f34	-0.036467746
37	0xbc97bb95	-0.018522063
38	0xbd40462b	-0.046941917
39	0x3e26ba45	0.16281994
40	0xbe427a84	-0.18992049
41	0x3c5e3407	0.013562209
42	0xbd988735	-0.07447664
43	0xbcaf17ac	-0.021373592
44	0xbe383186	-0.17987642
45	0xbe3bf4ee	-0.18355152
46	0x3e3a6b48	0.18204987
47	0xbdfcafbb	-0.123382054
48	0xbe343a79	-0.1760043
49	0x3e2bcacd	0.16776581
50	0xbe1103a1	-0.1416154
51	0xbe47914c	-0.1948902
52	0x3da6869b	0.08131143
53	0xbd7bdda7	-0.06149068
54	0x3d9c8bbd	0.076438405
55	0xbe017175	-0.12640937
56	0x3db19363	0.0867069
57	0xbd185a8d	-0.03719573
58	0x3d52009d	0.051270116
59	0xbe86f99e	-0.26362318

gru.bias_hh_l2 f4 [60]
0	0x3bc99dbb	0.006152836
1	0xbc3c4133	-0.011490154
2	0xbe0374dc	-0.12837547
3	0x3dc22015	0.094787754
4	0xbe2211e1	-0.15827133
5	0xbdac6cc2	-0.084191814
6	0xbe5b9bf4	-0.2144621
7	0x3e1c0496	0.15236124
8	0x3dbff31c	0.09372541
9	0xbd3f07d2	-0.046638317
10	0x3e2b1dd5	0.16710599
11	0x3df3d3d1	0.11905635
12	0x3d8a13cd	0.06742058
13	0x3da039c9	0.07823522
14	0x3e3b4a26	0.18290004
15	0xbdaad006	-0.083404586
16	0xbd117041	-0.035507444
17	0x3d02859f	0.031865712
18	0xbe09d0fa	-0.13458624
19	0xbc8a578f	-0.016887454
20	0xbdf90e37	-0.121609144
21	0xbc99ddc2	-0.0187825
22	0xbd706b84	-0.058696285
23	0xbe24e0fe	-0.16101453
24	0x3e104d77	0.1409205
25	0x3d06fee0	0.03295791
26	0x3c683f2a	0.014175216
27	0x3e6da33c	0.232068
28	0xbe10eb1a	-0.14152184
29	0xbc982749	-0.01857342
30	0xbdef3563	-0.116801046
31	0x3dd5c075	0.10437099
32	0xbe2e4765	-0.17019422
33	0x3e6d876e	0.23196194
34	0x3e31a5f0	0.17348456
35	0x3d532da1	0.051557187
36	0xbd3718f4	-0.04470153
37	0x3e268057	0.16259895
38	0xbdb095d4	-0.086223274
39	0x3e20cc19	0.15702857
40	0x3e3d0885	0.18460281
41	0xbe556a77	-0.20841394
42	0x3ce59f85	0.028030166
43	0xbdd9689d	-0.106156565
44	0xbd668ee4	-0.056288615
45	0xbe31a614	-0.1734851
46	0xbe32f19d	-0.1747498
47	0xbde68b71	-0.11257065
48	0xbcc1d470	-0.023660868
49	0xbde88ba0	-0.11354756
50	0x3d9c0225	0.076175965
51	0xbe69b505	-0.2282296
52	0x3ddf5a18	0.10905856
53	0x3e29eb3e	0.16593644
54	0x3e216f36	0.1576508
55	0x3e106e43	0.14104562
56	0xbd6d7f96	-0.057983004
57	0xba174802	-0.0005770923
58	0xbdfd963d	-0.12382171
59	0xbe23b450	-0.15986753
