theta_kappa_sigma/pi.pth (torch, 134474 bytes, 61 tensors)

gru.weight_ih_l0 f4 [60, 1]
0	0xbd1daafb	-0.038493138
1	0xbdf1fdf3	-0.11816015
2	0xbdfaa08e	-0.122376546
3	0xbe0e4284	-0.13892561
4	0x3db52eb6	0.088468
5	0x3e004c4a	0.12529102
6	0x3e08e567	0.1336876
7	0xbe3d321d	-0.18476148
8	0x3ca74b44	0.020421632
9	0xbe195285	-0.14972885
10	0xbd928816	-0.071548626
11	0xbe4bfe9d	-0.19921346
12	0xbde160fe	-0.11004828
13	0x3e1e6fac	0.15472287
14	0x3e253d3a	0.16136637
15	0xbe16da98	-0.14731824
16	0xbdf09835	-0.11747781
17	0xbe4f9c39	-0.20274438
18	0x3e0e5dbf	0.13902949
19	0xbd51c233	-0.051210593
20	0xbd2a12ae	-0.04152172
21	0xbe479263	-0.19489436
22	0xbe41242f	-0.18861459
23	0xbd6c18d3	-0.05764086
24	0x3ca63b90	0.020292073
25	0x3c512d66	0.0127671715
26	0x3dac4ba4	0.08412865
27	0x3dc93fce	0.09826623
28	0xbcbc11bb	-0.022957673
29	0x3d8058c0	0.06266928
30	0x3e00ef25	0.12591226
31	0x3e00e9e2	0.12589219
32	0xbe25c9df	-0.16190289
33	0x3d7f01bd	0.062257517
34	0x3e3a1dd2	0.18175438
35	0x3e21a87b	0.15786926
36	0x3d84b109	0.06479079
37	0x3e13264e	0.14370081
38	0x3e051925	0.12997873
39	0xbd56baca	-0.05242423
40	0x3da74738	0.08167881
41	0x3e336b5a	0.1752142
42	0xbd6890c2	-0.056778677
43	0x3df637fe	0.120223984
44	0x3e3c041f	0.18360947
45	0xbe13d93e	-0.1443834
46	0x3db842c0	0.089971066
47	0xbe226a05	-0.15860756
48	0x3e4813d9	0.19538821
49	0x3da6822a	0.081302956
50	0x3e15f529	0.14644302
51	0x3dc21bbb	0.094779454
52	0x3def719a	0.1169159
53	0xbd969ac0	-0.07353735
54	0xbe217d7b	-0.15770523
55	0x3e482546	0.19545469
56	0x3e3a5c3c	0.18199247
57	0xbc673347	-0.014111347
58	0xbd950284	-0.072758704
59	0x3e24d198	0.16095579

gru.weight_hh_l0 f4 [60, 20]
0	0xbd56e491	-0.05246407
1	0xbe394c40	-0.18095493
2	0x3d508249	0.0509055
3	0xbe2154e5	-0.15755041
4	0x3d2778c7	0.040886667
5	0xbcc2af96	-0.023765367
6	0x3e21e70a	0.1581079
7	0xbe260977	-0.16214548
8	0x3e1acf5c	0.15118164
9	0xbd3ad022	-0.045608647
10	0xbd8b7c19	-0.06810779
11	0xbe10308a	-0.14081016
12	0xbd3da973	-0.046304177
13	0x3d58314e	0.052781396
14	0xbe04ae18	-0.12957036
15	0x3e364ff4	0.17803937
16	0xbe081b9c	-0.13291782
17	0x3e03849c	0.12843555
18	0x3e0d4730	0.13796687
19	0x3c931de0	0.017958581
20	0xbe2f4d5d	-0.17119355
21	0x3e1902f8	0.14942539
22	0x3e06be99	0.13158645
23	0x3e52a0c0	0.20569134
24	0x3de5af0b	0.112150274
25	0xbe3f0993	-0.18655996
26	0xbd1c6924	-0.038186207
27	0x39f58fd1	0.00046837193
28	0x3deb2f45	0.11483625
29	0x3cf8fec6	0.030394923
30	0xbe298045	-0.16552837
31	0x3c95a47a	0.018266905
32	0x3e2f945d	0.1714644
33	0xbe41a480	-0.18910408
34	0xbdbe1f25	-0.09283284
35	0x3e390c43	0.18071084
36	0xbd379d4e	-0.04482775
37	0x3e44db50	0.19224286
38	0xbe4bb293	-0.1989234
39	0x3e192f0f	0.14959358
40	0xbd6dcf47	-0.058059003
41	0x3e30ffe0	0.17285109
42	0x3e36d323	0.1785398
43	0x3d35ed18	0.044415563
44	0x3d14ef88	0.036361247
45	0xbc5b5383	-0.01338661
46	0x3d035c50	0.032070458
47	0x3d3e74ff	0.046498295
48	0x3dad9795	0.084761776
49	0x3d8a8237	0.06763118
50	0x3cfb9092	0.030708585
51	0x3ccc0109	0.024902837
52	0x3d208740	0.039191484
53	0x3da3b505	0.07993511
54	0x3d8c4958	0.06849927
55	0xbe3b9dea	-0.18321958
56	0xbd32393c	-0.043511614
57	0xbdb5f032	-0.08883704
58	0x3dc38a52	0.09547867
59	0x3d5b7a7a	0.0535836
60	0xbcbce7b1	-0.023059698
61	0xbe12bec1	-0.1433058
62	0x3dc29397	0.09500807
63	0x3dc932c2	0.098241344
64	0x3d6400e3	0.05566491
65	0xbd81c21c	-0.063358516
66	0x3d2dbe4b	0.042417806
67	0x3e537b88	0.20652592
68	0x3d75d74b	0.060019772
69	0x3c7b45f7	0.015336505
70	0x3cb38a58	0.021916553
71	0x3d4703ae	0.048587494
72	0x3e380ffa	0.17974845
73	0x3d02aac6	0.031901143
74	0xbe1704b9	-0.14747895
75	0xbd68990e	-0.05678659
76	0x3dba6a2f	0.09102284
77	0xbdf584ef	-0.11988246
78	0x3d9a2a83	0.0752764
79	0x3df3f0e1	0.119111784
80	0xbddff47b	-0.10935303
81	0x3d640eec	0.055678293
82	0xbdee98f9	-0.11650271
83	0x3de4358d	0.111430265
84	0x3e323f36	0.17406926
85	0xbe1bd731	-0.15218808
86	0x3e5812f8	0.21100986
87	0x3d1a6acb	0.037699502
88	0xbe4b8a72	-0.19877031
89	0xbe2d85eb	-0.16945617
90	0xbdf6715b	-0.120333396
91	0x3d28a2b4	0.04117079
92	0x3cd36fec	0.025810204
93	0x3e267700	0.16256332
94	0xbe4026cc	-0.187648
95	0x3d5b1a10	0.053491652
96	0xbd04c007	-0.032409694
97	0xbe19bf00	-0.15014267
98	0xbcd23d68	-0.025664046
99	0x3d47810b	0.04870705
100	0x3d77e7e0	0.060523868
101	0x3df84a22	0.12123515
102	0x3e292a3b	0.16520016
103	0xbd728fb0	-0.059219062
104	0xbe40f6dd	-0.18844171
105	0xbe329515	-0.17439683
106	0xbd0db96e	-0.034600668
107	0xbe20b6f8	-0.15694797
108	0xbdf48ff4	-0.119415194
109	0x3d916e00	0.07101059
110	0x3d85026f	0.06494605
111	0x3dfe759d	0.12424777
112	0x3dd554cb	0.104165636
113	0x3ce88521	0.028383793
114	0xbe572b0e	-0.21012518
115	0x3ddaafba	0.106780484
116	0x3dae3fac	0.08508238
117	0xbe0ce4a1	-0.1375909
118	0xbd1c39a5	-0.03814091
119	0xbdfc57d5	-0.1232144
120	0xbcf28695	-0.02960519
121	0x3c407619	0.011746907
122	0xbda2603f	-0.07928514
123	0x3e294c49	0.16533007
124	0xbdab46f7	-0.08363145
125	0xbdc102e0	-0.094243765
126	0xbd4da191	-0.05020291
127	0xbe515a17	-0.20444523
128	0x3d8cfd02	0.06884195
129	0xbd973771	-0.073836215
130	0x3d8565ff	0.06513595
131	0x3e3f05d4	0.18654567
132	0xbded6302	-0.1159115
133	0x3e2a1d6a	0.16612783
134	0x3d527cd5	0.05138858
135	0xbe29c84b	-0.16580312
136	0x3e14849b	0.1450371
137	0xbcd8db85	-0.026471863
138	0xbd6c704a	-0.057724275
139	0x3d6a3477	0.05717894
140	0x3cd521a1	0.026017012
141	0xbe0a6d01	-0.13518144
142	0x3df945cf	0.12171518
143	0xbd36387f	-0.044487473
144	0xbdddea19	-0.10835666
145	0xbdbd25a5	-0.09235696
146	0x3e598971	0.21243836
147	0xbdeb0231	-0.11475027
148	0xbda71366	-0.08157997
149	0x3d7a08bb	0.061043482
150	0xbcd924f8	-0.026506886
151	0xbe578e0d	-0.21050282
152	0x3d8c3dbd	0.06847713
153	0xbddd9c22	-0.108207956
154	0xbd08ecc7	-0.033428933
155	0xbb72a812	-0.0037026447
156	0xbe0c4524	-0.1369825
157	0xbe29423a	-0.1652917
158	0x3e2aa31e	0.16663787
159	0x3dd4cb96	0.103903934
160	0xbd8a951c	-0.067667216
161	0x3e1b884c	0.15188712
162	0x3cf77653	0.030207789
163	0x3e08f487	0.1337453
164	0x3da4f11a	0.08053799
165	0xbc1223d2	-0.008919673
166	0xbe57e14f	-0.21082042
167	0xbd5eebea	-0.054424204
168	0x3e27d60c	0.16390246
169	0x3df50409	0.1196366
170	0x3e48affa	0.1959838
171	0xbe182624	-0.148583
172	0x3d237828	0.03990951
173	0x3e4d289f	0.20035027
174	0x3d5e2535	0.054234702
175	0x3d9b2072	0.07574548
176	0xbd8a10d8	-0.06741494
177	0x3e4fec36	0.20304951
178	0xbd2af2c2	-0.04173542
179	0x3d1984bb	0.037480097
180	0xbdde2220	-0.108463526
181	0x3e314e25	0.17314966
182	0x3d1795b0	0.037007987
183	0xbe42e00b	-0.19030778
184	0xbcf2fdf2	-0.029662106
185	0xbe2caddf	-0.16863202
186	0xbe01ef47	-0.12688933
187	0x3df2cdc5	0.11855654
188	0xbe14a704	-0.14516836
189	0xbb8a0b04	-0.004212739
190	0x3d32f504	0.043690696
191	0x3e4d5b0d	0.20054264
192	0xbc02ce24	-0.007983718
193	0xbe2bf3f5	-0.16792281
194	0xbd8ae98f	-0.06782829
195	0xbe496f7c	-0.19671434
196	0xbd1ca36b	-0.038241785
197	0xbd6a2ed9	-0.057173584
198	0xbd0532ed	-0.03251927
199	0xbe258056	-0.16162238
200	0xbce7d08a	-0.028297681
201	0xbe373fbd	-0.17895408
202	0x3e2c03e4	0.16798359
203	0x3e2c8b1d	0.16849943
204	0x3e4fe66e	0.20302746
205	0xbc3b8ca7	-0.011447108
206	0x3d3c5418	0.045978636
207	0xbdc5908d	-0.096467115
208	0xbdd2a741	-0.102858074
209	0x3e34137d	0.17585559
210	0x3e01e656	0.12685522
211	0xbe0c4c91	-0.13701083
212	0xbd20db97	-0.039271917
213	0xbe10c824	-0.14138848
214	0xbe144e4b	-0.14482991
215	0x3d6f0dcc	0.058362767
216	0xbcc7b93e	-0.024380323
217	0x3de46ef5	0.11153976
218	0x3e488772	0.19582918
219	0x3caf4d52	0.021399174
220	0x3dd3a0d2	0.103334084
221	0x3e53f3c9	0.20698465
222	0xbd126e46	-0.035749696
223	0xbe3e1796	-0.18563685
224	0x3e2df4db	0.16987936
225	0x3d512b71	0.05106682
226	0x3dfb77ac	0.12278685
227	0xbe1f6539	-0.15565957
228	0xbd6c9d8e	-0.057767443
229	0x3e4493d9	0.19197024
230	0x3d90f8c9	0.07078702
231	0xbe211e0f	-0.15734123
232	0x3e16fcbb	0.14744847
233	0xbe47339b	-0.1945328
234	0xbe44fd3e	-0.19237229
235	0xbe000021	-0.12500049
236	0xbbb44fa2	-0.005502657
237	0x3d79f202	0.061021812
238	0xbe55e76a	-0.20889059
239	0x3e41d993	0.18930654
240	0xbe1c0943	-0.15237908
241	0x3c5c3758	0.013440929
242	0xbd3f5010	-0.046707213
243	0x3df28ba3	0.1184304
244	0xbcd9aeb9	-0.026572572
245	0x3d6c5d83	0.057706367
246	0x3cbaea11	0.02281669
247	0xbdcc7684	-0.099835426
248	0x3d368137	0.044556823
249	0x3e2b7ba1	0.1674638
250	0x3c5288fe	0.012850044
251	0xbd7251f6	-0.059160195
252	0xbe0daef3	-0.13836269
253	0xbce7ec45	-0.028310904
254	0x3e27ad1f	0.16374634
255	0x3dcbdcb5	0.09954206

gru.bias_ih_l0 f4 [60]
0	0x3e508c53	0.2036603
1	0x3d0122a5	0.03152718
2	0xbca7e16c	-0.020493232
3	0x3dde7cda	0.10863657
4	0x3dbdbea5	0.09264878
5	0x3daf2e17	0.08553713
6	0x3e0b32b8	0.13593566
7	0xbe07213e	-0.13196275
8	0xbd2fcf87	-0.042922523
9	0xbda367fe	-0.07978819
10	0xbe4138c8	-0.18869317
11	0x3ddd2c2f	0.10799443
12	0xbe456d92	-0.19280079
13	0x3e21e051	0.15808226
14	0xbdb9fd1d	-0.09081481
15	0x3dbb6f5f	0.09152102
16	0x3e555df9	0.20836629
17	0xbd741875	-0.059593637
18	0xbc867508	-0.016413227
19	0x3d7f695e	0.062356345
20	0xbd83e24c	-0.06439647
21	0xbe1d1032	-0.1533821
22	0x3e51008c	0.20410365
23	0xbe164ba7	-0.14677297
24	0xbe313ca1	-0.17308284
25	0x3cc4bbb8	0.024015293
26	0x3e4a3740	0.19747639
27	0xbdbdd08d	-0.092682935
28	0x3d99e203	0.075138114
29	0xbcc44340	-0.023957849
30	0x3e314618	0.17311895
31	0x3d42f7fb	0.047599774
32	0x3df83f8f	0.12121498
33	0x3cdb83b3	0.026796198
34	0x3d079054	0.033096626
35	0xbdaad8b5	-0.08342115
36	0xbe411d98	-0.18858945
37	0xbe530682	-0.20607951
38	0x3e48af15	0.19598038
39	0xbda7b864	-0.081894666
40	0xbe5135cc	-0.20430678
41	0xbd9ea8c0	-0.0774703
42	0xbdf8df74	-0.12151995
43	0xbe12fb09	-0.14353575
44	0x3d5bf5d7	0.053701248
45	0x3dce6286	0.100773856
46	0xbe1ad87f	-0.15121649
47	0xbd2ce289	-0.04220823
48	0x3dc2a5f2	0.09504308
49	0xbde1d3c8	-0.11026722
50	0xbdf48e0c	-0.11941156
51	0xbdedfef2	-0.116208926
52	0xbe0099f2	-0.12558725
53	0xbdda5fd7	-0.10662811
54	0x3a8d8681	0.0010797532
55	0x3d287487	0.041126754
56	0xbc41537d	-0.01179969
57	0xbcc3c348	-0.023896828
58	0x3dca3d24	0.09874943
59	0x3c074486	0.008256083

gru.bias_hh_l0 f4 [60]
0	0x3c821f06	0.015883934
1	0x3a2057bc	0.0006116589
2	0xbdf1674a	-0.11787279
3	0x3dcc0f5c	0.09963867
4	0xbe4185e3	-0.1889873
5	0xbd431e46	-0.047636293
6	0x3d9e590f	0.0773183
7	0x3e199970	0.14999938
8	0xbe34909e	-0.17633292
9	0x3d4e89ae	0.05042427
10	0x3e2ec6f5	0.17068084
11	0x3e1c8c89	0.15287985
12	0x3c46f0f3	0.012142408
13	0x3de61b3f	0.112356655
14	0xbdbbcfe5	-0.09170512
15	0xbe523b00	-0.20530319
16	0x3de6cc9f	0.11269497
17	0xbd8f015c	-0.06982681
18	0x3e0403ad	0.12892027
19	0xbd055727	-0.032553818
20	0xbdf76adf	-0.12080931
21	0x3e51bd8b	0.20482461
22	0x3e1858dc	0.14877647
23	0xbe0e10e0	-0.13873625
24	0x3dc8d9b1	0.09807146
25	0x3e4f3e2b	0.20238559
26	0xbe5384df	-0.20656155
27	0xbd52b9d1	-0.05144674
28	0x3dd764cf	0.105172746
29	0x3de9d769	0.11418039
30	0x3e2581ed	0.16162844
31	0x3e4d3c6e	0.20042583
32	0xbd4ed791	-0.05049855
33	0xbd32d6aa	-0.04366175
34	0x3deddb9a	0.11614151
35	0x3e0c2233	0.13684921
36	0x3d27af8b	0.040938895
37	0xbe41907a	-0.1890277
38	0xbe32c5b7	-0.17458235
39	0xbe4b8d63	-0.19878154
40	0x3c512249	0.012764522
41	0xbdc09179	-0.09402747
42	0x3e1decd6	0.15422377
43	0xbdfb73df	-0.1227796
44	0xbe528902	-0.20560077
45	0x3d22f26c	0.039781973
46	0x3dd50348	0.104010165
47	0x3d6ccead	0.05781429
48	0xbe5695ad	-0.20955534
49	0x3dd31565	0.10306815
50	0xbdbb3916	-0.09141748
51	0xbc17c051	-0.00926216
52	0x3e40b22f	0.18817972
53	0xbe144b22	-0.14481786
54	0xbcf2a021	-0.029617371
55	0xbe2965a7	-0.16542684
56	0x3e19023e	0.14942262
57	0x3e4edbc3	0.2020102
58	0x3d6b0251	0.057375256
59	0x3e2c8505	0.16847618

gru.weight_ih_l1 f4 [60, 20]
0	0xbdcc94fa	-0.099893525
1	0x3c956c0b	0.018239995
2	0x3d964e66	0.07339172
3	0x3c48b09d	0.012249139
4	0x3d0b127c	0.033953175
5	0xbd0ef2b9	-0.034899447
6	0x3d167a01	0.036737446
7	0x3e092c63	0.13395838
8	0x3e1b7297	0.15180431
9	0x3dae6a1e	0.08516334
10	0x3d803ba8	0.062613785
11	0xbd44132b	-0.047869842
12	0x3db55a4d	0.08855114
13	0xbd91833f	-0.07105111
14	0x3e000c50	0.12504697
15	0xbe1b1036	-0.15142903
16	0x3b3ea92b	0.0029092531
17	0x3dbfc770	0.093642116
18	0xbcce0673	-0.02514956
19	0xbd6299e6	-0.05532255
20	0xbe1a7d9a	-0.15086976
21	0xbd0f2078	-0.034943074
22	0xbe3484fc	-0.17628855
23	0xbdfa2788	-0.12214571
24	0xbd8e5d7a	-0.06951423
25	0xbd2fc2a5	-0.042910237
26	0x394fbb3c	0.00019810809
27	0xbe092801	-0.13394167
28	0x3d8fa00e	0.0701295
29	0x3e32a4f3	0.17445736
30	0x3cf2f2a3	0.029656714
31	0x3d0982b6	0.03357192
32	0xbdb3d3b6	-0.08780615
33	0x3d3d20e1	0.046173934
34	0xbd4e6ec4	-0.050398603
35	0xbdbea750	-0.09309256
36	0x3da8516b	0.08218654
37	0xbe3b155a	-0.18269864
38	0x3e442b47	0.19157134
39	0x3cfd937e	0.030954119
40	0x3dd81836	0.10551493
41	0x3c00ccfd	0.007861373
42	0x3dbcb46d	0.09214101
43	0xbb5dc6a6	-0.0033840328
44	0xbb9d0623	-0.0047919913
45	0x3c2b19ba	0.010443145
46	0xbe1861d1	-0.14881064
47	0xbdd7ef8a	-0.10543735
48	0xbe393d6b	-0.18089835
49	0x3e44d1d2	0.19220665
50	0xbe582ca6	-0.21110782
51	0x3e1fccd6	0.15605482
52	0xbe567c9e	-0.20945975
53	0x3e2a95f4	0.16658765
54	0x3d4fd4de	0.050740115
55	0xbe3f48b5	-0.1868008
56	0xbe545887	-0.20736896
57	0xbe1801b0	-0.14844394
58	0x3ddeade0	0.10873008
59	0x3d470134	0.04858513
60	0xbdb98e8c	-0.09060392
61	0x3e2129f9	0.15738668
62	0xbcecdc9a	-0.028913785
63	0xbdc97edc	-0.0983865
64	0x3dd7c65e	0.105358824
65	0xbd786172	-0.060639806
66	0xbe1974b8	-0.14985931
67	0xbd6078ab	-0.054802578
68	0x3dc36593	0.09540858
69	0x3d96ec34	0.07369271
70	0xbe3b3e67	-0.18285523
71	0xbe002f7c	-0.12518114
72	0xbd919d31	-0.0711006
73	0x3d28ead0	0.04123956
74	0xbd1504dc	-0.036381587
75	0x3dbe0f45	0.09280256
76	0x3e05e0e8	0.13074076
77	0x3e34c2b6	0.17652401
78	0x3e0ba785	0.13638122
79	0xbe3ac815	-0.18240388
80	0x3e46fe0a	0.19432846
81	0x3e156e59	0.14592876
82	0xbe2a4307	-0.16627131
83	0x3e5543a0	0.20826578
84	0xbd7080c3	-0.058716547
85	0xbe138523	-0.14406256
86	0xbcdf0da7	-0.02722819
87	0x3e0b84cf	0.13624881
88	0x3e4a3383	0.19746213
89	0x3d007096	0.03135737
90	0x3df385f4	0.11890784
91	0xbd9260de	-0.07147382
92	0xbdec91a1	-0.11551214
93	0xbe400802	-0.18753055
94	0x3e19b7a0	0.15011454
95	0x3e2d3179	0.16913404
96	0xbd789d4e	-0.060696892
97	0xbcb0713e	-0.021538373
98	0x3e187d1f	0.1489148
99	0x3c15f150	0.009151772
100	0xbd8f70c9	-0.07003934
101	0x3d7179a9	0.058953915
102	0x3d93007e	0.07177828
103	0xbe5556e5	-0.20833929
104	0xbc774a3e	-0.015093384
105	0x3dd5bb75	0.10436145
106	0x3e1b6481	0.15175058
107	0xbd23c7a6	-0.03998532
108	0x3daa1b21	0.08305956
109	0x3d9edff0	0.077575564
110	0x3e3509aa	0.17679468
111	0xbe1557b5	-0.14584239
112	0xbda68329	-0.081304856
113	0xbe4bc645	-0.19899853
114	0xbd10b2e0	-0.03532684
115	0x3d69172f	0.056906875
116	0xbe46ff96	-0.19433436
117	0xbc85a788	-0.016315237
118	0x3dfae77d	0.12251184
119	0x3d87d64e	0.06632672
120	0x3dfe05f8	0.12403482
121	0x3d8a5299	0.067540355
122	0xbd15c727	-0.03656688
123	0x3c28d708	0.010305174
124	0xbd174f49	-0.036940847
125	0xbe19e337	-0.15028082
126	0x3e34f0d6	0.17669997
127	0xbda04aa2	-0.07826735
128	0x3dfa30a6	0.1221631
129	0xbe1fca4c	-0.15604514
130	0xbe17588b	-0.1477987
131	0x3e26a618	0.16274297
132	0xbd6a42a6	-0.057192467
133	0x3d11db99	0.035609815
134	0xbe428b19	-0.18998374
135	0xbdee4d87	-0.11635881
136	0x3e10324a	0.14081684
137	0x3bfa43cc	0.0076374765
138	0x3e1f11f1	0.15534188
139	0x3e22a545	0.15883358
140	0x3db708b8	0.0893721
141	0xbe20f467	-0.15718232
142	0xbe153053	-0.14569215
143	0x3e4cc594	0.19997245
144	0x3d35bdaf	0.04437035
145	0xbe37106a	-0.17877355
146	0x3e14b84f	0.14523433
147	0xbe24f742	-0.16109946
148	0xbe0aa2e9	-0.13538708
149	0x3dc0497b	0.09389015
150	0x3e1b7da9	0.15184654
151	0x3e45cb99	0.19315948
152	0x3e4fff76	0.20312294
153	0xbdbd90ca	-0.09256132
154	0x3de85b5e	0.11345552
155	0x3e1d1d85	0.15343292
156	0xbd04cb74	-0.03242059
157	0xbda2b8cd	-0.07945404
158	0xbdce848e	-0.100838766
159	0x3e2d7083	0.16937451
160	0x3d8bbf62	0.06823613
161	0x3ddc97b2	0.10771121
162	0xbd8b7a93	-0.068104886
163	0x3da96b1b	0.08272382
164	0x3e43349f	0.19063042
165	0x3c02e207	0.007988459
166	0xbe57c0b8	-0.2106961
167	0xbe31e7da	-0.173736
168	0x3ced8017	0.028991742
169	0xbd924bfe	-0.071434006
170	0xbd8c58e1	-0.0685289
171	0xbcbfb67d	-0.023402447
172	0x3ce4734e	0.027887013
173	0x3e09fc6c	0.13475198
174	0x3e21c724	0.15798622
175	0xbdf5bd5f	-0.1199901
176	0xbe570b8f	-0.21000503
177	0xbe4eff3a	-0.20214549
178	0xbe0f47d5	-0.13992245
179	0xbe47e3db	-0.19520514
180	0xbd06ea39	-0.032938216
181	0xbd9d1eed	-0.07671914
182	0x3b6cf7ed	0.0036158517
183	0x3da3a471	0.07990349
184	0x3d7038e0	0.05864799
185	0x3d17ae13	0.037031244
186	0x3ded7412	0.11594404
187	0x3e057aae	0.1303508
188	0x3dec47e2	0.11537148
189	0xbe2bc5b8	-0.16774642
190	0x3dc4defe	0.09612845
191	0x3e2260dd	0.15857263
192	0x3e4191a9	0.18903221
193	0xbe458d47	-0.19292174
194	0x3df12a7b	0.11775681
195	0x3e01fe75	0.12694724
196	0x3c950f08	0.018195644
197	0x3d98e0a0	0.07464719
198	0x3d711aa5	0.0588633
199	0x3e21107b	0.15728943
200	0xbe153b09	-0.14573301
201	0x3dc0032d	0.09375606
202	0x3d70cfbe	0.05879187
203	0xbe1c5e81	-0.15270425
204	0x3e32a95a	0.17447415
205	0x3e36ccae	0.17851517
206	0xbdf331c1	-0.11874724
207	0x3e53cfa5	0.20684679
208	0x3e3db383	0.1852551
209	0xbe2eedcf	-0.17082904
210	0x3cb85965	0.022503564
211	0x3d207d4d	0.039181996
212	0x3e2265fd	0.15859218
213	0x3dbc02b0	0.091802
214	0xbdbd62b4	-0.09247342
215	0xbd85dc42	-0.065361515
216	0x3e2509a2	0.16116956
217	0x3d5621e7	0.052278426
218	0xbd8e4815	-0.06947342
219	0xbe3f6a6e	-0.18692943
220	0x3db8642b	0.090034805
221	0xbe3a468e	-0.18190977
222	0x3c86da21	0.016461434
223	0x3e19c99d	0.15018316
224	0xbc950f71	-0.01819584
225	0x3dc5646f	0.09638297
226	0xbe1f3507	-0.15547572
227	0x3e522685	0.20522507
228	0xbd97fb3c	-0.07420966
229	0x3bb53aff	0.0055307145
230	0xbd94ffab	-0.07275327
231	0x3daf6efa	0.08566089
232	0xbe25dfe5	-0.1619869
233	0x3e4cc155	0.19995625
234	0xbd4ae0e6	-0.049530886
235	0xbdbaeebb	-0.091275655
236	0x3e0ae9f1	0.13565804
237	0xbe4914bc	-0.19636816
238	0x3e28637e	0.16444203
239	0xbc11d75f	-0.008901446
240	0xbe36e16b	-0.17859428
241	0x3d2b5363	0.04182757
242	0x3e0bad5e	0.13640353
243	0xbd93541b	-0.07193776
244	0x3dc33f1c	0.095335215
245	0x3e272104	0.16321188
246	0xbd18f69b	-0.037344556
247	0x3cb52c14	0.022115745
248	0x3d8ec7aa	0.06971677
249	0x3e58bd2b	0.21165912
250	0x3de6da9d	0.11272166
251	0xbe424d15	-0.18974717
252	0x3de93955	0.11387888
253	0xbcd4b67f	-0.025965927
254	0x3d6ccdae	0.05781334
255	0x3e1f0290	0.15528321

gru.weight_hh_l1 f4 [60, 20]
0	0x3d901c50	0.0703665
1	0xbd798351	-0.06091625
2	0xbc7d556a	-0.015462259
3	0xbd1faccb	-0.038983148
4	0xbe1a3338	-0.15058601
5	0x3b8170e2	0.0039502243
6	0xbe585837	-0.21127401
7	0x3e1ed664	0.15511471
8	0x3dc4ad92	0.096034184
9	0xbe2e275f	-0.17007206
10	0x3e2d928b	0.16950433
11	0xbc993cf9	-0.018705832
12	0x3c963631	0.018336387
13	0x3cf3c8b7	0.029758794
14	0x3e327fef	0.17431615
15	0x3d48de62	0.049040206
16	0xbd200177	-0.039063897
17	0x3c158fe3	0.009128544
18	0xbd72bf34	-0.059264377
19	0xbe3fe1a1	-0.18738414
20	0x3e3c85db	0.18410437
21	0xbdbf8914	-0.093523175
22	0xbd8f87eb	-0.07008346
23	0xbde18631	-0.11011923
24	0xbd1d49c2	-0.03840042
25	0x3e33883e	0.17532441
26	0x3e308b50	0.17240644
27	0x3c98854c	0.018618248
28	0x3c8c8ded	0.01715752
29	0xbe2b5691	-0.16732241
30	0xbd8033bc	-0.062598675
31	0xbd49618c	-0.049165294
32	0xbe29640b	-0.1654207
33	0x3dce759b	0.10081025
34	0xbd764fe0	-0.06013477
35	0xbdbb1784	-0.091353446
36	0xbe59b9df	-0.2126231
37	0xbc67373f	-0.014112293
38	0xbe11536a	-0.14191976
39	0xbdee12d1	-0.11624683
40	0x3d71c4fb	0.059025746
41	0x3de48708	0.11158568
42	0x3e0c9e5b	0.13732283
43	0x3e074c44	0.13212687
44	0x3e0d2ed7	0.13787399
45	0xbe09ac30	-0.1344459
46	0xbe345556	-0.17610678
47	0x3e22d6fb	0.15902321
48	0xbe4274e6	-0.18989906
49	0xbe123c25	-0.14280756
50	0x3d6b950c	0.05751519
51	0x3e42dbd0	0.19029164
52	0xbe44d7e6	-0.19222984
53	0x3e14c97a	0.14529982
54	0x3d453138	0.04814264
55	0xbd9b89e0	-0.07594657
56	0x3db58961	0.088640936
57	0x3e0049d0	0.12528157
58	0xbe355da3	-0.17711501
59	0x3e1d9014	0.15386993
60	0xbd2ccac0	-0.042185545
61	0xbd9ee9dc	-0.07759449
62	0xbdc5e5a8	-0.09662944
63	0xbde35222	-0.1109965
64	0x3df11a28	0.11772567
65	0x3e4a7d78	0.19774425
66	0xbdf8527b	-0.12125107
67	0x3d54c014	0.051940992
68	0xbd94a506	-0.07258038
69	0xbccf9350	-0.025338799
70	0x3dd6a662	0.10480954
71	0x3e237770	0.1596353
72	0xbd7872d2	-0.060656376
73	0xbd8e5797	-0.069503
74	0x3e24d4a0	0.16096735
75	0x3be09c7f	0.0068545933
76	0xbc8cf2f5	-0.017205695
77	0xbd1f3e7e	-0.038877957
78	0x3df1b9c7	0.11803012
79	0x3e47b66d	0.19503184
80	0x3d61cf38	0.05512926
81	0x3de12372	0.10993089
82	0x3dfde206	0.12396626
83	0xbdbbe2d7	-0.09174126
84	0xbe299960	-0.16562414
85	0x3d4e344d	0.050342847
86	0xbe4156c0	-0.18880749
87	0x3e0077fc	0.1254577
88	0xbe5275f2	-0.20552805
89	0x3dadcab8	0.08485931
90	0xbe33c012	-0.17553738
91	0xbe03682e	-0.1283271
92	0x3c3e7089	0.01162351
93	0xbd543ee3	-0.051817786
94	0x3d1ec28d	0.038759757
95	0x3dcc4017	0.09973162
96	0x3c6ad4b9	0.014332944
97	0x3ccf92d7	0.025338573
98	0xbd9ff7ec	-0.07810959
99	0xbdad24b5	-0.08454267
100	0xbe1af51d	-0.15132566
101	0xbe13ddd2	-0.14440086
102	0xbbe0989f	-0.0068541314
103	0x3e0fafca	0.14031902
104	0xbda632fe	-0.08115195
105	0x3dc612c9	0.09671552
106	0xbd881788	-0.06645113
107	0x3df25031	0.118317015
108	0x3e006fae	0.12542602
109	0xbe5704e0	-0.20997953
110	0x3d25f244	0.040514246
111	0x3d45b5fc	0.048269257
112	0xbdff0ad1	-0.12453235
113	0x3daa8e5e	0.08327936
114	0x3de7dd40	0.11321497
115	0xbe0e9e19	-0.13927497
116	0xbe159e71	-0.14611222
117	0x3e2f6e2f	0.17131875
118	0xbc114bbb	-0.008868153
119	0xbe05b16a	-0.1305596
120	0xbd90229f	-0.070378534
121	0x3bcd88f9	0.006272432
122	0xbd8d639e	-0.06903766
123	0xbe57a814	-0.2106021
124	0x3d5dc6e0	0.05414474
125	0x3ddf2a49	0.10896737
126	0xbdeda6ea	-0.11604102
127	0xbdeaa64e	-0.11457501
128	0xbe297c74	-0.16551381
129	0xbdea4b87	-0.11440187
130	0xbe5563b5	-0.20838816
131	0xbe17b2fc	-0.14814371
132	0x3dac7feb	0.08422836
133	0x3d330a08	0.04371074
134	0xbdc53cbf	-0.09630727
135	0x3d8ddbbb	0.06926676
136	0xbd6f3772	-0.058402486
137	0xbe329165	-0.17438276
138	0xbd02f8b7	-0.031975474
139	0x3e421619	0.18953742
140	0x3e331acb	0.1749069
141	0x3e1d47a4	0.1535936
142	0xbb427222	-0.002967008
143	0x3dda6a6e	0.10664831
144	0x3d869850	0.0657202
145	0xbe25751d	-0.16157956
146	0xbd3bc193	-0.045838904
147	0x3afa7502	0.0019108357
148	0x3d181984	0.03713371
149	0x3d990403	0.07471468
150	0x3b3af331	0.00285263
151	0xbe2f7978	-0.1713618
152	0xbda6b620	-0.08140206
153	0xbd2b918f	-0.041886862
154	0xbe124045	-0.1428233
155	0xbe12d17d	-0.14337726
156	0x3e594785	0.21218689
157	0xbb5af650	-0.0033410974
158	0x3dfb7350	0.122778535
159	0xbd1dc6d6	-0.038519703
160	0xbd812c3d	-0.06307266
161	0xbc901c50	-0.017591625
162	0xbb948384	-0.0045322794
163	0x3d15f5b9	0.036611293
164	0xbb3a866b	-0.0028461467
165	0xbd605dc8	-0.054776937
166	0xbe119c09	-0.14219679
167	0xbda6c79f	-0.081435435
168	0x3df561da	0.11981554
169	0xbd2cff45	-0.04223563
170	0xbddaa6ac	-0.106763214
171	0x3c6ada9a	0.014334345
172	0xbd8bc631	-0.068249114
173	0xbe489a58	-0.19590127
174	0xbe105d1a	-0.14098015
175	0xbd59d10b	-0.053177875
176	0x3e2e6d4a	0.17033878
177	0x3dc7a161	0.097475775
178	0xbd19ba3c	-0.037531123
179	0xbdaaa19e	-0.08331607
180	0xbdba249b	-0.09089013
181	0xbe21082d	-0.15725775
182	0xbd29153c	-0.041280016
183	0x3dbb021d	0.091312625
184	0xbdd19665	-0.102337636
185	0xbd08ec8c	-0.033428714
186	0x3daa8a1e	0.08327125
187	0x3e2dfad1	0.1699021
188	0x3cefa82c	0.029254995
189	0xbdfac6f2	-0.12244977
190	0xbd7cc886	-0.06171467
191	0xbdfd5af5	-0.12370864
192	0xbe2e8ff3	-0.170471
193	0xbd7743ed	-0.060367513
194	0xbe51796a	-0.20456472
195	0xbc9742e8	-0.01846452
196	0xbdbb0717	-0.09132212
197	0x3e3687ca	0.17825237
198	0x3db2e4b7	0.0873503
199	0x3ce1a541	0.02754462
200	0xbd8b7287	-0.06808954
201	0x3dd2f515	0.10300652
202	0xbcb04920	-0.021519244
203	0x3e4bfe82	0.19921306
204	0x3e19149c	0.14949268
205	0xbd6820b2	-0.056671806
206	0xbe0dffc5	-0.138671
207	0x3d1fe49c	0.03903638
208	0x3e14f65c	0.14547104
209	0xbb2b4974	-0.002613631
210	0x3e41c4d3	0.18922739
211	0xbe1cd23d	-0.15314575
212	0xbe4c30f9	-0.19940557
213	0xbd24345f	-0.040089007
214	0x3e09ca1c	0.13456005
215	0x3e386972	0.18008974
216	0x3dddb9bc	0.10826442
217	0xbd6b64df	-0.057469245
218	0xbe1fa73a	-0.15591136
219	0x3ddcc465	0.10779647
220	0x3da412f7	0.0801143
221	0x3e07b7ec	0.13253754
222	0xbe17e0fc	-0.14831918
223	0x3e4236fd	0.18966289
224	0x3e254c61	0.16142417
225	0xbd6c2b3d	-0.057658423
226	0xbe22873f	-0.15871905
227	0xbdc7d507	-0.097574286
228	0xbe2d5e62	-0.16930535
229	0xbdc55163	-0.09634664
230	0xbd5a138d	-0.0532413
231	0x3cfef7dc	0.031124048
232	0x3da55ccd	0.08074341
233	0xbd9580ec	-0.072999805
234	0xbe322b67	-0.17399369
235	0xbd555528	-0.052083164
236	0x3d305d28	0.04305759
237	0x3ae2e7d1	0.0017311518
238	0x3e350814	0.17678863
239	0x3dbd3e6e	0.09240423
240	0xbe09ed6b	-0.13469474
241	0xbdd9336a	-0.106055096
242	0xbbc8f530	-0.0061327443
243	0xbd312219	-0.04324541
244	0x3d712791	0.058875624
245	0xbe2c75c7	-0.16841803
246	0xbd975d89	-0.07390887
247	0x3d973fc0	0.07385206
248	0x3e1ff826	0.15622005
249	0x3dee863b	0.11646696
250	0x3d4bd3bf	0.049762484
251	0x3c9fec63	0.019521898
252	0xbe134aeb	-0.14384048
253	0x3e297110	0.16547036
254	0x3cfe2a2d	0.03102597
255	0x3dfd3106	0.12362866

gru.bias_ih_l1 f4 [60]
0	0x3e323fd0	0.17407155
1	0xbd397eb4	-0.04528685
2	0x3df77b5e	0.12084077
3	0xbb9848f2	-0.0046473676
4	0x3e322791	0.17397906
5	0x3e048cc4	0.12944323
6	0x3c31931e	0.010838298
7	0x3c969130	0.018379778
8	0x3b16de8e	0.0023020837
9	0xbe427db7	-0.18993269
10	0x3e41a5bc	0.18910879
11	0x3d889a2e	0.066700324
12	0xbd7d1691	-0.0617891
13	0x3e150e1e	0.14556167
14	0xbd5619f5	-0.05227085
15	0xbe4114c1	-0.18855573
16	0x3dee1e53	0.11626878
17	0xbc88cc83	-0.016699081
18	0xbd0668cb	-0.032814782
19	0xbe306522	-0.17226079
20	0xbe53d06f	-0.2068498
21	0xbc68ad4c	-0.014201473
22	0x3da7b047	0.08187919
23	0x3dc9405f	0.09826731
24	0xbc5b32cd	-0.013378811
25	0xbe11f7df	-0.14254712
26	0x3d7e1d17	0.06203946
27	0xbde21b30	-0.11040342
28	0x3e4d5380	0.20051384
29	0x3d3602d8	0.044436306
30	0x3cc503c0	0.02404964
31	0xbdd19988	-0.10234362
32	0x3d34fe37	0.04418775
33	0xbd24fe3a	-0.04028151
34	0x3e16118b	0.1465513
35	0x3e267097	0.16253887
36	0x3cb3f0ec	0.021965466
37	0xbc305729	-0.010762968
38	0x3e1b4900	0.15164566
39	0xbe39a773	-0.18130283
40	0x3dfa117d	0.12210367
41	0xbd30a0d0	-0.043122113
42	0x3e374de5	0.17900808
43	0x3cd19ce6	0.02558751
44	0x3e1d0096	0.15332255
45	0x3d47d692	0.048788615
46	0xbdf2db8d	-0.11858282
47	0xbe04c0ac	-0.12964123
48	0xbc0cbdde	-0.00859019
49	0xbd07a8e2	-0.033120044
50	0x3d2d5388	0.04231599
51	0xbc980390	-0.018556386
52	0xbcc6a04a	-0.024246354
53	0xbe20f7a6	-0.1571947
54	0x3b5ee605	0.0034011614
55	0x3cbdc408	0.023164764
56	0xbdb7caa4	-0.089741975
57	0x3c7cea1e	0.015436677
58	0x3e511218	0.20417058
59	0xbc570802	-0.013124468

gru.bias_hh_l1 f4 [60]
0	0x3d93d2d0	0.07217944
1	0x3e5986dc	0.21242851
2	0xbe21b43d	-0.15791412
3	0x3e4b3438	0.19844139
4	0x3cf6f74b	0.030147215
5	0xbd655785	-0.05599167
6	0x3d330e03	0.043714534
7	0x3e38b90b	0.18039338
8	0xbcbd7620	-0.023127615
9	0x3e3827d5	0.17983945
10	0x3d70f5c2	0.058828123
11	0xbdc777c3	-0.097396396
12	0x3dd5ba86	0.10435967
13	0x3e09e283	0.13465314
14	0xbe4e52c5	-0.20148762
15	0xbe534534	-0.20631868
16	0x3d8ef25e	0.069798216
17	0x3d199014	0.03749092
18	0x3e14d685	0.14534958
19	0x3ca2c1e9	0.019867854
20	0x3e35c415	0.1775058
21	0x3e0a7d95	0.13524468
22	0xbe006aa7	-0.12540685
23	0xbdbccb1e	-0.09218429
24	0x3dfbca82	0.12294485
25	0xbe4327f0	-0.19058204
26	0x3e0afa36	0.1357201
27	0x3e47fb06	0.19529352
28	0x3d912fd5	0.07089201
29	0x3e06538f	0.13117813
30	0xbe05679a	-0.13027802
31	0xbdfec964	-0.12440756
32	0xbe55c03f	-0.20874117
33	0xbe426b4d	-0.18986244
34	0xbe42a81f	-0.19009446
35	0x3e45e62b	0.19326083
36	0x3da6f43a	0.08152051
37	0x3d71fcc6	0.059078954
38	0xbe10c959	-0.14139308
39	0xbe28f2d5	-0.16498883
40	0x3dbac2c6	0.09119181
41	0xbae79045	-0.0017666897
42	0x3cf6a287	0.030106796
43	0x3e0d82b6	0.13819394
44	0xbbe06d4b	-0.0068489662
45	0x3dcc9197	0.099887066
46	0x3d57c3a3	0.052676808
47	0xbd1bd461	-0.038044337
48	0xbd48b72e	-0.04900282
49	0xbc82dd3c	-0.015974633
50	0x3e379606	0.17928323
51	0xbe550a3e	-0.20804688
52	0xbe4e0230	-0.20118022
53	0xbdeddf0e	-0.1161481
54	0xbd808fb7	-0.062774114
55	0xbd976b66	-0.073935315
56	0x3e2ea911	0.17056681
57	0xbdf1fcf7	-0.11815827
58	0x3d301b60	0.042994857
59	0x3e17c6ad	0.14821883

gru.weight_ih_l2 f4 [60, 20]
0	0x3d2c5e35	0.04208203
1	0xbe1047e8	-0.1408993
2	0x3ce79892	0.028270993
3	0x3bd1bbf7	0.006400581
4	0x3e1f8c8c	0.15580958
5	0x3d79aed8	0.06095776
6	0xbdcf2b4d	-0.10115681
7	0xbd46781e	-0.048454396
8	0xbd78ff3b	-0.06079028
9	0x3cab7315	0.020928899
10	0xbdb5943a	-0.088661626
11	0x3d07a9a9	0.033120785
12	0x3dfe34b4	0.12412396
13	0x3dbee49e	0.09320949
14	0xbe2c6867	-0.16836701
15	0x3e19c5a0	0.15016794
16	0xbdf35b21	-0.11882616
17	0x3c5a569c	0.013326313
18	0xbdd3126c	-0.10306248
19	0xbdf4c9cd	-0.11952553
20	0xbdf1af26	-0.11800985
21	0x3e074d64	0.13213116
22	0xbd8d23f9	-0.06891627
23	0x3ddd2396	0.10797803
24	0x3e0d2da8	0.13786948
25	0xbcdb6cc2	-0.026785258
26	0xbe55ed7a	-0.20891371
27	0xbdc0fcca	-0.09423216
28	0xbe35c2a2	-0.17750028
29	0x3e55a818	0.20864904
30	0xbe54320a	-0.20722213
31	0x3d273d7f	0.04083013
32	0xbca8569b	-0.02054911
33	0x3e53a375	0.20667823
34	0x3d529844	0.051414743
35	0xbd8213c5	-0.06351427
36	0x3b0c0835	0.0021367196
37	0x3e294397	0.1652969
38	0xbda88546	-0.08228545
39	0x3e035d73	0.12828617
40	0xbe12dc85	-0.14341934
41	0xbdbb6663	-0.09150388
42	0x3e27a92b	0.16373126
43	0x3e2a2db7	0.16619001
44	0x3e39c026	0.18139705
45	0x3e1a1574	0.15047246
46	0x3d793ec7	0.060850885
47	0xbd8a39b9	-0.06749291
48	0xbe33ce56	-0.1755918
49	0x3e09a566	0.13442001
50	0xbd9c2b03	-0.07625391
51	0x3e2b37cf	0.16720508
52	0xbd8b785c	-0.06810066
53	0x3e1a6e00	0.15081024
54	0x3e455465	0.19270475
55	0x3e503d8e	0.20335981
56	0xbda3147e	-0.07962893
57	0xbc2d5080	-0.010578275
58	0xbd2f24f8	-0.042759866
59	0x3e2f7cc5	0.1713744
60	0x3de87c49	0.113518305
61	0xbd990124	-0.07470921
62	0xbddfb3e4	-0.10922983
63	0xbda0421b	-0.078251086
64	0x3e0e43ef	0.13893102
65	0xbe159928	-0.14609206
66	0x3cd08985	0.0254562
67	0xbd8f36af	-0.06992852
68	0xbd4e3ca3	-0.050350796
69	0x3d83bef7	0.06432908
70	0xbdc943d0	-0.09827387
71	0x3e1b4777	0.1516398
72	0xbd151e57	-0.036405887
73	0xbdc7c150	-0.09753668
74	0x3bd39aaf	0.0064576487
75	0x3dee5b30	0.116384864
76	0x3e2d843a	0.16944972
77	0xbc085326	-0.008320605
78	0xbe3e91de	-0.18610331
79	0x3e20e6a6	0.15712985
80	0x3e00e19b	0.12586062
81	0x3e0cd589	0.13753332
82	0x3d0d5052	0.034500428
83	0xbc711581	-0.0147146
84	0xbd2af7b6	-0.04174014
85	0xbe145ab7	-0.1448773
86	0xbda3e4f6	-0.08002655
87	0xbe1d3d35	-0.1535538
88	0x3e533a28	0.20627654
89	0x3e2a8cc6	0.16655263
90	0x3db85083	0.089997314
91	0x3d424e5a	0.047438003
92	0x3d71123b	0.058855277
93	0xbd19fe96	-0.037596308
94	0x3e42b927	0.19015943
95	0xbe298211	-0.16553523
96	0x3e48e486	0.19618425
97	0x3dd1e680	0.102490425
98	0x3e3cbbfc	0.18431085
99	0xbe3bd9aa	-0.18344751
100	0xbd06467e	-0.03278207
101	0xbce0508a	-0.027382154
102	0x3d8f182c	0.06987032
103	0x3da0aa55	0.07844988
104	0x3e228dbd	0.15874381
105	0x3d87d4f6	0.06632416
106	0x3da89b25	0.082327165
107	0xbe1aa62b	-0.1510245
108	0xbd9bd2f9	-0.07608599
109	0x3d91c941	0.07118464
110	0x3c8bf8b0	0.017086357
111	0xbd945d25	-0.072443284
112	0xbe562201	-0.20911409
113	0xbe44f5d1	-0.19234397
114	0xbe589290	-0.21149659
115	0x3d5ad834	0.053428844
116	0x3e2f5f80	0.17126274
117	0xba4efdc9	-0.00078960933
118	0x3d4a6a45	0.049417753
119	0x3e05fa32	0.13083723
120	0x3df959c9	0.12175328
121	0x3e2912e7	0.16511117
122	0x3d78e6af	0.060766872
123	0xbc7c17fc	-0.015386578
124	0x3e0be26a	0.13660589
125	0xbd72f2ae	-0.05931347
126	0x3df15727	0.11784201
127	0x3e3bd9f7	0.18344866
128	0x3d2a9c54	0.041652992
129	0x3e01b814	0.12667876
130	0xbe370f3a	-0.17876902
131	0xbdbb065e	-0.09132074
132	0x3e576a86	0.21036729
133	0xbcc8022a	-0.024415094
134	0xbe3e4b0e	-0.18583319
135	0xbe27f53f	-0.16402148
136	0xbdb9917f	-0.09060954
137	0xbe03a330	-0.1285522
138	0xbe3261df	-0.17420147
139	0x3e1758e3	0.14780001
140	0x3dcf83cf	0.10132562
141	0xbe0084a2	-0.12550595
142	0xbd46d9af	-0.048547443
143	0x3d62bcec	0.05535595
144	0xbdeed851	-0.11662353
145	0x3dfd7824	0.12376431
146	0xbda84aa0	-0.082173586
147	0xbcad52a0	-0.021157563
148	0x3e063fa0	0.13110209
149	0x3e0c8d00	0.13725662
150	0xbe2c856c	-0.16847771
151	0x3e34e186	0.17664155
152	0x3da00326	0.078131005
153	0x3dbb84b0	0.091561675
154	0x3e45d98d	0.1932127
155	0x3bfab6b6	0.0076511754
156	0xbae58c9d	-0.001751322
157	0x3d646a31	0.055765335
158	0x3d44e879	0.048073266
159	0xbdde9310	-0.10867894
160	0xbce97ec1	-0.028502824
161	0x3dadd577	0.08487981
162	0x3dd34236	0.10315363
163	0x3d7ec1e8	0.062196642
164	0xbccb3697	-0.024806304
165	0xbde073b9	-0.10959572
166	0xbe3f4963	-0.18680339
167	0xbc7a4b26	-0.015276706
168	0xbe465562	-0.19368508
169	0x3d902ae4	0.07039431
170	0xbde29188	-0.11062914
171	0x3e4f1b85	0.20225342
172	0xbe327eb0	-0.1743114
173	0xbcc29276	-0.023751479
174	0xbdfa151c	-0.122110575
175	0xbcc0f972	-0.023556445
176	0xbdc7062c	-0.09717974
177	0x3da16087	0.07879739
178	0x3de9665a	0.11396475
179	0xbb7efdfa	-0.0038908706
180	0x3de826b4	0.11335507
181	0x3dade6f7	0.08491319
182	0x3ca698c7	0.020336522
183	0xbd35f8df	-0.044426795
184	0x3e3f96ca	0.18709865
185	0xbe21287a	-0.15738097
186	0xbcb187d6	-0.021671217
187	0x3e1dbe2c	0.15404576
188	0x3d2f0bd9	0.04273591
189	0x3a9b5c8a	0.001185314
190	0x3c86357b	0.016382923
191	0x3e426fbc	0.18987936
192	0x3ddc72b0	0.107640624
193	0xbe4ab060	-0.19793844
194	0x3d1d164f	0.038351353
195	0xbe25cd62	-0.16191629
196	0x3e4fe0c4	0.20300585
197	0xbe009eec	-0.12560624
198	0x3c8d7768	0.017268851
199	0xbe0465fd	-0.1292953
200	0x3d94fcdc	0.072747916
201	0x3dcd932c	0.100378364
202	0x3d413796	0.04717215
203	0x3e0f6bb1	0.14005925
204	0x3b8cd81d	0.0042982236
205	0xbde5d83b	-0.11222883
206	0x3bf01c16	0.007327567
207	0x3e18223f	0.14856814
208	0x3e4ae65e	0.1981444
209	0xbe009d7b	-0.12560074
210	0xbc715387	-0.014729387
211	0xbe27aa86	-0.16373643
212	0xbd3c4fef	-0.045974668
213	0x3cb099e8	0.021557763
214	0xbe273a6f	-0.16330884
215	0xbe2236ce	-0.15841219
216	0xbe21fe0d	-0.15819569
217	0xbe065604	-0.1311875
218	0x3e59c85e	0.2126784
219	0x3e5492c6	0.20759115
220	0x3e00dfdb	0.12585394
221	0x3d22bb64	0.03972949
222	0x3dfe608c	0.124207586
223	0xbe368c55	-0.1782697
224	0xbdeb1420	-0.11478448
225	0xbc006045	-0.007835452
226	0x3e3115cf	0.17293476
227	0xbcf91b50	-0.030408531
228	0x3add294a	0.0016873267
229	0x3e412120	0.18860292
230	0x3dffbf22	0.124876276
231	0xbceec026	-0.029144358
232	0x3d9298e5	0.071580686
233	0xbe4a58b7	-0.19760405
234	0xbd5fb5d7	-0.054616775
235	0xbe1fa3a2	-0.15589765
236	0xbe15404a	-0.14575306
237	0x3da8aba6	0.08235864
238	0x3e333be8	0.17503321
239	0xbe4ceb80	-0.20011711
240	0xbcf4f689	-0.029902713
241	0xbd2aa3fb	-0.04166029
242	0xbdf8c45b	-0.12146827
243	0x3e117ce6	0.14207801
244	0x3e3f51fc	0.18683618
245	0x3c9fba4d	0.019498015
246	0xbe41e0ff	-0.18933485
247	0xbdbb37d0	-0.09141505
248	0x3e078e9c	0.13237995
249	0x3de6bbd7	0.11266296
250	0x3d533b17	0.051570024
251	0x3e4bc25e	0.19898364
252	0x3e037068	0.12835848
253	0x3cedee25	0.02904422
254	0x3d535a4b	0.051599782
255	0x3e42e917	0.19034229

gru.weight_hh_l2 f4 [60, 20]
0	0xbe3eff0d	-0.18651982
1	0x3d417d29	0.047238503
2	0xbdec8ac1	-0.11549903
3	0xbd21c6e2	-0.03949631
4	0x3d5ab639	0.053396437
5	0x3d65bd42	0.056088693
6	0xbdf972aa	-0.121800736
7	0x3e11b06a	0.14227453
8	0x3dbb6675	0.091504015
9	0x3dd6cd7f	0.10488414
10	0xbe4f81ac	-0.2026431
11	0x3dcfe18a	0.1015044
12	0x3d512231	0.051057998
13	0x3c20a86c	0.00980578
14	0xbc95512f	-0.018227188
15	0x3d159218	0.03651628
16	0xbe11c41c	-0.14234966
17	0xbe57c24b	-0.2107021
18	0x3dcb388d	0.099228956
19	0xbcdbeac2	-0.02684534
20	0xbddab70f	-0.10679447
21	0x3e5669a7	0.2093874
22	0xbce5919d	-0.028023535
23	0xbe260fe6	-0.16217002
24	0xbc519087	-0.012790806
25	0x3e2eb4ae	0.17061111
26	0xbe3413f3	-0.17585735
27	0x3e36f806	0.17868051
28	0x3b713052	0.0036802483
29	0xbe00dd87	-0.12584506
30	0xbd49332d	-0.04912107
31	0x3e27e85c	0.16397232
32	0xbd96d2f8	-0.07364458
33	0x3df81f8a	0.121153906
34	0x3ddab1c2	0.10678436
35	0xbe058812	-0.13040188
36	0xbe09e2d3	-0.13465433
37	0xbd7ac838	-0.0612261
38	0xbe3c413d	-0.18384261
39	0xbe0fe93c	-0.14053816
40	0xbda4612a	-0.08026345
41	0x3e557faf	0.20849489
42	0x3e36f92e	0.17868492
43	0x3d0de05f	0.034637805
44	0x3d4e1434	0.050312236
45	0xbd7eb77d	-0.062186707
46	0x3df7ab5a	0.120932296
47	0xbe08d7fa	-0.13363639
48	0xbc41df2a	-0.011832992
49	0xbd9fb024	-0.07797268
50	0xbdb5ef7d	-0.088835694
51	0x3d64ed6a	0.05589048
52	0xbe3bca1c	-0.18338817
53	0xbe06ecad	-0.13176222
54	0xbcb37ee1	-0.021911087
55	0xbbca6223	-0.0061762496
56	0xbdc1e1b0	-0.094668746
57	0x3e3ff72d	0.18746634
58	0x3e17ada4	0.14812332
59	0x3cf23fb8	0.0295714
60	0x3cf2f410	0.029657394
61	0xbdf355ba	-0.118815854
62	0xbe14de99	-0.1453804
63	0xbca47db7	-0.020079477
64	0xbe176a68	-0.14786685
65	0x3d2b8fcb	0.04188518
66	0xbdaf4fbe	-0.085601315
67	0x3dbae356	0.09125392
68	0x3dd04a4b	0.1017042
69	0x3db2bcf2	0.08727445
70	0x3c7ffe32	0.01562457
71	0x3e1b4c8b	0.15165918
72	0xbd8c9d14	-0.06865898
73	0xbc82c811	-0.01596454
74	0x3e4f229b	0.20228045
75	0x3d5975a9	0.053090725
76	0xbe4c1d54	-0.19933063
77	0xbdd00e85	-0.101590194
78	0x3d0123ac	0.03152816
79	0xbd0cff11	-0.034422938
80	0xbc6c2dff	-0.014415263
81	0xbc139a49	-0.009008952
82	0xbda219ca	-0.07915075
83	0x3e295443	0.1653605
84	0x3d98f9e3	0.07469537
85	0x3dc15f8a	0.09442051
86	0x3dcd8742	0.10035564
87	0x3d29cc8e	0.041454844
88	0xbe29a520	-0.16566896
89	0xbd0ca973	-0.034341287
90	0x3c2b593f	0.01045829
91	0x3e0014ed	0.12507983
92	0x3e108078	0.14111507
93	0xbbe3276a	-0.0069321888
94	0x3cc35789	0.023845451
95	0x3e42d3f7	0.1902617
96	0xbd880d62	-0.066431776
97	0xbe0c984f	-0.13729976
98	0xbd875043	-0.066071056
99	0x3bddc7da	0.006768209
100	0xbe5655b8	-0.20931137
101	0xbd4540c7	-0.04815748
102	0xbcfd63ec	-0.030931436
103	0xbdac6b7d	-0.08418939
104	0x3e4f2ba4	0.20231491
105	0xbd13af4a	-0.03605584
106	0xbc9f118d	-0.019417549
107	0xbe01cb09	-0.12675108
108	0xbdff5ef1	-0.124692805
109	0x3cbf3f24	0.023345537
110	0xbd1aec79	-0.037823174
111	0x3cf431f5	0.029808978
112	0xbd968d6f	-0.07351195
113	0x3d3168c6	0.04331281
114	0xbe2fb931	-0.17160489
115	0xbe4fcaee	-0.20292255
116	0xbe256d93	-0.1615508
117	0x3db14e1a	0.08657475
118	0xbdc1f43e	-0.094704136
119	0xbe1516bf	-0.14559458
120	0x3c002045	0.007820194
121	0xbdff04be	-0.124520764
122	0x3dac5f17	0.084165744
123	0x3e0c124d	0.13678856
124	0x3de87410	0.11350262
125	0x3e0de5ce	0.13857195
126	0xbd4f0809	-0.050544772
127	0x3e130f1c	0.14361233
128	0xbc1ea857	-0.00968369
129	0x3d2cdf40	0.042205095
130	0x3e1157da	0.14193669
131	0x3e47a4e2	0.19496492
132	0x3dc48803	0.09596255
133	0x3de1c4ff	0.11023902
134	0xbe0af333	-0.13569336
135	0xbddf368f	-0.10899078
136	0x3d986050	0.07440245
137	0xbe0076d5	-0.12545331
138	0xbdb9fee1	-0.090818174
139	0xbe11344e	-0.14180109
140	0xbde3d757	-0.11125057
141	0xbd105bb4	-0.035243705
142	0xbd738867	-0.059456255
143	0xbd57c573	-0.052678537
144	0x3cb5cb6e	0.02219173
145	0xbe3d3037	-0.18475424
146	0xbe565fa6	-0.20934924
147	0x3e07d5cf	0.13265155
148	0x3e546f90	0.20745683
149	0x3d6e3f2a	0.058165707
150	0xbe0ae9c2	-0.13565734
151	0xbe0017b2	-0.12509039
152	0x3d7ac77a	0.061225392
153	0x3dc66874	0.096878916
154	0x3dc2ee87	0.09518152
155	0x3d0ac207	0.033876445
156	0x3e0925df	0.13393353
157	0xbcfbb8c2	-0.030727748
158	0x3e2c032e	0.16798088
159	0x3e2c3758	0.16817987
160	0x3e26666a	0.16250005
161	0xbe382c9a	-0.17985764
162	0x3cd6626e	0.026169982
163	0xbe3e149c	-0.1856255
164	0xbe1eb57f	-0.15498923
165	0x3d5b4bae	0.05353897
166	0xbdfb031a	-0.12256451
167	0x3d534804	0.05158235
168	0x3e2fdb22	0.17173436
169	0xbe52c30f	-0.20582221
170	0x3ce78d35	0.028265575
171	0xbd37cff6	-0.04487606
172	0x3e40944a	0.18806568
173	0xbe482da1	-0.19548656
174	0xbe18a5b7	-0.14906965
175	0x3e0ba5de	0.13637492
176	0x3e1f0b39	0.15531625
177	0xbe077095	-0.1322654
178	0xbe521d8c	-0.20519084
179	0x3e0ccb2d	0.1374938
180	0x3e3401f7	0.17578875
181	0x3e445100	0.19171524
182	0xbe499a0a	-0.19687667
183	0xbdba6ab5	-0.09102384
184	0xbdae20a4	-0.085023195
185	0xbda828a9	-0.0821088
186	0xbd4fc8a2	-0.050728448
187	0x3d61687e	0.055031292
188	0xbd1651f7	-0.03669926
189	0x3dc37ab1	0.09544886
190	0xbe00e6f0	-0.12588096
191	0xbd116d1d	-0.03550445
192	0x3e28a8ac	0.16470593
193	0x3e083aa6	0.13303623
194	0xbe31a2a7	-0.17347203
195	0xbdd88c5e	-0.10573648
196	0xbdafa7fc	-0.08576962
197	0xbd131fce	-0.035919003
198	0x3c60a4f3	0.013711202
199	0xbd92cb05	-0.07167629
200	0x3e19b412	0.15010098
201	0x3d96224b	0.073307596
202	0xbd312aa2	-0.04325355
203	0xbe081b5d	-0.13291688
204	0x3e40ca6d	0.1882722
205	0xbcb0ecaf	-0.021597235
206	0xbba09fea	-0.0049018757
207	0x3d1fc897	0.039009657
208	0x3de22f0e	0.11044131
209	0xbc890c6d	-0.016729558
210	0x3e4ebcf4	0.20189267
211	0xbdca7675	-0.09885875
212	0x3d93541f	0.07193779
213	0xbce7386d	-0.028225148
214	0x3d9bbae7	0.07604008
215	0xbe4cbd88	-0.19994175
216	0x3dab53f6	0.08365624
217	0xbe188fd8	-0.14898622
218	0xbde789f2	-0.11305608
219	0x3df98fe5	0.12185649
220	0xbe198765	-0.14993055
221	0xbe410c78	-0.18852413
222	0xbc6f0871	-0.014589415
223	0x3dece01e	0.115661845
224	0xbc3ecafa	-0.011645073
225	0xbcbb8c1a	-0.022893954
226	0xbe17bf52	-0.14819077
227	0x3e0f70b6	0.1400784
228	0x3e519b21	0.20469333
229	0xbb280e89	-0.002564343
230	0xbc6efad5	-0.01458617
231	0xbd6b9c56	-0.05752214
232	0xbc373187	-0.011181242
233	0x3dd7cd83	0.10537245
234	0x3e159a22	0.14609578
235	0xbdccc0a0	-0.09997678
236	0xbe0da31e	-0.13831756
237	0xbd9fadf1	-0.077968486
238	0x3df5e562	0.12006642
239	0x3dd27548	0.10276276
240	0xbe584562	-0.21120217
241	0xbd9287b0	-0.071547866
242	0xbd4db555	-0.05022176
243	0xbde37b31	-0.11107481
244	0xbd811ffb	-0.06304928
245	0x3e3c9b9c	0.18418735
246	0x3db4fe05	0.08837513
247	0x3b39a221	0.0028325396
248	0xbd60b298	-0.05485782
249	0x3d1717b7	0.03688785
250	0x3d9ab3f7	0.07553857
251	0xbd8a9abb	-0.06767794
252	0xbda9c50b	-0.08289536
253	0x3e11e92c	0.14249104
254	0xbe3a3423	-0.18183951
255	0x3c92446a	0.017854888

gru.bias_ih_l2 f4 [60]
0	0x3ddea890	0.108719945
1	0xbdad8d56	-0.08474223
2	0x3c40ab7f	0.011759638
3	0xbd02e3f0	-0.03195566
4	0x39f72650	0.00047140056
5	0xbcbaac7c	-0.022787325
6	0x3d9c7637	0.07639735
7	0xbb904cbf	-0.00440368
8	0xbe023617	-0.12715946
9	0x3e03ac39	0.12858666
10	0x3e596298	0.21229017
11	0xbd852ba1	-0.06502462
12	0xbddd3e80	-0.108029366
13	0x3c283842	0.010267319
14	0xbe2b884e	-0.16751215
15	0xbcf44f21	-0.029822888
16	0xbc958c8e	-0.018255498
17	0xbd8ec3a4	-0.06970909
18	0xbc19b50a	-0.009381542
19	0x3d78e08b	0.060761016
20	0x3e35e854	0.17764407
21	0xbd24c3f3	-0.040225934
22	0xbcab9b7f	-0.02094817
23	0xbe37bc89	-0.17943014
24	0xbe2e519b	-0.17023318
25	0x3d1b2aac	0.037882492
26	0xbe5733b2	-0.21015814
27	0xbe0588aa	-0.13040414
28	0xbda08217	-0.07837313
29	0xbe3640db	-0.17798178
30	0x3df7af2c	0.12093958
31	0x3d5fe04e	0.054657273
32	0x3e3c71d4	0.18402797
33	0xbe39f82a	-0.18161073
34	0x3d2a855a	0.04163108
35	0x3d4a14d0	0.049336255
36	0x3e46f80a	0.19430557
37	0xbe2f6db3	-0.1713169
38	0x3d7b66ab	0.06137721
39	0xbe1a8bbe	-0.1509237
40	0x3cf0c184	0.02938915
41	0xbda869b7	-0.082232885
42	0x3c14fa7f	0.009092926
43	0x3e3b7508	0.18306363
44	0xbd46e477	-0.048557725
45	0xbe059ea5	-0.130488
46	0x3e35b3dc	0.17744392
47	0x3e0ce993	0.13760976
48	0x3e111bbb	0.14170735
49	0x3e2fa69c	0.171534
50	0xbd97dfa0	-0.074157
51	0x3e1160d5	0.14197095
52	0x3e012ba6	0.12614307
53	0x3cfe46d2	0.03103963
54	0xbe0416c7	-0.12899314
55	0xbe01de44	-0.12682444
56	0xbdcb537e	-0.09928034
57	0x3dfc951a	0.12333126
58	0x3d2c8a4d	0.04212408
59	0xbdbe84cf	-0.09302675

gru.bias_hh_l2 f4 [60]
0	0xbc845712	-0.0161548
1	0xbccea358	-0.025224373
2	0x3dbdbc8c	0.09264478
3	0xbe11432f	-0.14185785
4	0xbcb7afad	-0.022422636
5	0x3d55c44a	0.05218915
6	0x3e432f06	0.19060907
7	0xbc258746	-0.0101030525
8	0x3e003d32	0.12523344
9	0xbe42b7b9	-0.19015397
10	0xbd5426f0	-0.051794946
11	0x3e4bf4a9	0.19917549
12	0x3e0ee172	0.13953188
13	0x3c990965	0.018681237
14	0x3d4476e3	0.04796494
15	0xbddcdd48	-0.107843935
16	0xbc9993db	-0.01874726
17	0xbda305f8	-0.07960123
18	0xbc89830e	-0.016786125
19	0xbdca4f07	-0.098783545
20	0x3c8ced57	0.017203016
21	0x3e113241	0.14179327
22	0x3ccc3685	0.02492834
23	0x3e49d956	0.19711813
24	0xbdfc09d6	-0.123065636
25	0xbe280b7b	-0.1641063
26	0x3e2feb64	0.17179638
27	0x3d8fd97d	0.070239045
28	0xbd9e6eb1	-0.077359565
29	0xbdb07c0a	-0.086174086
30	0xbdc27303	-0.09494593
31	0x3c0ac513	0.008469838
32	0xbe38dd5c	-0.18053192
33	0x3d916414	0.070991665
34	0x3d1e040e	0.038578086
35	0x3e11f5ea	0.14253965
36	0xbde146ad	-0.109998085
37	0xbe2e6763	-0.17031626
38	0xbe276b3e	-0.16349503
39	0x3bed5754	0.0072430763
40	0x3e23bdfc	0.15990442
41	0xbd8763a2	-0.066108
42	0x3e2d4ddf	0.16924237
43	0xbe2e8406	-0.1704255
44	0x3d3f4f1a	0.046706297
45	0x3e3cb837	0.18429647
46	0x3d9c3c22	0.07628657
47	0xbd5ad436	-0.053425036
48	0xbd427e01	-0.047483448
49	0xbdc720ab	-0.09723028
50	0xbe49da89	-0.19712271
51	0xbdc95913	-0.09831443
52	0xbd942d2a	-0.07235177
53	0x3e05fe24	0.13085228
54	0xbd90144b	-0.070351206
55	0x3e3c0bec	0.18363923
56	0x3d164624	0.036687985
57	0x3e2cc778	0.16872966
58	0xbdc295df	-0.09501242
59	0x3e344f10	0.17608285
