model-probRNN-DDPG/model-prob-all-pmt-chnge/just_k/pi.pth (torch, 13330 bytes, 13 tensors)

prop_in_to_h.weight f4 [20, 5]
000000 83 46 42 3d 3d 27 bf bd 17 a0 95 be 8c c1 e5 3e
       0.047430526 -0.09333656 -0.292237 0.44874227
000010 74 15 69 3d 21 c4 b6 bf b7 50 bf be bd e7 d9 3e
       0.056905225 -1.4278604 -0.37366268 0.42559615
000020 23 92 4c be 57 db ee 3e 9d 56 a4 3e 18 ef 03 bf
       -0.19977622 0.46651718 0.3209733 -0.51536703
000030 15 0c 05 be cb e6 a5 be 58 dd 28 be 58 02 af 3e
       -0.1299289 -0.32402644 -0.16490686 0.34181476
000040 8d d9 65 3e 38 84 93 be 38 d2 84 be 5f 82 90 be
       0.2244627 -0.28811812 -0.25941634 -0.28224465
000050 3d 16 b3 be 10 f6 0c 3f 7c 68 84 3e 83 38 66 be
       -0.34977904 0.5506296 0.25860965 -0.22482495
000060 3c 84 58 3e 53 cc a5 3e ed 81 2a be a3 d8 90 be
       0.21144193 0.3238245 -0.16651125 -0.2829028
000070 28 b0 f6 3d fd f8 d3 be eb e1 a2 be 24 fa 4e 3e
       0.12045318 -0.414009 -0.31812987 0.20212609
000080 8e 34 ee be 17 00 bf 3e 02 fa c5 3d e0 a7 e8 be
       -0.4652447 0.37304756 0.09666826 -0.45440578
000090 10 d3 79 3e 13 02 aa be b2 6f 9d be 27 2c e3 bd
       0.2439692 -0.33204708 -0.3074928 -0.11092406
0000a0 62 b1 ec be 84 56 42 3e 87 3d 47 3e e7 76 0b 3e
       -0.46229082 0.18978316 0.19457065 0.13619576
0000b0 17 e4 00 be 94 92 ec be 55 af b0 3e ee 36 cf 3e
       -0.1258701 -0.4620558 0.34508768 0.40471596
0000c0 cf 8f 0e 3e 52 0e 6a bc f3 f2 91 3a da 12 c5 3e
       0.13922046 -0.014285641 0.0011135027 0.38490945
0000d0 1b 3b 12 3d 3d 19 11 be a2 f1 8c 3e 7c 25 7b 3e
       0.0357009 -0.14169784 0.275281 0.24526018
0000e0 c4 e4 c8 be d2 19 9b 3c ab b8 c7 3e 98 9a f1 bd
       -0.39237034 0.01893321 0.39008078 -0.117970645
0000f0 92 7f ca be ba 35 8c 3e e8 c8 e8 3e 09 1a bd be
       -0.39550453 0.2738474 0.4546578 -0.36933926
000100 8d 8c b6 3e a5 36 61 bf 33 97 f0 3e 94 54 a8 3e
       0.35654107 -0.87974006 0.46990356 0.32877028
000110 79 75 31 3d c2 b1 a1 be 10 4c ca be cf 8c 03 be
       0.04332492 -0.3158093 -0.39511156 -0.12846683
000120 9f ff 84 3e 91 0e 43 3e b1 f8 24 3e 02 c5 6a bf
       0.25976273 0.19048525 0.16110493 -0.9170686
000130 04 fa 34 be 73 24 0e 3d 99 cb c6 be d3 06 2a ba
       -0.17673498 0.03470273 -0.38827208 -0.0006486002
000140 91 73 ef bc b0 e0 f8 be 0d 7c 4a be 92 30 64 3e
       -0.029229911 -0.48608923 -0.19773884 0.22284153
000150 df f6 32 be a7 06 b4 3f 84 72 9e bd 03 1e 91 bd
       -0.17476986 1.406453 -0.07736686 -0.070858024
000160 e8 27 6d 3e cb cf ce bd 32 e2 19 3f 48 f8 b1 3e
       0.23159754 -0.10098227 0.6011077 0.34759736
000170 7d d4 3c be 41 4c bd be 04 41 f2 be 88 84 bd bc
       -0.18440433 -0.3697224 -0.47315228 -0.023134485
000180 16 3b b4 be af 36 84 3d a2 bd 15 3e b5 8e 18 bf
       -0.3520133 0.064557426 0.1462312 -0.59592754

prop_in_to_h.bias f4 [20]
000000 6d 68 44 3e 50 8c ca 3e 1b af 97 be fc ec 1a bd
       0.1918046 0.39560175 -0.29625782 -0.037823662
000010 56 5f 05 be 17 e7 01 be 8d 95 83 3d 59 4c 77 3e
       -0.13024649 -0.1268581 0.06425009 0.24150218
000020 7e 04 6f be 8d a6 43 3e dd 33 cd be b8 09 b2 3e
       -0.23341557 0.19106503 -0.4007863 0.3477304
000030 24 dc 09 3e 49 36 82 3b 0b 4f 2d 3e 17 c7 f9 3c
       0.13462883 0.0039737565 0.16924684 0.030490441
000040 37 1d 21 3d 50 2d ed bd bf 41 33 3e a7 1b 2f 3e
       0.039334502 -0.11580908 0.17505549 0.17100392

prop_h_to_h.0.weight f4 [20, 20]
000000 a1 36 54 3e 1c 77 0a 3d 34 7b ad bc 32 78 ea 3c
       0.20723964 0.033804998 -0.021176912 0.028621767
000010 e5 e2 99 3c 22 85 5e bd f5 a0 89 3e 37 54 b6 bc
       0.01878495 -0.054326184 0.26880613 -0.022256954
000020 96 a6 a1 3d f0 1b 64 bc b6 72 74 3d dc 17 3c be
       0.07893102 -0.013922676 0.05967971 -0.18368477
000030 cc 60 2e 3e 9d 75 f5 bd 0d 19 08 3c a4 41 2a 3e
       0.17029113 -0.119853236 0.008306754 0.16626602
000040 8e 94 cd bc d9 af c5 be 63 e8 f0 3d 5a b4 05 bd
       -0.02509525 -0.38610724 0.11763074 -0.0326427
000050 27 ce 05 3e 07 3c 5e be 95 e3 22 3d 19 da 0e 3e
       0.13066922 -0.21702586 0.03976782 0.13950385
000060 42 e4 1a 3d 75 f2 09 3d 40 de 65 bc 74 ee a7 3d
       0.03781534 0.03367849 -0.014030039 0.08199778
000070 e8 4a 81 bd 35 20 65 3d c9 90 6f bd 1d 40 cc ba
       -0.06313115 0.05593892 -0.058487687 -0.0015583072
000080 9d 1c df be f2 e6 03 3e d2 c2 5b be 70 9e 19 be
       -0.43576518 0.12881067 -0.21461037 -0.15001845
000090 df 57 80 3e 3a f6 be bd 4b a2 98 3d f2 5a a0 3e
       0.2506704 -0.09324308 0.0745283 0.31319386
0000a0 dd 6d cf bd d7 3f 31 bd 08 34 3a 3d 24 5c 2f be
       -0.10128377 -0.043273773 0.045459777 -0.17124993
0000b0 76 78 29 3e 70 f4 60 3d e0 29 05 3e 41 09 10 3e
       0.16549858 0.054920614 0.13004255 0.1406603
0000c0 ec c8 05 be 16 9e 9c 3d a0 d7 19 be a3 ce a4 3d
       -0.13064927 0.0764734 -0.1502366 0.08047225
0000d0 12 5d 07 3f 19 fe ac bc bf cc 35 3e da f1 97 3d
       0.5287639 -0.021117257 0.17753886 0.074191764
0000e0 eb 02 8d be 4a b0 9c be 25 e7 05 3e 19 92 72 3d
       -0.2754129 -0.30603248 0.13076456 0.05922136
0000f0 60 5b bc 3c 6a ea 63 3e 89 54 a9 3c 0d bd 15 3e
       0.02299279 0.2225739 0.020670192 0.14622898
000100 25 82 83 3d 2a 77 80 bd 5d 14 80 3d f4 26 8b bc
       0.064213075 -0.06272729 0.06253884 -0.016986348
000110 de 2e e1 bd 4f 2b 9d bb bf 3a d7 bd f2 d2 2c be
       -0.10995267 -0.0047964226 -0.10509252 -0.16877344
000120 88 77 2a 3e 9b 06 2f 3e 21 ec 60 bd ad 90 11 3e
       0.1664716 0.17092364 -0.05491269 0.14215346
000130 d9 ff 52 3d 0e c3 7b 3d 18 46 be bd 99 b2 db bd
       0.051513527 0.061465316 -0.09290713 -0.10727424
000140 27 22 5c 3c bf 16 83 3d 48 00 79 be 0f 0b ef 3d
       0.013435877 0.06400823 -0.24316514 0.11672031
000150 75 2c 2f be c2 75 e9 bd 45 74 46 3e 8c db bc 3d
       -0.17106803 -0.11399414 0.19380291 0.09221563
000160 9e 48 19 3e 85 a9 10 3d d3 d4 aa bd 1c d3 24 be
       0.14969108 0.035317916 -0.08341374 -0.16096157
000170 5f c4 34 3e 1f 34 5a 3d cb 4e a1 3c 61 86 04 3d
       0.17653035 0.053272363 0.019690892 0.032354716
000180 d3 63 85 bd 81 00 9c be f4 29 d7 3d ad ea aa be
       -0.065131806 -0.30469134 0.10506049 -0.33382168
000190 96 59 1a be 92 07 b2 3e 31 19 d4 bd 14 bc c7 3d
       -0.15073237 0.347714 -0.103563674 0.0975267
0001a0 6d 85 5e 3e e7 36 28 be dd 8b 55 3e d5 d9 83 3e
       0.21730585 -0.16427194 0.20854135 0.2575213
0001b0 77 9e 2b bd 10 64 5b 3e af 37 24 3e 81 59 31 3a
       -0.04189917 0.2142489 0.16036867 0.0006765351
0001c0 16 39 bb 3e 2c e8 ca bd 63 95 53 bd 33 37 3e be
       0.3656699 -0.099075645 -0.05165614 -0.18575744
0001d0 33 be 2a 3d 37 42 7e be 4a 8f b8 3d 75 77 d5 be
       0.041685294 -0.24829946 0.09011705 -0.416927
0001e0 2b 5a ff 3c 8e cf 3c be 48 f5 24 be 16 ec 0a 3e
       0.031170925 -0.18438551 -0.16109192 0.13566622
0001f0 96 a2 f8 bc 52 06 9a bd 79 97 47 bd 69 2a 6a be
       -0.030350965 -0.07520737 -0.04872844 -0.2286774
000200 3a ef 7d 3c 34 47 46 be 9f 22 be 3d 0a c7 6f 3d
       0.015498931 -0.193631 0.09283947 0.058539428
000210 a8 26 12 bf bb 9e 93 bd f0 bd 5a 3d a0 f3 4a 3e
       -0.57090235 -0.0720801 0.053403795 0.19819498
000220 ff 25 32 3e ce f8 f5 3d 45 85 67 3e 53 78 17 3e
       0.17397307 0.12010346 0.22609432 0.14791994
000230 0f f9 71 bd e9 67 5b be c1 82 24 be 7d 38 7b 3e
       -0.05907541 -0.21426357 -0.16065504 0.24533267
000240 7d fa 2f be 88 3e 20 3e a4 bb 83 3b 2a b6 00 be
       -0.17185397 0.15648854 0.0040201712 -0.1256949
000250 0b 26 4a 3e a8 2c e7 3c 8d 76 b9 bd 84 30 70 bb
       0.19741075 0.028219536 -0.09055815 -0.0036650011
000260 c5 e2 21 be 2e af 5e be 6c 82 47 bd 3f 01 15 bc
       -0.15809162 -0.21746513 -0.048708364 -0.009094535
000270 68 9f 7b 3e e3 76 10 3f 11 c4 25 3d 64 e2 ba 3e
       0.24572527 0.56431407 0.040470187 0.36500847
000280 eb f5 9e 3d 85 bb 2d 3f eb ce 81 be 08 ad f8 bd
       0.07761749 0.6786426 -0.25353178 -0.12142378
000290 46 ad 93 bc 76 e8 22 be 93 ef fc 3d a6 d1 f2 3d
       -0.01802696 -0.1590899 0.12350383 0.118563935
0002a0 cf b9 f3 bd c0 5a 97 3e e5 9d a1 be a6 a7 9b bc
       -0.119006746 0.29561424 -0.31565776 -0.01900084
0002b0 cd ad 48 3f c3 32 1d 3f f0 51 a8 3e 6a 13 7e 3e
       0.783902 0.6140558 0.32875013 0.24812093
0002c0 81 c4 8c be 8f c0 4e bf d1 09 6e 3d a5 99 53 be
       -0.2749367 -0.8076257 0.05811483 -0.2066408
0002d0 74 65 a5 3c 63 be 84 be f6 04 ab bd 0c 91 98 bd
       0.020189978 -0.25926504 -0.083505556 -0.074495405
0002e0 0e 7d e8 3d 89 53 01 be 75 2b 8f bd 59 78 61 be
       0.11351977 -0.12629522 -0.06990711 -0.22018565
0002f0 aa 72 76 bd e0 ad 49 bd 4d 2d 2f be aa b7 2c 3c
       -0.060167946 -0.049238086 -0.17107125 0.010541836
000300 af 59 f6 be 89 3a 27 bd 72 6b ff bd b7 10 9a 3c
       -0.48115298 -0.040827308 -0.124716654 0.018806798
000310 a6 bb 4e 3e 2a 77 2c 3e 69 fb 68 bd b8 0c a4 3e
       0.2018877 0.16842332 -0.05688039 0.32040954
000320 2e ce e1 3d 88 62 21 be da c1 ca bc 7f 15 97 3c
       0.11025654 -0.15760243 -0.024750639 0.018442867
000330 a4 53 e9 3c 24 88 dc 3c 80 67 d1 bd 31 14 65 be
       0.028482266 0.026920386 -0.10224819 -0.22370984
000340 c8 4e 45 3e b7 32 34 be 25 d6 86 bd af a3 1a 3e
       0.19268334 -0.17597471 -0.065838136 0.15101503
000350 d5 c3 ba 3c 50 f2 22 be 9c ca e5 3c 7e 93 d3 ba
       0.022798458 -0.15912747 0.028050713 -0.0016141979
000360 e9 5d be 3b c4 5a 5e bc 2c eb c7 3d 31 92 5c 3e
       0.005809535 -0.013571445 0.09761652 0.21540143
000370 c3 7c 49 3e 98 df e2 be e4 6e 4a 3e 48 0b 32 bc
       0.19676499 -0.44311213 0.19768864 -0.0108669475
000380 5b da 8b be f1 91 87 3e c4 b2 9a bd 32 5f 02 be
       -0.2731503 0.26478532 -0.07553628 -0.12731627
000390 ea 0d 6e bc 6f dc 19 bc 31 ce a4 bc b9 ee 75 3d
       -0.014529685 -0.009390934 -0.020117851 0.060042117
0003a0 af 61 80 bf b4 6d 91 be 8a 5e ce bd 13 81 49 be
       -1.0029811 -0.2840401 -0.10076626 -0.19678144
0003b0 05 4f 85 3e 5f a2 29 3f b0 6f 22 3e 7a 5c 52 3e
       0.2603685 0.66263384 0.15862918 0.2054309
0003c0 1c 59 64 3c 81 46 62 3d 01 d3 2c be 2c d0 0c 3e
       0.013937261 0.05524302 -0.16877367 0.13751286
0003d0 8f ea 43 bd 9e 48 22 be 24 41 4d bd cb f5 01 bd
       -0.047831114 -0.15848014 -0.05011095 -0.031728547
0003e0 c4 78 15 be e6 e1 e0 bd 64 a1 41 3e 6c 2a d2 bd
       -0.1459685 -0.10980587 0.18909222 -0.102619976
0003f0 e9 a2 ce bd 67 33 4b be 06 30 24 3e 62 35 1e 3e
       -0.100896664 -0.19843827 0.16033944 0.15450051

prop_h_to_h.0.bias f4 [20]
000000 cf 9d 0e 3d 92 7c 83 3d 8d 7a 9d 3d 91 4c 10 3e
       0.034818467 0.06420244 0.0768939 0.14091708
000010 cf cf 4a 3d 8a 80 1f 3c 0f f2 14 3e 47 ed dc 3c
       0.049514588 0.009735236 0.14545463 0.026968611
000020 d7 23 72 3e e7 cd 73 bd 75 60 56 3e 62 03 ef 3d
       0.23646484 -0.059522536 0.20935233 0.11670567
000030 ef cb 16 3d 83 b7 73 3e f1 67 26 3e 34 f1 ea 3c
       0.03681558 0.23800473 0.16250588 0.028679468
000040 1e 3c 72 be 9f ed 4d bc 24 2f 81 bd 7a c1 e3 3d
       -0.23655745 -0.01256886 -0.063078195 0.11120887

prop_h_to_h.1.weight f4 [20, 20]
000000 c5 b8 fc 3d 1c 7d c0 3d 72 83 22 3d 00 a9 7c 3e
       0.123399295 0.09398863 0.039676137 0.24673843
000010 ce a9 03 3e e1 36 84 3e d2 e4 ff bd 6b 21 75 be
       0.12857744 0.2582312 -0.12494816 -0.23938529
000020 18 10 85 3e 56 e5 c0 bc 3a 87 12 be 3d 94 a8 be
       0.2598884 -0.023546856 -0.14309397 -0.32925597
000030 36 f4 3a 3d 50 2c 82 bd c8 5f 89 bc f6 96 66 3e
       0.045643054 -0.06356108 -0.016769305 0.22518525
000040 9b 63 7f 3d 78 c4 1b 3d 66 2a 33 be 85 d4 07 bd
       0.06235085 0.038029164 -0.17496642 -0.03316166
000050 92 76 29 3d a0 d8 a4 bd 64 67 74 bd 1c 19 e2 bd
       0.041372843 -0.080491304 -0.059668913 -0.110399455
000060 84 93 37 bd a4 95 36 3e 25 27 5a 3e 52 19 0c 3e
       -0.044818416 0.17830521 0.21303995 0.13681534
000070 b9 e9 e8 3d 67 f0 b5 bd 23 ef 84 bd e5 fc 8f 3d
       0.11372704 -0.08883744 -0.06490924 0.07030658
000080 74 4b 2e be 9a 21 db 3d 65 90 a3 bd 3c 48 75 3e
       -0.1702097 0.10699768 -0.079865254 0.23953336
000090 7d b7 65 bd 3a 75 39 bd 82 f0 32 3a 07 47 13 bd
       -0.05608319 -0.04527781 0.00068259996 -0.03595641
0000a0 b6 1f 53 3d ce 1c 14 be 24 b0 89 bd b9 05 31 3c
       0.051543914 -0.14464113 -0.06723049 0.010804587
0000b0 89 db 96 3d 3b 1f 12 bb 94 06 6d 3e a8 d5 da bd
       0.07366092 -0.0022296447 0.2314704 -0.10685283
0000c0 10 b5 66 3e 9b cf 33 3d 2a e7 c5 3d 48 26 e1 bd
       0.22530007 0.04389916 0.09663232 -0.1099363
0000d0 a4 04 f4 3d 40 63 49 3e 95 62 1f 3e 56 e7 53 3e
       0.11914948 0.19666767 0.1556495 0.20693716
0000e0 88 6b 02 bd 97 fe 72 3d b8 49 f9 3d fd 79 3d 3e
       -0.03184083 0.059324827 0.12172264 0.18503566
0000f0 39 81 9e bd 68 4d 8c 3c a7 d3 02 3d 36 a6 00 3d
       -0.07739491 0.017126754 0.03194013 0.03140851
000100 52 55 81 be cc 72 32 be 20 01 49 3d c3 2b a9 3e
       -0.25260407 -0.17426604 0.04907334 0.330412
000110 dc 33 9e bd 93 a0 7b 3e 2a 2f 48 3e 35 85 95 3e
       -0.07724735 0.24572973 0.19549242 0.2920319
000120 b0 09 b0 3d 6c 2d 04 be 39 de 03 3c 5d db 1f be
       0.08595598 -0.12907952 0.0080485875 -0.15611024
000130 fa 65 11 be 87 67 58 be 1c 54 4e 3e 62 38 49 bd
       -0.14199057 -0.21133243 0.20149273 -0.049126036
000140 05 e8 46 3e 1f f0 36 be 82 10 6b 3e 4e 9d 91 3d
       0.19424446 -0.17865036 0.22955516 0.071100816
000150 87 76 5d 3c 2e 96 9d 3d 0a d2 b9 3d 0a e5 13 3d
       0.013517029 0.0769466 0.09073265 0.0361071
000160 e4 9c 13 3f 16 12 86 be e5 61 0d be 0e f2 61 be
       0.5766127 -0.26185673 -0.13806875 -0.22064993
000170 a3 49 71 3e 2d 74 b8 bd 0d 5c c2 bd 60 a0 e9 3e
       0.23563246 -0.09006534 -0.094902135 0.4563017
000180 bc e5 60 3d a2 f1 86 3e 34 93 20 3d 9f 3f cc 3d
       0.05490659 0.26356226 0.039202884 0.09973072
000190 24 96 89 bd 87 7f 4c 3e 3e 94 8f 3d c8 95 0d 3e
       -0.0671809 0.19970523 0.07010697 0.13826668
0001a0 01 ad 10 be ff ff 34 be cc 99 3c 3e 0d d7 23 be
       -0.14128496 -0.1767578 0.18418044 -0.16000004
0001b0 6f f6 24 be fd 2c 98 bc a5 fa 28 3c 61 6b ee bd
       -0.16109632 -0.01857614 0.010313665 -0.11641575
0001c0 57 da 3b 3e 9b 74 c3 bd dd 5d ab bd 7b a0 61 3d
       0.18345009 -0.09543725 -0.083675124 0.055084687
0001d0 93 c1 c4 bd 05 e2 05 be 51 84 06 be f3 bc 56 be
       -0.09607234 -0.13074501 -0.13136412 -0.20970516
0001e0 c2 99 ed 3d 3e 3a 0b be e5 ef 6c 3c 85 db fa 3d
       0.116015926 -0.13596436 0.014461492 0.12248901
0001f0 bf 76 17 3e 2f 3e 93 bd d4 6c 37 3e 66 9c 8b be
       0.14791392 -0.07189595 0.17912608 -0.2726776
000200 77 89 03 3f a6 e9 09 be 50 4b 85 3d 02 d6 06 be
       0.5138163 -0.13468036 0.06508505 -0.13167575
000210 88 24 75 3e 94 52 5d 3e 27 b9 ce bd e8 b6 85 3e
       0.23939717 0.21613532 -0.10093909 0.2611611
000220 c5 71 19 be 93 5e 0d be e4 50 61 bd 10 15 1b 3e
       -0.14984806 -0.13805608 -0.055008784 0.15144753
000230 ae 8a 75 3d 5a e9 71 bc 1a 85 a5 39 eb aa 80 3c
       0.05994671 -0.014765108 0.0003157042 0.0157065
000240 5c b3 28 3e 5d 43 0b 3e af 75 eb 3d dd e3 0d be
       0.1647467 0.13599916 0.11497056 -0.13856454
000250 d6 4c 95 bc 17 92 c6 3d 52 75 3c 3e 8d 26 4a be
       -0.018225115 0.09695833 0.18404129 -0.19741268
000260 a4 3b 03 be d9 ec f1 bc ee 97 73 3d ae ac 11 3e
       -0.1281572 -0.029531883 0.059471063 0.14226028
000270 ae 11 f8 bb ef 70 a1 3c 88 3d 98 3d e8 13 02 3b
       -0.007570467 0.019707171 0.07433611 0.001984829
000280 38 bc 3f 3e bd 99 4a 3e e2 72 06 be 12 ad 92 3c
       0.18724144 0.19785209 -0.13129762 0.017904792
000290 64 ea 23 be 2d 44 4e be 70 f9 25 be 49 f3 89 3d
       -0.16007382 -0.20143194 -0.16208434 0.06735856
0002a0 b1 2a 18 bd d8 94 ff bd d2 11 ed bd ea 1e 17 be
       -0.03715009 -0.124795616 -0.115756646 -0.14757887
0002b0 d2 0a 9e 3b 0b c1 40 be f8 13 8a bd 42 90 b6 3d
       0.004823067 -0.1882364 -0.0674209 0.08914234
0002c0 81 28 45 bd 6d 4e 10 bc 74 63 66 3e b9 0f 38 3e
       -0.04813433 -0.008807761 0.22498876 0.17974748
0002d0 65 5c 3b be c8 b0 03 3e d3 82 5e 3e 6c 30 cb bd
       -0.18296964 0.12860405 0.21729593 -0.09921345
0002e0 63 82 2a bd 28 84 0c be 87 0c 2b be 47 50 2a be
       -0.041628253 -0.13722289 -0.16703998 -0.16632186
0002f0 5b 8d 1a be 0a ad 18 be 71 e8 f2 3d c2 11 f9 bd
       -0.15092985 -0.14909759 0.11860741 -0.1216159
000300 bc 30 09 be d6 ef b1 3d 34 22 10 3e 0a fc 05 3d
       -0.13397497 0.08688323 0.14075547 0.032711066
000310 e4 ce 17 3e 24 32 10 3e 7e 80 ee 3d 8f ec bd 3d
       0.14825016 0.14081627 0.11645602 0.092736356
000320 37 b6 1d 3e e4 4f 23 3e 7b ad 03 bd 4f ff 49 3e
       0.1540154 0.15948445 -0.032147866 0.19726299
000330 27 ac 2f 3e e0 74 c6 3c a3 c2 20 bd 01 ca d4 bd
       0.17155515 0.024225652 -0.03924812 -0.10390092
000340 e4 62 72 3e 1e 23 5a be d1 72 27 be 81 af 1f bd
       0.23670536 -0.21302459 -0.16352393 -0.038985733
000350 a9 de 96 3e 21 82 2c be 91 7d 26 3e 16 d1 e1 3d
       0.2946675 -0.16846515 0.16258837 0.11026208
000360 70 13 0a 3e 61 3f 3f 3e 95 13 1c be bb 55 67 3e
       0.13483977 0.18676521 -0.15241845 0.22591297
000370 18 fa b0 bd 06 a5 50 3d db 76 05 3c ef 90 f2 bd
       -0.086414516 0.05093863 0.008146013 -0.1184405
000380 87 f6 10 be f9 e4 82 be f8 90 d9 3d 46 cd 3e 3e
       -0.14156543 -0.25565317 0.10623354 0.18632993
000390 34 ac 4c be 76 c8 1e 3e 04 85 f7 bd 6e 57 a4 3e
       -0.19987565 0.15506157 -0.120859176 0.32097954
0003a0 15 8a 14 be 83 aa b0 3d 7f d3 98 3d 88 fe 9a be
       -0.14505799 0.086262725 0.07462215 -0.30272317
0003b0 15 f6 74 3e 68 29 47 be e1 06 8f 3e e1 21 5e be
       0.23921998 -0.19449389 0.27934936 -0.21692611
0003c0 52 0f 03 3e e7 43 67 be 1e 36 d4 3e 6f 27 99 3d
       0.12798813 -0.22584496 0.41447538 0.074782245
0003d0 b0 46 57 3e 88 65 be bd 83 d7 22 be 1c a3 3b be
       0.21023059 -0.09296709 -0.15902524 -0.1832394
0003e0 67 36 ce 3e 2a f6 0c be 1a 3e 9b bd 63 47 30 be
       0.4027588 -0.13765779 -0.07580204 -0.17214732
0003f0 1d 57 97 bc e1 a8 0c be 87 d8 2f be e0 8b a7 3e
       -0.018474156 -0.13736297 -0.17172442 0.32723904

prop_h_to_h.1.bias f4 [20]
000000 d0 bd 00 3e d7 91 70 bd 7f a7 52 3e d9 36 37 bd
       0.12572408 -0.058732834 0.20571707 -0.04473004
000010 d1 c2 83 3d 41 58 26 3e 52 60 d2 bd 03 6e 38 bd
       0.06433643 0.16244604 -0.10272278 -0.04502679
000020 c4 bf 97 bc ae ea 9b bd 29 d5 32 3e 43 f8 0f 3d
       -0.018524058 -0.07613121 0.17464127 0.03514887
000030 ab 86 46 bd 61 1f bb 3d 33 34 4c 3d d6 ab 1f be
       -0.048468273 0.091368444 0.04985447 -0.15592894
000040 25 b8 34 3e b4 f8 8b bd 21 27 2e be 08 e1 05 bd
       0.1764837 -0.06834546 -0.17007114 -0.03268531

prop_h_to_h.2.weight f4 [20, 20]
000000 da 00 3e 3e f4 21 bb 3d 89 4d 81 bd 4d 83 0c be
       0.18555012 0.091373354 -0.06313617 -0.13721962
000010 17 92 5b 3e a0 2f 01 be 6f 95 91 3e 74 7c 2f bd
       0.21442448 -0.12615824 0.2843432 -0.042843297
000020 97 9f 08 3e 2e c3 58 3d be 51 05 be 24 f8 04 3e
       0.13342129 0.052920513 -0.13019463 0.12985283
000030 cd 29 13 3e 6f d4 f6 bd e5 85 3f be 9b 51 67 3d
       0.14371414 -0.12052237 -0.1870342 0.05647431
000040 62 ad 24 bd 4f 5d 3e bd c7 0e 21 3e 4e fb 73 bd
       -0.040204413 -0.046475705 0.15728293 -0.059565835
000050 1f d0 17 be 93 0f 8f bd bd 7e d5 bd aa b3 8f 3d
       -0.14825486 -0.069853924 -0.10424564 0.0701669
000060 93 2f f3 bc 79 3b 5b 3e af 24 99 3d d4 e5 d6 bc
       -0.029685771 0.21409406 0.074777 -0.026232637
000070 76 91 f1 3d 17 43 3f be 4c 89 fd bd 8d 31 86 3e
       0.117953226 -0.18677936 -0.12379703 0.2620968
000080 72 6b a0 bb 18 7a ed bd 9f 52 99 3e 8a ae 8c 3d
       -0.004895621 -0.11595553 0.29945847 0.06869228
000090 5d 6f 81 be 0a 73 36 3e 67 92 a8 3d 75 65 25 3e
       -0.25280276 0.17817321 0.08231049 0.16151984
0000a0 48 4e a6 bc 2e 94 57 bd 58 ed f5 3d 47 81 05 bd
       -0.020301 -0.05263155 0.1200816 -0.03259399
0000b0 3a ae 9a 3d e2 7b 2a be 9c 52 a2 bd 34 a4 34 3e
       0.07552762 -0.1664882 -0.07925913 0.17640764
0000c0 03 02 51 3d a8 cf 39 3e e1 30 32 be f3 ab fc 3c
       0.05102731 0.18145621 -0.17401458 0.03084371
0000d0 b3 a7 98 3d 13 eb 4e 3e e8 a7 6e 3d 4d 4c 10 3e
       0.07453861 0.20206861 0.058265597 0.14091606
0000e0 ca 8f 5e 3d f1 fb 5e 3d 5c c1 aa 39 a7 14 06 bd
       0.054336347 0.05443949 0.0003256899 -0.03273454
0000f0 6e 73 e7 be ab 58 d8 bd 00 0e 75 be 74 cc 57 3e
       -0.45205253 -0.10563787 -0.23931122 0.21074086
000100 2d 32 8e be f9 86 ab bd 41 11 09 be b8 2c 46 bd
       -0.27772656 -0.08375353 -0.13385488 -0.04838249
000110 e9 97 f2 3d 10 44 39 bd a1 13 93 bd 51 56 07 3e
       0.11845381 -0.045230925 -0.07181478 0.13216521
000120 87 90 c9 bd 37 ea d8 be d1 fc c0 3e 46 bb 57 3e
       -0.098420195 -0.42366192 0.37692884 0.21067533
000130 d2 58 3f be 62 40 a9 3e 95 bb b0 bc cb dd 97 3e
       -0.18686226 0.33056933 -0.021573821 0.29661402
000140 ca 06 3a 3e 46 37 f6 bd 92 c3 48 3e aa 90 83 be
       0.18166652 -0.12022261 0.19605854 -0.25696307
000150 6e 00 8f 3c 8c d3 b2 3d 25 fc 49 3d 44 bc ac 3d
       0.01745626 0.087317556 0.04931273 0.08434346
000160 24 4b 92 3d de 0f 79 be 32 e7 c5 3d 1c 0a 47 be
       0.07143238 -0.24322459 0.09663238 -0.1943745
000170 9c 2f 44 3e 5d 01 1a be 76 cb cb bd 77 8c 62 be
       0.19158787 -0.15039583 -0.099509165 -0.22123896
000180 70 7b f4 bc a9 54 9d bd 1f b1 74 3e aa 2d 55 be
       -0.029844016 -0.07682163 0.23895691 -0.208182
000190 e6 ac 8b be 7f 48 45 be 27 e2 63 be c0 6c 0e 3e
       -0.2728035 -0.19265936 -0.22254239 0.13908672
0001a0 fe 39 12 3e ac 3d 30 3d 94 fa 1c 3d 45 1b d1 bd
       0.14279935 0.043027565 0.038324907 -0.102102794
0001b0 91 e0 97 3d 81 be 89 3c f6 5f 0b be e0 56 7a 3e
       0.074158795 0.016814472 -0.13610825 0.24447203
0001c0 7a 34 2b be 15 36 f2 bd 08 05 6f 3e b4 fe 19 3e
       -0.16719237 -0.118267216 0.23341763 0.15038568
0001d0 90 43 66 be 36 38 11 bd ea 8d 09 3e 98 fe 2b 3e
       -0.2248671 -0.035453998 0.13433042 0.16796339
0001e0 09 bc 3a 3e eb 4d 2a be d9 9d 22 3e 69 15 9c be
       0.18235792 -0.16631286 0.15880527 -0.30485085
0001f0 1c ab 85 bc 1c 2c 0f 3e 9a 79 56 3e aa 5e b0 3d
       -0.016316943 0.1398167 0.20944825 0.08611806
000200 e7 73 2a bd 33 a8 8f bd 5c 5a 84 bb bd a2 b6 bc
       -0.04161444 -0.07014503 -0.004039092 -0.022294397
000210 d2 12 07 3e 1e 78 83 bd 19 fa ca bc 01 62 68 be
       0.13190773 -0.06419395 -0.024777459 -0.22693636
000220 63 43 33 3e a2 0a 5b be e5 59 61 3e 97 27 64 be
       0.17506175 -0.21390775 0.22006948 -0.22280727
000230 2d 53 93 3d 47 ff 1f 3e 5a ba ae bd 09 2b 81 be
       0.07193599 0.15624724 -0.085316375 -0.25228146
000240 09 d2 46 bd 5e 10 13 3e 91 43 1d be 35 f9 29 be
       -0.04854015 0.14361712 -0.15357806 -0.16598971
000250 f1 8e 22 3d ce b3 2b 3d 36 2d 20 be 9d bc 99 be
       0.0396871 0.041919522 -0.15642247 -0.30026713
000260 a5 77 16 3e dd 2d 26 3d 6a fe 42 be 11 9a d1 bd
       0.14694078 0.040571082 -0.19042364 -0.10234464
000270 46 76 f9 3d e4 e4 0a 3d 4a 04 58 3e ce 02 33 be
       0.12180762 0.033909693 0.21095386 -0.17481539
000280 d8 f0 db 3c 3d 38 14 be 82 ee 05 3c b1 83 f4 3d
       0.026848242 -0.14474578 0.0081745405 0.11939181
000290 89 e9 2b be 81 78 29 3e 6b 1d 04 be 26 1a 16 3e
       -0.16788305 0.16549875 -0.12901847 0.14658412
0002a0 78 8c 3f 3e ae 95 06 3e 31 52 31 3e cd dd 09 be
       0.18705928 0.13143036 0.1731651 -0.13463517
0002b0 7e 28 49 be 76 fe b3 bd 0d 26 0a be 1e e2 5b 3d
       -0.19644353 -0.08788769 -0.13491078 0.05368244
0002c0 fb bf 80 bc a4 89 57 be 37 09 7f 3e e3 12 17 be
       -0.015716543 -0.210486 0.24905859 -0.14753298
0002d0 ee da 71 3d 91 fb 1a 3e 31 5b 16 be 5d 13 8b be
       0.05904668 0.15135027 -0.14683224 -0.2716321
0002e0 16 34 93 3e a6 e9 04 be d8 31 1a bc b9 4b b2 bd
       0.28750676 -0.12979755 -0.009411298 -0.08705849
0002f0 a8 89 fd bb 61 59 29 be a9 c2 1b 3e 0c ea 57 be
       -0.007737357 -0.16538002 0.15210976 -0.21085376
000300 18 0a 62 3e 20 d5 40 3e 96 64 46 be c9 a7 08 be
       0.22074163 0.188313 -0.19374308 -0.13345255
000310 18 e4 9f 3c b0 50 ed bd 3f 6b 0f be ac 2f 93 3d
       0.019517943 -0.115876555 -0.14005755 0.07186827
000320 6a 79 9e bd 7d 84 f8 bd 01 08 da bd 3f b2 82 be
       -0.07738002 -0.12134645 -0.10646058 -0.25526616
000330 d0 69 94 3e 78 00 e2 bd f9 e8 ca 3e 77 76 87 bd
       0.2898698 -0.11035246 0.3963087 -0.06614392
000340 29 fa ce 3d 2c d4 32 be 87 0d 67 3e 38 99 a3 bd
       0.10106308 -0.1746375 0.22563754 -0.079882085
000350 e3 64 91 3e 36 dc 27 3e 8a 61 95 be 40 02 62 be
       0.28397283 0.16392598 -0.2917598 -0.22071171
000360 18 f9 4f 3e 28 e5 73 be b0 53 d7 3e ff 43 fc bd
       0.20309865 -0.23817885 0.42056036 -0.12317657
000370 5a 71 6f 3d 66 fa 59 be 3f 90 f5 bd e1 2d 19 3e
       0.05845771 -0.21286926 -0.119904034 0.14958908
000380 2c bb b8 bd f4 15 cf 3b 18 54 c2 3d 48 34 ca bc
       -0.09020075 0.0063197557 0.09488696 -0.024683133
000390 54 00 25 3e 67 b3 e1 bd de 3d 38 be 86 37 a2 3e
       0.16113406 -0.110205464 -0.1799235 0.31682986
0003a0 b8 bb ac 3d 71 1d f1 bd e1 2e 9a 3e fe e6 13 be
       0.08434242 -0.11773194 0.3011389 -0.14443585
0003b0 0a 33 69 be 5e b1 59 3c ef 74 9b 3d 0c 74 44 3e
       -0.22773376 0.013286917 0.07590663 0.19184893
0003c0 39 f2 52 bc 95 82 13 be 4c 45 1f bc 5b 4d a7 bd
       -0.012875133 -0.14405282 -0.0097211115 -0.08169051
0003d0 ca 78 bc bd c0 64 40 be 7e 6b 33 3e 43 2f 79 bd
       -0.09202726 -0.18788433 0.17521474 -0.060836088
0003e0 e4 67 6c 3e 6e 56 63 3d 5c 71 81 be e6 cf 8b 3e
       0.23086506 0.055502348 -0.252818 0.2730705
0003f0 49 a9 59 3e 05 5a 85 3c 5c d3 84 be 3f 37 51 3e
       0.21255983 0.016278276 -0.25942504 0.20431231

prop_h_to_h.2.bias f4 [20]
000000 1d 8f 1b 3e 18 39 ac 3d 1c 88 19 3d 2d 1b b7 3d
       0.15191312 0.08409327 0.03748332 0.0894073
000010 5d 80 13 3c 15 ca c1 3b 4b 9c 19 bd 79 bc 72 bd
       0.009002772 0.0059139826 -0.03750257 -0.059261773
000020 28 6e 73 3b 00 96 fb 3d ed f7 ca bc b6 8a 0f bd
       0.0037144516 0.122844696 -0.024776423 -0.035044394
000030 9c 6a 43 be a5 35 0c bd 44 e6 4c bc 10 15 ce 3d
       -0.19083637 -0.034230847 -0.0125060715 0.10062611
000040 64 42 12 be 05 8c 96 bd e2 0d 2c bd 5d f4 19 bd
       -0.14283139 -0.07350925 -0.042005427 -0.03758656

prop_h_to_h.3.weight f4 [20, 20]
000000 b4 b4 1c be 76 f5 e2 3e 54 b7 cd be 34 07 96 3d
       -0.15303308 0.44327897 -0.4017893 0.07325593
000010 a8 c1 7d 3b 46 64 79 3e fb 2f 3e 3d fe f4 a4 3e
       0.0038720164 0.24354658 0.046432476 0.32218164
000020 c8 6a 0b be b3 0c cf 3e 8d 52 87 3c 70 8b 66 3e
       -0.13614953 0.40439376 0.016518855 0.22514129
000030 27 9c ea 3d 6d 52 d9 be c7 33 f7 bc 9f 34 a6 3e
       0.11455565 -0.42445698 -0.030176057 0.32462022
000040 ff 76 8d be 48 f1 ff bb 88 78 8c 3e d5 aa 6e 3e
       -0.2762985 -0.0078107454 0.27435708 0.23307355
000050 18 06 cd be 0d 53 c3 3e c0 bf bf be 9c 07 af 3e
       -0.40043712 0.381493 -0.3745098 0.34185493
000060 78 17 b6 be f4 a2 4d 3e 7a 86 58 be c1 91 96 3e
       -0.3556478 0.20081693 -0.21145049 0.29408076
000070 cc 6f 1b be 7f b6 39 3e 2f 76 e6 bd 91 e6 5d 3e
       -0.15179366 0.18136023 -0.112530105 0.21669985
000080 bc ac 06 3e 5b 77 bf be 44 52 93 bd bf bf 19 be
       0.1315183 -0.37395748 -0.07193425 -0.15014552
000090 55 0a bf be c1 33 87 bb 75 25 12 3e fd 6e 79 bb
       -0.3731257 -0.0041260426 0.14272101 -0.003806054
0000a0 a7 84 59 bc fb f3 0d 3c 83 bb a5 3c 9b 23 f1 3d
       -0.013276256 0.0086641265 0.020231014 0.11774369
0000b0 4a 98 13 3e 26 cc f8 bd 72 c8 18 3e 93 bf d4 bc
       0.14413562 -0.12148313 0.14920214 -0.025970256
0000c0 16 e1 ec 3d 8e fa 28 3d 85 2b 75 3e 5f 32 59 bd
       0.11566369 0.041254573 0.23942383 -0.053026553
0000d0 7a 51 c2 3c 8b b5 05 3e 02 fa 01 be d7 a6 5a 3d
       0.023720492 0.13057534 -0.12693027 0.053381767
0000e0 bf ac db 3d da a2 da 3c 43 64 40 be 8b 77 56 bd
       0.10726308 0.026688982 -0.18788247 -0.0523601
0000f0 3e 9b 6e be c1 be 00 3f ce 69 0e 3e 22 d0 17 3f
       -0.23301408 0.5029107 0.13907549 0.5930196
000100 8a d5 ca be 08 26 92 3e 15 be 32 bf ea e2 f8 be
       -0.39616042 0.2854464 -0.6982129 -0.48610622
000110 28 8a f8 3d b1 91 a7 be f3 89 19 bf 37 a5 92 3e
       0.12135726 -0.3272834 -0.5997612 0.28641674
000120 9f 25 15 be b2 33 93 be e3 1f 27 3e 5a 1d 73 3e
       -0.14565133 -0.28750378 0.16320758 0.23741665
000130 5c 0a 8c be 82 69 81 be 0c 5d ac bc ba 92 95 be
       -0.27351654 -0.2527581 -0.021040462 -0.29213506
000140 7a f6 51 be 35 91 b9 3d 14 a1 9e bd 2e 2c d1 3e
       -0.2050418 0.09060899 -0.07745567 0.4085402
000150 f6 33 27 be 23 c7 20 3e 3d a4 9d 3d ff db 08 3b
       -0.16328415 0.15700965 0.076973416 0.002088308
000160 7c 57 bb be 3d c3 f1 3d fe ed 28 be 8f 99 9f 3e
       -0.36590183 0.11804817 -0.16497037 0.31171843
000170 e5 57 39 3e 6a de 53 be 73 2c c8 bd 0d 69 2f 3e
       0.18099935 -0.20690313 -0.09774103 0.17129917
000180 2c e4 4d be 39 29 66 bc 9a 6e 75 3d 10 f9 26 3d
       -0.20106572 -0.014047914 0.05991993 0.04076487
000190 9d c7 e2 3d dd 42 b6 3d 96 a5 08 be 7d 7c 8f bd
       0.110732295 0.08899472 -0.13344416 -0.07006166
0001a0 62 34 3c be 3d e6 89 bd d6 83 6e 3e c6 a9 10 3c
       -0.18379357 -0.067333676 0.23292479 0.00882954
0001b0 89 d3 02 3e 2c a6 52 3e 39 12 81 3d 22 48 c5 3d
       0.12776007 0.20571202 0.06302304 0.09632899
0001c0 2b cc ef bc d3 eb 6a 3e a7 01 bd bd 0f 72 02 be
       -0.02927216 0.22941522 -0.09228831 -0.12738822
0001d0 ca 7b 1f 3e 69 af aa 3c 1c b9 81 3e fe 34 5b 3e
       0.15574566 0.020835595 0.2533654 0.21406934
0001e0 51 b8 89 3e 92 be 90 3d 97 b2 20 3d eb 10 19 3d
       0.26898435 0.070675984 0.039232817 0.03736965
0001f0 db dc 22 3e a5 6e 8a bd 8d af 3f 3e 4b 3e 8b bd
       0.15904562 -0.06759385 0.18719311 -0.06798991
000200 7d 92 04 3e 2c a7 96 3e fc 70 a2 3d 23 29 53 bd
       0.12946506 0.29424417 0.07931706 -0.051552903
000210 2d 33 1a be db b4 6c 3d e7 0e 2b 3e 98 71 fb 3c
       -0.15058585 0.057789665 0.16704904 0.030693814
000220 c7 9e 0d 3e 23 b1 34 3e 42 bf 6a 3b db 93 1f be
       0.138301 0.17645697 0.0035819565 -0.15583746
000230 e8 17 3d 3e 4b ac 8d be 1f bd 1c bc f4 b4 0e 3c
       0.18466151 -0.27670512 -0.009566574 0.008710135
000240 86 28 53 3e e6 54 83 be 4a ba 3d be bc a1 37 be
       0.20620927 -0.2565071 -0.18528095 -0.1793279
000250 ff 4f 66 3d 3d 5b 0a be 96 50 ed 3e 83 4b 7c be
       0.056228634 -0.13511367 0.46350545 -0.2463818
000260 fb ce 69 be 5d 1f 9d 3e ff f1 84 3d 4e 8d fc bc
       -0.22832863 0.3068799 0.064914696 -0.030829098
000270 e2 ee 8e 3e 15 e6 68 3e 57 8f 5f be 6e 42 a8 be
       0.27916628 0.2274402 -0.21832024 -0.32863182
000280 d7 ca 64 bd 74 5c aa 3d 54 c4 d3 3d 47 b5 42 3e
       -0.055857506 0.08318415 0.10340181 0.19014464
000290 17 9b 33 be 62 db ae bc ec 82 e7 bc 22 94 1a 3e
       -0.17539631 -0.021344844 -0.02826067 0.1509557
0002a0 98 c5 59 be 38 4b 05 be 1c 16 26 3e 5e dd 82 bd
       -0.21266782 -0.13016975 0.16219372 -0.06389879
0002b0 4c c7 35 3c 86 e4 1d 3d cd bf 6d be 5b fb 26 be
       0.011094879 0.038548015 -0.23217697 -0.16306822
0002c0 da 87 51 be 89 e9 b6 3c 92 f9 38 bd 16 24 72 bd
       -0.2046198 0.022328155 -0.045159884 -0.059116445
0002d0 72 5a 3e 3d ad 8f d0 bc 39 b9 f0 bd 50 9b e5 3d
       0.046472974 -0.025459135 -0.117540784 0.11211264
0002e0 40 2f 7d bd 10 db 02 bd 2a 0b 20 3e 6d f7 f4 3d
       -0.06181264 -0.031947196 0.15629259 0.11961255
0002f0 c9 14 9d 3c 22 99 54 be c4 4a 99 be a3 a8 44 bd
       0.01917495 -0.2076154 -0.29939854 -0.048012387
000300 94 69 83 3e 8f 10 a5 bd 31 42 a8 be c2 6b 5a 3e
       0.25666487 -0.08059799 -0.32863 0.21330169
000310 7c 09 96 be a5 76 ab 3a ed 9d 81 3e d4 3d 7d bd
       -0.2930411 0.0013081623 0.253158 -0.061826542
000320 71 09 db bd f7 72 0d 3e 24 fc e7 3d c1 de de 3d
       -0.1069516 0.13813387 0.11327389 0.10882331
000330 f3 99 36 3e bf 0a 60 3d e2 0c df bd 13 ef aa 3d
       0.17832164 0.05469775 -0.10891129 0.08346381
000340 ae cd 3c 3e 33 1b b0 bd f1 2b ab 3e 04 ea 08 bd
       0.18437836 -0.08598938 0.33431962 -0.0334263
000350 9a db 08 bd 5f 20 75 3d da b2 26 3e 26 c9 8d 3d
       -0.033412553 0.059845325 0.16279164 0.06923132
000360 7c 9e 13 be 7d 9a 06 3e 3c a7 2d 3d 02 ca 43 3c
       -0.14415926 0.1314487 0.042395815 0.011950018
000370 b4 88 4f be a5 8f 2d bd 6b 85 8c be 77 aa 50 3e
       -0.20266992 -0.04237332 -0.2744554 0.20377527
000380 ec 0a 6e be 64 a3 63 3e 1b 8c 18 3e af bf 91 3e
       -0.23246354 0.22230297 0.14897196 0.28466555
000390 0b 62 29 be 7b 38 c1 bd a5 1b ad be ab c0 d5 3d
       -0.16541307 -0.09434601 -0.33810154 0.10437139
0003a0 7d a3 bb 3e 80 50 27 bd e0 c9 b9 bc 3a 3b 84 3e
       0.3664817 -0.040848255 -0.02267927 0.25826436
0003b0 86 22 dd bc 37 52 87 be 57 36 78 3d ac 4f a6 bd
       -0.026994001 -0.26429912 0.060598698 -0.08120665
0003c0 f0 46 d1 bc 67 8d 06 be ad 02 3c 3e 90 42 d5 3d
       -0.025546521 -0.13139878 0.18360396 0.104130864
0003d0 cd 72 a8 3d 14 41 78 be c3 d4 6d bc c6 fa 8c 3c
       0.082250215 -0.24243575 -0.014516058 0.017209422
0003e0 c0 ee 5e 3d f9 b2 c0 bc a9 ac fe 3e 0c 2f 2b be
       0.05442691 -0.02352284 0.49741104 -0.16717166
0003f0 b9 fe 44 3d 09 a7 76 3e 33 ee 6b be d0 b3 27 3c
       0.048094485 0.24087156 -0.23040085 0.010235742

prop_h_to_h.3.bias f4 [20]
000000 7c b3 54 be 9c 9b 88 bd cc 10 71 bd be 81 b0 3e
       -0.20771593 -0.06670305 -0.05885391 0.34473985
000010 ec 28 38 be 84 ff 5f 3d 99 76 01 bb 8b fc 93 3c
       -0.1798436 0.054687038 -0.0019754528 0.018064758
000020 91 9d 6f 3d b4 b9 32 3d 37 8f bc 3d 36 e4 20 bd
       0.058499876 0.04363413 0.092070036 -0.03928014
000030 b1 aa 0d 3d c9 33 cc 3d ae 65 16 3d 29 a1 b0 3d
       0.034586612 0.09970815 0.036718063 0.08624489
000040 f0 db 52 3e cf 12 1e bd f2 f2 2e 3d 89 a9 e2 bc
       0.20591712 -0.038592156 0.04271216 -0.027668731

prop_h_to_h.4.weight f4 [20, 20]
000000 ed 26 88 3e e2 6f 9a 3b 7c b3 8a bc 20 fd 34 3e
       0.26592198 0.0047130445 -0.016931288 0.17674685
000010 70 11 56 3e 95 be 87 be b7 a9 0e 3c 85 a1 a0 3d
       0.2090509 -0.2651259 0.008707455 0.078433074
000020 52 17 79 be 95 04 fc bc 11 98 92 be 61 c6 48 3e
       -0.24325302 -0.030763904 -0.28631642 0.19606926
000030 4d 76 06 3d 26 0d 15 3e b2 4a 22 be 0d 39 89 3d
       0.032827664 0.14555797 -0.15848807 0.06700335
000040 ba 8b 2e be 52 bf c5 bd 8f 89 87 be 09 66 ed 3d
       -0.17045489 -0.09655632 -0.26472136 0.11591727
000050 fc c8 16 3e 1c 7b a3 3e c4 5d 2c bd bf a5 0e 3e
       0.14725107 0.31929862 -0.04208161 0.13930415
000060 38 94 a9 3d ce 59 4d 3e 26 ef 09 bd 96 e9 95 bd
       0.082802236 0.20053789 -0.033675335 -0.073199436
000070 04 17 01 3e 76 2c c2 3c ae ca d8 3d 40 cd f4 3d
       0.12606436 0.023702841 0.10585533 0.11953211
000080 6c ca 0e 3e 9e de 4e bd 6b d5 00 be 4d 5a 48 3e
       0.13944405 -0.050505273 -0.12581412 0.19565697
000090 73 fc f7 bd 5d 7a db 3d 65 6b a0 3d 6b 65 e8 3d
       -0.12108698 0.10716698 0.07832984 0.11347469
0000a0 5d 54 83 3e 01 65 2d 3e 72 98 f9 3c 10 41 20 be
       0.25650302 0.16933061 0.0304682 -0.1564982
0000b0 07 e7 f7 3d 9e 75 3e bc 54 e7 00 be 31 ea 6f be
       0.12104612 -0.011624722 -0.12588245 -0.2342918
0000c0 ec b8 48 be 78 9a 31 3e 9f bb 26 bc b2 cf 84 3c
       -0.19601792 0.17344081 -0.010176568 0.016212318
0000d0 1e ac 7b 3e 82 97 9f 3d 9c e0 1b 3e 1b bf 0e 3e
       0.24577376 0.0779257 0.152224 0.13940088
0000e0 cc 68 b4 bd 6f 3d f4 bd e4 85 1f be 1c de d5 bb
       -0.08809051 -0.1192578 -0.15578419 -0.0065267216
0000f0 14 52 86 3e af 54 36 3d b6 cb 93 bb c8 24 7a bd
       0.26234496 0.044514354 -0.004510368 -0.061070234
000100 ab 3f aa 3b 9a 35 48 be b9 20 4d 3e 8b 48 43 3a
       0.005195578 -0.19551697 0.20032014 0.00074494694
000110 e4 8c 3e bd c8 1b 20 3c 41 ed 29 be 11 6c 92 3d
       -0.046521083 0.009772249 -0.16594411 0.07149518
000120 20 d2 09 3d 00 79 b4 bc 05 5a cd 3c 6d ac 1f 3e
       0.033647656 -0.022030354 0.025067339 0.15593119
000130 35 33 10 bd 45 ff 0b 3e e6 fc 33 3e 8a c0 f1 bd
       -0.035205085 0.13671596 0.17576942 -0.11804302
000140 24 ec 2c bd aa 8f 8e bd 7a 34 2f be 91 47 14 3d
       -0.04221739 -0.069609955 -0.17109862 0.036201064
000150 2c 01 87 be 83 cb 77 bc a2 18 2e bc 61 c7 b4 3a
       -0.26368082 -0.015124205 -0.01062599 0.001379233
000160 07 87 09 3d 92 e0 d6 bd 0d f1 7f be 48 58 6a bd
       0.033576038 -0.10492052 -0.24994297 -0.057213098
000170 1b cb 7a 3b a2 3d 06 be 62 97 64 be b7 ef 5e 3d
       0.0038268033 -0.13109449 -0.22323373 0.05442783
000180 19 75 e0 bd 82 f4 dc bd ce 2d 38 3e 65 3f 24 3c
       -0.109598346 -0.10788824 0.17986223 0.01002488
000190 ea 30 d2 bc c6 93 d8 3c 34 89 a8 be af ec 57 3e
       -0.02565809 0.026437651 -0.32917178 0.21086381
0001a0 1a de 4f 3e 08 57 00 3e b4 71 0a 3d 09 95 1f 3c
       0.20299569 0.125332 0.033799842 0.009740123
0001b0 ff db 56 bd b9 bd 17 3d 72 b7 39 be 11 ed 49 3e
       -0.0524559 0.037046168 -0.18136385 0.1971934
0001c0 17 cf 81 bd 90 60 fd bd 17 8a 1e be 61 41 f7 bd
       -0.063383274 -0.123719335 -0.15482365 -0.12073017
0001d0 73 85 58 3d 28 f2 27 3e 83 66 f2 bd 5e 84 84 3d
       0.052861642 0.16400969 -0.11835959 0.064705595
0001e0 1d df 45 3d 41 8c be 3b 08 c8 9c bd 17 b2 94 be
       0.04830848 0.0058150594 -0.076553404 -0.29042122
0001f0 97 27 bc 3c e2 ab df 3d 7f d4 25 bd 9f 41 a6 3b
       0.022968097 0.10921456 -0.040485855 0.0050737406
000200 23 23 78 bc 86 4f 04 3e bd e0 0e 3e 00 72 8c 3b
       -0.015145096 0.12920961 0.13952918 0.004286051
000210 7b 59 16 3e b9 c8 e3 ba d4 d1 a3 bc be 7c 38 be
       0.14682572 -0.0017378546 -0.019997515 -0.18016335
000220 f9 46 7d be 5a b8 c5 3c b9 4a 08 3e bf 49 75 bc
       -0.24734105 0.024135757 0.13309754 -0.014971196
000230 ab 9a 2b bd 77 fa 56 3d 0d 0a c6 3d 59 82 bb 3d
       -0.04189555 0.052484956 0.09669886 0.09155721
000240 83 2d 20 be 91 f4 31 bd 19 9e 4b be 38 5e 0e 3c
       -0.15642361 -0.043446127 -0.19884528 0.008689456
000250 6f 40 98 3d 0c 35 64 be a3 79 ac bd fc 7d 30 be
       0.07434165 -0.22285861 -0.08421638 -0.17235559
000260 d5 4d 1e 3d c3 eb 90 3c f9 9a 06 3e 22 a9 b1 bc
       0.038648445 0.017690545 0.13145055 -0.021687094
000270 da 4d bc 3d de 25 01 be dc 87 59 3e 07 19 12 bd
       0.091945365 -0.12612101 0.21243232 -0.0356684
000280 c7 09 8d bd 23 4c 9b 3d 2c 8e 8c be 95 ed 90 3e
       -0.068866305 0.07582881 -0.2745222 0.2830626
000290 b4 40 85 be e8 5e fd bd 6d 53 75 be 57 40 84 3e
       -0.26025927 -0.123716176 -0.23957606 0.25830337
0002a0 78 1d 35 3e 49 83 51 3e 3f df d8 bb 04 45 a4 be
       0.17687023 0.20460238 -0.00661841 -0.32083905
0002b0 b9 45 02 3e bc 9d c1 bd 8f c7 47 3d 39 3e 07 bd
       0.1272191 -0.094539136 0.0487743 -0.033018325
0002c0 12 af 20 3e 93 11 b1 3d 6c a1 49 be 43 73 88 3d
       0.15691784 0.0864593 -0.19690484 0.066626094
0002d0 ae 58 c5 3b c3 dc d2 bb b2 84 4d 3c 84 e8 97 3d
       0.0060225343 -0.0064350083 0.012543844 0.07417396
0002e0 7f a1 b0 be 59 6c 12 3e 6a 8a 8c be 40 fc 98 3e
       -0.34498212 0.14299144 -0.27449352 0.2987995
0002f0 c2 14 4a 3e 0f 5d 7b be 74 e9 4b 3d 80 8e a2 be
       0.19734481 -0.24547218 0.049783185 -0.31749344
000300 86 d3 2f bd f8 98 1f bc 9b 9a 37 bc bc ef 19 3e
       -0.042926334 -0.00974106 -0.011206294 0.15032858
000310 55 b2 cb bd c9 ff 4f 3e 89 6f 81 bb 6c dc 40 be
       -0.099461235 0.20312418 -0.0039500636 -0.18834084
000320 84 80 66 be 2c 1a 89 bd d8 aa 15 3d 0d 47 30 bd
       -0.22509962 -0.06694445 0.036539882 -0.04303651
000330 f6 c0 ee 3c ba 52 d2 bd 80 4d 6f be 18 a1 a9 3b
       0.029144745 -0.10269685 -0.23369408 0.0051766746
000340 ba 7b 25 3e 72 31 28 3e ae 3a 5d bd 3f 17 a8 be
       0.16160479 0.16425112 -0.05401104 -0.32830235
000350 2f 10 61 be 94 c3 c2 bd aa da 1f be b5 a2 33 3e
       -0.2197883 -0.0950996 -0.15610757 0.17542537
000360 8b e2 cc 3c 4f ab 27 be 54 2b ed 3d 49 02 47 be
       0.025010368 -0.16373943 0.1158053 -0.19434465
000370 b4 c5 59 3e d9 8f 96 3d 34 24 bd 3c dc d3 77 3e
       0.21266824 0.073516555 0.023088552 0.24201912
000380 56 f1 a8 bd 2a 1d 3c 3e 3c a6 83 bd f7 29 9d bd
       -0.08249156 0.183705 -0.06428191 -0.0767402
000390 a4 d4 d1 3d 71 02 8c bd 55 7a 08 3e eb 56 df 3d
       0.10245636 -0.06836403 0.13327916 0.1090525
0003a0 6d 06 c8 3d 66 93 2c 3e 1d 9a 1f bd 05 e2 09 3e
       0.097668506 0.16853103 -0.038965333 0.13465126
0003b0 6b 67 c6 bd 1d 39 36 3e 4b 1f ab bd 58 85 72 3c
       -0.09687694 0.17795224 -0.08355578 0.014802299
0003c0 b5 18 54 be dc 64 e3 3c 55 91 1b bd d1 b1 09 3e
       -0.2071255 0.027758054 -0.037980396 0.13446738
0003d0 a6 35 31 be 65 04 4e be d0 d6 e8 3d 2a 70 80 3d
       -0.17305622 -0.20118864 0.11369097 0.062713936
0003e0 d4 37 d4 3d 6c 5a a4 bd 29 58 6e be 57 e4 02 bd
       0.10362211 -0.08025059 -0.23275818 -0.031956043
0003f0 b7 1f 2c bd bd 11 a4 bd d6 ba 98 3d 96 00 0d 3e
       -0.042022433 -0.08011196 0.07457511 0.13769755

prop_h_to_h.4.bias f4 [20]
000000 12 8b 04 3d d8 6e 3d be 46 2c 75 bd d1 87 66 bc
       0.03235919 -0.18499315 -0.059856676 -0.014070467
000010 75 7a f3 3d a2 49 37 be d4 de 04 be 4d 91 37 3e
       0.11888591 -0.17899182 -0.12975627 0.17926522
000020 d5 9b d3 3d 9d ef 70 3c 11 3f 92 3c 14 88 4b 3e
       0.10332457 0.014705566 0.017852338 0.19876128
000030 8a d4 d7 3d af 6a a1 3e ad 5d 08 3e 23 a3 4d 3d
       0.105385855 0.31526706 0.13316984 0.050204407
000040 9d 51 ce bd 12 bf 52 3e 12 dc 86 bd b8 6b d2 bc
       -0.1007416 0.205807 -0.06584944 -0.02568613

prop_h_to_out.weight f4 [1, 20]
000000 9f 46 54 bc 03 3f bb bc cb 33 55 3c 40 e7 6f bd
       -0.0129562905 -0.022857195 0.013012837 -0.058570147
000010 50 9b 76 3d a5 63 89 bd 66 c3 8a 3d 8e 95 3c 3a
       0.06020671 -0.06708459 0.067755505 0.0007193916
000020 96 04 26 bd 00 93 a9 3c ee 00 0a 3d 72 43 98 bd
       -0.040531717 0.020699978 0.033692293 -0.07434739
000030 08 2c f5 3c a7 19 bd bd 24 47 32 bd 82 d4 1f be
       0.029928222 -0.092334084 -0.043524876 -0.15608409
000040 8f eb 0b 3e 95 64 88 bd e4 df d6 3d 0e df db 3d
       0.13664077 -0.066598095 0.104919225 0.10735904
