model-prob/model-just-ddpg/just_theta/Q.pth (torch, 10898 bytes, 11 tensors)

prop_in_to_h.weight f4 [20, 3]
000000 ea d2 36 be d2 bf f4 3c 40 7d bd be 64 34 97 3e
       -0.17853895 0.029876623 -0.3700962 0.29532158
000010 6c 4d 0b 3e a5 f9 f3 3d 03 41 d0 be 3b bf 63 bd
       0.13603753 0.1191285 -0.406746 -0.055602293
000020 90 1b 88 be a1 26 b2 3d 28 1e 9e be 62 54 07 3f
       -0.2658353 0.08698774 -0.30882382 0.5286313
000030 07 ad 98 3b 4b dd 44 be 24 ab ca be ed 13 8b 3e
       0.0046592983 -0.19225042 -0.39583695 0.2716364
000040 d4 1a 0f be a8 f9 18 bf e6 e5 38 3e 2b c9 8e 3c
       -0.13975078 -0.59755945 0.1805645 0.017429909
000050 29 59 d9 3e 79 fa bd 3e 85 c0 52 bd 88 79 cf be
       0.42450836 0.37105158 -0.051453132 -0.40522408
000060 03 f9 0a 3f 8c a6 c5 3e 54 83 0e 3f 88 0b 17 3d
       0.5428621 0.38603628 0.5566914 0.03687623
000070 4c d7 09 3e f0 32 b1 be eb da c6 be b7 5e ff 3e
       0.13461035 -0.34609175 -0.38838896 0.4987695
000080 37 18 0e bd 01 76 88 be 71 85 e1 be e7 97 3f 3e
       -0.03469106 -0.2665253 -0.4404712 0.1871029
000090 b0 b1 eb 3d 3d b8 9f 3d 07 c4 b2 be 3e fd ae bc
       0.115085006 0.077988125 -0.34915182 -0.02136099
0000a0 19 90 03 bf 1a 86 a0 3e 1c 72 75 be d2 00 52 3e
       -0.5139175 0.3135231 -0.2396931 0.20508125
0000b0 90 c4 0a bf 89 5c 49 3e 62 77 1a bf ea ba 85 bd
       -0.5420618 0.19664206 -0.60338414 -0.06529792
0000c0 50 8a fd 3e eb f1 2a 3e 89 7f af bd 5f 81 50 bd
       0.49519587 0.16693847 -0.08569247 -0.050904628
0000d0 3f 31 a8 be 7a 8f 07 3f dc 3b d9 3d 5a fc b8 be
       -0.32850072 0.529533 0.106071204 -0.3613003
0000e0 4d c7 c6 bc ee e7 ce 3e b1 7f 84 3e 73 22 6e bc
       -0.024264956 0.40411323 0.2587867 -0.0145345805

prop_in_to_h.bias f4 [20]
000000 c7 57 92 be 91 b7 21 bf 8a cf 8b 3e 31 f3 97 3e
       -0.28582594 -0.63170725 0.27306777 0.29677728
000010 b7 19 c6 3e 01 4e 59 3e c1 e7 f8 3e 80 86 f1 3e
       0.38691494 0.21221162 0.48614314 0.47172928
000020 08 4a dd 3e f9 27 24 3f 62 e3 a7 3e 2e 46 4b 3e
       0.43220544 0.64123493 0.32790667 0.1985099
000030 64 14 9b bc a9 f7 b3 be d2 af 82 bd 24 60 e0 be
       -0.018930621 -0.35149887 -0.06381191 -0.4382335
000040 d3 53 93 be 33 50 92 3e 31 d7 ec be f6 0c b0 be
       -0.2877489 0.28576812 -0.46257928 -0.34384888

prop_h_to_h.0.weight f4 [20, 20]
000000 7d bf 12 be c2 c1 a4 3e 5a fb 99 be 58 54 78 be
       -0.1433086 0.32179075 -0.3007458 -0.24250925
000010 90 6d 40 3d b6 fe d1 bb 93 1c fc bd 93 8b d6 bd
       0.046979487 -0.0064085377 -0.123101376 -0.104758404
000020 05 1e 72 be 15 28 a2 be 01 e3 ce 3d 85 8b f2 bd
       -0.23644264 -0.31671205 0.10101891 -0.118430175
000030 37 89 17 be af e6 75 3e 35 c6 1c 3e 7a d1 6b 3d
       -0.14798437 0.2401378 0.15309985 0.05757282
000040 f6 fe c6 3d 78 6e 36 be 7d 8a 2e 3e ca 84 b0 3d
       0.09716599 -0.17815578 0.17045017 0.086190775
000050 8b a0 95 3d 53 62 9e 3e 18 3d 01 bd d0 ff 7a be
       0.07306012 0.3093439 -0.031552404 -0.24511647
000060 79 e0 65 be ca c1 e1 bd ed 00 f4 bc c1 29 80 be
       -0.22448911 -0.110232905 -0.029785598 -0.25031856
000070 4e 73 07 3d 12 17 2d be 0c 23 42 bd 14 46 9a 3d
       0.033068947 -0.16903332 -0.047396705 0.075328976
000080 79 b7 d6 bd 40 30 4d 3e 66 bb 2a 3e 84 5c 64 bc
       -0.104842134 0.20037937 0.1667305 -0.013938073
000090 b5 64 91 bc 90 5b 49 bc 21 90 2f bd 15 ee 90 3e
       -0.017748216 -0.012289897 -0.04286206 0.28306642
0000a0 b0 69 c1 3d 69 e8 a2 bd 9c 06 f9 3d 06 ff b7 3d
       0.094439864 -0.07954485 0.12159464 0.08984189
0000b0 35 c0 6f bd 82 e3 08 bd bd 50 30 be d1 da 72 3d
       -0.058532912 -0.033420093 -0.17218299 0.05929071
0000c0 a0 7e 0a be d0 bc 3e 3d 75 37 8c 3e ec 8b 81 3d
       -0.13524866 0.046566784 0.2738606 0.06325516
0000d0 fc 18 cb 3c ec d8 ab 3d 14 97 3b be 90 36 b2 3d
       0.024792187 0.08390984 -0.1831935 0.08701813
0000e0 91 42 a4 3c c9 b9 66 3d 57 de ce bd 45 fc af bd
       0.020051273 0.056329522 -0.10101002 -0.085930385
0000f0 44 f7 22 be 6e 94 9e be 61 82 0b 3e e6 25 e3 3d
       -0.15914637 -0.30972618 0.13623954 0.11091213
000100 ee fb 82 3e d0 54 86 3d 38 ad de 3d 20 c4 25 3d
       0.25582832 0.065591455 0.108728826 0.040470243
000110 d4 e2 1c 3d d8 e5 ca 3d ec a4 a8 bd c5 28 ab bd
       0.038302258 0.099071205 -0.08234581 -0.083573855
000120 c7 75 b1 bd 96 41 1e be 34 1b 01 3e ee ea 2d 3d
       -0.08665042 -0.15454707 0.12608033 0.042460375
000130 6f 20 71 bb 46 b7 87 3e 94 c2 01 bd c2 5a 91 bd
       -0.0036793014 0.26507014 -0.031679705 -0.07097389
000140 7f 61 2a 3e 5c a3 9e bd 80 b6 a7 3d 5f 96 e0 3b
       0.16638754 -0.07746002 0.08189106 0.006853863
000150 b0 4d a3 3d 42 da 9a bd 55 0b 03 be 4b 3b 72 be
       0.07973802 -0.075611606 -0.12797292 -0.23655431
000160 54 1b 3f bc 3b 85 ae bd 2c ee 01 be 39 0e 38 bb
       -0.01166423 -0.085215054 -0.12688512 -0.002808465
000170 71 ec 13 be 2c 73 30 3e 14 66 ae bd 88 f3 b5 3d
       -0.14445664 0.17231435 -0.085155636 0.088843405
000180 56 ba a0 3d 9c 9c f2 bd 64 b4 22 3e cc d6 b8 3c
       0.07848041 -0.11846277 0.15889126 0.02256336
000190 ef fc 3e 3c 57 c3 aa 3e 45 ca 95 bd 6f 6f 8c be
       0.011656984 0.33352157 -0.073139705 -0.27428767
0001a0 f3 d7 8c be f6 64 2c be 44 15 d2 3d c4 f4 ee 39
       -0.27508506 -0.16835389 0.10257962 0.00045577262
0001b0 bc 44 93 be c8 46 9e bd 2a 96 59 be 49 94 af bd
       -0.28763378 -0.07728344 -0.2124869 -0.08573205
0001c0 e9 46 3f 3e f9 06 82 3e 89 c2 47 be b1 eb a5 3e
       0.18679394 0.25395945 -0.19507803 0.3240638
0001d0 ae 14 57 3e 2c 91 64 bd c8 ab a6 3e 5b 4d 17 bc
       0.21003982 -0.05580251 0.32552934 -0.009234752
0001e0 21 8c 08 3e 22 0a d7 bd 38 0d c7 bd 5f 5c 66 be
       0.13334705 -0.104999796 -0.09719318 -0.22496174
0001f0 57 7c 5a 3d 71 32 5f be f9 cf 73 bd 3a 8b b4 bd
       0.053341236 -0.21796586 -0.05952451 -0.08815618
000200 1f 08 c9 bd c7 1c 1d be 46 9f c2 bc fb d3 4d be
       -0.09816002 -0.15343009 -0.023757588 -0.20100395
000210 9b c7 22 3e df 8d 0a 3c 1e f2 ff bd 47 2c 68 3e
       0.15896456 0.008456676 -0.12497352 0.2267314
000220 c6 45 94 3d 11 80 18 3e b0 31 3f 3e a9 dc 94 3e
       0.07239871 0.14892603 0.18671298 0.290746
000230 2e 02 a1 3d f2 b9 6f 3e fc bc 1e ba fb 53 db bd
       0.07861744 0.23410776 -0.00060553825 -0.107093774
000240 e9 62 6c be ca bd d2 bd 3e 31 be 3d 6c 06 8b bd
       -0.23084606 -0.10290106 0.09286736 -0.06788334
000250 78 25 79 be b5 bb 9a be 1d 61 2d be 8b d8 d0 bd
       -0.243307 -0.30221334 -0.16931577 -0.10197552
000260 14 5a 08 be ae 1a 17 3e 58 c4 02 bd fe 3c 23 3e
       -0.13315612 0.14756271 -0.03192553 0.15941235
000270 5c 4e 8c 3e 8e be 75 be 95 12 c0 3d 0f 3b 39 3e
       0.27403533 -0.23998472 0.09378544 0.18088935
000280 80 bb 4c 3e 51 9d 4a bd cf 41 67 bc dd 7a f7 bc
       0.199934 -0.049466435 -0.014114811 -0.030209953
000290 39 69 ba 3c 90 e8 cc bd c1 c3 8a bd c5 b7 59 be
       0.022755252 -0.10005295 -0.06775618 -0.21261509
0002a0 44 ca eb bd b5 fb cb 3b 39 95 9f be 90 a6 09 be
       -0.115131885 0.006225074 -0.31168535 -0.13442445
0002b0 41 4f 4d be cc d4 10 3e 4c 99 ba bd 59 a4 b0 3e
       -0.20049764 0.14143676 -0.0911127 0.34500387
0002c0 07 0e e4 3d 60 c3 5c bd 53 61 86 3e 3b 4c 83 3e
       0.11135488 -0.05389726 0.26246127 0.25644097
0002d0 c2 3e 2e be 16 bd 0f 3e ab 3e aa be 2c 54 57 be
       -0.17016128 0.14036974 -0.33250937 -0.21028203
0002e0 48 af d4 3d 7b 18 f8 bc 39 4f 97 bd 57 06 2f bd
       0.10384995 -0.03028511 -0.073881574 -0.042730656
0002f0 cd bc 06 3e 03 ef 31 bd d8 ed b5 3d 4b 7e 60 bd
       0.1315796 -0.04344083 0.08883256 -0.054807942
000300 6a db 47 3e 0a a5 cf 3d 39 e1 46 3e 5b 62 12 3d
       0.19517294 0.101389006 0.19421853 0.03573833
000310 42 f7 03 be fb 2e 3c 3e 71 57 cf 3d 92 91 82 bc
       -0.1288729 0.18377297 0.101241 -0.015938554
000320 bc 00 86 3d 86 4c 6d 3e 1f 9b 90 bd a5 fc fe bd
       0.06543109 0.23173723 -0.07060837 -0.12450532
000330 34 55 fd bd fd 29 d1 bc 89 e8 a3 3d ec d2 a7 bd
       -0.12369767 -0.025532717 0.08003337 -0.08194527
000340 e6 51 ac bd e9 f6 93 be 95 fd bf 3d 8e 30 dd bd
       -0.084140584 -0.28899315 0.09374539 -0.10800277
000350 4d 9d c1 3d cc 59 12 be 58 44 86 3c fc 83 b2 bd
       0.09453831 -0.14292067 0.01639001 -0.0871658
000360 31 f2 ba 3d 1d d3 a9 3d 49 e2 db bd 77 83 a1 3e
       0.091282256 0.0829222 -0.1073652 0.31545612
000370 99 e9 65 bd 7b a9 d7 3d d0 19 da 3c 7a 1a 6c bb
       -0.05613098 0.10530373 0.026623636 -0.0036026523
000380 4c a7 86 be b2 45 b6 bd a3 ec e9 bd 22 19 3c be
       -0.26299512 -0.08900012 -0.11422088 -0.18368962
000390 7c 6e fe bc f2 3c 80 bd 26 5d 3b bc c1 6c 01 3d
       -0.031058542 -0.062616244 -0.011435783 0.031597856
0003a0 07 e4 95 bc 17 ac ed bc 25 e1 cc bd c7 b6 19 3d
       -0.018297208 -0.029012723 -0.100038804 0.037527826
0003b0 ec 2f 17 bd 11 76 2f bd 3c 89 b6 bd 9b b1 73 3e
       -0.036910936 -0.042837206 -0.08912894 0.2379822
0003c0 c7 33 6d 3d e2 51 81 3e bf d0 ae 3d 01 e0 d1 bd
       0.057910707 0.25257784 0.08535909 -0.102478035
0003d0 4f ad db 39 22 70 2a be e0 7b cc 3c c7 9e 84 bd
       0.0004190006 -0.16644338 0.024961412 -0.06475597
0003e0 1c 34 2a be 85 b9 42 be 86 30 b9 3c d6 7c 9d bd
       -0.1662144 -0.19016083 0.022606146 -0.07689826
0003f0 74 61 1e 3e 84 82 19 3d 5e 6f 9b 3d 00 e8 a4 3d
       0.15466863 0.037477985 0.07589601 0.08052063

prop_h_to_h.0.bias f4 [20]
000000 a7 87 3f bd 7b 00 dc 3d b1 c4 73 3e e8 b9 07 3d
       -0.046760228 0.10742279 0.238055 0.03313628
000010 a8 ed 8b be bc 6e 2c be fa 35 44 be 65 c9 ae bd
       -0.27329755 -0.16839117 -0.19161215 -0.08534507
000020 c7 ee 99 be d4 05 50 be 56 ca 5a be 0d c0 7b be
       -0.30064985 -0.20314723 -0.21366248 -0.2458498
000030 e3 15 99 bd b6 4b 29 be aa c8 5d be 15 dc 2e be
       -0.07474878 -0.16532788 -0.21658579 -0.17076142
000040 c0 1a 43 3e 6d 38 98 3e 9e 51 11 be 7e f1 9d be
       0.19053173 0.2973055 -0.1419129 -0.30848306

prop_h_to_h.1.weight f4 [20, 20]
000000 97 fe 44 bc be e8 99 3d 3b 36 27 3e 30 85 f2 3d
       -0.01202359 0.07515095 0.16329281 0.1184181
000010 4e 24 0f 3e 70 76 40 bb 0f d6 7a bc 7d e3 75 3e
       0.13978693 -0.002936747 -0.015309825 0.24012561
000020 cc aa b7 3d bc b2 4b 3e 5f e8 e3 bd 1e 4a 8a 3e
       0.08968124 0.198924 -0.11128306 0.27009672
000030 c9 ae 80 bd 2d 15 37 3e ab b6 7a 3d 18 7d 8c bd
       -0.062833376 0.17879172 0.061209362 -0.06859797
000040 91 eb 3c be 98 6a 91 be 6b 21 23 bd c3 b0 e8 3c
       -0.18449236 -0.28401637 -0.03982679 0.028404599
000050 45 03 95 3e 16 9e 78 3c d9 55 63 be 37 7f af bd
       0.29104057 0.015174409 -0.22200717 -0.08569186
000060 27 1c 9a 3d f2 5e 86 3e 02 b1 b8 3d 05 e1 b0 3d
       0.07524901 0.26244313 0.090181366 0.08636669
000070 58 30 ce bc eb bd 2c bd 38 d0 c3 3d 58 df 96 3e
       -0.025169536 -0.042173307 0.09561199 0.29467273
000080 4e 58 78 bd 35 52 ac 3c 41 d4 80 3e 9c c5 98 3e
       -0.06063109 0.021035293 0.25161937 0.29838264
000090 19 0b 6b be 32 28 7b be 2a 8a 23 3e 61 05 69 3e
       -0.22953452 -0.24527052 0.15970674 0.22755958
0000a0 db 38 4b be 59 48 bb 3d 25 c9 86 3e 44 b0 00 3e
       -0.19845907 0.091446586 0.26325336 0.1256724
0000b0 90 45 8f be b6 8c 76 bd 41 40 58 3d 9b 06 a1 3c
       -0.2798276 -0.060192786 0.052795652 0.01965647
0000c0 44 bc 59 bc d5 6c e3 bd 27 16 aa be 2d f0 9b be
       -0.013289515 -0.111047424 -0.33220026 -0.30456677
0000d0 ce 60 41 3d 91 06 01 bd 39 ea 3a be 55 a0 4e be
       0.04721146 -0.031500403 -0.18253411 -0.2017835
0000e0 24 91 25 3e 3b 47 79 3e 3f 22 68 be fd 8b fe 3c
       0.16168648 0.24343579 -0.22669314 0.031072611
0000f0 e3 16 24 be 92 52 4b 3d 57 b9 9b bd d9 56 aa 3d
       -0.16024356 0.049639292 -0.0760371 0.08317346
000100 c3 1c a0 be 6a 5c ac bc 3c 72 38 be a4 d7 74 be
       -0.31271943 -0.02104016 -0.18012327 -0.23910385
000110 8d 16 70 3d 7f 9a 51 be c6 8e 90 be 0e ff 53 bc
       0.058615256 -0.20469092 -0.28233927 -0.012939228
000120 8a 64 9c bb d9 56 60 bd bb 0d 8d be 6a 09 5f be
       -0.0047727274 -0.054770324 -0.27549538 -0.21780935
000130 5b d5 54 3e 6c a8 94 3e 42 1a 75 bc b0 1b 07 be
       0.20784514 0.29034746 -0.014959874 -0.13194156
000140 10 63 fb bc 98 17 07 be cd 3d 31 bc 98 b9 eb bd
       -0.030686885 -0.13192594 -0.010817957 -0.115100086
000150 44 8a 38 be be 96 7f be 6f f1 1d bc 92 54 7c 3d
       -0.18021494 -0.24959847 -0.009640082 0.06160409
000160 38 bb 90 be 7c 17 b9 3c 90 11 32 3d ce ea 5e 3d
       -0.28267837 0.022594206 0.04347378 0.054423146
000170 cb a0 30 be 6b b5 e8 bd 78 7d 67 be ea 8f a6 be
       -0.17248838 -0.11362728 -0.22606456 -0.32531673
000180 3c b5 1b 3e 7e f9 83 3e f9 1c 21 be 88 91 93 be
       0.15205854 0.25776285 -0.15733708 -0.2882197
000190 c7 5b d0 3d 8f b5 50 be 0d 11 3f 3e c8 24 52 3e
       0.10173755 -0.20381759 0.18658848 0.20521843
0001a0 d3 da 63 be bf 1d 81 be c3 47 70 bd d9 ec 91 be
       -0.22251444 -0.25218007 -0.058662187 -0.28501013
0001b0 19 24 42 3d c4 68 4c bc 73 b2 42 be 0f a3 2b be
       0.047397707 -0.01247615 -0.19013385 -0.1676142
0001c0 c5 d2 08 be 96 9c 11 be 51 01 88 be 0e 21 9c be
       -0.13361652 -0.14219889 -0.26563504 -0.3049397
0001d0 9b 35 88 3d 8e 90 83 3e 2a e2 1f bc 56 66 0f bd
       0.066508494 0.25696224 -0.009758512 -0.035009705
0001e0 30 bd 80 be 81 9c 3f 3e 5e 46 19 3e 95 86 fd 3d
       -0.2514434 0.18712045 0.14968249 0.12379185
0001f0 a2 d6 ad 3d 32 2c 9c be 8c be a9 3d 94 68 a9 be
       0.084882036 -0.30502468 0.08288297 -0.330876
000200 88 a3 9f be c3 12 10 be 74 1d 8d bd ee e3 92 be
       -0.31179452 -0.14069657 -0.06890383 -0.28689522
000210 8b e4 c8 3a 51 68 87 bd 1c 6c 8b be ab 94 33 39
       0.00153269 -0.06611694 -0.27230918 0.00017126153
000220 af 90 0d 3e 1d 5c 6b 3e 78 47 82 3d c8 bf 4d be
       0.13824724 0.22984357 0.06361288 -0.2009269
000230 d9 82 83 be 2e ca 08 be 03 ee 62 3d 9b 81 07 3d
       -0.25685766 -0.13358375 0.055402767 0.033082586
000240 49 97 85 be f7 68 73 be 69 1b 0d be f3 e4 00 be
       -0.26091984 -0.2377051 -0.13779987 -0.12587337
000250 d2 0b 98 bd 8d 69 ae bc bb 01 75 be ee ba 00 3e
       -0.074241295 -0.021290565 -0.23926441 0.12571308
000260 e8 c1 b6 bd cb b5 8e be 28 8e 09 be c6 ba 0a bd
       -0.089237034 -0.27873072 -0.13433135 -0.033869527
000270 b7 ec b1 bc fe 6c b4 3d cd 1d f9 bd 77 67 96 be
       -0.02171932 0.08809851 -0.12163887 -0.29375812
000280 84 50 cd 3c 8f 4d 39 be 05 98 fb bd f1 f8 a2 3d
       0.025062807 -0.18095993 -0.12284855 0.07957638
000290 b6 ae 46 be 45 54 0e be 6d 30 0e 3d d6 b1 11 be
       -0.19402584 -0.13899334 0.03471415 -0.14227995
0002a0 34 de 63 bd 7a ee 8c bd b2 d2 30 be 9e c9 0c be
       -0.05563183 -0.06881423 -0.17267874 -0.13748786
0002b0 e3 72 f7 bd 7e a3 51 be b7 e1 a8 bd d5 10 cd 3c
       -0.1208246 -0.20472524 -0.08246177 0.02503244
0002c0 19 cb e3 bd dd fb 64 3e 2e 7c a4 bd 44 75 bf 3d
       -0.11122722 0.22361703 -0.08031498 0.093485385
0002d0 d3 c0 18 be dc a2 8a 3d cb 01 2b 3d ca fd 30 3e
       -0.14917307 0.06769344 0.041749757 0.17284313
0002e0 a9 8e 9b 3d 9d 0f 69 be 40 20 59 3d ee be 8f bc
       0.0759557 -0.22759862 0.05300927 -0.017547097
0002f0 05 16 81 be 18 2e b7 bd 76 01 32 be 9e 75 3e be
       -0.25212112 -0.089443386 -0.1738337 -0.18599555
000300 0c b8 3e be 87 ef 77 be 45 11 99 bd f1 5e b2 3c
       -0.18624896 -0.24212466 -0.07473997 0.021773787
000310 8c a7 c8 bd c6 32 97 3d d8 59 3c be dd b7 78 be
       -0.09797582 0.07382731 -0.18393648 -0.24288888
000320 56 e2 48 3e 94 be a5 3d df b2 d2 bc d7 29 71 bd
       0.1961759 0.080929905 -0.025720058 -0.058877792
000330 fa 2a a2 3e 6c 85 3d 3e 6d 57 49 3e 95 a6 1f 3e
       0.31673414 0.18507928 0.19662257 0.1559089
000340 29 8e b6 3d a7 2c ea bc 88 e7 74 3e 6d 1b 40 3e
       0.08913834 -0.028585745 0.23916447 0.18760462
000350 f8 08 42 3d d4 77 28 bd 39 7e 84 3e f5 40 48 3e
       0.047371835 -0.041129902 0.2587755 0.19556029
000360 98 15 11 be a9 74 93 be ad 19 91 3e 03 6e 81 3e
       -0.14168394 -0.28799942 0.28339902 0.25279245
000370 48 bf a7 bd 66 b7 71 bd 68 8a 15 3e 9e 3e 5d 3e
       -0.08190781 -0.059012793 0.14603579 0.21605918
000380 7c 76 56 be f0 9c a7 be bd e5 48 be 97 2b 73 be
       -0.20943636 -0.3273692 -0.19618888 -0.23747097
000390 c6 2d 21 bd 93 5b 9c bd bf aa 88 bd 11 0b 6e be
       -0.039350294 -0.07634654 -0.06673192 -0.23246409
0003a0 b7 d5 e1 bd b5 cd 13 be 96 90 4e be 1e c2 5e be
       -0.11027091 -0.1443394 -0.20172343 -0.21753737
0003b0 b4 3c 9a 3e b5 d1 80 3e 24 4e 9f 3d 1f 58 12 be
       0.30124438 0.25159994 0.07778576 -0.14291428
0003c0 c0 bf 9c be 34 66 54 be cd 45 05 be 58 e1 81 3e
       -0.30615044 -0.20742112 -0.13014908 0.25367236
0003d0 4c 9b 19 be 5e c8 85 3c 2b 1e 9d be 55 c1 56 3c
       -0.15000647 0.016330894 -0.3068708 0.013107617
0003e0 e9 7e 85 be 9e fe 84 3c 04 dd 15 bd 05 61 e5 3d
       -0.26073387 0.016234692 -0.03658773 0.11200146
0003f0 14 5d 08 be 8e 82 4d be 90 e3 58 be 93 ea 1d 3d
       -0.13316756 -0.20069334 -0.21180558 0.038553786

prop_h_to_h.1.bias f4 [20]
000000 61 ab 3b be a0 d1 8f be 64 67 cd 3d 44 0b 5c 3e
       -0.18327095 -0.2808962 0.10029486 0.21488672
000010 5d 6f 62 3e ec 97 a5 3e 1c be a8 3e f7 fd 13 3c
       0.22112794 0.3234247 0.32957542 0.009032718
000020 55 40 89 3e 79 30 8f 3d 4f 3d 49 be 27 02 9e 3e
       0.26806894 0.06991667 -0.19652294 0.30861017
000030 45 3f 3b 3e 02 63 86 3d 36 e8 44 3d 3c e2 4c be
       0.18285854 0.06561853 0.048073016 -0.20008177
000040 d0 ad 5f be e8 b4 c5 bd da 5e 00 be 50 53 93 be
       -0.21843648 -0.09653646 -0.12536183 -0.287745

prop_h_to_h.2.weight f4 [20, 20]
000000 ef 7a 93 3d 45 22 44 bd f4 9f c1 bd a3 68 88 bd
       0.07201182 -0.047884244 -0.09454337 -0.06660583
000010 36 43 6f bd 30 07 fb bd 4e cb dd bb b5 e0 26 3d
       -0.058413707 -0.1225723 -0.0067686206 0.04074164
000020 db a1 3b bc 0b 30 f8 bd cb 42 f8 3d 83 78 a5 be
       -0.011452164 -0.121185385 0.12122115 -0.32318506
000030 03 fb 0a be d3 b6 04 be f1 94 4f 3d f9 94 c6 bd
       -0.13572316 -0.12960367 0.05067915 -0.09696383
000040 aa b1 a0 3c e7 54 ef bb ff cf 24 3e 57 42 30 3e
       0.019615967 -0.0073038223 0.16094969 0.17212807
000050 ef 89 a2 3e bf 47 83 3e e3 77 cf 3a dc f5 1c bc
       0.3174586 0.25640675 0.0015828576 -0.009580102
000060 33 7f 75 be 2a 9e 45 3b 9c c4 94 be 03 77 00 3e
       -0.23974304 0.0030154088 -0.2905625 0.125454
000070 c8 6e 1d bd 1b 27 82 3d 29 a6 84 3e aa b1 af be
       -0.038435727 0.06355115 0.2590802 -0.34315234
000080 63 35 36 3d 17 79 dc bd 45 8e 21 3e d0 3a 04 3e
       0.044484507 -0.107652836 0.15776928 0.1291306
000090 9d 5c 42 3e 71 b9 80 3e 31 51 08 3d a3 83 89 3e
       0.18980642 0.2514148 0.033280555 0.26858243
0000a0 11 00 d0 3d 04 7e 2b be ce fa 8b 3e 5b 93 67 bd
       0.10156263 -0.1674729 0.27339786 -0.056537014
0000b0 09 e8 b8 bb 19 80 76 3e 6d d1 0e bc 6a 5a a1 3e
       -0.005642895 0.24072303 -0.008716923 0.31514293
0000c0 2d cc 8f 3d b1 9d 54 3d 5e cb b2 3d 76 79 30 3e
       0.07021365 0.0519082 0.087301955 0.17233834
0000d0 f2 50 b2 3c 5b 79 83 3e 1d 2a a6 bc 17 fc 67 be
       0.021767113 0.25678524 -0.020283753 -0.22654758
0000e0 c9 de 33 3e 77 3c be bd 91 ce 16 3e b0 06 8e 3d
       0.17565455 -0.092888765 0.14727236 0.06934869
0000f0 e6 9a 65 3e 23 5f 01 3e 7c eb 48 be a1 67 23 be
       0.2242237 0.12633948 -0.1962108 -0.159575
000100 a4 a5 29 be df 2d a0 be ab c9 5e be 87 ee 9e bd
       -0.16567093 -0.31284997 -0.21756618 -0.07760339
000110 32 71 fe bc 63 2b 65 3d f6 fe a5 3e 11 a3 92 be
       -0.031059835 0.05594958 0.32421082 -0.28640035
000120 de ec 9b bc 00 69 63 bd eb 9d 15 3d 66 a7 41 3e
       -0.019033846 -0.055520058 0.036527555 0.18911514
000130 57 9e a3 3e f7 7f 5f 3e 75 87 8a 3e 40 3d 03 3e
       0.3195674 0.21826158 0.2705647 0.12816334
000140 6f cd ed bc cc 2a 95 3e 90 cd 98 be de ca 86 be
       -0.029028622 0.29134214 -0.29844332 -0.2632665
000150 b9 a0 26 be 50 f8 7e be c4 ea 51 be 73 4e 86 be
       -0.16272248 -0.24899411 -0.20499712 -0.26231727
000160 62 a7 83 3d de b5 94 be 6a 8e 6e 3e 3f b3 c0 3c
       0.0642841 -0.29045004 0.23296514 0.023522971
000170 14 b5 7d bc f6 18 86 bc 3a 8e 6b bc 64 8c 3f 3e
       -0.015485067 -0.016369324 -0.014377171 0.18705899
000180 a0 81 9a 3e 5d db 49 3e d8 49 01 3e 42 1c 15 3e
       0.3017702 0.19712587 0.12625825 0.14561561
000190 38 3e 2d bd d0 54 d4 bd 52 ba 31 3e 81 2f 89 3c
       -0.042295665 -0.10367739 0.17356232 0.016746284
0001a0 cf 09 d2 3d ce d2 53 3e a9 f9 45 3e 94 99 7d 3e
       0.10255777 0.20685884 0.19333519 0.24765617
0001b0 54 f6 30 3e 8c fe 0a be 01 e8 4a bc f8 be 1c bc
       0.17281467 -0.13573664 -0.012384416 -0.009567015
0001c0 ff 44 11 be 77 fb 42 3d c1 cd 1c be 70 13 85 3d
       -0.14186476 0.047603097 -0.15312864 0.06497848
0001d0 01 54 1e be dd ff b9 bd e4 f4 84 bc d9 c2 70 bd
       -0.15461732 -0.09082005 -0.016230054 -0.05877957
0001e0 b7 ee b1 3d 61 32 7a bc d1 d5 c8 3d 2b e5 30 3d
       0.08688109 -0.0152708 0.09806407 0.0431873
0001f0 23 df 2a bc 10 f1 e6 3d d7 31 79 3c 6a cf 51 3e
       -0.0104291765 0.11276448 0.015209637 0.20489278
000200 38 de b0 bc ba 98 27 bd 9f 31 6f 3d 32 84 1b be
       -0.021590337 -0.040917136 0.05839693 -0.15187147
000210 90 0f 0d be b2 57 84 bd f6 5b ad 3d 14 d6 70 bd
       -0.13775468 -0.06462039 0.08464806 -0.05879791
000220 44 3b f0 3d dc 1b 05 be e0 e3 8b bc 45 e9 7f be
       0.11730054 -0.12998909 -0.017076433 -0.24991329
000230 bc 82 f5 3c a1 b7 3c 3e a2 40 3d be 10 03 77 bd
       0.029969566 0.18429424 -0.18481687 -0.060305655
000240 6a 56 81 be 82 cc 38 be 82 c8 47 3d 47 50 4b be
       -0.2526124 -0.18046764 0.048775204 -0.19854842
000250 3e 17 bc bd 47 b9 39 be 0b 45 67 3e 37 40 a3 be
       -0.091841206 -0.18137084 0.22584932 -0.3188493
000260 3e 5e a2 be 49 50 2f bd 51 8d 1e 3e b6 4e bf 3d
       -0.31712526 -0.042801175 0.15483595 0.09341185
000270 d4 ed 6b 3e 30 eb c5 bc 31 90 ea 3d b7 17 84 bd
       0.23039943 -0.024159998 0.114532836 -0.06449836
000280 c5 54 29 3d 1b 31 42 bc 79 3f 6d 3e 3c 0a 15 be
       0.04134061 -0.011852528 0.23168744 -0.14554685
000290 f1 5f 16 bd d3 1d 3d 3d e0 d8 d4 3d 40 88 32 3e
       -0.03671259 0.04617102 0.10392928 0.17434788
0002a0 ea be a3 3d e0 c9 db bd 9e 9c 51 be 6c 31 20 bd
       0.07995398 -0.10731864 -0.20469901 -0.039109632
0002b0 2c 6c d1 bd 10 94 fc 3c 6a 1c 9a bd dd 63 73 bd
       -0.1022571 0.03083232 -0.07524951 -0.05942141
0002c0 72 7a bb 3c 22 e8 06 bc 82 01 93 be d6 ee 4a be
       0.022885535 -0.008234056 -0.28712088 -0.19817671
0002d0 1e 57 a7 be 2e 5a 85 bd 42 e5 6c bd 69 6d 35 3e
       -0.32683653 -0.06511341 -0.057835825 0.17717518
0002e0 88 fe 49 3c 52 07 d2 3d 53 b3 fb bc bb d5 ee bd
       0.012328751 0.102553025 -0.030725157 -0.116618596
0002f0 e2 f6 5c 3e 6d a9 ef 3d bb 15 ad be 8f 3f e9 3c
       0.21578553 0.11702237 -0.33805642 0.02847269
000300 e2 f2 56 3e 06 50 06 3e 4d 6c 1d be 3c 52 1e 3d
       0.2099109 0.13116464 -0.15373345 0.038652644
000310 a7 8c 37 3d 5b 60 b1 bd 94 26 33 be 68 df 24 be
       0.04481187 -0.086609565 -0.17495185 -0.16100848
000320 86 ce 75 3d b8 5c 7d 3e f3 65 65 bd fc 50 bf 3d
       0.06001141 0.247424 -0.05600543 0.093416184
000330 a0 ee f2 bc c4 5e 13 3d fd aa 9b be a3 31 11 bd
       -0.0296548 0.035979047 -0.3040389 -0.035447728
000340 41 1c 2f 3c c3 bc 19 be 9b 58 a2 3c 80 5d c0 bd
       0.010687889 -0.15013413 0.019817641 -0.09392834
000350 76 8e fe bd 30 87 a9 bd 49 74 5c 3e 23 49 07 3e
       -0.12429516 -0.08277738 0.21528734 0.13211493
000360 14 01 39 3e b4 71 ce 3d 2a 1c d6 3d 5e c4 9f bd
       0.18066818 0.10080281 0.104545906 -0.07801126
000370 5a 75 80 bd 7b d4 db 3c a5 18 8d bd 4b 02 17 be
       -0.06272383 0.026834717 -0.06889466 -0.14746968
000380 6f 2b c3 bd ad 2e 12 3d 24 b9 bb bd 7b f6 19 be
       -0.09529769 0.035689045 -0.09166172 -0.15035431
000390 8d bf 38 bd 03 86 37 3d cc c2 3f 3c 08 6b d4 3d
       -0.045104552 0.044805538 0.011704158 0.10371977
0003a0 18 11 37 3e 7d 20 ba 3c a2 51 0e 3e bf 42 41 3e
       0.17877614 0.02272057 0.13898328 0.18873118
0003b0 7a 54 96 3d 99 df 10 3d d9 66 b5 3c c9 00 be bd
       0.073403314 0.03536949 0.022143768 -0.092774935
0003c0 7d 9e 26 bd b2 66 58 be c2 87 a2 bc df b0 35 3e
       -0.04067849 -0.21132925 -0.019840125 0.17743252
0003d0 28 c7 27 be d2 13 5e 3e 3b 0b fd 3d c6 b0 de bc
       -0.16384566 0.21687248 0.12355658 -0.027183902
0003e0 cd 08 55 bc 9b 44 88 3d b9 ff 3e 3d fc 69 1c 3e
       -0.013002587 0.066537105 0.046630595 0.15274805
0003f0 30 0c b1 3d d5 1b 8d 3d 24 7d 22 3e 38 16 f0 bd
       0.08644903 0.06890074 0.1586805 -0.11722988

prop_h_to_h.2.bias f4 [20]
000000 ac f8 56 be 28 24 3e be cd f3 16 3e 41 85 20 bb
       -0.20993298 -0.1856848 0.1474144 -0.0024493488
000010 b3 ab 71 be 70 17 23 3e 7f c6 b0 bc 14 57 91 be
       -0.23600654 0.1592691 -0.021579025 -0.28386748
000020 a0 e1 2f 3e 7c 7e 75 3e ea 6a 9c be b9 97 08 3e
       0.17175913 0.23974031 -0.3055032 0.13339128
000030 9d 80 e7 bd bc 92 6a be 68 2b 74 3e d5 7b 89 3e
       -0.11303828 -0.22907537 0.23844683 0.2685229
000040 4b 4c b9 bd c5 c4 7c 3c 5e 18 57 be e1 32 4c be
       -0.09047755 0.015427773 -0.21005389 -0.19941284

prop_h_to_h.3.weight f4 [20, 20]
000000 41 36 e1 3d 5e 93 46 3d bf c6 7d bd 98 9d 21 3e
       0.10996676 0.048480384 -0.061957117 0.15782773
000010 90 7a 53 bd 83 2f 7b 3c 77 da 39 3e 0e 05 e0 3d
       -0.051630557 0.015331152 0.18149744 0.10938464
000020 14 8d 7b 3c 68 c6 45 bd 2a 81 2d 3e cd 51 04 bc
       0.01535346 -0.048284918 0.16943803 -0.008076143
000030 fb 8f 1d be 1c db 9c 3e 45 36 60 be 25 8e d3 bd
       -0.15386955 0.30635917 -0.21895702 -0.10329846
000040 a3 f3 a0 3d 25 46 11 3d 41 1e 3f 3d df 79 81 3e
       0.0785897 0.035467286 0.04665971 0.25288293
000050 40 6c 90 3d bb d2 43 be 3c 62 f7 3d c8 b4 bb b8
       0.07051897 -0.19123356 0.120792836 -8.950528e-05
000060 0c e0 ca bd cc af ad bd 78 77 03 be 31 69 16 be
       -0.09906015 -0.08480796 -0.12838542 -0.14688565
000070 84 2c 51 3e 0e 44 06 3d 4b 1a 5e bc 40 d9 10 3e
       0.20427138 0.032779746 -0.013556073 0.14145374
000080 8e a6 52 3e 05 92 e9 bd 85 bc a4 3d 54 b3 06 3e
       0.20571348 -0.11404804 0.0804377 0.13154346
000090 78 57 71 bd f7 5b 00 3e f3 52 4a be a5 af ac bd
       -0.058921307 0.12535082 -0.19758205 -0.08431939
0000a0 a5 a0 70 be 89 a3 63 3d 02 90 d8 3c 07 16 86 bc
       -0.23498781 0.05557588 0.026435856 -0.016367925
0000b0 ab 88 59 be 78 39 11 3e e0 5a 15 bd 3c 5c 82 bd
       -0.21243541 0.14182079 -0.03646362 -0.063652486
0000c0 57 72 16 3e 31 76 14 bd d9 01 44 bd 5d 1f a4 bd
       0.14692055 -0.03624553 -0.047853325 -0.080137946
0000d0 79 07 f2 bd b0 b0 e3 bc 04 12 57 bd 21 53 9a 3e
       -0.118178315 -0.027794212 -0.052507415 0.30141547
0000e0 24 90 86 be 0f f8 25 3e ba 4a 5e 3d bf 18 a5 be
       -0.26281846 0.16207908 0.054270484 -0.32245442
0000f0 0d 98 8d 3d e9 18 d7 3d 38 97 d2 bd bc 93 43 3c
       0.06913767 0.10502798 -0.10282749 0.011937078
000100 4b e0 08 3e 19 ba 89 3d 8a 16 69 bc ba d4 61 3d
       0.13366811 0.067249484 -0.014226565 0.055134512
000110 ba 93 4e bd 03 7d 72 be 87 3c 80 3e d1 4c d1 bd
       -0.05043385 -0.236805 0.2504618 -0.1021973
000120 99 a7 42 be ed cd bf 3c 89 06 61 be 2b 04 1e be
       -0.19009246 0.023413623 -0.21975149 -0.15431277
000130 e7 15 65 3e 40 61 6a be cd e5 aa 3d 21 04 93 3e
       0.22371636 -0.2288866 0.08344612 0.28714088
000140 6d 1e d0 3c c0 b9 fc 3d 73 a5 d3 bd 11 bc 63 3d
       0.025405133 0.123401165 -0.10334291 0.055599276
000150 7a 49 78 3d 6e 55 eb bd cf 2a 0f be b4 01 2c 3e
       0.060616948 -0.11490904 -0.13981174 0.16797525
000160 ad 29 a6 3c f6 b6 b8 bd 2f 32 af 3e 0a 5a ac 3d
       0.020283544 -0.09019272 0.34217975 0.08415611
000170 fd 35 c0 3d 5a 70 7c bd a8 33 3c be a2 63 aa 3d
       0.093852974 -0.061630584 -0.1837908 0.08319785
000180 66 f4 15 3e c6 f5 18 3d b4 ea 19 3e c3 dd 2b 3e
       0.14644012 0.037343763 0.15030938 0.16783814
000190 99 d9 d6 bd 67 3e 37 be 85 38 8a 3e 25 43 52 be
       -0.10490722 -0.17894898 0.26996246 -0.20533426
0001a0 14 5d a9 bd 0f b5 9f bd 58 09 36 3e 16 e7 8f be
       -0.08269706 -0.07798206 0.17777002 -0.28105992
0001b0 8a fa 20 3e cd 49 d4 3d 11 c0 90 3c db d1 05 be
       0.15720573 0.10365639 0.01766971 -0.13068335
0001c0 82 e2 a4 bd 2b 9f e6 bd 26 04 bc 3d fa 4d a7 3e
       -0.080510154 -0.11260828 0.09180479 0.3267668
0001d0 0b 66 79 be 6d 95 c3 3d d7 1e 09 3d c2 67 08 be
       -0.24355333 0.09549985 0.033476677 -0.1332083
0001e0 41 69 2f bd 1e cc 08 be 50 2f a1 3c 30 96 59 be
       -0.042824987 -0.13359115 0.01967588 -0.21248698
0001f0 12 ef 79 be e1 ee 3a 3e ab 29 9b 3d 8b ac 2f bd
       -0.24407604 0.18255188 0.07576307 -0.04288916
000200 92 c7 ca 3d e4 ad b6 3c 01 c3 70 be b8 d4 ce bd
       0.09901346 0.022299714 -0.23511888 -0.10099167
000210 fe c9 2e 3e ed 0c d2 bd 5e 78 10 3e 12 9c ae 3e
       0.17069241 -0.10256372 0.14108416 0.34103447
000220 41 fa 95 be b8 1c a4 3d c8 e9 24 be e3 e0 c7 bd
       -0.2929249 0.0801329 -0.16104805 -0.097596906
000230 f8 ae 31 be 37 49 9d be a1 42 71 3e e6 70 8a be
       -0.17351902 -0.3071992 0.23560573 -0.2703926
000240 50 c1 78 3d f8 71 70 3e 19 75 89 3c b5 18 79 3d
       0.060731232 0.23480976 0.01677947 0.060814578
000250 81 72 d9 bd e0 e9 89 3e 61 c4 79 be 3e c0 15 bd
       -0.10617543 0.26936245 -0.24391319 -0.03656029
000260 01 68 19 be b2 b2 c4 bd 01 d1 a8 3d 2c 4d 9c 3e
       -0.1498108 -0.09604396 0.08242989 0.30527627
000270 1b bb 64 be 51 33 2f 3e fe 6c 92 be 06 97 56 be
       -0.22337 0.1710942 -0.2859878 -0.20956048
000280 24 5a 42 be 8e 54 51 be 6d 8b 23 3e 85 75 6c be
       -0.18979698 -0.20442411 0.15971155 -0.23091705
000290 9a 5e 61 be cc ae db bb 58 80 77 bd ae 62 a0 be
       -0.22008744 -0.006704187 -0.060425133 -0.31325287
0002a0 cc 01 d6 bd 32 50 5e bd 8f fb cf 3d e3 2b 9f bd
       -0.104495615 -0.0542757 0.10155403 -0.077720426
0002b0 db 21 9d 3d 12 5f 7f 3d 8f 85 90 3c 05 c6 92 3d
       0.07672473 0.062346525 0.01764181 0.071666755
0002c0 a5 1d 56 be a2 4a 33 3e e2 ce 8a be d2 63 1f be
       -0.20909746 0.17508939 -0.27110964 -0.15565422
0002d0 5e ba ae 3d 6a 50 5f 3e 03 25 af bd cc 76 bf bd
       0.085316405 0.2180802 -0.08551981 -0.093488306
0002e0 67 20 37 3e 5c 92 44 bb e5 6a 17 bd 8b 3e 05 3e
       0.17883454 -0.0029994464 -0.036967177 0.1301214
0002f0 95 fe 9c 3d 5d 80 92 3d ca b5 22 3e 61 a1 79 be
       0.07665745 0.071533896 0.1588966 -0.24377967
000300 d4 74 43 3d 9d 79 cb bd 8b eb e4 3d d5 c5 f9 3c
       0.047718838 -0.09935305 0.11177739 0.030489841
000310 dd ff 9d bc c6 3f d0 bd 13 3d 88 3e b7 ae 77 3e
       -0.019287044 -0.10168414 0.26609096 0.24187742
000320 68 f1 8f be 31 b5 0d be ce 9e 30 3c 3c 1e 5e be
       -0.28113866 -0.1383865 0.0107800495 -0.21691221
000330 d8 4a 52 be fe 76 f1 bc df 86 09 be 44 d0 77 be
       -0.20536363 -0.029475685 -0.13430355 -0.24200541
000340 af 36 39 3e 8c 5f 63 3e 65 45 76 bc ed ec 14 3d
       0.18087266 0.22204417 -0.015031193 0.036358763
000350 d7 f4 ac 3d 42 9c a3 bd 34 5f a6 3e 1f a7 7f bd
       0.08445137 -0.07988788 0.3249451 -0.06241524
000360 96 c8 12 be 54 02 67 3e 51 a3 13 be 2f e9 3e be
       -0.1433433 0.22559482 -0.14417769 -0.1864364
000370 75 d7 af bd 46 e8 79 be 7f fa 9d 3e b6 37 93 be
       -0.08586017 -0.24405012 0.30855176 -0.28753442
000380 81 a4 a0 bd 59 b8 a2 bd 12 43 05 be 0e 1d 11 3d
       -0.07843877 -0.07945318 -0.13013867 0.0354281
000390 57 36 88 3e 3f c9 f5 3d 07 5e b4 be 28 ad 36 3e
       0.26603958 0.12001275 -0.35227987 0.17839491
0003a0 43 2b 58 3d d6 60 82 be dd 9c 92 3e 45 0f 88 bd
       0.052775633 -0.25464505 0.28635302 -0.066435374
0003b0 e2 de 88 be 1d 4f cb 3d 6a 71 5d be ac 28 2a be
       -0.26732546 0.09927199 -0.21625295 -0.16617078
0003c0 15 b3 46 3e 69 21 e6 3d 99 4d e8 3c 1d b6 a2 3e
       0.19404252 0.11236841 0.028357314 0.31779566
0003d0 6b 83 0f 3c 5c ee 18 bd ce fb 1f be 49 17 63 3e
       0.00875936 -0.037336692 -0.156234 0.22176851
0003e0 a3 19 b6 bd 4d 4b a8 be d8 c6 70 3e 83 aa 44 bd
       -0.088916086 -0.3286995 0.23513353 -0.048014175
0003f0 d8 2a 5f be 67 91 15 3e d7 96 04 be 66 32 d1 bc
       -0.21793687 0.14606248 -0.12948166 -0.025536727

prop_h_to_h.3.bias f4 [20]
000000 ee 8c 3e be 5e 1e 79 bd 3c ec c7 3d 56 bf 1a be
       -0.18608448 -0.060819976 0.09761855 -0.15112051
000010 78 f6 8b be 02 ba 04 3e b3 1a 5f 3e 91 0d 9a 3e
       -0.27336478 0.12961581 0.21787529 0.30088475
000020 51 1a 8d 3e 13 cb f0 3c 29 db 07 3e 52 97 b2 3e
       0.2755914 0.029393708 0.13267197 0.34881073
000030 8b d2 39 bc b5 5c 22 3e 4c db f7 bd 06 2a 03 bd
       -0.011341701 0.15855677 -0.121023744 -0.0320225
000040 6c 79 c6 3d 72 14 c8 3d 5e 1e 4d bd ad 6c 1e be
       0.09691128 0.09769525 -0.05007779 -0.15471144

prop_h_to_out.weight f4 [1, 20]
000000 5a 34 f3 3d d1 7e 67 bd ad fd 1c be c3 9d 7c 3e
       0.1187522 -0.056517426 -0.15331145 0.24669556
000010 7b e2 54 3e af ba 96 be 7b a7 ab be c9 e4 43 be
       0.2078952 -0.29439303 -0.33526215 -0.19130243
000020 a8 a1 fa bd 86 ef 39 3d 8e 97 96 be 50 0c 02 be
       -0.12237865 0.045394443 -0.29412502 -0.1270001
000030 d6 21 5c 3e 35 bf 5d be ec a7 a7 3e 74 be 29 3e
       0.21497282 -0.21654971 0.32745302 0.16576558
000040 43 d9 1e 3e b5 72 22 3e 46 9f 85 bd cd 6a a4 3e
       0.15512566 0.1586407 -0.065245196 0.32112733
