model-prob-all-pmt-chnge/just_k/model.pth (torch, 102372 bytes, 34 tensors)

gru.weight_ih_l0 f4 [15, 1]
000000 a3 53 c6 be ae 93 b9 3d b3 7c 21 be 74 34 d8 bd
       -0.38735685 0.09061371 -0.15770225 -0.1055688
000010 c1 6a cd be 07 9c 1d bf 8b 01 65 be 36 ba 0c bf
       -0.4012051 -0.61566204 -0.2236387 -0.54971635
000020 17 b5 5e be 13 a0 76 3e 16 63 d0 3e 35 97 0a bd
       -0.21748768 0.24084501 0.40700597 -0.03383561
000030 9c 0c c8 be ee d0 63 be 3a 97 83 3d
       -0.3907212 -0.22247669 0.064253286

gru.weight_hh_l0 f4 [15, 5]
000000 71 7d a1 3e 47 48 b1 3e 77 b9 09 be f3 3d 80 be
       0.31541017 0.34625456 -0.13449655 -0.25047264
000010 42 5c 9a be 3c 81 59 3e 0c eb 9c 3e 59 ad 42 be
       -0.30148512 0.21240705 0.30648077 -0.1901144
000020 53 31 80 be 69 5f bc 3e 40 70 79 3e 3e f9 d3 be
       -0.2503763 0.36791542 0.24359226 -0.41401094
000030 af 32 bf 3b 11 31 d5 be 23 13 92 bd 96 2b 9a 3e
       0.0058348994 -0.41638997 -0.07132556 0.30111378
000040 8d a8 b6 bd b5 bf 9c 3e 79 75 20 bd ab 8a 81 be
       -0.08918867 0.3061501 -0.03917453 -0.25301108
000050 33 10 f4 3d 0e 93 e6 be 96 73 8b 3e 5b ea c4 be
       0.11917152 -0.4503407 0.27236623 -0.3846005
000060 d1 ca 80 be 33 d6 8b 3f 46 7d 2c 3e 00 9c 37 3e
       -0.25154737 1.0924743 0.16844663 0.17930603
000070 4a e6 35 3f 77 5c 97 3d e5 a7 4c be e4 41 4a be
       0.7105452 0.07390683 -0.19985922 -0.19751698
000080 c3 00 73 3e 67 a1 54 be 92 d2 51 be 99 e2 ac 3e
       0.2373076 -0.20764695 -0.20490482 0.3376663
000090 23 04 e9 3e ff 98 6d 3e ed 00 8b 3f 6b d7 de 3e
       0.4551097 0.23202895 1.0859658 0.43523726
0000a0 79 72 96 be c7 c7 b6 3d ea 00 1a 3e 49 bc df be
       -0.2938421 0.08924823 0.15039411 -0.43698338
0000b0 55 d6 44 be 82 97 bb 3e 0b 13 00 bf 3d c3 49 3d
       -0.19222386 0.3663903 -0.5002906 0.04925846
0000c0 40 3e 8b bc 3c 13 db be bf 16 cf 3e 8b d0 b1 3e
       -0.016997457 -0.42788112 0.4044704 0.34729418
0000d0 67 9d 2c 3e 00 d6 20 3d 23 93 44 3e 1b 5a 8d 3e
       0.16856919 0.039266586 0.19196753 0.27607808
0000e0 e1 00 a9 bd 90 f4 4e 3e c0 8a 80 bd 96 ff 20 be
       -0.08252121 0.2021048 -0.062764645 -0.15722498
0000f0 9a 53 fa be 16 5f 8e 3e 28 5c 39 3d 2a 46 bb 3e
       -0.48891908 0.2780692 0.045253903 0.36576968
000100 be e7 9e be 84 eb de be ab be 3d 3d 5d da 0b 3e
       -0.3103618 -0.4353906 0.046324413 0.13657518
000110 3d 8b b6 3e 89 80 61 3e 59 9c a9 3e d7 45 8f 3e
       0.35653105 0.22021689 0.33127096 0.2798297
000120 67 4d 2c bd e5 db e6 be df a9 51 3e
       -0.042066004 -0.4508964 0.20474957

gru.bias_ih_l0 f4 [15]
000000 20 f2 e4 bd af 43 ab 3d 99 9b ba be 08 ae b4 bc
       -0.11178994 0.08362519 -0.36446837 -0.02205564
000010 cd fa ae be c0 fa 2d be ca 6e 97 bd 40 77 16 bf
       -0.3417572 -0.16990185 -0.07394178 -0.5877571
000020 50 dd aa 3e 64 6a 23 3e 44 fb 99 be 71 32 48 be
       0.33371973 0.15958554 -0.30074513 -0.19550492
000030 68 a0 25 3d 25 12 35 be 56 86 78 be
       0.04043618 -0.17682703 -0.24269995

gru.bias_hh_l0 f4 [15]
000000 89 9f d8 bc b7 d7 9e 3d 6f cc 0d bd 84 2c 1b be
       -0.02644326 0.07755988 -0.03461879 -0.151537
000010 a7 70 7c 3e e7 c3 1b bf c1 6a bb be e5 32 d1 3c
       0.24652348 -0.608458 -0.36604884 0.025536964
000020 e0 df 4b 3e 57 de c6 be 88 b8 91 be 4e 79 2e be
       0.1990962 -0.38841507 -0.284611 -0.17038462
000030 ae 77 a0 3d e0 06 bd bd 26 f1 31 bd
       0.07835327 -0.09229827 -0.043442868

gru.weight_ih_l1 f4 [15, 5]
000000 81 96 7f 3d 91 86 e0 bd 64 2f 95 3e ff 02 e7 3e
       0.06239939 -0.109631665 0.2913772 0.45119473
000010 28 28 3a be a3 92 f5 bd 4f e7 95 3e 9b 07 02 bf
       -0.18179381 -0.11990859 0.29278037 -0.50792855
000020 50 eb f4 3d 2b 5d ab be 9b c8 90 be da da ec bc
       0.11958945 -0.3346952 -0.2827805 -0.02891295
000030 22 bf c6 3d 4a e2 47 be 2d b1 31 3e 05 5a 4f 3e
       0.097044244 -0.19519916 0.17352743 0.20249183
000040 b0 8a 1a bf 48 bf 90 3d 2b 00 15 bf 36 06 34 be
       -0.6036787 0.07067734 -0.5820338 -0.17580494
000050 1e 43 86 be 1a cc a2 be 0d a7 78 be ef 5c be 3e
       -0.2622308 -0.31796342 -0.24282475 0.37180278
000060 c4 5d 7c bd db 8d 9b 3f 4c 1b 12 3f 53 47 a8 3f
       -0.06161286 1.2152666 0.570729 1.3146766
000070 d5 e4 2b 3f 2e 03 19 3f 86 a5 9c 3e 95 6d 7a be
       0.67146045 0.59770477 0.30595034 -0.24455865
000080 65 42 bb be 05 57 a0 be a6 8f 8d 3e c8 49 d1 3e
       -0.36574093 -0.3131639 0.27648658 0.40876603
000090 ab ef ea bd aa 92 26 be c8 34 a4 be ce 57 68 be
       -0.11471494 -0.16266885 -0.3207152 -0.22689745
0000a0 c1 2d bd 3e e4 70 71 3e 3b b3 00 3f 8d ae de 3e
       0.3694897 0.2357822 0.50273484 0.43492547
0000b0 0b a0 f0 3e e7 09 a0 3e 51 12 98 3d f5 d0 15 3f
       0.46997103 0.31257555 0.074253686 0.5852197
0000c0 a8 29 07 3f f3 a2 16 be d7 55 14 bf 17 1d e7 3d
       0.5279794 -0.14710598 -0.5794348 0.11284845
0000d0 0a 97 fa bd 1f 0d bb 3e 00 85 ab be 0a 71 83 be
       -0.1223584 0.36533448 -0.33499908 -0.2567218
0000e0 05 45 9e be 78 8e 6a be 01 a0 52 3e 9c 53 c9 3d
       -0.30912033 -0.2290591 0.20568849 0.098304
0000f0 b3 77 a4 3b 28 fe 45 3e d6 ed 7a be 3f 95 32 bd
       0.005019152 0.19335234 -0.2450479 -0.043599363
000100 b1 b0 b8 be d3 2b 13 3f b7 f7 06 be 13 67 55 be
       -0.36072305 0.57488745 -0.13180433 -0.20840101
000110 6b 2c 2b be 87 12 d0 be 4f 0d 0b bf ac 7e d5 3e
       -0.16716163 -0.40639135 -0.5431718 0.41698205
000120 4b 52 66 3e 22 77 ad 3e a2 21 14 be
       0.2249233 0.33879954 -0.14465955

gru.weight_hh_l1 f4 [15, 5]
000000 c5 a9 2c 3e f6 9a 17 bd 2c ba d1 be ff d0 8e 3e
       0.16861637 -0.037013017 -0.4096235 0.27893826
000010 56 ad 8c 3e 26 5f 01 be 9d 70 aa 3d 61 a4 cb be
       0.27475995 -0.12633952 0.083222605 -0.3977385
000020 1e 23 a2 3e 80 75 d6 be 48 36 dd 3e 7b 32 45 3e
       0.31667417 -0.4188652 0.43205476 0.19257538
000030 0a 67 b4 be cb 67 30 bf ae 4c b5 3d d0 b0 fd 3d
       -0.35234863 -0.68908376 0.08852516 0.1238724
000040 31 6c aa 3e a8 b2 de 3e b5 32 05 be 30 19 c2 be
       0.33285668 0.4349568 -0.13007624 -0.37909842
000050 1f 4e 4c be 3b aa d7 3e b5 25 c2 bb d5 81 86 bd
       -0.19951676 0.42122063 -0.005924905 -0.06567732
000060 ac 15 75 3e 15 d0 88 3f 65 3c 60 bf 0c fa 8e bf
       0.23934048 1.0688502 -0.87592155 -1.1170058
000070 2c 6a dc 3c b3 74 38 3f a9 66 58 bf 41 21 07 bd
       0.026906095 0.7205307 -0.84531647 -0.032990698
000080 ac b4 f5 bc 5d ba 1f 3f f8 b3 b9 be 4f 3d 4b bf
       -0.029993378 0.6239374 -0.36270118 -0.79390424
000090 bf 97 5f be 0a 69 72 3e 29 55 97 3e 9b a3 df be
       -0.2183523 0.23672882 0.2955716 -0.4367951
0000a0 29 7b 44 be 9a ff ef 3d e4 bb 2e be a5 20 02 3f
       -0.19187607 0.11718674 -0.17063862 0.5083106
0000b0 b4 4e 7d be 36 e6 15 bd 84 f7 06 3e 95 2b f0 3c
       -0.24737054 -0.0365965 0.13180357 0.029317657
0000c0 c5 2d 6b 3e 89 91 6f 3e 29 1e cc be fe 22 36 3d
       0.22966678 0.23395361 -0.3986676 0.044466965
0000d0 cc ef b3 bd eb 06 ec 3d 80 1e 57 3e c9 a7 1e 3d
       -0.08785972 0.11524757 0.21007729 0.03873423
0000e0 e9 00 77 be 25 c5 37 bd 90 cd 14 be 2c 46 0f 3f
       -0.24121441 -0.044865746 -0.14531541 0.5596645
0000f0 2c ae cd 3e 50 d2 b2 bc c3 b1 28 3e 7f fa 23 bf
       0.40171945 -0.0218288 0.1647406 -0.640541
000100 5a 67 0a 3f a9 97 b7 3d 51 58 00 be 2d 30 2e be
       0.5406395 0.08964474 -0.1253369 -0.17010565
000110 ed d1 37 3f 35 7e f6 be 8c 26 43 be 60 03 18 3e
       0.71804696 -0.48143163 -0.19057673 0.14845037
000120 bd ca 95 3e 64 2b d6 3d 5c c9 16 3f
       0.2925624 0.10457495 0.58901

gru.bias_ih_l1 f4 [15]
000000 29 ec cd 3e 88 d5 20 be d2 fd 5e 3d e2 59 02 3f
       0.40219238 -0.15706456 0.05444128 0.509184
000010 21 63 d5 be 8b 23 a8 bf 21 2f 8d 3c 7a 34 c8 be
       -0.41677192 -1.3135847 0.017234387 -0.39102536
000020 86 39 87 be 27 d5 fa be cb 0e 22 bd 81 67 a6 3e
       -0.26411074 -0.48990747 -0.03956489 0.32500842
000030 ff 78 c1 3e 8b 77 73 be 28 15 b9 bc
       0.37787625 -0.23776071 -0.022593096

gru.bias_hh_l1 f4 [15]
000000 bf 30 74 3e dd 79 c1 bd aa e5 9b be 13 25 8b 3e
       0.2384672 -0.09447072 -0.30448657 0.27176723
000010 00 ba 7d 3e e7 4b 5a bf 8d 00 91 be ad 0a 35 3e
       0.24777985 -0.8527207 -0.28320733 0.17679854
000020 00 26 35 bd a6 f0 1a bf 85 da e1 3d 29 7d 05 bd
       -0.044225693 -0.6052345 0.110280074 -0.032590065
000030 12 4e 9e 3e 7f bb 1c 3e d5 43 bc 3e
       0.30918938 0.15305899 0.36770502

gru.weight_ih_l2 f4 [15, 5]
000000 ee e8 8f 3e be 36 d1 3e a7 72 9d 3e f8 b9 7c bd
       0.281074 0.40862077 0.30751535 -0.06170079
000010 65 19 fc be 07 6f ea bd bc ec 17 3e 6b a5 85 be
       -0.49238124 -0.11446958 0.14836401 -0.26102766
000020 30 6d f7 bd 2d 7f dd be a9 bc bc be ff 71 35 be
       -0.12081373 -0.4326109 -0.36862686 -0.17719267
000030 d4 a4 d9 3e f3 58 33 3f fa 1e 95 be 0b d6 31 3e
       0.42508566 0.700576 -0.29125196 0.17366807
000040 d5 af 5b bd d9 f6 cf b7 c4 10 29 3e 8a 7a 39 3d
       -0.053634483 -2.479127e-05 0.16510302 0.045282878
000050 32 10 b5 3e 49 ad ad bd ab 59 8a 3e a1 4d b4 3e
       0.3536392 -0.08480317 0.27021536 0.35215476
000060 2f 53 85 be 19 ed d4 3c 16 d7 e1 3e 5c c7 06 be
       -0.26040027 0.025991963 0.4410941 -0.13161987
000070 fe 93 0c bf 76 b6 86 3d 28 bc 85 3e c3 89 df 3e
       -0.5491332 0.065777704 0.26120114 0.4365979
000080 55 46 4d be 32 62 fd be 7b ea 2a 3f 57 dd 44 be
       -0.20046361 -0.4948898 0.6676404 -0.1922506
000090 f6 85 c7 3e 9e 2c d0 3e d0 7a 4a 3e 79 b7 58 3e
       0.38969392 0.4065904 0.19773412 0.2116374
0000a0 80 eb 13 3e c8 20 f9 3d 6a 1b b6 be 59 ff f9 3d
       0.14445305 0.12164456 -0.3556779 0.12206907
0000b0 8f f8 c2 3d fd d1 e5 3b 32 f1 17 be 7d 31 c9 bd
       0.09520065 0.007013558 -0.14838102 -0.09823892
0000c0 1a 09 21 bf 7a 3e 72 3e 0d a3 98 be 57 68 cf be
       -0.6290451 0.23656645 -0.29811898 -0.40509292
0000d0 40 54 86 be 05 16 5e bd 82 ca bb be 03 e1 a3 3e
       -0.26236153 -0.05422022 -0.3667794 0.32007608
0000e0 10 17 63 be 9a 03 4e 3e cf 56 92 be 31 2f b9 3d
       -0.22176766 0.20118561 -0.28581855 0.09042204
0000f0 bb b7 98 be 2f 1c 7c be 5f 80 34 be 9d 1b 27 3f
       -0.29827675 -0.24620126 -0.17627095 0.6527651
000100 63 f3 92 be d4 cf 3d 3e 22 d1 18 3e d0 4c 2e 3e
       -0.28701314 0.18536311 0.14923528 0.17021489
000110 d2 0f 04 bf 80 72 ab 3e c2 19 95 bb 53 dd 63 be
       -0.5158664 0.33485794 -0.0045501897 -0.22252397
000120 04 19 7e 3e a6 cc 6d 3e 57 40 0d be
       0.2481423 0.23222598 -0.13794075

gru.weight_hh_l2 f4 [15, 5]
000000 80 38 3d 3e ef 88 d1 3d 8c 60 37 3c 9f 01 38 3e
       0.18478584 0.10231196 0.011192452 0.17969368
000010 9a 77 bd 3e 0b 6c 06 be b6 df 1f 3e 40 e2 04 3f
       0.3700531 -0.13127153 0.15612683 0.5190773
000020 97 04 ab be 2f 70 40 3e 0b e2 93 be c3 c8 7e be
       -0.3340194 0.18792795 -0.28883395 -0.24881272
000030 9e 4f 1e be 47 e7 a4 3d 71 63 89 be 38 29 86 3e
       -0.15460059 0.08051925 -0.2683368 0.26203322
000040 13 94 cd bd c0 95 3c be d3 8b 68 be 0f 12 06 3e
       -0.100380085 -0.184165 -0.22709589 0.13092826
000050 a3 69 5b 3e 7e 0f b0 be a7 ec 88 be c6 84 71 be
       0.21427016 -0.3438682 -0.2674305 -0.23585805
000060 c2 61 87 be 21 a6 bd be 4b 39 2f be 66 de c0 be
       -0.2644177 -0.3704081 -0.171117 -0.37669677
000070 71 9f 84 bd f5 82 80 3d 52 33 0b 3e 22 cb 3a 3e
       -0.064757235 0.06274978 0.13593796 0.18241552
000080 e5 29 e2 3d 99 91 77 3e 63 25 ba be cd b8 9c 3e
       0.11043147 0.24176635 -0.3635665 0.30609742
000090 6e ab 72 3d 59 79 90 bd 1c d4 1c 3d ea 3a c8 bd
       0.05924552 -0.07054395 0.03828822 -0.09776862
0000a0 33 03 72 3e 00 58 82 3e 64 94 59 be 3a b9 8f 3e
       0.23634033 0.25457764 -0.21248013 0.28071004
0000b0 6c 55 a1 3d 68 9a 70 3e 97 56 53 bd 3f 58 d3 3d
       0.07877621 0.23496401 -0.05159625 0.10319566
0000c0 17 60 69 3e 17 3c 09 3f 1e a6 b7 3e b7 ae db be
       0.22790562 0.53607315 0.35868925 -0.42906734
0000d0 71 ff 0f 3f 64 ad 05 bd 2b 49 c2 3e 7d f3 ca be
       0.5624915 -0.03263606 0.37946448 -0.39638892
0000e0 43 84 63 3e 4d ed 81 be 00 b6 96 be 09 99 3d bc
       0.22218423 -0.2537636 -0.2943573 -0.011572131
0000f0 8c 96 e7 3e 6d 75 9a bd af e6 08 3f d0 9c c1 be
       0.45232046 -0.075419284 0.53476995 -0.3781495
000100 44 d2 3c 3e cd f5 9c be f1 e9 ae 3e f9 cf 26 be
       0.18439585 -0.3065628 0.34162858 -0.16290273
000110 f0 01 39 3d d0 ba 92 3e 63 77 c4 be bc 71 94 3e
       0.045167863 0.28658152 -0.38372335 0.28993022
000120 45 8c c5 be d3 32 9f be 5c f0 b0 be
       -0.3858358 -0.31093463 -0.3455838

gru.bias_ih_l2 f4 [15]
000000 4c 91 92 be 3b d7 c8 3e 25 72 87 3e 91 f8 de 3e
       -0.28626478 0.39226708 0.26454273 0.43549016
000010 02 fb b4 3e 44 64 18 3e f0 ff 3e 3e e3 c1 b7 be
       0.35347754 0.14881998 0.1865232 -0.3589011
000020 ad ed ec bc aa 0c 42 be 49 25 9d 3e 0e 8e 42 be
       -0.028921926 -0.18950143 0.3069251 -0.18999502
000030 42 a8 a4 be 5d ad b5 bd 42 5e 65 3e
       -0.3215962 -0.08870957 0.22399238

gru.bias_hh_l2 f4 [15]
000000 af 3b f0 3c e8 a8 20 3e 09 59 04 be 1b 8d c4 3d
       0.029325334 0.15689433 -0.12924589 0.09597226
000010 be 09 bc bd 72 71 38 3e aa 0a d6 3e ca db 0f 3e
       -0.09181546 0.18012026 0.4180501 0.14048687
000020 7a 75 b9 be 40 d3 ac 3e 25 c4 30 3e 65 0c c3 be
       -0.3622244 0.3375492 0.17262323 -0.38095394
000030 8c df e2 3e de 8e 6c be e2 e6 2f be
       0.44311178 -0.23101375 -0.17177919

gru.weight_ih_l3 f4 [15, 5]
000000 87 ed e5 3e d1 33 45 be 8f 39 1f be 6b b5 09 bf
       0.4490778 -0.19258048 -0.155493 -0.53792447
000010 05 ce b1 3d dc 7b 0f be f1 c2 cd 3e a3 9f ce 3e
       0.08681873 -0.14012092 0.4018779 0.40356168
000020 30 eb c7 3e 4c a9 5b be 04 8e bc be 5a e8 1d 3e
       0.3904662 -0.214513 -0.368271 0.15420666
000030 cc a8 bc 3e b4 3b 92 be 19 97 dd be 30 78 6b 3d
       0.36847532 -0.28561175 -0.4327934 0.057487667
000040 44 44 b6 be d7 b2 bc 3e 67 44 80 be f3 f8 51 bb
       -0.35598958 0.36855194 -0.25052187 -0.0032039254
000050 a6 9b aa be 42 cf 94 3d 7d 6c ae be ae aa 71 be
       -0.33321875 0.07266094 -0.34067145 -0.23600265
000060 f7 c6 30 be 33 2a b9 3e 1c 47 ae be f3 6a 4a 3e
       -0.17263399 0.36165008 -0.34038627 0.1976736
000070 b9 e0 a6 be 4e d5 f4 bc d5 0a c5 be 61 03 02 3f
       -0.32593325 -0.029886868 -0.38484827 0.50786406
000080 52 49 76 3e a5 af 3e 3d a5 56 e8 3d 9d c2 0a be
       0.24051407 0.046554226 0.11344651 -0.13550802
000090 41 24 4a be 52 e9 de be 5b bb 53 3e aa 66 41 be
       -0.19740392 -0.43537384 0.20676939 -0.1888682
0000a0 e8 21 55 3e e5 58 0f be 44 c0 ee be 1a e0 88 3e
       0.20813715 -0.13998754 -0.46631062 0.26733476
0000b0 6a 26 ac 3c 1b 75 45 be f4 8b 81 be 13 93 8a 3e
       0.021014411 -0.19282953 -0.25302088 0.27065334
0000c0 ff 04 90 3e c5 bb f4 3c 3a b5 90 bd fa 7f 71 be
       0.28128812 0.029874692 -0.07065816 -0.23583975
0000d0 c2 de 26 3e e9 07 f1 3e 38 4b b4 3e 73 3f 57 3e
       0.16295913 0.47076347 0.35213637 0.21020298
0000e0 1f 4f 90 3e d2 c3 d4 be 9e 38 f4 3e 98 39 d9 bc
       0.28185365 -0.4155565 0.47699445 -0.02651672
0000f0 3c 22 56 3c df 25 6c 3e a9 e2 cd be dd 33 c2 be
       0.013069686 0.23061322 -0.4021199 -0.37930194
000100 61 ec 9c be 02 44 2b be dc 1b 38 be 98 f2 aa 3e
       -0.30649093 -0.16725162 -0.17979378 0.3338821
000110 03 e5 5d be 4b 71 ae be 36 5b 9e 3e 32 5f 3c 3e
       -0.21669392 -0.3407081 0.30928963 0.18395689
000120 e3 56 92 3e b1 95 e7 3e 40 5f ef be
       0.28581914 0.45231393 -0.46752357

gru.weight_hh_l3 f4 [15, 5]
000000 0f 08 10 3d 85 72 43 be 53 96 bf 3e b0 45 e5 3e
       0.035163935 -0.19086654 0.37419376 0.4477973
000010 7d 2f c0 3e ef a1 ce be 11 05 b0 be a9 85 d6 be
       0.3753623 -0.4035792 -0.34378865 -0.4189885
000020 1b 46 96 3d 71 9c 55 3e af f4 93 bc 17 fd a0 be
       0.0733759 0.20860459 -0.01806101 -0.31443092
000030 17 b8 8e 3b ca 02 a0 be 21 be 9a be b4 32 ce 3e
       0.0043554413 -0.31252128 -0.30223182 0.40273058
000040 d4 06 a8 be 9c 3c d1 be 4a 27 30 be 1f 0d cb 3e
       -0.3281771 -0.40866554 -0.17202488 0.39658448
000050 4a 24 ac be 49 1a be be aa 82 63 be 34 04 7d be
       -0.33621436 -0.3712943 -0.22217813 -0.24708635
000060 b4 4c 50 be e1 c9 db 3e 15 d3 97 be 80 da c2 3e
       -0.2034176 0.4292746 -0.2965323 0.38057327
000070 59 27 e2 3e 9a c2 9c 3e 5e 7e 41 be fa cd 06 be
       0.44170645 0.3061722 -0.18895862 -0.13164511
000080 c8 3c 5e 3e c5 e2 01 be 0f af 08 be aa c7 92 3e
       0.21702874 -0.12684162 -0.1334803 0.28667957
000090 4b 56 1e 3f 5c be 77 3e 64 e4 0f 3e 63 09 81 be
       0.6185042 0.2419371 0.14051968 -0.25202474
0000a0 48 4c e5 3e 75 68 e5 be a3 21 58 bd 1e 1a 80 be
       0.4478476 -0.44806257 -0.052766453 -0.25019926
0000b0 a1 6c 8f be 8a c2 09 3f cc 2e 07 be 19 6a 7b 3e
       -0.28012565 0.5381247 -0.13201445 0.24552192
0000c0 e6 4d 56 3c a5 e9 dd be 7d c2 f0 bd e7 54 a5 bd
       0.013080096 -0.4334232 -0.11755846 -0.080728345
0000d0 d4 db 7d be 6d c2 85 be fb 40 49 bd 99 fe 41 3e
       -0.24790889 -0.26124898 -0.049134236 0.18944778
0000e0 81 8a 0b be e2 8a d6 be ad f2 43 3e 1a 16 ab 3e
       -0.13627054 -0.41902834 0.19135542 0.334153
0000f0 00 dd 88 3e e8 60 80 be 25 30 c4 bd 63 2a 78 be
       0.2673111 -0.25073934 -0.09579495 -0.24234919
000100 a7 40 09 bf ad 4d e9 bd a9 25 b9 be 5e a3 ad 3d
       -0.53614277 -0.113917686 -0.36161545 0.084784254
000110 27 e3 16 3e f3 6e 00 3e c8 96 61 3e d4 5e dc bd
       0.14735089 0.12542324 0.22030175 -0.107602745
000120 0e 41 9b 3e 05 b5 8b 3c 92 9e 12 3e
       0.3032307 0.01705409 0.14318302

gru.bias_ih_l3 f4 [15]
000000 41 b5 c5 be d6 46 28 be ec d3 76 be e9 5b 51 3e
       -0.38614848 -0.16433272 -0.2410428 0.20445217
000010 88 aa 67 3e 5a ba 77 3e dc 3d 0c be 0a eb fa 3e
       0.22623646 0.24192181 -0.13695472 0.49007446
000020 22 af 8b be 7f 3e 99 3e be b6 4e 3e ca 2a e5 3d
       -0.27282053 0.29930493 0.20186898 0.11189802
000030 11 86 7e 3e 5b 27 8f 3c 35 0a 89 3e
       0.2485583 0.01747482 0.267656

gru.bias_hh_l3 f4 [15]
000000 95 67 4a 3e e4 17 d1 be 8c 65 9d be 49 f7 8a 3e
       0.19766076 -0.4083854 -0.30741537 0.2714179
000010 dd 08 3d 3e 28 29 a7 3e 67 35 d4 be 46 23 9c be
       0.18460412 0.32648587 -0.41446993 -0.30495661
000020 37 fc 51 be e9 3a 62 3e 25 07 2e be 6b e3 1f 3e
       -0.20506369 0.22092785 -0.16994913 0.15614097
000030 6b 63 f8 3d 3f 04 3f 3e 76 52 84 be
       0.121283375 0.18653964 -0.25844163

gru.weight_ih_l4 f4 [15, 5]
000000 e4 bf dc 3d a0 ce a1 3e de 03 96 3e 0b c6 05 bf
       0.10778788 0.31602955 0.29299825 -0.52255315
000010 14 01 2e be 6c da cd 3e 63 92 32 be 40 bc 5f 3e
       -0.16992599 0.40205705 -0.17438655 0.21849155
000020 d4 44 97 3e d0 82 b7 3e d5 77 c8 3e cd c9 4c 3d
       0.295447 0.3584199 0.39153925 0.04999714
000030 0f 93 60 be 6d da 11 be cc 20 7e 3e 9a 48 3e 3e
       -0.21931098 -0.14243479 0.24817199 0.18582383
000040 6c 7a 45 3d 16 3d d7 be ff 8b ca 3e 5c b1 4e be
       0.048212454 -0.42038792 0.39559934 -0.20184845
000050 c5 b5 04 3e a8 76 52 3e 45 f9 38 bd dc f4 2d be
       0.12959965 0.20553076 -0.045159597 -0.16987938
000060 f5 f6 94 3e a1 71 9c 3e cd 1f c1 be 61 da 95 be
       0.29094663 0.30555442 -0.37719575 -0.29268172
000070 91 5e f6 3d 33 85 d6 be 48 4d 9f 3d 75 eb d1 3e
       0.12029756 -0.41898498 0.07778412 0.40999952
000080 f0 5d b7 3b 23 11 e2 3e ad 14 0e 3e f9 61 f2 be
       0.005595915 0.441537 0.13875075 -0.47340372
000090 54 24 13 3d 1a 97 67 bf d8 87 d9 be 54 df e7 3e
       0.035923317 -0.9046494 -0.42486453 0.45287573
0000a0 c9 6e 14 3d 11 9e 3f be 7b a0 d9 3e 32 21 52 3e
       0.036238465 -0.18712641 0.4250525 0.20520476
0000b0 ae 40 0f be 5c ab 11 be 30 b0 76 be ee b3 16 3e
       -0.13989517 -0.14225525 -0.24090648 0.14717075
0000c0 a4 16 19 3f bd cd 8b 3e 15 31 d4 3c 6e 5a 04 bf
       0.5980017 0.27305403 0.02590231 -0.51700485
0000d0 bf 51 0e bd e1 af 48 be cb 31 f8 3e b5 7d 9b be
       -0.034745928 -0.19598342 0.4847549 -0.30369344
0000e0 e2 46 73 3e b8 17 d7 be e1 0b e2 be c6 35 a6 3e
       0.23757508 -0.42010283 -0.44149688 0.324629
0000f0 98 7a 29 be 79 e0 d5 3e da 4a ba bd 59 8a 26 3e
       -0.16550672 0.41772822 -0.09096308 0.16263713
000100 50 c7 c8 3e 56 d7 d0 3d 1b cb 60 be c9 f6 f5 3d
       0.39214563 0.10197322 -0.21952479 0.12009961
000110 2a e9 d0 be 9b 9c 83 be 48 0f a3 bd 5e 4a fe bd
       -0.4080289 -0.25705418 -0.07961899 -0.12416528
000120 cf 98 00 3e 72 67 48 bb 6c 8e 24 be
       0.12558292 -0.0030579236 -0.16069955

gru.weight_hh_l4 f4 [15, 5]
000000 3f 02 27 3e cb d6 26 be a4 34 af ba ec aa 8d bd
       0.1630945 -0.16292875 -0.0013367129 -0.069173664
000010 7a 23 8d 3e bf 2b 1c be 1e ac 9f 3e fd 04 c6 3e
       0.2756613 -0.15251063 0.31186002 0.3867568
000020 2b b5 8e be 46 33 99 be 72 7d af 3e 02 74 8c 3e
       -0.27872595 -0.2992193 0.34275395 0.27432257
000030 30 39 96 3e 02 e4 63 3e cd e5 4d 3e 4b 5d b4 3e
       0.29340506 0.22254947 0.20107193 0.35227427
000040 fd 48 80 be 76 33 27 bc 0a b8 29 3e c0 b7 12 be
       -0.25055686 -0.01020514 0.16574112 -0.14327908
000050 a7 2a ab 3d 67 f7 97 be bb 40 61 be f2 76 59 3e
       0.08357745 -0.2968094 -0.21997349 0.2123678
000060 6f 74 c7 be cd 79 a5 be 0b ae f5 3d 45 8d c3 3d
       -0.3895602 -0.3231949 0.11996087 0.095484294
000070 8e 7d ef bd 57 83 1e be c8 dd 2e 3d 10 45 03 3f
       -0.116938695 -0.1547979 0.042691976 0.51277256
000080 6d 91 fc bd 94 53 07 3e 90 3d 11 bd 7a 82 31 3f
       -0.12332425 0.13215476 -0.0354591 0.69339716
000090 de f3 62 bf a1 02 1e be 41 b1 8f 3e a0 55 47 3f
       -0.8865336 -0.1543069 0.28064921 0.7786503
0000a0 a4 14 81 be a2 86 ee 3d 37 e0 8c 3e 5a 14 36 bd
       -0.2521106 0.11646773 0.27514812 -0.044453003
0000b0 89 93 9c 3e 10 e4 60 3e c9 be 26 3e 76 08 a3 bd
       0.3058131 0.21961999 0.16283716 -0.07960598
0000c0 2b 6e 14 bf 14 db 20 be 5e ee e6 be 1d 6e b5 3e
       -0.579806 -0.15708572 -0.45103735 0.35435572
0000d0 4e ee 23 3e e5 a3 c1 3e 80 f3 19 3e 57 87 a7 bc
       0.16008875 0.37820354 0.15034294 -0.020450277
0000e0 f1 ab 2f be a5 d2 7a be b9 d6 dc 3e 89 2a 47 3d
       -0.17155434 -0.24494417 0.4313257 0.04862455
0000f0 53 2c b3 3e 4e a1 1d 3e ed de a5 be af 68 ff 3c
       0.34994754 0.15393564 -0.3239664 0.031177847
000100 cd e0 a5 be a7 e8 b0 3e 2d 3f 43 3d 4f 76 6e 3d
       -0.32398072 0.345525 0.04766767 0.058218297
000110 5f 24 a5 bd 29 fa 69 bd 6a 83 af 3e 23 ae 97 be
       -0.08063578 -0.057123337 0.34279948 -0.29625043
000120 72 4a 37 bd 7e bf 93 3d 03 3a bf 3d
       -0.04474873 0.072142586 0.09337237

gru.bias_ih_l4 f4 [15]
000000 93 0a cc 3d 73 ba 10 be dd 7d ec be d4 12 f0 3d
       0.09962954 -0.14133625 -0.46189776 0.11722341
000010 ef 32 9a 3e 45 e3 03 3e 52 be 0f 3e 65 00 73 bf
       0.30116984 0.12879665 0.14037445 -0.94922477
000020 30 34 19 be 78 7d ab 3e 44 27 21 be d7 ec 2d 3e
       -0.14961314 0.33494163 -0.15737635 0.16984878
000030 a0 e7 af 3d 5b 1e f2 bd 77 d3 b5 be
       0.08589101 -0.11822196 -0.35512897

gru.bias_hh_l4 f4 [15]
000000 ae 6c d7 be 02 5e 65 3c c4 6e c1 3e 64 8f a9 be
       -0.42075104 0.013999464 0.3777982 -0.3311721
000010 62 72 9c be 94 f8 b7 3e 09 ea 0d 3e 16 2e 31 bf
       -0.30556017 0.35931838 0.13858809 -0.69210947
000020 27 d8 52 3e 8d 3b 88 be f9 3b 49 be 26 f9 cb 3e
       0.20590268 -0.26607934 -0.19651784 0.39838523
000030 a3 02 13 3e df 3d d8 bd 34 92 50 be
       0.14356475 -0.10558676 -0.20368272

fc1.weight f4 [64, 25]
000000 63 6c da be 4e 2b e3 3d 2c d2 d9 3d d8 6e 61 3d
       -0.42660818 0.11092244 0.1063579 0.05503735
000010 03 de 76 be c6 db b4 3e 6b 34 1c 3d 69 ea aa bc
       -0.24108128 0.35323924 0.038135927 -0.020863729
000020 24 1e c4 be fa 13 cb 3e 13 17 b6 bd b1 73 ec 3d
       -0.38304245 0.39663678 -0.0889112 0.11545504
000030 bf 90 71 be 29 f0 a7 bc 93 3b 3e 3e 28 4c 14 bd
       -0.23590373 -0.02050026 0.18577413 -0.03620544
000040 98 71 1d bd b8 01 94 bd 4c 85 4b be 71 0a d3 bc
       -0.03843841 -0.0722689 -0.19875067 -0.025761815
000050 81 de 00 be 36 11 4e 3e 77 8a 28 3e 9b fd e0 3d
       -0.12584879 0.20123753 0.1645907 0.109858714
000060 0d 3a 75 3d 31 28 14 be de 14 b9 bc e5 9b de 3d
       0.059869815 -0.14468457 -0.022592958 0.10869578
000070 08 76 bc bd ff 8f 48 bd 66 98 6a 3d 42 5d 03 3d
       -0.092022 -0.04896545 0.057274245 0.03207136
000080 f5 0d 0f be eb ba 6f be b8 1d bb 3d 14 af 17 3e
       -0.13970168 -0.23411147 0.09136528 0.14812881
000090 c6 86 05 3e 00 be c2 bd 02 c1 1f be b1 c5 d3 bc
       0.13039693 -0.09508896 -0.1560097 -0.025851103
0000a0 0b 45 b8 bd ca e4 16 3e 01 7c 16 3d 79 a5 eb bd
       -0.08997544 0.14735714 0.036739353 -0.11506171
0000b0 5b 8f e8 3c d0 0a 86 bc 3c 55 4d 3e 36 03 40 3e
       0.02838867 -0.016362578 0.20052046 0.18751225
0000c0 e2 4a 95 bb 6b cc 9b bd bf 31 82 be d7 3c c4 bd
       -0.004556046 -0.07607349 -0.25428578 -0.09581917
0000d0 ff 56 c4 bb e7 40 2b 3d f1 72 dc 3c 15 18 31 3e
       -0.005991816 0.041809943 0.026910277 0.17294343
0000e0 1b 34 b5 bd 8c 74 78 bd f0 2d 75 be 4d eb c7 3d
       -0.08847829 -0.060658023 -0.23943305 0.09761677
0000f0 00 35 95 3d 7a 10 6e 3b 12 b7 18 bc 89 72 5c bb
       0.072854996 0.0036325739 -0.009320991 -0.0033637604
000100 30 88 7c bc 7d 6c 2f 3d 4a e1 48 3e 7c d4 00 bd
       -0.015413329 0.04282807 0.19617191 -0.03145264
000110 ff 1c 34 3e 7e 60 0f 3e 41 83 0c be 37 9d 6a 3e
       0.17589186 0.14001653 -0.13721944 0.22911535
000120 35 89 c0 3d 77 16 13 3e d3 e4 06 3e bd fc a0 3e
       0.0940117 0.14364038 0.13173227 0.31442824
000130 9d d1 f9 3d 7d 7a 4e be df c0 7b 3d ce 3b af 3b
       0.12198184 -0.20163913 0.061463233 0.0053477054
000140 ac 3e b5 3c f9 df f0 bd a9 3a e6 bd bc f5 8f 3e
       0.02212461 -0.117614694 -0.11241657 0.28117168
000150 ae b1 4b be ac 67 0d 3e 15 c5 ed bc b6 6e 59 3d
       -0.19891998 0.13809079 -0.02902464 0.053084098
000160 42 c1 54 be 5a b7 fb 3d d2 42 23 be 51 9a 9f bd
       -0.20776847 0.12290831 -0.15943459 -0.077931054
000170 58 90 ba 3d 13 2a 5c 3e b5 7a 26 3e bf 45 c6 bd
       0.09109563 0.21500425 0.16257747 -0.09681272
000180 1f a9 4a bd f1 8e 00 3e cd 3d f8 bd 36 55 ef 3d
       -0.049477693 0.12554528 -0.121211626 0.116861746
000190 5e d1 28 be 1f 90 0e bd d8 5c b3 3c 85 86 35 3e
       -0.16486117 -0.034805413 0.021894857 0.17727096
0001a0 7d 05 c8 3d 1a a5 c0 bc ce 44 14 be bb c1 af bd
       0.09766672 -0.023516227 -0.14479372 -0.08581873
0001b0 8f f7 41 be 16 fa e2 3e e8 83 03 be ce bc 3e be
       -0.18942092 0.44331425 -0.12843287 -0.18626711
0001c0 20 76 e2 bd 28 d8 5f bd be 9c 08 be 86 71 d8 bd
       -0.11057687 -0.054649502 -0.13341042 -0.10568528
0001d0 01 7e 5b 3e 4a ce a2 bd e8 62 2b 3e a4 78 db bd
       0.21434785 -0.07949503 0.16736948 -0.1071637
0001e0 b6 7e 6a bd a7 8a 33 be 83 57 15 3e d4 e8 53 3c
       -0.057249747 -0.1753336 0.14584164 0.0129339285
0001f0 54 2b 2b be 1f 8a 4f 3e df 56 e8 3d bd 26 74 be
       -0.16715747 0.20267533 0.11344694 -0.23842902
000200 a4 77 5a be e8 38 64 bd 80 39 87 be ea 86 20 be
       -0.21334702 -0.055718333 -0.26411057 -0.15676466
000210 f8 b7 06 3c 6c be a5 3e 94 4f a7 be c6 a4 e1 3d
       0.0082225725 0.32371843 -0.326779 0.11017756
000220 33 e0 1e be a1 59 72 3e 22 72 1f be 54 7e fd 3d
       -0.15515213 0.23667003 -0.15570882 0.12377611
000230 4f 64 45 bd 7a cb 87 39 bd 10 1f be 71 4a 0b 3e
       -0.048191365 0.00025900808 -0.15533729 0.13602616
000240 a9 07 12 3e 63 c9 42 bc de 1e 79 bc 35 22 53 3e
       0.14260735 -0.011888835 -0.015205113 0.20618518
000250 0f 0e 41 be 46 9b 0d 3e 6e 85 45 3e fd 8a 45 3e
       -0.18853019 0.13828763 0.1928918 0.19291301
000260 ac 64 62 be a4 f6 8a bd 08 db b9 3c c8 e3 9b be
       -0.22108716 -0.06785324 0.02268745 -0.3044722
000270 6d 0f 2b bd 69 06 e8 bc c0 6a 80 3d 7f 1f ab be
       -0.041762758 -0.02832337 0.06270361 -0.33422467
000280 88 26 f5 bd 3a c9 3b 3d 57 89 ac bd 24 53 46 be
       -0.1197024 0.0458462 -0.08424633 -0.19367653
000290 d1 76 09 3c 9e 6d aa 3c 7a c8 86 bc 2e 5f 16 3e
       0.008390144 0.020804223 -0.016453017 0.14684746
0002a0 15 41 0a 3e a6 00 32 3e 99 71 ae bd 94 c2 80 3d
       0.1350139 0.1738306 -0.08517761 0.06287113
0002b0 61 40 11 3e 92 35 1a 3d 0c 79 52 3e 40 e7 8e bc
       0.14184715 0.037648745 0.20553988 -0.017444253
0002c0 43 c0 90 bd 82 b8 52 3e 5f cb d9 bd 93 ed 11 be
       -0.07067921 0.20578197 -0.10634493 -0.14250784
0002d0 41 b9 e2 3d e3 de c5 bc 44 6c bc 3d 8b a1 68 be
       0.11070491 -0.024154132 0.092003375 -0.22717874
0002e0 f5 d4 0d 3e f0 d4 3b be d3 eb 3f be 87 f7 59 be
       0.13850768 -0.18342948 -0.18742304 -0.2128583
0002f0 92 95 fe bc f0 42 56 3d 96 dd 08 3e d6 27 c9 3d
       -0.03107718 0.05230993 0.13365778 0.09822051
000300 56 53 bd bd 22 1e 04 3e 91 56 3e be 8c 41 cf bd
       -0.09244411 0.1290212 -0.1858771 -0.10119924
000310 12 a3 36 bd b2 1a 10 be 97 d0 32 3e dd 7c 30 3e
       -0.04458911 -0.14072683 0.17462383 0.17235132
000320 a8 71 b8 3d 7a 98 ba 3d 39 14 fe bd f2 97 74 3b
       0.09006053 0.09111114 -0.12406201 0.0037322012
000330 a6 e3 30 be 96 6f 84 be 36 be 08 be 93 43 ba bd
       -0.17274341 -0.25866383 -0.1335381 -0.0909492
000340 79 0e 88 3e d8 fe 23 bd b0 df 1b 3e 14 f8 d0 3b
       0.26573542 -0.04003796 0.15222049 0.0063772295
000350 28 6c 4f 3e 4c a6 2d be ee 84 32 bd 44 5b 11 be
       0.20256102 -0.16957968 -0.043583803 -0.14194971
000360 ed f9 0e 3e 61 c1 d0 3d 0e b2 23 bd 6b 43 b4 3d
       0.13962527 0.10193134 -0.039964728 0.088019215
000370 f3 4b 17 3e 5d d2 c5 3d a5 e4 78 3d 98 75 1b be
       0.14775066 0.09659264 0.060764927 -0.15181577
000380 55 d4 23 be 13 80 2c 3d aa de ac 3d 90 b5 88 be
       -0.15998967 0.04211433 0.08440907 -0.2670102
000390 35 5a 25 be 96 a5 a5 3c e5 e4 52 bd 8f bc 3d bd
       -0.16147693 0.02022056 -0.051487822 -0.0463224
0003a0 3a 75 a6 3d 31 a9 85 3e 04 47 e2 be 26 a5 0f bd
       0.08127828 0.26105645 -0.44194806 -0.035069607
0003b0 d6 41 bd 3d fd 0d 80 3c d1 af 23 bd f4 60 99 bd
       0.09241073 0.01563167 -0.039962593 -0.074891955
0003c0 c1 c3 05 be e7 ae 3d be ca a4 13 be fb 09 38 3e
       -0.13062955 -0.18523751 -0.14418331 0.17972557
0003d0 e1 c3 80 3d e2 f8 ca 3d da 38 94 bd ba e1 66 3c
       0.06287361 0.09910752 -0.07237406 0.014091903
0003e0 52 92 0b 3d 34 c2 11 be 18 e8 8e 3e bb e7 6e 3d
       0.03407509 -0.14234239 0.27911448 0.058326464
0003f0 f4 b4 ff 3d 43 ea 27 3e 87 77 20 3d 02 70 8c 3b
       0.12485686 0.16397958 0.03917649 0.0042858133

fc1.bias f4 [64]
000000 20 59 9b bd a0 76 9b bd c9 ac 11 be 58 ca 87 3d
       -0.075853586 -0.07590985 -0.14226069 0.06630391
000010 08 dd 46 3d 5c ae 38 be bd 12 d6 3c e6 d6 e9 bc
       0.048550636 -0.18035263 0.026131982 -0.028544854
000020 ba 8e 05 be f4 47 18 be c7 6d cb 3d 98 2b 05 be
       -0.13042727 -0.14871198 0.09933048 -0.13004911
000030 05 de 04 bd 36 a8 b8 bd 6b fe ed bd f3 dc 39 be
       -0.032438297 -0.09016459 -0.11620792 -0.18150692
000040 62 c8 47 3e e1 89 bd bd 9a 08 95 bd 1e 59 9e 3c
       0.19510034 -0.09254814 -0.07277031 0.019329604
000050 02 3c 30 3e 87 f8 de bc 4a f0 56 3d 89 6f 00 be
       0.17210391 -0.027218116 0.05247525 -0.12542547
000060 2f fd ae bd 33 91 e4 3d 7f a4 61 3c 2b a9 cd 3c
       -0.08544385 0.11160507 0.013772129 0.02510508
000070 c8 9e ba bc 92 8a f2 3d 92 e0 d7 3d 34 73 e8 3d
       -0.02278079 0.118428364 0.1054088 0.11350098
000080 74 0d 28 be 68 4c 15 be 1c 8b c0 bd b1 58 29 be
       -0.16411382 -0.14579928 -0.09401533 -0.1653774
000090 74 ef 00 3e d4 55 92 3c 35 02 ef bd a2 b6 0d 3e
       0.12591344 0.017863192 -0.11670343 0.138392
0000a0 5c df 0e 3e 02 86 90 bd 51 05 e5 bd ed 8a 07 be
       0.13952392 -0.0705681 -0.11182655 -0.1323659
0000b0 30 92 5d 3d 0d 4c 2a be 2d d4 f9 3d f5 31 75 bc
       0.054094493 -0.16630574 0.121986724 -0.014965524
0000c0 cc 58 77 3d 77 0f 03 3e c5 df 38 3d 7e 99 72 3d
       0.060387418 0.12798868 0.04513528 0.059228413
0000d0 d3 70 b8 bc 7e c3 05 be 1e 44 f7 bd a4 87 b8 bb
       -0.022514736 -0.13062856 -0.12073539 -0.005631404
0000e0 d3 0c d3 bc 8f 64 2e be ff 57 6a 3d 9a cc 46 3d
       -0.025762951 -0.17030548 0.057212826 0.048534967
0000f0 d3 64 17 be 1a 69 14 be 2e 89 04 3d 13 f0 07 be
       -0.14784555 -0.14493218 0.032357387 -0.13275175

prop_h_to_h.0.weight f4 [64, 64]
000000 27 b1 1c 3e 06 8a ad 3d bb 98 be bb f9 87 35 ba
       0.15301953 0.084735915 -0.0058165467 -0.00069248636
000010 19 ec b2 3d a1 56 5a be 19 02 20 be 11 a2 19 bb
       0.08736438 -0.21322109 -0.156258 -0.0023442546
000020 9f a4 5a 3c 23 8e 2c be f5 f0 b9 bd 32 4d 81 3d
       0.013344913 -0.16851096 -0.09079162 0.06313552
000030 cb e5 2e 3e ea 42 26 3e 13 7d 21 bd 2e 94 81 3d
       0.17079847 0.16236463 -0.03942592 0.06327091
000040 13 a1 43 3d 34 9d e6 bb d8 57 09 be 3e 65 b5 bd
       0.047761034 -0.007037783 -0.13412416 -0.08857201
000050 09 ba 85 3d 6a a3 b3 bd 22 ed 97 3a 7c ae 08 3e
       0.06529624 -0.08771403 0.0011591057 0.1334781
000060 1e 15 20 3c 17 97 ee bd b8 89 fc bc 2b ea ad bd
       0.00977066 -0.11649912 -0.030827388 -0.084919296
000070 aa fd d8 bc fd d3 54 bd 58 c9 ed bd be 5e 7d bd
       -0.026488144 -0.05195998 -0.11610669 -0.06185793
000080 0c 69 14 bd 77 5e ae 3c aa 9b fa bd 3b 44 84 bd
       -0.036232993 0.021285279 -0.12236722 -0.064583264
000090 09 8c b5 3c 3b 94 bd bc d6 a5 fe bc 93 97 06 be
       0.0221615 -0.02314197 -0.031084936 -0.13143758
0000a0 51 33 29 3e 35 91 d0 3c 8a 9b 49 be 92 07 03 3e
       0.16523482 0.025459865 -0.1968824 0.12795857
0000b0 a2 c6 bc bd ae 79 a5 3c 27 05 e8 3d 9f d5 f2 bd
       -0.09217574 0.020199623 0.11329108 -0.11857151
0000c0 91 85 ac bd 53 2d e4 3b 67 18 d7 3d 9f d4 dd 3c
       -0.08423913 0.006963411 0.10502701 0.027078925
0000d0 85 7f 42 3d 92 5b fb bd 72 d2 ae 3d 70 89 65 bd
       0.047484893 -0.12273325 0.08536233 -0.056039274
0000e0 f3 6d 13 3d cf e3 19 3d 69 5b df 3d 2f f8 11 3e
       0.035993528 0.03757077 0.10906107 0.14254831
0000f0 8b f9 16 3c 95 a3 b0 3d a3 ce d2 3a 50 b2 dc 3d
       0.009214769 0.08624951 0.0016083311 0.10776198
000100 08 18 09 3e 1c c8 0a 3e 9b 27 9f 3d 6e c5 57 be
       0.13388073 0.13552898 0.07771226 -0.21071407
000110 81 14 38 3c 70 d9 7c bd 3e 53 6a 3c 9a 03 57 bb
       0.011235357 -0.061730802 0.014302073 -0.0032808543
000120 8a b7 7f 3d 26 1b 28 be 8d 06 b0 3d 28 7f 2c 3e
       0.062430896 -0.16416606 0.085949995 0.16845381
000130 64 b5 f8 ba 98 0c f2 3d e1 25 1a be a5 77 12 bc
       -0.0018974957 0.11818808 -0.15053512 -0.008939658
000140 f0 05 f1 bd 63 ff 9e bd e1 0e 31 be 01 ad fb 3c
       -0.117687106 -0.07763555 -0.17290832 0.030722143
000150 c2 6a 32 3e 81 33 44 3c f7 85 08 bb 3d cf fd bc
       0.17423537 0.01197517 -0.0020831802 -0.030982608
000160 9c 43 34 3d df 07 da bd eb a8 7a 3d 78 ba a9 bd
       0.04400979 -0.106460325 0.06119625 -0.08287519
000170 3a 3a ab bd 68 b1 4e bd 93 8a c7 bc fd 59 32 be
       -0.08360715 -0.050462157 -0.02435807 -0.1741714
000180 b7 47 05 be 1d 6f 55 3d 32 c3 2e bd dd af ba 3d
       -0.13015638 0.05210792 -0.04266662 0.091155745
000190 31 3b df 3d 4f 4d 48 3b 69 d9 b4 3d 0b 41 37 be
       0.10899962 0.0030563658 0.0883053 -0.17895906
0001a0 c6 58 ba 3d cb 2e 74 3e bf 10 fe bb 40 d2 22 3e
       0.090989634 0.23845975 -0.007753461 0.15900517
0001b0 80 d4 66 bd 6c 35 99 3c d3 82 ee 3d e5 4f 24 be
       -0.056355 0.018702231 0.116460465 -0.16046102
0001c0 c8 08 19 3e 58 b2 d6 bb 69 51 cf bc 3e f4 71 3d
       0.14944756 -0.006552022 -0.025307374 0.059070818
0001d0 84 7a c4 3d f3 45 93 3d e9 ce f2 3d 55 6b 30 3e
       0.095936805 0.07191076 0.11855871 0.17228444
0001e0 55 ed 25 bd ae 04 c6 3d dc ad b3 3c 7f 42 0d 3e
       -0.04050954 0.09668861 0.021933489 0.13794897
0001f0 90 f8 8f 3d 88 71 45 bd 4e 5e 44 3d 6b ed 80 3e
       0.070298314 -0.048203975 0.0479415 0.25181136
000200 d0 ee eb bb a4 9d a7 3c 57 ea fe bc 62 23 4d 3e
       -0.0072000995 0.020460911 -0.031117601 0.20033029
000210 6b 35 82 3c f6 53 59 3e 80 bc b6 3d 24 33 ea 3c
       0.015894612 0.21223435 0.08922672 0.028588839
000220 6e 58 c2 bc cf 6c 3d bd cd 6f a7 3d 12 eb 06 be
       -0.023723807 -0.046246346 0.08175621 -0.1317561
000230 f3 ae 3b be 53 56 a5 bd c5 ad 52 bd 8f d0 bb bd
       -0.18328457 -0.08073106 -0.05143525 -0.09170639
000240 99 6f a9 bc 6a 6d 85 3c ca b5 05 3d 32 5c eb bd
       -0.020683097 0.016287524 0.03264407 -0.11492194
000250 91 8a 00 be a3 1b 5e 3d 36 aa b7 bc 89 10 e6 bc
       -0.12552859 0.054225575 -0.02242003 -0.028084056
000260 e7 4b 47 3d d5 d9 7d 3d c4 bb 87 3d ef 00 61 bd
       0.04865637 0.06197532 0.0662761 -0.05493253
000270 c2 2c 8b bc 8e 43 ec 3c f0 10 99 3d 28 03 55 3e
       -0.016989116 0.028840806 0.07473934 0.20801985
000280 41 c0 5d 3d 08 a1 ef bd f3 36 8a bd 97 25 0d 3b
       0.054138426 -0.11700636 -0.06748762 0.0021537298
000290 70 39 1f be 19 48 90 3d 18 97 f5 bd 72 de 95 3c
       -0.15549254 0.070450015 -0.119917095 0.018294547
0002a0 69 c0 09 be 2e d9 9b bd d4 a7 00 3e d6 e7 4f bd
       -0.13452305 -0.07609783 0.12564021 -0.050758205
0002b0 ce c1 f1 bd b3 e0 34 bd 65 e0 a2 bc 29 4c 75 3c
       -0.118045434 -0.044159602 -0.01988239 0.014971771
0002c0 70 49 93 38 18 63 a6 bd f1 18 81 bd f1 1e 16 be
       7.023185e-05 -0.081243694 -0.06303585 -0.1466024
0002d0 45 97 8a 3d dd 6b 41 bd 6c 3f ec bb 3c e7 60 bc
       0.067671336 -0.047222007 -0.007209709 -0.013727006
0002e0 76 48 08 bd a8 60 ac bd e4 32 93 bd 80 c4 ca bd
       -0.03327223 -0.08416873 -0.07187441 -0.09900761
0002f0 0a 6c 78 3d 69 4d d7 bd 1e 47 60 bd f3 45 51 be
       0.06064991 -0.10512812 -0.054755323 -0.2043684
000300 3d 10 3e 3c 7e 90 9a 3d 97 cf 71 3d 62 13 3c 3e
       0.011600551 0.07547091 0.059035864 0.18366769
000310 ac a8 59 3d f9 c9 1b 3d 0b c9 62 3d f8 f1 d0 bc
       0.053139374 0.038034413 0.05536751 -0.025506005
000320 a4 28 ef 3a 90 c1 0f 3d 83 d3 b4 3d 69 3b 30 bc
       0.0018246365 0.035096705 0.08829405 -0.010756352
000330 95 ef 0a bd a6 f6 5d be 76 aa 9d 3d 8b 5b 39 bd
       -0.03391989 -0.2167612 0.076985285 -0.045253318
000340 67 b6 f1 3d 57 6c f1 bc 7b 88 ec 3d 4d 23 82 bd
       0.118023686 -0.029470606 0.11549469 -0.06354389
000350 8a ca 8a bc e4 07 0d bd 46 d3 2e 3d 47 bd 3d bd
       -0.016942281 -0.034431353 0.042681955 -0.046323087
000360 25 97 13 be 21 6c c3 3d 2d dd 17 be 5d e4 87 bd
       -0.14413126 0.09542108 -0.14830466 -0.06635354
000370 a3 63 12 3e f3 99 bc bd 3d 4a 1f 3d 10 ed 3a 3e
       0.14295821 -0.09209051 0.03888916 0.18254495
000380 cd 1c a7 3c 2f d4 9b bb b3 b1 16 3e 03 7c 11 be
       0.020399475 -0.004755519 0.14716224 -0.14207463
000390 ad f8 5a bd 26 9f 9b bd ee 41 77 3d 93 a6 3b 3e
       -0.053459812 -0.075987145 0.06036561 0.18325262
0003a0 16 ef ae bd 3e 3e 3c bc 40 49 4c 3e f2 53 ab 3d
       -0.08541696 -0.011489449 0.19949818 0.08365621
0003b0 be 09 b6 bd d3 3e 86 bd 67 33 d7 bd 7b 27 ef 3d
       -0.08888577 -0.065549515 -0.10507851 0.11677452
0003c0 f4 4a d8 3d 3d b0 94 bd 34 aa 88 3d 87 ea a8 bd
       0.10561171 -0.07260177 0.06673089 -0.082478575
0003d0 3f 97 d4 bc 54 60 d9 3d fa 2f b5 bd 52 4f 56 3c
       -0.025951026 0.10614076 -0.088470414 0.013080435
0003e0 b7 c5 1f be 2b 96 9e bd 77 1b 71 bd f5 eb e6 bd
       -0.15602766 -0.07743486 -0.058864083 -0.11275474
0003f0 e5 c4 84 bd d1 e6 08 bd c2 bc 10 be 10 9f 47 be
       -0.06482867 -0.03342325 -0.14134505 -0.19494271

prop_h_to_h.0.bias f4 [64]
000000 a4 44 da 3c 19 9f c4 3d bb 70 c3 bd f4 0e aa bd
       0.026644059 0.09600658 -0.09542986 -0.08303633
000010 0a 2b 81 bd 3d c7 69 bd 5c fc 3b bd 9a 0c a5 bd
       -0.06307037 -0.057074774 -0.045894966 -0.08059044
000020 81 b3 d5 bc df a1 30 3c 12 64 39 3d dd 6d bc bc
       -0.02608657 0.010780781 0.04526145 -0.023001606
000030 5b 0c f4 3c eb 99 13 bd 73 c5 ab bc 69 4f 86 3d
       0.029791048 -0.03603546 -0.020968175 0.06558115
000040 50 82 9a bd a8 25 b4 bc a9 be 57 bd 69 a4 07 3d
       -0.075443864 -0.021990612 -0.052672062 0.033115778
000050 23 d2 ed 3c a8 be e3 3d 59 bd 4a 3d ef 06 9a bc
       0.029030865 0.11120349 0.049496982 -0.018802134
000060 ed 1e 98 3b 8d 0d 9d bd 33 27 c5 3d 78 65 53 3d
       0.0046423585 -0.076686 0.09626617 0.05161044
000070 bf 03 de bc db fc ab 3d 97 93 4b 3d 7b 65 ba 3d
       -0.027101396 0.08397838 0.0497013 0.09101387
000080 10 d6 21 3d 08 da 12 bd 2b 96 53 bd 91 47 b2 b9
       0.039510787 -0.035852462 -0.051656883 -0.00034004127
000090 72 da 00 3d 00 cb a3 bd de 7f 96 3d a1 a5 3e 3d
       0.031458326 -0.079977036 0.073486075 0.046544675
0000a0 fd e4 d3 3d 1e e1 b2 3d 11 a2 11 3d 92 b8 d7 3c
       0.103464104 0.08734344 0.03555495 0.026333127
0000b0 92 79 a7 bd a2 c0 a2 3c 3e 33 0e 3d ba ca b4 3d
       -0.081774846 0.019867245 0.034716837 0.088277295
0000c0 b9 64 d9 3d 74 9d 9f 3d 16 7e db 3d 6c a4 88 3d
       0.106149144 0.07793704 0.10717408 0.06671986
0000d0 2a 3d 3b bd 59 f5 88 3c 58 d8 52 3c 09 07 fd 3c
       -0.045712627 0.016718553 0.012868963 0.030887144
0000e0 cd 35 20 3d 03 bf 6f bd 37 df de 3c b6 27 52 3d
       0.03911381 -0.058531772 0.027206047 0.051307403
0000f0 ed fa c0 3d 46 99 87 3d d3 ff 60 3d 3b 7f c1 bc
       0.0942286 0.066210315 0.054931473 -0.023620239

prop_h_to_h.1.weight f4 [64, 64]
000000 db 11 5c bd 3e 54 12 be 2a f7 3f 3b 6b 8e 31 3e
       -0.053727966 -0.14289948 0.0029291608 0.17339484
000010 76 96 40 3d 49 25 e2 bd 4d 1e 0f be 14 0f ed 3d
       0.04701849 -0.11042268 -0.13976403 0.115751415
000020 ad ba c3 3b 06 93 c8 bc dd 87 08 3e d0 68 fa 3c
       0.005973181 -0.024484169 0.13333078 0.030567557
000030 dc e1 39 be 2f 19 e4 bb cb 59 63 3d f8 cf 62 bd
       -0.18152565 -0.00696101 0.055505555 -0.055374116
000040 38 80 1a bd 04 20 0c 3e 4d 44 0d 3d 2b 7f 00 be
       -0.037719935 0.13684088 0.034488965 -0.1254851
000050 9b 54 09 3e 58 8d 9e bc 5b 54 7e bd ad ac 01 3e
       0.1341118 -0.019354507 -0.062092166 0.12663527
000060 c4 d0 1c 3d d2 0b 47 be 62 7e b9 bd 5e b5 7d 3d
       0.038285032 -0.19438103 -0.09057309 0.061940543
000070 7f a2 31 3e b1 95 36 3e e3 89 b8 bd 67 1d 27 3e
       0.17347144 0.1783054 -0.09010675 0.1631981
000080 1b ca 0d 3e 2d 60 61 be 97 b0 4a be 0d 02 b5 3b
       0.13846628 -0.22009344 -0.19793926 0.005523926
000090 b7 7e 41 be 44 81 e3 3d 36 6f 59 3e 7b dd 9f bd
       -0.18895994 0.1110864 0.2123383 -0.07805916
0000a0 68 5c c0 3d 94 81 1f bd 34 a7 0d 3d a0 91 bf 3d
       0.09392625 -0.038941935 0.034583285 0.09353948
0000b0 65 5c 3a 3e 67 59 45 bd c8 76 c8 bd 69 2a bd 3c
       0.18199308 -0.048180964 -0.09788281 0.023091512
0000c0 f3 de bb bc 66 aa 2b bd ec 76 48 be 98 9e 60 3e
       -0.022933459 -0.04191055 -0.19576615 0.21935499
0000d0 93 b5 27 be 60 b2 36 be 4e 5a 87 3d ae d9 64 3e
       -0.16377859 -0.17841482 0.06609021 0.22348663
0000e0 8d f0 55 bc 20 95 ce bd 3c 3d 24 bd 0b 08 d1 bd
       -0.01305784 -0.10087037 -0.04009746 -0.10206612
0000f0 96 0c 49 3c d7 9a c8 3d 70 02 fd 3d 0a 35 b1 3d
       0.012271067 0.09795158 0.123539805 0.086526945
000100 f8 2c bb bd 23 48 79 bd 03 46 d5 bc 17 8f d6 bb
       -0.091394365 -0.06085981 -0.02603436 -0.0065478194
000110 f4 8a ac bd 86 84 fc 3c 83 10 13 3e b1 07 df 3d
       -0.08424941 0.03082491 0.14361767 0.10890139
000120 ca 97 8e bc 73 42 d7 3d 7f 08 6b bd e9 a7 85 bd
       -0.017406363 0.10510721 -0.05738115 -0.06526167
000130 2a e7 83 3d 78 09 f2 3d 24 70 25 3c 8d da fa 3d
       0.064405754 0.11818212 0.010097537 0.122487165
000140 40 9e 14 bd 61 2c cb 3d 4a 12 89 3d 0a 79 a5 3c
       -0.03628373 0.09920574 0.066929415 0.020199317
000150 06 99 ba 3d 6a 80 81 bd f6 79 f7 bd 19 bc f2 3d
       0.09111218 -0.06323321 -0.12083809 0.11852283
000160 74 e2 af 3d 9f 9c c0 3c ae 86 7c 3d a6 0e 22 bd
       0.085881144 0.023512183 0.061651878 -0.03956475
000170 98 df 1b bd 22 5a 87 3c 48 0c c1 3b 0a 12 ee bc
       -0.038055032 0.01652247 0.0058913566 -0.029061336
000180 ea 99 04 3e 62 24 dc 3d 3f 95 b1 bd b5 ac b8 3d
       0.12949339 0.10749127 -0.086710446 0.09017316
000190 d5 66 1b 3e 28 19 a1 bd 7a d1 c9 3d 29 14 10 3d
       0.15175946 -0.07866126 0.098544076 0.035175476
0001a0 b5 5b 67 bc c8 6e 5d bb dd 1e de bd e4 7b c3 bd
       -0.014120986 -0.0033787955 -0.108457305 -0.09545115
0001b0 e3 06 5b 3d 92 88 82 ba 1c 5e 52 bd 57 6d d3 bd
       0.053473365 -0.0009958914 -0.05135928 -0.10323589
0001c0 43 fc 72 bd 80 89 84 3d 39 bd 85 3c f9 e9 0d bd
       -0.059322607 0.064715385 0.01632558 -0.03464696
0001d0 b3 82 bf 3d 70 e6 a1 bd 4f 86 67 3d bd 49 c2 bd
       0.09351101 -0.079052806 0.05652457 -0.09486721
0001e0 76 cc 6a bd 9c 22 b2 3b 46 3e e5 3d 73 46 e8 bc
       -0.057323895 0.0054362547 0.11193518 -0.028353905
0001f0 51 20 13 3d 09 93 09 3d 8b 21 ab 3d 58 a8 b2 bc
       0.03591949 0.03358749 0.08356007 -0.021808788
000200 40 1f a8 3d 79 20 2a bb 37 71 b8 3c e2 52 99 3c
       0.082090855 -0.0025959297 0.022514923 0.01871628
000210 36 93 b8 bd 4f c2 b7 bd 64 cc 73 3e 11 a9 36 be
       -0.09012453 -0.08972608 0.23808438 -0.17837931
000220 ae 4c 51 be 62 17 a3 3d 3b b2 6b 3c 40 28 3e be
       -0.20439407 0.07963444 0.014385755 -0.18570042
000230 fb 60 20 3e ac 96 ae 3d c9 be fa 3c b7 7d 0a 3e
       0.15661995 0.08524832 0.030608552 0.13524519
000240 2a 7a 3a 3e 14 e3 ab bd 78 a0 5c 3b dc e6 dd 3d
       0.18210664 -0.08392921 0.0033664983 0.108350486
000250 e9 9f 69 bd b4 57 34 3e f3 24 31 bc 00 95 6d be
       -0.057037268 0.17611581 -0.010812032 -0.2320137
000260 5d da e5 3d cf d2 21 3e 6c 90 02 3d ce cf 7e be
       0.1122329 0.15803073 0.031876013 -0.24883959
000270 e0 48 5f be 74 7b d5 bd 60 df d3 bd 6d b9 6e be
       -0.21805143 -0.104239374 -0.1034534 -0.23312922
000280 f7 5e 02 be c6 0c d8 3d db 98 1b 3e 36 f0 14 3e
       -0.12731539 0.10549311 0.15195028 0.14544758
000290 a3 de 55 3d 9e 39 14 3d 6a 26 d7 bd 3e 7d 55 3d
       0.052214276 0.03618776 -0.10505374 0.052121393
0002a0 c8 9a 21 3d a9 be c8 bc ab a1 33 3d 27 dd b1 bd
       0.03945425 -0.024504976 0.04385535 -0.086847596
0002b0 c9 97 1b be e2 79 25 3e 3c 6d 11 bd 3c a1 2a ba
       -0.1519462 0.16159776 -0.035504565 -0.0006509011
0002c0 2a d9 42 3e af 82 b0 bd 8b bc bc 3c 5f 38 8f bd
       0.19028154 -0.08618676 0.023039123 -0.06993174
0002d0 d6 b3 33 3e e4 e0 12 bc b6 33 9c 3a f7 9e 5a be
       0.1754907 -0.008964751 0.0011917267 -0.21349703
0002e0 67 ba 2d be cb ae 96 3d 89 21 20 3e 0d 26 28 3e
       -0.16965638 0.07357558 0.15637793 0.16420765
0002f0 e9 68 7a bd 4d ee 58 bd 09 24 4d 3d cb fe e3 bd
       -0.061135206 -0.052961636 0.050083194 -0.11132582
000300 11 4f 99 bd 8f 78 20 be af e5 19 bd 1a d0 ae bd
       -0.07485784 -0.1567099 -0.03757256 -0.08535786
000310 62 ea 22 3d 41 83 b7 3d 29 4f 94 3c 13 51 a7 3d
       0.039774306 0.089605816 0.018104153 0.081697606
000320 40 bc 99 3d 48 eb 2d 3d fc e0 80 ba 3b fe 15 bd
       0.07506609 0.04246071 -0.0009832676 -0.036619406
000330 48 81 a4 bd 61 51 e1 3c 55 e5 1e bd fe fc 97 3d
       -0.08032471 0.027504625 -0.038792927 0.07421301
000340 51 f5 9a 3c 88 4d e4 bc ed d2 7e 3d c1 f2 2d 3d
       0.018915804 -0.027869001 0.062212873 0.042467836
000350 82 df 38 3c 49 05 dd 3d c1 a8 ac 3c a2 c9 da 3d
       0.011283757 0.10792024 0.021076562 0.1068299
000360 5e ed 8a 3d 46 e4 58 bd 9a 9f d5 bb 9c 44 a5 bc
       0.067835554 -0.052952074 -0.00651927 -0.020174317
000370 a8 00 9b 3d ee 77 88 3c 70 3f a8 bb dc 87 52 3d
       0.075684845 0.01665875 -0.0051345155 0.051399097
000380 79 39 ea 3d 13 2f b7 bd c1 b6 2a be 6f 49 b5 bd
       0.11436743 -0.089445256 -0.16671278 -0.08851897
000390 de bc 77 3d 58 af fb bd 5f a3 f1 3c 80 84 1a 3e
       0.060482852 -0.122893035 0.029496847 0.15089607
0003a0 33 b9 a4 bc 99 7a 05 3e bf 65 e4 3d b1 62 0d 3e
       -0.020107841 0.13035049 0.11152219 0.13807179
0003b0 54 0b 29 3d da 29 d3 bd be 22 c4 bc 11 2d 94 bd
       0.04127057 -0.10310717 -0.023942348 -0.07235158
0003c0 61 9d 8c 3d a3 b5 a3 bd 89 ba 32 be 3c 75 f9 bc
       0.06865955 -0.07993629 -0.1745397 -0.03045141
0003d0 55 55 8a bd cb 38 0e be ec 49 81 bc 7e d1 15 bc
       -0.06754557 -0.13888852 -0.015782319 -0.009144185
0003e0 69 5e a9 bd 42 c5 d6 bd 2d 57 83 3d 80 03 9e 3d
       -0.082699604 -0.10486843 0.06413112 0.07715511
0003f0 24 d3 00 3e a2 f7 e7 bc aa 9c 5e 3d 5f e5 a3 3d
       0.12580544 -0.028316323 0.054348625 0.080027334

prop_h_to_h.1.bias f4 [64]
000000 af 8e 96 bc c4 d2 e8 bd 93 0e 22 3c 70 3b 20 3e
       -0.018378584 -0.11368325 0.00989117 0.15647674
000010 b7 43 df 3d 11 38 56 3d 41 71 46 3d f5 64 e9 3d
       0.109015875 0.052299563 0.04844785 0.11396209
000020 01 c7 8f 3d a9 d3 94 3d 9c 27 48 3d 25 d9 05 3e
       0.07020379 0.072669335 0.0488659 0.13071115
000030 50 7f 85 3b df a4 e9 bd e0 3d 2b bd 38 0f 48 3c
       0.0040740147 -0.114084 -0.041807055 0.01221066
000040 56 3d 60 bc 10 5f db bd 11 bd 8f 3d 62 69 e3 3d
       -0.013686499 -0.10711491 0.070184834 0.111040846
000050 f7 c9 3c bd be 00 b4 3d ba 3d 99 bc 99 2c b9 bd
       -0.046091046 0.08789204 -0.018706191 -0.090417095
000060 7a d1 34 bd b5 d0 aa 3d 4e 67 c1 bd 5a db 00 3d
       -0.044145085 0.08340589 -0.09443532 0.03145919
000070 0b 27 f8 bd 22 0e c9 bd c8 b8 07 bd 2d 97 f7 bc
       -0.12116822 -0.09817149 -0.033135206 -0.030223453
000080 92 52 cd bd 7f d7 c1 bc c3 32 f5 3d 20 79 4e 3d
       -0.10025515 -0.023662327 0.11972573 0.050408483
000090 39 1f c5 3c 95 2c e8 bd ed b2 cb 3d 95 e4 ab 3b
       0.02406274 -0.11336628 0.09946237 0.005245755
0000a0 4d 47 b4 3d 52 5b 5e 3d db 5d 97 bd a6 21 0b 3d
       0.08802662 0.05428631 -0.073909484 0.033967637
0000b0 77 a1 c6 3d ce ed cc bc ef 34 8f bd fe ce ee 3b
       0.09698766 -0.025015738 -0.06992518 0.007287859
0000c0 6d 3e a2 3d ca c8 6b 3d 31 96 09 3e 18 db 82 3c
       0.07922063 0.057564534 0.134362 0.015973613
0000d0 d0 66 45 3c b7 c5 ac 3d dd db 0b 3d ba 31 02 be
       0.012048438 0.084361486 0.034145225 -0.12714282
0000e0 c6 78 32 bd 87 10 5f bd 12 1a eb bd c3 57 7d 3c
       -0.04357221 -0.05445912 -0.11479582 0.015462819
0000f0 d8 87 22 bd 9a 9a 5e bc 18 47 cc 3d cf df fc bc
       -0.039680332 -0.013586665 0.099744976 -0.030868439
