model-prob-all-pmt-chnge/just_k/Q.pth (torch, 13312 bytes, 13 tensors)

prop_in_to_h.weight f4 [20, 6]
000000 73 1b 90 bc 00 17 00 3e ed 09 98 3e 51 55 30 bd
       -0.017591214 0.12508774 0.29695073 -0.043050114
000010 9a c7 92 3e e8 db 9e 3e 6c 71 83 bd f4 26 84 3e
       0.2866791 0.3102715 -0.06418118 0.2581097
000020 2b 2c 8c be 2c 25 46 be fa be 17 be d9 bf 0d bd
       -0.27377447 -0.19350117 -0.14818946 -0.03460679
000030 61 1e 41 bf d6 7f 0d 3e 72 79 fb 3e 2d 04 74 bd
       -0.7543698 0.13818297 0.49116093 -0.059574295
000040 f3 b2 32 be b0 7e 17 bd a7 9a 86 be e5 59 5b 3d
       -0.17451076 -0.036986053 -0.26289865 0.053552527
000050 92 1e 99 3c dc 40 e2 bd 11 73 8c be ee 9e 50 be
       0.018691335 -0.11047527 -0.2743154 -0.20373127
000060 5b 49 ea 3e 47 ca b2 bc 1b 29 00 be 4e d6 a9 3e
       0.4575909 -0.021824969 -0.1251568 0.33171314
000070 47 89 b0 3e 08 5a 9d 3b b7 e5 b9 3c fa 0a 6f 3e
       0.34479734 0.0048019923 0.022692544 0.23344031
000080 fd 93 bd 3d 2e a0 40 3d c8 10 f5 3d 0b 12 1f bc
       0.09256742 0.04702776 0.119660914 -0.009708892
000090 2b 41 02 bf 94 3d 8e bc 89 3e ae 3e e0 98 20 be
       -0.5088069 -0.017363347 0.34032086 -0.15683317
0000a0 3b 95 77 3e b6 39 92 be e2 18 c6 3e b7 4a 4c 3e
       0.2417802 -0.28559655 0.3869086 0.19950376
0000b0 64 f6 89 3e f1 9e 1f 3e c5 32 8f 3e d2 17 98 be
       0.26945794 0.15587975 0.27968422 -0.29705673
0000c0 99 65 41 be 09 e0 3d be 3f 94 22 be 03 65 52 3e
       -0.18886413 -0.18542494 -0.15876864 0.20546345
0000d0 b2 24 12 3e 46 b7 ec 3d 6f 0b 7e be 7c 98 30 be
       0.1427181 0.11558394 -0.24809049 -0.17245668
0000e0 64 45 b3 bd 4e 66 dc 3d f6 1f e4 be ba fd 64 be
       -0.087534696 0.107617006 -0.44555634 -0.22362414
0000f0 1c db ca be 1e 98 91 3e 38 47 00 bc 1d 8f 0f 3e
       -0.39620292 0.2843637 -0.00782948 0.14019437
000100 2f 5c d9 3e db 94 6c 3e 6d 90 80 be 3b 41 fb 3d
       0.42453143 0.23103659 -0.25110188 0.12268301
000110 ab 79 9e 3e 17 7a b6 bd a2 ea 63 3e 64 2a 91 3d
       0.309522 -0.089100055 0.22257474 0.070881635
000120 87 e7 8c 3e 10 f7 44 3e 8c 9c 2c 3d 5d 16 0a 3e
       0.2752039 0.19234872 0.042141482 0.13485093
000130 84 22 44 3e c6 98 b7 bc bd 2e 24 3d 96 4c 5d 3e
       0.19153792 -0.022411715 0.040083636 0.21611246
000140 2f d6 13 be 98 43 fa be 5c 11 b3 be 04 e1 08 be
       -0.14437173 -0.48879695 -0.34974182 -0.13367087
000150 9d f2 fe 3e 03 d1 8f 3e 19 80 86 be 6e 14 91 3d
       0.49794474 0.2808915 -0.26269606 0.07083975
000160 89 9f 44 3e ab ca bd be 56 1a bc be 42 0c 7b be
       0.19201483 -0.37068686 -0.36738843 -0.24516395
000170 89 a2 c9 bd ee 17 65 bd 28 be 5a be 98 8a cb be
       -0.09845454 -0.055931024 -0.21361601 -0.39754176
000180 cd 07 95 3e 80 d1 80 bd 30 f4 e5 3e 04 29 f7 3e
       0.29107514 -0.06289959 0.44912863 0.4827348
000190 1e 67 89 3e f6 75 76 3e a8 27 7b bd 73 6c 60 bd
       0.26836485 0.24068436 -0.061317116 -0.054790925
0001a0 6c 2e 50 bd 59 5a aa be 4d 35 58 be e9 b8 57 be
       -0.05082552 -0.33272055 -0.21114083 -0.21066631
0001b0 78 3e e0 bd 37 cf 56 bd 9a d2 86 3e a9 aa 9b be
       -0.10949415 -0.05244371 0.2633255 -0.3040364
0001c0 1e 20 31 bd 87 2f 98 be ad 06 80 be ed b0 6f be
       -0.04324352 -0.2972376 -0.25005093 -0.23407336
0001d0 33 02 78 3d b9 e2 b5 bd d2 48 90 3e 01 93 27 be
       0.060548972 -0.088811345 0.28180557 -0.16364671

prop_in_to_h.bias f4 [20]
000000 f2 32 07 be 75 9d 00 bf ff 11 6c 3d b3 4c fe 3e
       -0.13203028 -0.5024026 0.05763435 0.49667892
000010 03 83 5b 3e 6b e6 31 3e 18 8d 9b 3e 80 25 d3 3c
       0.21436696 0.17373054 0.30381083 0.025774717
000020 ee 12 ea 3e 12 71 c8 be db 19 36 be 4e 33 d7 bb
       0.45717567 -0.39148766 -0.177833 -0.0065673953
000030 bd e8 97 3e 89 37 57 3d b3 c8 43 3c 2b dc 9b 3e
       0.29669753 0.052543197 0.011949706 0.30441412
000040 a0 58 e5 3e b7 0c ab be 46 c8 db 3d a8 c5 04 be
       0.44794178 -0.33408138 0.107315585 -0.12966025

prop_h_to_h.0.weight f4 [20, 20]
000000 7c 44 32 bd 04 f0 91 be c0 4b 00 be 68 08 ca 3d
       -0.043522343 -0.2850343 -0.12528896 0.098648846
000010 dc 4a 8f 3d ec 84 5e 3e c0 1d f2 bd 70 02 0f 3e
       0.069967 0.21730393 -0.118220806 0.13965774
000020 79 fa e5 3d cb 90 0c be 3e e0 20 bc f7 6b 29 3e
       0.112294145 -0.13727109 -0.0098190885 0.16545092
000030 ea ab 0f bc 9b 17 2c be db d2 e5 3d b5 fd dc bd
       -0.008769015 -0.1680588 0.11221858 -0.10790578
000040 66 4b 98 3e b1 ae 60 bd 18 e6 0c 3e d6 41 2f be
       0.29745024 -0.0548541 0.13759649 -0.17114958
000050 f1 65 75 3e 99 aa f9 3c d8 42 94 3e 84 e7 6b 3e
       0.23964669 0.030476855 0.28957248 0.23037535
000060 5b 5d 99 ba 67 af 5f 3d 2c 4f 1a 3e 44 d0 04 3e
       -0.0011700796 0.054610636 0.15069264 0.12970072
000070 36 c9 92 3e 57 0d 66 bc 48 3d 33 3d 3e 3d 41 3d
       0.28669137 -0.014041266 0.043759614 0.047177546
000080 98 f0 e9 3d 02 e3 c1 3d 40 d5 3f be 36 92 de bd
       0.11422843 0.094671264 -0.18733692 -0.10867731
000090 b6 64 99 3e 81 44 70 3c f0 3a 85 bc ad 35 fc bd
       0.2995965 0.01466477 -0.016263455 -0.12314925
0000a0 9c 22 b7 bc 48 de 4c be de 22 61 3e f0 a3 7b 3e
       -0.02235537 -0.20006669 0.21985957 0.24574256
0000b0 47 6a 7a 3e 1d ea 0c bd 90 4c 54 3e fa ce 3c bd
       0.24454604 -0.034402955 0.20732331 -0.046095826
0000c0 45 a4 34 3d d2 f8 7f 3d c2 f9 84 3d 8d 98 67 3e
       0.044101972 0.062493153 0.0649295 0.22616787
0000d0 70 35 34 3e 05 a9 a0 3c 06 df 7f bb 87 c0 57 bd
       0.1759851 0.019611845 -0.0039042844 -0.052673843
0000e0 1e 20 26 3e 96 bd 21 3e f4 1d 64 bd c9 11 10 3e
       0.16223189 0.15794978 -0.055692628 0.14069284
0000f0 c0 8a e5 3b 9c 2e b5 bd 91 93 4f be 22 19 f0 3c
       0.0070050657 -0.08846781 -0.20271136 0.02930886
000100 e6 31 2b be f6 91 d9 bd 38 a9 40 3c 08 96 5f be
       -0.16718253 -0.10623543 0.011759095 -0.21834576
000110 b1 7f 5f be 1d 57 10 3e 0d 7f 81 3d 5f d2 21 be
       -0.21826054 0.14095731 0.06323061 -0.15802906
000120 7a 7f 56 3d 55 bf bc bd c0 e9 35 be 43 6e e6 3d
       0.052367665 -0.09216181 -0.1776495 0.112514995
000130 f0 44 a6 be 6b 2f 63 3b 2a 99 bf bd fe 2f 25 be
       -0.3247447 0.0034665714 -0.093553856 -0.16131589
000140 c6 68 aa bc 9c 26 04 3e 4e 15 7a 3d 5a b7 8e 3d
       -0.020801913 0.12905353 0.061055474 0.06968565
000150 6c fb 0b be 9e af 69 3d de d3 12 3e 38 9b 86 bd
       -0.13670129 0.057052247 0.14338633 -0.065725744
000160 82 e7 07 bd b1 0a 0d 3e 1a d2 14 bd db d9 74 bd
       -0.033179767 0.1377361 -0.03633318 -0.059778076
000170 25 fa 69 3c fd e6 67 be 22 70 2e be 54 d1 ea bc
       0.0142808305 -0.22646709 -0.17034963 -0.028664269
000180 30 84 e6 bd d1 90 95 bc 58 9c 2d be 5c 9b 71 3e
       -0.112556815 -0.01825753 -0.16954172 0.23594421
000190 fa 0e 0b be 98 0f 18 be 8c af 4f 3e 8d 3e 5e 3e
       -0.13579932 -0.14849699 0.2028181 0.21703549
0001a0 18 0b 9d 3e 5e 2a 8f 3e a2 7a 90 3e ed ea 88 3d
       0.30672526 0.2796201 0.2821856 0.066854335
0001b0 0e e2 25 3e 2a 54 89 3c f1 99 25 3b 0e 54 27 3c
       0.16199514 0.016763765 0.0025268758 0.010212911
0001c0 f9 00 56 3e 63 1f 85 be 7a ff 71 3e 9c 26 0f 3e
       0.20898809 -0.2600051 0.23632613 0.13979572
0001d0 af ce 90 bd f3 51 d0 3d 0b a4 80 3c 38 7d b3 3c
       -0.07070672 0.101718806 0.015703222 0.021910295
0001e0 59 c7 1b be d0 c4 a3 bd 09 c3 56 3e f0 e9 21 3d
       -0.15212764 -0.079965234 0.20972838 0.03952974
0001f0 32 44 5f bc 60 d2 44 3e 32 da c0 3d 04 8a b1 bd
       -0.013627099 0.19220877 0.094166175 -0.086689025
000200 da cb 86 bd 7e e6 4f bc 9d 8b c2 bd a4 f4 0b bd
       -0.0658185 -0.012689231 -0.09499285 -0.034168854
000210 9b 23 14 bd b6 0f 0e 3d 58 18 23 be 5b 44 82 3d
       -0.03616677 0.034682952 -0.15927255 0.06360694
000220 26 79 73 3e a8 5f a7 3d 96 d5 02 3b af a3 3f 3d
       0.23776683 0.08172542 0.0019963733 0.04678696
000230 f1 2f 9e 3d bb 32 4b bc 7a a6 1c 3e fe 3e 48 be
       0.07723988 -0.012402232 0.15297881 -0.1955528
000240 02 7b 76 3c 32 66 2c be 92 37 8c be fd 73 25 3d
       0.015043976 -0.1683586 -0.27386147 0.04039382
000250 83 56 1b 3d ad f0 61 3e 51 ea ba 3d e7 b8 3a 3e
       0.0379243 0.22064467 0.091267236 0.18234597
000260 ac a5 8f 3d ea 06 db 3d 34 1a 2d 3d 3a a2 3d bd
       0.07014021 0.10694678 0.042261317 -0.04629729
000270 cf bb 22 bd f3 03 72 3e 77 cb 4a 3c f1 2a 9a bc
       -0.03972989 0.23634319 0.012377611 -0.018819304
000280 af dc 65 bd 8e d3 14 bd 75 f5 0b 3e 2c 0b 29 3e
       -0.056118663 -0.036334567 0.13667853 0.16508168
000290 91 80 76 3d 86 a6 05 bd 22 2d ac bd 30 d9 18 3e
       0.060181204 -0.032629512 -0.08407046 0.149266
0002a0 1a 06 8f 3e c4 c2 7f be 84 e4 84 bd 0b 04 d3 bd
       0.27934343 -0.24976641 -0.064888984 -0.103035055
0002b0 86 85 25 bd fe 82 05 3e bf fd 58 3e ec 09 42 3e
       -0.04041054 0.13038251 0.21190546 0.18949097
0002c0 cf 08 c7 3d c2 60 95 3d fa d2 fe 3d 9d b6 45 be
       0.09718477 0.07293846 0.12442584 -0.19307943
0002d0 a6 96 84 bc df 7f 82 be a4 61 40 be 0e 99 3a 3e
       -0.016185116 -0.25488183 -0.18787247 0.18222448
0002e0 3f 46 9f 3e 44 a3 7e 3e 51 f7 88 3b c2 f2 cb bb
       0.3110828 0.24866968 0.004179873 -0.0062240073
0002f0 5f fc 96 3e 10 4d 5b be 36 8b 9f bd 0a d7 20 be
       0.2948942 -0.21416116 -0.07790224 -0.15707031
000300 0b 26 90 3d d2 af 61 be ba 75 ae 3d 44 29 d6 3d
       0.07038506 -0.22039726 0.08518548 0.104570895
000310 78 da 8f 3e 88 77 90 be ca 8e e3 bd a7 1a 3c be
       0.28096366 -0.28216195 -0.11111219 -0.18369542
000320 bd 67 23 3d 8b cc 53 be 02 c7 81 3c 99 a8 75 3e
       0.039893854 -0.20683496 0.015841965 0.23990096
000330 e9 43 98 3e ce 24 91 bd 6a ea 25 3e dc 4c 0a 3d
       0.2973931 -0.07087098 0.16202703 0.033764705
000340 67 fd b0 3d 43 7c 64 bd 53 c4 71 bd 6d 1c 2d be
       0.08642083 -0.055782568 -0.05902512 -0.16905375
000350 03 95 47 3e a7 31 08 3d a7 a5 88 bd 27 14 5e bd
       0.19490437 0.033250477 -0.06672221 -0.054218438
000360 db f5 13 3e ac 3c b6 bb 50 92 86 bd 70 a6 2a be
       0.14449255 -0.005561432 -0.06570876 -0.16665053
000370 cb cf 67 3e 09 31 a2 be fa c9 75 3e f8 50 82 3e
       0.2263786 -0.31678036 0.24002829 0.254524
000380 30 07 6b bd 1a e8 eb bd 69 25 0a 3e e0 43 83 3d
       -0.0573799 -0.11518879 0.13490833 0.064094305
000390 74 73 a3 3e 3c 8b a6 bc 95 cb 16 3e 67 d7 62 3e
       0.3192402 -0.020330064 0.14726098 0.22152482
0003a0 67 a2 f9 3c 2b c2 80 be 81 d2 01 be 99 f1 6d 3e
       0.030472947 -0.25148138 -0.12677957 0.23236693
0003b0 f5 77 a9 3e 18 ec 8c be 59 49 eb 3d a5 74 cd bc
       0.33099332 -0.27523875 0.11488599 -0.025080035
0003c0 9b 22 d7 bd 89 d2 12 3e 05 44 33 bc c7 bd 98 bd
       -0.10504647 0.14338125 -0.01094151 -0.07458072
0003d0 4f 7c 84 be ff df b3 3d 07 23 a2 3d df 2c 63 be
       -0.2587609 0.08782958 0.07916837 -0.22185086
0003e0 c0 55 7a be ac 39 f6 bd 9b d7 ad bc 09 da 88 3d
       -0.24446774 -0.12022719 -0.021220973 0.06682212
0003f0 71 19 65 bc 4a 0e d4 3d f7 75 a2 3d cf 26 88 bd
       -0.0139831165 0.10354288 0.07932656 -0.06648027

prop_h_to_h.0.bias f4 [20]
000000 92 b5 61 3e 2e 4d 50 3e 7b 0a 4b 3d 5e 5b 68 be
       0.2204192 0.20341942 0.04957054 -0.22691104
000010 4a 24 3a 3e 50 2b 93 3e 25 ff 98 3e b5 0a 47 be
       0.18177906 0.28743982 0.2988216 -0.19437678
000020 aa 38 94 3d e6 f3 98 3e c9 ee 60 3e ba 53 1f 3e
       0.0723737 0.2987358 0.2196609 0.15559283
000030 2c 8d a1 be c8 65 52 be db 2b 16 be aa bc 43 be
       -0.31553018 -0.20546639 -0.14665167 -0.19114938
000040 11 8b a2 be 42 e4 5f 3e 21 b3 a7 3e f4 ce 40 be
       -0.31746724 0.21864417 0.32753852 -0.18828946

prop_h_to_h.1.weight f4 [20, 20]
000000 c2 c3 8b 3e d3 5f 4f 3e a7 3a 2f 3d 9e d2 2f be
       0.2729779 0.20251398 0.042780545 -0.17170188
000010 ad 78 d3 bd ce cd a9 3e 7d 69 a5 3d c9 13 1b be
       -0.103257515 0.3316483 0.08076761 -0.15144266
000020 4c a0 72 3e 6c b4 65 3e f0 23 51 3e b7 79 89 3e
       0.23693961 0.22432107 0.20423865 0.26850674
000030 03 66 26 bd 5d 2e fa bd 4d 90 05 3d 4e a4 12 be
       -0.04062463 -0.12215874 0.03260832 -0.1432049
000040 67 46 22 be c1 22 8b 3e 81 c0 3f 3d 69 3d 44 bd
       -0.15847169 0.27174953 0.046814445 -0.047910128
000050 b4 d4 74 3e 07 58 90 3c 0b 16 8b 3e f5 b3 3f 3d
       0.23909265 0.0176201 0.27165255 0.04680248
000060 96 41 66 3c 7e d5 84 3e dc c4 a5 3e e3 08 95 be
       0.014053723 0.25944132 0.32376754 -0.29108343
000070 0c 1e d3 3d 1e dc 46 3e 9c b5 39 3d dd b2 f3 3d
       0.10308465 0.19419906 0.04533921 0.1189935
000080 29 d2 01 be ba f7 08 be be 83 69 be 2a 73 fb 3c
       -0.12677826 -0.1337575 -0.22804162 0.030694563
000090 40 e7 c8 3c 0f 32 9b bd 6f b3 85 3d 61 2d 42 3d
       0.024524331 -0.07577907 0.06528365 0.047406558
0000a0 00 ba 28 3d 8b cf a0 3e 92 ae e6 bc 99 c1 b8 bc
       0.04119301 0.31408343 -0.028159413 -0.022553252
0000b0 c4 70 0a 3e f2 64 8c 3e 23 c5 23 3e 89 ec 59 bd
       0.13519579 0.27420765 0.1599317 -0.053204093
0000c0 ab 0a b7 3d 9a 3a 67 3e db 44 06 3d 55 be 68 3e
       0.08937582 0.22580948 0.03278051 0.22728856
0000d0 a8 c2 f0 bd 5d c3 b7 bd ac 5b a0 bd b4 e3 e4 bd
       -0.11755878 -0.089728095 -0.07829985 -0.111762434
0000e0 87 2c 06 bd 3f 1f 6d 3e 6e 22 9d 3c b6 88 71 3d
       -0.03275731 0.2315645 0.019181456 0.05896827
0000f0 1a fc c5 bd 09 2d 66 be da 7a 54 bd 07 3a 47 3e
       -0.09667225 -0.22478117 -0.051874973 0.1945573
000100 e9 6b 4e be 64 db 8c be c7 64 2e 3d 6d 41 38 3d
       -0.20158352 -0.27511132 0.042576578 0.04498427
000110 d3 e5 93 bd 12 0b 34 be d4 68 80 bd 3b 4f 82 3d
       -0.0722157 -0.17582348 -0.062699944 0.06362768
000120 3f 14 2d 3d f2 35 26 3e e2 0d 16 3e b0 0e c9 bd
       0.042255636 0.16231516 0.14653733 -0.098172545
000130 4c 19 93 3e 21 30 f6 bd a5 30 22 be 41 f6 07 3e
       0.28730237 -0.120208986 -0.15838869 0.13277532
000140 75 40 95 be b7 4e a7 be 7b ff b5 bd 3f 42 4d 3d
       -0.2915074 -0.32677242 -0.0888662 0.050112005
000150 91 15 73 ba 0c 2e 8b 3d 54 30 bc 3d 39 36 af bd
       -0.0009272928 0.06795892 0.09188905 -0.08555264
000160 fe f7 18 3e 5e a9 8d be b9 05 6e 3d b3 20 88 be
       0.14938352 -0.2766828 0.058110926 -0.26587448
000170 7b ed 40 3e f3 86 2d bd e3 94 96 3e f9 6b a3 3e
       0.18840592 -0.042365026 0.29410467 0.31918314
000180 01 98 10 3e c3 82 a4 be 2b 31 a2 be 0f 37 4c 3e
       0.14120485 -0.32131013 -0.31678137 0.19942878
000190 42 60 3f be f8 69 98 be 28 d3 8c be 0f d2 06 3e
       -0.18689063 -0.29768348 -0.2750485 0.13166068
0001a0 7c 0b 03 be 0e d9 42 be bc 46 91 be 0b 58 3b 3e
       -0.1279735 -0.19028112 -0.2837428 0.18295304
0001b0 7b 14 13 3e b2 fb 47 be a6 18 76 bd 0a 7c a1 be
       0.14363281 -0.19529608 -0.0600821 -0.31539947
0001c0 b1 b9 70 3e 38 91 1c 3d d7 d9 8b 3e d5 5c 92 3e
       0.23508336 0.03822443 0.27314636 0.2858645
0001d0 cb 03 8d 3d 8f ef 07 be 0b 4b 34 3d 56 12 f3 3d
       0.06885489 -0.13274978 0.04401688 0.11868732
0001e0 73 48 4f 3c b9 57 9f bc a7 63 73 3e 79 de 9b be
       0.012651551 -0.01945101 0.23768483 -0.3044317
0001f0 e4 b3 ee 3d 0d f1 81 3e 14 d2 c9 3d c4 53 9c be
       0.11655405 0.2537922 0.09854522 -0.30532658
000200 39 75 c1 bd a2 5d 10 bd 9b 77 2b 3e 15 b1 16 3e
       -0.094461866 -0.035245545 0.16744845 0.14715989
000210 f5 e4 9c 3d c2 99 b5 bd 7d 40 01 3d f8 28 c7 bb
       0.076608576 -0.088672176 0.03155564 -0.006077882
000220 4b 8a 7b be f6 99 d1 3d ce 3d ec 3d c4 32 18 be
       -0.24564473 0.10234444 0.11535226 -0.14863116
000230 c6 25 3f 3e 51 12 9f bd 64 0e 4f 3d 71 b1 75 be
       0.18666753 -0.077671655 0.050550833 -0.2399347
000240 32 a7 95 3d 5a f9 83 bd af fe e3 bc ef eb 25 be
       0.073072806 -0.064440444 -0.027831404 -0.16203283
000250 06 4c 5a 3c 84 6f 92 3d e4 ea 0c bd 22 f3 a5 3e
       0.013323789 0.07150176 -0.034403697 0.32412058
000260 1e cc 8f 3d f8 10 e0 bc c9 59 5f be 29 57 ea 3d
       0.07021354 -0.027351841 -0.21811594 0.11442406
000270 1b 4d 81 be 01 db a4 3e cc dd b6 bd 25 ad 7d bd
       -0.2525414 0.32198337 -0.08929023 -0.0619327
000280 aa df 17 3e a2 ba cc 3d 23 e4 1e 3e 4c 01 7b be
       0.14831415 0.09996535 0.15516715 -0.24512213
000290 3e f0 25 be 71 63 84 3e 15 24 24 bc 71 2b 1e be
       -0.16204926 0.25857118 -0.010018368 -0.15446259
0002a0 49 dc 7e 3e f8 3a 8e bc 48 2a 5a 3e ab c2 a8 3d
       0.2488872 -0.017362103 0.21305192 0.08240255
0002b0 0c 09 48 be fe c2 b2 3c 4a a6 94 be 59 43 8f be
       -0.19534701 0.021821495 -0.29033118 -0.2798107
0002c0 34 e5 d5 3d 2b dd b5 bd e2 5a 56 3e 91 11 f2 bd
       0.10444108 -0.08880075 0.20933107 -0.11819757
0002d0 a2 fc bb bd 2e ca 83 3e d5 4b 28 3e 56 d4 03 be
       -0.09179045 0.25740188 0.16435178 -0.12873968
0002e0 6f 34 5b bd 4a cd 2b 3e 13 9e 7a 3e fc 06 7e be
       -0.0535168 0.1677753 0.24474363 -0.24807352
0002f0 42 dc ac 3d ce 82 73 3e 27 2d 99 3e a6 65 90 3e
       0.08440448 0.23780367 0.2991726 0.28202552
000300 0d 6d 9f be 52 75 6d be 97 b5 93 bd 71 e4 01 be
       -0.31137887 -0.23189285 -0.0721237 -0.126848
000310 ad 2c 26 be 63 fb 07 3e 5a d0 74 3e 5e 8b 05 bd
       -0.1622798 0.1327949 0.23907605 -0.032603614
000320 d7 d6 38 3e 41 7b ad 3d 76 b3 32 3d d9 42 8d be
       0.18050705 0.084707744 0.04362818 -0.27590063
000330 23 9c d8 3c 91 f0 ff bc ae 2c 84 3e 64 a2 7a bd
       0.02644164 -0.03124264 0.25815338 -0.061190024
000340 0d bc ea 3d 6d 41 2e bd f6 63 42 3e 70 e4 9a 3e
       0.11461649 -0.042542864 0.18983445 0.3025241
000350 ff 3e 05 be 2c 49 f6 3d 06 eb f7 bd b1 d9 87 be
       -0.13012312 0.12025675 -0.12105374 -0.26533273
000360 4a b7 20 bb 1a 6b 97 3d 28 2b 50 3e 9c 60 60 bd
       -0.0024523311 0.07393475 0.20328963 -0.054779634
000370 db a0 78 3d 90 fb b4 bc 85 3c 08 be 2d 81 3d 3e
       0.06070028 -0.02209261 -0.13304336 0.18506308
000380 d0 5e a9 bd 9b a8 93 be a8 17 14 bd 04 66 33 bb
       -0.08270037 -0.28839573 -0.036155373 -0.0027374038
000390 a4 5e a1 bd b1 9e e6 bc c7 59 ff bd bc af aa be
       -0.078793794 -0.028151842 -0.124682955 -0.333372
0003a0 bf ab 24 3e e9 96 4f bd c0 37 73 3e 3b 7d 2d 3e
       0.16081141 -0.05068103 0.23751736 0.16942303
0003b0 69 14 13 3e 12 3b 7f be dc 13 dd 3c 26 ca 80 bd
       0.14363255 -0.24924877 0.026987009 -0.06288557
0003c0 83 83 8a 3e 3d 01 6b 3c d3 f3 30 3e 82 56 2b bd
       0.2705346 0.014343557 0.17280512 -0.041830547
0003d0 25 39 0c be e2 88 a1 3e bf e4 74 3d 56 63 35 3d
       -0.13693674 0.31549746 0.05978846 0.044284187
0003e0 2c 67 a0 bd ea 6c 79 3d 91 93 65 3d cf 8f 88 3e
       -0.078321785 0.060894884 0.056048933 0.26672217
0003f0 4e 7a 05 bd 73 ca f5 3d 6c 63 51 be e8 9f 67 be
       -0.032587342 0.12001505 -0.20448083 -0.22619593

prop_h_to_h.1.bias f4 [20]
000000 f7 33 76 3c a0 27 43 3e 5f fe 9c 3e 31 f1 39 be
       0.015027038 0.19058084 0.3066282 -0.18158413
000010 12 cd 7b be 62 88 95 be 92 eb 83 3e 14 05 85 3e
       -0.24589947 -0.29205614 0.25765663 0.25980437
000020 cf f1 58 3e 38 8b 5d 3e 6d 85 6a 3e 2b 49 46 be
       0.21185993 0.21635139 0.2290246 -0.19363849
000030 fd 93 19 3c 64 80 56 be f8 b3 7a bd 17 6e b7 3c
       0.009373662 -0.20947415 -0.061206788 0.022391362
000040 58 a3 ca bd f4 9c ab 3c a9 d3 6b be 42 c2 80 3e
       -0.098944366 0.020948865 -0.2302996 0.25148207

prop_h_to_h.2.weight f4 [20, 20]
000000 65 f8 5a 3e 53 39 38 3e 84 6d 93 bd ef 16 a9 be
       0.21383817 0.17990617 -0.07198623 -0.3302531
000010 50 87 1c bc 82 2b ad bd c2 d8 52 3e e1 58 1d 3e
       -0.009553745 -0.08455564 0.20590499 0.15365936
000020 56 af 9e 3e ac ea 60 3d 81 92 96 3e d5 57 13 bd
       0.30993146 0.0549113 0.2940865 -0.035972435
000030 dc 92 5c bc a0 da be b9 99 4d 37 bd 13 90 c7 3d
       -0.013462748 -0.00036402512 -0.044751737 0.09744277
000040 d8 f7 15 be af f5 18 3e 9a 22 17 be 3e 7d 90 3e
       -0.14645326 0.14937471 -0.14759293 0.28220552
000050 52 39 8b bd 1a d9 00 be a0 17 c1 3d d8 13 4f bd
       -0.06798042 -0.12582818 0.09428334 -0.050556034
000060 f3 04 2a 3e 8d 77 1b 3e 4a 14 6f be f6 b0 9c bd
       0.1660345 0.15182324 -0.23347583 -0.0765094
000070 b7 66 ff 3d fb f8 23 be dd 91 35 be ac 15 c8 3d
       0.12470763 -0.16012947 -0.17731424 0.097697586
000080 89 90 13 be c4 dd 8d 3e c2 58 30 bd 1c e5 02 ba
       -0.14410605 0.27708256 -0.043053396 -0.00049932464
000090 8c f0 f7 3c 7c 7a 8a bd 2d d1 70 3e 47 7d 64 be
       0.030266069 -0.06761643 0.23517294 -0.22313415
0000a0 81 05 7c 3e 28 48 17 3e 48 11 9e 3e f1 02 4e be
       0.24611475 0.14773619 0.3087256 -0.2011831
0000b0 05 7a 1b be 85 96 7d bd 42 2d 18 3d fb b2 d6 bb
       -0.15183266 -0.061911125 0.037152536 -0.006552098
0000c0 2d 39 87 bd 53 a6 98 3e ba 4a 66 3e f8 a2 a9 be
       -0.06602702 0.29814395 0.22489443 -0.33132148
0000d0 a1 fb 03 3d fb 7c 96 bd 98 27 38 be 48 56 8d 3e
       0.032222394 -0.07348057 -0.17983854 0.2760489
0000e0 41 ee a5 3b d6 f5 65 be 3f d7 13 be 76 bd 55 3e
       0.0050638025 -0.2245706 -0.14437579 0.20873055
0000f0 48 dc 20 3d c9 c2 b9 3d e4 77 8c 3c 64 52 24 3e
       0.039272577 0.090703554 0.017147012 0.16047055
000100 70 32 88 3e c6 d3 a0 3e 0f 46 27 be bc 67 3a 3d
       0.2660098 0.3141157 -0.16335319 0.045509085
000110 b2 de 10 be fe 10 61 be 3a 85 8d be fb 80 99 3c
       -0.14147452 -0.21979138 -0.27640706 0.01873826
000120 5f 5e 81 bd 6b fc 04 3e 40 6b 2d 3e c4 34 47 be
       -0.06316828 0.12986915 0.16935444 -0.19453722
000130 ce ad 43 3c fd 51 ba 3d a0 ff 89 3e b7 e5 13 be
       0.011943294 0.09097669 0.2695284 -0.14443098
000140 30 ba 89 3c 80 ae a6 3e 49 78 32 3e 00 41 cc bd
       0.016812414 0.32555008 0.17428698 -0.09973335
000150 67 5d 90 be 5f 80 4c be 3c 24 85 bc 7e 4e a0 3e
       -0.2819626 -0.19970845 -0.01625263 0.31309885
000160 45 9f 94 3e e0 91 95 3e 1c 86 71 3e f8 c7 7e be
       0.29027763 0.29212856 0.23586315 -0.2488097
000170 ec f0 63 3e 9c c0 a2 be 67 b4 81 be f4 68 cf bb
       0.22259873 -0.31787574 -0.2533295 -0.00632965
000180 4e fc 43 be 80 91 8d bd ca 82 57 be 9a fe 2e 3e
       -0.19139215 -0.069125175 -0.21045986 0.1708931
000190 b6 d9 6f 3e 55 a0 3a 3e 6d 1b 93 bc 01 a6 a6 be
       0.23422894 0.18225224 -0.017957414 -0.32548526
0001a0 dd 0b 77 bb 29 d5 6b be e6 2d 87 bd 93 f9 0d 3e
       -0.003769628 -0.23030533 -0.06600551 0.13864736
0001b0 3b 03 a0 3e bd 0e 43 3d 3f ad 36 3e b6 67 06 be
       0.31252465 0.047621477 0.17839526 -0.131255
0001c0 89 05 f7 3b 15 cb a1 3d f7 87 4c be ff 4a 21 3d
       0.0075385016 0.07900063 -0.19973741 0.039378162
0001d0 72 e3 47 be 91 69 03 3e a3 23 5c bd 43 49 6f 3e
       -0.19520357 0.12833239 -0.053744923 0.23367791
0001e0 cc 3b ec 3d 5d 3c 28 3e 9a 16 d8 3d 2c 83 8b bc
       0.11534843 0.16429277 0.10551186 -0.017030321
0001f0 82 af 7f bd 98 ab 67 be 43 60 88 3e ac f4 32 3e
       -0.062423237 -0.22624052 0.26635942 0.17476147
000200 01 d0 9a bd 04 50 ea 3d f4 21 5c 3e 54 63 54 be
       -0.07559205 0.11441043 0.21497327 -0.20741016
000210 59 22 89 3e 39 4c 81 be e3 b5 c6 3d 4c b8 62 3e
       0.26784018 -0.25253466 0.09702661 0.22140616
000220 17 b3 04 be 5e 5d 18 bd 37 88 fb 3d 2d 7e e6 3d
       -0.12958942 -0.037198417 0.1228184 0.11254535
000230 f3 84 e5 3d e6 93 15 be c0 39 40 be 0d 95 42 3e
       0.11206999 -0.146072 -0.1877203 0.19002171
000240 35 9e 32 3e 74 78 3b 3d 6f 19 8b be a0 9b e5 3d
       0.17443164 0.04576917 -0.27167842 0.11211324
000250 ad b9 56 bc fa a2 55 be 30 6f 0a be ac e1 ae 3b
       -0.013105792 -0.20862952 -0.13518977 0.005336961
000260 74 ed 50 be db 80 e7 3d d7 a9 2f bd 1c c9 89 be
       -0.20403081 0.11303874 -0.04288658 -0.26911247
000270 eb 26 a0 3d 1f ec fa 3d f5 aa e8 bd 24 b2 16 be
       0.07819923 0.12252068 -0.113607325 -0.14716393
000280 e0 ba 99 3e 8c 51 2b 3e 05 cd a6 bc 6d 45 e2 bc
       0.30025387 0.16730326 -0.020361433 -0.027620995
000290 51 b8 f6 bd b3 1f 23 3d 29 ad a2 3c 0d 52 1d 3e
       -0.12046874 0.039825153 0.01985796 0.15363331
0002a0 fc 27 10 3e d4 da 41 bd d5 a9 33 3e f2 f9 34 be
       0.14077753 -0.04732783 0.17545255 -0.17673472
0002b0 29 f8 0a 3b 0a 99 9f be 7e ea 63 3d ce 09 50 bd
       0.0021205044 -0.31171447 0.05564355 -0.0507906
0002c0 3b 82 a4 be ee c7 55 be 37 5c 97 be 77 71 03 3e
       -0.32130608 -0.20877048 -0.29562542 0.12836252
0002d0 75 bd 22 3e e0 90 50 3e 70 52 74 3e c3 a8 75 be
       0.15892585 0.20367765 0.23859572 -0.23990159
0002e0 41 28 83 be b9 08 b6 bd c3 cd 53 3e 86 6c a6 3e
       -0.2561665 -0.088883825 0.2068396 0.32504672
0002f0 1a ac 82 3e f9 2e 29 3e 2c f6 9b 3e e4 89 64 be
       0.25521928 0.16521825 0.30461252 -0.22318226
000300 68 9f 0d bb df 30 8b be 79 94 80 be 5b b1 e6 bd
       -0.0021609906 -0.27185723 -0.25113276 -0.112642966
000310 fe 83 fd bd 9c 52 01 bc 28 f8 a6 3d 7a 6e 59 3e
       -0.12378691 -0.007893231 0.08152801 0.2123355
000320 94 05 91 be a4 67 89 be 4b 83 a1 bd ad 70 64 3e
       -0.28324568 -0.26836884 -0.0788637 0.22308607
000330 b3 6b 13 3e 59 f6 a3 3e fb 35 75 be 5d 09 6b be
       0.14396553 0.32023886 -0.23946373 -0.2295279
000340 1b d1 37 3d 9d b6 b5 bc 69 5f 0e 3d b1 6d 9d bd
       0.044877153 -0.022181803 0.03475896 -0.076869376
000350 a3 53 33 be b0 5b 37 3e f4 00 8a 3e 6f ee 0c be
       -0.17512374 0.1790607 0.26953852 -0.1376283
000360 78 05 39 3e a8 8f 3d 3c ab d5 47 3e 75 c5 6f 3d
       0.18068492 0.011569895 0.19515102 0.05853792
000370 c4 08 92 3e 77 a7 e9 3d c5 37 f8 bc 7f d2 3d be
       0.28522313 0.114088945 -0.03030003 -0.18537329
000380 2d d1 30 bc 94 6a f6 3d 7c 37 05 be 98 57 0c bd
       -0.010792059 0.12032047 -0.13009447 -0.034263223
000390 f7 f0 da bd 6b 5a bf bc b1 b6 00 3e eb 08 82 be
       -0.10690492 -0.023358544 0.12569691 -0.2539743
0003a0 ee 1d 18 3e 74 f5 2b 3d cb 5f 7c be 22 0c 1f be
       0.14855167 0.04198213 -0.24645917 -0.15531972
0003b0 72 13 02 be d5 f3 36 bd 79 6d d3 bd b1 ac 35 3e
       -0.1270273 -0.04466613 -0.103236146 0.17741658
0003c0 fb fb a1 3d 4d 6c 3d be 61 64 53 bd e9 f1 02 3e
       0.079093896 -0.18498345 -0.0516094 0.12787594
0003d0 3f 9a b8 3c 7a 0b 49 3e 5f de bb bd db a5 1e bd
       0.022534488 0.19633284 -0.09173273 -0.03873239
0003e0 57 1d 65 be 49 25 af be 45 e3 41 3c e2 ab 23 3e
       -0.22374474 -0.34208134 0.01183397 0.15983537
0003f0 7a 8f 89 bd 77 2e 97 3d 54 af 95 3e 05 f8 07 3d
       -0.06716819 0.07381909 0.29235327 0.033195514

prop_h_to_h.2.bias f4 [20]
000000 39 5f 7d 3e 07 b2 53 be 35 3d a4 3e dd 77 96 be
       0.24743356 -0.20673381 0.32077947 -0.29388323
000010 97 5e d8 3d 5c 8a 6a 3e 09 a2 91 3e 30 84 23 be
       0.105649166 0.22904342 0.28443936 -0.15968394
000020 74 95 a9 3e da c5 21 bd 91 5a 39 be e6 3d 7c 3e
       0.33121836 -0.039495327 -0.18100955 0.24632987
000030 a1 2f 3e be b4 7e 80 3e d0 b8 c5 bd 60 89 95 be
       -0.18572856 0.25096667 -0.09654391 -0.2920637
000040 da 18 66 be a1 bc 55 3e 9f 25 52 be c8 47 6e be
       -0.22470418 0.20872737 -0.20522164 -0.2326957

prop_h_to_h.3.weight f4 [20, 20]
000000 04 62 98 bc 79 76 34 3d ef 7d 32 3e 25 bc 03 be
       -0.018601425 0.044058297 0.17430852 -0.1286474
000010 09 de 85 bd 6c 5a 31 3d 94 12 bb bc 74 f3 44 bc
       -0.065364905 0.043299124 -0.022836007 -0.012020934
000020 b4 6b 8a 3e c6 da 87 bc 00 e5 81 be 31 00 bd 3d
       0.27035296 -0.016583811 -0.25370026 0.09228552
000030 8b d4 37 be 19 cf a4 bd 3d 0a 76 3d ba 6d cc 3d
       -0.17952172 -0.08047313 0.060068358 0.09981866
000040 63 93 6c bd 79 c6 b6 bb 54 99 92 be e0 1b e8 bd
       -0.057757746 -0.005577859 -0.28632605 -0.11333442
000050 ec 8b 62 be 66 cf 8d 3e a8 c5 6d be 4e d7 fd 3d
       -0.22123688 0.27697295 -0.23219931 0.12394582
000060 cf a3 8c be a6 bd 19 be b4 3a 23 be 4f 45 9a bd
       -0.27468726 -0.15013751 -0.15940362 -0.07532751
000070 6c e9 23 be 85 54 d5 bd e8 d8 58 3e cd 84 b3 bc
       -0.16007012 -0.104165114 0.21176493 -0.02191391
000080 4a 9e 43 3e 19 5f 8a be cf 4f 18 be 35 ec 8b 3e
       0.19103351 -0.2702568 -0.14874195 0.2732865
000090 e6 46 67 3b 6c 5a 70 be fd 8d 32 3e 65 fa b7 bd
       0.0035290061 -0.23471993 0.17436977 -0.08983306
0000a0 2f af 90 bb 59 63 98 be da 03 a8 bc be b5 16 3d
       -0.0044154148 -0.29763296 -0.020509649 0.036794417
0000b0 3b e1 4b bd 9d 4f ed 3c 31 b2 2d bd d6 05 9a bc
       -0.049775343 0.028968627 -0.042406265 -0.01880161
0000c0 c3 38 37 3e 5b 01 f8 3d 0a 81 71 be df 07 82 bd
       0.17892747 0.121096335 -0.23584381 -0.063491575
0000d0 d7 ab 65 3d ab d7 58 bc f1 fc b3 3b 8e 64 01 be
       0.056072082 -0.013235013 0.0054927994 -0.12636015
0000e0 76 65 8e bd 7e 06 6c 3e 39 8a 9f be 1e 67 11 be
       -0.06952946 0.23049352 -0.31160143 -0.14199492
0000f0 73 f6 77 be bf d7 6e 3e 26 03 8b be c0 06 10 3c
       -0.24215107 0.23324488 -0.2715084 0.008790672
000100 a6 4f 86 bd c7 8b c9 ba 27 7c 53 bc e8 c5 bf b8
       -0.065581605 -0.001537674 -0.012908018 -9.1444526e-05
000110 d4 2c 85 be 03 d6 40 bc 27 34 a4 bd 21 6f 24 be
       -0.26010764 -0.011769774 -0.0801776 -0.16058017
000120 a5 c5 44 3e d6 28 8c be 5d e8 09 3e 38 ff 34 3e
       0.1921602 -0.27374905 0.13467546 0.17675483
000130 7e 8b 19 be e2 2a b5 bd e7 91 60 3e 0c c7 14 3e
       -0.14994618 -0.0884607 0.21930657 0.14529055
000140 fe 97 07 3c 3e 85 92 bd 49 89 a9 3c a4 62 10 3d
       0.008275984 -0.0715432 0.020695345 0.03525032
000150 c7 67 8d 3e b2 ba 94 3e af f5 90 bd 74 b2 26 be
       0.27618238 0.29048687 -0.070781104 -0.16279012
000160 1e f4 97 3d 5d 68 81 3e 9d c6 05 be 61 9f fa 3d
       0.074196085 0.25274935 -0.13064046 0.1223743
000170 90 a0 cf bd 31 91 61 3e 60 29 16 3d 05 96 83 bc
       -0.10138047 0.22028042 0.036660552 -0.016062746
000180 02 35 09 be fb f2 bb bd df 1a 3d be cd 80 f1 3c
       -0.13399127 -0.09177204 -0.18467282 0.029480362
000190 2b 62 08 bd 45 af 7b 3d 54 6e 66 be 23 70 d0 3d
       -0.033296745 0.061446447 -0.22503024 0.101776384
0001a0 d6 23 50 bd f2 cd 9a be 59 33 8f be c8 a2 8d 3e
       -0.050815426 -0.3023525 -0.27968863 0.27663255
0001b0 b4 bd 2c be a6 d1 52 3d 1e 65 8c bd c6 07 e8 bd
       -0.16869241 0.051469468 -0.06855224 -0.11329608
0001c0 5c 2b 6e 3e 91 9d 84 3d f2 42 cb 3d 2a c9 66 3c
       0.23258728 0.06475366 0.09924878 0.014086047
0001d0 38 f9 ab 3c 00 e9 89 be 42 a0 48 bd 80 20 f6 bc
       0.02099286 -0.26935577 -0.04898096 -0.030044794
0001e0 b9 37 ee bd 9e ea ac bd b7 35 5a 3b 12 59 99 bd
       -0.11631722 -0.08443187 0.0033296177 -0.07487692
0001f0 2a 64 1f 3e 04 9b 43 3e 28 47 21 3e ee 62 85 bc
       0.15565553 0.19102103 0.157498 -0.016282525
000200 8c 9f 80 bd d5 a8 9b 3d 6f da b7 3d bd f7 07 be
       -0.06280431 0.076005615 0.0897721 -0.13278098
000210 87 f8 40 3d 07 49 7b 3d 64 31 e4 3d 63 ab bb 3d
       0.047112014 0.06134894 0.11142233 0.09163549
000220 3c 47 7f bd ff 32 09 3e 17 2a 17 3e 2c 32 3d 3c
       -0.062323794 0.1339836 0.1476215 0.011547606
000230 e2 52 41 3e 0a 5f e3 bc 26 aa 02 3d 26 bf 89 3c
       0.18879274 -0.02775528 0.031900547 0.01681478
000240 70 b3 a7 3d 13 e2 bc 3d 37 5b 45 be b4 fc 65 3c
       0.08188522 0.09222808 -0.19273077 0.0140373
000250 81 bc 81 bd 8e b2 5e 3c 5b a7 9f bd 6b a1 17 be
       -0.063347824 0.013592375 -0.077955924 -0.1480767
000260 c3 7b 1a 3e 92 6f 03 be 22 5b 4b 3d ae 8c 97 3b
       0.15086274 -0.1283553 0.049647458 0.0046249246
000270 24 35 33 3e 7d 2c 5b 3d 22 cc 7f bd 00 f8 2a 3e
       0.1750074 0.053509224 -0.062450536 0.16696167
000280 70 85 72 bd 8c bc 0f 3e 07 a4 1d be 00 b6 ed 3d
       -0.059209287 0.14036769 -0.15394603 0.11606979
000290 c0 c4 44 be 5e d9 89 bd 41 df d9 3c 12 25 7c 3e
       -0.19215679 -0.067309126 0.026595714 0.24623516
0002a0 c7 a3 3f be 9f c6 c8 3c 15 e2 a9 3d 02 80 ef bd
       -0.1871482 0.024508772 0.08295075 -0.116943374
0002b0 74 a3 10 3e 80 10 a8 3a 50 1e 18 3e 22 10 4c bd
       0.14124852 0.00128223 0.14855313 -0.049820073
0002c0 60 63 e7 3d b7 ea 79 be e3 96 0e be 5f bd a5 3d
       0.11298251 -0.24405943 -0.13924746 0.0809276
0002d0 d1 e3 69 be 15 fb 13 be 2a c6 60 be f5 45 66 3e
       -0.22840811 -0.14451249 -0.21950594 0.22487624
0002e0 de ea 02 3e 08 a0 4a be 23 95 22 bd 7f 6f 81 3e
       0.12784907 -0.1978761 -0.03969301 0.25280377
0002f0 e8 69 7d be b3 43 16 be 44 11 08 3c 9e 15 6c be
       -0.24747431 -0.14674263 0.008304898 -0.23055121
000300 fc f2 de 3d 98 2e 0a 3e 9a ce e7 3d 66 f5 66 3e
       0.10886189 0.13494337 0.11318703 0.2255455
000310 5b b0 9d 3d 8f 6e 01 be 79 c9 b4 3c 02 14 6f 3c
       0.07699653 -0.12639831 0.022068726 0.014592173
000320 64 70 5e be 7e ac cd 3c 71 9c 8d be 4d f8 3c bc
       -0.21722561 0.025106665 -0.27658418 -0.011533809
000330 ce 0c 0b 3d a6 69 55 3d 09 54 32 be 2d a5 5a 3e
       0.03394776 0.052102707 -0.1741487 0.21352072
000340 f3 f0 bd 3c 85 6a 07 be 3b aa 48 3e 05 f9 75 bd
       0.023186183 -0.13224228 0.19596188 -0.060051937
000350 8c 3a 2a bd e1 1a 3f 3d 84 c7 29 be 53 60 bd 3d
       -0.04155974 0.046656493 -0.16580015 0.09246888
000360 41 61 de bd fc 4c 17 be 8f 4f b6 3d 7a 2f eb bc
       -0.108583935 -0.14775461 0.08901893 -0.028709162
000370 72 26 48 3d a6 db 68 bd 8e 79 86 be 30 52 6c 3e
       0.04886479 -0.056850098 -0.26264614 0.23078227
000380 3f 24 11 be e4 3f bd 3d f2 6e 59 be 98 49 37 bd
       -0.14173983 0.09240702 -0.21233729 -0.04474792
000390 6f 2d 8f be 53 5f 33 3d 79 a7 cb bc c9 f4 c4 3d
       -0.2796435 0.04379208 -0.02486013 0.096170016
0003a0 52 97 92 3e 33 c3 81 be 13 66 a7 bd c4 83 52 3e
       0.28631073 -0.25344238 -0.08173766 0.20558077
0003b0 0b 34 6c bd 15 d3 07 3e 9c 73 5c 3d 45 85 d2 bd
       -0.05766682 0.13264115 0.05382119 -0.102793254
0003c0 39 62 9d 3e 3a 36 b1 bd 7d bc a0 3e 12 6d 46 be
       0.30739 -0.08652921 0.31393805 -0.19377545
0003d0 1e 30 f6 3d 89 68 9e 3c 9b e6 20 3d 95 ee ec bd
       0.120208964 0.019336956 0.039282423 -0.115689434
0003e0 e1 f4 1f 3e 51 26 7f 3d 7f 7f 85 be d8 04 8a bd
       0.15620758 0.0622924 -0.26073834 -0.06739205
0003f0 29 ae 6e be ac 72 9c 3e 92 0f 48 3d 31 bc 70 be
       -0.23308624 0.30556238 0.048842974 -0.2350929

prop_h_to_h.3.bias f4 [20]
000000 01 dd 6b 3e 03 ac 17 be 7c b9 a7 3e 57 54 98 bd
       0.23033525 -0.14811711 0.327587 -0.074379615
000010 d8 fc 5f 3e 76 0d 8f be d4 d8 6b 3e 78 1d 4a be
       0.21873796 -0.27939957 0.23031932 -0.19737804
000020 c2 79 7b be 67 2f 72 be 2d 78 aa be ec 40 9b be
       -0.24558166 -0.23650895 -0.33294812 -0.3032297
000030 f2 19 85 3e 9c 8b 44 be bb 17 80 be a6 78 ec 3d
       0.25996357 -0.19193882 -0.25018105 0.11546449
000040 ac f4 8c 3c b0 53 a8 3e 00 08 9f be 2b 12 42 be
       0.017206512 0.32876348 -0.3106079 -0.18952243

prop_h_to_h.4.weight f4 [20, 20]
000000 42 e5 0f 3e bc 3b ff bc ba 9d e0 3d 46 a4 8e be
       0.14052299 -0.031156413 0.10967584 -0.27859706
000010 71 b4 c7 3d 1c 42 ad be 77 da 33 3d d5 e4 72 3d
       0.09751213 -0.338395 0.043909516 0.059300262
000020 ef c0 06 be d9 24 5d be 6c d8 b5 be 6a bf 93 be
       -0.13159536 -0.21596088 -0.3551668 -0.28856975
000030 1a 8e 95 3d 74 86 fc bc 1e 2d a2 be be 2f 41 3c
       0.07302494 -0.030825831 -0.31675047 0.011791168
000040 28 e6 ad 3d d6 8c a3 3d 81 00 70 bd bf 85 0c be
       0.084911644 0.07985847 -0.05859423 -0.13722895
000050 a3 f1 85 3e 6a 9d 79 be cb b1 c9 3c 63 81 92 3d
       0.26160917 -0.24376455 0.024620911 0.07153585
000060 a4 63 50 3e 12 f4 2a bc 0e 74 5a 3e 28 e1 28 be
       0.2035051 -0.010434167 0.21333334 -0.1649214
000070 de 0b 2f 3c 6d 5f da bd d8 e9 a4 3d df 78 6f be
       0.010683982 -0.10662732 0.08052415 -0.23385952
000080 ac 70 52 3e 4b 85 5e be 4c 94 89 bd 4d 05 64 3e
       0.20550793 -0.21730535 -0.067177385 0.22267647
000090 e7 38 dc bd 41 5d 81 3c 82 6c 07 be 79 69 0b bd
       -0.10753041 0.015791537 -0.13224986 -0.034036133
0000a0 e5 c8 6d bc 79 fa 33 be c2 37 b7 3d e8 c4 8e be
       -0.014513229 -0.17576016 0.08946182 -0.27884603
0000b0 4d 67 31 3e ff c5 80 3c a4 dd 83 bd f5 de 4d be
       0.17324562 0.015719412 -0.06438759 -0.20104583
0000c0 53 19 3a 3d c5 91 38 bd 1f ad 4e be 90 d6 a0 be
       0.045434307 -0.04506089 -0.20183228 -0.31413698
0000d0 05 1d 71 3e b3 f3 98 be db 3a ce bc c4 1e 6d 3d
       0.23546226 -0.29873428 -0.025174549 0.05789067
0000e0 f9 04 9d 3d ab 3b a3 3e 02 bf b1 be 24 00 76 3d
       0.07666964 0.3188146 -0.3471604 0.060058728
0000f0 72 50 95 3e bb 95 32 be b2 1b 73 bd ea 3e 8f be
       0.29162937 -0.1743993 -0.059352584 -0.27977687
000100 5d 57 a0 3e 08 30 82 be bf c8 56 3e d0 6a fa 3d
       0.31316653 -0.2542727 0.20975016 0.12227404
000110 74 16 0d 3c 78 cd 86 bc d7 d5 7f bd e5 33 74 ba
       0.00861131 -0.016455397 -0.062459793 -0.0009315594
000120 6d 45 a6 bd 59 11 5f be 2e 15 15 be 5f 36 22 bd
       -0.08118711 -0.21783961 -0.1455886 -0.039602634
000130 63 8c 3b be 8d 56 93 3d a5 a5 60 3d 52 d5 85 bd
       -0.18315272 0.071942426 0.05484547 -0.06534828
000140 51 50 d3 bd bb d4 94 3d 83 f8 21 be a4 9b fd 3d
       -0.103180535 0.072671376 -0.15817456 0.12383202
000150 a8 69 8f be 51 09 86 3e 73 10 8f bc 65 a9 08 be
       -0.28010297 0.26178983 -0.017463898 -0.13345869
000160 8f 7c 1c bd 33 98 2e 3d a7 6b 8b 3e 4a ce 1a 3d
       -0.038204726 0.042625617 0.2723057 0.03779439
000170 73 f5 c8 3d b9 cc 5c bd b1 48 8d 3e cd fc 8b be
       0.09812441 -0.053906176 0.27594522 -0.2734131
000180 d2 78 13 3d 7d 3e 9c be 63 87 65 3e 8e c9 b3 3b
       0.036003895 -0.30516425 0.22414927 0.0054866737
000190 f9 29 2e 3d 45 79 34 be 7c 75 4c 3e e7 ea 7c be
       0.042520497 -0.17624386 0.19966692 -0.24698983
0001a0 92 f4 81 3e 0a 35 6a be ea ed 6b 3d 99 58 f8 3c
       0.25381905 -0.22871795 0.05759994 0.030315684
0001b0 a9 2e 08 be 51 08 d5 3c c8 1a 27 3d 9a b9 82 be
       -0.1329905 0.026004942 0.040797025 -0.25532228
0001c0 fc 96 46 bd 82 70 e9 bc a1 19 3d be 4c 32 09 3e
       -0.048483834 -0.02849603 -0.18466808 0.13398093
0001d0 e1 9e 96 be 5f 3c 29 3e 7d a8 76 be 61 c9 ab 3b
       -0.2941809 0.16526936 -0.2408771 0.005242512
0001e0 4c 5c 67 3c d9 ee 88 be 80 02 89 3e fe 55 e0 bd
       0.014121126 -0.26744726 0.2675972 -0.10953902
0001f0 6a fe 96 3e 81 c0 c6 bd e9 80 ef ba 71 34 70 3d
       0.29490978 -0.09704686 -0.0018272671 0.058643762
000200 58 a4 e3 3c 46 7e b7 bd 45 78 96 be 35 8c 83 3c
       0.027788326 -0.089596316 -0.29388633 0.016058067
000210 60 01 a5 3e fc c0 65 bd cf f4 36 bd 3c 3c 73 3e
       0.32227612 -0.056092247 -0.04466706 0.23753446
000220 8b ee 97 be df 8f 9e 3d 81 b8 0b be b4 2f 5c be
       -0.2967418 0.07742285 -0.13644601 -0.21502572
000230 75 a8 a9 3d e7 1f 81 bd 23 87 4d 3d dc 38 82 3e
       0.08284084 -0.06304913 0.050177705 0.25434005
000240 fd 1e 49 be f4 95 d1 3c 67 9d 44 bd e7 3a a6 bd
       -0.19640727 0.025584199 -0.048001673 -0.081167035
000250 3e ec 15 3c a2 37 3e 3d c5 70 a4 3c 5e 7e 04 3e
       0.009150563 0.046439774 0.020073304 0.1293883
000260 21 55 89 be 34 58 2e 3e e3 e0 28 3e 9a 21 97 be
       -0.2682276 0.17025834 0.16492037 -0.29517823
000270 3e f5 72 3e c4 e9 50 bc f8 ec 59 3d af ed 90 3e
       0.23726365 -0.012751047 0.053204507 0.28306338
000280 ae 1e 6a 3d 31 e9 34 be 3d f9 18 3e 1b 0f cc bc
       0.057158165 -0.1766708 0.14938827 -0.024909547
000290 64 6d c6 3d dd b9 b6 bd 20 65 7d 3e ff 08 d5 3d
       0.09688833 -0.08922169 0.24745607 0.104021065
0002a0 9e 72 96 be e8 ae 38 be 72 35 82 be 6a 7d 6a be
       -0.2938432 -0.18035471 -0.254314 -0.22899404
0002b0 be 51 af 3e 8b 74 ad be 69 1c aa be 62 3b c1 3d
       0.34242052 -0.33877978 -0.332248 0.094351545
0002c0 34 88 f5 bd ae e2 8a bd 26 a9 e7 3c 50 60 12 bd
       -0.11988869 -0.06781517 0.028278898 -0.035736382
0002d0 b9 33 f8 bc 97 9f 12 be 72 5d 8d 3e 97 37 fd bd
       -0.0302981 -0.14318691 0.27610356 -0.123641185
0002e0 06 16 98 3e 97 94 ca bd e9 13 ee 3d 16 43 d4 bd
       0.29704303 -0.098916225 0.11624891 -0.10364358
0002f0 2e 14 22 be 4f 20 74 be 50 bd 26 bc a5 ce ad be
       -0.1582801 -0.2384045 -0.010176972 -0.3394672
000300 78 a6 78 bd bb c3 70 be c1 fa 71 bc 01 55 00 3e
       -0.060705632 -0.23512165 -0.014769257 0.12532426
000310 35 33 01 be bd c9 23 3e 26 23 f2 3c 32 87 aa be
       -0.1261719 0.15994926 0.029557776 -0.3330627
000320 b2 36 88 3e 3e c4 fc bd f3 d0 83 3e 62 52 65 be
       0.2660423 -0.12342118 0.25745353 -0.22394708
000330 58 12 12 3e 76 3a 0b be 67 d9 26 3c a4 ed f1 3d
       0.1426481 -0.1359652 0.010183669 0.118129045
000340 99 c2 90 bd 9d ea 91 bd 7e 5f 47 3d 6d 55 41 be
       -0.070683666 -0.07124827 0.048675053 -0.18880244
000350 d5 05 13 3e 06 a5 78 be 47 0d 9a bd 12 b9 a8 bb
       0.14357693 -0.24281701 -0.07522064 -0.005149015
000360 a6 ee 8a 3c cf 4c 8a 3e cb 4c c6 bd 98 0a a1 ba
       0.0169595 0.27011725 -0.09682616 -0.0012286482
000370 11 bd 81 be a1 71 96 3e af b3 c5 3d ce b7 33 bd
       -0.2533956 0.29383567 0.096534126 -0.04387646
000380 b3 6e ed bd 70 37 c4 bb 67 11 62 be 8d 2b c4 3d
       -0.1159338 -0.005988054 -0.22076951 0.09578619
000390 e2 e3 a4 3d 0d e9 93 3e 74 d9 60 3e 6a dc 46 bd
       0.08051278 0.2888874 0.21957952 -0.048550047
0003a0 65 27 4b be fc 30 e9 3d 17 f6 37 3e d8 2c 80 be
       -0.19839247 0.11386296 0.1796497 -0.25034213
0003b0 13 b4 e8 bd 0d 37 97 3d d8 3b 1a 3d 64 af d0 3d
       -0.113624714 0.07383547 0.037654728 0.10189703
0003c0 bf 7e 3e bc 64 4e 24 3e 67 36 65 3c 18 5d dc 3c
       -0.011626898 0.16045529 0.013990021 0.02689986
0003d0 b5 36 49 be 3d 8c 04 3e c3 9a fa bd f8 0a 2f 3e
       -0.19649775 0.12944122 -0.1223655 0.17094028
0003e0 12 ec 48 3e 18 8e 72 bc ea 17 90 3e d6 3d 1e bd
       0.19621304 -0.014804386 0.28143245 -0.03863319
0003f0 3c 27 16 be de eb 58 3e 96 61 56 bd c8 4b 3f be
       -0.14663404 0.21183726 -0.05233916 -0.18681252

prop_h_to_h.4.bias f4 [20]
000000 89 88 9e 3e 95 24 3b 3d 38 4f cc 3d e2 2a 13 3e
       0.30963543 0.045689184 0.09976047 0.14371827
000010 14 d3 fe bd c0 e5 55 3e d8 95 62 3e 16 95 ea 3c
       -0.12442604 0.20888424 0.22127473 0.028635543
000020 bc 79 6f 3c f1 b6 3f 3e 0f 43 8f bd ea ff 67 be
       0.014616426 0.1872213 -0.06995212 -0.22656217
000030 6c 16 61 be 69 e6 00 3e cb 22 ce 3d 1f bb 45 be
       -0.2198121 0.12587894 0.1006523 -0.19309662
000040 44 75 bc bd 82 91 86 be d5 83 83 3e ab 07 63 be
       -0.09202054 -0.2628289 0.25686517 -0.22170894

prop_h_to_out.weight f4 [1, 20]
000000 91 6b a7 be 94 48 29 be 25 c6 45 be 86 cf 21 be
       -0.32699254 -0.16531593 -0.19313867 -0.1580182
000010 cb 20 7e 3e cb ab a1 be eb 52 82 be 09 7f 81 3e
       0.24817197 -0.3157638 -0.25453886 0.25292233
000020 e4 e2 82 be ae b2 36 be 9b 4b 01 be 84 a7 32 3e
       -0.2556373 -0.17841598 -0.12626497 0.17446715
000030 f0 9c 59 3e 57 8f 6b bd fc e9 94 be e2 52 72 3e
       0.21251273 -0.057509746 -0.29084766 0.2366443
000040 b6 ab 8f 3e ab a9 6c 3e 42 b3 3c be de 17 42 3e
       0.28060693 0.23111598 -0.18427756 0.18954417
