both_theta_kappa/old/pi.pth (torch, 13074 bytes, 13 tensors)

prop_in_to_h.weight f4 [20, 2]
0	0xbefdc66c	-0.49565446
1	0xbf073dac	-0.5282848
2	0xbeb5d0d9	-0.355109
3	0x3d26c31f	0.040713426
4	0x3b2f28cc	0.0026727198
5	0xbeef9dcc	-0.46800077
6	0x3f0d45fd	0.5518492
7	0x3f00d5be	0.50326145
8	0xbe289140	-0.16461658
9	0x3f515bb9	0.8178058
10	0x3df93df1	0.121700175
11	0x3f1cc064	0.61231065
12	0x3f47bb3f	0.7802009
13	0x3ecc9646	0.399584
14	0xbeae81b2	-0.34083325
15	0xbedd7729	-0.43254974
16	0xbeced414	-0.40396178
17	0xbe32f3af	-0.1747577
18	0xbea63257	-0.3246028
19	0x3ef63edc	0.48094833
20	0xbe95cd64	-0.29258263
21	0x3f1022c7	0.56303066
22	0xbf1547b5	-0.5831254
23	0x3f4548f5	0.7706445
24	0x3f174caf	0.59101385
25	0xbee22429	-0.44168213
26	0xbf08116c	-0.53151584
27	0x3f41013b	0.753925
28	0xbe95b3ac	-0.2923864
29	0xbec94b8e	-0.39315456
30	0x3e507d02	0.20360187
31	0xbe4f6c33	-0.20256118
32	0x3c4a2aaf	0.012339278
33	0x3f606417	0.87652725
34	0x3e27a7d7	0.1637262
35	0xbef6128b	-0.48061022
36	0xbf2819cb	-0.65664357
37	0x3f634823	0.88781947
38	0x3da39194	0.07986751
39	0xbf1ccc45	-0.6124919

prop_in_to_h.bias f4 [20]
0	0xbecc4377	-0.39895222
1	0xbe968691	-0.2939954
2	0x3e82406f	0.25439784
3	0xbeac4070	-0.33642912
4	0x3e71b116	0.23602709
5	0x3f1abebb	0.6044728
6	0xbf4d1756	-0.8011373
7	0x3e37eb5c	0.17960876
8	0xbda96bb3	-0.08272495
9	0xbd8c6600	-0.068553925
10	0xbe3606e5	-0.17776068
11	0xbe60c66c	-0.21950692
12	0x3e6438e3	0.22287326
13	0x3ebd76ca	0.3700469
14	0xbcf975ed	-0.03045174
15	0xbef026ca	-0.46904594
16	0x3e8f0c69	0.27939156
17	0xbe8f37f3	-0.27972373
18	0xbe28deae	-0.16491196
19	0xbedd0d71	-0.43174317

prop_h_to_h.0.weight f4 [20, 20]
0	0xbe409529	-0.188069
1	0x3e580384	0.21095091
2	0x3e67cf84	0.22637755
3	0xbe44bce3	-0.1921268
4	0x3e4a6dcb	0.19768445
5	0x3eaf0769	0.3418534
6	0x3d2394fb	0.039937
7	0x3d4294b7	0.047505107
8	0xbe3fa5d0	-0.18715596
9	0x3dc89732	0.09794463
10	0x3e391e51	0.18077971
11	0xbcd2859f	-0.025698481
12	0xbe584cda	-0.21123067
13	0x3c0ce1b1	0.008598731
14	0xbd9d2924	-0.076738626
15	0xbe588914	-0.21146041
16	0x3e902d13	0.2815939
17	0x3ca01a49	0.019543784
18	0x3e397eee	0.18114826
19	0x3d2d5c26	0.042324208
20	0xbe3e7b37	-0.1860169
21	0xbe6f06c9	-0.23342432
22	0xbd64f086	-0.055893444
23	0x3cb1031f	0.021607934
24	0x3e68c7e9	0.2273251
25	0xbe0c5590	-0.13704515
26	0x3e53ee50	0.20696378
27	0xbd384262	-0.044985183
28	0xbb4fe141	-0.0031719955
29	0x3e5fd346	0.21857938
30	0x3e011926	0.1260725
31	0x3de75c07	0.1129685
32	0xbbcf9f7d	-0.006336151
33	0x3e3ad621	0.18245746
34	0xbe9e77aa	-0.3095067
35	0xbe004aa9	-0.1252848
36	0x3c6c08c7	0.01440639
37	0xbd58f0ef	-0.052964147
38	0xbbf4bedc	-0.0074690413
39	0x3db827b4	0.08991948
40	0xbe4c0bd4	-0.19926387
41	0xbcc472b2	-0.023980472
42	0xbd370d9a	-0.044690706
43	0xbe1a1681	-0.15047647
44	0x3e36b100	0.17840958
45	0x3d1bd587	0.038045432
46	0x3e047790	0.12936234
47	0xbe029342	-0.12751487
48	0xbd98af39	-0.07455296
49	0xbe27b71e	-0.16378447
50	0x3bfd9cff	0.0077396627
51	0x3e162e63	0.14666133
52	0xbdc65c88	-0.09685618
53	0x3e267e89	0.16259207
54	0xbe36d116	-0.17853197
55	0x3cf7b0df	0.030235706
56	0x3e259bf4	0.16172773
57	0xbe47ca89	-0.19510855
58	0xbe1b1735	-0.15145572
59	0xbe271584	-0.16316801
60	0x3e39174b	0.18075292
61	0x3da1c482	0.07898809
62	0x3d7a9279	0.061174843
63	0x3bfbc0c0	0.0076828897
64	0xbe4f999a	-0.20273438
65	0x3e487166	0.19574508
66	0x3dfed296	0.1244251
67	0xbbcdc7bc	-0.0062799137
68	0x3e02d56c	0.12776726
69	0xbe40e71a	-0.18838158
70	0xbe8b45ab	-0.2720159
71	0x3e0bfd65	0.13670881
72	0xbdd7a6b9	-0.10529847
73	0x3d716295	0.058931906
74	0xbd51c353	-0.051211666
75	0xbe5787c2	-0.21047881
76	0xbe7597c4	-0.23983675
77	0x3e0f5c4b	0.1400005
78	0x3dd04689	0.101697035
79	0xbdb5c737	-0.08875888
80	0xbd36cb5f	-0.044627544
81	0xbdbd419f	-0.09241032
82	0xbe456ddb	-0.19280188
83	0xbcb76c97	-0.022390647
84	0x3ea207ee	0.31646675
85	0x3e36ae6a	0.17839971
86	0xbe3d4fc9	-0.18487467
87	0x3d0e7834	0.034782603
88	0x3d9aaf56	0.07552974
89	0x3cf5f3a6	0.030023407
90	0xbcf9278b	-0.030414363
91	0x3e53529e	0.20636985
92	0xbda7b116	-0.08188073
93	0x3de6f4b9	0.11277146
94	0xbe4a7215	-0.19770081
95	0x3c95a12e	0.018265333
96	0x3ea14aa5	0.31502262
97	0xbe13b72e	-0.14425346
98	0x3e7895c3	0.2427588
99	0xbe32f401	-0.17475893
100	0x3e0c1d53	0.13683061
101	0x3e201f61	0.1563697
102	0x3e41b5be	0.18916985
103	0xbe4afdde	-0.19823405
104	0x3e53b191	0.20673205
105	0x3e7bc9b6	0.24588665
106	0xbd31b1d5	-0.043382484
107	0xbe06e778	-0.13174236
108	0x3ed31e8e	0.4123425
109	0xbe559010	-0.20855737
110	0xbdb94290	-0.09045899
111	0xbe306914	-0.17227584
112	0xbe25d159	-0.16193141
113	0xbda38bd2	-0.07985653
114	0x3e5efeab	0.21776836
115	0x3dd14074	0.102173716
116	0x3e20a2fa	0.1568717
117	0x3d4cac64	0.049969092
118	0x3dc79ba7	0.09746485
119	0x3ce56326	0.02800138
120	0xbe1357c9	-0.14388956
121	0x3d9f71ef	0.07785403
122	0xbd9178bb	-0.07103106
123	0xbe3f4ea0	-0.18682337
124	0x3db7503b	0.089508496
125	0x3be1158c	0.0068690237
126	0xbe6f927b	-0.23395722
127	0x3c008a03	0.007845405
128	0xbde34e25	-0.11098889
129	0x3d56222e	0.05227869
130	0xbd5c4f6d	-0.053786684
131	0xbc4bac9b	-0.012431289
132	0xbe8eea8d	-0.27913323
133	0xbca025ff	-0.019549368
134	0xbde46b77	-0.1115331
135	0xbd0bcfc4	-0.034133688
136	0x3e802b5f	0.2503309
137	0xbd1208a9	-0.03565279
138	0x3e085fbf	0.13317774
139	0x3d8c3267	0.06845551
140	0xbe28458f	-0.16432784
141	0xbe2479db	-0.16062109
142	0x3d4d05b0	0.050054252
143	0x3dbb0277	0.091313295
144	0x3e658d12	0.22417095
145	0x3eafa6f4	0.34307063
146	0x3dac1d74	0.08404055
147	0xbb49e808	-0.0030808467
148	0x3d881aec	0.0664576
149	0x3e06b795	0.13155968
150	0x3d92adea	0.07162078
151	0x3e523978	0.20529735
152	0xbe96cd4d	-0.29453507
153	0x3ddcf030	0.10788
154	0x3cfa8964	0.030583091
155	0xbddb9819	-0.1072237
156	0x3cd16969	0.025562959
157	0xbe3df554	-0.18550617
158	0x3d44e2c8	0.048067838
159	0xbe9ee2ec	-0.31032503
160	0x3dcc9fe0	0.09991431
161	0x3cde5904	0.027142055
162	0xbd0879a7	-0.03331914
163	0xbcf16b6b	-0.029470166
164	0xbe34c8cf	-0.17654727
165	0xb9b32589	-0.00034169506
166	0x3ebda35c	0.37038696
167	0x3ca0ad9d	0.019614035
168	0xbee94946	-0.45563716
169	0xba3fc33e	-0.0007315165
170	0xbdc71368	-0.09720498
171	0xbe7e2d95	-0.24822076
172	0x3ba60f91	0.0050677736
173	0xbe9724e6	-0.2952034
174	0xbdd413f4	-0.10355368
175	0x3e9bb567	0.30411837
176	0xbe872095	-0.26392046
177	0x3e97e348	0.2966559
178	0x3d94c5ab	0.07264265
179	0x3db79d28	0.08965522
180	0xbe382ffb	-0.17987053
181	0xbe041e1b	-0.1290211
182	0x3bd7b246	0.006582531
183	0x3e45394f	0.19260143
184	0x3e3d6437	0.1849526
185	0x3c6ea1cc	0.014564943
186	0xbe352712	-0.17690685
187	0xbdd8204c	-0.10553035
188	0xbced6431	-0.028978439
189	0x3e0cd55c	0.13753265
190	0x3e8055d8	0.25065494
191	0xbe139948	-0.14413941
192	0x3c146e95	0.009059568
193	0xbd9b860c	-0.07593927
194	0xbe0fc293	-0.14039068
195	0xbd6fb0f3	-0.05851836
196	0x3e3799ff	0.17929839
197	0xbde07b28	-0.1096099
198	0x3c032808	0.00800515
199	0xbe041dc4	-0.1290198
200	0xbe53e70b	-0.20693605
201	0x3e232675	0.15932639
202	0xbe84271a	-0.25811082
203	0x3e2c99c9	0.1685554
204	0x3e0319c8	0.12802804
205	0xbdb4ace7	-0.08822041
206	0xbe4582b9	-0.19288148
207	0x3d7530e5	0.059861083
208	0x3d59ce0e	0.053175025
209	0x3d539b2c	0.051661655
210	0xbcfcbcf4	-0.030851819
211	0x3df8c1ef	0.12146365
212	0x3cda3070	0.026634425
213	0x3da015b0	0.078166366
214	0xbe289398	-0.16462553
215	0x3ceacc76	0.028661948
216	0x3e0aaad1	0.13541724
217	0xbe19753d	-0.14986129
218	0x3e60fe68	0.21972048
219	0xbe250985	-0.16116913
220	0xbdfffbe1	-0.12499214
221	0x3c8b01ea	0.016968686
222	0xbd0397d0	-0.0321272
223	0x3e082798	0.13296354
224	0x3d4d1b5b	0.050074916
225	0xbe0c2b9d	-0.13688512
226	0xbe413b03	-0.18870167
227	0xbe1be4cd	-0.15224
228	0x3b8b8c19	0.0042586443
229	0x3e764b28	0.24052107
230	0x3dce23e2	0.10065438
231	0x3e44b2f2	0.19208887
232	0xbe6d7c36	-0.23191914
233	0x3e41e06f	0.18933271
234	0x3d9d2075	0.07672206
235	0x3d22a99e	0.03971254
236	0x3e956c46	0.2918417
237	0xbdc418b0	-0.09575021
238	0x3e615c47	0.22007857
239	0xbe0fabe2	-0.14030412
240	0xbdd80405	-0.10547642
241	0x3d206457	0.03915819
242	0xbea1a570	-0.3157153
243	0x3e9f6864	0.3113433
244	0xbd6da01c	-0.05801402
245	0xbe7a2a06	-0.24430093
246	0x3ea8cfc2	0.32971007
247	0x3d09ed46	0.033673547
248	0xbef1569f	-0.471364
249	0xbe0ea560	-0.13930273
250	0x3e752d86	0.23943147
251	0x3c7897d5	0.015172918
252	0x3e37071c	0.17873806
253	0x3d161828	0.03664413
254	0xbe9a0a1c	-0.30085838
255	0x3e71d5b0	0.23616672

prop_h_to_h.0.bias f4 [20]
0	0xbd3a541f	-0.04549038
1	0xbcb8fafe	-0.02258062
2	0xbdd1997d	-0.10234354
3	0x3e858f90	0.26086092
4	0x3e08fd64	0.13377911
5	0x3e185a28	0.14878142
6	0x3e5ee876	0.21768364
7	0xbda249a9	-0.07924206
8	0xbe98d787	-0.29851934
9	0x3e2f3120	0.17108583
10	0x3cdb5cdd	0.02677768
11	0x3d03a87f	0.032143112
12	0xbe6ab884	-0.2292195
13	0xbe2539a2	-0.16135266
14	0xbe57c583	-0.21071438
15	0xbda98db4	-0.08278981
16	0xbd08b3a6	-0.03337445
17	0xbe550bb5	-0.20805247
18	0x3e5a12f0	0.21296287
19	0x3e0c4cae	0.13701126

prop_h_to_h.1.weight f4 [20, 20]
0	0x3dce5909	0.10075576
1	0xbcd0de14	-0.02549652
2	0xbd011ed7	-0.03152355
3	0xbd8c0feb	-0.068389736
4	0x3e88f65b	0.26750454
5	0x3e58b130	0.21161342
6	0x3e6353f7	0.22199999
7	0xbd656226	-0.056001805
8	0xbe423edf	-0.18969296
9	0x3e5b9cca	0.21446529
10	0x3e1a6e4b	0.15081136
11	0xbdad005f	-0.084473364
12	0xbbc8ffee	-0.006134025
13	0xbe5b17ad	-0.2139575
14	0x3e138145	0.14404781
15	0x3d2546c7	0.0403507
16	0xbd4af601	-0.049551014
17	0xbdff4d28	-0.12465888
18	0x3d63f070	0.05564922
19	0x3b76bd88	0.003764959
20	0xbe501be4	-0.2032314
21	0x3d4910ee	0.04908841
22	0xbe2d6cee	-0.16936085
23	0x3e374354	0.17896777
24	0xbd87f3ee	-0.06638323
25	0x3ddc0879	0.107438035
26	0x3e536473	0.20643787
27	0xbd2b5c32	-0.04183597
28	0x3d965c15	0.07341782
29	0xbd19190c	-0.037377402
30	0x3e2f67a6	0.17129382
31	0xbe5eb195	-0.2174743
32	0xbdd36e66	-0.10323791
33	0xbe4b6e9e	-0.19866416
34	0xbc8081b9	-0.015686857
35	0xbda94dfa	-0.08266826
36	0xbe6a9ed8	-0.22912157
37	0xbec4f3a5	-0.38467136
38	0x3e7522c7	0.23939048
39	0xbb7fce91	-0.0039033035
40	0xbcb52469	-0.022112088
41	0xbd6c0acd	-0.057627488
42	0x3dcd2217	0.10016268
43	0xbd2a8b5c	-0.04163681
44	0xbe6315a0	-0.22176218
45	0x3d39649f	0.045261975
46	0xbdbbc2e7	-0.09168034
47	0xbe7e1eca	-0.24816433
48	0x3dd44774	0.10365191
49	0xbe309540	-0.17244434
50	0xbe33a51d	-0.17543454
51	0xbe183188	-0.14862645
52	0x3d51bc6a	0.051205076
53	0x3cab40ff	0.020905016
54	0xbd997fc0	-0.074950695
55	0xbd5bbaab	-0.053644817
56	0x3d8251b9	0.063632436
57	0xbecb2a43	-0.3968068
58	0x3db04764	0.08607367
59	0x3ddda42e	0.108223304
60	0x3d45afca	0.04826335
61	0x3db062fa	0.08612628
62	0xbc99c522	-0.018770758
63	0x3eb50a91	0.35359624
64	0x3ede1dfe	0.43382257
65	0x3e8398c9	0.25702503
66	0x3ed5c8d6	0.41754788
67	0x3dbcd6e6	0.09220676
68	0xbf116d1d	-0.5680712
69	0x3d4b8e7d	0.049696434
70	0x3e8ef472	0.27920872
71	0x3dbe5f75	0.09295551
72	0xbed23bef	-0.4106135
73	0xbcd10256	-0.02551381
74	0x3da8a5c4	0.08234742
75	0xbea39406	-0.3194887
76	0xbe4e991e	-0.20175597
77	0xbf23fd6c	-0.64058566
78	0x3eabf119	0.3358238
79	0x3dbb1020	0.09133935
80	0xbd89d102	-0.06729318
81	0x3d75564e	0.05989676
82	0xbe45dd2c	-0.19322652
83	0xbe08868a	-0.13332573
84	0xbefd0acb	-0.49422297
85	0xbe638d6c	-0.22221917
86	0xbea6b8ca	-0.32562858
87	0xbe845f31	-0.25853875
88	0x3f27b5e1	0.655119
89	0xbe06ce75	-0.13164695
90	0xbc1a50e5	-0.009418701
91	0xbeb72f91	-0.35778478
92	0x3df798df	0.12089705
93	0x3f65fef3	0.89842147
94	0xbe1d9b3f	-0.15391253
95	0x3eca5259	0.3951595
96	0xbe8f869a	-0.2803238
97	0x3e9fbd23	0.31198987
98	0xbea43eb4	-0.3207909
99	0xbe93def2	-0.2888103
100	0xbe0ec33d	-0.13941665
101	0xbe862025	-0.261964
102	0xbe5b548c	-0.21418971
103	0x3e06a016	0.13147005
104	0xbe615fe8	-0.22009242
105	0x3e40909e	0.18805167
106	0x3d8fe5e0	0.07026267
107	0xbd97ea10	-0.07417691
108	0x3d13ba95	0.03606661
109	0xbe141d7f	-0.14464377
110	0x3d8da862	0.06916882
111	0x3c7f4a8e	0.01558174
112	0xbdb944fd	-0.090463616
113	0xbe8b9da5	-0.2726871
114	0xbde1f5fc	-0.11033246
115	0x3d22bbbb	0.039729815
116	0xbe142bf9	-0.14469899
117	0x3dee48a9	0.116349526
118	0x3dfb4686	0.12269311
119	0xbe532f1c	-0.2062344
120	0x3dc50b17	0.09621256
121	0xbd6f178d	-0.05837207
122	0x3e5caf2e	0.21551201
123	0xbe22df00	-0.1590538
124	0xbe350968	-0.1767937
125	0x3cdb7146	0.026787411
126	0xbcb7e912	-0.022450004
127	0x3e2f0021	0.17089893
128	0xbb32d986	-0.0027290299
129	0x3d4d3ea4	0.050108567
130	0x3e214237	0.15747915
131	0x3d633d30	0.055478275
132	0x3dd184ad	0.10230384
133	0x3e5f118d	0.21784039
134	0x3e33584e	0.17514154
135	0x3cbe67db	0.023242882
136	0xbde63b30	-0.11241758
137	0xbea2b34e	-0.31777424
138	0x3d8fb3ab	0.07016691
139	0x3e34d48b	0.17659204
140	0x3dd48bc6	0.10378222
141	0x3e37eb7d	0.17960925
142	0xbd1b5824	-0.037925854
143	0xbe81855e	-0.25297064
144	0xbc35b702	-0.011090996
145	0x3d5474f9	0.051869366
146	0xbda77a06	-0.08177571
147	0x3dbf2745	0.09333662
148	0x3db1199c	0.08647463
149	0x3c09d455	0.00841244
150	0x3e56baa4	0.20969635
151	0x3e63b060	0.2223525
152	0x3da366cf	0.079785936
153	0xbcf70077	-0.030151589
154	0xbce1f284	-0.02758146
155	0xbcc95cd0	-0.02458039
156	0x3e89d60d	0.2692112
157	0x3eb81c63	0.35959157
158	0x3e255826	0.16146907
159	0x3d887c61	0.066643484
160	0x3e87d3d4	0.265288
161	0x3e57d00e	0.2107546
162	0x3cc480f9	0.02398728
163	0x3e11f57f	0.14253806
164	0x3e90d58b	0.2828792
165	0x3d0bcdf5	0.034131963
166	0x3e1c414a	0.15259281
167	0x3e38abe3	0.1803432
168	0x3b38e35f	0.0028211696
169	0x3e5967ee	0.21231052
170	0x3e84c5ae	0.25932068
171	0x3decf2fa	0.115697816
172	0x3d9141a2	0.070925966
173	0xbdb88c31	-0.090111144
174	0x3e111e99	0.14171828
175	0xbe1d1c1f	-0.15342759
176	0xbc68b85c	-0.014204111
177	0x3dcdc950	0.10048163
178	0x3d92179f	0.071334116
179	0x3e0f978e	0.14022657
180	0xbd52ee85	-0.051497
181	0xbd5c3924	-0.05376543
182	0x3e734ae6	0.2375904
183	0xbd118a94	-0.03553255
184	0xbdb44ff5	-0.08804313
185	0xbe2e45d6	-0.17018828
186	0xbd2c6a15	-0.042093355
187	0xbd81189f	-0.06303524
188	0x3cd81a1a	0.026379634
189	0x3e44f8c7	0.19235526
190	0x3d890507	0.06690412
191	0xbe402768	-0.18765032
192	0x3e4acf82	0.1980572
193	0x3a1f1b87	0.00060694705
194	0x3e5b59dd	0.21420999
195	0xbccc251e	-0.024920043
196	0x3e24eebc	0.16106695
197	0x3e6370ff	0.22211073
198	0x3d99737a	0.074927285
199	0xbe203e68	-0.15648806
200	0x3dc92522	0.09821536
201	0x3cb1389f	0.021633444
202	0x3dea6054	0.114441544
203	0x3de7b91c	0.11314604
204	0x3e2c86f1	0.16848351
205	0xbdaee64f	-0.08540022
206	0x3d9e1dad	0.07720504
207	0xbe8b8e73	-0.27257118
208	0xbeb1ad0d	-0.3470234
209	0x3e51cf26	0.20489177
210	0x3e0f343f	0.13984774
211	0x398d3e0f	0.00026939853
212	0xbeb2f975	-0.34955946
213	0xbecad950	-0.3961892
214	0x3e08d1fd	0.13361354
215	0xbd63a538	-0.055577487
216	0xbcd7d803	-0.02634812
217	0xbec4b483	-0.3841897
218	0x3e369c0e	0.17832968
219	0x3dd74ba6	0.10512476
220	0xbe0ab841	-0.1354685
221	0xbf07dbc3	-0.53069705
222	0xbea6e0c0	-0.32593346
223	0x3e510f61	0.20416023
224	0x3e373b1c	0.17893642
225	0x3da83da0	0.08214879
226	0x3d86731a	0.06564923
227	0xbe6b7189	-0.22992529
228	0x3a811560	0.0009848289
229	0x3d88bb3c	0.06676337
230	0xbe2e22fe	-0.17005536
231	0xbe5e2002	-0.21691898
232	0xbe683a2f	-0.22678445
233	0xbe8a0db3	-0.26963577
234	0xbdcef411	-0.10105146
235	0xbd1d620e	-0.03842359
236	0xbc9312c5	-0.017953286
237	0xbecf9bbe	-0.4054851
238	0x3d506a74	0.05088277
239	0x3d04bb98	0.032405466
240	0x3e37170a	0.17879882
241	0xbe01ceef	-0.12676595
242	0xbe71c6e9	-0.23611034
243	0x3e8760c3	0.2644101
244	0x3c4737de	0.012159316
245	0x3e0f0ba6	0.13969287
246	0x3d0f71e7	0.035020735
247	0xbd7713db	-0.06032167
248	0x3dfcfce7	0.12352925
249	0x3dd5a76b	0.10432323
250	0xbdb66762	-0.089064375
251	0x3dc569e5	0.096393384
252	0xbe70418e	-0.23462507
253	0x3c8b2a8f	0.016988067
254	0x3d846696	0.06464879
255	0x3dd9bb83	0.10631468

prop_h_to_h.1.bias f4 [20]
0	0xbddee673	-0.108837985
1	0x3e0e4a3d	0.13895507
2	0x3dbbebe0	0.09175849
3	0x3dc1765d	0.09446404
4	0x3ca29540	0.019846559
5	0xbd90657a	-0.07050605
6	0x3d16b1c4	0.036790624
7	0xbdd0b320	-0.101904154
8	0x3d591529	0.052998696
9	0x3d7ab44a	0.061207093
10	0x3d6c21c1	0.057649378
11	0x3e84fc83	0.259739
12	0xbd3e0f7d	-0.04640149
13	0xbdecd21f	-0.11563515
14	0xbe1de7d8	-0.15420473
15	0x3d535a8c	0.051600024
16	0x3e3932b6	0.18085751
17	0xbe7302d3	-0.23731546
18	0xbdc5a75f	-0.09651064
19	0xbe2a73ac	-0.16645688

prop_h_to_h.2.weight f4 [20, 20]
0	0xbe939b03	-0.28829202
1	0x3e20ba1b	0.15695994
2	0x3c6baac4	0.014383975
3	0x3e01de15	0.12682374
4	0xbe6f26ad	-0.23354597
5	0x3e550345	0.20802028
6	0x3e3a1412	0.18171719
7	0xbed4bffc	-0.41552722
8	0xbea0795c	-0.3134259
9	0xbe246fda	-0.16058293
10	0x3da68b6e	0.08132063
11	0x3e4ac6f0	0.19802451
12	0x3dccb09d	0.09994624
13	0xbd6baf52	-0.057540245
14	0x3dcd79af	0.10032975
15	0xbe822877	-0.25421497
16	0x3e03e347	0.12879668
17	0xbe8e2111	-0.27759603
18	0x3e455f7a	0.19274703
19	0xbead3641	-0.33830455
20	0xbd55dc09	-0.052211795
21	0x3c23ad81	0.009990097
22	0xbd8227e1	-0.063552625
23	0x3e579c1f	0.21055649
24	0x3f022223	0.5083334
25	0x3bbb76ab	0.0057209334
26	0xbe6ca764	-0.2311073
27	0xbe3099e1	-0.172462
28	0xbe56d1e2	-0.20978501
29	0xbe798335	-0.24366458
30	0x3dd19e06	0.10235219
31	0x3ed2a7e5	0.41143718
32	0x3e151b37	0.14561163
33	0xbc845640	-0.016154408
34	0x3d9a4793	0.07533183
35	0xbdda12c0	-0.106481075
36	0x3d4adc69	0.049526606
37	0x3e2ee93b	0.17081158
38	0x3ecc250e	0.3987202
39	0x3c2aa2b4	0.010414768
40	0xbd439e89	-0.047758613
41	0x3e193930	0.14963222
42	0xbe6fc0bc	-0.23413366
43	0xbe0579ef	-0.13034795
44	0x3c4a933d	0.012364206
45	0x3d86fe66	0.065914914
46	0xbe31fd88	-0.17381871
47	0x3d3510b7	0.044205394
48	0x3e615a55	0.22007115
49	0xbdcc7632	-0.099834815
50	0x3d388e13	0.045057368
51	0xbd16be51	-0.036802594
52	0xbe3cc7bc	-0.18435568
53	0x3e5e26bb	0.21694462
54	0xbe3f4f29	-0.18682541
55	0x3e0efb76	0.13963112
56	0xbe032e0a	-0.12810531
57	0xbde1b721	-0.11021257
58	0xbe5e1b24	-0.21690041
59	0xbd31e9d3	-0.043435883
60	0x3db9e72a	0.09077294
61	0xbe181e99	-0.14855422
62	0xbd1d833d	-0.038455237
63	0x3e7fa747	0.24966155
64	0x3e8480c5	0.25879493
65	0x3e17655d	0.14784761
66	0x3e39f170	0.18158507
67	0xbe0d4dec	-0.13799256
68	0x3e2f945f	0.17146443
69	0x3b89111e	0.0041829487
70	0x3e69f954	0.22849017
71	0xbe0a78da	-0.13522664
72	0x3c906f41	0.017631175
73	0xbdde5abf	-0.10857152
74	0x3dce95e5	0.10087184
75	0xbd8cb033	-0.06869545
76	0xbe6f5fa2	-0.23376325
77	0x3ce0ed75	0.027456978
78	0x3e4a0aac	0.19730633
79	0x3b79a165	0.0038090583
80	0x3e91525b	0.28383145
81	0x3deea764	0.11653021
82	0xbe18a916	-0.14908251
83	0x3e3ddccb	0.18541257
84	0x3ef49dbb	0.4777659
85	0x3dabf7f8	0.08396906
86	0xbe716821	-0.23574878
87	0xbda993f6	-0.082801744
88	0xbcd10f3c	-0.02551996
89	0x3d5e22c0	0.05423236
90	0x3e61602f	0.22009347
91	0x3e4219a1	0.18955089
92	0xbd2f4253	-0.04278786
93	0x3e9cc4bb	0.30618843
94	0xbd3b8571	-0.045781557
95	0x3d868d1e	0.06569885
96	0xbdf00e44	-0.11721471
97	0x3ed20a30	0.41023397
98	0x3e28ece7	0.16496621
99	0x3e277170	0.16351867
100	0xbe02ad39	-0.12761392
101	0x3dc894ac	0.09793982
102	0xbe789004	-0.24273688
103	0x3dcdb941	0.100451
104	0x3e8043ff	0.25051877
105	0xbcb92fa7	-0.02260573
106	0x3e26a3a6	0.16273364
107	0x3e58fa15	0.21189149
108	0xbd24a8e7	-0.04020014
109	0xbdf849ed	-0.12123475
110	0xbe34b833	-0.17648391
111	0x3db6a72f	0.089186065
112	0x3c620697	0.013795516
113	0xbcb7bb42	-0.022428159
114	0x3e4fd3bf	0.20295618
115	0x3e00f120	0.12591982
116	0xbd972224	-0.07379559
117	0x3ea7b425	0.32754627
118	0xbdf97662	-0.12180783
119	0x3e6cb26d	0.23114939
120	0x3de42a01	0.11140824
121	0x3e83df55	0.25756326
122	0xbda8a844	-0.08235219
123	0xbdae1fd1	-0.08502162
124	0xbe9929a4	-0.29914582
125	0xbe34de27	-0.1766287
126	0xbe19d852	-0.15023926
127	0x3d02f870	0.03197521
128	0xbdc7aa87	-0.097493224
129	0xbcc30b57	-0.023809118
130	0xbc9ebf58	-0.01937835
131	0x3d963d60	0.07335925
132	0xbe2ee6ab	-0.1708018
133	0xbd56b90b	-0.052422564
134	0x3e15fee0	0.14648008
135	0xbdd691b3	-0.10477009
136	0x3dcd6f25	0.10030965
137	0x3c835333	0.016030883
138	0x3e3f539e	0.18684241
139	0x3d6fb718	0.05852422
140	0x3dfaa743	0.12238934
141	0x3e48d751	0.19613387
142	0x3e1ad768	0.15121233
143	0x3e0ee16c	0.13953179
144	0x3cdf99a6	0.027294945
145	0xbd3275f6	-0.043569528
146	0xbe05fd32	-0.13084868
147	0xbdc08d81	-0.0940199
148	0xbe14b114	-0.14520675
149	0x3e6d5d39	0.23180093
150	0x3eb373a8	0.35049176
151	0x3de1c20e	0.11023341
152	0xbdd2d18c	-0.10293874
153	0x3c8c1f72	0.017104838
154	0xbe3521bb	-0.17688648
155	0x3e3852b1	0.18000294
156	0xbd9129a7	-0.07088023
157	0x3a8da7c0	0.001080744
158	0x3dddb2da	0.10825129
159	0xbe49f592	-0.19722584
160	0xbcb64c23	-0.022253102
161	0x3d5faadc	0.054606304
162	0x3e23a290	0.15979981
163	0x3e42e860	0.19033957
164	0x3e32ba81	0.17453958
165	0xbca0b28f	-0.019616393
166	0x3e502d57	0.20329796
167	0xbe0a746f	-0.13520978
168	0x3e8125b5	0.2522408
169	0x3e3ab4d6	0.18233046
170	0x3eaf90a5	0.34290043
171	0x3eae1e14	0.34007323
172	0x3da45427	0.08023863
173	0xbeb3ee48	-0.35142732
174	0xbd9688ac	-0.07350287
175	0xbc95b123	-0.018272942
176	0x3b54f834	0.0032496573
177	0xbd7863eb	-0.060642164
178	0x3e0b2808	0.1358949
179	0xbe540d44	-0.20708185
180	0xbd5138b2	-0.05107946
181	0xbe4b0689	-0.19826712
182	0xbe35ba21	-0.17746784
183	0x3db13763	0.08653142
184	0x3cd8c3de	0.026460584
185	0xbe059c60	-0.13047934
186	0x3e1abeee	0.15111896
187	0x3e4ae4a6	0.19813785
188	0x3e8750cc	0.2642883
189	0x3df03508	0.11728865
190	0x3d7d1ec3	0.061796915
191	0xbdc92353	-0.09821191
192	0xbdb504dc	-0.088388175
193	0x3a91c175	0.0011120277
194	0xbe4e2afc	-0.20133585
195	0x3d93d7c5	0.07218889
196	0x3dc1c493	0.09461322
197	0xbe683f32	-0.22680357
198	0xbde4fb46	-0.11180739
199	0x3cbf2082	0.02333093
200	0xbe31c2d3	-0.17359476
201	0x3e53baf3	0.20676784
202	0x3c7f65ab	0.015588204
203	0x3e2dac8f	0.16960357
204	0x3b4ed61e	0.003156073
205	0x3e371358	0.17878473
206	0x3e4a7fc9	0.19775309
207	0xbe3cec73	-0.18449573
208	0xbdc7739b	-0.09738847
209	0xbe12e46a	-0.14344946
210	0x3ea3b856	0.31976575
211	0x3eae1f7f	0.34008405
212	0x3e3206bb	0.1738538
213	0xbdea922f	-0.114536636
214	0xbdfd7527	-0.12375861
215	0xbdf59b47	-0.119925074
216	0x3cda372e	0.02663764
217	0x3e191cb7	0.1495236
218	0x3c211f04	0.009834055
219	0xbd12bad1	-0.035822693
220	0xbddef295	-0.108861126
221	0x3e8e26ed	0.27764073
222	0x3daccfdf	0.08438086
223	0xbcf9d13d	-0.03049528
224	0xbde860b4	-0.1134657
225	0x3e4ece13	0.20195799
226	0xbe17e7fc	-0.14834589
227	0xbec14f16	-0.3775565
228	0xbe8b1670	-0.27165556
229	0xbeb900f6	-0.36133546
230	0x3cbce784	0.023059614
231	0x3ed6a18a	0.4192012
232	0x3c66ce53	0.014087277
233	0xbd07a9ff	-0.033121105
234	0x3e4198a6	0.18905887
235	0xbeb5c17b	-0.35499176
236	0xbe6a1c90	-0.22862458
237	0xbe2f6cf3	-0.17131405
238	0x3ea56161	0.32300857
239	0x3e522627	0.20522366
240	0x3ddb50b7	0.107087545
241	0xbd35c64a	-0.044378556
242	0xbbbd85c1	-0.005783767
243	0x3e90a3dd	0.28250018
244	0x3b4cc2ff	0.0031244156
245	0xbce739de	-0.028225835
246	0x3e730a7b	0.23734467
247	0x3e0fb0b7	0.14032255
248	0x3e887e71	0.26658967
249	0xbd808e5a	-0.062771514
250	0x3e9b70d0	0.30359507
251	0x3e40e558	0.18837488
252	0x3e224a5f	0.15848683
253	0xbdf084b4	-0.11744061
254	0xbe14016c	-0.14453667
255	0x3e53e94a	0.20694461

prop_h_to_h.2.bias f4 [20]
0	0xbd8d626c	-0.06903538
1	0xbd9034dd	-0.07041333
2	0xbda3d1f3	-0.07999029
3	0x3c4413b2	0.011967586
4	0xbc9d8bc3	-0.019231683
5	0x3cac7c8a	0.021055479
6	0xbde45d45	-0.11150602
7	0xbe1c6d9f	-0.15276192
8	0xbe1505a0	-0.14552927
9	0x3e24fb07	0.16111384
10	0xbe457aaf	-0.19285081
11	0xbe42b6bc	-0.1901502
12	0x3e301c7d	0.17198367
13	0x3d8faa4a	0.07014902
14	0x3cf51e63	0.029921716
15	0x3e030789	0.12795843
16	0x3dd7c5f1	0.10535801
17	0xbde3fe7f	-0.11132526
18	0x3c9453b0	0.018106312
19	0x3d8be4ae	0.068307266

prop_h_to_h.3.weight f4 [20, 20]
0	0xbe46f35e	-0.19428775
1	0x3e0a385a	0.13498059
2	0xbdcbcd7d	-0.09951303
3	0x3eb2ceed	0.34923497
4	0x3ec96a98	0.39339137
5	0x3dff99b0	0.124804854
6	0xbd423eee	-0.047423296
7	0x3e0a5604	0.13509375
8	0x3dfcfa92	0.1235248
9	0x3e74c078	0.23901546
10	0x3cbb39c9	0.022854703
11	0x3d2adb83	0.04171325
12	0x3d06ecda	0.032940723
13	0xbd402ef1	-0.046919767
14	0xbd3b499f	-0.045724507
15	0x3eca9de9	0.395736
16	0x3e12ae0a	0.14324203
17	0xbe2ddf42	-0.16979697
18	0x3bbd9b67	0.0057863477
19	0xbd62532c	-0.0552551
20	0x3ead48f6	0.33844727
21	0x3e98650e	0.297646
22	0xbe279e9f	-0.16369103
23	0xbe416412	-0.1888583
24	0x3d903975	0.07042209
25	0xbe4c7ee2	-0.19970277
26	0x3c6f1b63	0.014593932
27	0x3d13ccf3	0.036084127
28	0x3e2188c0	0.15774822
29	0xbd92975c	-0.07157776
30	0x3ddbec7b	0.107384644
31	0x3d26be14	0.040708616
32	0x3d4d3a98	0.050104707
33	0xbe70a9a3	-0.23502211
34	0x3de8cae9	0.11366827
35	0x3c8a0772	0.016849253
36	0xbe839cf4	-0.25705683
37	0x3ea392e7	0.31948015
38	0x3c4d69be	0.012537418
39	0x3bd15582	0.006388367
40	0x3e4783ff	0.19483946
41	0xbe8514fa	-0.25992566
42	0xbe12e331	-0.14344479
43	0x3ea53644	0.32267964
44	0xbdfd04a1	-0.123543985
45	0xbe8040d9	-0.25049475
46	0x3e344d1a	0.17607537
47	0x3e94579a	0.28973085
48	0xbdea39cb	-0.114368044
49	0xbed24f0a	-0.41075927
50	0x3e6c707d	0.23089786
51	0x3c574e2a	0.013141194
52	0xbe921dbe	-0.28538316
53	0xbeceeea9	-0.40416458
54	0xbe78f2cf	-0.24311374
55	0xbea03777	-0.31292316
56	0x3c30b2b9	0.010784798
57	0x3eb155c1	0.34635738
58	0x3e0a4a3f	0.13504885
59	0xbe103fac	-0.14086789
60	0x3c82359b	0.015894702
61	0xbd4db7df	-0.05022418
62	0x3e22976f	0.1587808
63	0xbb0c77a5	-0.0021433618
64	0x3d594f17	0.05305394
65	0x3de94c06	0.113914534
66	0x3e12cbda	0.14335576
67	0x3c9bd11c	0.01902061
68	0x3e83906e	0.2569613
69	0x3e71a303	0.2359734
70	0x3cdf820d	0.027283693
71	0xbe03ae3f	-0.12859438
72	0xbbbc8b39	-0.0057539013
73	0xbe372efa	-0.17889014
74	0x3d818217	0.06323641
75	0x3e71af71	0.23602082
76	0xbd9fb100	-0.07797432
77	0xbe5ea246	-0.2174159
78	0xbdcc6c36	-0.09981577
79	0x3e299670	0.16561294
80	0x3e601da9	0.21886314
81	0xbdbff6b7	-0.09373229
82	0x3e580548	0.21095765
83	0x3d2f6e08	0.042829543
84	0xbe961e49	-0.2931998
85	0x3d91a286	0.07111077
86	0x3dbac645	0.09119848
87	0xbe0a78ee	-0.13522694
88	0xbcd6929c	-0.026192956
89	0xbe22bb35	-0.15891726
90	0x3e24480f	0.16043113
91	0xbd9509c2	-0.07277252
92	0x3d916e2c	0.07101092
93	0x3dd412a2	0.103551164
94	0x3e766c90	0.24064851
95	0x3d69965c	0.05702816
96	0x3db36463	0.087593816
97	0xbe42f7dd	-0.19039865
98	0xbd3dd317	-0.04634389
99	0xbdae8087	-0.085206084
100	0x3c058a82	0.008150699
101	0xbdda059a	-0.106456
102	0xbc9986f2	-0.018741105
103	0xbdfafbf7	-0.1225509
104	0xbe8292b3	-0.25502548
105	0x3d3f23ef	0.04666513
106	0x3e4b60d2	0.19861153
107	0xbe019b50	-0.12656903
108	0x3e26ad1b	0.16276972
109	0xbbb52329	-0.005527873
110	0xbdbbc313	-0.09168067
111	0x3e723dea	0.23656431
112	0xbe1754ae	-0.14778396
113	0xbe76e064	-0.24109036
114	0xbea3126c	-0.31849992
115	0xbd9406a1	-0.07227827
116	0x3d7b1845	0.061302442
117	0x3e723059	0.23651256
118	0x3ddf41b6	0.10901205
119	0x3db81810	0.089889646
120	0x3d13ba4f	0.03606635
121	0x3e2b6027	0.16735898
122	0xbea2d682	-0.3180428
123	0x3e5d1dd9	0.21593417
124	0x3c966330	0.018357843
125	0xbe1afaf0	-0.15134788
126	0x3d617def	0.05505174
127	0x3e1e3168	0.15448534
128	0x3deeaf44	0.11654523
129	0xbd53fdb2	-0.051755615
130	0x3ea76281	0.3269234
131	0x3e9dca79	0.30818537
132	0xbe532b55	-0.20621999
133	0xbef9b246	-0.48768824
134	0x3d125dd5	0.035734016
135	0x3edb3e42	0.42820936
136	0xbe14407c	-0.14477724
137	0x3ee0afa2	0.43883997
138	0x3e4a96a3	0.19784026
139	0xbb87e9f7	-0.004147764
140	0xbe7adc79	-0.24498166
141	0x3cb12b5f	0.021627126
142	0xbd857943	-0.065172695
143	0x3e07b393	0.13252096
144	0x3da82172	0.08209504
145	0x3d9327d0	0.07185328
146	0xbe416b4c	-0.18888587
147	0xbe3f8ac8	-0.18705285
148	0x3de2c385	0.11072449
149	0x3dc31a56	0.095265076
150	0xbd908ac8	-0.070577204
151	0xbe369d1f	-0.17833374
152	0xbd799505	-0.06093313
153	0x3d95675e	0.07295106
154	0xbdd91243	-0.10599186
155	0xbd23050c	-0.039799735
156	0xbe2a968e	-0.16658995
157	0xbe2dc36a	-0.16969076
158	0xbd27563d	-0.040853728
159	0x3c85e1ee	0.016343083
160	0x3de1d207	0.11026388
161	0x3e1a0ed7	0.15044723
162	0x3e231c09	0.15928663
163	0xbe4b3661	-0.19844963
164	0x3d881014	0.06643692
165	0x3e622114	0.22082931
166	0x3b9da5f1	0.0048110415
167	0xbdde0ba6	-0.108420655
168	0xbd7f2596	-0.062291704
169	0xbe2c8abd	-0.168498
170	0x3de85208	0.11343771
171	0x3dde0c85	0.10842232
172	0xbe8ecb2d	-0.27889386
173	0xbe1674c1	-0.14692976
174	0x3d55f99d	0.052240003
175	0xbe5c9a34	-0.21543199
176	0xbe48097b	-0.19534867
177	0x3df7a14f	0.12091314
178	0xbe01d5fa	-0.12679282
179	0xbe4ccda1	-0.20000316
180	0x3e62ed67	0.22160874
181	0x3dce7aa6	0.10081987
182	0x3d5d3f27	0.054015305
183	0xbddaa510	-0.106760144
184	0xbe41c510	-0.1892283
185	0xbe7feb02	-0.24991992
186	0xbdba9211	-0.09109891
187	0x3dbd20bc	0.09234759
188	0x3dbc7ff3	0.09204092
189	0xbcab8204	-0.02093602
190	0x3e1b510d	0.15167637
191	0x3e827edf	0.2548742
192	0xbd131f78	-0.035918683
193	0xbe7f29e8	-0.2491833
194	0xbe1fcce3	-0.15605502
195	0xbea0950e	-0.3136372
196	0xbdc6ff4c	-0.09716663
197	0x3d0fe0f5	0.035126645
198	0x3e24a2e2	0.1607776
199	0xbe026832	-0.1273506
200	0x3e8036ed	0.25041905
201	0x3e900009	0.28125027
202	0xbdc93d4a	-0.09826143
203	0x3e0b8646	0.1362544
204	0x3c25cd76	0.0101197865
205	0xbeb1d9fa	-0.34736615
206	0x3ea138be	0.31488603
207	0x3e138cb8	0.14409149
208	0x3e5a06c2	0.2129164
209	0xbeb2d849	-0.34930637
210	0x3ecf0757	0.40435287
211	0x3ecc9f05	0.39965072
212	0xbec1fd0a	-0.37888366
213	0xbea42907	-0.3206255
214	0xbe95ff54	-0.29296362
215	0x3d8488e6	0.06471424
216	0x3b7cadc7	0.0038555728
217	0x3eb1478c	0.34624898
218	0x3e7fee2a	0.24993196
219	0xbea1f60d	-0.31633034
220	0x3e05399f	0.13010262
221	0x3be464e0	0.006970033
222	0x3dc95238	0.09830135
223	0xbd3e4f12	-0.046462126
224	0x3da60fd1	0.081084855
225	0x3d72a61f	0.059240457
226	0xbe5266a1	-0.20546962
227	0xbda9e11a	-0.08294888
228	0xbe093474	-0.13398916
229	0x3dc8f60b	0.09812554
230	0x3e15eafb	0.14640419
231	0x3da72c20	0.08162713
232	0xbd2f2f7a	-0.042769887
233	0x3e867942	0.26264387
234	0x3d1bc409	0.03802875
235	0x3e0c1635	0.13680346
236	0xbe37130c	-0.1787836
237	0x3e23a109	0.15979399
238	0xbe82fbcb	-0.25582728
239	0x3d1f1711	0.038840357
240	0xbd10b5e1	-0.035329703
241	0x3dc8244d	0.09772549
242	0xbe7105a7	-0.23537312
243	0x3b49ea5a	0.003080985
244	0xbd0b96ed	-0.03407948
245	0xbe84dff9	-0.25952128
246	0x3bc8f74a	0.006132995
247	0xbe3f09e1	-0.18656112
248	0xbd28db1a	-0.041224577
249	0xbe195485	-0.14973648
250	0x3e3382f7	0.17530428
251	0x3e8ec9de	0.27888387
252	0xbd2be3c2	-0.041965254
253	0xbe9a8aec	-0.30184114
254	0x3d52a72d	0.051428962
255	0xbe9bcc6c	-0.304294

prop_h_to_h.3.bias f4 [20]
0	0x3e6cf063	0.23138575
1	0xbe29fc9f	-0.16600274
2	0xbda25e9a	-0.079282
3	0x3ca1a2f7	0.019731028
4	0xbe020ac7	-0.12699424
5	0xbc1830a2	-0.009288939
6	0xbe965405	-0.29360977
7	0xbb1cb60b	-0.0023912217
8	0x3dc8402c	0.09777865
9	0xbcfb51f7	-0.030678732
10	0xbec31cc7	-0.38107893
11	0xbced366e	-0.028956618
12	0xbe3f5d29	-0.18687882
13	0xbcc724a6	-0.024309468
14	0xbd9c91c4	-0.0764499
15	0x3db3228f	0.08746826
16	0xbe062951	-0.13101698
17	0xbe710a82	-0.23539165
18	0xbd00247b	-0.03128479
19	0x3dde0439	0.10840649

prop_h_to_h.4.weight f4 [20, 20]
0	0xbc82cebc	-0.01596772
1	0xbe1fc89d	-0.15603872
2	0xbc9fe2a0	-0.019517243
3	0xbcf2ae1b	-0.029624036
4	0xbdc2c0e5	-0.09509448
5	0x3e08e698	0.13369215
6	0x3e6c3bb2	0.23069647
7	0x3de0195b	0.10942336
8	0x3e3e46e5	0.18581732
9	0xbd131106	-0.035904907
10	0x3de32884	0.11091712
11	0x3da17699	0.07883949
12	0xbdfdba1e	-0.12389015
13	0x3dbc85d8	0.09205216
14	0xbdb374e6	-0.08762531
15	0x3c28076f	0.010255679
16	0xbe5c6ef6	-0.21526703
17	0x3e4797ea	0.19491544
18	0x3e0d2a56	0.13785681
19	0xbd685faf	-0.056731876
20	0xbe18ae10	-0.1491015
21	0xbe7804be	-0.24220559
22	0xbed0cc87	-0.40781042
23	0xbc31c17a	-0.010849351
24	0xbe9a78d9	-0.30170324
25	0xbd88973c	-0.06669471
26	0xbc76baf8	-0.015059225
27	0x3d695d09	0.05697349
28	0xbced3d3c	-0.028959863
29	0xbe0f34f3	-0.13985042
30	0xbe979b39	-0.29610613
31	0x3d3beee2	0.045882113
32	0xbcd76d94	-0.026297368
33	0x3e2a0286	0.16602525
34	0xbda2b527	-0.07944708
35	0xbe2232a5	-0.15839632
36	0xbe8c9246	-0.27455348
37	0xbe6e9ad6	-0.23301253
38	0xbe3a0193	-0.18164663
39	0x3e33b129	0.1754805
40	0x3dbc64e1	0.091989286
41	0xbe74a06d	-0.23889323
42	0xbdbc4b74	-0.09194079
43	0x3d62ba8d	0.05535369
44	0xbd9baad4	-0.07600942
45	0x3d243a2f	0.04009455
46	0xbe8fce0f	-0.28086898
47	0x3e77c883	0.24197583
48	0xbcc519e6	-0.0240602
49	0xbc136a3d	-0.008997497
50	0xbd2b31c6	-0.041795515
51	0x3d82b9af	0.063830726
52	0x3d3d436c	0.046206877
53	0xbcc5a745	-0.024127612
54	0xbd233d60	-0.039853454
55	0x3d6df761	0.058097247
56	0xbdb88e40	-0.09011507
57	0x3db28caf	0.087182395
58	0x3d031e33	0.032011222
59	0x3e84c294	0.259297
60	0x3e44b434	0.19209367
61	0xbdad5af5	-0.08464614
62	0x3e6cf863	0.23141627
63	0xbdcca9c4	-0.09993318
64	0xbe0e7a59	-0.1391386
65	0x3e688ded	0.2271039
66	0xbe85da86	-0.26143283
67	0xbdec5633	-0.11539879
68	0x3da22de3	0.079189084
69	0x3d8aa780	0.06770229
70	0xbbc0b7ce	-0.005881286
71	0x3d826773	0.063673876
72	0x3ced8145	0.028992305
73	0xbdfece74	-0.124417216
74	0x3d636d46	0.055524133
75	0x3d990915	0.074724354
76	0xbdcc1948	-0.099657595
77	0x3e23c746	0.15993986
78	0xbe007fc5	-0.1254874
79	0x3d326589	0.043553863
80	0x3dd2e439	0.10297436
81	0xbe4bd963	-0.19907145
82	0xbde5fe60	-0.11230159
83	0xbdb8c56d	-0.09022031
84	0xbd2a5557	-0.041585293
85	0x3df348ec	0.11879143
86	0x3e491800	0.19638062
87	0xbe6cac03	-0.23112492
88	0x3e387ed5	0.18017133
89	0x3c56701b	0.013088251
90	0xbe0c9759	-0.1372961
91	0x3dc5ab1d	0.09651778
92	0x3e02a247	0.12757216
93	0x3dd796eb	0.10526832
94	0xbe041fcf	-0.12902759
95	0x3d6a015f	0.057130214
96	0xbe7b3008	-0.24530041
97	0x3d741381	0.059588913
98	0x3deeeeb5	0.116666235
99	0xbc802c4b	-0.01564612
100	0xbe489922	-0.19589666
101	0xbe11b19b	-0.14227907
102	0x3e2c4e54	0.16826755
103	0xbe876095	-0.26440874
104	0xbe63a9b8	-0.22232711
105	0x3e0a66b5	0.13515742
106	0xbe041246	-0.12897596
107	0xbe65a0fb	-0.2242469
108	0x3c5309a1	0.012880714
109	0x3dec985b	0.11552497
110	0x3dd2be48	0.102901995
111	0xbdbd8344	-0.092535526
112	0x3ddbcbdd	0.10732243
113	0xbde05c65	-0.10955123
114	0x3d3791d1	0.044816796
115	0xbdf55b04	-0.119802505
116	0x3dc425a4	0.09577492
117	0x3e064a96	0.1311439
118	0xbdaccec3	-0.08437874
119	0x3d2088d4	0.03919299
120	0xbe1f496c	-0.15555352
121	0x3c1ba402	0.009499552
122	0xbe3a35c0	-0.18184566
123	0xbd46b1f1	-0.048509542
124	0xbdebeed8	-0.11520165
125	0xbd94bbb2	-0.072623625
126	0xbd184909	-0.037179027
127	0x3e100b5d	0.14066835
128	0xbdbf68d2	-0.09346165
129	0x3e1aec6c	0.1512925
130	0x3d66c416	0.056339346
131	0x3df9758d	0.12180624
132	0x3d7d6c96	0.061871134
133	0xbcf8e2ae	-0.030381527
134	0x3dccabeb	0.09993728
135	0x3e351850	0.17685056
136	0xbde11f11	-0.109922536
137	0x3d6131b4	0.05497904
138	0x3c19200a	0.009346018
139	0x3ca2eefd	0.01988935
140	0xbd7fd341	-0.062457327
141	0x3ce7c727	0.028293205
142	0x3dea09f0	0.11427677
143	0xbe18d990	-0.14926744
144	0x3dd4ec7a	0.10396667
145	0xbd137ecc	-0.036009595
146	0xbdf865d4	-0.12128797
147	0x3e7d93c1	0.24763395
148	0x3e30125c	0.17194504
149	0xbd8b620f	-0.068058126
150	0xbdf38717	-0.11891001
151	0xbd2a51b9	-0.041581843
152	0xbb3e5e37	-0.0029047856
153	0x3e827715	0.25481477
154	0x3db7eccd	0.08980713
155	0x3e5fc7ef	0.21853612
156	0xbe4452dc	-0.19172233
157	0x3dbd7796	0.09251325
158	0x3d273d9a	0.040830232
159	0x3d8d4015	0.06896988
160	0xbdb8de3a	-0.09026761
161	0xbbbf95a2	-0.005846695
162	0xbd50d9e9	-0.050989065
163	0x3d9e5c5b	0.07732459
164	0x3e29b7e2	0.16574052
165	0xbe13642c	-0.14393681
166	0xbdf4d848	-0.11955315
167	0x3e385c2e	0.18003914
168	0xbdb186ae	-0.08668266
169	0x3dfb854d	0.122812845
170	0xbd7b9fff	-0.06143188
171	0xbda86292	-0.08221926
172	0x3dee8764	0.116469175
173	0x3d761ba4	0.060084954
174	0xbe1d97d6	-0.15389952
175	0x3dc65037	0.096832685
176	0xbe2eadd4	-0.17058498
177	0x3e4c5823	0.19955496
178	0x3e01ff4b	0.12695043
179	0xbd8e8c99	-0.069604106
180	0xbe69cf7a	-0.22833052
181	0xbdc277df	-0.0949552
182	0xbe4d850b	-0.20070283
183	0xbc82f79b	-0.015987208
184	0xbe2074ba	-0.15669528
185	0xbc30b6c9	-0.010785767
186	0xbad6594c	-0.0016353517
187	0x3dba2a0e	0.090900525
188	0x3e1cdfa7	0.15319692
189	0xbd20c5e9	-0.03925124
190	0x3d98ef44	0.07467511
191	0xbdc81218	-0.09769076
192	0x3d1703ea	0.036868967
193	0xbe4b3e03	-0.19847874
194	0x3cbc66c6	0.022998225
195	0xbe561f95	-0.20910485
196	0x3e12e3ec	0.14344758
197	0x3cb02acf	0.021504788
198	0x3d79c3ca	0.060977735
199	0xbe645082	-0.22296336
200	0xbe55acbc	-0.20866674
201	0xbc68a44c	-0.014199328
202	0x3bb17579	0.005415615
203	0x3e12a1d4	0.14319545
204	0xbe867c5a	-0.26266748
205	0x3cdd9a13	0.027051007
206	0x3e2bcce8	0.16777384
207	0xbe3638d5	-0.17795117
208	0x3d1bcaa9	0.03803507
209	0xbdcd1a2b	-0.10014757
210	0xbe0826a7	-0.13295995
211	0x3e02167c	0.1270389
212	0x3d877ea9	0.066159554
213	0xbddb8c3a	-0.107201055
214	0x3d964c9a	0.07338829
215	0xbc3aa4f8	-0.011391871
216	0xbdf997e1	-0.12187172
217	0xbd04b2e0	-0.03239715
218	0xbaa51cfe	-0.0012597141
219	0x39ab63ad	0.00032689926
220	0x3c033d98	0.008010291
221	0xbe8421d0	-0.25807047
222	0xbe1a57ac	-0.15072507
223	0x3cadb433	0.02120409
224	0x3d5561d4	0.05209525
225	0xbd723ea8	-0.059141785
226	0x3e17d14a	0.14825931
227	0x3c838038	0.01605235
228	0x3e15c063	0.14624171
229	0x3e328cc2	0.17436507
230	0xbc84e876	-0.016224127
231	0x3e2091ca	0.15680614
232	0xbcbc6faf	-0.023002474
233	0x3df2a26e	0.11847387
234	0xbe0d13f7	-0.13777147
235	0x3e4a5828	0.19760191
236	0xbc3bee2b	-0.011470358
237	0xbc742617	-0.014901659
238	0xbe136f06	-0.14397821
239	0xbe691497	-0.2276176
240	0x3e17473f	0.14773272
241	0xbdf992a8	-0.121861756
242	0x3e27c67b	0.16384308
243	0xbe10d1ca	-0.14142528
244	0x3e008a39	0.12552728
245	0xbdeb6b0d	-0.11495028
246	0xbe4befb2	-0.19915655
247	0xbc8b8e18	-0.017035529
248	0x3dc8996e	0.097948894
249	0xbd8e2038	-0.06939739
250	0xbd3f2855	-0.046669323
251	0xbe75819e	-0.23975226
252	0x3e11a7d6	0.1422418
253	0xbd49a0c4	-0.049225584
254	0x3e2000bc	0.1562528
255	0x3e053779	0.13009442

prop_h_to_h.4.bias f4 [20]
0	0x3e39aa7b	0.1813144
1	0xbd20d11c	-0.039261922
2	0x3e5e5314	0.2171138
3	0xbe36cd55	-0.17851765
4	0xbe81f500	-0.25382233
5	0xbdd29228	-0.10281783
6	0x3df77516	0.12082879
7	0x3dffc6e9	0.12489111
8	0x3dbff5d4	0.0937306
9	0x3db8b210	0.09018338
10	0xbe631d53	-0.22179155
11	0xbe148327	-0.14503156
12	0x3e3f1320	0.1865964
13	0xbce1575b	-0.027507475
14	0xbce54a45	-0.027989516
15	0xbe66cfba	-0.22540179
16	0x3e2c4d1c	0.1682629
17	0x3db48a3f	0.08815431
18	0x3d9e75a5	0.07737283
19	0xbd119fb0	-0.03555268

prop_h_to_out.weight f4 [1, 20]
0	0xbd67f571	-0.056630556
1	0x3da3fb1b	0.08006879
2	0x3e40ac44	0.18815714
3	0xbcd30ea2	-0.025763813
4	0xbde171ed	-0.11008058
5	0xbd902917	-0.07039087
6	0xbd9ce95c	-0.07661697
7	0x3bc0d13b	0.005884317
8	0x3c6078c4	0.013700668
9	0xbd01651f	-0.031590577
10	0xbdb0fad6	-0.08641593
11	0xbd98fce1	-0.07470108
12	0x3d1d112f	0.038346466
13	0xbddbd8d4	-0.10734716
14	0x3e1fd4f9	0.15608586
15	0x3c637347	0.013882465
16	0x3dbbaf97	0.091643505
17	0xbdcc9114	-0.09988609
18	0x3e315b41	0.17319967
19	0xbd773d00	-0.06036091
