both_theta_kappa/old/Q.pth (torch, 13056 bytes, 13 tensors)

prop_in_to_h.weight f4 [20, 3]
000000 c4 d7 82 3d 7e 5b b7 3e 7c 3f 0b 3f cc 49 bb 3e
       0.0638881 0.3581199 0.54393744 0.3657974
000010 27 26 5b be fa b1 0a bf 4a 1b 21 bd 06 28 c2 3c
       -0.21401273 -0.5417782 -0.039332666 0.023700725
000020 a6 dd 70 be 51 fb 2e be 3a 81 bb 3e f5 39 b7 3e
       -0.23522052 -0.17088057 0.3662203 0.35786405
000030 4f b7 b0 be de 3f e5 3e a6 e4 90 3e 61 c8 d3 bd
       -0.34514853 0.4477529 0.28299445 -0.103409536
000040 50 a4 51 3e 32 6e 03 bf 65 cd b9 be eb ba 88 be
       0.20472836 -0.5134002 -0.36289516 -0.26705107
000050 78 25 97 bd b6 8f d9 3e 1f 74 8a be 04 da 9c be
       -0.073801935 0.42492455 -0.27041718 -0.30635083
000060 17 c7 fd be 84 ff 00 3e 2e 09 f6 3e e4 cd 97 3e
       -0.49565956 0.12597471 0.4805388 0.2964927
000070 03 1c 92 be 45 74 34 3d 02 7f d8 3e 14 05 81 be
       -0.28536996 0.044056196 0.422844 -0.25199187
000080 4f 2b fd be 92 ef d3 be c1 ec 12 3f 72 39 4c be
       -0.49447104 -0.41393715 0.5739251 -0.19943789
000090 d0 fa 1b 3f 49 2b a9 3e 4f c1 c8 be 3a c7 a2 be
       0.60929585 0.33040836 -0.39209983 -0.31792623
0000a0 5c 66 08 bf 2a 9a 3f 3e 07 db d8 be 1c 12 ad 3e
       -0.5328119 0.18711153 -0.42354605 0.3380288
0000b0 be c3 79 3e f6 53 c4 be 2b 7f 81 bb 32 3d a1 be
       0.24391076 -0.38345307 -0.003951927 -0.31492
0000c0 c5 44 8c 3e d6 9b ed 3e f0 24 6b 3e 62 b3 40 3e
       0.27396217 0.46407956 0.2296331 0.18818429
0000d0 0e a1 d4 be a2 46 24 3f e7 da b6 3e 01 6e 4f 3d
       -0.41529125 0.6417028 0.35713884 0.050642017
0000e0 2a 37 18 3c ac 86 cb 3e 16 d7 a5 3d ac 87 b2 be
       0.009290496 0.39751184 0.08097665 -0.34869134

prop_in_to_h.bias f4 [20]
000000 d4 30 81 be 81 13 00 be eb 08 ff be 7f b9 00 bf
       -0.25232565 -0.1250744 -0.4981149 -0.50283045
000010 0e af dd 3e 0c 6c 7f bc b8 81 be be 5b f3 63 bc
       0.4329762 -0.015589725 -0.37208343 -0.013913001
000020 53 72 ec bd 0c 41 62 be fc 19 a7 3e 22 05 e9 bd
       -0.11545243 -0.22095126 0.32637012 -0.11377932
000030 fe 18 4c 3e 00 ab 96 3e 82 d8 be be f0 66 a3 3d
       0.19931409 0.29427338 -0.37274557 0.07978618
000040 66 bc ea 3e 49 69 9e bd 93 34 d2 3b a7 73 9f be
       0.45846862 -0.07734925 0.0064149587 -0.31142923

prop_h_to_h.0.weight f4 [20, 20]
000000 98 f1 cc 3d 20 c8 3e 3e 64 b7 53 be e3 87 a4 bd
       0.10007018 0.18631029 -0.20675427 -0.08033731
000010 9e a1 b9 3d fd 45 34 3e d1 2e f7 3d 4a 3b 4c 3d
       0.09064029 0.17604823 0.120694764 0.04986123
000020 0c e4 0b 3d b1 8c 4d be cd 56 37 3e 1a b0 6f 3e
       0.03415303 -0.20073201 0.17904206 0.23407021
000030 cb a4 97 bd 79 bb ca 3d d7 0b 09 be 50 69 10 3e
       -0.07404479 0.09899039 -0.13383423 0.14102674
000040 02 c3 a7 bd 91 b3 b6 ba 2d c7 80 be 1e e5 b4 3d
       -0.08191492 -0.0013939013 -0.2515196 0.08832763
000050 1f 28 66 be 2f 21 f2 3c 1c c3 17 be a7 da 5e be
       -0.22476242 0.029556839 -0.14820522 -0.21763097
000060 76 1d 0b 3d 3b 8a da 3d 27 11 87 3c ef 58 90 bd
       0.033963643 0.106708966 0.016487671 -0.07048213
000070 f9 1e dd bd 3f 95 9f 3d 3c 8a ed 3c 6a f3 f8 3b
       -0.10796923 0.07792138 0.02899658 0.0075973766
000080 df 8e 3b 3e 77 4e 5e 3e 54 1f 76 bd ca b7 0f 3e
       0.1831622 0.2170962 -0.06008847 0.14034954
000090 92 f5 0b be ca aa 3a 3d 28 df 07 bd b1 d0 a5 bd
       -0.13667896 0.045573033 -0.033171803 -0.08096445
0000a0 55 76 8b be cb 3f 76 3e 4c 9f 73 3e ab 27 2f be
       -0.27238718 0.24047773 0.23791236 -0.17104976
0000b0 66 33 2a 3b 99 92 b2 bd b8 1f c8 3d f7 e8 2b 3d
       0.0025970577 -0.087193675 0.09771675 0.04197022
0000c0 45 0a 18 ba 3c db 42 bd c2 0b c2 bd 1a 5e b9 3d
       -0.000579987 -0.04757236 -0.09474899 0.090511516
0000d0 d2 66 bf bd e8 8e 38 be 11 d6 1c be d9 33 6b 3d
       -0.09345783 -0.18023264 -0.15316035 0.057422493
0000e0 55 13 88 be 62 b2 19 be f1 94 20 be 26 50 60 3e
       -0.2657725 -0.15009454 -0.15681817 0.21905574
0000f0 c7 42 b4 3d 0e 0e 38 3d 1d 5a 36 be 30 b5 31 bb
       0.08801799 0.04493528 -0.17807813 -0.0027116053
000100 c3 ab 08 3e d1 da a1 bd 14 e9 4c 3e 07 55 29 bd
       0.13346772 -0.07903064 0.20010787 -0.041340854
000110 24 33 87 3d b8 12 29 3e 9b 07 05 be 84 a6 8f 3d
       0.06601551 0.16511047 -0.12991183 0.07014182
000120 5d f6 95 3d dc 42 28 3d eb 24 0b be 2c 93 21 be
       0.07322381 0.041079387 -0.13588302 -0.15778798
000130 c8 42 1c 3e 36 87 2a 3e a0 6b fd 3c 23 c9 b6 bd
       0.1525985 0.16653141 0.030935109 -0.089250825
000140 0c 53 17 3e ac d4 f0 bd b1 b5 36 be 24 73 1b 3e
       0.14777774 -0.11759314 -0.17842747 0.15180641
000150 52 0d e6 bd ab cf 6f 3e 64 46 aa 3d bb a7 67 3d
       -0.112330094 0.23419063 0.08314207 0.056556445
000160 65 05 cc bd d9 66 8d 3d 61 fd f7 3d c8 a4 50 be
       -0.099619664 0.06904382 0.12108875 -0.20375359
000170 2b e9 9c bd 21 7f ce 3d 0b ce c9 bd f9 ba 16 be
       -0.07661661 0.10082842 -0.09853753 -0.14719762
000180 cc fd 3f 3d d1 5e ad bd 75 e8 89 bd 92 64 3a bb
       0.0468729 -0.084653504 -0.06733791 -0.0028441292
000190 32 55 00 bb 3c 39 ba 3d 12 b9 7d 3d df bf 03 be
       -0.001958203 0.09092948 0.061944075 -0.12866162
0001a0 bc 29 a1 bd 7f 8b 56 3e a1 b2 ab 3c 06 31 28 be
       -0.07869288 0.20951651 0.0209592 -0.16424951
0001b0 fd 64 56 3e 54 76 1c be bb 35 85 bd c3 cb c0 bd
       0.20936961 -0.15279514 -0.06504389 -0.094138645
0001c0 ec c9 ae bd 65 80 29 bd c9 54 60 3e 41 12 57 3e
       -0.08534607 -0.041382212 0.21907343 0.21003057
0001d0 db 12 2b 3e 21 33 d9 bd 90 d0 e8 3d bc 95 e3 3d
       0.16706412 -0.10605455 0.11367905 0.11112544
0001e0 b6 0d e9 bd 31 b3 1c be 9d 68 3d be 01 40 18 3d
       -0.11379568 -0.15302731 -0.18496938 0.037170414
0001f0 8d f3 f6 3d 0b 3d 06 be 5c 73 f7 3c 97 91 4a 3e
       0.120581724 -0.13109224 0.030206375 0.197821
000200 db 49 d1 bd 43 90 98 be e0 9e 41 3e 0c 6b 97 3e
       -0.10219165 -0.29797563 0.18908262 0.29573858
000210 7d 62 44 3c 93 80 32 3d 8d 28 fd 3c 93 73 3a 3d
       0.011986372 0.04357965 0.030903125 0.045520376
000220 27 7a d9 3d 80 41 12 3e 82 35 03 be d4 00 39 3e
       0.10619002 0.14282799 -0.1281338 0.18066722
000230 d4 f7 bd bd 2b e5 25 be 44 44 75 3e d1 ee 41 bd
       -0.09275785 -0.16200702 0.23951823 -0.047346894
000240 03 83 2c be 42 13 86 bc 42 12 40 3c eb 7b 66 3e
       -0.16846852 -0.016366605 0.011723103 0.22508208
000250 42 60 a5 be 4e 3d ca 3d 85 cc fd bd 76 5b 33 be
       -0.323 0.09874974 -0.12392525 -0.17515358
000260 ec da c9 3c d5 2b 9b 3d f5 83 6b bd 7f 93 7a be
       0.024640523 0.0757672 -0.05749889 -0.24470328
000270 ef 7b 98 3d 23 fa 85 bd 29 d9 8a bd c2 b0 ec 3d
       0.074455135 -0.065418504 -0.06779701 0.115571514
000280 cf 0c 19 bb 19 4d 60 3e a8 b7 8c bd eb 37 ba 3d
       -0.0023353582 0.2190441 -0.06870967 0.09092697
000290 f9 7a b1 bd 79 c6 b9 3d 13 fb 66 3d 7a dd 95 bd
       -0.08666033 0.09071059 0.056391787 -0.07317634
0002a0 fb a6 c1 3c ac 75 52 3d a7 76 92 3d 38 58 00 be
       0.023639193 0.051381752 0.071515374 -0.12533653
0002b0 98 23 0b 3e 31 21 4d bd db 80 20 bd 8a 16 7c 3e
       0.13587797 -0.050080482 -0.039185386 0.24617973
0002c0 13 45 51 be ab 04 27 bd fa 9f b7 bd 66 e2 ac bc
       -0.20436506 -0.040775936 -0.0896606 -0.021104049
0002d0 7d 2b ab ba 85 2b ab 3d cf 4a 6d be 5d cd 91 be
       -0.0013059225 0.0835791 -0.23173068 -0.28476992
0002e0 92 0a 80 3e 3b 38 3e be 24 ca 8c 3d e4 42 c7 3d
       0.25008065 -0.18576138 0.06874493 0.09729555
0002f0 a6 ca 51 3e 7c df 9c bd 3d 7e 2a be 76 e8 90 3d
       0.2048746 -0.07659814 -0.16649719 0.070755884
000300 a1 f1 86 bd e1 31 9b bd 3e d8 28 3e b8 0b 13 3d
       -0.06589056 -0.07577873 0.1648874 0.035899848
000310 71 f4 8d 3d 9c 40 29 be 7a 31 31 be 3e 27 d6 3d
       0.06931389 -0.16528553 -0.1730403 0.104567036
000320 8e a0 02 3d 3d e6 cf bd fb f9 4a 3e 9a 24 d6 3d
       0.031891398 -0.10151336 0.19821922 0.104562
000330 cf 11 fa 3c f0 fa 9e 3d d3 c9 73 bd ef e2 5f 3d
       0.03052607 0.07762706 -0.059518646 0.05465978
000340 54 2f 8d be 32 71 02 bc b9 66 85 bd e7 f7 77 3d
       -0.2757517 -0.007961558 -0.065137334 0.060539152
000350 2d 6a 07 be c1 70 59 3d 01 d1 d5 3d ef 1f 49 be
       -0.13224097 0.053086046 0.10440255 -0.19641088
000360 3c db 29 bd a7 56 ff bd e0 40 26 3e 1e 0c 37 3e
       -0.041468844 -0.124676995 0.16235685 0.17875716
000370 6a 22 c2 3c b4 44 59 3e c6 d8 16 3e ac 3a c3 bd
       0.02369805 0.21217614 0.1473113 -0.09532675
000380 d2 47 67 bd 3f b9 07 be 9f 59 0c 3e 54 d4 2a bc
       -0.056464978 -0.1325426 0.13706063 -0.0104265995
000390 0a f4 0b be 84 f6 37 bd 1d 95 2a 3c 1b 39 5c be
       -0.13667312 -0.04491283 0.010411528 -0.21506159
0003a0 20 97 2e 3e bb 23 bc bd 98 f6 f8 3d 65 23 35 be
       0.17049837 -0.091865025 0.12156409 -0.17689283
0003b0 8b 53 a3 bd 7b 70 82 bd bf b9 0f 3e af 16 e5 3d
       -0.07974919 -0.0636911 0.140357 0.11185967
0003c0 2c a6 d7 3c 9e 0f 19 3e ed ca eb bd e8 34 90 bc
       0.026324354 0.14947364 -0.115133144 -0.017603353
0003d0 46 04 96 bd a8 d9 d3 3d c6 2d 2b 3e 6f 42 e0 bd
       -0.07325034 0.10344249 0.1671668 -0.10950171
0003e0 1e 31 51 3d 6f f2 67 be eb 74 a9 3d 0b e4 0d 3e
       0.051072232 -0.22651075 0.082742535 0.13856523
0003f0 a4 22 08 bd a7 81 32 3e 47 b3 33 3e f7 27 f7 3d
       -0.03323616 0.17432271 0.17548858 0.120681696

prop_h_to_h.0.bias f4 [20]
000000 49 a9 e0 3d b1 53 35 3e 8b 4b 16 3e 62 f3 2f 3c
       0.109697886 0.17707707 0.14677255 0.010739179
000010 62 f4 7f be aa d0 33 3e bb 23 96 3e 1a 73 93 be
       -0.24995568 0.17560068 0.29324135 -0.28798753
000020 82 73 28 3e 3e 8b 10 3e 9c f2 44 be 71 b2 62 be
       0.16450313 0.14115617 -0.19233173 -0.22138382
000030 7a 59 8f 3c fc f6 2f bd 9b fb 07 3e 7c 1d 54 3d
       0.01749872 -0.042960152 0.13279574 0.05178593
000040 e5 50 fe bd a2 e2 f3 bd c7 5f 92 bd 23 a0 71 be
       -0.12417773 -0.11908461 -0.07147174 -0.23596244

prop_h_to_h.1.weight f4 [20, 20]
000000 a9 f2 2b 3c 9a 44 78 bb da a8 d4 3d e0 c6 5f bd
       0.010494866 -0.0037882687 0.103837684 -0.05463302
000010 14 ac 91 3d a1 19 52 bd 0d e3 02 3e 2f cc 36 3e
       0.071128994 -0.051293973 0.12781925 0.17851327
000020 b9 85 68 bd 95 60 22 bd 0a 6a 23 be 11 39 e7 bd
       -0.056768153 -0.03964289 -0.1595842 -0.112901814
000030 72 20 ed 3d 26 f2 18 bd cd e8 40 3e 7c fa ee 3d
       0.11578454 -0.037340306 0.18838806 0.1166887
000040 bc 5a 7a 3e f5 ae 7d 3d fd 32 03 3e 10 52 30 3e
       0.24448675 0.06193443 0.12812419 0.17218804
000050 52 73 75 bd 36 a8 09 be f9 59 b1 3d a3 67 60 be
       -0.05992443 -0.13443074 0.08659739 -0.21914534
000060 3c d6 1f be 32 80 ed 3c 2d eb fd bc 80 94 8e bc
       -0.15609068 0.028991792 -0.03099593 -0.017404795
000070 73 b7 aa bd 2a af 9a 3d 7b 40 67 3e b0 96 f2 3a
       -0.083357714 0.07552941 0.22583191 0.0018508043
000080 c5 f6 80 be 20 26 62 3e 8f b0 14 3e 07 6e 77 3d
       -0.2518827 0.22084856 0.14520477 0.060407665
000090 60 73 7c bd 49 e5 51 bd 2d 76 d9 3d 2b 55 47 3e
       -0.061633468 -0.051244054 0.10618243 0.19466083
0000a0 59 f7 70 3e 76 0f 9d bd 22 d9 2c 3e c9 2d a5 39
       0.23531856 -0.076689646 0.16879705 0.00031505365
0000b0 58 6c 3f be 7d 9a df bc 4a 5b c7 3d 0a 9a fa 3d
       -0.18693674 -0.027295345 0.09734209 0.12236412
0000c0 0f b0 65 3e 76 67 6d bd 63 b5 22 3d bc 90 20 3d
       0.22430442 -0.057959996 0.039723765 0.03920053
0000d0 c1 86 83 3e 00 9b b4 bc ed 2f 24 be 67 91 37 bd
       0.25688747 -0.022046566 -0.16033907 -0.0448164
0000e0 c3 ea 66 3b eb 39 16 be 7d c2 1b 3d bf 2b 05 be
       0.0035235144 -0.14670531 0.038027275 -0.13004969
0000f0 1c fd 0c be d2 12 9a 3d 3a f0 17 3e eb bd 23 bd
       -0.13768429 0.07523121 0.14837733 -0.03997604
000100 87 ec 42 be 68 d3 23 3e dc 8a 25 3e 3b e6 3d 3e
       -0.1903554 0.15998614 0.16166252 0.18544857
000110 99 7b 02 be 8f df 59 bd 5a d0 72 3e 6e 59 80 3e
       -0.12742461 -0.053191718 0.23712292 0.2506823
000120 b1 92 2e 3d 66 59 ac 3d 61 21 c8 bd ce 13 f6 bd
       0.042620365 0.08415489 -0.097719915 -0.12015496
000130 50 af 0c 3e a4 07 66 3e f5 cf 83 3e ae 8e 8a 3e
       0.13738751 0.22463852 0.25744596 0.2706198
000140 64 4e 79 3d 79 3b 9a 3d 9d 48 2f 3e c1 ed fb 3d
       0.060865775 0.07530875 0.17117544 0.12301207
000150 a9 3e 1c 3b 61 c5 fd 3c 00 e3 0f be 29 b4 20 3e
       0.002384106 0.030977907 -0.14051437 0.15693726
000160 de 03 88 be 2c 0e a4 3d 48 ac 7d 3c fd 69 4c 3e
       -0.2656545 0.080105156 0.01548297 0.19962306
000170 d3 9c 21 3d 68 c5 e1 3c e5 c0 a6 3c 52 d3 40 bb
       0.0394562 0.027559951 0.020355651 -0.0029422832
000180 7e e8 1b 3e 7c 7f 90 3d 4e e6 bc 3d 2e b2 a7 bc
       0.15225407 0.07055566 0.09223615 -0.020470705
000190 77 74 9b bd cf cd 45 be ec 68 51 3e 76 ba 37 be
       -0.07590573 -0.19316791 0.20450181 -0.17942223
0001a0 5b 5a 9b 3d 39 ab 39 bc 44 40 8a be 69 3b 8b 3e
       0.07585593 -0.011332327 -0.27002156 0.27193764
0001b0 b7 74 83 ba 6c 6f 75 be 07 02 43 3e 45 83 2e bd
       -0.001002929 -0.23968285 0.19043742 -0.042605657
0001c0 f4 85 88 be cc e3 82 3e 48 8a 28 3d bc 38 0b bd
       -0.26664698 0.2556442 0.0411475 -0.033989653
0001d0 d4 0a c5 bc 48 81 8c 3e 90 ff 38 3d c4 d7 ac 3c
       -0.024053015 0.27442384 0.0451656 0.021098979
0001e0 74 dd 0f bd 41 7c ab 3d 93 b1 de bd c7 b9 c6 bd
       -0.035123304 0.08373309 -0.10873713 -0.09703403
0001f0 cc 6b 8d be af bc 12 3e ea d0 fc 3b e3 cb 8b be
       -0.27621305 0.1432979 0.007715334 -0.2730399
000200 bc 21 4f 3d a9 fa 1d bc 25 aa 21 be 6e 68 91 be
       0.05056928 -0.009642282 -0.15787561 -0.28399986
000210 d5 38 d8 3c 20 5d 82 3d 19 d2 3c 3e 08 f0 34 bd
       0.026394287 0.063654184 0.18439521 -0.044174224
000220 eb c5 92 3d de 72 39 be 63 4e 00 be 83 81 2c 3d
       0.07166656 -0.18110225 -0.12529902 0.0421157
000230 e3 fc 61 3e 6c 6d 56 3e 05 02 52 3d a5 0a 76 bc
       0.22069125 0.20940179 0.051271457 -0.015017186
000240 ee 81 d8 bc b9 37 54 3e f6 fd c8 3d e5 70 a2 be
       -0.026429143 0.20724382 0.09814064 -0.31726757
000250 57 7b 23 3e b0 fb b3 3d 25 c9 64 be b9 a9 63 3c
       0.15965019 0.0878824 -0.22342356 0.0138954455
000260 b5 de 16 bd 50 93 61 bd 61 5f 3a 3d f0 77 d8 bd
       -0.036833484 -0.05507213 0.045501117 -0.10569751
000270 50 08 01 be 5e aa 06 be 17 ff 45 be 8a f0 94 bd
       -0.12600827 -0.13150927 -0.1933559 -0.07272442
000280 3f 3c 38 b9 b1 89 85 3d 5d 2d 83 3e de b3 22 3d
       -0.00017570051 0.06520403 0.25620547 0.039722316
000290 94 59 9a bb 4c 87 da bc fa 1d 1f bd 5a 20 a3 bd
       -0.0047103856 -0.026675843 -0.038846947 -0.07965155
0002a0 44 bd 3c be bf a4 1e 3e f2 2e 58 3c b8 39 a4 bd
       -0.18431574 0.15492533 0.013194786 -0.080188215
0002b0 14 d4 0b be 4f 0c 25 be 8a f5 f6 3c 9e 1e b2 3d
       -0.1365512 -0.16117977 0.030146379 0.08697246
0002c0 6a 6e 06 3e 53 72 b9 3d 36 36 30 3e 92 ea 62 bd
       0.13128057 0.09055009 0.1720818 -0.055399485
0002d0 cf 7d c5 bd a5 06 55 be 75 67 bc bd b9 c5 0a 3c
       -0.09643137 -0.20803316 -0.0919942 0.008469992
0002e0 7d ea 2f 3e c6 bf d8 bd 83 0a 07 be a9 74 41 3e
       0.17179294 -0.10583453 -0.13187604 0.18892159
0002f0 4c 69 02 bd c0 67 88 be 07 2c 5b 3e 3e a2 73 bd
       -0.0318387 -0.26641655 0.21403514 -0.059480898
000300 a7 e1 90 3d c2 2d b4 bc a6 55 45 3e a3 73 36 be
       0.0707429 -0.021994475 0.19270954 -0.1781755
000310 e0 27 39 be ba c7 93 bc ba 6b 24 3e 59 e6 84 3e
       -0.18081617 -0.018039573 0.1605672 0.2595699
000320 60 4a a7 3e 9b 10 b8 3d 00 22 6d 3e 3a d9 fc 3c
       0.3267393 0.08987542 0.23157501 0.0308653
000330 30 29 68 be 86 10 36 3e 30 81 7a 3e 2e 78 40 bd
       -0.22671962 0.1777974 0.24463344 -0.046989612
000340 ea f5 7d 3c c8 5a 0d be fc b8 d7 bd b8 2b 39 be
       0.015500525 -0.13804162 -0.1053333 -0.18083084
000350 19 92 e8 3d db fa 8f be 69 d5 2e 3e 05 14 24 3d
       0.11355991 -0.28121075 0.17073597 0.040058155
000360 af 8e 10 3d 64 95 37 3c d7 b4 06 3d 1c 38 7a bd
       0.035292324 0.011205051 0.032887306 -0.061088666
000370 83 63 1e 3e 6a c0 49 3d f1 35 af bd 9c 10 6b 3e
       0.15467648 0.049255766 -0.085552104 0.22955555
000380 98 1f e3 bd 69 8b 47 3e ef 58 85 bb 39 71 9b be
       -0.110900104 0.19486775 -0.0040694396 -0.3035982
000390 da 94 3c be 49 6a 58 3e 7c bf 0e 3e dc e3 1f be
       -0.18416157 0.21134295 0.13940233 -0.15614265
0003a0 e5 a3 aa 3d f5 5f 3e be f5 f8 a7 bd 27 a2 ab 3d
       0.08332042 -0.18591292 -0.08201782 0.083805375
0003b0 81 ec 2f 3d 61 f9 1e bd 8f 95 fc 3c 1d e8 dd 3c
       0.042950157 -0.038812045 0.030833034 0.02708822
0003c0 9a 2a c4 bd 74 25 11 be 8c fd 2d 3d f2 87 84 bd
       -0.09578438 -0.14174443 0.04247813 -0.06471242
0003d0 32 a5 29 be 70 5b 03 3e 17 a4 26 be 0e a9 97 3e
       -0.16566923 0.1282785 -0.16273533 0.29621166
0003e0 db d6 69 bd 76 9f 02 3e ab 0b 63 3e 45 b1 1d 3e
       -0.057089668 0.12756142 0.2217242 0.15399654
0003f0 d4 1f 90 bd ee 45 32 3e 73 50 e7 bc 1c 55 d1 3d
       -0.07037321 0.17409489 -0.028236603 0.102213115

prop_h_to_h.1.bias f4 [20]
000000 1f 3a b5 3b 56 77 b5 bd 28 6f d9 3d 89 88 c9 bd
       0.00553061 -0.08860652 0.106169045 -0.09840495
000010 2c de 96 3d 32 42 ce bd 47 3d 84 3e 62 51 f7 3d
       0.07366595 -0.100712195 0.25828 0.120760694
000020 64 3e e4 3c 7f ce d5 bd 87 9a 89 3e 7b 86 76 bd
       0.027861781 -0.10439777 0.26875708 -0.060186844
000030 f5 39 9e be 5b 02 59 be e5 20 04 3e 2e af 8f 3e
       -0.30903593 -0.21192305 0.12903173 0.2806334
000040 1c 41 39 be fe c9 a5 3d 20 a0 74 be 54 a6 f0 3d
       -0.18091244 0.080951676 -0.23889208 0.117504746

prop_h_to_h.2.weight f4 [20, 20]
000000 0c 6b 2e 3e 9d bb 99 bd 50 dc 12 be 79 f5 ef bd
       0.17033023 -0.075064875 -0.14341855 -0.11716742
000010 b9 f8 66 3c 6e 04 08 ba f7 31 99 be ca fe 0b be
       0.014097386 -0.00051886484 -0.29920933 -0.13671413
000020 bd 83 12 be 9d 8a 42 3e dc 09 5d bd 7a fb 3f bd
       -0.14308067 0.1899819 -0.05396448 -0.046870686
000030 9c 10 56 3e e9 a0 c1 3d 72 97 be 3d de 99 66 be
       0.20904773 0.09454519 0.0930623 -0.22519633
000040 6f eb 3d 3e d9 84 1b 3e 60 37 9a 3e d4 30 2e be
       0.18546842 0.15187396 0.30120373 -0.17010814
000050 ff 29 69 bd d9 40 e1 bd d9 e7 13 be 67 42 de 3c
       -0.056924816 -0.10998697 -0.14443912 0.027131272
000060 1e b2 36 be 4c cd df 3d 0a 40 2d 3d 20 a1 c0 bd
       -0.17841384 0.10927829 0.0422974 -0.09405732
000070 1c 2b 7e 3a 8e ea 3d 3e 08 d5 e6 3d cb 7f 0c 3e
       0.0009695755 0.18546507 0.11271101 0.13720624
000080 a1 7e be 3d df 09 34 3e d7 2f 6e bd 05 e4 1d be
       0.09301496 0.1758189 -0.058151092 -0.15419014
000090 86 44 61 bd d9 8e 53 be 56 e8 b4 bd eb 9f 13 3e
       -0.05499699 -0.20659961 -0.08833377 0.14416473
0000a0 6f 16 4f 3e dc 95 19 be 61 0c 5b 3e 4f 60 51 be
       0.20223401 -0.14998573 0.21391441 -0.20446895
0000b0 1a 95 7c 3e 2a 3f 8c be 60 6f 39 3e 74 bc 1d 3d
       0.24666253 -0.2739194 0.18108892 0.0385098
0000c0 39 4d 0b be 28 3b 10 bd 46 c3 a3 3e 8c 5a dc 3d
       -0.13603677 -0.035212666 0.3198492 0.10759458
0000d0 50 04 11 be 37 1c 99 be fe ed 07 3d db 69 a9 bd
       -0.14161801 -0.2990434 0.03318595 -0.082721435
0000e0 ba e2 17 3d 34 e1 d9 3d d3 5b b8 3c 95 b6 94 3e
       0.037081458 0.10638657 0.022504723 0.2904555
0000f0 b0 b7 2e bd 23 26 c6 3d 6e 21 57 3e a4 16 58 be
       -0.042655647 0.09675243 0.21008846 -0.21102387
000100 41 62 81 be 23 24 c3 bd 1e 33 8c bd 87 29 13 be
       -0.25270274 -0.09528377 -0.06845687 -0.1437131
000110 6e c8 0e 3e 2b 49 bd bd 34 94 fa bb 38 89 25 be
       0.13943645 -0.09242471 -0.0076470617 -0.16165626
000120 ab a0 d4 3d 40 46 9c 3d 33 57 fa bd ae ae 44 3e
       0.103822075 0.076305866 -0.12223663 0.1920726
000130 9e 14 e9 b9 91 7c d1 3d b1 eb 2f be a4 e4 1e be
       -0.00044456584 0.10228837 -0.17179753 -0.15516907
000140 99 77 44 be 70 b5 f1 3d 2b b2 1a bc 1d e0 67 3d
       -0.19186248 0.118021846 -0.009441893 0.056610215
000150 d4 c4 09 be 6c 90 01 be f7 9a 8e 3e 8d 1a 8e bb
       -0.1345399 -0.12652749 0.27852604 -0.004336661
000160 69 88 a1 bd 91 ac 28 be 28 e7 9c bd f2 53 4f 3c
       -0.07887346 -0.16472079 -0.07661277 0.0126542915
000170 8b 90 18 be 63 4b d5 3d 78 83 70 3e df 19 44 3d
       -0.14898889 0.104147695 0.23487651 0.047876235
000180 14 70 ff 3d 3d 3e b8 3d be 23 3f bd 8c d5 0a be
       0.12472549 0.08996246 -0.046664946 -0.13558024
000190 e7 ee fe bc d5 a7 32 be a1 92 3c 3e 6a 15 8b be
       -0.031119777 -0.17446835 0.1841531 -0.27164775
0001a0 54 e4 dc bd 7f 6c 25 bd 1d 66 84 3e 2a 0b 8f 3e
       -0.10785738 -0.040386673 0.25859156 0.27938205
0001b0 18 b5 87 3d d8 ce 8a bd fc e4 1c 3d 61 02 08 3e
       0.06626338 -0.067777336 0.038304314 0.13282157
0001c0 3f ce ee bd a3 cd 76 bd bb 88 7a bd 4f 0d 77 3e
       -0.11660432 -0.060254704 -0.061165553 0.2412617
0001d0 56 2b 87 bd 68 57 05 3e cf c6 fb bd 92 74 a4 3d
       -0.066000625 0.13021624 -0.12293779 0.080300465
0001e0 94 05 bb bd fd 3c 1b 3e 44 85 4f ba e4 ef a6 3d
       -0.09131923 0.15159984 -0.00079162815 0.08151224
0001f0 bb e7 cb bc 81 a8 ec 3c 4b 50 1a bd f3 50 19 3e
       -0.024890771 0.028888943 -0.03767423 0.14972286
000200 81 0a 73 3d a7 4a 02 3e e3 69 bd 3d 5f fa 0e 3e
       0.05933619 0.1272379 0.09248712 0.13962696
000210 eb 5e a3 bd 94 92 d5 bb c1 eb e3 3d fb f1 21 bc
       -0.079770885 -0.0065177176 0.11128951 -0.009884353
000220 ad f7 54 bd 6a d7 4d 3a 43 02 0d 3e f1 cd e6 3d
       -0.051994015 0.00078522286 0.13770394 0.11269749
000230 8f 6d e1 3d bd e5 b3 bd 0a 54 8f 3d 93 4e 69 3e
       0.11007225 -0.087840535 0.06998451 0.2278388
000240 f6 79 75 3c 3b 9e 55 3e fd 60 88 3d cd 73 69 be
       0.014982691 0.20861141 0.06659124 -0.2279808
000250 e9 9b 35 be 72 7c 36 3d 8a 37 3f be ef d3 04 3d
       -0.17735256 0.044552274 -0.1867353 0.032428678
000260 7b 89 6e bc ba 8e 36 3d 5d a9 0c 3e 42 a7 23 bd
       -0.014559145 0.04456971 0.13736482 -0.03995443
000270 c0 27 0c 3e b1 ff 15 be 5f 84 7c 3c 8b 3b 38 be
       0.13687038 -0.1464832 0.015412419 -0.17991464
000280 7c 71 6c bc 5a f9 53 3c eb 26 dd bc 73 da 8e bd
       -0.014431354 0.012937868 -0.026996097 -0.0697526
000290 69 3d 01 3e cb 8e 6a be da b5 32 3e 52 3b 00 bd
       0.12621082 -0.22906034 0.17452183 -0.031306572
0002a0 04 40 b8 3c 95 ac 96 be 0c 15 45 bd d7 50 6c 3d
       0.022491463 -0.29428545 -0.048115775 0.057694282
0002b0 27 b3 99 be 71 3a 80 be 51 3e 92 bc 65 26 97 3e
       -0.30019495 -0.25044587 -0.01785198 0.2952148
0002c0 24 b3 62 3d db 9a 01 3c 30 35 54 be 6b be 45 3c
       0.055346623 0.007910456 -0.20723414 0.012069325
0002d0 c0 92 53 3d 86 02 c1 bc c1 fa db bd 6d e5 d0 3d
       0.051653624 -0.023560774 -0.10741187 0.102000095
0002e0 97 8c a3 bd fc 25 82 3d ab 65 69 bd 98 92 14 3d
       -0.079858 0.06354901 -0.056981724 0.036272615
0002f0 15 06 c1 bd 31 07 03 3e 46 5e 22 3e 15 90 37 bd
       -0.09424988 0.12795712 0.15856275 -0.04481514
000300 70 2c 04 3d 35 29 5f bd cb 50 c8 bd b6 4a 5a be
       0.03226894 -0.054482657 -0.09781035 -0.21317562
000310 d3 57 30 be 03 39 d3 3d 20 37 42 3e 3c 7b 05 3e
       -0.17221002 0.103136085 0.18966341 0.13035291
000320 41 d0 92 3d 3f 79 55 bd 9b 43 89 3d 8d f0 11 3c
       0.071686275 -0.052117582 0.06702348 0.008907449
000330 ab 9a 46 38 78 6b 69 3e f3 ad 23 3d 5b dd 2d 3e
       4.7350924e-05 0.22794902 0.039960813 0.16978972
000340 0f f6 84 3c bd b8 de bd 06 8d 1f 3e 87 b8 34 3c
       0.016230611 -0.1087508 0.1558114 0.011030323
000350 93 36 89 3c 71 8b 1b be ce 75 56 be fa bb a7 3d
       0.016749656 -0.15189911 -0.20943376 0.081901506
000360 1c 67 c6 bd be b5 8b 3e 52 c2 17 be e3 25 0e be
       -0.09687635 0.27287096 -0.14820221 -0.1388164
000370 ed a4 50 bd ad e6 9f 3d 2f 82 8c bd e5 a7 75 bc
       -0.050938535 0.0780767 -0.06860768 -0.014993642
000380 fb e6 00 be c9 08 e2 bc 1c 2b 3b be 33 48 b1 3d
       -0.12588112 -0.02759208 -0.18278164 0.08656349
000390 2b 04 14 3e 87 7f f4 3c 53 47 22 be e7 09 21 3e
       0.14454715 0.029845966 -0.1584752 0.15726434
0003a0 e9 d6 11 bc e5 a4 e4 3d bb 96 68 be bf 02 9f 3d
       -0.008901336 0.11164264 -0.22713749 0.07764196
0003b0 16 ac e4 3d 2f 96 7d 3d 36 96 61 3c bd 6e 54 3d
       0.11165635 0.061910804 0.013768723 0.05186342
0003c0 2d c7 24 be 59 87 0f bc 51 e8 e2 3d 2a c1 8f bd
       -0.16091605 -0.008760297 0.11079467 -0.07019265
0003d0 50 bb 10 be 8a 33 eb 3d 47 f2 7d 3c 2d 43 7f 3d
       -0.14133954 0.1148444 0.015499658 0.062319923
0003e0 f5 fa 27 be ec ee ed bd 7e 75 e3 3d 10 45 a5 3d
       -0.16404326 -0.11617836 0.11106394 0.08069813
0003f0 39 89 b3 bc 5f 7d b2 bc 14 83 cd 3d 30 57 9d 3d
       -0.021916019 -0.021788297 0.10034767 0.07682645

prop_h_to_h.2.bias f4 [20]
000000 42 3c fe bd 0f 39 7b bd 03 bd 04 3e 44 1f 44 be
       -0.12413837 -0.061333712 0.12962727 -0.19152552
000010 c4 d6 9a 3e 30 a1 9d 3e f7 99 4b be 83 fb de bd
       0.30241978 0.3078704 -0.19882952 -0.10887816
000020 85 2d a0 3e c4 82 62 3e 45 1f 49 be c1 7f 83 be
       0.3128473 0.22120196 -0.19640835 -0.25683406
000030 e7 c5 7b 3e 51 87 20 3e 91 32 a3 be b8 c5 4c be
       0.24587213 0.15676619 -0.31874517 -0.19997299
000040 c0 5e b6 3d 77 74 89 3e 42 c0 05 3d 7c 07 a4 bc
       0.08904791 0.26846668 0.032654054 -0.0200231

prop_h_to_h.3.weight f4 [20, 20]
000000 aa cf 90 3c da 2b c1 bd b9 17 5b be 7f 21 b7 bc
       0.017677147 -0.09432192 -0.21395768 -0.02235484
000010 10 67 63 3d 9f 9b 53 be 24 0d 61 bc fc 5b 61 3d
       0.05551821 -0.20664833 -0.013736043 0.055019364
000020 d0 95 6a be 2c 2d d8 bd d9 a1 ac bd 5d cf aa 3e
       -0.22908711 -0.10555491 -0.084293075 0.3336133
000030 e2 fb 08 be ae ce c1 3c 0d 9d 6d 3e f1 63 a8 3d
       -0.13377336 0.023658123 0.23204441 0.08222187
000040 13 da 67 bd 34 0a a0 be cd 23 ab bd 70 f2 15 3e
       -0.056604456 -0.31257784 -0.08356438 0.14643264
000050 fd 7e 29 3e cc 2b a8 bc 42 2e 23 3c 02 49 bc 3d
       0.16552348 -0.020528696 0.009959759 0.09193613
000060 16 f9 46 be 6a 5d 9f be 9d 57 55 3e e8 b7 63 3e
       -0.19430956 -0.31125957 0.20834203 0.22238123
000070 10 a1 2a 3d f1 0d a5 bd da f6 87 3e 31 8c 92 bc
       0.041657507 -0.080593 0.2655552 -0.017889114
000080 b1 8f 91 be c0 6e 85 be 09 25 f2 3b f1 34 97 3e
       -0.2842994 -0.26061058 0.007389669 0.2953258
000090 0a 21 0f 3e 23 83 c2 bc 68 4c 2b be 56 3c 4e bd
       0.13977447 -0.023744171 -0.16728365 -0.05035051
0000a0 49 ec a6 3e 92 d5 24 3d bb d9 13 be a9 4e ae 3d
       0.32602146 0.04024274 -0.14438526 0.08511097
0000b0 c9 d5 99 be e6 3a bd bd ce 26 52 3e 2c fb 6e 3e
       -0.30045918 -0.092397496 0.20522615 0.23338002
0000c0 17 29 e1 bd ad 5c a2 be 8a ff 9e 3e bc c8 4c 3e
       -0.109941654 -0.3171133 0.31054336 0.19998449
0000d0 d1 2e 85 be 96 0e 94 3d 23 2a af 3d 26 4c 9c bd
       -0.2601228 0.072293445 0.08552959 -0.07631712
0000e0 31 08 f9 3d f7 9f 8e be 20 cc 49 be e9 c5 7b 3e
       0.121597655 -0.27856418 -0.19706774 0.24587215
0000f0 fc 55 a1 3e 2f 0f 90 b8 53 ae a4 be d7 11 64 3e
       0.31510913 -6.869283e-05 -0.3216425 0.2227243
000100 49 a2 84 bd be 22 0c be b8 7e a1 3e 29 c9 61 3e
       -0.06476266 -0.13685128 0.3154199 0.22049393
000110 25 e5 5d be 4f 94 8f 3d a0 de 94 3d 79 ba 71 3e
       -0.21669443 0.070107095 0.07269025 0.2360629
000120 76 4c 98 3d 3e 6b 98 be f6 ab a4 3e ac d0 89 3e
       0.07436459 -0.2976932 0.32162446 0.26917017
000130 90 08 8a 3d 9e 1b 0f be 92 a8 a4 3d d3 f2 35 3e
       0.067399144 -0.13975379 0.08039965 0.17768411
000140 3a ab 13 3e b8 ae 80 3d f8 1c c8 3c ea aa 42 3c
       0.14420786 0.06283325 0.024427876 0.011881569
000150 10 6d c0 bd c7 c4 87 3d 06 f5 1f be e1 df 44 3e
       -0.09395802 0.06629329 -0.15620813 0.19226028
000160 74 2a 3f 3e b5 e7 8a 3c ff 38 85 bd 27 6d 32 be
       0.18668538 0.01695619 -0.06505012 -0.17424451
000170 21 99 2e be 3d 04 61 be fe e5 c3 bd a8 de bb bb
       -0.17050602 -0.21974273 -0.09565352 -0.00573333
000180 ff c7 21 be d4 00 02 be a4 82 13 be 3f f3 69 be
       -0.15798949 -0.12695628 -0.14405304 -0.22846697
000190 13 64 2c 3d 2c cb 87 3d ba fb 3a bc 30 b7 5c 3c
       0.042087626 0.06630549 -0.011412555 0.01347141
0001a0 f7 23 49 3e 75 81 91 3e 2c 5f 9b be 88 86 01 bd
       0.19642626 0.2841908 -0.30346048 -0.03162244
0001b0 51 f4 eb 3d 44 3d 65 3e e7 e6 e7 bd 9f 42 7e be
       0.11521209 0.22386652 -0.11323338 -0.24830101
0001c0 5c 2a 7c bc db 15 c9 bd a5 78 7b be 8a 21 66 be
       -0.015390959 -0.09818622 -0.24557741 -0.22473732
0001d0 1f 73 46 3e f3 36 86 3d 0c 7f 7b bd 93 e0 74 be
       0.19379853 0.065534495 -0.06140046 -0.23913793
0001e0 35 2a c8 bd fd 62 05 3e c0 4b de 3d d8 f7 fd bd
       -0.09773675 0.13026042 0.10854292 -0.12400788
0001f0 4c 03 4b be 2d ce b7 bd e4 a8 26 3e 02 11 45 3e
       -0.19825476 -0.08974872 0.16275364 0.19244769
000200 61 f4 2a 3d a1 b6 a5 bd 8f 03 26 bd 3d 05 80 3d
       0.041736964 -0.08091474 -0.040530737 0.06250999
000210 1f 5e 4e bc e4 44 28 be a3 67 d9 bd b3 ee fb 3d
       -0.012595682 -0.1643253 -0.1061547 0.12301388
000220 a4 6b 4c be ea c2 d6 bc 97 57 50 3d 67 1e 81 bd
       -0.19962937 -0.02621599 0.050864782 -0.06304627
000230 c2 f5 37 bd 78 da 00 3e 63 e7 3a 3d c3 95 08 be
       -0.044912107 0.12583339 0.045630824 -0.1333838
000240 5e 6d 0e bd ad 5d 41 bd 64 3a 2f be 48 d9 49 b9
       -0.03477227 -0.047208477 -0.17112118 -0.00019249797
000250 b2 ef e1 bc 6d 66 d1 3d 17 e7 c2 bd 3a c2 ab bd
       -0.027580116 0.10224614 -0.09516733 -0.08386655
000260 76 74 57 3e 48 56 f5 3d ab ac 15 3c 86 68 72 be
       0.2104052 0.119793475 0.0091354055 -0.23672685
000270 0b ce 3a 3e 33 a8 c3 bc 4b 45 74 3d b8 e3 60 3d
       0.18242662 -0.023883915 0.059636395 0.05490467
000280 07 cf 69 3d cc 65 04 be 4a e1 2b 3d 39 50 a1 3e
       0.057082202 -0.12929457 0.0419629 0.31506518
000290 5b ac a8 bd dc 13 e8 bc e3 90 d6 3d c5 01 32 bd
       -0.08235999 -0.028329782 0.10476854 -0.04345872
0002a0 f2 f7 8f be d6 7c df bd d9 85 42 3e 83 72 85 3e
       -0.28118855 -0.109124824 0.18996371 0.26063928
0002b0 08 cf a4 be 12 9e 31 be 63 5b 91 3e 39 32 77 3e
       -0.32189202 -0.17345455 0.28390035 0.24140252
0002c0 ca b8 40 be 62 28 b2 be 4e 12 b4 bd d1 5c 25 3e
       -0.18820491 -0.34796435 -0.08792554 0.16148688
0002d0 5a d7 84 3d 6a 61 c6 3d 4c 3b a2 bd 0c 23 1d ba
       0.064863876 0.09686549 -0.07921466 -0.0005994297
0002e0 8a 03 56 3e 97 d8 8a 3e 72 6f d4 3c 5d 5f 82 be
       0.20899788 0.2711837 0.025932048 -0.2546338
0002f0 8f 25 6c 3e 5a 5d 99 3e 9d bb 15 be 79 0d a7 bc
       0.23061202 0.29954034 -0.1462235 -0.020392166
000300 04 9d bb 3c 7c 3b 98 bd 57 5e bd bd 0b 9d 3b be
       0.02290202 -0.07433221 -0.092465095 -0.18321626
000310 9f bf a5 bc fd 15 29 3e da 67 16 bd 91 0b 56 3d
       -0.020232974 0.16512294 -0.036720134 0.052257124
000320 10 f9 60 3e 76 0e ca bd d2 bc 2c 3d 0d 95 11 3e
       0.2197001 -0.098660395 0.04217226 0.14217015
000330 e9 01 bd bd 38 71 f6 bc 96 21 01 3d 93 63 7d 3e
       -0.0922888 -0.030083284 0.03152617 0.24745016
000340 b3 64 d4 3c b2 db 09 be 68 80 40 3e 8c 8c 1a 3d
       0.025926923 -0.13462713 0.18798983 0.037731692
000350 da 04 a6 3d 18 eb 83 3d 89 92 93 3d 87 76 6e 3e
       0.08106394 0.06441325 0.07205684 0.23287402
000360 41 22 0f be e9 ed 61 bd 87 a5 b9 bd e4 f4 20 3d
       -0.1397791 -0.05515853 -0.09064775 0.039296046
000370 90 71 91 3d fa 25 23 3e 47 29 a9 bd b1 42 b2 bd
       0.071017385 0.15932456 -0.08259826 -0.087041266
000380 ec c4 b4 ba 3b 47 2e 3e 68 7b aa 3d 91 15 c0 3d
       -0.0013791597 0.1701936 0.08324319 0.093791135
000390 fb f6 98 3e 87 d5 96 3e cf 99 c5 bd 89 9c 19 3d
       0.2987593 0.29459783 -0.09648477 0.0375028
0003a0 8a c4 7d bd 35 cb 81 3e d1 04 42 be bd 1b 06 be
       -0.061955012 0.25350347 -0.1894715 -0.13096519
0003b0 dc b1 c8 3b f5 fd 74 bd 63 2e 98 3d 41 91 c5 bd
       0.006124718 -0.059812505 0.074307226 -0.096468456
0003c0 d7 80 32 be 81 2c 38 bd 1a 90 55 bd c3 cd 1c be
       -0.17431961 -0.044964317 -0.05213938 -0.15312867
0003d0 ea 48 49 bd 0d 39 88 3e 7b 1f 49 3d 51 9b bf 3c
       -0.049141802 0.26606026 0.049102288 0.02338949
0003e0 a8 4d d5 3d fb 05 0d bd 0e ed f5 3d 33 ec 79 bd
       0.104152024 -0.03442953 0.12008105 -0.061016273
0003f0 be 65 11 3e 66 76 ea bd 6d 3d 6f bd 9d 2f e4 bd
       0.14198968 -0.11448364 -0.05840819 -0.11141894

prop_h_to_h.3.bias f4 [20]
000000 92 34 ad be fd 58 85 be e0 26 1e be cf 21 9b be
       -0.3382917 -0.26044455 -0.15444517 -0.3029923
000010 10 2b 19 3d 0f bf a4 3e 55 33 0f be 9c 12 de 3d
       0.037394583 0.32177016 -0.13984425 0.10843393
000020 f4 ab 83 bd 36 dd e8 3d 36 a3 80 be 25 2b 2e 3e
       -0.06429282 0.11370318 -0.2512452 0.17008646
000030 ca 43 93 3e a5 23 b2 be ad f3 2d 3e fe 3d 90 3d
       0.28762656 -0.3479282 0.16987486 0.07043074
000040 f7 02 9f 3e 71 36 3d 3e aa 98 85 be b0 ee 8e 3e
       0.3105695 0.18477799 -0.26093036 0.2791648

prop_h_to_h.4.weight f4 [20, 20]
000000 db 83 cf bd 09 1a 93 be 8f de a9 be 11 39 37 be
       -0.10132571 -0.287308 -0.3317761 -0.17892863
000010 8a 13 f2 bd 67 7a 69 bd ab 7c b2 bd 79 b2 d3 3d
       -0.11820133 -0.057001498 -0.08715185 0.10336775
000020 9d 81 6c 3c ff 46 6e 3e 7c ce 5a be e2 55 ee 3d
       0.014435199 0.2326927 -0.2136783 0.116374746
000030 89 4f d5 3d 39 2c 8a 3c 6f 16 8f 3d 99 e0 19 3d
       0.10415561 0.01686679 0.06986701 0.03756771
000040 ee 16 4a 3e 7b 1b a2 3d 20 07 58 be 04 84 5b 3e
       0.1973531 0.07915398 -0.21096468 0.21437079
000050 91 74 a9 be 65 2a 7e 3d 25 9e 58 3c 9c e9 9e be
       -0.33096746 0.06205215 0.013221298 -0.31037605
000060 6e 01 f2 bd 19 6b 87 3e 29 7c 87 be 4c 6e d7 bd
       -0.11816679 0.26448897 -0.26461914 -0.10519084
000070 2d f0 8d 3c 74 23 8c 3c d8 9b c6 bd c8 d1 50 3e
       0.017326439 0.01710675 -0.096976936 0.20392525
000080 23 ee bc 3d df 2d 95 be b7 76 9d 3e 03 1e 7b 3e
       0.092251085 -0.2913656 0.30754635 0.24523167
000090 2e 1e 48 3e 0e 07 b0 bd 09 aa 1c be f5 f6 9d 3e
       0.19542763 -0.085950956 -0.15299238 0.30852476
0000a0 c0 60 a1 3d c2 22 8e 3d bd 3e 6a be 6b 03 23 be
       0.07879782 0.06940223 -0.22875495 -0.15919273
0000b0 8a eb d9 bd 75 c9 41 3e d5 5a 9e 3c fc 69 e6 bd
       -0.10640629 0.18924506 0.019330421 -0.11250684
0000c0 4e ed 84 be e2 81 7e 3e 21 98 5b 3d e9 83 9b bd
       -0.259623 0.24854234 0.05361188 -0.07593519
0000d0 72 de 67 3e fd 6f 66 3d d3 8d b0 3d d4 e6 e8 3c
       0.2264345 0.056259144 0.08620801 0.02843038
0000e0 9b e8 16 3d 4e 12 b9 3c 04 6d 8d be 77 45 14 3e
       0.036842924 0.022591736 -0.27622235 0.14479624
0000f0 65 63 5c 3e 25 99 d3 3c c6 cc 9a 3e f9 c3 aa bd
       0.21522291 0.025829861 0.30234355 -0.0833816
000100 bd 90 49 be 3d 86 f1 bd d7 9f 86 bd 72 0b 1c 3e
       -0.1968412 -0.11793182 -0.06573456 0.15238741
000110 d5 d4 7f bd 15 0c 19 bd 28 74 3e 3e 28 db 37 be
       -0.06245883 -0.037365038 0.18598998 -0.17954695
000120 03 dc f2 bd da ac c5 3c 59 71 d9 bd e4 be 53 be
       -0.1185837 0.024130274 -0.106173225 -0.20678288
000130 2e 72 aa be 36 09 8a 3c ed f7 b3 bd d2 3c 99 bd
       -0.33290237 0.016850095 -0.087875225 -0.07482304
000140 80 6b 6b 3e 78 2a 95 3e 41 c3 7b 3e d1 5b 9b 3e
       0.22990227 0.29133964 0.24586202 0.30343488
000150 6b a0 88 bd 4a 00 49 be b1 31 e0 bb 99 cc 26 be
       -0.06671222 -0.19629017 -0.006841861 -0.16288985
000160 6d 3c 33 3e e9 a5 a6 be c6 b1 fe 3d 15 88 9b 3d
       0.1750352 -0.32548454 0.12436251 0.07594315
000170 39 13 92 be 64 d1 68 bd b7 f1 c2 bd ad 10 dd bc
       -0.2853029 -0.056840315 -0.0951876 -0.02698549
000180 23 da b3 bd e7 29 5d 3d dd 01 75 3e 68 71 2c bc
       -0.08781841 0.05399504 0.23926492 -0.010525085
000190 96 ec 25 be 6a c0 8b be 01 1f 84 be 49 75 65 be
       -0.16203532 -0.27295238 -0.25804904 -0.22408022
0001a0 80 9f db bd 28 f5 c0 3c 8f 11 99 3d 41 14 e4 3d
       -0.107237816 0.0235544 0.07474052 0.111366756
0001b0 9e ee 62 3c 59 02 11 3c 49 73 74 be 8f 2f 57 3e
       0.013850836 0.008850657 -0.23872103 0.21014236
0001c0 46 86 a8 3e 55 cd b0 be b9 15 16 3e 89 05 7d 3e
       0.32914943 -0.34531656 0.14656724 0.24709143
0001d0 dc 18 8d 3e 2e a2 98 3d 88 d8 11 be 62 e1 18 3e
       0.2755803 0.07452808 -0.14242756 0.14929727
0001e0 06 cf ce 3d 07 76 94 3d 53 b5 6a 3e 58 24 fa 3d
       0.1009808 0.072490744 0.22920732 0.12213963
0001f0 6b 0d 7e be 8e 4e 8e bc 00 5b 35 bd db ba 01 3d
       -0.24809806 -0.017371442 -0.044276237 0.03167234
000200 d8 f6 a1 3e cf f2 46 be 27 58 9d 3e 09 c7 93 3d
       0.3163364 -0.19428562 0.30731317 0.07215697
000210 4e 32 76 3d 2a 9c a5 3e 92 6e a0 3c e1 95 f9 bd
       0.060106568 0.32345706 0.019583974 -0.1218679
000220 2c 60 6a bb 0d e9 79 be 06 65 89 3e 21 f6 4d be
       -0.003576289 -0.24405308 0.26834887 -0.20113422
000230 45 e5 81 3d e0 93 79 3e b6 38 d7 3c bc 47 32 3d
       0.06342558 0.24372816 0.02627216 0.043525442
000240 f4 54 92 3c 55 4c 0a be 20 fc 7a 3c 69 9c 51 be
       0.017862774 -0.13505681 0.0153189 -0.20469822
000250 9e a2 27 3e c8 0a b4 be d4 85 b1 3e 53 b8 ac be
       0.16370627 -0.35164475 0.34672415 -0.33734378
000260 90 34 4c 3d e0 5a 16 3e 73 27 a8 bc b8 6f 27 bd
       0.049854815 0.14683104 -0.020526623 -0.040878028
000270 a1 a2 71 be 32 29 66 3d 2c 58 36 3e 4b ce b3 be
       -0.23597194 0.05619163 0.17807072 -0.35118327
000280 69 cb 5e be 6f 45 7f 3d 99 5f 8f be ee 4e ae be
       -0.21757282 0.062322076 -0.28002623 -0.34044594
000290 68 e0 92 ba 40 a1 7d bd e8 4b 9b be f4 e5 99 3d
       -0.0011205794 -0.061921358 -0.3033135 0.07514563
0002a0 98 30 07 be 8f 37 93 bd 7d 8e 11 be ca 32 cd 3c
       -0.13202131 -0.07188331 -0.14214511 0.025048632
0002b0 90 85 9e 3e 12 e2 81 be 95 b1 28 3d da 37 bc bc
       0.30961275 -0.2536779 0.04118498 -0.02297585
0002c0 ba 0e 26 3e 17 aa 9e 3e 9b 1e be bd 11 bd 34 3e
       0.16216555 0.30989143 -0.09283181 0.17650248
0002d0 c2 ce 2e be 1c c1 33 3c 38 a5 4b bd 7c e8 9b be
       -0.1707106 0.010971334 -0.04971811 -0.3045081
0002e0 4a c3 81 3c 12 76 97 3d 2e 71 05 3e db df 34 be
       0.015840191 0.07395567 0.13031456 -0.17663519
0002f0 c5 b5 9e be 87 7d 72 3e 9d 16 61 bd 81 a1 91 3e
       -0.30998054 0.23680697 -0.054953206 0.2844353
000300 a3 a5 8a 3e b2 4a 20 3d de 37 39 3d c3 5f fa 3c
       0.27079496 0.039133735 0.045219295 0.03056324
000310 74 ba 3e 3e c6 d6 a2 3e 88 0c 01 be b4 a8 a0 3c
       0.18625814 0.31804484 -0.12602437 0.019611694
000320 9c 29 6a 3e 41 8d 8b 3e ee 54 cf 3c 25 75 e6 3c
       0.22867435 0.27256206 0.025309052 0.02813203
000330 27 78 f1 3c 53 bb 6b be e8 53 7c 3e 3d 77 23 be
       0.029476238 -0.23020677 0.24641383 -0.15963455
000340 52 7b 65 3e de 1e 83 bd 6c 8e 0d 3e 97 ed 9f bc
       0.22410324 -0.06402372 0.13823861 -0.019522471
000350 a8 86 a9 3c d7 2d 1c 3e a7 08 16 be be cc 2e 3d
       0.020694092 0.15251862 -0.14651738 0.042675726
000360 bd 97 38 be d4 47 6d bd b0 1c 95 3e 46 59 8e be
       -0.18026634 -0.05792983 0.2912345 -0.27802485
000370 09 05 65 bd 46 6a 5f be 8a 89 81 be 3a ca 8a be
       -0.055913005 -0.21817884 -0.25300246 -0.27107412
000380 2e 15 48 3e 86 a0 cb 3d 19 ad 09 be dd 9f 7e 3e
       0.1953933 0.09942727 -0.13444938 0.2486567
000390 50 53 4f be db 2f 33 bd 70 d9 02 be e4 38 04 3d
       -0.20246625 -0.04374681 -0.12778258 0.032280818
0003a0 7b 0d 2b 3e b1 0a e8 3d e4 71 ed bd 8c 92 42 3e
       0.16704361 0.11330164 -0.115939885 0.19001216
0003b0 73 00 b1 3c ad 89 d2 bd 1b ff fb bc 26 24 7d 3d
       0.02160666 -0.10280166 -0.030761292 0.061802052
0003c0 5b 3c ab be 56 f0 24 be c3 c5 9f be 20 30 52 be
       -0.33444485 -0.16107306 -0.31205568 -0.2052617
0003d0 1a c1 06 3e 33 ad 0c 3d a6 35 ed 3c fe b4 e5 3c
       0.131596 0.034344863 0.028956246 0.028040405
0003e0 54 1b d9 bd 7f 96 3f 3d d9 7c 1e be 62 85 40 3d
       -0.106009156 0.046774384 -0.15477313 0.047002204
0003f0 4e 93 46 3e 18 e7 3d be 72 72 65 3e cb f8 c6 bc
       0.1939213 -0.18545187 0.22406939 -0.024288556

prop_h_to_h.4.bias f4 [20]
000000 60 54 90 bd 1a c7 6c 3c 3a 03 59 3d ae c7 a5 3d
       -0.07047343 0.014451766 0.052981593 0.080947265
000010 31 5b 50 3d 3d fd 11 3e 43 d7 75 be b8 88 99 be
       0.050868217 0.14256759 -0.24007897 -0.2998712
000020 60 a8 5e 3e eb ae 87 bd 0b f8 0b be b2 68 39 3e
       0.21743917 -0.0662516 -0.1366884 0.18106344
000030 3e 96 b0 3e b7 f2 3a be b6 17 a9 3a 61 d9 92 3e
       0.34489626 -0.18256651 0.0012900743 0.28681472
000040 7c 94 9f be df 65 b2 bc 3d b6 59 3d c3 57 75 3e
       -0.31167972 -0.021777092 0.05315231 0.2395926

prop_h_to_out.weight f4 [1, 20]
000000 d4 c7 10 be 0c 9d 82 be ca 60 29 be 7d 8a b3 3d
       -0.14138728 -0.25510442 -0.16540828 0.08766649
000010 8b de 4e 3e 57 9b b8 be e5 e4 92 3e 37 2f a8 3e
       0.20202081 -0.36056015 0.28690258 0.32848522
000020 6c d5 a3 be f0 aa 14 be dd c8 3e 3e 87 3d f2 bd
       -0.31998765 -0.14518332 0.18631311 -0.11828142
000030 6c a7 1d be f4 94 62 3d 1b 8d eb 3d 55 91 4d be
       -0.15395898 0.055317834 0.11501523 -0.20074971
000040 4a 1e a2 3e e8 47 49 be d7 b1 38 3e d5 d9 35 be
       0.31663734 -0.19656336 0.1803659 -0.17758878
