model-probRNN-DDPG/model-prob/model-just-ddpg/just_theta/pi.pth (torch, 10914 bytes, 11 tensors)

prop_in_to_h.weight f4 [20, 2]
0	0x3efefb94	0.49801314
1	0xbf1eb3b8	-0.6199298
2	0x3f2089d4	0.6271031
3	0x3f13257e	0.57479084
4	0xbf80c6b8	-1.0060644
5	0xbe68a054	-0.2271741
6	0x3f702a53	0.9381458
7	0xbe08d611	-0.1336291
8	0xbdba3762	-0.09092595
9	0x3f5f95bc	0.8733785
10	0x3f109af9	0.5648647
11	0xbec50e18	-0.38487315
12	0x3f87d1a2	1.061085
13	0xbe8e7da3	-0.27830228
14	0xbe9c765f	-0.3055906
15	0xbe77c88b	-0.24197595
16	0x3e814db8	0.25254607
17	0x3ed96248	0.42457795
18	0xbe9258a9	-0.28583267
19	0xbe91b808	-0.28460717
20	0xbf3804d8	-0.7188239
21	0xbecd0069	-0.40039375
22	0x3f5ea035	0.86963207
23	0xbbd590f6	-0.006517525
24	0xbfb80a9b	-1.4378237
25	0xbf34296c	-0.70375705
26	0x3f91826d	1.1367928
27	0xbe9b5fa8	-0.30346417
28	0x3d71d53a	0.05904124
29	0xbee854ce	-0.453772
30	0xbfaf2585	-1.3683325
31	0x3f3c64d4	0.7359135
32	0xbf685b8d	-0.90764695
33	0xbe960878	-0.29303336
34	0xbf511efd	-0.8168791
35	0xbea24feb	-0.31701598
36	0x3fd3dd8e	1.6551988
37	0x3d8677fd	0.06565855
38	0x3f5e3730	0.8680296
39	0xbe867ac6	-0.26265544

prop_in_to_h.bias f4 [20]
0	0xbf043a59	-0.5165153
1	0x3efd1f99	0.4943817
2	0xbe58afb7	-0.2116078
3	0x3e961573	0.2931324
4	0xbed03c55	-0.4067103
5	0x3f07af4f	0.53001875
6	0xbddd9023	-0.108185075
7	0xbf0d1e41	-0.5512429
8	0x3f0009c8	0.50014925
9	0xbe4d7056	-0.20062384
10	0xbea42b62	-0.32064348
11	0x3ecc68c7	0.3992369
12	0xbe407cf2	-0.18797663
13	0xbd8712d3	-0.06595387
14	0xbe4f2ddf	-0.20232342
15	0xbe13f045	-0.14447124
16	0x3e94772c	0.2899717
17	0xbf06583d	-0.5247839
18	0x3ea94d5d	0.33066836
19	0xbdaa91ff	-0.08328628

prop_h_to_h.0.weight f4 [20, 20]
0	0x3ddb0c65	0.106957234
1	0xbddb21c3	-0.10699799
2	0x3da1e201	0.07904435
3	0x3d1a6139	0.037690375
4	0xbd0e6918	-0.034768194
5	0x3e02f0f8	0.12787235
6	0x3e283949	0.16428103
7	0xbe435c78	-0.19078243
8	0xbe1474ad	-0.14497633
9	0x3dc349c4	0.09535554
10	0x3cd55858	0.026043102
11	0x3dd666cd	0.104688264
12	0xbe9f9295	-0.3116652
13	0xbc7e69f3	-0.01552819
14	0xbe8a23f2	-0.2698055
15	0xbe853163	-0.26014242
16	0xbe46dae6	-0.1941944
17	0x3d8dc61b	0.06922551
18	0xbdee283c	-0.11628768
19	0xbe6990bc	-0.22809118
20	0xbc3157bd	-0.010824141
21	0x3c2479b3	0.010038781
22	0x3e259f54	0.1617406
23	0x3c863b09	0.016385572
24	0x3e9fd9db	0.31220898
25	0xbe5ea214	-0.21741515
26	0xbd82c233	-0.06384697
27	0x3bddf2b6	0.006773318
28	0xbe2ce841	-0.16885473
29	0x3e0f4484	0.1399098
30	0x3e5d0044	0.21582133
31	0x3e0ac823	0.13552909
32	0x3e41d91b	0.18930475
33	0xbede6e7b	-0.43443665
34	0x3e3a6e2b	0.18206088
35	0x3df60acc	0.12013778
36	0x3e085084	0.13311964
37	0xbde426cd	-0.11140213
38	0xbd6635d3	-0.056203675
39	0xbe81c0e6	-0.25342482
40	0x3d1449f4	0.03620334
41	0x3dda07de	0.10646032
42	0xbdc4f0e3	-0.09616258
43	0xbe057c78	-0.13035762
44	0x3d2855c9	0.041097436
45	0x3e1cde0a	0.15319076
46	0x3da431a4	0.08017281
47	0xbe7908e2	-0.24319795
48	0x3c627284	0.013821248
49	0xbe3f0f63	-0.18658213
50	0x3da632ff	0.081151955
51	0xbd483356	-0.048877083
52	0xbdcf9253	-0.10135331
53	0xbe058741	-0.13039877
54	0xbde9e61d	-0.11420844
55	0xbb349222	-0.0027552922
56	0xbd7edd59	-0.062222812
57	0xbdccd90d	-0.10002337
58	0x3e3bc6d8	0.18337572
59	0xbdfde839	-0.123978086
60	0xbd5c97f1	-0.05385584
61	0x3db59ca0	0.088677645
62	0xbd3feca1	-0.046856526
63	0x3ebe1b12	0.37130028
64	0xbea24c5d	-0.31698886
65	0x3c37f0b8	0.011226825
66	0x3f197d9f	0.5995731
67	0xbdcf3197	-0.101168804
68	0xbd250d55	-0.040295918
69	0xbe09f320	-0.13471651
70	0xbdd9ee2b	-0.1064113
71	0x3d866e42	0.06563999
72	0xbf027373	-0.5095741
73	0x3ee85e35	0.45384374
74	0xbcd6b5a7	-0.026209665
75	0xbe5cf340	-0.21577168
76	0xbe42d337	-0.19025885
77	0xbcefacf2	-0.029257271
78	0x3eb1117e	0.34583658
79	0x3eb52740	0.35381508
80	0x3df44914	0.11928001
81	0x3dcaf3cd	0.099097826
82	0xbe8cf383	-0.27529535
83	0xbdd04c0d	-0.101707555
84	0xbd8afabf	-0.06786107
85	0xbdb4363c	-0.08799407
86	0x3e4e6b7d	0.20158191
87	0xbd95f1f1	-0.07321537
88	0x3cb7aadd	0.022420341
89	0xbcb25ec3	-0.021773702
90	0xbe45ae35	-0.19304736
91	0x3dca6647	0.09882789
92	0x3d45eba4	0.048320428
93	0xbdd01190	-0.101596
94	0x3c4cefc7	0.012508339
95	0x3d21a162	0.039460547
96	0xbe3a34d6	-0.18184218
97	0xbdb2016f	-0.0869168
98	0xbd96cbb8	-0.07363075
99	0xbda69c6d	-0.081353046
100	0xbe27c867	-0.16385041
101	0x3e281bdc	0.16416878
102	0xbd99bb58	-0.07506436
103	0xbc9fba56	-0.019498032
104	0xbe201da1	-0.15636303
105	0xbe19fde0	-0.15038252
106	0x3da4d854	0.08049074
107	0xbe12343c	-0.14277738
108	0x3d72427d	0.05914544
109	0x3de35e36	0.11101954
110	0x3d4a0601	0.049322132
111	0xbdf9ddad	-0.122004844
112	0xbe1e954b	-0.15486638
113	0xbe76b27c	-0.24091524
114	0xbe306aa2	-0.17228177
115	0xbe3b87f4	-0.18313581
116	0xbda0e67b	-0.07856461
117	0xbe1b6721	-0.1517606
118	0x3d566252	0.05233986
119	0xbe6d7bb8	-0.23191726
120	0x3e271fc8	0.16320717
121	0xbdb1e3fd	-0.086860634
122	0xbe08d6b3	-0.13363151
123	0x3c8dbf5f	0.017303167
124	0x3dfa81d8	0.12231797
125	0x3e83d0d9	0.25745276
126	0xbdfe9b57	-0.124319725
127	0xbd5d64aa	-0.05405108
128	0xbce7fb08	-0.028317943
129	0xbe68bf3b	-0.22729199
130	0x3d6757ac	0.056480095
131	0x3dac8c73	0.08425226
132	0x3dda8504	0.10669902
133	0x3d917842	0.071030155
134	0xbd943d9d	-0.07238314
135	0x3dd76bc9	0.10518605
136	0x3c988e32	0.018622492
137	0xbc9b782e	-0.018978205
138	0x3d478da4	0.048719063
139	0xbe64341f	-0.22285508
140	0x3e2bb4eb	0.16768233
141	0xbe3e12fd	-0.18561931
142	0x3dc4839e	0.095954165
143	0xbc3fc9c6	-0.011705821
144	0xbd924617	-0.07142275
145	0xbd96dd52	-0.07366432
146	0xbe4546a2	-0.19265226
147	0x3e8ee2c4	0.27907383
148	0xbe84e7fe	-0.25958246
149	0xbce89df5	-0.028395632
150	0xbdc89341	-0.097937115
151	0x3d323b0e	0.04351335
152	0xbedd0efa	-0.4317549
153	0x3dd82d89	0.1055556
154	0x3e09abaf	0.13444398
155	0xbd8298a6	-0.06376772
156	0xbd46e855	-0.048561413
157	0x3e76d28a	0.24103752
158	0xbd30e94d	-0.043191243
159	0x3e693599	0.22774352
160	0x3c201519	0.009770655
161	0xbdbd7171	-0.09250153
162	0x3e4c65cb	0.19960706
163	0xbd845984	-0.06462386
164	0x3ce99155	0.028511683
165	0x3d83fa77	0.06444257
166	0xbddb77de	-0.10716222
167	0xbd6195d9	-0.055074546
168	0x3e1f72ee	0.15571186
169	0x3e0adeed	0.13561602
170	0x3e3f6451	0.18690611
171	0xbe58a9c8	-0.21158516
172	0x3e22ee4e	0.15911219
173	0xbf067f13	-0.5253765
174	0xbdaac04b	-0.08337458
175	0x3e9b6cb8	0.30356383
176	0x3e566081	0.20935251
177	0x3d98f062	0.074677244
178	0xbe074461	-0.13209678
179	0xbe645747	-0.22298919
180	0xbe4d3b1d	-0.20042081
181	0x3de0835c	0.10962555
182	0xbe02c5b7	-0.12770735
183	0xbdd87e17	-0.10570925
184	0xbe9452cf	-0.28969428
185	0xbe1b9317	-0.15192829
186	0xbe3e8cb3	-0.1860836
187	0xbe18ab39	-0.14909066
188	0x3e44f3f3	0.19233684
189	0xbe1b3740	-0.15157795
190	0xbe237884	-0.15963942
191	0xbe163885	-0.14669998
192	0xbe8b94ea	-0.2726205
193	0xbe106501	-0.1410103
194	0x3d37405c	0.044739112
195	0xbe5d78ec	-0.2162816
196	0xbd984eed	-0.07436929
197	0xbdaa6a09	-0.08321006
198	0x3e60e48a	0.2196218
199	0xbe366b1a	-0.17814294
200	0x3c9208cb	0.017826458
201	0x3d7b223e	0.061311953
202	0xbd256a95	-0.040384848
203	0xbe3a0454	-0.18165714
204	0x3c502aea	0.012705544
205	0x3df29a18	0.11845797
206	0x3e6a5133	0.22882538
207	0x3e88754f	0.26652
208	0x3da4f47e	0.08054446
209	0xbdc2a798	-0.09504622
210	0x3da216c5	0.07914499
211	0xbe622fb7	-0.22088514
212	0xbd9064da	-0.07050486
213	0x3f406e9a	0.75168765
214	0x3e351938	0.17685401
215	0xbd110395	-0.035403807
216	0xbe7bfc1f	-0.24607895
217	0xbdb2ecff	-0.0873661
218	0xbd031e94	-0.032011583
219	0x3f42adcb	0.7604644
220	0xbe892745	-0.26787773
221	0x3e7b7e9d	0.24560018
222	0xbe0765dc	-0.1322245
223	0xbe2a54f9	-0.16633977
224	0xbe2ac5de	-0.16677043
225	0xbbb7a21a	-0.005604041
226	0xbe0e34d3	-0.13887338
227	0xbe4da3b5	-0.2008198
228	0xbd296f31	-0.041365806
229	0xbb6a9d61	-0.0035799372
230	0xbdf2d6d7	-0.11857384
231	0xbd44a760	-0.048011184
232	0xbe9f198f	-0.31074187
233	0xbcefcd55	-0.029272715
234	0x3d1622bb	0.036654215
235	0xbc7dce49	-0.015491077
236	0xbd3b2be6	-0.04569616
237	0x3d06af8d	0.032882262
238	0xbc5f4f1e	-0.013629703
239	0xbcb6c511	-0.022310765
240	0x3e2ab844	0.16671854
241	0xbe4177e5	-0.18893392
242	0x3e379537	0.17928015
243	0xbd8b9753	-0.06815972
244	0xbdafd034	-0.085846335
245	0x3ddec2ba	0.10876985
246	0x3d13f3a2	0.03612102
247	0x3e36a048	0.1783458
248	0xbe36858d	-0.17824383
249	0x3db05cfe	0.08611487
250	0xbe105a26	-0.14096889
251	0xbe1b1655	-0.15145238
252	0x3e84afea	0.25915462
253	0xbe89c4d1	-0.26907972
254	0xbe34811e	-0.1762738
255	0x3e1bfe14	0.15233642

prop_h_to_h.0.bias f4 [20]
0	0xbc43be8c	-0.011947285
1	0xbd0a49f4	-0.033761933
2	0xbddf4909	-0.10902602
3	0x3d8d9da6	0.06914835
4	0x3e3846b3	0.1799572
5	0xbe038baa	-0.12846246
6	0x3d31c1bd	0.043397654
7	0x3d78eba9	0.060771618
8	0x3e371388	0.17878544
9	0xbcea4fbe	-0.028602477
10	0x3da750c3	0.08169701
11	0xbda3bdfe	-0.079952225
12	0x3e20f2db	0.15717642
13	0x3c754507	0.014970071
14	0xbd611b8b	-0.054957908
15	0x3e1a167e	0.15047643
16	0x3da843dd	0.08216069
17	0x3d484677	0.048895326
18	0x3d77d848	0.060508996
19	0x3e332a85	0.17496689

prop_h_to_h.1.weight f4 [20, 20]
0	0x3daec11d	0.08532927
1	0x3e020500	0.1269722
2	0xbe65a4a9	-0.22426094
3	0xbd440166	-0.047852896
4	0xbe06f170	-0.13178039
5	0xbe01f6ab	-0.12691753
6	0xbd259389	-0.040423904
7	0x3de9b32f	0.1141113
8	0xbe1ea3ec	-0.15492219
9	0x3cdd4b6e	0.027013507
10	0xbd862e89	-0.065518446
11	0xbe75e494	-0.24012977
12	0x3d1a65b8	0.037694663
13	0xb97f6fa0	-0.00024360279
14	0xbbd94be7	-0.0066313627
15	0xbda7d8ee	-0.08195673
16	0xbe2d11c5	-0.1690131
17	0x3d4c4e54	0.049879387
18	0x3cc73fd5	0.02432243
19	0xbd5bfc52	-0.05370743
20	0xbe6ad975	-0.22934516
21	0x3d285192	0.041093417
22	0x3d691b36	0.056910716
23	0x3e85bec0	0.26122093
24	0x3d89186c	0.06694111
25	0xbdae04ab	-0.08496984
26	0xbdd57dd4	-0.104243904
27	0x3d065fd6	0.03280624
28	0xbe90c4ab	-0.28275046
29	0x3c7b9f20	0.015357763
30	0x3e7b2bec	0.24528474
31	0x3ded3727	0.11582785
32	0x3dbb5f4a	0.09149034
33	0x3c8eb26f	0.017419068
34	0x3dc03948	0.093859255
35	0x3e66b85c	0.22531265
36	0x3ce2f3ba	0.027704109
37	0xbdc92bad	-0.098227836
38	0xbf0bee15	-0.5466016
39	0xbe5deb02	-0.2167168
40	0xbcb25bee	-0.021772351
41	0x3cbe6c7d	0.02324509
42	0xbdb71b76	-0.08940785
43	0x3e45d81b	0.19320719
44	0x3d3741af	0.044740375
45	0x3e0f8d6e	0.14018795
46	0xbe3aad48	-0.18230164
47	0xbd76dd0d	-0.060269404
48	0xbdba9b5b	-0.09111663
49	0x3e192c24	0.14958245
50	0x3a4ad01d	0.00077367
51	0x3e0476ab	0.12935893
52	0xbe700143	-0.23437981
53	0xbde6ae85	-0.11263756
54	0x3c7bf0fe	0.015377281
55	0xbdc67ec4	-0.096921474
56	0x3c29fcba	0.010375196
57	0x3d74a9c8	0.05973223
58	0xbdca8f5f	-0.09890627
59	0xbd6f4a8a	-0.058420695
60	0x3e5afc8b	0.213854
61	0xbe898c7a	-0.26864988
62	0x3e964510	0.29349566
63	0x3e55ebf9	0.20890798
64	0x3e93f139	0.28894976
65	0x3dd6e1cf	0.10492288
66	0x3e1e72de	0.15473506
67	0x3cc494e5	0.02399678
68	0xbc7df99c	-0.015501406
69	0x3e2d7d19	0.16942252
70	0x3c06f900	0.008238077
71	0x3e88b797	0.26702568
72	0xbe0ca942	-0.13736442
73	0x3de07e19	0.10961551
74	0x3dcb8522	0.099375024
75	0xbc84a008	-0.01618959
76	0x3e0fc328	0.1403929
77	0xbe13da12	-0.14438656
78	0xbd878a86	-0.06618218
79	0x3d143c55	0.03619035
80	0xbdd5ee85	-0.104458846
81	0xbe9c1ef5	-0.30492368
82	0xbdd6e63f	-0.10493135
83	0xbdedb9fe	-0.11607741
84	0x3e3a65e3	0.18202929
85	0x3e236ee8	0.15960276
86	0x3da5d624	0.08097485
87	0x3e9462a4	0.28981507
88	0xbe772b3a	-0.24137583
89	0x3cfdf1de	0.03099912
90	0x3e116900	0.1420021
91	0x3e5a3bd8	0.21311891
92	0xbe603267	-0.21894227
93	0xbceb9c8d	-0.028761173
94	0xbe1fb54f	-0.15596507
95	0x3eac273e	0.3362369
96	0xbdfa2871	-0.12214745
97	0xbe8f3d7b	-0.27976593
98	0xbe3d8987	-0.18509494
99	0xbdfb5c4f	-0.12273466
100	0x3e2c1a71	0.16806962
101	0x3d494b29	0.049143944
102	0x3dc3b1b1	0.09555376
103	0x3de56bce	0.11202203
104	0x3da39ba8	0.079886734
105	0xbe61c8e0	-0.22049284
106	0xbe27409e	-0.16333243
107	0xbda0d0ea	-0.07852347
108	0xbedda09e	-0.43286604
109	0x3dda3180	0.106539726
110	0x3cfcebaa	0.030874092
111	0xbe3fb66c	-0.18721932
112	0xbe4a9ebd	-0.19787116
113	0x3d59aea1	0.053145055
114	0x3b545ccb	0.0032403942
115	0x3e226fb3	0.15862922
116	0xbe896d54	-0.26841223
117	0xbd536773	-0.05161233
118	0xbd135725	-0.03597178
119	0xbe2cad77	-0.16863047
120	0x3dd3922a	0.10330613
121	0xbdb4bc60	-0.08824992
122	0xbdca71b3	-0.09884968
123	0x3e1c4a5e	0.15262744
124	0xbd469c28	-0.048488766
125	0x3e2f1d1d	0.1710095
126	0xbe8268fd	-0.25470725
127	0x3e4eb1dc	0.20185035
128	0xbe0bfee6	-0.13671455
129	0xbddb74ca	-0.10715635
130	0xbdc633f6	-0.096778795
131	0x3d759173	0.059953164
132	0xbe7f3501	-0.24922563
133	0xbe3a07bf	-0.18167017
134	0xbe252b7b	-0.16129868
135	0x3e9d4364	0.30715477
136	0xbdb430b6	-0.087983534
137	0xbe9a5fdf	-0.3015127
138	0x3e257d75	0.1616114
139	0xbea0b764	-0.31389916
140	0x3e040ba9	0.12895073
141	0x3df06fe1	0.11740089
142	0xbe5267b6	-0.20547375
143	0xbcc09f87	-0.023513569
144	0xbb095366	-0.002095425
145	0x3e1f8557	0.15578209
146	0x3e5a0c7b	0.21293823
147	0x3dbdb8f1	0.092637904
148	0x3e13e2c6	0.14441976
149	0xbdf153d4	-0.11783567
150	0x3d2e7321	0.042590264
151	0x3d95f797	0.07322615
152	0xbe0dc599	-0.13844909
153	0x3e1d670f	0.15371345
154	0x3e0297e3	0.12753253
155	0x3e5a414b	0.2131397
156	0xbe346c52	-0.17619446
157	0xbde943fa	-0.113899186
158	0xbd8ee886	-0.06977944
159	0x3d919323	0.07108142
160	0x3e6f8fad	0.23394652
161	0x3dcf099e	0.10109256
162	0x3e57862f	0.2104728
163	0x3c56624d	0.01308496
164	0x3dd62d55	0.10457865
165	0x3dc4309b	0.09579583
166	0xbe26cfa3	-0.16290145
167	0x3dd6b538	0.104837835
168	0xbd601944	-0.054711595
169	0x3d80b0df	0.062837355
170	0xbd924ee2	-0.07143952
171	0x3e21d879	0.15805234
172	0x3e240d65	0.16020735
173	0x3cf0339b	0.029321482
174	0x3d249e78	0.04019019
175	0x3e01bdf3	0.12670116
176	0x3c71dc03	0.014761928
177	0xbd77c3b9	-0.06048939
178	0x3d95ebc8	0.07320362
179	0x3b656d34	0.0035007717
180	0x3e02d4fc	0.1277656
181	0x3e86a1b0	0.26295233
182	0x3cba9ea3	0.022780722
183	0x3d8be991	0.06831659
184	0xbddfb1b1	-0.10922564
185	0x3d6b0918	0.05738172
186	0xbe053471	-0.13008286
187	0x3e800239	0.25001696
188	0xbe42befd	-0.19018169
189	0xbe54a6cb	-0.20766751
190	0x3dcb5a2a	0.09929307
191	0xbd51b640	-0.051199198
192	0xbdc1aea5	-0.09457139
193	0x3c6d3a62	0.014479252
194	0xbdf79f43	-0.12090924
195	0x3dd17986	0.10228257
196	0xbd7ea07e	-0.062164776
197	0x3e0f0fba	0.13970843
198	0xbe88a8af	-0.26691195
199	0xbe0b1da8	-0.13585532
200	0x3d2ac342	0.04169012
201	0x3e6a9a79	0.22910489
202	0xbe00341d	-0.1251988
203	0xbe154ac0	-0.14579296
204	0x3d37e06d	0.044891763
205	0xbdccc93f	-0.09999322
206	0x3dcac3fd	0.09900663
207	0xbddf7c44	-0.10912374
208	0xbdd74c28	-0.105125725
209	0xbe56bb05	-0.2096978
210	0xbe60273f	-0.21889971
211	0x3dfc08dc	0.12306377
212	0x3e9304c4	0.28714573
213	0xbcde95cd	-0.02717104
214	0x3d70bd3d	0.05877422
215	0x3d411e06	0.047147773
216	0x3ebee236	0.3728196
217	0xbda80a59	-0.08205099
218	0x3cc1121b	0.023568204
219	0xbdcb28c6	-0.09919886
220	0x3d8de0b1	0.06927622
221	0x3e234250	0.15943265
222	0xbdad9172	-0.08475007
223	0x3c75bed3	0.014999109
224	0xbdf7b07d	-0.12094209
225	0x3e4be91f	0.19913147
226	0xbd8bf310	-0.0683347
227	0xbe610056	-0.21972784
228	0xbd2c63dd	-0.042087425
229	0xbe1b9556	-0.15193686
230	0x3dfcee4f	0.12350141
231	0x3e143c6c	0.14476174
232	0x3d179081	0.037003044
233	0x3c5eb1b2	0.013592171
234	0x3dc40e5a	0.0957305
235	0x3ded2f0e	0.115812406
236	0x3e485f11	0.19567515
237	0xbdb9c489	-0.09070689
238	0xbe3a9e5a	-0.18224469
239	0x3e051a10	0.12998223
240	0x3db93c1b	0.09044667
241	0x3e9d3275	0.30702558
242	0xbe0d82a0	-0.1381936
243	0x3da47549	0.08030183
244	0x3cbdfd60	0.023192108
245	0x3e3e9726	0.18612346
246	0xbd83db57	-0.0643832
247	0xbe3e79bb	-0.18601124
248	0x3e12a50d	0.14320774
249	0xbdd2d9c3	-0.10295441
250	0x3e5a1325	0.21296366
251	0xbd7e43af	-0.062076267
252	0xbe5bc648	-0.21462357
253	0xbdf33efe	-0.11877249
254	0x3d136b7b	0.035991173
255	0xbd949a71	-0.0725602

prop_h_to_h.1.bias f4 [20]
0	0xbd7d2a77	-0.061808076
1	0xbd6a93d1	-0.057269875
2	0x3ad7ef46	0.0016474507
3	0x3dd5680f	0.10420238
4	0x3ddb7137	0.107149534
5	0x3d0d6776	0.034522496
6	0x3d88d075	0.06680385
7	0x3d9f8251	0.07788528
8	0x3db34dfc	0.08755109
9	0xbc028e92	-0.007968562
10	0xbd574e00	-0.05256462
11	0xbdbc7003	-0.09201052
12	0xb9585dde	-0.00020634333
13	0xbd2f9956	-0.042870842
14	0x3d9f68d4	0.07783666
15	0x3e4f0577	0.20216928
16	0xbc46372a	-0.012098113
17	0x3aa4ce6b	0.0012573724
18	0x3cbc6bc1	0.0230006
19	0xbd1b84b1	-0.03796834

prop_h_to_h.2.weight f4 [20, 20]
0	0x3d2d1183	0.04225303
1	0x3e0d9fb3	0.13830452
2	0xbe08cfa5	-0.1336046
3	0x3e347c4e	0.17625543
4	0xbbcf858e	-0.0063330596
5	0xbdcf1ea3	-0.10113265
6	0x3ea73ceb	0.32663664
7	0x3e4398fd	0.19101329
8	0xbd06f7ca	-0.032951154
9	0x3d9816ac	0.07426199
10	0x3dc49a36	0.09599726
11	0xbcacf5c8	-0.021113291
12	0x3e5e20f9	0.21692266
13	0x3df512a2	0.119664446
14	0x3d6cd738	0.057822436
15	0xbe53ad33	-0.20671539
16	0x3de3727c	0.111058205
17	0xbe67d6a7	-0.22640477
18	0x3d783023	0.06059278
19	0xbd174715	-0.036933023
20	0xbd80ab1b	-0.06282636
21	0x3e719461	0.23591758
22	0x3e4863a3	0.19569258
23	0x3e26738a	0.16255012
24	0x3d2ad07a	0.041702725
25	0x3e3cd5b2	0.18440893
26	0x3dc1945d	0.09452126
27	0x3e2c30ce	0.16815493
28	0xbcf32a22	-0.029683176
29	0x3ddad9ce	0.10686074
30	0xbdf61908	-0.12016493
31	0x3e6e336e	0.23261806
32	0x3e04e3aa	0.12977472
33	0xbe545e61	-0.20739128
34	0xbc87376b	-0.016505918
35	0xbdc8af34	-0.09799042
36	0xbd954edb	-0.07290431
37	0xbd3670a2	-0.04454101
38	0x3e4ab61b	0.1979603
39	0xbc0b0d58	-0.008487068
40	0xbd0a5f79	-0.033782456
41	0xbeaa17a2	-0.33221155
42	0x3e147572	0.14497927
43	0xbe0bcebf	-0.13653086
44	0xbe50c266	-0.20386657
45	0x3c404e5e	0.011737434
46	0x3d0c9a31	0.034326736
47	0xbe020fe2	-0.12701371
48	0xbe457803	-0.19284062
49	0x3d2e582d	0.04256456
50	0xbd775c79	-0.060390923
51	0xbe7cab9e	-0.24674842
52	0x3e12644c	0.14296073
53	0xbe66c9db	-0.22537939
54	0x3e807af2	0.250938
55	0x3e440652	0.19143036
56	0x3e41453e	0.1887407
57	0x3df25bd7	0.11833923
58	0xbe947f06	-0.2900316
59	0xbb6c61c3	-0.0036069013
60	0x3e8c9c88	0.27463174
61	0xbea6046d	-0.32425252
62	0xbdc741dd	-0.09729359
63	0xbd9d3554	-0.07676187
64	0xbdf1def1	-0.11810101
65	0x3cdb4e4c	0.026770733
66	0xbd8cf0c7	-0.06881862
67	0x3dadbab0	0.084828734
68	0xbdd18832	-0.10231055
69	0x3e1b159f	0.15144967
70	0xbdac0361	-0.08399082
71	0x3e0b49d1	0.13602377
72	0x3dea3779	0.11436362
73	0xbe75ec68	-0.24015963
74	0x3e76c231	0.24097516
75	0x3e37a554	0.17934161
76	0x3da40747	0.080092005
77	0xbd7592bb	-0.059954386
78	0xbe051837	-0.12997518
79	0x3cd73230	0.026269048
80	0x3dcdd44c	0.10050258
81	0x3e9aa5c5	0.30204597
82	0xbdf11f60	-0.117735624
83	0xbd0384a2	-0.03210891
84	0xbbb88625	-0.0056312256
85	0xbe162c4b	-0.14665334
86	0xbe25fbca	-0.16209331
87	0x3cf4e928	0.029896334
88	0xbde5d908	-0.11223036
89	0x3e75d1ae	0.24005768
90	0xbe016cc6	-0.1263915
91	0x3ded05fc	0.11573407
92	0xbd846e84	-0.06466392
93	0xbe4782a3	-0.19483428
94	0xbe1f0fb9	-0.15533341
95	0xbdc8d055	-0.09805361
96	0x3e0f3e86	0.13988695
97	0xbd3ff947	-0.04686859
98	0x3d926067	0.071472935
99	0x3d10a588	0.035314113
100	0xbe121bf7	-0.1426848
101	0xbdf868f2	-0.12129392
102	0x3df3a68d	0.118970014
103	0x3e6a8c1d	0.22905011
104	0x3e91ce75	0.28477827
105	0x3e3f4296	0.18677744
106	0x3d862175	0.0654935
107	0x3d87e358	0.06635159
108	0x3e124cfd	0.14287181
109	0xbe0f3702	-0.13985828
110	0xbcd7d486	-0.026346456
111	0xbd8725b8	-0.06598991
112	0xbe0faeed	-0.14031573
113	0xbe5fa416	-0.21839938
114	0xbdac23f1	-0.08405293
115	0xbe62e6db	-0.22158377
116	0x3eb35905	0.35028854
117	0xbe68dfba	-0.22741595
118	0xbc2caf2c	-0.010539811
119	0xbdcea48b	-0.10089978
120	0x3e652047	0.22375594
121	0xbdc39677	-0.09550183
122	0xbd196a5d	-0.03745495
123	0x3e3bf5be	0.18355462
124	0x3d237044	0.039901987
125	0x3d49b326	0.049243115
126	0x3d8bf46a	0.06833728
127	0xbe044f59	-0.12920894
128	0xbc70cdb7	-0.014697484
129	0x3e218064	0.15771633
130	0xbe0766d6	-0.13222823
131	0xbd233261	-0.039842967
132	0x3d8a4f20	0.06753373
133	0x3e101ad4	0.14072734
134	0xbda0ace3	-0.078454755
135	0xbe485b68	-0.19566119
136	0xbe2fe440	-0.17176914
137	0xbdd7a340	-0.10529184
138	0x3e271ec8	0.16320336
139	0xbd57a1e4	-0.052644625
140	0xbe0f605b	-0.140016
141	0xbebc6531	-0.36795953
142	0xbdf5edc0	-0.12008238
143	0xbe035657	-0.12825905
144	0xbe95c936	-0.29255074
145	0xbece4024	-0.4028331
146	0xbcacf774	-0.021114089
147	0xbea249c5	-0.31696907
148	0xbe907881	-0.28216937
149	0xbe94c90d	-0.2905964
150	0x3e524473	0.20533924
151	0x3b5ce719	0.003370708
152	0x3e936120	0.28785038
153	0xbd2c9350	-0.042132676
154	0x3ebda484	0.37039578
155	0x3e22b268	0.15888369
156	0xbdbe38a8	-0.0928815
157	0x3dc66b96	0.09688489
158	0xbe9042fb	-0.28176102
159	0x3e466d52	0.1937764
160	0xbda92e11	-0.082607396
161	0x3c69be31	0.014266537
162	0x3dd15cf2	0.10222806
163	0x3ddc98f1	0.10771359
164	0xbe3a8846	-0.18216047
165	0xbe30d8e5	-0.17270239
166	0x3c9a5169	0.018837648
167	0xbe2c5e07	-0.16832744
168	0xbdc92e39	-0.098232694
169	0xbe090909	-0.13382353
170	0xbe065140	-0.13116932
171	0x3e27f3b8	0.16401565
172	0x3dd4f0e6	0.1039751
173	0x3da87c8b	0.0822688
174	0xbe1d4445	-0.15358074
175	0x3dbb3605	0.09141163
176	0xbdfd1be5	-0.12358836
177	0x3e195106	0.14972314
178	0x3e334c79	0.17509641
179	0x3e2c8619	0.16848029
180	0x3e9ce415	0.30642763
181	0xbde72cdc	-0.11287853
182	0xbe0ac9fb	-0.13553612
183	0xbe9a6a64	-0.30159295
184	0xbe31970e	-0.17342779
185	0x3cd6a370	0.02620098
186	0x3df34783	0.11878874
187	0x3e2f02b2	0.17090872
188	0xbdafc71e	-0.085829005
189	0x3d9a966b	0.07548221
190	0xbe9a8c22	-0.30185038
191	0xbe0ca242	-0.13733771
192	0xbe6e2a1d	-0.23258252
193	0x3e0e1d20	0.13878298
194	0x3d4857d4	0.048911884
195	0xbe826886	-0.2547037
196	0x3e894b39	0.26815203
197	0x3e922920	0.28547
198	0x3dca3bcf	0.09874689
199	0x3c79619c	0.015221026
200	0x3e1d9278	0.15387905
201	0xbe5cbf92	-0.21557453
202	0x3b965ada	0.004588467
203	0xbe66aa61	-0.22525932
204	0xbe8c4b4c	-0.27401197
205	0x3db4e8ef	0.08833491
206	0x3e2fec68	0.17180026
207	0x3e225bce	0.15855333
208	0x3e0dec89	0.13859762
209	0xbd753da2	-0.05987323
210	0x3b7a436f	0.0038187166
211	0xbd5942da	-0.05304227
212	0x3d64cae9	0.055857573
213	0xbc90a3c9	-0.017656224
214	0x3e15491c	0.1457867
215	0x3e68f28b	0.22748773
216	0x3d9f83b7	0.077887945
217	0xbe1d2e6c	-0.1534974
218	0xbdd745df	-0.10511374
219	0xbe33806f	-0.17529462
220	0x3e52a6ab	0.20571391
221	0xbdca6f05	-0.098844565
222	0xbdc90413	-0.0981523
223	0xbdb9df84	-0.09075835
224	0x3e2408bc	0.16018957
225	0x3d95dee8	0.073179066
226	0xbdd073b7	-0.10178321
227	0xbde85305	-0.1134396
228	0x3d476d62	0.0486883
229	0x3e0e2a0e	0.1388323
230	0x3e3990e7	0.18121682
231	0x3d828dea	0.06374724
232	0x3e6f091a	0.23343316
233	0xbc65ef20	-0.014034063
234	0x3c908ab3	0.017644262
235	0xbe2d9580	-0.16951561
236	0x3d999d1a	0.07500668
237	0x3ea3f427	0.3202221
238	0xbe807e54	-0.2509638
239	0x3e24a1f8	0.16077411
240	0xbdaa2a39	-0.083088346
241	0xbe8e4dc9	-0.2779372
242	0x3e0506f7	0.12990938
243	0xbe2c1062	-0.16803125
244	0x3e0fc5ae	0.14040253
245	0xbe746159	-0.2386526
246	0xbdeb80cd	-0.11499176
247	0x3e4dd9e4	0.2010265
248	0x3e056294	0.13025886
249	0xbd8028f8	-0.06257814
250	0xbd99c211	-0.07507718
251	0x3d9c5206	0.07632832
252	0x3d1e056c	0.03857939
253	0xbe27d3e6	-0.16389427
254	0xbe080027	-0.13281308
255	0x3e1f8047	0.15576278

prop_h_to_h.2.bias f4 [20]
0	0x3d471ed8	0.0486134
1	0x3d803c3a	0.06261487
2	0xbd77f850	-0.060539544
3	0xbd233373	-0.039843988
4	0x3d66f53a	0.05638621
5	0x3db74362	0.08948399
6	0x3dfad35e	0.12247346
7	0xbd9d2f2b	-0.07675012
8	0x3d18e4a5	0.037327427
9	0xbdaa3982	-0.0831175
10	0x3d4df0a7	0.050278332
11	0x3da3bd5d	0.079951026
12	0xbd599f6f	-0.053130563
13	0x3e04813e	0.12939927
14	0x3d1171bc	0.035508856
15	0x3d3bdd76	0.0458655
16	0xbe22bffb	-0.15893547
17	0xbe1bcfa9	-0.15215935
18	0xbddf84e5	-0.109140195
19	0x3d11e503	0.035618793

prop_h_to_h.3.weight f4 [20, 20]
0	0xbe0b45e0	-0.13600874
1	0xbe6cdce3	-0.23131137
2	0xbdbaba5b	-0.09117576
3	0xbe02e97d	-0.12784381
4	0xbbcd43d6	-0.00626419
5	0xbe334d6e	-0.17510006
6	0x3e0f64d7	0.14003311
7	0x3e4f0178	0.20215404
8	0xbda5a825	-0.08088712
9	0xbeb3ad59	-0.3509319
10	0x3e06cbc0	0.13163662
11	0x3dcd239c	0.100165576
12	0x3ddb520e	0.1070901
13	0xbde87598	-0.11350554
14	0x3e4f7d4b	0.20262639
15	0x3dd910c6	0.105989024
16	0x3d42193b	0.047387343
17	0xbeba3eb9	-0.3637598
18	0x3d5e417d	0.054261673
19	0xbe8fe6a1	-0.28105643
20	0xbdfd7c47	-0.1237722
21	0x3e2e5543	0.17024712
22	0x3ded83d8	0.11597413
23	0x3d5f91a0	0.05458224
24	0x3d416114	0.04721172
25	0x3e3573b2	0.17719916
26	0xbda51e87	-0.08062463
27	0x3a8bee1e	0.0010675823
28	0x3b2d2a4b	0.0026422914
29	0xbdac1ba4	-0.084037095
30	0xbde71a18	-0.11284274
31	0x3e345d28	0.17613661
32	0x3df0689f	0.11738705
33	0xbe0d443f	-0.13795565
34	0xbdcd05a8	-0.100108445
35	0xbe3764e7	-0.17909585
36	0x3d9fd0c5	0.078034915
37	0xbd6d99d5	-0.058008034
38	0xbd113cda	-0.035458423
39	0x3e376e8d	0.17913266
40	0x3e5640f3	0.20923214
41	0x3d1c28b6	0.038124762
42	0xbbd9715e	-0.006635829
43	0xbddbaac6	-0.10725932
44	0x3e01ef5f	0.12688969
45	0xb80c5daf	-3.346585e-05
46	0x3d41d40f	0.047321375
47	0xbe12f21d	-0.14350171
48	0xbe88b549	-0.2670081
49	0xbe770377	-0.24122415
50	0xbe30bcd8	-0.17259538
51	0xbe07f37a	-0.13276473
52	0x3e2a636f	0.16639493
53	0xbb0d3f5b	-0.0021552655
54	0xbcfe744e	-0.031061318
55	0xbe574a5f	-0.21024464
56	0x3d2f8dba	0.04285977
57	0xbde9479c	-0.113906115
58	0x3d731a45	0.059351224
59	0xbdb61e65	-0.08892516
60	0x3e241ef2	0.1602743
61	0xbd8e9712	-0.06962408
62	0x3df454c0	0.11930227
63	0xbe0ba5c2	-0.1363745
64	0xbcb9886c	-0.022648059
65	0x3df6c295	0.12048832
66	0x3dcb1ce0	0.09917617
67	0x3e083551	0.13301589
68	0xbde4e6c3	-0.11176827
69	0xbd31e729	-0.043433342
70	0xbe86cf24	-0.2632991
71	0x3d929e4d	0.071591
72	0xbdc489a1	-0.09596563
73	0xbbbc5ddc	-0.0057484936
74	0xbdb711a7	-0.08938914
75	0xbcc9672d	-0.02458533
76	0xbe0b51c3	-0.13605408
77	0xbd49777a	-0.049186207
78	0xbbccacf6	-0.0062462045
79	0x3e128aa5	0.14310701
80	0xbd845fba	-0.06463571
81	0xbe53e126	-0.20691356
82	0xbd5b4c52	-0.05353958
83	0x3e1699a3	0.14707045
84	0x3e0e46f0	0.13894248
85	0x3ce36f02	0.027762894
86	0xbe141d16	-0.1446422
87	0xbd698a0a	-0.05701641
88	0xbd050fdf	-0.03248584
89	0xbe72a938	-0.23697364
90	0xbe789460	-0.2427535
91	0xbdd02993	-0.1016418
92	0xbc171516	-0.009221336
93	0x3e2ee951	0.1708119
94	0x3e706ee2	0.23479798
95	0x3d895b90	0.06706917
96	0xbe444c8a	-0.19169822
97	0x3d9018e3	0.07035997
98	0x3db19054	0.086701065
99	0xbd3b0dde	-0.04566752
100	0xbd88b320	-0.066747904
101	0xbe4f9ba2	-0.20274213
102	0x3e206a1e	0.1566548
103	0xbde0311f	-0.10946869
104	0xbd8962c0	-0.06708288
105	0x3d7c471d	0.061591256
106	0xbe916e99	-0.28404692
107	0x3eb98c49	0.36239842
108	0xbd748079	-0.059692834
109	0x3e44e316	0.19227251
110	0x3e06e6bc	0.13173956
111	0x3e0e68cc	0.13907164
112	0x3e121dd2	0.14269188
113	0xbd52bdbd	-0.05145048
114	0x3cc60001	0.024169924
115	0x3d3f058c	0.04663615
116	0x3e9b9a75	0.3039128
117	0x3e97c57f	0.29642865
118	0x3e2a0299	0.16602553
119	0x3e18d432	0.14924696
120	0x3e5586be	0.20852181
121	0xbd8a1ba9	-0.06743557
122	0x3d5c3243	0.05375887
123	0x3d4db984	0.05022575
124	0x3e69b337	0.22822271
125	0x3de879aa	0.113513306
126	0x3d50ce5e	0.050978057
127	0x39a183cb	0.00030806506
128	0x3d79424e	0.06085425
129	0xbcafdb6f	-0.021466939
130	0x3e7547ce	0.23953173
131	0x3bf86ef2	0.007581585
132	0xbe483a3a	-0.19553462
133	0xbdd77328	-0.10520011
134	0xbd5381da	-0.051637508
135	0xbdf7fe59	-0.1210906
136	0xbe328766	-0.17434463
137	0xbec0385c	-0.37543
138	0x3d2d8ff6	0.04237362
139	0x3e098a45	0.13431652
140	0x3e3287bf	0.17434596
141	0x3debb39d	0.11508868
142	0xbe81fd25	-0.25388446
143	0xbe2d4da5	-0.1692415
144	0x3df5ffa6	0.12011652
145	0x3da26ce5	0.07930926
146	0xbd32dd58	-0.04366812
147	0xbcbec136	-0.02328549
148	0xbda09c84	-0.07842353
149	0x3dddcbd0	0.1082989
150	0x3dcec176	0.100954935
151	0xbe2f441c	-0.17115825
152	0xbea0129c	-0.31264198
153	0xbeb85c8b	-0.36008105
154	0x3d8c72a2	0.06857802
155	0xbe9d555c	-0.30729187
156	0xbc8d1b04	-0.017224796
157	0x3e66b6ab	0.2253062
158	0xbe489648	-0.19588578
159	0x3dec6c5c	0.115441054
160	0x3e75091b	0.23929255
161	0x3de38854	0.11109987
162	0xbe29e328	-0.1659056
163	0xbe09c8c4	-0.13455492
164	0xbe58601b	-0.21130411
165	0x3e5108c6	0.20413503
166	0x3d995f9a	0.07488938
167	0xbe1e6b6b	-0.15470664
168	0x3db5abdd	0.08870671
169	0xbdf43c2e	-0.11925541
170	0x3cca73ba	0.024713386
171	0x3e071fcc	0.13195723
172	0xbe1d2d9f	-0.15349434
173	0x3defae2c	0.117031425
174	0xbe3bce9b	-0.18340532
175	0x3ec6ea64	0.388507
176	0xbdd05ad8	-0.10173577
177	0x3b77d768	0.00378176
178	0xbe4b5d34	-0.19859773
179	0xbe30b3f4	-0.17256147
180	0x3d93fea1	0.07226301
181	0x3e427065	0.18988188
182	0x3d02e1d8	0.031953663
183	0xbdaaa562	-0.083323255
184	0x3d92663a	0.071484044
185	0x3e06fc85	0.13182266
186	0x3e14380e	0.14474508
187	0xbe14162a	-0.1446158
188	0x3e1fd40f	0.15608238
189	0xbe4621e0	-0.1934886
190	0xbe4d79c0	-0.20065975
191	0xbe3f3aeb	-0.18674819
192	0x3d954836	0.07289164
193	0xbe1e5026	-0.15460262
194	0xbdd7e87b	-0.10542389
195	0xbdb627d2	-0.08894314
196	0x3ca13a2e	0.019681063
197	0x3dd8c58c	0.10584554
198	0xbd8482f8	-0.06470293
199	0x3e0e01e6	0.13867912
200	0x3e49cabe	0.19706246
201	0x3d95b956	0.07310741
202	0xbb9fb3e2	-0.0048737386
203	0xbdf505f2	-0.119640246
204	0xbd82a8d5	-0.063798584
205	0x3d7cb055	0.0616916
206	0xbe09fc99	-0.13475265
207	0xbe5f65b0	-0.21816134
208	0xbe07e721	-0.13271762
209	0xbe749fec	-0.2388913
210	0xbe2d1d23	-0.16905646
211	0x3c5eadd6	0.01359125
212	0xbe3da161	-0.18518592
213	0x3dbcbde4	0.09215906
214	0xbe758ad7	-0.23978744
215	0xbd83a837	-0.06428569
216	0xbc4a72d6	-0.012356481
217	0xbd657091	-0.056015555
218	0x3dddf715	0.10838143
219	0xbd2c757f	-0.04210424
220	0xbe42bd4e	-0.19017527
221	0xbe3db2f1	-0.18525292
222	0xbd300c99	-0.042980764
223	0x3c19dc24	0.0093908645
224	0xbcd61d1a	-0.026136924
225	0xbc4ba5e2	-0.012429686
226	0xbe1d66b0	-0.15371203
227	0xbde9d7cf	-0.11418115
228	0x3d8f7dd7	0.07006424
229	0xbe08a366	-0.13343582
230	0x3d9ccb06	0.07655911
231	0x3d6b609d	0.057465184
232	0x3e13876a	0.14407125
233	0x3e3e1a3f	0.185647
234	0xbdf36fd8	-0.11886567
235	0x3d9f7ec5	0.07787851
236	0xbc481391	-0.012211696
237	0x3d241256	0.04005655
238	0x3de03d07	0.1094914
239	0x3e612e5f	0.21990345
240	0xbe49d127	-0.19708692
241	0x3d1d9d9d	0.03848039
242	0x3de4fa25	0.11180524
243	0x3c593fe3	0.013259861
244	0x3de6bd5a	0.11266585
245	0x3c2334e1	0.009961338
246	0xbd883d9b	-0.06652375
247	0xbe679232	-0.22614363
248	0xbcfd1926	-0.03089578
249	0xbe3bb4f1	-0.18330742
250	0x3d8b04b9	0.0678801
251	0x3e35ac31	0.17741467
252	0xbdb50338	-0.088385046
253	0xbe2b1262	-0.16706231
254	0x3e505cb6	0.20347866
255	0x3d399373	0.045306634

prop_h_to_h.3.bias f4 [20]
0	0xbe20370a	-0.15645996
1	0x3e478bff	0.19486998
2	0xbe0e80d1	-0.13916327
3	0x3e20b2f3	0.15693264
4	0x3d3edefc	0.046599373
5	0xbe023472	-0.12715319
6	0x3e20b22a	0.15692964
7	0xbda7cf1a	-0.08193798
8	0xbd9eb7f6	-0.077499315
9	0x3df6818c	0.12036428
10	0x3e0a897d	0.1352901
11	0x3d8bb85a	0.06822272
12	0xbe066714	-0.13125259
13	0x3e56c0b7	0.20971952
14	0xbe82fc0d	-0.25582924
15	0x3e414bdb	0.18876593
16	0xbdcfb67a	-0.101422265
17	0xbe59b335	-0.21259768
18	0xbdf79102	-0.12088205
19	0x3da1bc90	0.078972936

prop_h_to_out.weight f4 [1, 20]
0	0x3d5a7be8	0.053340822
1	0xbd5979e6	-0.053094767
2	0xbd9e511b	-0.077303134
3	0xbe0783d1	-0.13233878
4	0xbcf0ddaa	-0.029402573
5	0x3dca94c1	0.09891654
6	0xbd9b45b7	-0.075816564
7	0xbd586fe6	-0.05284109
8	0x3d01422e	0.031557254
9	0xbe00fa0e	-0.12595388
10	0xbdb17db7	-0.08666556
11	0xba901b60	-0.0010994487
12	0x3b090c5d	0.002091191
13	0xbd86d3c5	-0.065833606
14	0x3e106457	0.14100777
15	0xbe04e1c4	-0.12976748
16	0x3e03b82e	0.12863228
17	0x3dd7632e	0.10516964
18	0x3dee51f9	0.11636729
19	0xbce7f217	-0.02831368
