model-RNN-DDPG/just_theta/old/newer_1/pi.pth (torch, 111882 bytes, 52 tensors)

gru.weight_ih_l0 f4 [60, 1]
00000000: e95b 16be b164 e7bc 665e 0bbe c0a1 babd
00000010: 4ba9 d83d ab30 3cbe 8884 a8bc 6f54 24be
00000020: bdb5 993d 5d84 37bd 4203 aa3d 6ab6 453e
00000030: 9875 d2bd d54e 1bbe 1567 2fbe 774e e0bd
00000040: d6c5 57be 6391 333e 70ea 69bd 24b1 ae3d
00000050: 5eb8 593e 92c3 98bc 09e3 123d 0eb3 39bd
00000060: e128 4bbe f2f9 2b3e 6a14 af3b 8879 15be
00000070: 9bb1 f93c c4c5 5f3e a690 fdbd 1ce4 53be
00000080: cad2 563e 7ea1 b5bd 3d2e 203e bc36 453e
00000090: bbbf eebd 3553 313e fd6b 9a3d c4d6 13be
000000a0: 723a 9bbd 5523 0c3e dbcd 813d 88b4 783d
000000b0: 981f 24be d0f7 19be 2cde 01bd 67a6 953d
000000c0: dfa2 46be 9091 acbd bbf1 603e 23b5 9bbd
000000d0: e320 0cbe 3e3f 8d3b b3f4 e0bd f2a4 4cbe
000000e0: 1e48 433c 4f99 2b3e d786 ef3c 9cb0 223e
-0.14683498 -0.028246256 -0.13610229 -0.091128826 0.10579165 -0.1837794 -0.020571008 -0.16047834
0.07505367 -0.044803966 0.08301403 0.19307867 -0.102763355 -0.15166791 -0.17129166 -0.10952466
-0.21071562 0.1753593 -0.057108343 0.08529881 0.21261737 -0.018647943 0.03586105 -0.045336775
-0.19839813 0.16794565 0.0053430097 -0.14597142 0.030480197 0.21852785 -0.12381105 -0.20692486
0.20978847 -0.08868693 0.15642639 0.19259161 -0.116576634 0.17316897 0.075401284 -0.14437395
-0.07579507 0.13685353 0.06338092 0.060719043 -0.16027677 -0.15035939 -0.03170602 0.07307129
-0.19398068 -0.08426201 0.21967213 -0.076029085 -0.1368442 0.0043105176 -0.10984173 -0.19984797
0.01191905 0.16757701 0.029239101 0.15887684

gru.weight_hh_l0 f4 [60, 20]
00000000: 8002 ffbd d25f c6bd e599 ee3d 4865 033e
00000010: 0afe 9c3d e2aa ab3c 6ee6 e439 0cec 57be
00000020: 3e7f 1c3e 14b0 47be 066d 2b3b 3840 a83d
00000030: e410 10be c840 9c3d d657 0ebe a966 523e
00000040: 6b78 6abc b43c 1a3e 6ab3 ebbd d289 693d
00000050: 01b4 4d3a 7bb0 b3bd c6d9 003e 2920 59bd
00000060: 5087 c2bd 21e4 ba3d 8efc c7bd e10d ec3d
00000070: 9b58 aa3c 92da 5c3e 9e51 453d b73b 193d
00000080: a625 b8bc c3df 90bd af49 f5bb 5971 253d
00000090: 1154 24be 36fb c5bd 64a7 f2bd 45cb a3bd
000000a0: 35be 303e 0190 12be ba54 973d 729e cfbd
000000b0: 5017 603e 1893 03be 8576 373e 7c5b 103e
000000c0: cf7e fa3d 092e 013d 09ff 303e 869c 2a3d
000000d0: 2aa2 003e 0c12 b03d 4b3d 013e 9948 05be
000000e0: 0b69 303e 27c9 4a3d 3a48 c73c ffe4 10be
000000f0: c184 debd 2c33 c93d 952e 30bd 56fa 4a3e
00000100: 55a0 cebd 188f eebd 58b2 e1bd 60b3 68bd
00000110: 84aa bcbd c643 86bd 846e af3d 67e9 f1bd
00000120: 11fa 08be 9120 6c3e e3f0 cb3b c852 48be
00000130: 929d b5bd 3005 9ebd da52 da3d 18ec 273e
00000140: af77 463e 05d9 483d 63eb fcbd d8d1 473e
00000150: 8133 e83d e9c9 ffbd fcff 2d3e 8a0c e13d
00000160: 7859 dc3d 9ab3 623d 4313 b8ba adfa 0cbd
00000170: 0104 d9bc 0c55 c63d 513b db3d 048e d13d
00000180: 7b81 ddbd e60a 113c 13a4 a03c 92de 1d3d
00000190: e2f7 f2bc 9b5b d33d 143a 0ebe c55e 9e3d
000001a0: 53c3 2ebe 0958 ec3d 99e3 4b3e a7ca b6bd
000001b0: 5ecd 093d 7776 123d 8eb4 633c 15eb 173e
000001c0: b916 6b3d b731 293d f582 53be f621 c5bc
000001d0: 7960 1cbe c7ec 163c 0045 68bd 6ac6 0b3e
000001e0: 2480 34be 2c02 203e 4042 0d3d 7c9f a43d
000001f0: a127 1dbe 6cc8 463d acdf 263e bb2a a33d
00000200: 6c77 bbbd d552 553e fb81 0e3e 0731 983d
00000210: eaa1 aa3d 37e5 62bd 8533 3a3e 57b4 ebbd
00000220: 9baa 493e 3755 0a3e ae01 0fbd 43e5 47bd
00000230: 2dd5 463e cff7 883d c768 a33b d49f 04be
00000240: 88d9 f43b 4c19 cb3d 34de 953c 44c9 b7bd
00000250: d26e dfba 234c 053e 74f5 c03b 29f6 043e
00000260: e0d6 ed3c a66d 563e afe0 44bc 83a7 37be
00000270: 9f07 e9bc 7c51 9b3d 3e06 023c c1db 633c
00000280: 7e62 0a3e b248 153e 96a1 89bd 2b10 573e
00000290: 7607 253e 7b1f 603e dbc4 31be 5a13 0c3e
000002a0: 5d75 033e 2e66 3e3e dd01 873d 2ae0 703d
000002b0: 3972 e7bd caba 5e3d 2162 8cbb 4675 4bbe
000002c0: 93dd 053e cf2e 09be cc28 8f3d bc3b 1abe
000002d0: 2842 b5bb e71c 5b3e c21b 9cbd e564 2f3e
000002e0: adb8 a3bd 7e5e c53d 81bf 423e 24e4 32be
000002f0: 402b 0abe 0960 3ebe 04be e3bd 8976 3abe
00000300: db96 483e d527 6ebd b60e 573d 24d7 11bb
00000310: 928c fc3d 2cc7 17be 5c8a d7ba e529 0fbc
00000320: c863 41be 493c cf3d 8365 14be 4fba 433e
00000330: 88d1 45bd 99b8 10be b63f 33be 12ed 0a3e
00000340: 5d47 3abe e0c3 dbbc 3ab3 4f3e fa60 88bd
00000350: 9b2e 4cbd 499d 133d c3c0 0cbe 6585 5abd
00000360: cf6c d63d 8299 383e 3af9 b93d 7666 8abc
00000370: f74f 0abe 6cf4 b83d 0864 8abd 06c9 843d
00000380: c694 2fbe 3764 953d 813c 1c3d 21bc 99bd
00000390: 9976 3cbe ff98 39be e989 f3bd e5ae 443e
000003a0: db42 893b ddfd 313d 8472 41be 13c6 353d
000003b0: dd51 e33d 13ab 1fbe d633 0fbe be25 29be
000003c0: 3798 4dbe b3b2 e53d 4ef2 523e e101 ac3b
000003d0: 25c3 b43c 3ed4 313d ca33 663d ac78 6c3e
000003e0: d682 203e 663e 48be 6a73 423e af18 36bd
000003f0: 703f cd3c d98f 14be ba71 0a3e c5fd 41be
-0.12451649 -0.09686245 0.11650447 0.12831604 0.076656416 0.020955507 0.00043659232 -0.21086138
0.15282914 -0.19500762 0.0026157512 0.08215374 -0.14068943 0.076295435 -0.13900694 0.20546974
-0.014310936 0.15062219 -0.1150883 0.0570162 0.0007846952 -0.08773895 0.12583074 -0.053009186
-0.09498465 0.091255434 -0.09764968 0.11526085 0.020794204 0.21567753 0.04817354 0.037410464
-0.02247889 -0.07073929 -0.0074855904 0.0403913 -0.16047694 -0.09667055 -0.118483335 -0.07997755
0.17260058 -0.14312746 0.07389207 -0.10137643 0.21883893 -0.1284908 0.17916305 0.14097399
0.12231218 0.031538043 0.17284788 0.04165318 0.1256186 0.08597192 0.12621038 -0.13015975
0.1722757 0.04950824 0.024326432 -0.14149855 -0.108651645 0.098242134 -0.043013174 0.19822058
-0.10089175 -0.11648387 -0.110203445 -0.05681169 -0.09212211 -0.065558955 0.08566001 -0.11812096
-0.13376643 0.23059298 0.0062237843 -0.19562829 -0.08867945 -0.07715833 0.10660334 0.16398656
0.19381593 0.04903509 -0.12349584 0.19513643 0.113379486 -0.12489683 0.16992182 0.1098872
0.10759252 0.055347063 -0.0014043826 -0.03441875 -0.026491167 0.0968419 0.10704673 0.102321655
-0.10815712 0.008852696 0.019609487 0.038542338 -0.029659215 0.10320207 -0.13889343 0.077329196
-0.17066698 0.11540229 0.1991104 -0.089253716 0.03364312 0.035757508 0.013898028 0.1483577
0.057394717 0.041307177 -0.20655425 -0.024064045 -0.15271176 0.009211726 -0.05670643 0.13649908
-0.17627007 0.15625829 0.03448701 0.08038232 -0.15347148 0.04853098 0.16296262 0.079671346
-0.09153637 0.20832379 0.13916771 0.07431226 0.08331664 -0.055394378 0.18183716 -0.115090065
0.19693987 0.1350907 -0.03491371 -0.048802625 0.19417258 0.06687891 0.0049868557 -0.12951595
0.007472221 0.09916934 0.018294431 -0.08973935 -0.0017046577 0.13017325 0.0058886353 0.12984528
0.029033124 0.20940265 -0.012016459 -0.17934994 -0.028446017 0.07583901 0.007936059 0.013907374
0.13514134 0.14578512 -0.06720273 0.21002261 0.16116127 0.21887009 -0.1736025 0.13679257
0.1283774 0.18593666 0.06592152 0.05880753 -0.11301083 0.054377355 -0.004284159 -0.19868955
0.13072805 -0.13396762 0.06990203 -0.1506185 -0.005531568 0.21397744 -0.07622482 0.17128332
-0.079942085 0.096371636 0.19018365 -0.17469841 -0.13493061 -0.18591322 -0.11120227 -0.1820928
0.19588797 -0.058143456 0.052504264 -0.0022253478 0.12331499 -0.14822072 -0.0016444433 -0.008738016
-0.1888572 0.1011892 -0.14491849 0.1911404 -0.048295528 -0.14132918 -0.17504773 0.13566998
-0.18191285 -0.026826799 0.20283213 -0.06659122 -0.049849134 0.03603867 -0.13745408 -0.05334987
0.10469972 0.18027309 0.09080739 -0.01689456 -0.13507067 0.09030995 -0.06757361 0.06483655
-0.17146596 0.07294505 0.03814364 -0.07506586 -0.18404616 -0.1812477 -0.11891539 0.19207342
0.004188878 0.043454994 -0.1889134 0.04437835 0.110995986 -0.15592603 -0.13984618 -0.16518304
-0.20077597 0.11215725 0.20600244 0.0052492474 0.022065708 0.0434153 0.056201734 0.23092908
0.1567491 -0.19555053 0.1898934 -0.044457134 0.025054663 -0.14507999 0.13519946 -0.18944462

gru.bias_ih_l0 f4 [60]
00000000: 726f bb3d df12 73be 4f7a 6c3d 4253 633e
00000010: c0e1 bb3d 521f cabd c9fb a3bd 9a53 e83d
00000020: 6d35 e9bd 5b17 82bd 8e52 c13c 8fb7 bdbd
00000030: c013 25be 89d4 683e a131 d53d d6a2 bd3d
00000040: 764f 0cbe ba66 0c3e 6a90 6ebd b97f 4f3e
00000050: 70e2 2abd a5b7 453d 7b5f 313e 9254 d13d
00000060: f8a3 4a3e 25a8 243d 2049 30bd 181c 6fbe
00000070: c3f6 f9bd 1ad2 f53d 98ed 223e ec39 2abe
00000080: ead0 e73d d4cf 563c 5ae8 46bd 1c20 073e
00000090: a7a3 41be 0be6 323e af94 4a3d 6dc3 193e
000000a0: 04e6 b13c bb27 e2bd 74c3 083e 426e 493d
000000b0: ffb4 68bc d3d0 1a3e e4a4 e73d c361 8f3d
000000c0: c1a4 aabd c3cb 1d3d 54d9 873c 3a30 f3bd
000000d0: e27c 753d 1c8a 613e af1f 2dbe 4002 f9bd
000000e0: 542f 843d ac95 47be 679e 4f3e 8fa7 fbbc
0.09152116 -0.23737668 0.05773383 0.22199729 0.09173918 -0.09869255 -0.080070086 0.11344071
-0.11387143 -0.06352111 0.023598935 -0.09263527 -0.16120815 0.22737326 0.104098566 0.09259574
-0.13702187 0.13711062 -0.058243193 0.20263566 -0.041719854 0.04827084 0.17321579 0.10221209
0.19789112 0.040199418 -0.043038487 -0.2335056 -0.12205269 0.12002964 0.15910947 -0.16623658
0.11319144 0.0131110735 -0.04856143 0.13195843 -0.18910085 0.17470567 0.049458202 0.15015955
0.021716125 -0.11042734 0.1335581 0.049177416 -0.014203309 0.15118723 0.11310747 0.070010684
-0.083322056 0.0385244 0.016583122 -0.11874433 0.05993355 0.22025341 -0.16906618 -0.12158632
0.064543396 -0.19490689 0.2027527 -0.030719547

gru.bias_hh_l0 f4 [60]
00000000: 00b4 fbbd 3b71 7e3d 8fda 103e d00e 7fbd
00000010: 0998 403e 8cae f33c cb54 6b3c d24b 853d
00000020: a00b 6dbc 3185 49bc 4baf 35ba bb40 4bbe
00000030: 8e52 d1bc b045 32be b045 6bbc ec74 88bd
00000040: bdcf 06be 1268 cabd 291f 1abe 1f01 793c
00000050: 647a 113e 4a67 d53d 8573 1bbe a11f 053e
00000060: 215d 553d 4015 94bd fce4 2e3e df2c ebbd
00000070: 4636 643e 7de0 0fbe 8dd2 3f3e b2a7 2bbe
00000080: 7e37 5cbd e137 643c c81e 793d f4e0 40bd
00000090: 3a38 95bd b80c 4dbd 9444 3abe 4602 0ebe
000000a0: 77f1 0bbc 617f 29bd 957a db3c ed46 e4bd
000000b0: 1de7 7a3d 531b 1d3e 8610 d6bc ad68 2a3e
000000c0: bb4a a43d ef31 11bd 5cf9 443d 822d 9d3b
000000d0: 205a 733e fb0d e83d 720e 27bd 19cf d0bd
000000e0: ede8 fd3d fb49 e03d 0115 d1bd 9261 adbd
-0.12290192 0.062119704 0.14145873 -0.062269986 0.18807997 0.029746316 0.014363478 0.06508602
-0.014468104 -0.012299822 -0.0006930723 -0.19848911 -0.02555206 -0.17409396 -0.0143598765 -0.06662926
-0.13165183 -0.09883131 -0.15050949 0.015198021 0.14206845 0.104200915 -0.15180786 0.13000347
0.052090768 -0.072306156 0.17079538 -0.11483168 0.22286329 -0.14050479 0.18732662 -0.1676319
-0.05376386 0.013929338 0.06082037 -0.047089532 -0.07286115 -0.050060958 -0.18190223 -0.13868055
-0.008541456 -0.041381244 0.02679185 -0.111463405 0.061255563 0.15342455 -0.026130926 0.16641493
0.08022066 -0.03544801 0.04808937 0.0047966847 0.23764849 0.113307916 -0.04078526 -0.10195751
0.12397943 0.10951611 -0.10209084 -0.08465876

gru.weight_ih_l1 f4 [60, 20]
00000000: aff3 c23d 090e 2cbe 7d63 373c fd8e c1bd
00000010: bba1 de3d efc4 753d bf51 493d c0f0 393e
00000020: 5a49 4d3c 3331 46be cf5c 84bd 4837 69bb
00000030: 25d7 a5bd 8b65 e43d 7934 9f3d b555 b0bc
00000040: d892 543e fba0 59be a43c 683e 9cc4 82bd
00000050: 8ef5 c03c eca4 adbd 87be 12be 3b07 b4bc
00000060: 52b4 293e de62 b93d e1bb ebbd fad8 333e
00000070: 2e1d 0cbe 5abd 5a3d 4038 523e fb99 19be
00000080: fc05 13be de55 503e c7a8 db3d a2e0 98bc
00000090: b80d 16bc 648a 36be f998 46be efe8 413e
000000a0: d899 49be 187e d3bd 99bf 64bd 40c9 1f3e
000000b0: dcc3 173e 438f 423e 1b55 96bc b937 643e
000000c0: d5ab d43d e928 1e3e 59c2 2b3d 9bf2 8fbd
000000d0: bb89 41be 5613 863d bcef 023e 117d 58bc
000000e0: 80c6 27bd 6b92 0e3e 547e 79bd 4aec ecbd
000000f0: 5637 39be 144b 27bd eba6 963c 84ed 2cbe
00000100: 1f18 1f3e 13f6 e8bd 04d1 223e 21bf e33d
00000110: 0df3 253e 7788 ccbd e874 713d c8b5 26be
00000120: 5c5f 36be 2b1d 923d d382 1dbe 6958 003d
00000130: 2fd3 4e3c 6f48 1bbe 1a29 3a3e 90b8 8f3d
00000140: 2478 c0bd c0fc 213e 8937 88bc 514b 29bc
00000150: 8931 41be 4210 47be 6400 e8bb d34f 21be
00000160: a1d3 843b 83d0 15be c181 493d 94e6 513e
00000170: ec3f cd3d c77a bd3d 643a 723c 704e ae3d
00000180: 72c2 48be d8d5 623e f03a 17be 974f d43d
00000190: da08 86bd 873c 5cbe b181 f3bc 1771 b6bd
000001a0: 900e 29bd ce68 113e 26a6 8f3d faf1 6fbd
000001b0: 584f a43c c7a1 653d a37a 9bbd 2b7d 9f3d
000001c0: 5e2b 9fbc bae2 edbd 83d3 f73c 0488 c13d
000001d0: fab6 1c3e 8d51 e83d b5c9 f03c c3fc eabd
000001e0: 59c8 0ebe f03a 2abd 8132 1cbd 9192 183e
000001f0: 328e 80bd bec0 c6bd d3cb f9bd 1e8c 9bbc
00000200: b848 93bc 8640 e9bd 79dd 8e3d 5cd5 6c3c
00000210: ce9b 24be 0b19 c23d a182 3c3e 2368 5c3e
00000220: a70c 353e 445d 01be 86d6 36be 3199 80bd
00000230: 24c0 2a3e 70ce e3bd b922 213e f45b aabc
00000240: 9272 ef3b e4b4 1c3e a6e5 263e 9cd0 ab3d
00000250: 7a81 323e c8ae 58bd 4067 94bc 1d20 4b3e
00000260: 6313 4ebe f430 0b3e 8cf3 5d3e 061a a4bd
00000270: 5f3f 8ebd d9ff 523e 2f06 1f3e aa1a 083e
00000280: 05a6 3e3e cdf5 e43d 5b58 d1bb 40a5 f23d
00000290: 022e 483e 739b d1bd ecaf 0cbe 4543 663e
000002a0: 053b 8b3d 4c5e 103e f3f8 2b3e 5c33 343e
000002b0: 1ca1 cf3c da77 4a3c c16f 5b3d 70d3 22be
000002c0: 9dc3 d13b edaa 073d aa3f f13d c9db a1bd
000002d0: acee 23be afbf 8cbc fc87 2bbe 044b 58be
000002e0: 3dac f13c f370 363d cf30 aebc 16ce 63be
000002f0: e713 533e a066 b33d 93d5 76bd 3087 6f3d
00000300: 9209 353e 6dfe 803d def3 5a3e 3792 e5bd
00000310: 7704 cf3b 937c 563d 2cd2 9a3d 081d 18bd
00000320: 1796 51be 8e4c 3f3d 68a6 f53c 26b9 183a
00000330: be69 6c3e 6334 503e 4040 dbbd 563c 0b3e
00000340: afad 82bd f807 323c e50b b6bc 8389 36be
00000350: b963 42be 4887 b63d b3c1 51be 05aa 32be
00000360: 7a92 d2bd e801 303e 8cdc ab3d 3c19 463d
00000370: 52b8 97bd 9f16 763d 8c9d 4fbd 7596 81bc
00000380: 5a9d 983d c4ed 60bd edcc d0bd cd8b c6bd
00000390: dc35 e43c ca09 e33d d232 80bd bc9d ecbd
000003a0: 4295 aa3c 6ece e03d 0171 06be 42a0 1d3e
000003b0: dcf7 05be ba24 003e 62e8 a7bd bf5c 673d
000003c0: b106 203e 0eec dd3d 1624 7d3c 16b4 253e
000003d0: 504d ccbd 6f83 f53d 27ff 433d 59ea 4f3e
000003e0: fa03 98bd 5699 393e 8384 c13d 558c 26be
000003f0: 1ecd 0dbd 20c4 c53d de84 19be f986 043e
0.09519135 -0.16802229 0.011193153 -0.09451101 0.108706914 0.060002264 0.049150225 0.18158245
0.012529695 -0.19354706 -0.06463014 -0.0035585929 -0.08097676 0.1115218 0.0777368 -0.021525243
0.20759141 -0.21252815 0.22679383 -0.063851565 0.02355459 -0.08478722 -0.14330493 -0.021976104
0.16572693 0.090520605 -0.115104444 0.17563239 -0.13683006 0.053403236 0.2052927 -0.15000145
-0.14357752 0.20345256 0.10725551 -0.0186618 -0.009158544 -0.1782623 -0.19394292 0.18936513
-0.19687593 -0.10326785 -0.055846784 0.15604115 0.14820808 0.18999963 -0.018351128 0.22286882
0.10384337 0.15445293 0.04193339 -0.07028695 -0.18900196 0.06546657 0.12786764 -0.013213412
-0.04096079 0.13923042 -0.06091149 -0.11568506 -0.18087515 -0.040843084 0.01839014 -0.1688748
0.15536545 -0.1137506 0.15900046 0.11120439 0.16205998 -0.09986966 0.05894938 -0.16280282
-0.17809814 0.071344696 -0.15381937 0.031334314 0.012623592 -0.1516435 0.18179742 0.070176244
-0.09397915 0.15819073 -0.016628044 -0.010332898 -0.18866552 -0.19439796 -0.0070801247 -0.15753107
0.0040535484 -0.14630322 0.04919601 0.20498115 0.10021958 0.092519335 0.014784429 0.085110545
-0.19605425 0.22151887 -0.14768577 0.10366743 -0.06544657 -0.21507464 -0.029724928 -0.08908289
-0.041273654 0.14200136 0.07014112 -0.058580376 0.020057365 0.056062486 -0.075917505 0.07787546
-0.019429859 -0.1161551 0.030252224 0.09449771 0.15304175 0.113436796 0.029393056 -0.11473992
-0.13943614 -0.041560113 -0.0381341 0.1489966 -0.062771216 -0.097047314 -0.121970795 -0.018987712
-0.017979011 -0.1138926 0.06975836 0.014455166 -0.1607506 0.09477433 0.18409206 0.215241
0.17680608 -0.12633234 -0.17855272 -0.06279219 0.16674858 -0.11123359 0.15735902 -0.0207958
0.007307359 0.1530338 0.16298541 0.083893985 0.17432204 -0.05290106 -0.01811564 0.19836469
-0.20124583 0.13592893 0.21674937 -0.08012776 -0.06945681 0.2060541 0.15529703 0.13291422
0.18618019 0.11179695 -0.0063887066 0.11847925 0.195488 -0.10234728 -0.13738984 0.22486599
0.067983665 0.14098471 0.16794185 0.17597717 0.025345378 0.012357676 0.053573374 -0.1590097
0.0064014927 0.033121992 0.11779721 -0.07903249 -0.16009015 -0.017181246 -0.16751093 -0.21122366
0.029501075 0.04454131 -0.021263508 -0.22246584 0.20613061 0.087598085 -0.060262274 0.058478534
0.17679432 0.06298528 0.2138209 -0.11209529 0.006317671 0.052364897 0.07559618 -0.03713706
-0.20467411 0.046703868 0.029986575 0.0005825929 0.23087212 0.20332484 -0.10705614 0.13597235
-0.06380784 0.010866158 -0.022222469 -0.17825894 -0.18983354 0.089125216 -0.20484047 -0.1744767
-0.102818444 0.17188227 0.08391675 0.04836391 -0.07408203 0.060080167 -0.050687358 -0.015818814
0.074518874 -0.05491425 -0.101953365 -0.09694634 0.027857713 0.110858515 -0.06259693 -0.11553523
0.020823125 0.10976873 -0.13129045 0.15393165 -0.13082832 0.1251401 -0.081986204 0.056484934
0.15627553 0.108360395 0.015450498 0.16181979 -0.09975684 0.119879596 0.047850754 0.2030424
-0.074226335 0.181249 0.09449103 -0.1626447 -0.034619443 0.096565485 -0.14992091 0.12942113

gru.weight_hh_l1 f4 [60, 20]
00000000: dbb3 1d3e 5a34 3e3d 9dc3 d33c 4507 2abe
00000010: 93b4 243e 0fc5 8e3d 7fe9 8d3d 3568 183e
00000020: 3afb 2abe 28e1 ffbd 6908 df3d d58d 02bd
00000030: 4cc7 37be 81a9 063e 6c0f 24be ba9f 76bd
00000040: d9da 6dbe 4065 34be 8b43 003e ba86 1dbe
00000050: da49 c6bd 4482 febd b63a f4bb 2e4c dc3d
00000060: 6a97 273e 460f 0a3d 3536 dcbd 200c 15be
00000070: dcc7 4ebe fff8 803d 4dc5 4abe c4eb 2ebe
00000080: 8c25 30bd 2988 0c3d 2714 083e 86ed 223e
00000090: f905 203e 101c 3b3e d2e7 15be 6f44 38be
000000a0: 3b96 333e d043 d9bb 4b76 27be 8ea6 cc3d
000000b0: 9f9a fd3d dbaa 6bbe 29ba 853c fbfc 113e
000000c0: ebb2 e1bd 1ef5 503e ac96 39be 5e3d 3fbc
000000d0: 33ae f2bd 20b2 ffbd ddc8 d63d de54 c23d
000000e0: d797 4bbe 4fd8 143e fba8 2cbe 9055 09be
000000f0: c52d 0cbe df3f 9fbd 309e 1ebd 36b0 3fbe
00000100: 28be f93c 6625 663d 93e7 63be 3752 11be
00000110: b9df 3fbe babb 25be 9a50 c93d 5271 23be
00000120: 985b 0cbe 5e34 d93d 71f6 d5bd e948 debd
00000130: c675 3bbd 5d54 34be 667e 683e c2d0 933c
00000140: 0f8c c53d 5329 14be 1421 d9bd a0cf 39be
00000150: 420c 543e ae45 c83d bc8e debd aab6 12be
00000160: b036 d3bd a7ed 44be 8788 1c3e e146 95bd
00000170: 3c3c 383e 5fa5 fabd 2b7d 4ebe 88e4 653e
00000180: 3d82 0dbe f359 973d f958 2fbe bc78 b1bd
00000190: 00bb a13d c7c7 003c 2fa2 bdbd 3259 0dbd
000001a0: 5eaa 53be 804e 23bd 8791 01be db8b 1cbe
000001b0: 1457 473d d558 a4bd ce7f 2dbe 4cb7 5ebe
000001c0: b34d 853d 2f81 e9bb 86a2 f73d c3d6 31bc
000001d0: ce52 5fbe ce89 063e e274 83bd 479e adbd
000001e0: d024 d53d 3bb3 4fbe f37a 1dbe 0eab d6bd
000001f0: ba19 1b3b 92fc 1fbe 1fc8 a5bd 3e93 c0bd
00000200: a73c 093d 693a c23d 0d02 cc3d e694 003e
00000210: a9aa 20be 641d 27be 45aa debd 5f5a 2a3e
00000220: f1b2 59bb deef c53c 9026 59bd 8361 3cbe
00000230: adb8 2cbe 8be6 133e 5802 53be 06be f63d
00000240: 0059 4bbe b996 8d3d e29b ae3d b057 1f3d
00000250: bd83 5bbe 32db 72bb eb67 0abd a63f 5d3d
00000260: 54a1 e0bd 1645 3bbe 4743 263d 06d2 e6bd
00000270: 1f03 3abe cd08 653e 3cdb 10be 5490 45be
00000280: af68 8abd 86de 093e e750 463d ff95 283e
00000290: fe86 283c 00aa 1bbc 157a 503c 6b44 0dbd
000002a0: 5a4b d93d 8404 133e 8702 ccbd beed 90bd
000002b0: e539 48be 652b 23be c2dd eebd 9403 88bd
000002c0: f365 30be 0ed1 03bd 5f1b 133e 8c70 7f3c
000002d0: 15a5 403d c541 273d fcd5 213e f677 283d
000002e0: d94d 1e3e 8560 303e e694 cb3d f57e a53d
000002f0: dee8 033e 43fb 253d ccad e0bd 091a 273e
00000300: 942a 1b3d 4ae2 883d 0bfc 74bd fb20 e4bd
00000310: 07ba f5bc 12cd 94bd 68c3 f03d eb30 b53d
00000320: 5923 3b3e a455 843d e94d 1d3d 1f5d e13d
00000330: 1592 3bbe 1ebc 073e 0e26 f33d 4609 2c3e
00000340: 6430 b13d 83b1 033e b3c9 c2bd 094b f93d
00000350: c1d9 3f3e f874 11be a67d 17bd 4e68 0f3d
00000360: cdfb 84bc f500 e33d f551 e0bc a227 5a3e
00000370: cc85 6ebe 4f7f e03d ba2a 88bd a147 5cbc
00000380: 6655 56be 17c7 9c3d 5d1f 333e ca9e 0bbe
00000390: 6519 a83d fbd5 103e 3541 96bd 3613 a83c
000003a0: bb7e d5bc c183 393d 59ce fcbc ff60 303d
000003b0: 4fd1 debd 9ebc d7bd b9e7 3cbd 4303 cdbd
000003c0: cb9a f2bd 9049 30bd daf6 32bc 5fb7 3bbe
000003d0: b8d7 21be 2620 1ebe d636 ec3d 6f3b 50bd
000003e0: 89cd 8a3d 982a 833c 152e a53d 1782 50bd
000003f0: a31b 443e 730b 8ebc b7f0 473e 6a3c 86bd
0.1540064 0.046436645 0.025850112 -0.16604336 0.16084509 0.0697118 0.069293015 0.14883502
-0.16697398 -0.12494117 0.10890276 -0.031873543 -0.1794712 0.13150598 -0.16021508 -0.06021092
-0.23228015 -0.17616749 0.12525766 -0.15383425 -0.09682055 -0.1242719 -0.007453288 0.107567176
0.16366354 0.033705972 -0.10752527 -0.14555407 -0.20193428 0.06297492 -0.19801827 -0.17082125
-0.043004557 0.03430954 0.13288938 0.1591092 0.15627278 0.18272424 -0.14639214 -0.17994855
0.17537777 -0.0066303983 -0.16353719 0.09992705 0.12383007 -0.23014395 0.01632412 0.1425666
-0.11020454 0.20406005 -0.18123883 -0.011672346 -0.11849632 -0.124851465 0.104875304 0.094888434
-0.19882141 0.1453564 -0.16861336 -0.13411546 -0.13689335 -0.07775854 -0.038725078 -0.18719563
0.030486181 0.05618801 -0.22256307 -0.14191519 -0.18737687 -0.16184893 0.09829827 -0.15961197
-0.13706815 0.106056914 -0.104473956 -0.1085375 -0.045766614 -0.17610307 0.22704467 0.01804388
0.09645855 -0.14468889 -0.10602012 -0.18145609 0.20707801 0.09778915 -0.10867068 -0.14327493
-0.10313165 -0.19231282 0.15286456 -0.0728891 0.17991728 -0.12238573 -0.20164935 0.22450459
-0.13819213 0.07390203 -0.17123784 -0.086656064 0.078969955 0.007860131 -0.0925945 -0.03450889
-0.20670459 -0.039869785 -0.1265317 -0.15287726 0.04866703 -0.08024756 -0.16943285 -0.2174961
0.065089606 -0.0071259956 0.12091546 -0.010854426 -0.21808931 0.13138506 -0.06418778 -0.08477455
0.10407412 -0.20283215 -0.15378933 -0.10481845 0.0023666457 -0.15623692 -0.08094811 -0.09403084
0.03350511 0.09483797 0.09961329 0.125568 -0.15690102 -0.16319805 -0.1087232 0.16636036
-0.003321823 0.02416223 -0.05301529 -0.18396573 -0.16867323 0.14443414 -0.20606363 0.12047963
-0.1985817 0.06913514 0.08525826 0.038901985 -0.21436973 -0.003705692 -0.03379051 0.054015778
-0.10968271 -0.18288073 0.040591504 -0.112705275 -0.18165253 0.22366638 -0.14146131 -0.19293338
-0.06758248 0.13463792 0.048417 0.16463469 0.010286091 -0.00950098 0.012724419 -0.034489077
0.10610075 0.14357191 -0.099614196 -0.07076596 -0.19553335 -0.15934522 -0.11663391 -0.066413075
-0.1722639 -0.032181792 0.1436591 0.015590798 0.047032434 0.040834207 0.15804285 0.04113003
0.15459384 0.1722432 0.099405095 0.08080856 0.128818 0.040522825 -0.10970649 0.16318525
0.037882403 0.06683786 -0.05981068 -0.11139103 -0.029995931 -0.072656766 0.11756021 0.08847221
0.18275203 0.06461647 0.03840438 0.110040896 -0.18317445 0.13255355 0.11872493 0.16800413
0.08651808 0.12860684 -0.09511127 0.12172515 0.1873541 -0.14204776 -0.036985062 0.035011582
-0.01623335 0.11084167 -0.02738283 0.21304181 -0.23293227 0.10961782 -0.066487744 -0.013444812
-0.20931014 0.07655161 0.17492433 -0.13634792 0.082079686 0.14144127 -0.07336656 0.020516973
-0.026061406 0.045291666 -0.030860113 0.043061253 -0.10879766 -0.10534023 -0.046119425 -0.10010388
-0.11845931 -0.043038905 -0.010923112 -0.1833167 -0.15804946 -0.15441951 0.115338966 -0.05083793
0.06777484 0.016011521 0.0806543 -0.050905313 0.19151168 -0.017339444 0.19525419 -0.06554492

gru.bias_ih_l1 f4 [60]
00000000: 6a50 473e 6c25 123e 2f1c 7dbb b175 cf3b
00000010: a912 b73c 9885 3e3c 9705 6cbe 2df0 803d
00000020: e05b 3dbe fea9 913d 24b6 5e3e 6b1a 9dbd
00000030: d9a8 5a3d 191f d43d 6529 403e c807 953d
00000040: fa19 963c 6f77 02bd 9121 1c3d e266 8c3b
00000050: feda 00bd 9e71 f33d 94cf 87bd 1ef1 3c3e
00000060: 7324 e73d 9083 1abd c95d 8b3d 9958 6dbd
00000070: f541 3d3e 23bb c83d bc56 b1bd b8fa 383e
00000080: dadc cebd 7181 0bbe a8c1 c0bd 7c66 06be
00000090: a7e5 40be 40df 3a3d 70f2 0d3e 1c19 12bd
000000a0: ae84 59be 16df f43d 1a7a f9bd 7791 a33c
000000b0: 57a8 debc b84f 2bbe 0ad9 6cbc c287 cb3b
000000c0: fc7d c1bd 48d9 db3d 56c4 3ebe d4c4 583d
000000d0: d0f1 353d 0db7 0bbe 3c28 cf3d 4eb5 72be
000000e0: b69c 47be 51a5 47bd 0085 2f3e 6e17 243e
0.1946427 0.14272088 -0.0038621535 0.0063311686 0.022347765 0.011628531 -0.23049007 0.0629581
-0.18492079 0.071125016 0.21749169 -0.076710545 0.053383682 0.10357494 0.18765791 0.07276875
0.018322933 -0.031852182 0.03811795 0.0042847255 -0.031458847 0.11886905 -0.06631389 0.18451354
0.11286249 -0.037723124 0.068049975 -0.05794582 0.18482192 0.098013185 -0.086591214 0.18064392
-0.10100718 -0.13623597 -0.09411937 -0.13125032 -0.18837605 0.045623064 0.13862014 -0.035668477
-0.2124202 0.11956613 -0.12181492 0.019966824 -0.02717988 -0.16729629 -0.014456043 0.006211252
-0.09447858 0.107348025 -0.18629584 0.052922085 0.044420063 -0.13644047 0.10115096 -0.23701975
-0.19493374 -0.048741642 0.17140579 0.16024563

gru.bias_hh_l1 f4 [60]
00000000: a05e 533d 0088 423e b104 bebd 023b 943d
00000010: be63 c53c e073 1abe 89c5 0bbe afc7 213e
00000020: b44e 0b3e 71e4 adbd eea2 253d 112e 1c3e
00000030: 8532 d03d 89f3 9e3d d228 393e 8b8b 513d
00000040: 951a 50be c944 bc3d aa4e 09be e377 803d
00000050: 105b 02be 0fd4 6f3d 6291 d3bd 6de2 733d
00000060: abe4 903d e1d9 b43d 2595 47bc 25fa 3e3e
00000070: 8cc1 9dbd 9098 543d fecb e9bd fabb bdbd
00000080: edf2 7dbd 892b e13d 3008 c93c 106a 2e3e
00000090: 89b9 31bd edb3 8f3d 15aa a9bd c8a7 643d
000000a0: 330a a3bd f243 ebbd 3681 503e c9bd 4cbe
000000b0: e03a a7ba 2d03 b0bd 49bf 5dbd f564 2d3e
000000c0: 66b4 653e ac5c 013e 440f 14be 86d6 41be
000000d0: cd07 313e 32b7 a73d 815f 663e 9a59 0d3e
000000e0: 53d0 ad3d d08a 32be 3e42 b73c 64a6 653b
0.051603913 0.18997192 -0.092782386 0.07237817 0.024095412 -0.15083265 -0.13649572 0.1579883
0.13604242 -0.08490837 0.040438585 0.15251948 0.10165886 0.077612944 0.18081978 0.05115847
-0.2032264 0.09192807 -0.13408914 0.062728666 -0.1273005 0.058551844 -0.10330464 0.05954211
0.07074865 0.088306196 -0.012181555 0.1865011 -0.07702932 0.051903307 -0.114158615 -0.09264369
-0.06199925 0.10994632 0.024540037 0.17032647 -0.04338983 0.0701674 -0.08284394 0.05582407
-0.0796093 -0.11487569 0.2036179 -0.19994272 -0.0012758635 -0.08594356 -0.054137502 0.16933043
0.22432098 0.12633008 -0.14458948 -0.1892949 0.17288132 0.081892386 0.2249737 0.13803712
0.08487 -0.17435765 0.022370454 0.0035041803

gru.weight_ih_l2 f4 [60, 20]
00000000: f283 d8bb 9648 cfbc 74c1 1e3e ddeb 123c
00000010: 3fbb 69bd c104 cabc b495 81bd bb5e 33bd
00000020: f6df 2abe 01aa 23be 75df 483d 4772 4dbd
00000030: c602 30be 2abd e3bd e4ae f7bd 684b 12bd
00000040: 3282 8e3b 8567 18be fa14 b5bd f719 1d3e
00000050: fc88 bdbd d937 943b 0bbd 1d3b e0b6 13bd
00000060: a65c 4bbe 90a8 e33c 37bd 5fbe aa35 0f3e
00000070: fd87 3ebe 95cc e73d dc81 713d 4c36 babc
00000080: 5a7a 2abe 9402 b7bd 04f6 873d 4965 273e
00000090: cf89 88bd 5859 5ebe 7b54 c3bd 0cec ea3d
000000a0: 466a 9dbc b3b2 563c 7a00 723d e9ff aa3c
000000b0: ae45 9fbd e3e0 d5ba fbfe c63c b2ae 67bd
000000c0: 8c6e 21be 0a76 2ebe 4bed c6bd 2dac 303e
000000d0: 3d84 c53d e167 a73d 2fed 94bc 098d 34be
000000e0: e43b 1b3d c799 6d3d b56b 193e 7fa6 8e3d
000000f0: fe3f 11be 8b14 d5ba e85a 073e e899 e73d
00000100: 30e5 373e 113b d9bd e07c 07be 647c 093d
00000110: a40b 42bd 8caf 44be 0b4e 28be d982 463e
00000120: 3943 38bd 05f2 df3d d1c9 00be 8d17 043b
00000130: a64a 563e bb9b 123d 5277 82bc 2d70 3fbe
00000140: c065 78bb 72d6 b83d 8b18 b93d 3ffd be3c
00000150: 6943 d43d 6b9d 8fbd 90e7 033d 4158 0a3e
00000160: 2995 1c3e 5378 c1bd b01c 403e c584 0b3e
00000170: 7848 973d 2038 aebd fd73 4b3c 480f 0a3e
00000180: 1275 123e 789a 31bc 18ae 33be cb73 dc3c
00000190: ef33 53be 0922 373e f827 c6bd 5bee 15bd
000001a0: 52cd 41be 1c59 de3c 3c83 013e 9d57 ccbd
000001b0: 16ee 9dbd d220 a83d a55b 61be 5201 97bd
000001c0: 243b 923c ecc6 f5bc 0ff1 023d 07f0 55bd
000001d0: 175f 27be a5eb f8bd 62df 01be bb29 29be
000001e0: 6ee6 3d3e 0d2f 06be b6d0 483d c4d7 f93d
000001f0: 1010 4a3e cc69 c73b 8721 b93d 1ea8 323e
00000200: 7ec9 3fbe 70ee 45bd 9632 423e 29a7 dcbd
00000210: 0b76 153e ec9f 29be e6bf fe3d 349c c5bd
00000220: e38f 443e 5697 3abe 5ea1 9dbd c3c9 68be
00000230: d15f 6ebe 0067 3dbe d6ed 7e3d 3d37 0ebe
00000240: 2ef6 283e c96e af3d 52cc 0abe 77b7 0abe
00000250: 8acf c0bd 433f 38be 17ce 13be 581b cebd
00000260: 0b16 e3bd 6e62 30bc b4f2 e4bd 5a8e 1f3e
00000270: 5e62 85bb 8d29 6fbd d2fb b5bd bfcd f7bd
00000280: 12cb ccbd 688c 1a3b 64a1 35be 9234 1d3d
00000290: 6be3 edbd 0f4c 263e f4c7 febd 6d87 ab3d
000002a0: 3869 193e 3eff 073e 1e8b 183e 9b42 9c3d
000002b0: eb17 1ebe c120 393e 0bf3 6b3e 3e44 88bd
000002c0: a27e 233e a4f7 633d 482b 05be f08d 89bd
000002d0: b3b1 9bbd f13e d3bd 81a4 18be f734 c5bd
000002e0: deb7 6e3c be7d 95bd 3dcc 04be 9edb 34be
000002f0: 4816 263e 45af 0c3c 69b2 d83d fa09 dcbc
00000300: 4a76 80bd 5e2d 533d 3701 44be 9741 54be
00000310: 8b9f 34be 921c 143d d4ff 21bd 7eb7 dcbd
00000320: 15e7 183d 4506 6e3e 49a8 233e 6dc1 81bd
00000330: c5ec 0a3d d703 20be fbb7 1a3e 7621 083e
00000340: c7ef 3c3e 887f c2bd 3b23 6cbe 2f01 51be
00000350: c948 c2bc 2c85 b5bc 9b2f 8fbc fb06 423d
00000360: ef1e 2f3e 6d52 15bd 3701 3b3d 0081 0cbd
00000370: 2022 873d b2fa 28be eaae 413e 107a 75bc
00000380: c762 de3d 9122 e7bd 70f6 6c3e b083 4ebe
00000390: c86d 06be 9c57 043e d969 5f3d a744 d0bd
000003a0: 3efa 753d 343f 1b3e eb93 b23d 3b3b 913d
000003b0: 5a91 6ebd 8a9a 9c3d 39fb 49be d211 32be
000003c0: 3097 053e a361 d03d d962 853d 012b b8bc
000003d0: 7e57 34be fe44 d7bd 05fb 2cbe 9292 a93a
000003e0: 1375 12be 6cdf 5abe dc53 1bbe 9833 033e
000003f0: 9c26 33bc 944b 4bbd 671b fe3d a8cb 433d
-0.006607526 -0.025303166 0.15503484 0.008967367 -0.057063337 -0.02466047 -0.06327382 -0.043791514
-0.16686997 -0.1598282 0.04904123 -0.05015781 -0.17188558 -0.111200646 -0.120939046 -0.035716444
0.0043490166 -0.1488324 -0.088418916 0.15341936 -0.09254643 0.004523259 0.0024068977 -0.036063075
-0.19859561 0.027790338 -0.21849523 0.13985315 -0.18606563 0.11318318 0.058961734 -0.022730969
-0.16648236 -0.089360386 0.06638721 0.16347231 -0.0666691 -0.2171377 -0.09537598 0.114708036
-0.019215714 0.013104129 0.059082486 0.02087398 -0.07776962 -0.0016317632 0.024291506 -0.056563087
-0.15764827 -0.17037216 -0.09713229 0.1725318 0.09644363 0.0817411 -0.018179504 -0.17631926
0.037898913 0.05800798 0.14982493 0.0696535 -0.14184567 -0.0016256733 0.13218272 0.11308652
0.17958522 -0.10606969 -0.1323123 0.033565894 -0.047374383 -0.19207591 -0.16436021 0.19385852
-0.044985984 0.109348334 -0.12576987 0.002015564 0.20926914 0.035793047 -0.015926037 -0.18695135
-0.0037902445 0.09025277 0.09037884 0.023314117 0.1036442 -0.07012447 0.032203257 0.13510229
0.15291275 -0.09446778 0.18760943 0.13624866 0.07386869 -0.08506799 0.0124177905 0.13482392
0.14302471 -0.010840051 -0.1754688 0.026910683 -0.2062528 0.17884077 -0.09675592 -0.036604267
-0.1892598 0.0271421 0.12647718 -0.099776484 -0.07711427 0.08209385 -0.22007616 -0.07373299
0.017850466 -0.03000208 0.031968173 -0.05223086 -0.16344868 -0.121543206 -0.1268287 -0.16519825
0.18544933 -0.13103886 0.049027167 0.12199357 0.1973269 0.00608561 0.09039598 0.17446944
-0.18729207 -0.048323095 0.1896461 -0.10774071 0.14595811 -0.16564912 0.124389455 -0.09648934
0.19195513 -0.18221793 -0.07696794 -0.22733216 -0.23278739 -0.18496323 0.062238537 -0.13888259
0.1650016 0.085660525 -0.13554505 -0.13546549 -0.09414585 -0.17992882 -0.14434086 -0.10063809
-0.11088189 -0.010765655 -0.111791044 0.15581647 -0.004070564 -0.058389235 -0.088859215 -0.1209979
-0.0999967 0.0023582224 -0.17737347 0.038380213 -0.11615642 0.16239952 -0.12440482 0.0837544
0.14981544 0.13280961 0.14896819 0.076298915 -0.15438811 0.18078901 0.23041932 -0.06653641
0.15966275 0.05565609 -0.13004792 -0.067165256 -0.07602253 -0.103147395 -0.14906503 -0.09629243
0.014570205 -0.07299374 -0.12968536 -0.17661902 0.16219437 0.008586709 0.10580904 -0.026860226
-0.06272562 0.051556937 -0.19141088 -0.20728146 -0.17638986 0.03616006 -0.039550617 -0.10777186
0.037329752 0.23244579 0.15982164 -0.06335721 0.033917207 -0.15626465 0.15109245 0.13294014
0.18450843 -0.09496981 -0.23060314 -0.20410608 -0.023716347 -0.022158228 -0.017478755 0.04736994
0.17101644 -0.03645556 0.045655455 -0.03430271 0.06598306 -0.16501883 0.1891438 -0.014982715
0.10858684 -0.1128589 0.23140883 -0.20167422 -0.13127816 0.12924045 0.054544304 -0.101693444
0.060053103 0.15160829 0.08719619 0.070913754 -0.058244087 0.076466635 -0.1972474 -0.1738961
0.13045955 0.10174873 0.06512994 -0.022481443 -0.176115 -0.10511206 -0.16892631 0.0012937358
-0.14302473 -0.21374291 -0.15168709 0.1281265 -0.010934498 -0.049632624 0.1240757 0.047801644

gru.weight_hh_l2 f4 [60, 20]
00000000: 2856 403e 2a6a 433e 9bb2 443e d285 41be
00000010: bdd1 75bd ba93 1e3e 955d 77bc 84b6 77bd
00000020: da56 29be a728 2fbd 01c7 3c3e 6bf2 a43d
00000030: 734c c23c 101e 78bd 7c7d 10be f7fc 26be
00000040: e370 bbbd 30ce 3e3e 8fb1 2c3e a469 e6bd
00000050: 29e1 17bc 2afb acbd cb18 7b3d 39b2 043e
00000060: 4690 f4bd abd3 333d 2ae7 60be c7a3 c5bd
00000070: 44f6 21bc 700d 36be 831a 043e 88d6 c53d
00000080: 06fb 99bd 5acc 05bd 3134 1abe 81d3 96bd
00000090: 27dc 1cbe 840a adb9 03ca 24bd 7aca febd
000000a0: ffb9 5abe d6c5 363d f448 c93d 0b71 c53d
000000b0: 26f1 653e 40a6 f43c d49c 1ebe 19a1 56be
000000c0: 256e 9b3d 67b9 c2bb b35d 403e 1c6b 2e3d
000000d0: 4c66 27be 5466 1b3e 9957 28be a6fa 483e
000000e0: 0b8e 093e 4216 313e 8a52 bc3d fce7 3ebd
000000f0: a93e 95bc c073 0b3e 05e4 20be f6e8 1abd
00000100: 5419 1b3e d2dc 073d e48a b8bc 9ad3 873d
00000110: 5483 adbd daf2 2f3e d847 0b3e c44f 1f3e
00000120: 9dea 283e 9796 3dbe 584e 1cbd 7710 103e
00000130: 222f 75bd a1c3 8bba 144d 733e 938c d13c
00000140: 33a9 e53c e385 f53d 4769 133e e7fe e33c
00000150: ce94 f73d f7e3 81bc ce12 85bd 63de f63b
00000160: 4f08 1c3e 4927 83bc 7f3f 183e c388 e9bb
00000170: 5f4b 25be 2969 da3d ae9d 8fbd d24d 4e3d
00000180: 9933 42bd 4168 703c c45d f23d c490 4a3e
00000190: 872c 17be e92f f5bc baea 213e b106 d73d
000001a0: ec36 b33d 13a9 07be a4d3 8f3d f73a 1a3e
000001b0: c608 033e 1a39 5a3d 658c 88bd 78ff 34be
000001c0: 27cb e1bd e31a 3a3d 0c5d 3fbe 974c ebbd
000001d0: f979 663e 38cb 15bd 1ecc 1bbe e0ec 5c3e
000001e0: e51d 6cbe dd26 373c 1f6a 843c ff94 223e
000001f0: b24e 15be 01bf 263e b84d 943d 799e 7ebb
00000200: cc3b 053e 71d8 d63d e464 cf3d 2f72 5d3e
00000210: bcad e33a 4b1b a73d 827d 08bd 4749 9bbd
00000220: d50a 973d a571 f3bd 352b 323e b5b9 233e
00000230: a5d2 afbd 1cc9 2a3e 7c4a 523d 5782 0b3d
00000240: 88bc 07be 5c4b 2dbe 3fcc 053d 970b 8dbd
00000250: 81bf b43d 4a78 0bbe e74d 903d 3730 d33d
00000260: 6ca6 6dbe acb5 31be b803 b93d a141 22be
00000270: a6b9 013e 5ccc 023e 486f 3fbe 5e5f 20be
00000280: f890 b13d 62c9 1a3d d2f2 67be 545d 0bbe
00000290: f79c 22be 0566 383d 27d2 26be a6be ee3d
000002a0: 45a0 1dbe 3297 453d b048 0abe 8413 223d
000002b0: 200b 793b fb47 163e 95b0 1a3d 8b1a 9ebc
000002c0: cb5f 023e b9f6 6ebe 7674 33be 0e9d 2bbe
000002d0: 3e65 9cbd 6462 65be 24ec e5bd 4d11 c13b
000002e0: 1b54 0f3c 6c9c 90bd 769d 8a3d 69f5 ef3d
000002f0: 9e63 593d 204e 383b 2298 073e 760a aa3c
00000300: 742b 34be 5e81 cc3b 92c6 67bd 4126 29be
00000310: 8a74 2abe 7ce9 3dbe 45d3 b1bc 5d0b 83bb
00000320: d1f7 913d 208b 0fbe 11e1 953c 35e4 0abe
00000330: 00b3 383e bfff 17bd 0e45 343e 3f3f 39be
00000340: 425a 5b3d 577f 9abd a891 a7bd 2945 1a3e
00000350: d51f 33be ee51 c93c b5e0 36be 6d78 2a3e
00000360: 59e4 1abe 0388 083e de24 05bd e3bf 41bd
00000370: 5596 4cbd 604d 3dbe b0a2 673e 40f2 253e
00000380: f843 35be c8c6 85bc 5a7c 373e c7b5 0cbe
00000390: c96e e8bd c2fb 05be 39f4 c8bc 399b 0bbe
000003a0: f65f 6fbd c15c 0a3d c6f9 05bd 4904 ac3b
000003b0: 0bda b93d b61c 2ebe 57b3 20be 9b90 f53a
000003c0: f253 e1bd 0b88 c0bc f70f 63bd 13a3 9dbd
000003d0: ecdb cbbd 4997 2abe ce03 96bd 545d 903d
000003e0: 0abc e1bd 7a53 353e 5f98 09bd da8b a5bd
000003f0: afc0 27be 1e25 30be 938e c7bd b592 32be
0.18782866 0.19083467 0.19208758 -0.18898705 -0.060014475 0.1548604 -0.015097995 -0.060476795
-0.16537037 -0.04276338 0.18435289 0.0805405 0.023718094 -0.060575545 -0.14110368 -0.16307436
-0.09152391 0.18633342 0.16864608 -0.11250618 -0.009269991 -0.08446343 0.06130294 0.12958612
-0.119415805 0.043903034 -0.21963182 -0.09650379 -0.009885374 -0.17778563 0.12900738 0.09660059
-0.07518582 -0.032665588 -0.15058972 -0.0736456 -0.15318356 -0.00033004966 -0.040231716 -0.12440963
-0.21360014 0.044622265 0.09828368 0.09640702 0.22455272 0.02986443 -0.15489513 -0.20959891
0.07589368 -0.005942512 0.18785743 0.042582616 -0.16347617 0.15175754 -0.16439666 0.19626865
0.13433091 0.17293647 0.091954306 -0.046607956 -0.018218355 0.13618374 -0.15711983 -0.037819825
0.1514638 0.033169575 -0.022527166 0.06632157 -0.084723145 0.17182484 0.13601625 0.15557772
0.16495748 -0.18514477 -0.038160652 0.14068781 -0.059859402 -0.001066316 0.23759872 0.025579726
0.028034782 0.119884275 0.14395629 0.027831508 0.12088929 -0.015855772 -0.06497727 0.007533835
0.15237544 -0.016009944 0.14867972 -0.007126899 -0.16142033 0.10664589 -0.07012497 0.050367184
-0.04741249 0.014673294 0.118342906 0.19781786 -0.1476308 -0.029930072 0.15812197 0.10499323
0.0875071 -0.1324809 0.07022789 0.15061556 0.12796316 0.053277113 -0.06667403 -0.17675579
-0.11025076 0.045435797 -0.18687838 -0.11489218 0.22507466 -0.036570758 -0.15214583 0.21574736
-0.23058279 0.011178699 0.016163884 0.1587715 -0.14580801 0.162838 0.07241386 -0.0038851781
0.13011092 0.10490502 0.10126665 0.21625589 0.0017370502 0.081595026 -0.03332282 -0.07582336
0.07375113 -0.1188691 0.17399295 0.1598881 -0.08585099 0.1667828 0.051340565 0.03405985
-0.13255513 -0.16923279 0.032665487 -0.06886976 0.08825589 -0.13620105 0.07046109 0.103119306
-0.23208016 -0.17354459 0.090339124 -0.15845348 0.12668476 0.1277327 -0.18694794 -0.1566138
0.08670229 0.03778971 -0.22651222 -0.1360982 -0.1588019 0.04501917 -0.16291104 0.11657457
-0.15393169 0.048239894 -0.1350429 0.039569393 0.0038001016 0.14675896 0.037766058 -0.019299766
0.12731855 -0.23336305 -0.17524895 -0.1675913 -0.07636498 -0.22400814 -0.11226681 0.005891955
0.00874808 -0.07061085 0.067683145 0.1171673 0.053073518 0.0028122738 0.13241628 0.020756941
-0.17594701 0.0062410077 -0.056585856 -0.16518499 -0.16646019 -0.18546098 -0.021707186 -0.0039991573
0.07127345 -0.14017916 0.018295797 -0.13563617 0.18037033 -0.037109133 0.17604467 -0.18090533
0.053552873 -0.075438194 -0.081820786 0.15065445 -0.17492612 0.0245752 -0.17859156 0.16647501
-0.1512617 0.13333134 -0.032505862 -0.047302138 -0.049948055 -0.18486547 0.22620654 0.16205692
-0.1770171 -0.016330138 0.1791853 -0.13741218 -0.113492556 -0.13084319 -0.024530517 -0.13633431
-0.058441125 0.033779863 -0.032708906 0.0052495343 0.090747915 -0.1700314 -0.15693413 0.0018735112
-0.110023394 -0.02350237 -0.055435147 -0.076971196 -0.09954056 -0.16659273 -0.073249444 0.07049051
-0.11022194 0.17707625 -0.033592578 -0.08083315 -0.16382097 -0.17201659 -0.09743991 -0.17438777

gru.bias_ih_l2 f4 [60]
00000000: 3044 09be 2d4f b33d 5d1c 0ebd d0f6 0a3e
00000010: e90e 393e ec9d 0abe 91b0 943c 5870 40bd
00000020: 1495 213e d756 153e 6f01 18be a1b0 0a3e
00000030: 9855 8f3d cc99 0b3e 5846 5b3e f72b 433e
00000040: 9e14 273d 1d67 aabc cf45 2d3d 8a95 3abe
00000050: bc94 4b3d 558c 6abd 24a3 c7bd 815c 233e
00000060: 4d4a d7bd 1a49 6b3e d89a 373e 3638 8c3d
00000070: a533 f0bd e402 e0bc f8bc 2f3e 390b 8ebd
00000080: d5c0 b4bd 2d11 7e3d 092f 8ebb e5d5 153e
00000090: 2e4c 443e cd6c 3c3b 247b b03d 2173 553e
000000a0: 3eaf c03d 307b 4dbd 9a45 4ebe 2064 b23d
000000b0: 8085 413c 89f9 0dbd 68ae 2abe b2d7 333e
000000c0: 716f 6dbd dd3c 08bd 22b3 fcbd 22d4 a8bc
000000d0: 1be9 a2bd b791 5e3d f616 d5bc d76e ebbc
000000e0: 5c1c 343e c9f2 c8bc aba0 71be 2a32 3e3d
-0.13404918 0.08755336 -0.034695018 0.13570714 0.18072094 -0.13536805 0.0181506 -0.04698214
0.15779525 0.14583908 -0.14844297 0.13543941 0.069987476 0.13632888 0.21413553 0.1905974
0.040791146 -0.020801121 0.042302903 -0.18221107 0.04970239 -0.057262737 -0.097479135 0.15953256
-0.105122186 0.22977105 0.17930162 0.06846659 -0.117286004 -0.027345128 0.1716193 -0.06935734
-0.08825842 0.0620281 -0.004339103 0.14632376 0.19169685 0.0028751374 0.08617237 0.208447
0.09408425 -0.05016631 -0.20143738 0.087105036 0.011811614 -0.034661803 -0.16668093 0.1756275
-0.057967607 -0.03326117 -0.12338854 -0.020608965 -0.079546176 0.054338183 -0.026011925 -0.028739376
0.17588943 -0.024529831 -0.23596446 0.04643456

gru.bias_hh_l2 f4 [60]
00000000: 5789 e3bd a952 583e 2aab 893c a246 6c3d
00000010: 1df6 13be feb9 493e 88dd 643b 06e7 ee3d
00000020: d269 653e f3b4 493d aa73 edbd 466f a8bd
00000030: 5d9d c6bd 317c 143c cb26 66bc fabc 1d3e
00000040: aae5 debd 01ba 7c3d a7e9 4a3e cbca 40be
00000050: 89d7 dcbd 54f0 fbbc c5d0 ac3c 1f5f 61be
00000060: 4f68 983d 208f 0fbe 965f 9f3c d563 613c
00000070: 538c 73be 8f5f 7f3e f862 4c3d ae7c 483e
00000080: 2ec9 f8bd ab8d 12bd eec0 3e3e f36e e83d
00000090: af35 01be 29cc 22be 1191 4e3c 5171 a63d
000000a0: 7f1c 9e3d ace8 98bd fb7f f83d a4dd 0e3d
000000b0: 3a64 82be ce2f 763d 50c8 6b3d 03da 123e
000000c0: 479a 37be f698 9fbd 7866 4d3e d6e5 e43d
000000d0: b12e bf3d 0b44 633e b134 543e 1d51 143e
000000e0: 0997 7bbd 9b17 9abd 9e13 2ebd 9f13 63bb
-0.1111018 0.21125282 0.01680525 0.05768455 -0.14449354 0.19699857 0.0034922082 0.11665158
0.22403648 0.049244832 -0.11594327 -0.08224349 -0.096979834 0.009062813 -0.014047335 0.1540412
-0.10883649 0.061700825 0.19815694 -0.1882736 -0.107832976 -0.030754246 0.021095643 -0.22008942
0.0744177 -0.14019442 0.019454759 0.013756712 -0.23783998 0.24938796 0.04989907 0.19578812
-0.12147747 -0.035779636 0.18628284 0.11349287 -0.12618135 -0.15898193 0.012607829 0.08127082
0.07720279 -0.07466254 0.12133785 0.03487934 -0.25467092 0.060104184 0.05756408 0.14340977
-0.17929946 -0.07792847 0.2005862 0.1117665 0.093350776 0.22193925 0.20723225 0.14484067
-0.061423335 -0.07524034 -0.042499177 -0.0034649146

gru.weight_ih_l3 f4 [60, 20]
00000000: 654e 463e 0694 64be ba1d 28be be71 aebd
00000010: 9fcc b3bd 9a2c 1d3d e566 e6bc 0e7d ad3d
00000020: dcd9 373e 7e6d 5cbe d41c 09be 51fe 4ebe
00000030: aea0 743d 5d97 523e 4102 503e 2392 363e
00000040: 6b00 1a3e 4a5f 953d 2243 383e 3894 db3c
00000050: 33cb c33d f5d9 0ebe 5b12 3b3e be8a be3d
00000060: ee77 8e3d 3c7b 4dbd df41 38be 9b6e a0bd
00000070: fb5b c6bb 62c9 263e baef 823d 19db 96bd
00000080: f9e7 0ebe e4e8 5cbe b1f2 cb3d d111 dd3d
00000090: 0daa 00be ba00 cc3c 1ca8 513e d547 69be
000000a0: 9771 1e3e 5ff1 96bd 13cf 58bd 6795 443d
000000b0: 9913 32bd f01d 06be 72ea 233e 21f6 bfbd
000000c0: c818 393e 185a d93d bcd1 0c3e ed76 f23b
000000d0: 0f44 95bd 8183 96bd 67a8 a63c c151 443e
000000e0: 3de6 61be 9f46 26be bfc2 de3d fcfc fa3d
000000f0: 0207 c8bd 965e 1f3e deae 273d a0df 1d3e
00000100: f767 09be 1469 2e3e ab8c 7ebc 4066 573d
00000110: 3148 043c 42ec 383e 5142 b7bc a465 243d
00000120: 3175 52bd a83c 243e 4c51 423e 86ac 66be
00000130: 01c8 3ebd 281f 46bd 5bf7 0c3e b2e4 3fbe
00000140: 1bdf 15be ac14 893d 6bac fe3c bb39 debd
00000150: a290 48be c532 113e 9157 213e f990 0d3e
00000160: fbf4 8fbd 40e0 343d bb13 6fbd 4843 f23d
00000170: e9ce 683d 4a68 0f3e 0258 a13d 64be 983d
00000180: 45e9 0e3e bc80 1d3c 2945 04be a807 00be
00000190: 50e0 243d 5b59 003e c607 20be 0384 d63d
000001a0: e373 10be 8f13 a93d 3c35 073e 4cad 7abd
000001b0: 181b 4a3e 722d 833d 6f3f 03be b56e 69bd
000001c0: b39a 1dbe 641f 01be 2b43 2bbd 1e8e 743e
000001d0: 0d54 d73d 56a8 45be f821 043e 3f51 313e
000001e0: e7f4 813d c032 d0bd f7a2 103e 4029 083e
000001f0: 6f80 89bc 98fe eb3d 920c e53c 8747 9b3c
00000200: 4760 ecbd fbff 033e cfd2 693e c922 27be
00000210: d8af c03b 637b 58be 146d 6abe a3d1 9bbd
00000220: 94f6 65bd e718 2cbd d89b fe3d 0612 373e
00000230: 2bce 3f3e 4e13 023d ef09 b8bd 5073 2ebe
00000240: 8474 f8bd 76bb 00bc b440 20bd c891 bbbd
00000250: 2de9 36be bddf fe3d 8a19 4fbe 4888 913c
00000260: badc 62bd 4c01 3dbd c291 2ebe 83a1 20bd
00000270: 2242 3b3d e42c d8bc feec 773d 972a 8e3d
00000280: c2cb b93d dbe3 da3d cb8e a73c cae9 2d3e
00000290: e292 bf3d d133 303e 4722 f13d 6b42 bb3d
000002a0: 2ed6 ecbd 96bc 8ebd 8bf3 183e f15a 143c
000002b0: 6dec 5f3e e91d a6bd 73f5 46be 09da 343e
000002c0: 303c 3abe 74df 41be 938b 3cbd 748a e53d
000002d0: a5bc 6c3e 03d7 67be 17d1 37be 5d73 c3bc
000002e0: cc49 0fbe 2983 6ebe 5419 8a3d 8e79 7fbd
000002f0: 71f1 3e3e e525 47be 84db efba b920 1bbe
00000300: a842 0d3e 47e1 433e 0435 f7bd 4c05 3f3e
00000310: 901a 363e d2b3 ffbc 6007 833d 1b5a ccbb
00000320: e544 0f3d 6172 79bd d187 273e d607 09be
00000330: d0e9 0abe 5156 d5bd b941 e13d 1d12 cfbd
00000340: d947 123d 6ed1 4ebe 4d73 67be b841 1e3e
00000350: 4be3 67be 3b94 f3bd a8cf 8abd b2eb 34be
00000360: 8151 ff3b 89f6 32be 3029 1f3e a6fc 093d
00000370: 3bd1 8ebd a94b 3abe 0501 febd 6550 19bd
00000380: ca19 41be 6698 193d 48af db3c b8a0 113e
00000390: 5c66 3d3e 634a ac3c dbcd 18be 0ede 54bd
000003a0: c03a ec3d f2e5 703e b5be 213e 7e2a 513d
000003b0: 4b5f 9abd 8649 54be e00d c13d eefc 07be
000003c0: 259d 9c3d d86f 5abe bde6 50be 6e7d 20be
000003d0: 19a5 043e de84 92bd e521 f33c 849f 903d
000003e0: 52ce a43d 19fc 5dbe ea3a 6d3b 3d7c ae3c
000003f0: b422 c3bd bc9a 0abe fd04 573e d9d9 213e
0.19365843 -0.22322091 -0.1641759 -0.08517788 -0.08779263 0.038372613 -0.028125236 0.08471118
0.179542 -0.21526143 -0.13389903 -0.20214202 0.05972355 0.20565553 0.2031336 0.17829184
0.15039222 0.072935656 0.17994359 0.026804075 0.095602416 -0.13950332 0.18268721 0.09303807
0.069564685 -0.050166354 -0.17993878 -0.07833596 -0.0060534454 0.16287759 0.063933805 -0.07366008
-0.13955678 -0.21573216 0.09958399 0.10794414 -0.12564869 0.02490269 0.20474285 -0.22781308
0.15473019 -0.07370257 -0.052931856 0.047994044 -0.04347572 -0.13097358 0.16007403 -0.09373117
0.1807586 0.10612887 0.13751882 0.007399431 -0.07288372 -0.07349301 0.020343972 0.19171812
-0.22060485 -0.16237877 0.108769886 0.12255284 -0.09766962 0.15563425 0.04093825 0.15417337
-0.13418566 0.17032272 -0.015536468 0.052587748 0.008073852 0.18058875 -0.02237049 0.040135995
-0.051381294 0.16038764 0.18976325 -0.2252675 -0.046577457 -0.048369557 0.13766234 -0.18739584
-0.14635889 0.06693396 0.031088075 -0.10850855 -0.19586423 0.14179523 0.1575606 0.13824834
-0.07029148 0.044159174 -0.058368426 0.11829239 0.05683795 0.14004627 0.07878114 0.07458189
0.13956173 0.009613212 -0.12917008 -0.1250292 0.040252984 0.12534086 -0.15627965 0.10474398
-0.14106707 0.08255684 0.13203901 -0.061200425 0.19736898 0.064051524 -0.12817167 -0.056990344
-0.15391044 -0.12609631 -0.041812103 0.23882338 0.10514078 -0.19302496 0.12903583 0.17316149
0.063455395 -0.1016593 0.14124666 0.13296986 -0.016784875 0.11523169 0.027960096 0.018955005
-0.11541801 0.12890618 0.22834323 -0.16321863 0.005880337 -0.21140818 -0.22893173 -0.076083444
-0.05614336 -0.042015936 0.124320686 0.17877969 0.1873099 0.03175669 -0.0898627 -0.17036176
-0.121315986 -0.007857194 -0.039124206 -0.09158665 -0.17862387 0.124450184 -0.20224586 0.01776518
-0.055386283 -0.046143815 -0.1704779 -0.03921653 0.045717366 -0.026388593 0.060528748 0.06941717
0.09072067 0.10687991 0.020453831 0.16983715 0.093541875 0.17207266 0.11774116 0.091435276
-0.11564289 -0.06969564 0.14936654 0.009054885 0.21867533 -0.08111174 -0.19429569 0.17661299
-0.18187022 -0.18932897 -0.046031546 0.112080485 0.23118837 -0.22640614 -0.17950855 -0.02385872
-0.13992995 -0.23292221 0.06743112 -0.062371783 0.1864679 -0.1944805 -0.0018299674 -0.15149201
0.13794959 0.19128905 -0.12070659 0.18654364 0.1778357 -0.031213675 0.06397891 -0.0062363273
0.034977812 -0.060900096 0.16360404 -0.13381895 -0.13565755 -0.10416854 0.10998864 -0.10110877
0.03571305 -0.20197079 -0.22602578 0.15454757 -0.22645299 -0.11893507 -0.067778885 -0.17668036
0.0077916984 -0.17476858 0.15543056 0.03368821 -0.06973501 -0.18192925 -0.12402538 -0.037430186
-0.18857494 0.037498854 0.026816979 0.14221466 0.18496078 0.021031564 -0.14922278 -0.05196958
0.11534643 0.23525217 0.15795405 0.051065914 -0.07537707 -0.20731172 0.094264746 -0.13280079
0.076471604 -0.21331728 -0.2040052 -0.15672848 0.12953605 -0.07154249 0.029679248 0.07061675
0.08047165 -0.21678199 0.0036198446 0.021299476 -0.095281035 -0.13535589 0.20997997 0.15805759
