model-RNN-DDPG/just_theta/old/newer_1/Q.pth (torch, 111863 bytes, 52 tensors)

gru.weight_ih_l0 f4 [60, 1]
0	0xbd874cc6	-0.0660644
1	0x3c29cbfd	0.010363576
2	0xbe398259	-0.1811613
3	0x3c8bff53	0.017089522
4	0x3ddcf600	0.10789108
5	0x3e4bf955	0.19919331
6	0xbc87b360	-0.016565025
7	0xbd3afa92	-0.04564912
8	0xbcb8b10a	-0.022545356
9	0xbd238b16	-0.039927565
10	0x3e16cd84	0.14726835
11	0xbe3343e2	-0.17506364
12	0xbe4c5716	-0.19955096
13	0x3e681c3f	0.22667025
14	0x3dff6f33	0.124723814
15	0xbde66da9	-0.11251385
16	0x3d9006d2	0.07032551
17	0xbdeab818	-0.11460894
18	0xbcd963da	-0.02653687
19	0x3bfe08ee	0.0077525293
20	0xbd92b991	-0.071643
21	0xbe1bc098	-0.15210187
22	0xbc8e831c	-0.017396502
23	0x3d4fc1ad	0.050721813
24	0x3d69f03b	0.057113867
25	0xbe5f8e50	-0.21831632
26	0xbe545ba6	-0.20738086
27	0xbd9d6e6c	-0.07687077
28	0x3e2aaf8d	0.1666853
29	0x3d2304f0	0.03979963
30	0xbdf4a2cb	-0.11945113
31	0x3dbeb0f2	0.093110934
32	0x3e3d786a	0.18502966
33	0x3c6875c3	0.014188233
34	0x3d4d871a	0.05017767
35	0xbdacd627	-0.08439284
36	0x3dd69304	0.1047726
37	0xbe47b85f	-0.19503926
38	0x3d2610f3	0.040543508
39	0x3e4bb52e	0.19893333
40	0xbdc034b4	-0.09385052
41	0x3da174a3	0.07883575
42	0xbe023c83	-0.12718396
43	0xbe0163bb	-0.126357
44	0xbe797465	-0.24360807
45	0xbe3fdb5e	-0.18736026
46	0x3de35f46	0.11102156
47	0x3df49596	0.11942594
48	0x3d48f1eb	0.049058836
49	0xbd7206b9	-0.059088442
50	0xbe4dd7b4	-0.20101815
51	0x3db6c455	0.08924166
52	0xbd875a6b	-0.06609043
53	0x3e1f7a69	0.1557404
54	0xbe938ecc	-0.28819883
55	0x3ddbd562	0.10734059
56	0x3e39fe69	0.18163456
57	0xbe7687db	-0.24075262
58	0x3d063d3c	0.03277324
59	0xbe284647	-0.16433059

gru.weight_hh_l0 f4 [60, 20]
0	0xbcdd5b20	-0.02702099
1	0xbd3bec27	-0.04587951
2	0xbcd128ab	-0.025532087
3	0xbadebb36	-0.0016993049
4	0xbe49a9a9	-0.19693626
5	0xbca81668	-0.020518497
6	0xbe595688	-0.21224415
7	0x3e214166	0.15747604
8	0xbbfad17b	-0.0076543665
9	0xbe369830	-0.17831492
10	0x3dc21026	0.09475736
11	0xbd88bd2b	-0.06676706
12	0xbd87bb0f	-0.066274755
13	0x3e436667	0.19082032
14	0xbdf12d4b	-0.11776217
15	0x3ce7f649	0.02831568
16	0x3dbfd61f	0.09367012
17	0x3bd74261	0.0065691923
18	0x3d88f104	0.06686595
19	0xbe3765df	-0.17909954
20	0xbde28b6f	-0.11061751
21	0x3d6799a8	0.056543022
22	0x3e0cd29a	0.13752213
23	0x3e4ef655	0.20211156
24	0x3e4ee7b9	0.20205583
25	0x3ba3b9cb	0.0049965135
26	0x3e4d1353	0.20026903
27	0xbe0784e3	-0.13234286
28	0xbdc70981	-0.097186096
29	0xbe2ffd4f	-0.17186473
30	0xbe49eea5	-0.19719942
31	0x3e609da4	0.21935135
32	0xbe4ca130	-0.19983363
33	0xbd53247e	-0.051548474
34	0xbdd6719f	-0.1047089
35	0x3d6b99e4	0.05751981
36	0xbe4d0336	-0.20020756
37	0x3e4f10ac	0.20221204
38	0x3b728236	0.0037003881
39	0xbd4fbb9e	-0.050716035
40	0x3e24d71f	0.16097687
41	0xbd9160b5	-0.070985235
42	0xbe283186	-0.16425142
43	0x3e3df017	0.18548618
44	0x3d065bd3	0.032802414
45	0x3e58f306	0.21186456
46	0x3de7cdcc	0.113185495
47	0x3e1d887f	0.153841
48	0x3e090e5f	0.13384388
49	0xbe0e24ee	-0.13881275
50	0xbd6e0460	-0.05810964
51	0x3e567693	0.2094367
52	0xba2e8a62	-0.0006658194
53	0x3c090925	0.008363997
54	0x3e3f6ef5	0.1869467
55	0x3d76ee49	0.06028584
56	0xbde62997	-0.112384014
57	0x3d1b798f	0.037957724
58	0xbc875388	-0.016519323
59	0xbe31d2a4	-0.1736551
60	0xbe2e5b8f	-0.17027114
61	0xbdb6746d	-0.08908925
62	0xbe2d1931	-0.16904141
63	0xbd3243e2	-0.04352177
64	0xbe24cc13	-0.16093473
65	0xbe504895	-0.20340188
66	0xbcf0c100	-0.029388905
67	0xbde4ac91	-0.11165727
68	0xbe0b3f75	-0.13598426
69	0xbe300236	-0.17188343
70	0x3d9a9cfb	0.07549473
71	0x3c233eef	0.009963735
72	0x3e2cf8b3	0.16891746
73	0xbd49f2b9	-0.049303744
74	0x3d4ffcae	0.050778084
75	0xbdcfccef	-0.1014651
76	0x3dce5103	0.100740455
77	0x3da48494	0.080331
78	0xbdf55441	-0.11978961
79	0xbe12aeba	-0.14324465
80	0x3ddfd1ba	0.10928674
81	0x3d9b0460	0.07569194
82	0x3e3e8cbe	0.18608376
83	0xbdef6433	-0.11689033
84	0x3e5157c3	0.20443635
85	0xbbe550db	-0.006998164
86	0x3c558651	0.013032512
87	0xbd7dc663	-0.061956774
88	0xbd8c27e1	-0.06843544
89	0x3db7e579	0.08979315
90	0xbe05a7f1	-0.13052346
91	0xbe0a804b	-0.13525502
92	0x3d79be6d	0.06097262
93	0x3a7c6f8d	0.00096296595
94	0xbe2af7c9	-0.16696085
95	0x3d8ea051	0.06964172
96	0x3e224974	0.15848333
97	0xbe11f0af	-0.1425197
98	0xbe4ce7b7	-0.20010267
99	0xbe2040a6	-0.15649661
100	0x3dfa6c28	0.122276604
101	0x3e1aa3b3	0.15101509
102	0x3e3420bf	0.17590617
103	0x3dfe91f8	0.12430185
104	0xbdb1218c	-0.08648977
105	0x3dd7c339	0.10535283
106	0x3e5a03ef	0.21290563
107	0xbd5cc886	-0.05390217
108	0xbdde461b	-0.10853215
109	0x3e25aba1	0.16178752
110	0x3e15b0b5	0.1461819
111	0x3aee9eee	0.0018205324
112	0x3e183670	0.14864516
113	0x3e05f97e	0.13083455
114	0xbe0a32b3	-0.13495903
115	0x3d2a63f6	0.041599236
116	0xbe120bfc	-0.14262384
117	0xbdb53084	-0.08847144
118	0x3dd94956	0.10609691
119	0xbd17e048	-0.037079126
120	0x3e184d86	0.14873323
121	0xbe409555	-0.18806966
122	0xbe4faf1b	-0.20281641
123	0xbc8f4403	-0.017488485
124	0xbe27fd38	-0.16405189
125	0x3df517b5	0.119674124
126	0xbe376d07	-0.17912684
127	0xbd2ffb34	-0.042964175
128	0x3da5b007	0.08090215
129	0xbd94b52e	-0.0726112
130	0xbe215610	-0.15755486
131	0x3e4e3d1f	0.20140503
132	0x3e4cdc35	0.20005877
133	0xba3ed91f	-0.00072802784
134	0xbe38d659	-0.18050517
135	0x3d2ebb56	0.042659126
136	0x3e379ed7	0.17931686
137	0x3e08327a	0.13300505
138	0xbe126c97	-0.14299236
139	0x3e195e3e	0.14977357
140	0x3d9cfe52	0.07665695
141	0x3d27df17	0.04098424
142	0xbe2f6ec8	-0.17132103
143	0x3deb3f37	0.11486667
144	0x3e36406f	0.17798017
145	0x3d3abeb7	0.045592036
146	0x3df2bf57	0.118529014
147	0xbda3b280	-0.079930305
148	0x3e0da2a3	0.13831572
149	0xbdc4f44d	-0.09616909
150	0x3d769fbb	0.060210925
151	0x3bc20f91	0.005922266
152	0xbe09f89d	-0.13473745
153	0xbe026335	-0.12733157
154	0x3cb92927	0.02260263
155	0xbe4aa803	-0.19790654
156	0xbdc3b882	-0.095566764
157	0x3e55d6fd	0.20882793
158	0xbe285017	-0.16436802
159	0x3e23459f	0.15944527
160	0xbd3adce3	-0.04562081
161	0x3d75eec9	0.060042176
162	0xbe52f3e3	-0.20600848
163	0x3cf30665	0.029666135
164	0xbe528046	-0.20556745
165	0xbd1cd0bb	-0.038285
166	0x3c440202	0.011963369
167	0xbe5b647c	-0.2142505
168	0xbe4dab98	-0.20084989
169	0xbe3036bd	-0.17208381
170	0x3bd74f97	0.006570767
171	0xbe44b34b	-0.1920902
172	0x3e0ec5d7	0.13942657
173	0xbda7dd70	-0.08196533
174	0x3e1c62bd	0.1527204
175	0xbe52036f	-0.20509122
176	0xbd2deaca	-0.04246024
177	0x3d894ded	0.06704316
178	0xbde2ceab	-0.11074575
179	0x3e498370	0.19679046
180	0xbe61a795	-0.22036584
181	0xbe2b92a0	-0.16755152
182	0xbdfc2fa3	-0.123137735
183	0x3e5f0991	0.21780993
184	0x3ba1c5c6	0.0049369065
185	0xbe654adc	-0.22391838
186	0xbdd335eb	-0.103130184
187	0x3e64033e	0.22266862
188	0x3df460c7	0.11932521
189	0xbde780d5	-0.1130387
190	0x3e4feee3	0.20305972
191	0xbd995618	-0.07487124
192	0x3e5f1282	0.21784404
193	0xbc16935a	-0.009190405
194	0x3e06101b	0.13092081
195	0x3df74bcf	0.12075006
196	0x3e021b6b	0.12705772
197	0x3e53b97f	0.2067623
198	0x3e35d7d2	0.1775811
199	0xbd619811	-0.055076662
200	0x3ddf25de	0.108958945
201	0xbd4f7816	-0.050651632
202	0xbdc0d787	-0.094161086
203	0xbe25b1e7	-0.16181146
204	0xbddc5e9e	-0.10760234
205	0xbe316aff	-0.17325972
206	0xbe202db4	-0.15642434
207	0xbe26c25e	-0.16285083
208	0x3e111a86	0.14170274
209	0x3dc3a927	0.095537476
210	0x3bf0e079	0.007350978
211	0x3e087bbe	0.13328454
212	0x3d467c45	0.048458356
213	0xbe24fa0f	-0.16111015
214	0x3e21935a	0.15778866
215	0x3dc266f2	0.094922915
216	0x3dcb4f8c	0.09927282
217	0x3d02f1f1	0.031969015
218	0x3d8c8724	0.068617135
219	0x3d975e39	0.073910184
220	0x3de25347	0.1105104
221	0xbdc0a8ae	-0.09407173
222	0xbe1ce0fc	-0.153202
223	0xbc67966f	-0.014134987
224	0x3e3212a5	0.17389925
225	0x3c2b2562	0.0104459245
226	0xbe57a2c4	-0.21058184
227	0xbe2d119c	-0.16901249
228	0x3d9d3064	0.076752454
229	0xbe41f73c	-0.18941969
230	0xbe210f64	-0.15728527
231	0x3d009d09	0.03139976
232	0xbe38818d	-0.1801817
233	0xbe54c5fd	-0.20778652
234	0x3e4af64b	0.19820516
235	0xbd6c3c45	-0.057674665
236	0x3dcc6a7d	0.099812485
237	0xbdbe11b0	-0.092807174
238	0x3e033333	0.128125
239	0xbde59e52	-0.11211838
240	0x3d0f0789	0.034919295
241	0x3c924f21	0.017859997
242	0xbe1511b9	-0.14557542
243	0x3d22e807	0.03977206
244	0x3e228f1c	0.15874904
245	0x3e1e1f88	0.15441716
246	0xbd0c45a6	-0.03424611
247	0x3d05a05f	0.032623645
248	0xbbf7a979	-0.0075580445
249	0xbcb40ca1	-0.021978678
250	0x3e04232f	0.12904046
251	0x3e5015a8	0.20320761
252	0x3e02de4f	0.12780116
253	0xbde2d1ba	-0.110751584
254	0xbe11c588	-0.14235508
255	0x3df79ba1	0.12090231

gru.bias_ih_l0 f4 [60]
0	0xbde618f5	-0.11235229
1	0xbc053f57	-0.008132777
2	0x3d5cbe5b	0.053892475
3	0x3e10dc0d	0.14146443
4	0xbd8c0783	-0.0683737
5	0xbdc28f4d	-0.09499989
6	0x3bceec2f	0.0063147764
7	0x3e1b3f5b	0.15160887
8	0xbe570571	-0.2099817
9	0x3e5c4fd6	0.2151483
10	0x3e1f6df4	0.15569288
11	0xbe1cc41a	-0.15309182
12	0x3e32b9b1	0.17453648
13	0x3e14f233	0.14545517
14	0xbe3f23da	-0.1866602
15	0xbdfb2e18	-0.12264651
16	0x3d901280	0.070347786
17	0xbe2b7d61	-0.16747047
18	0xbbb55a7d	-0.0055344687
19	0xbd026d83	-0.03184272
20	0x3d9095d1	0.07059825
21	0x3d1d51d5	0.03840812
22	0x3d89d2fb	0.067296945
23	0xbdc54c1c	-0.09633657
24	0x3ca3f30b	0.020013353
25	0xbd2b9601	-0.0418911
26	0xbe3dca68	-0.18534243
27	0x3e1eef71	0.15521027
28	0xbdb9c97b	-0.090716325
29	0x3e33564d	0.1751339
30	0x3d980a64	0.07423857
31	0xbdd185fc	-0.102306336
32	0x3d5efe5c	0.054441795
33	0x3e176017	0.14782749
34	0x3caddd94	0.02122382
35	0x3e30c430	0.1726234
36	0x3d72ba2d	0.059259582
37	0xbdcbc102	-0.09948923
38	0xbe22d77f	-0.15902518
39	0xbdbb4566	-0.09144096
40	0xbe315435	-0.17317279
41	0x3afc61a9	0.0019255179
42	0xbe4e275d	-0.20132203
43	0x3e396bb1	0.18107487
44	0xbe00555c	-0.12532562
45	0xbe3f9c98	-0.1871208
46	0x3cfb99a5	0.030712912
47	0x3da71b1c	0.081594676
48	0xbe5d2c24	-0.2159887
49	0xbe2240de	-0.15845057
50	0x3de08ec0	0.109647274
51	0xbcf7b7bb	-0.030238977
52	0x3e4163e5	0.18885763
53	0x3e4cd13b	0.2000169
54	0xbe39e554	-0.18153888
55	0xbc8c7962	-0.017147724
56	0xbe01cfdb	-0.12676947
57	0xbd41326b	-0.047167223
58	0x3d1dcebc	0.038527235
59	0x3df3e74f	0.11909353

gru.bias_hh_l0 f4 [60]
0	0xbd5c5fe7	-0.053802397
1	0x3e378881	0.17923166
2	0xbe23f0a2	-0.16009763
3	0x3d9c3edd	0.07629178
4	0xbe440676	-0.1914309
5	0x3de36d62	0.111048475
6	0xbe0c18ee	-0.13681385
7	0x3df39791	0.118941434
8	0xbdc15063	-0.09439161
9	0xbde2716f	-0.11056792
10	0x3e29d753	0.16586046
11	0xbdbc4363	-0.091925405
12	0xbe2c5244	-0.16828257
13	0xbd21c891	-0.039497916
14	0xbe3e2f4f	-0.18572734
15	0x3d99c21f	0.07507729
16	0xbe46c2f6	-0.19410309
17	0xbe5d85e0	-0.216331
18	0xbd808bf7	-0.06276696
19	0xbe269bde	-0.16270396
20	0x3e52f289	0.20600332
21	0x3ddb14fa	0.1069736
22	0xbc98c9b8	-0.018650874
23	0xbc3bf027	-0.011470831
24	0xbc571624	-0.013127837
25	0x3e435fd5	0.19079526
26	0x3e1cab39	0.15299691
27	0x3e00c305	0.12574394
28	0xbe0f2f61	-0.13982917
29	0xbe1acdad	-0.15117522
30	0x3d1b62de	0.037936084
31	0x3da43a59	0.080189414
32	0xbe1837ae	-0.1486499
33	0xbe1fd236	-0.15607533
34	0x3dd0f929	0.102037735
35	0xbc4fc9ce	-0.012682391
36	0x3d8729bf	0.06599759
37	0xbdb6a33d	-0.08917854
38	0xbe0581c2	-0.1303778
39	0xbcd77945	-0.026302943
40	0x3da34164	0.07971457
41	0x3e315d9a	0.17320862
42	0x3e5367da	0.20645085
43	0xbd799f15	-0.060942728
44	0x3e1c9bf4	0.15293866
45	0x3cb4ab7b	0.022054425
46	0x3e489885	0.19589432
47	0x3e4bcba9	0.19901909
48	0xbe52326a	-0.20527044
49	0x3dafa3bc	0.08576152
50	0xbe12042c	-0.14259404
51	0xbe4dbbdf	-0.20091198
52	0xbe1c6071	-0.15271164
53	0xbd5db1bd	-0.054124583
54	0x3c59075f	0.013246386
55	0xbce917e5	-0.028453777
56	0xbe41a584	-0.18910795
57	0x3debaf84	0.11508086
58	0xbe1f9f1d	-0.1558804
59	0xbc6162b3	-0.013756442

gru.weight_ih_l1 f4 [60, 20]
0	0xbda96a15	-0.08272187
1	0xbe26ac1b	-0.1627659
2	0x3db423c9	0.08795888
3	0x3ccdd28f	0.025124816
4	0xbe49ae7e	-0.1969547
5	0x3d88b5c7	0.06675296
6	0x3dc3d70f	0.095625035
7	0xbdf94b96	-0.1217262
8	0x3d8bbc7f	0.06823062
9	0x3e46a251	0.19397856
10	0xbd940946	-0.07228331
11	0xbd0337d5	-0.032035667
12	0x3ddb41bc	0.10705897
13	0xbda0a190	-0.078433156
14	0x3d379463	0.044819247
15	0xbe2e2189	-0.1700498
16	0x3e078342	0.13233665
17	0x3e3fec45	0.18742473
18	0x3d3a3059	0.045456264
19	0xbd91f812	-0.07127394
20	0x3de6f1d0	0.11276591
21	0xbd33bc6b	-0.04388086
22	0xbc7ab3ed	-0.015301687
23	0xbe65fdae	-0.22460052
24	0x3e088728	0.13332808
25	0xbc2a5d92	-0.010398285
26	0xbe09a2a1	-0.13440944
27	0xbdfecb21	-0.124410875
28	0xbbe17de8	-0.0068814643
29	0x3e256ce7	0.16154824
30	0xbe5d07d9	-0.21585025
31	0xbe031c16	-0.12803683
32	0x3c840a12	0.016118083
33	0x3cf9096d	0.030400002
34	0x3dc9e2e6	0.098577306
35	0xbd906caa	-0.07051976
36	0xbd1c4500	-0.03815174
37	0xbd781aea	-0.060572542
38	0xbe17483f	-0.14773653
39	0x3d9626df	0.07331633
40	0x3e17b763	0.1481605
41	0x3e48c0c7	0.19604789
42	0xbe4a515b	-0.19757597
43	0x3e33db99	0.17564239
44	0xbe1826b5	-0.14858516
45	0xbc10d1cb	-0.008839081
46	0x3e0d1ec9	0.13781275
47	0xbb0804cf	-0.002075482
48	0xbe57cfc8	-0.21075356
49	0x3d7148e2	0.058907397
50	0xbcbb23bf	-0.022844194
51	0xbdc25dea	-0.09490569
52	0x3e21f17b	0.15814774
53	0xbe0f10bf	-0.13971232
54	0x3e48d906	0.19614038
55	0x3ccb7976	0.02483819
56	0xbe575e00	-0.21031952
57	0x3dba1870	0.09086692
58	0x3e123555	0.14278157
59	0xbe2f83cd	-0.17140122
60	0x3e06e65f	0.13173817
61	0x3d4aaed0	0.04948312
62	0x3d972669	0.07380373
63	0x3e433d3b	0.19066326
64	0x3e4ed215	0.20197327
65	0xbe284c54	-0.16435367
66	0x3dbf3860	0.093369246
67	0x3e0096f1	0.1255758
68	0x3e44050f	0.19142555
69	0xbbde9073	-0.006792122
70	0xbe478ef9	-0.19488133
71	0xbd427194	-0.047471598
72	0xbdfb3b4f	-0.122671716
73	0x3e149590	0.14510179
74	0xbcdc8d5a	-0.02692287
75	0x3ded8a32	0.11598624
76	0x3d903b81	0.070425995
77	0x3e2617c0	0.16219997
78	0x3db36789	0.08759982
79	0x3c8a1871	0.016857358
80	0xbe6123f0	-0.21986365
81	0xbe4ddc66	-0.20103607
82	0xbe43550e	-0.19075415
83	0xbe08d4fb	-0.13362496
84	0xbe265b6a	-0.16245809
85	0xbd88c33b	-0.06677862
86	0x3db4bacc	0.08824691
87	0x3dc86256	0.09784381
88	0xbe0eb70b	-0.13937013
89	0x3c50507a	0.0127145
90	0x3e0a7484	0.1352101
91	0xbd79a548	-0.06094864
92	0xbe2aa5f0	-0.16664863
93	0xbca83b96	-0.020536225
94	0x3e0e1cba	0.13878146
95	0x3e33154d	0.17488594
96	0x3e1fef48	0.15618622
97	0x3bd3e2ae	0.0064662313
98	0xbe0aaec4	-0.1354323
99	0x3e495a23	0.1966329
100	0xbe35000f	-0.17675804
101	0xbe41838f	-0.18897842
102	0xbe1e8507	-0.15480433
103	0x3e46cf4d	0.19415016
104	0x3d6cbeda	0.057799198
105	0x3e4af9bf	0.19821833
106	0x3ddd0d11	0.10793508
107	0xbd2b989d	-0.04189359
108	0x3dc1215d	0.09430192
109	0x3df73f38	0.12072605
110	0x3e33c247	0.1755458
111	0xbd126c20	-0.035747647
112	0xbd9d178e	-0.07670508
113	0x3e090222	0.1337972
114	0x3dc352d5	0.09537283
115	0xbe27a44a	-0.16371265
116	0xbe3ac666	-0.18239745
117	0x3e178a7c	0.14798921
118	0x3d72da6d	0.05929034
119	0x3da5a284	0.08087638
120	0x3def70f8	0.11691469
121	0x3d8565b4	0.06513539
122	0x3d317b9a	0.043330766
123	0x3df2f044	0.11862233
124	0x3e2e38f6	0.17013916
125	0x3e21bade	0.1579394
126	0xbd4ab12d	-0.049485374
127	0xbda59a9f	-0.08086132
128	0x3d57b733	0.052664947
129	0x3e613198	0.21991575
130	0xbe18b433	-0.1491249
131	0xbe376690	-0.17910218
132	0x3e243246	0.16034803
133	0xbe08ed84	-0.13371855
134	0xbd4d2e10	-0.050092757
135	0x3db0e0bb	0.08636614
136	0x3c9b4a8b	0.018956443
137	0xbd460f09	-0.048354182
138	0x3de64d83	0.11245253
139	0xbd80ead1	-0.06294788
140	0xbda701b9	-0.081546254
141	0x3e28f8b8	0.16501129
142	0x3c1d35cc	0.009595346
143	0x3c1ae737	0.00945454
144	0xbdf81a0f	-0.12114345
145	0x3c245fa0	0.010032564
146	0x3d074fc4	0.033035055
147	0xbd9c137e	-0.07620905
148	0xbb5a4a1c	-0.0033308333
149	0xbe58a8ba	-0.21158114
150	0xbe46f287	-0.19428454
151	0x3e09ba19	0.13449897
152	0x3e4554cc	0.19270629
153	0x3d4c4420	0.049869657
154	0xbe27f6dc	-0.16402763
155	0x3de0b3fb	0.109718286
156	0x3d62c8b0	0.05536717
157	0x3d1e118e	0.03859096
158	0x3ddcfd3c	0.10790488
159	0x3dba339f	0.09091877
160	0x3e568100	0.20947647
161	0x3db92d17	0.09041803
162	0x3e404efc	0.1878013
163	0x3e43f9a6	0.19138202
164	0x3e040812	0.12893704
165	0xbdef984a	-0.11698969
166	0xbde55085	-0.111969985
167	0xbe10de4e	-0.14147303
168	0xbde01559	-0.10941572
169	0x3e02da3f	0.12778567
170	0x3dac1bfd	0.08403776
171	0xbdc0b001	-0.0940857
172	0x3b5415f4	0.0032361718
173	0xbe437ad1	-0.1908982
174	0x3def01e4	0.116702825
175	0x3e3be79e	0.18350074
176	0xbe49664a	-0.19667926
177	0xbd93721a	-0.071994975
178	0xbdfdd88d	-0.123948194
179	0x3e1958dc	0.14975303
180	0xbe157579	-0.14595594
181	0xbd6ef206	-0.05833628
182	0xbdfdae28	-0.12386733
183	0x3d779a3e	0.06044983
184	0x3d14e546	0.036351465
185	0x3db4d24d	0.08829174
186	0x3e2d81de	0.16944072
187	0xbdab95a7	-0.08378153
188	0xbc77a44a	-0.015114853
189	0x3e0a5210	0.13507867
190	0x3e2cd2ca	0.16877285
191	0xbd8d7361	-0.069067724
192	0x3e249d26	0.16075572
193	0xbd03c2be	-0.032168142
194	0x3e5ad6e2	0.21371034
195	0x3cdc040d	0.0268574
196	0x3cb31f06	0.021865379
197	0xbe34831c	-0.1762814
198	0x3e2f86f5	0.17141326
199	0x3da36f60	0.079802275
200	0xbdd8ba39	-0.10582394
201	0xbe1e3d15	-0.15452988
202	0x3e4333f3	0.19062786
203	0x3ddfbfcf	0.109252565
204	0x3e366ddf	0.1781535
205	0x3dc484c1	0.09595633
206	0xbda5518d	-0.08072195
207	0xbdbdd7c1	-0.092696674
208	0xbe386e0f	-0.18010734
209	0xbe046417	-0.12928806
210	0xbe3fbb01	-0.1872368
211	0x3d3b2832	0.04569263
212	0xbe4a93fa	-0.19783011
213	0x3d3b7551	0.04576618
214	0xbe59d7fb	-0.21273796
215	0x3dd93b4b	0.10607012
216	0x3e092f0a	0.1339685
217	0xbd4a3143	-0.049363386
218	0x3dabf008	0.08395392
219	0xbb5ea520	-0.0033972934
220	0x3e57f01f	0.21087693
221	0xbe057561	-0.13033058
222	0xbdaa2add	-0.08308957
223	0xbb5f5a68	-0.0034080986
224	0xbe5c833e	-0.2153444
225	0xbe199c2e	-0.15000984
226	0xbdaf289c	-0.085526675
227	0x3e4eab72	0.20182589
228	0xbe4da5e6	-0.20082816
229	0xbe032c7a	-0.12809935
230	0xbe058384	-0.1303845
231	0x3e00aa55	0.12564977
232	0xbdc5b0c1	-0.09652854
233	0x3d89ab98	0.06722182
234	0xbd8f0b3b	-0.06984564
235	0xbe432d88	-0.19060338
236	0x3de24054	0.11047426
237	0xbd97d8c7	-0.07414394
238	0xbe4c7cc2	-0.19969466
239	0xbe43168c	-0.1905157
240	0xbe2fe752	-0.17178085
241	0xbe2fb3a7	-0.17158376
242	0x3d50ed6e	0.05100768
243	0xbe2e23f8	-0.17005908
244	0xbde936e4	-0.11387423
245	0xbd0076d5	-0.031363327
246	0xbe4a16ea	-0.19735304
247	0x3e000238	0.12500846
248	0xbe1705c5	-0.14748295
249	0xbe3f2cc2	-0.18669418
250	0xbe511f50	-0.20422101
251	0x3dc6e481	0.097115524
252	0xbc06bf93	-0.008224386
253	0xbe4b446b	-0.19850318
254	0xbd6b0080	-0.057373524
255	0xbe0ca020	-0.13732958

gru.weight_hh_l1 f4 [60, 20]
0	0x3d16170c	0.036643073
1	0xbd4c86c0	-0.049933195
2	0xbd5ad427	-0.05342498
3	0x3db1e383	0.086859725
4	0xbdf2fd50	-0.11864722
5	0xbb9d4ecf	-0.0048006545
6	0x3e1c9eee	0.15295002
7	0xbdb227a1	-0.08698965
8	0x3db12807	0.08650213
9	0xbde3fc85	-0.11132149
10	0x3d795e5c	0.060881004
11	0xbdc91ea6	-0.09820299
12	0x3cafbcb4	0.021452285
13	0x3e01a5ca	0.126609
14	0x3e1dd296	0.15412363
15	0x3cf5322a	0.029931147
16	0x3e5a7b9a	0.21336213
17	0x3d78cc63	0.060741793
18	0x3e66b3ab	0.22529475
19	0x3dcae7c0	0.09907484
20	0xbe5d7b36	-0.21629032
21	0xbc74f340	-0.014950573
22	0x3daedc41	0.08538104
23	0xbe1a9075	-0.15094168
24	0xbe5ba440	-0.21449375
25	0x3c10fff6	0.008850088
26	0x3d1972b8	0.03746292
27	0xbe321421	-0.17390491
28	0xbd8bb25a	-0.06821127
29	0x3d1ae685	0.037817497
30	0xbd19fd14	-0.03759487
31	0x3a92bc88	0.0011195103
32	0x3e29537b	0.16535752
33	0x3db2fbd5	0.087394394
34	0xbc903600	-0.017603874
35	0xbe443cf3	-0.19163875
36	0xbe4bf45e	-0.19917437
37	0xbd4d8635	-0.050176818
38	0x3e29d358	0.16584527
39	0x3c44be32	0.012008237
40	0x3dd2a511	0.1028539
41	0x3de765ea	0.112987354
42	0x3d4513ea	0.048114695
43	0x3dd6a06b	0.10479816
44	0xbe0afa7f	-0.13572119
45	0x3dcbe1db	0.09955188
46	0x3e56b95d	0.20969148
47	0xbcb0ea4f	-0.021596102
48	0xbe554d94	-0.20830375
49	0x3d7e524d	0.062090207
50	0x3e432f61	0.19061042
51	0xbe1e7e6c	-0.15477914
52	0x3e19be30	0.15013957
53	0x3df5f455	0.12009493
54	0xbcff02c3	-0.031129247
55	0x3d30b98e	0.04314571
56	0xbe112815	-0.14175446
57	0xbde09423	-0.10965755
58	0x3d147336	0.036242686
59	0xbbaaedef	-0.005216352
60	0x3c5c1b91	0.013434307
61	0x3dcd89bf	0.100360386
62	0xbcb5f5aa	-0.022211868
63	0xbd4fffc4	-0.050781026
64	0x3d391a6d	0.045191217
65	0x3d8fcdab	0.0702165
66	0xbe4b5d07	-0.19859706
67	0xbd45396c	-0.048150465
68	0xbdf923c3	-0.12165024
69	0xbb5f0aa5	-0.0034033444
70	0x3e4f1a7d	0.20224948
71	0x3d974a7c	0.07387254
72	0xbe1592e4	-0.14606816
73	0xbe0bc81a	-0.13650551
74	0x3c4816d7	0.012212477
75	0x3e235840	0.15951633
76	0xbd6b0649	-0.05737904
77	0xbcedfe9e	-0.029052075
78	0x3e2c7cbf	0.16844462
79	0x3cf3480f	0.029697446
80	0x3e52d49f	0.20588921
81	0x3d19d2dd	0.03755461
82	0xbd92187a	-0.07133575
83	0x3db0f95c	0.086413115
84	0x3e466997	0.19376217
85	0x3e102f8b	0.14080636
86	0xbdeca56a	-0.11554988
87	0x3e29dd86	0.1658841
88	0x3e391d39	0.18077554
89	0xbd58628a	-0.05282835
90	0xbd6172d9	-0.055041168
91	0xbdde6701	-0.1085949
92	0xbe319afd	-0.1734428
93	0xbd2229e9	-0.03959075
94	0xbe1bbdaa	-0.1520907
95	0x3e262ceb	0.16228072
96	0x3e499aef	0.19688009
97	0xbb7e8937	-0.003883911
98	0xbe428242	-0.18995002
99	0x3de30c34	0.11086312
100	0xbe3d865a	-0.18508282
101	0x3e444470	0.19166732
102	0x3d1011ab	0.0351731
103	0xbc0acb36	-0.008471301
104	0xbd4e4da6	-0.05036702
105	0x3dfa56f4	0.12223616
106	0xbdeb1eff	-0.114805214
107	0xbe2e4da2	-0.17021802
108	0x3e39b1c4	0.18134218
109	0xbd3beb7d	-0.045878876
110	0xbe443803	-0.19161992
111	0x3db36f87	0.087615065
112	0x3dc824c3	0.09772637
113	0x3d16c088	0.036804706
114	0xbc8bb86b	-0.01705571
115	0x3cad04d3	0.021120464
116	0xbdc8431a	-0.097784236
117	0x3de2e00d	0.110778905
118	0x3e40d19b	0.18829958
119	0xbd6c7bae	-0.057735138
120	0x3d8de7fd	0.06929014
121	0xbe11cabc	-0.14237493
122	0xbe0256b5	-0.12728389
123	0x3e5fc22a	0.21851411
124	0x3aa14341	0.0012303368
125	0x3e2ab172	0.16669253
126	0x3df82cea	0.12117942
127	0x3e49e4bb	0.1971616
128	0xbe0a08ff	-0.13479994
129	0x3e14ea11	0.14542414
130	0xbe1838bd	-0.14865394
131	0x3e4be0c9	0.19909967
132	0x3e55def8	0.20885837
133	0x3d81a38c	0.06330022
134	0x3d85285a	0.06501837
135	0x3cec7ea8	0.028868988
136	0xbe466a9a	-0.19376603
137	0xb9705bfb	-0.00022922449
138	0xbe364cdc	-0.17802757
139	0xbc328780	-0.0108965635
140	0x3d4d01df	0.050050613
141	0x3e02c972	0.12772158
142	0x3b2fb14f	0.0026808565
143	0xbe5c3df5	-0.2150801
144	0x3e13c234	0.14429551
145	0x3df0dce5	0.11760882
146	0x3d0d6177	0.034516778
147	0xbde82f72	-0.113371745
148	0x3dfa553d	0.12223289
149	0xbe503c4b	-0.203355
150	0xbda4e67d	-0.08051775
151	0x3e07e98c	0.13272685
152	0x3e01b7af	0.12667726
153	0xbcf83ebd	-0.030303353
154	0xbb95c6ec	-0.0045708325
155	0x3e56dd25	0.20982797
156	0xbd73a3cd	-0.059482384
157	0x3dd41dba	0.103572324
158	0x3ca7c061	0.020477476
159	0x3c81340f	0.015771894
160	0xbe2f82bd	-0.17139716
161	0xbc12bab1	-0.0089556435
162	0xbce7b073	-0.02828238
163	0xbd013aa2	-0.031550057
164	0x3db096a0	0.086224794
165	0x3e11db3a	0.14243785
166	0xbe4ce168	-0.2000786
167	0xbe0ccd79	-0.13750257
168	0xbe00dbcd	-0.12583847
169	0x3dd2fc33	0.103020094
170	0xbe395390	-0.18098283
171	0xbcca96c1	-0.024730088
172	0xbe1905f9	-0.14943685
173	0xbca9901c	-0.0206986
174	0xbc0dfe48	-0.008666582
175	0xbe2e0888	-0.16995442
176	0xbe001fab	-0.1251208
177	0xbd207505	-0.0391741
178	0xbe30ece1	-0.17277862
179	0xbe2a7c24	-0.16648918
180	0xbe59071b	-0.21194117
181	0xbdfb9a02	-0.12285234
182	0xbd3dd4bd	-0.04634546
183	0x3cce43ec	0.025178872
184	0x3cf54c6b	0.029943665
185	0xbda632f3	-0.081151865
186	0x3d8af108	0.06784254
187	0x3df42c7a	0.11922546
188	0xbe28247c	-0.16420168
189	0x3def2328	0.116766274
190	0x3e3ae83c	0.18252653
191	0x3c58bc6e	0.013228519
192	0x3ddf06ac	0.108899444
193	0x3d29a8a6	0.0414206
194	0x3e48defe	0.19616315
195	0xbd0f48b5	-0.03498145
196	0xbe1175cd	-0.14205094
197	0x3daeb5ea	0.08530791
198	0x3ddf0a1e	0.108906016
199	0xbe2c614d	-0.16833992
200	0xbd542d01	-0.05180073
201	0x3d2a234c	0.041537568
202	0x3cb5f94a	0.022213597
203	0xbe13adff	-0.14421843
204	0xbca8b67c	-0.020594828
205	0x3dd28da1	0.1028092
206	0x3cebe427	0.028795315
207	0x3e3b0b24	0.18265969
208	0x3dfc253a	0.12311788
209	0x3e30a9e0	0.17252302
210	0xbd0dee87	-0.034651306
211	0xbe167e6b	-0.14696662
212	0xbde790c2	-0.11306907
213	0x3dc1d5de	0.0946462
214	0xbd609925	-0.05483355
215	0xbddebf42	-0.10876323
216	0xbe344e0a	-0.17607895
217	0xbdbf8333	-0.09351196
218	0x3e2a79a1	0.1664796
219	0x3e1b7587	0.15181552
220	0xbda902b9	-0.082524724
221	0xbe36038e	-0.17774794
222	0xbe18f8e4	-0.14938694
223	0x3d643d3a	0.055722453
224	0x3e434b63	0.19071727
225	0x3d330f04	0.043715492
226	0xbd6ac790	-0.057319224
227	0xbe003e43	-0.12523751
228	0x3da5d132	0.080965415
229	0xbd1ec69e	-0.038763635
230	0x3c55ca85	0.013048773
231	0xbcdb328f	-0.026757507
232	0x3ddb81cc	0.10718116
233	0x3ce32d77	0.02773164
234	0x3db10ca8	0.08644992
235	0x3e48a190	0.19592881
236	0xbe2fbeca	-0.17162624
237	0x3e323b74	0.17405492
238	0xbe04fce7	-0.129871
239	0x3dbbf7f2	0.09178151
240	0xbe537a9b	-0.20652239
241	0xbe52b484	-0.20576674
242	0xbe5b4e18	-0.21416509
243	0x3e4de45d	0.20106645
244	0x3e078ca7	0.13237248
245	0xbe2d1046	-0.16900739
246	0x3dcf2cef	0.10115992
247	0xbdfffee0	-0.124997854
248	0x3e5c142b	0.21492068
249	0xba4e9a4f	-0.000788127
250	0xbd60aafa	-0.054850556
251	0xbc27199d	-0.010198978
252	0xbe27af15	-0.16375382
253	0x3e0e6303	0.13904957
254	0xbd1d3322	-0.038378842
255	0xbd998d66	-0.07497673

gru.bias_ih_l1 f4 [60]
0	0xbd9ffb4c	-0.07811603
1	0xbe688702	-0.22707751
2	0xbd80982d	-0.06279025
3	0x3de3ec24	0.111290246
4	0xbe3683ab	-0.17823665
5	0x3e239742	0.15975669
6	0xbc8354b2	-0.016031597
7	0x3d40e16a	0.04708997
8	0xbd298024	-0.04138197
9	0xbc2f6bb2	-0.010706829
10	0x3df2d0af	0.118562095
11	0x3e58481e	0.2112126
12	0x3c38f760	0.011289448
13	0x3d8dde13	0.06927123
14	0x3e05a2ba	0.13050357
15	0x3d9786ef	0.073987834
16	0x3e0f01f4	0.13965589
17	0xbe36d9ea	-0.17856565
18	0xbe319c63	-0.17344813
19	0x3d5367a7	0.051612522
20	0xbdfa95ac	-0.12235579
21	0x3de161aa	0.11004956
22	0xbd49e266	-0.049288176
23	0x3d0282b4	0.03186293
24	0xbe070c73	-0.13188343
25	0x3e62f40f	0.22163413
26	0x3e683b22	0.22678807
27	0xbe32667a	-0.17421904
28	0xbe454acb	-0.19266813
29	0x3dbea878	0.093094766
30	0x3d96ba62	0.073597685
31	0x3e16eca0	0.14738703
32	0x3d97b8b0	0.07408273
33	0x3e6aebc6	0.22941503
34	0x3dfe1e98	0.12408179
35	0x3b0a495e	0.002110086
36	0x3dd54563	0.10413625
37	0x3dfea127	0.12433081
38	0xbcba5abd	-0.022748346
39	0xbe4135c6	-0.18868169
40	0x3dad60d6	0.084657356
41	0x3d765528	0.060139805
42	0x3dee5e3c	0.116390675
43	0xbe4c33d9	-0.19941653
44	0x3e114530	0.14186549
45	0x3ca6cd18	0.020361468
46	0xbe5d248e	-0.21595976
47	0x3d875354	0.066076905
48	0xbe231e4d	-0.15929528
49	0xbdbeb93e	-0.09312676
50	0x3d64d714	0.055869177
51	0xbd843d77	-0.06457036
52	0xbe00bd43	-0.12572198
53	0x3c89ece4	0.016836591
54	0xbb9c8913	-0.0047770827
55	0x3cd92b34	0.026509859
56	0xbdd6b5f0	-0.104839206
57	0x3c840f67	0.016120626
58	0xbdc2887d	-0.09498689
59	0xbd1fffb5	-0.03906222

gru.bias_hh_l1 f4 [60]
0	0x3cf36984	0.0297134
1	0x3e0a33f8	0.13496387
2	0xbe418490	-0.18898225
3	0xbe05bc39	-0.13060082
4	0xbd0c04c9	-0.03418425
5	0xbc20ed2b	-0.00982217
6	0xbc054a3e	-0.0081353765
7	0x3e31ee46	0.1737605
8	0xbe0c8257	-0.13721596
9	0xbd6c22ae	-0.05765026
10	0xbdcd8863	-0.10035779
11	0x3e085279	0.13312711
12	0x3e41ad57	0.1891378
13	0xbe43bd60	-0.1911521
14	0x3e2cac92	0.16862705
15	0xbddf538f	-0.109046094
16	0x3aeb6e7e	0.0017962006
17	0x3caa9a82	0.020825628
18	0xbe44e84e	-0.19229242
19	0xbd8057fc	-0.06266782
20	0x39f29110	0.00046265917
21	0xbdb2ad47	-0.08724456
22	0x3e1e85d4	0.15480739
23	0x3d5cf27c	0.05394219
24	0xbe0be430	-0.13661265
25	0x3d89f263	0.06735685
26	0x3de6be24	0.11266735
27	0xbe5c7510	-0.21529031
28	0xbd399d33	-0.045315932
29	0xbd38000a	-0.044921912
30	0x3e4da5d4	0.2008279
31	0x3dbcad20	0.092127085
32	0x3d4bbb42	0.04973913
33	0xbcfc789a	-0.030819226
34	0xbce432c8	-0.027856246
35	0xbe022eaf	-0.12713121
36	0x3e084a31	0.13309552
37	0xbe0bd994	-0.13657218
38	0x3de3259f	0.1109116
39	0x3e57b657	0.21065651
40	0x3e138510	0.14406228
41	0x3e3ffcdc	0.18748802
42	0xbe4b9449	-0.19880785
43	0xbd2e36a7	-0.04253259
44	0xbdb3c475	-0.087777056
45	0xbe339dcc	-0.17540663
46	0xbcd77b18	-0.026303813
47	0xbe22609f	-0.1585717
48	0x3d90f656	0.07078235
49	0xbe0c1719	-0.13680686
50	0x3d0bd6ff	0.034140583
51	0x3ba92ce0	0.00516282
52	0xbe1e80e4	-0.15478855
53	0xbd0398ac	-0.03212802
54	0x3da9fe90	0.08300507
55	0xbe307dda	-0.17235509
56	0x3def9e75	0.11700145
57	0x3e357879	0.17721738
58	0xbe066f41	-0.13128377
59	0x3e1bb121	0.15204288

gru.weight_ih_l2 f4 [60, 20]
0	0x3db0b051	0.0862738
1	0xbe02f23b	-0.12787716
2	0xbdfdffb7	-0.12402289
3	0x3db55849	0.0885473
4	0x3b93e4c7	0.0045133564
5	0xbd74f57c	-0.059804425
6	0x3d9c2ccd	0.076257326
7	0x3df81360	0.121130705
8	0xbdf1423f	-0.117802136
9	0x3d81591c	0.063158244
10	0x3d019edf	0.031645652
11	0x3dbe85ba	0.0930285
12	0xbdaa8f84	-0.08328155
13	0x3d4b88e9	0.049691115
14	0xbab441f5	-0.0013752567
15	0xbd48e127	-0.049042847
16	0x3c810328	0.015748575
17	0xbdabc7ef	-0.08387744
18	0xbca33a95	-0.019925395
19	0xbdb8b838	-0.09019512
20	0xbe232dad	-0.15935393
21	0x3d9ad72d	0.07560573
22	0xbe04556d	-0.12923212
23	0xbda60cff	-0.081079476
24	0x3e1085b4	0.14113504
25	0x3c4e9268	0.012608148
26	0xbdb7b698	-0.08970374
27	0x3cf7dc2b	0.030256351
28	0xbc7f58da	-0.015585149
29	0xbd573642	-0.05254198
30	0xbdd54a80	-0.104146
31	0x3e3f2716	0.18667254
32	0xbe3d6dbc	-0.18498892
33	0xbe509b03	-0.20371632
34	0xbdcd1bf1	-0.10015095
35	0xbde95908	-0.113939345
36	0xbe32d286	-0.17463121
37	0xbdf3b50c	-0.11899766
38	0xbe24b674	-0.16085225
39	0x3d7846c4	0.060614362
40	0xbe62137d	-0.22077747
41	0x3ddca5fc	0.107738465
42	0xbe056660	-0.13027334
43	0xbcbe8779	-0.023257958
44	0xbe00fead	-0.12597151
45	0x3dfbac2a	0.12288697
46	0xbe019b01	-0.12656786
47	0xbd41c442	-0.047306307
48	0xbe0048dc	-0.12527794
49	0x3e2f1dab	0.17101161
50	0x3e2f78db	0.17135946
51	0xbdce5d62	-0.10076405
52	0xbd857fa6	-0.06518488
53	0xbdbbc74b	-0.091688715
54	0x3e1d9ef7	0.15392672
55	0xbe0090ef	-0.12555288
56	0x3e206dd0	0.1566689
57	0xbd6134d8	-0.054982036
58	0x3d476322	0.048678525
59	0x3d47dbd7	0.04879364
60	0xbdcadb12	-0.099050656
61	0x3e1e6cfb	0.1547126
62	0xbe54b4c6	-0.20772085
63	0xbe36bf4e	-0.17846414
64	0xbe0f34cd	-0.13984986
65	0x3e193632	0.1496208
66	0x3c9a20f6	0.018814545
67	0x3e6dafac	0.23211545
68	0xbd2f8080	-0.042847157
69	0x3db4d0bc	0.088288754
70	0xbd9b22d2	-0.07575001
71	0xbd4e7c9a	-0.050411798
72	0x3e14f5ca	0.14546886
73	0x3e460026	0.19335994
74	0xbdf1b783	-0.1180258
75	0xbdd9934b	-0.10623797
76	0x3e17b8dd	0.14816613
77	0x3d828390	0.0637275
78	0x3dbbc862	0.09169079
79	0xbdb3df78	-0.08782858
80	0xbdb1521c	-0.08658239
81	0x3d8bf2f1	0.06833447
82	0xbda954e9	-0.082681485
83	0x3c977022	0.018486086
84	0x3d287366	0.041125678
85	0x3dfff563	0.12497976
86	0xbdd33769	-0.10313303
87	0xbe4959e7	-0.19663201
88	0xbe294886	-0.16531572
89	0xbdbe983f	-0.093063824
90	0x3ccda6ec	0.025104009
91	0x3ce8f433	0.028436756
92	0xbe2e5503	-0.17024617
93	0xbe2c0fcb	-0.168029
94	0x3b188ff7	0.002327917
95	0xbe4f2136	-0.20227513
96	0x3ca7a52a	0.020464499
97	0x3dd73183	0.105074905
98	0xbe16e036	-0.14733967
99	0x3e46f5bb	0.19429676
100	0xbdd9ca01	-0.10634232
101	0xbe4c2410	-0.19935632
102	0xbcfd23e4	-0.030900903
103	0xbdf92db9	-0.12166924
104	0x3de22134	0.11041489
105	0xbdf81b97	-0.12114637
106	0x3a80594c	0.0009792238
107	0xbc8f4821	-0.017490448
108	0x3e08bc96	0.1335319
109	0x3cb4135b	0.021981886
110	0x3da63339	0.08115239
111	0x3e64a2f0	0.2232778
112	0x3e4beeba	0.19915286
113	0x3da617f3	0.08110037
114	0xbe1476e1	-0.14498474
115	0xbdb1b6c4	-0.08677438
116	0xbcb5d6d1	-0.022197159
117	0x3e134c2d	0.14384528
118	0x3d56fdd3	0.05248816
119	0xbdd5c4ea	-0.10437949
120	0x3d8566dd	0.0651376
121	0x3d3591e6	0.044328593
122	0x3e385194	0.1799987
123	0xbe1e6123	-0.15466742
124	0xbe1be3dd	-0.15223642
125	0x3d71cce1	0.05903328
126	0x3dc7fe93	0.09765353
127	0x3e2d1a51	0.1690457
128	0xbe26b4ce	-0.16279909
129	0x3d16da54	0.036829308
130	0x3c0b4457	0.00850018
131	0x3de26151	0.11053718
132	0x3e0d1f7a	0.13781539
133	0x3e44c1c3	0.19214539
134	0x3d5f724d	0.054552365
135	0x3e2418fe	0.16025159
136	0x3e0a640c	0.13514727
137	0x3e469620	0.19393206
138	0x3e16dd9d	0.14732976
139	0x3e474b38	0.19462287
140	0x3e2245fd	0.15847011
141	0x3de120f9	0.10992617
142	0x3e562323	0.20911841
143	0xbe146465	-0.14491422
144	0xbe25c31c	-0.1618771
145	0xbdb759f7	-0.08952706
146	0xbe50a3d2	-0.20374992
147	0x3d20c109	0.039246593
148	0x3e1d4aa4	0.15360504
149	0x3df582d5	0.11987845
150	0xbe3bf19a	-0.18353882
151	0x3de534e6	0.1119173
152	0xbe1e7a57	-0.15476356
153	0x3e1f26ca	0.1554214
154	0xbbd8273e	-0.006596475
155	0xbd45dafc	-0.048304543
156	0xbdfad10a	-0.12246902
157	0xbd91dfab	-0.071227394
158	0x3d393924	0.04522051
159	0xbd99de48	-0.075131
160	0x3e414d32	0.18877104
161	0xbdda7fec	-0.106689304
162	0xbe5bd23c	-0.21466917
163	0xbdfc6061	-0.1232307
164	0xbdc304fb	-0.09522434
165	0x3d262c21	0.04056943
166	0x3d5eebb8	0.054424018
167	0xbd4fb464	-0.050709143
168	0x3e4b0337	0.19825445
169	0x3de4beda	0.111692145
170	0xbe438375	-0.19093116
171	0xbcc86190	-0.024460584
172	0xbc9eefb7	-0.019401414
173	0x3e11d143	0.14239983
174	0x3db0217e	0.08600138
175	0x3dcb7023	0.09933498
176	0xbd8227b7	-0.06355231
177	0x3e41f7c0	0.18942165
178	0xbe1d8ad8	-0.15384996
179	0xbe2d15e6	-0.16902885
180	0xbe45d12a	-0.19318071
181	0x3ce82ed7	0.028342647
182	0x3e44eac7	0.19230185
183	0xbe18a71d	-0.14907499
184	0x3df4e61c	0.119579524
185	0xbe0783c5	-0.1323386
186	0x3cb4f59c	0.022089772
187	0xbc46c039	-0.01213079
188	0x3d314121	0.043275002
189	0xbcb1af0d	-0.021689916
190	0xbe0d1ef5	-0.1378134
191	0xbcc9269c	-0.024554543
192	0xbd85264b	-0.065014444
193	0xbc25ca15	-0.010118981
194	0x3e0b6f12	0.13616589
195	0x3dbccda3	0.092189096
196	0x3b9a96ff	0.004717707
197	0xbdd89ac5	-0.10576395
198	0xbd93ffc9	-0.072265215
199	0xbc5d9e1e	-0.013526468
200	0xbe07da76	-0.1326693
201	0x3c3ea024	0.01163486
202	0xbdab6073	-0.083680056
203	0x3e0bc599	0.13649596
204	0x3db13a67	0.086537175
205	0xbdb8bdcf	-0.09020578
206	0x3d8bef0b	0.06832703
207	0xbe492255	-0.19642003
208	0xbd8e6607	-0.06953054
209	0x3e1ce65a	0.15322247
210	0x3da9f5c6	0.08298831
211	0x3e60f751	0.21969344
212	0xbdf96882	-0.121781364
213	0x3dabaf85	0.08383087
214	0x3cf46f1d	0.02983814
215	0x3d964698	0.073376834
216	0xbdd591cc	-0.10428199
217	0xbe2e3770	-0.17013335
218	0xbe0f167f	-0.13973425
219	0x3dde44ce	0.10852967
220	0xbdeda478	-0.116036355
221	0xbccbf7da	-0.024898458
222	0x3c17d273	0.009266484
223	0x3d9b775b	0.075911246
224	0xbb0e95cc	-0.0021756766
225	0xbe280a34	-0.16410142
226	0x3c5d24c2	0.013497533
227	0x3e17c327	0.14820538
228	0x3e31eb20	0.1737485
229	0xbdf7b27f	-0.12094592
230	0x3d3ed483	0.046589386
231	0x3dc864c9	0.09784848
232	0xbe31577e	-0.17318532
233	0x3e3853d3	0.18000726
234	0xbd144323	-0.03619684
235	0x3e048d1b	0.12944452
236	0xbe112b5f	-0.14176701
237	0xbe33371c	-0.17501491
238	0x3dd01190	0.101596
239	0xbdb275b5	-0.08713857
240	0x3e3ef03f	0.18646334
241	0x3dd254e6	0.10270099
242	0xbdd5ac34	-0.10433236
243	0xbb5ce080	-0.0033703148
244	0xbdf44d75	-0.11928836
245	0xbe231811	-0.1592715
246	0x3e209f12	0.1568568
247	0x3e5454c8	0.20735466
248	0xbe4ddc24	-0.20103508
249	0x3e21fc61	0.15818931
250	0x3e111302	0.14167407
251	0x3da421fc	0.080142945
252	0xbe0e3bfe	-0.13890073
253	0x3e00244a	0.12513843
254	0xbc2ece82	-0.0106693525
255	0x3e407947	0.18796264

gru.weight_hh_l2 f4 [60, 20]
0	0xbe4133a1	-0.18867351
1	0xbe084c76	-0.13310418
2	0xbd3c8cb1	-0.04603261
3	0x3b2372a6	0.0024940162
4	0xbdb4cdea	-0.088283375
5	0xbe01d920	-0.12680483
6	0xbe362672	-0.17788103
7	0xbe1d44a0	-0.1535821
8	0x3c994843	0.018711215
9	0x3d84b96c	0.06480679
10	0x3dc8cc94	0.09804645
11	0xbdad6501	-0.084665306
12	0x3d30de7d	0.04318093
13	0x3d392efe	0.04521083
14	0xbe5de009	-0.21667494
15	0xbd8ad7d0	-0.06779444
16	0xbd55c0de	-0.052185886
17	0xbdb16f45	-0.08663801
18	0xbcda24ff	-0.02662897
19	0x3dd27ffe	0.10278319
20	0x3e09f4d4	0.13472301
21	0xbcaf2872	-0.02138159
22	0x3e46b8a2	0.1940637
23	0x3d800299	0.062504955
24	0xbe2a0669	-0.16604008
25	0xbda6c07f	-0.081421845
26	0xbdc718e0	-0.097215414
27	0x3cc51a0c	0.024060272
28	0x3de7f7a5	0.11326531
29	0x3e2dc9b9	0.16971482
30	0x3c05272b	0.008127014
31	0x3dd8c20f	0.10583889
32	0x3d9eb5e9	0.0774954
33	0xbcbb2065	-0.022842595
34	0xbdb0d8e4	-0.086351186
35	0xbd39a4af	-0.04532307
36	0xbe24478d	-0.1604292
37	0x3d118cfb	0.03553484
38	0xbd5c0d3f	-0.05372357
39	0xbd87b6f9	-0.06626696
40	0xbdf3c3e6	-0.11902599
41	0x3e1daefb	0.15398781
42	0x3e531538	0.20613563
43	0x3e212266	0.15735778
44	0xbd0a5eae	-0.0337817
45	0xbd510d61	-0.05103815
46	0xbe17efb1	-0.14837529
47	0xbe0de5dd	-0.13857217
48	0x3e3bbd9c	0.18334049
49	0x3e1ddff1	0.15417458
50	0x3dee754b	0.116434656
51	0x3e11e59c	0.14247745
52	0x3d87d6b5	0.06632749
53	0x3e56f387	0.20991336
54	0xbe2066d0	-0.1566422
55	0x3e1ee5cf	0.15517353
56	0x3e2d9487	0.1695119
57	0xbd801b93	-0.06255259
58	0xbe4f25bd	-0.2022924
59	0xbe2f895c	-0.17142242
60	0xbc0fc18d	-0.008774173
61	0x3cfd8db3	0.030951357
62	0xbd6dee23	-0.058088433
63	0x3e2ea95d	0.17056794
64	0xbd8956ad	-0.06705985
65	0x3dc20846	0.09474234
66	0xbbbb47c6	-0.005715343
67	0x3d91adaf	0.07113206
68	0xbe0e60c3	-0.13904099
69	0xbe2eed61	-0.1708274
70	0x3dc15f96	0.0944206
71	0x3dee2e26	0.11629896
72	0xbde20aa3	-0.11037185
73	0x3d9ed44a	0.07755335
74	0xbe601f82	-0.2188702
75	0xbdcd35f9	-0.1002006
76	0xbd22ca22	-0.03974355
77	0xbe5d01e0	-0.21582747
78	0x3e085acc	0.13315886
79	0x3e680f24	0.22662026
80	0xbdec1ad5	-0.11528555
81	0xbde86909	-0.11348159
82	0xbd613bfa	-0.05498884
83	0xbca0bf38	-0.01962243
84	0x3d831531	0.06400526
85	0xbe415e00	-0.18883514
86	0xbccbf821	-0.02489859
87	0x3d8f4210	0.06995022
88	0x3deb061b	0.11475774
89	0x3db77c69	0.08959276
90	0xbda1caec	-0.079000324
91	0x3cb35bf9	0.021894442
92	0xbd7e5c26	-0.0620996
93	0xbe227213	-0.15863828
94	0x3e32936f	0.17439054
95	0xbe4c7a49	-0.19968523
96	0xbe37091c	-0.17874569
97	0x3e3febbc	0.1874227
98	0x3db9ab2a	0.0906585
99	0xbe0e5ddb	-0.1390299
100	0xbe305a1e	-0.17221877
101	0xbe4701e4	-0.19434315
102	0xbc0113a3	-0.007878217
103	0x3d568716	0.05237492
104	0x3e0fac6c	0.14030617
105	0xbd12c2d9	-0.035830352
106	0x3d12fdf3	0.035886716
107	0xbe1db846	-0.15402326
108	0x3de5a883	0.11213782
109	0x3e225d47	0.15855895
110	0x3dbe2a81	0.09285451
111	0x3e17f813	0.14840727
112	0x3d884b52	0.06654991
113	0xbe1af547	-0.15132628
114	0x3d948d3d	0.072535016
115	0x3df61afe	0.12016867
116	0x3dcbe9db	0.09956714
117	0xbdf9eecc	-0.1220375
118	0xbc3eecc1	-0.011653126
119	0x3da97287	0.082737975
120	0xbd1a64fc	-0.037693962
121	0xbd16c200	-0.036806107
122	0x3e008a98	0.1255287
123	0xbd88cdcc	-0.06679878
124	0xbe0b299b	-0.1359009
125	0x3e21dc34	0.15806657
126	0xbdf367a7	-0.118850045
127	0x3d21bbd0	0.039485753
128	0x3d6aefa1	0.057357434
129	0x3d67abdd	0.056560386
130	0xbd26eddd	-0.040754188
131	0x3c90209a	0.01759367
132	0x3d926ec4	0.07150033
133	0xbab9a2a2	-0.0014162848
134	0x3d8863a9	0.06659634
135	0x3dcc481a	0.0997469
136	0x3d061216	0.03273209
137	0x3e2a4862	0.16629174
138	0x3da49757	0.08036678
139	0xbb8df8fb	-0.0043326593
140	0xbda088ed	-0.078386165
141	0x3c983cfc	0.018583767
142	0x3e4b924f	0.19880031
143	0xbe34b0a2	-0.17645505
144	0xbdcc154a	-0.09964998
145	0x3cda5a9c	0.026654534
146	0xbcd08b85	-0.025457153
147	0xbe39560e	-0.18099234
148	0x3df74d93	0.12075343
149	0xbe265328	-0.16242659
150	0xbe33e0e2	-0.17566255
151	0xbe54bb24	-0.20774513
152	0xbd93114b	-0.07181033
153	0xbde4f039	-0.11178631
154	0x3daff89b	0.085923396
155	0x3e26cd2a	0.16289201
156	0x3df0b646	0.11753516
157	0xbe297be0	-0.16551161
158	0xbd621b19	-0.055201624
159	0xbd933591	-0.07187951
160	0x3e35bb9c	0.17747349
161	0x3e22425d	0.15845628
162	0xbdc1483d	-0.094376065
163	0x3a820f52	0.0009922779
164	0xbc4844e6	-0.012223458
165	0x3ca0d5a1	0.019633116
166	0xbd6a8fbc	-0.057265982
167	0x3cd83d5d	0.026396448
168	0x3e2b11ca	0.16706005
169	0xbe359d2d	-0.17735739
170	0xbdcb318c	-0.0992156
171	0xbd440b9b	-0.04786263
172	0x3e0d1002	0.13775638
173	0xbe397b64	-0.18113476
174	0x3c92d3c3	0.017923241
175	0xbddaffac	-0.10693297
176	0x3e100d3d	0.1406755
177	0x3c015ce0	0.007895678
178	0x3db294f3	0.08719816
179	0xbde93324	-0.113867074
180	0xbe07f857	-0.13278328
181	0xbcb5892d	-0.022160137
182	0xbe2ad2d4	-0.16681987
183	0xbd6dd52a	-0.058064617
184	0xbdb49ff7	-0.088195734
185	0x3db013ae	0.085975036
186	0x3dea9160	0.11453509
187	0xbc5c4292	-0.013443606
188	0xbde2b874	-0.11070338
189	0xbdfc4557	-0.12317913
190	0x3d9d5484	0.07682136
191	0x3de2e9b5	0.11079732
192	0xbe3cb561	-0.18428566
193	0x3e1b21b6	0.15149578
194	0x3d9120ec	0.070863575
195	0xbd525574	-0.051351026
196	0x3e00cfd7	0.12579285
197	0xbe0f4f82	-0.13995174
198	0x3c34ca61	0.011034579
199	0x3e1ad842	0.15121558
200	0x3df33af9	0.118764825
201	0xbd8eac09	-0.06966407
202	0xbe2464e6	-0.16054115
203	0xbd709424	-0.058735028
204	0x3e3e8ec3	0.18609147
205	0x3d1c0fa9	0.038100872
206	0xbe552d78	-0.20818126
207	0x3e51cb10	0.20487618
208	0x3d691352	0.05690319
209	0x3d39e4c7	0.045384195
210	0x3d428e5a	0.04749904
211	0xbd5b6d1f	-0.053570863
212	0xbe293259	-0.16523112
213	0xbb4aa431	-0.003092062
214	0xbe5f903d	-0.21832366
215	0x3d1b5662	0.037924178
216	0x3c85763e	0.016291734
217	0x3e15277a	0.1456584
218	0x3e45114e	0.19244882
219	0x3e3d6817	0.18496738
220	0xbcc0c48a	-0.023531217
221	0x3dba4ace	0.09096299
222	0xbd84f803	-0.06492617
223	0x3de988c8	0.11403042
224	0xbe3bbd10	-0.1833384
225	0xbd0aa1ce	-0.033845715
226	0x3d9bb3fc	0.07602689
227	0xbe058800	-0.13040161
228	0xbcd6d077	-0.02622245
229	0x3d7ad313	0.061236452
230	0x3da817d8	0.08207673
231	0xbd9a7b38	-0.07543033
232	0x3e022070	0.12707686
233	0xbe3bc03d	-0.18335052
234	0x3d689f48	0.056792527
235	0x3e35adb7	0.17742048
236	0x3d2a7a42	0.0416205
237	0x3e353388	0.17695439
238	0xbca57c0d	-0.020200754
239	0x3e303743	0.1720858
240	0xbe57f949	-0.21091188
241	0xbe60a181	-0.21936609
242	0x3e38f576	0.18062386
243	0xbc225b52	-0.009909468
244	0xbd9a821f	-0.0754435
245	0x3ddcb000	0.10775757
246	0x3e329e15	0.17443116
247	0x3e544f5e	0.20733401
248	0xbd9b2935	-0.07576219
249	0xbdbc1695	-0.09183995
250	0x3dced4d9	0.10099191
251	0x3d96e7f0	0.07368457
252	0xbdc1b333	-0.09458008
253	0x3e218bd3	0.15775995
254	0x3e510130	0.20410609
255	0xbe0e397f	-0.1388912

gru.bias_ih_l2 f4 [60]
0	0xbc6c1280	-0.014408708
1	0x3e056d9c	0.13030094
2	0x3d5c23d7	0.053745117
3	0xbd1d3d04	-0.038388267
4	0x3da4dabb	0.08049532
5	0x3db13ea8	0.08654529
6	0x3d16b769	0.036796007
7	0xbda29f29	-0.07940514
8	0x3e12965b	0.14315169
9	0x3dfffa2c	0.124988884
10	0xbdda2c2e	-0.10652958
11	0x3d6e9058	0.058243126
12	0x3e11dd43	0.14244561
13	0x3e40b32b	0.18818347
14	0xbd876d97	-0.066126995
15	0xbcbcfc0a	-0.0230694
16	0x3dc543af	0.0963205
17	0xbd055ff3	-0.032562207
18	0x3e2cc3f6	0.16871628
19	0xbd826c9a	-0.0636837
20	0x3e493ebf	0.19652842
21	0xbdb89711	-0.09013189
22	0x3d28415e	0.041077964
23	0x3e6a4a77	0.22879969
24	0xbe14d729	-0.14535202
25	0xbd627205	-0.05528452
26	0xbd21827d	-0.039431084
27	0x3d52ab30	0.05143279
28	0x3e151b1a	0.1456112
29	0x3b608491	0.0034258703
30	0xbcad6832	-0.021167848
31	0x3e1327ce	0.14370653
32	0xbc9ae671	-0.018908711
33	0x3df5ec93	0.120080136
34	0xbdeb8891	-0.11500657
35	0x3de28e05	0.11062244
36	0x3e0cabf9	0.13737477
37	0xbe2b8632	-0.1675041
38	0x3dc38f47	0.09548812
39	0x3e160493	0.14650182
40	0x3cd6797f	0.02618098
41	0x3dc6c2f5	0.09705154
42	0xbdf3d328	-0.11905509
43	0xbdf51058	-0.11966008
44	0x3e354342	0.17701438
45	0xbd654c6d	-0.05598109
46	0xbda0a5f8	-0.07844156
47	0xbdee23e4	-0.11627939
48	0x3dad3bbc	0.08458659
49	0x3d480549	0.048833165
50	0x3e336b6d	0.17521448
51	0x3dc4046b	0.09571155
52	0xbdd8ece9	-0.10592062
53	0xbe31d036	-0.17364582
54	0x3dbf084c	0.093277544
55	0x3e257cb7	0.16160856
56	0xbe467fa4	-0.19384629
57	0x3df0e026	0.11761503
58	0x3e3bbd6f	0.18333982
59	0x3c9b5329	0.018960552

gru.bias_hh_l2 f4 [60]
0	0x3d94340f	0.07236492
1	0x3e45ec23	0.1932836
2	0xbd0fb747	-0.035086896
3	0x3e2593df	0.1616969
4	0xbdff1579	-0.124552675
5	0x3d81bf0d	0.06335268
6	0x3cd68cf2	0.026190255
7	0xbe1d159d	-0.15340276
8	0xbd9e3efa	-0.077268556
9	0xbe0bad00	-0.13640213
10	0xbdb84d0d	-0.08999071
11	0x3e2d58f7	0.16928469
12	0x3d2e300c	0.04252629
13	0xbc8267e6	-0.015918683
14	0x3e1a949e	0.15095755
15	0xbe3d5e58	-0.1849302
16	0x3deec660	0.11658931
17	0x3dd6318d	0.1045867
18	0xbd74b25e	-0.059740417
19	0x3de092da	0.1096551
20	0x3e25410a	0.16138092
21	0x3e56fda4	0.20995194
22	0x3d88c38f	0.06677925
23	0xbe019eba	-0.12658206
24	0x3ddcb853	0.107773446
25	0x3e297198	0.16547239
26	0x3b156d62	0.0022800793
27	0xbdd6b2be	-0.10483311
28	0x3e0c959b	0.13728945
29	0x3e426572	0.18984011
30	0xbe06d931	-0.1316879
31	0x3e0b6674	0.13613302
32	0xbca23a0f	-0.019803075
33	0x3da45e02	0.08025743
34	0xbd9fff63	-0.07812383
35	0x3ded6e64	0.11593321
36	0x3d90319b	0.070407115
37	0xbd60a947	-0.054848935
38	0x3e034fd2	0.12823418
39	0xbdcad7f2	-0.099044695
40	0xbe02caea	-0.12772718
41	0xbe4dd9d8	-0.20102632
42	0xbe03ee03	-0.12883763
43	0x3e0b5b79	0.13609113
44	0xbcbb707d	-0.022880787
45	0x3e2ef09b	0.17083971
46	0x3e473b42	0.19456199
47	0xbe24ab86	-0.16081056
48	0x3debab26	0.11507253
49	0x3e2b395a	0.16721097
50	0x3db26cac	0.08712134
51	0xbdf029a2	-0.11726691
52	0x3df740f9	0.120729394
53	0xbe00e0a6	-0.12585697
54	0x3e4fcb29	0.20292343
55	0xbd6200e2	-0.055176623
56	0xbe06014b	-0.1308643
57	0xbe151246	-0.14557752
58	0x3dd810d0	0.10550082
59	0xbe41d056	-0.1892713
