model-probRNN-DDPG/model-prob-all-pmt-chnge/both_k_sigma/Q_1.pth (torch, 13412 bytes, 13 tensors)

prop_in_to_h.weight f4 [20, 6]
000000 77 f4 26 3c 02 a6 32 3e f3 6c 99 3e be b9 d4 bd
       0.010190121 0.1744614 0.29965934 -0.1038699
000010 47 8e 83 3e a9 20 aa 3e 64 77 04 be 37 f7 77 3e
       0.25694486 0.33228043 -0.12936169 0.24215399
000020 2d 5d 93 be 57 de 1e be 29 be db bd 28 0e c9 bc
       -0.28782025 -0.15514503 -0.107296295 -0.024542883
000030 77 9f 35 bf fc 27 36 3e c2 2d fe 3e 7d 3b fc bd
       -0.7094645 0.1778869 0.49644285 -0.12316034
000040 50 79 5b be 0a 61 47 bc 16 cd 88 be 88 0c 44 3d
       -0.21432996 -0.012169132 -0.26718968 0.047863513
000050 bc 9f b4 3c 41 e7 1b be 4f fd 9c be de 96 45 be
       0.022048824 -0.15224935 -0.3066201 -0.19295833
000060 d7 02 e1 3e 5a 50 01 bd 03 e3 10 be 10 88 9c 3e
       0.4394748 -0.03157077 -0.14149098 0.30572557
000070 93 86 a5 3e 1b f2 47 bc 84 c0 2f bc 71 a1 69 3e
       0.32329234 -0.012203719 -0.010727052 0.22815491
000080 6a 8a e7 3d b6 6d c3 b8 b7 be b4 3d 54 b6 f0 37
       0.11305697 -9.31876e-05 0.088254385 2.8695133e-05
000090 05 92 03 bf 90 9b ab 3c 00 ce ae 3e 87 2b 53 be
       -0.51394683 0.020948201 0.3414154 -0.20622073
0000a0 8b da 5d 3e b1 d9 8b be ad 57 b8 3e eb d7 6a 3e
       0.21665399 -0.27314523 0.3600439 0.22933929
0000b0 05 99 90 3e 3e 35 e8 3d c4 33 82 3e f1 89 96 be
       0.28241745 0.1133828 0.2543012 -0.29402116
0000c0 d6 ff 77 be 6c 76 60 be 74 27 37 be 39 a5 3b 3e
       -0.24218687 -0.21920174 -0.17886144 0.18324746
0000d0 e6 e0 ef 3d 91 52 e7 3d 3b 00 49 be b6 00 c7 bd
       0.11712818 0.11295045 -0.19628994 -0.097169325
0000e0 73 6d 31 bd 1d fb 16 3e 6a d8 dc be 24 2b 66 be
       -0.04331727 0.1474423 -0.4313386 -0.22477394
0000f0 f3 aa b8 be 96 30 89 3e 92 ea 23 3b d2 cd bc 3d
       -0.36067924 0.2679488 0.002501164 0.092189446
000100 1e 71 bf 3e 28 a1 7f 3e 92 e6 76 3d 37 77 a1 3e
       0.3739099 0.2496382 0.060278483 0.31536266
000110 a0 8a f8 3d 78 7d 24 be 65 29 91 3d 20 4b 47 bc
       0.121358156 -0.16063488 0.070879735 -0.012163907
000120 24 13 8c 3e 5a 52 3e 3e 73 bd 65 3d 61 f6 b6 3d
       0.27358353 0.18586102 0.056088876 0.08933712
000130 d1 2a 29 3e da 71 89 bc 6b d3 44 3d 0d 4d 0e 3e
       0.1652024 -0.016777921 0.048053186 0.1389658
000140 81 25 1f be 4d e7 e4 be 20 af 9f be da 24 16 be
       -0.1554165 -0.44707718 -0.31188297 -0.14662495
000150 9c 97 11 3f 7f 20 98 3e 5d 7b 9a be 36 bf a3 3d
       0.5687196 0.29712293 -0.30172244 0.07995455
000160 b9 5b 3b 3e 78 01 e6 be 04 f8 cb be df aa 8b be
       0.18296708 -0.44922996 -0.39837658 -0.27278802
000170 33 67 fe bd c8 7a 94 bd df 46 6f be b1 6f cc be
       -0.124220274 -0.07249981 -0.23366879 -0.39928964
000180 81 45 6e 3e f3 b9 3b bd 49 72 e4 3e 05 7e e7 3e
       0.23268701 -0.045831632 0.44618443 0.45213333
000190 75 0a 75 3e bb 6f 7e 3e a2 d0 6a bd d6 4b e3 bc
       0.2392977 0.2484731 -0.057327874 -0.027746122
0001a0 ae 8f 50 bd 77 6e 90 be f7 3c 46 be 15 bf 67 be
       -0.050918274 -0.28209278 -0.19359194 -0.22631486
0001b0 aa f9 1f be fc 8d 55 3d f4 35 8d 3e f3 99 b2 be
       -0.15622583 0.05213736 0.27580225 -0.3488308
0001c0 72 e7 55 bd 57 b2 86 be d9 9c 37 be 3e 03 58 be
       -0.052222677 -0.26307938 -0.17930926 -0.21094987
0001d0 6a 7b 92 3d f3 05 92 bd 49 5f a0 3e a9 49 1a be
       0.071524456 -0.07130041 0.31322697 -0.15067162

prop_in_to_h.bias f4 [20]
000000 47 7f 1e be 05 25 f7 be 48 22 1c 3d a6 ac f5 3e
       -0.1547824 -0.4827043 0.03811863 0.47983283
000010 65 f9 44 3e 8b 10 20 3e cb d6 91 3e 49 47 e4 3b
       0.19235761 0.1563131 0.28484187 0.0069665057
000020 6c f4 df 3e 74 2a b8 be 5c 3d 51 be ff 55 18 be
       0.43741167 -0.3596989 -0.20433563 -0.14876555
000030 d7 af 8e 3e 36 89 95 3d db 1d 30 3b df ec 92 3e
       0.2786853 0.073015615 0.0026873264 0.28696343
000040 17 dc db 3e ab 4a a1 be 6c 6c ce 3d 1b bb e3 bd
       0.42941353 -0.3150228 0.100792736 -0.11119672

prop_h_to_h.0.weight f4 [20, 20]
000000 04 09 7d bc 50 7d 87 be 10 8f f7 bd 87 54 a0 3d
       -0.015444044 -0.26462793 -0.12087834 0.07828622
000010 26 07 25 3d 2b 81 50 3e f9 a3 0b be ea ed f5 3d
       0.04029002 0.20361774 -0.1363677 0.12008269
000020 08 87 b8 3d 0e b4 e6 bd a7 5b dd bc c0 32 af 3d
       0.0901013 -0.112648115 -0.027021242 0.08554602
000030 ae be 02 bd 83 71 04 be 2d 52 11 3e 86 4e 07 be
       -0.031920128 -0.12933926 0.14191504 -0.13213548
000040 84 9c 8e 3e e8 fc 01 bd 1c 1a 1e 3e b4 15 19 be
       0.27853787 -0.03173533 0.15439647 -0.14949685
000050 ec 9e 8f 3e a0 ec 4c 3d 8a d1 9c 3e 8b bb 5d 3e
       0.28050935 0.05003035 0.30628616 0.21653573
000060 ed cf 07 bd 53 82 47 3d ab fd 0d 3e f9 54 eb 3d
       -0.033157278 0.04870827 0.13866298 0.114908166
000070 50 a2 87 3e fd fa e6 3b 89 f3 e0 3c 26 79 8c bd
       0.26491022 0.007048963 0.027459877 -0.06859045
000080 d7 89 c4 3d 63 5f 0e 3e af 0d 36 be 27 12 0d be
       0.09596603 0.13903575 -0.17778657 -0.13776456
000090 f6 9e 91 3e 22 ee 0d 3d 50 bc 46 3c ea ec d0 bd
       0.2844159 0.03465093 0.012129858 -0.10201438
0000a0 ad f8 1e 3c 70 e4 35 be b7 2d 66 3e e5 04 68 3e
       0.009702844 -0.17762923 0.22478376 0.22658117
0000b0 de 33 5a 3e f5 7b 43 bd 01 50 44 3e d4 7d 83 bd
       0.21308848 -0.047725637 0.19171144 -0.06420484
0000c0 69 74 9b 3c b5 8e ab 3d 19 04 39 3d d2 63 18 3e
       0.018976407 0.083768286 0.045169923 0.14881828
0000d0 4a 51 1d 3e 2a 18 7a 3d 3a 2b 13 3c a6 85 a1 bd
       0.1536304 0.0610582 0.008982474 -0.078868195
0000e0 86 7d 10 3e b5 03 3a 3e 59 4c 1d bd 5e fe 27 3e
       0.14110383 0.18165477 -0.03840289 0.16405627
0000f0 6e 87 0d bc 2c 06 e7 bd e4 14 51 be c6 1f 47 3d
       -0.008638246 -0.11280474 -0.20418125 0.048614286
000100 fa b8 0d be bd e6 bb bd 40 69 ef 3c 5b 10 4c be
       -0.13840094 -0.09174869 0.029224992 -0.19928114
000110 43 ec 48 be 44 ea e4 3d d3 23 a1 3d 03 c6 81 bd
       -0.19621377 0.11177495 0.07868161 -0.06336596
000120 12 af 9d 3d 1a 15 0a be 9d 8d 4d be c8 ff 04 3e
       0.07699408 -0.13484612 -0.20073552 0.12988198
000130 ba e8 9a be 07 12 b6 bc d2 4a e5 bd 10 44 4f be
       -0.3025568 -0.022225393 -0.111959115 -0.20240808
000140 3f 3c 2a bc 75 99 23 3e 4b 83 52 3d ac a3 1c 3d
       -0.01039034 0.15976508 0.051394742 0.038242027
000150 20 e7 20 be bc a5 d2 3c 91 51 ec 3d 06 56 d1 bd
       -0.15713167 0.025713794 0.11538995 -0.10221486
000160 44 5b 5a bd 74 e2 22 3e 87 f1 d8 bc ca a7 df bb
       -0.053309694 0.15906698 -0.026482357 -0.006825422
000170 5c 8b 82 bc 91 4c 52 be 37 9a 2d be 24 ec 51 bd
       -0.015935592 -0.2053702 -0.1695336 -0.051250592
000180 a8 f0 11 be 38 f5 f0 3b f6 91 57 be ed 6c 8c 3e
       -0.1425196 0.007353451 -0.21051773 0.27426854
000190 dc d0 ea bd bf 8a 04 be ae 46 5d 3e 27 fa 4e 3e
       -0.11465618 -0.12943552 0.21608993 0.20212613
0001a0 2e 71 90 3e 51 07 89 3e 0f 76 8a 3e 96 3e 4e 3d
       0.2821135 0.26763394 0.27043197 0.050352655
0001b0 6d d8 11 3e 67 8e 26 3d 17 cd ba bc 89 b9 a1 bd
       0.14242716 0.04066315 -0.022802873 -0.07896716
0001c0 1c be 41 3e 68 55 66 be 64 43 89 3e 33 9b f7 3d
       0.18920177 -0.22493517 0.26809227 0.12090149
0001d0 e6 b4 b8 bd b2 5c fa 3d b9 f9 ec 3c b0 9c 4c 3d
       -0.09018879 0.122247115 0.02892767 0.049954116
0001e0 17 fe f2 bd 11 4d 77 bd c5 0d 6b 3e 4d 55 c3 3c
       -0.1186487 -0.06037623 0.22954471 0.023844386
0001f0 4b f1 33 bd 29 50 3e 3e 55 1d a7 3d ce 58 d5 bd
       -0.043931287 0.18585266 0.081598915 -0.10417329
000200 06 4a b6 bd bb e2 06 3c 03 84 dd bd 25 f9 09 be
       -0.089008376 0.008232768 -0.10816195 -0.13473947
000210 c6 49 65 bd 32 04 9b 3d 86 cc 14 be 2d 39 1b 3d
       -0.05597856 0.075691596 -0.14531144 0.037896324
000220 ae e3 61 3e 16 99 d1 3d 91 b3 aa 3c cd 56 96 3d
       0.22059509 0.10234277 0.020837577 0.07340775
000230 9b fd 66 3d 54 5c 04 bd 84 43 15 3e a2 cd 35 be
       0.0563942 -0.032314613 0.14576536 -0.17754224
000240 4b 35 24 3d 0d da 20 be fd 26 85 be 10 5e 66 3d
       0.040089887 -0.1570818 -0.26006308 0.05624205
000250 24 f4 73 3d 09 1d 4e 3e 78 45 de 3d 2e 19 85 3e
       0.059559003 0.20128264 0.10853094 0.25995773
000260 ee 2d b8 3d fa 7a 8b 3d 20 1f 0e 3c 48 62 b6 bc
       0.089931354 0.06810565 0.008674413 -0.022263661
000270 90 ee a7 bc e0 05 5f 3e ee 03 41 bb 25 70 21 bd
       -0.020499498 0.21779585 -0.0029451805 -0.03941359
000280 df ae bc bc 79 92 9a bc c6 98 1c 3e 52 fa 16 3e
       -0.023032604 -0.018868672 0.15292653 0.14743927
000290 76 91 0e 3d a1 ea 40 bd 77 22 c9 bd ed 87 04 3e
       0.03480669 -0.04709876 -0.09821027 0.12942477
0002a0 a1 eb 86 3e b9 e5 6f be 25 e6 b5 bd 36 45 2e be
       0.26351646 -0.23427476 -0.08881787 -0.1701859
0002b0 1f 30 7f bd c5 c4 27 3e d9 c2 75 3e 84 a4 2e 3e
       -0.06230175 0.16383655 0.2400011 0.17054945
0002c0 44 b4 a7 3d ff e8 b6 3d 30 4f 09 3e 96 7b 2a be
       0.0818868 0.08931159 0.13409114 -0.16648707
0002d0 eb 68 cd 3a 16 6e 72 be 55 82 35 be ab ff 27 3e
       0.0015671527 -0.23674807 -0.17725499 0.16406123
0002e0 0f 32 92 3e dc f5 6d 3e ad 15 39 bc c0 30 00 bd
       0.28553817 0.23238319 -0.011296672 -0.03129649
0002f0 e4 40 8e 3e 84 09 41 be cc 1b c9 bd c7 65 73 be
       0.27783883 -0.18851286 -0.09819755 -0.23769294
000300 92 7c 3e 3d 94 e9 40 be 38 dc f5 3d 0f 97 b9 3d
       0.04650552 -0.18839103 0.12004894 0.09062015
000310 ec 7a 86 3e 02 8b 86 be 47 b5 d2 bd 09 8e 1b be
       0.26265657 -0.2627793 -0.10288482 -0.15190901
000320 71 aa 90 3d d8 14 41 be 7e be 01 3d 7b ab 63 3e
       0.07063759 -0.18855608 0.031675808 0.22233383
000330 e7 51 8a 3e 76 b4 ad bd 2e 27 18 3e b1 d5 47 3c
       0.27015612 -0.08481686 0.14858696 0.012196944
000340 6d de 87 3d c5 a8 0c bd a6 fa 9d bd e2 78 7b be
       0.06634221 -0.03434064 -0.07713823 -0.24557832
000350 ec b6 31 3e 54 41 90 3d 99 1e 2c bd 9b 77 9e bd
       0.17354935 0.0704371 -0.042021368 -0.07737657
000360 f3 db 01 3e cb 58 72 3c 7e a5 56 bd ab de 0f be
       0.1268156 0.014791678 -0.05240392 -0.14049785
000370 41 86 80 3e 2d 67 98 be 88 5b 7c 3e 5d 7d 74 3e
       0.25102428 -0.29766217 0.24644291 0.23875947
000380 35 b0 ac bd cb fb 00 be 41 77 f6 3d 88 9b 46 3d
       -0.08432046 -0.12596051 0.12034465 0.04848817
000390 fd 9a 99 3e 9f 63 37 3b 1e 8e 07 3e b8 5c df 3d
       0.3000106 0.0027982963 0.13237807 0.109063566
0003a0 45 c5 35 3c a4 1b 5c be 5d f4 e3 bd 98 27 59 3e
       0.011094396 -0.21494919 -0.11130593 0.2120651
0003b0 04 5f a0 3e fa 99 83 be cc d0 07 3e 6d e3 a4 3b
       0.3132249 -0.25703412 0.13263243 0.005031994
0003c0 3c 34 0a be a8 e1 fd 3d be 18 ed bc 5c a5 80 bd
       -0.13496488 0.12396556 -0.028942462 -0.0628154
0003d0 d3 1a 6c be ac a2 ba 3d aa 4a b9 3d 75 d1 5d be
       -0.23057108 0.091130584 0.09047444 -0.21661933
0003e0 78 9c 60 be a2 db 10 be 78 e7 08 bc 88 01 2e 3e
       -0.21934688 -0.14146283 -0.008355968 0.16992772
0003f0 f6 aa f1 3a 0e a1 68 3d 5e 66 66 3d 52 b9 12 bd
       0.0018437791 0.05679422 0.05624997 -0.035821266

prop_h_to_h.0.bias f4 [20]
000000 2f 10 4c 3e 44 51 3d 3e 56 16 d3 3c 51 e0 50 be
       0.19928049 0.18488032 0.025767487 -0.2039807
000010 71 26 1d 3e f0 c0 89 3e 07 79 8f 3e d3 76 33 be
       0.15346695 0.26905012 0.28022024 -0.17525797
000020 07 e9 5d 3d e7 57 8f 3e 8e 7b 4d 3e 36 a7 0a 3e
       0.05417731 0.27996752 0.20066664 0.13540348
000030 cf 61 98 be c1 10 4f be 23 3f fd bd 8a 01 33 be
       -0.29762122 -0.20221235 -0.12365558 -0.17481056
000040 f6 5f 98 be cc 2a 4a 3e c1 57 9d 3e a6 b2 24 be
       -0.29760712 0.19742888 0.30731013 -0.16083774

prop_h_to_h.1.weight f4 [20, 20]
000000 71 d3 80 3e ac 5f 42 3e be 74 ba 3c 39 61 1b be
       0.25161317 0.18981808 0.022760745 -0.15173806
000010 dc 41 f6 bd ec f2 a0 3e f7 77 87 3d 13 a2 07 be
       -0.120242804 0.31435335 0.06614678 -0.1324542
000020 76 e2 65 3e e8 13 51 3e d9 27 3f 3e 5f 2d 81 3e
       0.22449669 0.2041775 0.18667544 0.25229928
000030 53 f7 a8 bc b0 e8 de bd 7c a7 6a 3d f2 2e fd bd
       -0.020625746 -0.10884225 0.05728863 -0.1236247
000040 6d ad 0d be 6f 02 81 3e 31 be e3 3c a6 d2 af bc
       -0.13835688 0.2519717 0.027800651 -0.02146275
000050 e8 07 5e 3e 4a ff 2c 3b aa 7c 81 3e 4c ad 8b 3d
       0.21682703 0.0026397281 0.25290424 0.06820163
000060 64 1f 11 bb 00 4c 78 3e 1c 94 9e 3e 16 e6 8b be
       -0.0022143954 0.24247742 0.30972373 -0.2732398
000070 2a a4 b9 3d 81 94 31 3e 66 52 d9 3c 8a 32 cf 3d
       0.09064515 0.17341806 0.026528548 0.101170614
000080 7b 35 dc bd 11 de f6 bd 08 b2 51 be 89 ad 4d 3d
       -0.10752388 -0.120540746 -0.2047807 0.050214324
000090 e0 da 3b 3d a9 c9 c9 bd d6 7d 3b 3d 3f a0 97 3d
       0.045863032 -0.09852917 0.045774303 0.074036114
0000a0 b7 df 93 3c 8e 17 9a 3e b6 52 49 bd bc dc cc ba
       0.018051011 0.30096096 -0.049151145 -0.0015629749
0000b0 ff ee f6 3d 60 8e 83 3e c7 99 14 3e 2e e5 0b bd
       0.12057304 0.2569456 0.14511786 -0.03415411
0000c0 a8 2e 9d 3d 68 47 52 3e ab 4d 69 3c b0 41 57 3e
       0.076749146 0.20535052 0.014239709 0.21021152
0000d0 6a e7 c9 bd aa 43 9e bd e3 1c 5d bd 38 69 bf bd
       -0.09858592 -0.0772775 -0.053982627 -0.09346241
0000e0 16 c9 42 bc 71 b2 57 3e 32 2c d0 b9 fb e9 b1 3d
       -0.011888763 0.21064164 -0.0003970578 0.08687206
0000f0 3e b9 93 bd 62 c5 54 be 70 fa f0 bc 52 d0 30 3e
       -0.072130665 -0.2077842 -0.029416293 0.17266968
000100 69 a0 38 be 9e 1e 84 be 28 1c 7c 3d 25 e7 d0 3c
       -0.18029942 -0.2580461 0.06155029 0.025500843
000110 9a 6f 77 bd 82 79 1d be 02 af 2f bd 93 f8 ad 3d
       -0.060409166 -0.15378383 -0.04289151 0.084946774
000120 7e 40 b5 3c d7 51 17 3e 5d d2 f8 3d c8 e5 ed bd
       0.022125479 0.14777313 0.121494986 -0.11616093
000130 1f 47 88 3e 1c 2c c6 bd 38 f0 0c be 4c ae d7 3d
       0.2661676 -0.09676382 -0.13763511 0.10531291
000140 22 4a 87 be 91 11 9d be 69 1a 86 bd dd f1 d0 3c
       -0.26423746 -0.30677465 -0.06548006 0.025505954
000150 67 c4 f0 3c 27 9d b3 3d 8a 73 e8 3d 1f 4d dc bd
       0.029390527 0.08770209 0.11350162 -0.10756897
000160 53 42 29 3e 16 60 81 be 12 7b a7 3d b1 f8 79 be
       0.16529207 -0.2526862 0.08177771 -0.24411274
000170 4c 21 2b 3e 34 da 78 bd f6 d3 88 3e df b8 99 3e
       0.1671192 -0.06075497 0.26724213 0.30023858
000180 fc d3 f0 3d f8 38 97 be ef f8 96 be 92 89 31 3e
       0.11759183 -0.2953565 -0.29486796 0.17337635
000190 9f 7f 22 be 6e fb 8b be 81 18 7f be bc be d4 3d
       -0.15868996 -0.27340263 -0.24911691 0.10387942
0001a0 5f 60 93 bd 9c 77 2a be 64 2c 85 be a1 b8 21 3e
       -0.07196116 -0.1664719 -0.2601043 0.15793087
0001b0 98 d3 26 3e 36 d8 2c be bb 5e 0c bd ec 99 94 be
       0.16291654 -0.16879353 -0.03427003 -0.29023683
0001c0 c9 01 57 3e 4a 54 77 3c c3 33 7b 3e 79 9f 85 3e
       0.20996775 0.01509578 0.24531464 0.2609823
0001d0 ed e7 26 3d 91 69 d5 bd 74 28 92 3d 5e bb ba 3d
       0.040748525 -0.10420526 0.07136622 0.09117769
0001e0 f7 49 42 bc 79 3a 10 bd bf 5c 5e 3e 27 20 91 be
       -0.011858455 -0.035212014 0.21715067 -0.28344843
0001f0 1d 8a cc 3d 53 cb 6f 3e c3 7e a8 3d d7 7d 92 be
       0.099872805 0.23417406 0.08227303 -0.28611633
000200 95 ff e0 bd 11 86 71 bd 66 83 17 3e ec e6 02 3e
       -0.109862484 -0.058965746 0.14796218 0.12783402
000210 4d 49 cb 3d f5 b2 96 bd b0 de 69 3d 5d 6f 7e 3c
       0.099260904 -0.07358352 0.057097137 0.015529481
000220 d4 49 65 be 14 d8 a3 3d 12 fd c1 3d 2d 27 f7 bd
       -0.22391444 0.08000198 0.094720975 -0.12068019
000230 34 e9 25 3e f9 96 c4 bd 8b 6b d8 3c 61 df 5d be
       0.16202241 -0.09599108 0.026418468 -0.21667244
000240 83 7e 5a 3d 45 bd b4 bd b6 18 42 bd c7 45 0f be
       0.053343307 -0.08825163 -0.047386847 -0.13991462
000250 c5 02 82 bb 76 b1 40 3d 4e 47 68 bd 04 c3 9b 3e
       -0.0039676153 0.04704424 -0.056708626 0.30422223
000260 bb 07 c1 3d e2 b5 21 bc fe f7 44 be 76 52 0d 3e
       0.094253026 -0.009870024 -0.19235227 0.13800988
000270 40 be 6a be 7b 78 99 3e 84 12 e6 bd 3a 5a ff bc
       -0.22924137 0.29974732 -0.11234 -0.031170953
000280 b7 fd fe 3d 76 eb b0 3d 3e 04 0b 3e 59 a2 65 be
       0.12450736 0.086386606 0.13575837 -0.22425212
000290 9f b1 38 be 20 a2 72 3e e9 e6 dc bc 6c ba 06 be
       -0.18036507 0.23694658 -0.026965575 -0.13157052
0002a0 7e f0 6d 3e d2 cd 2a bd 17 50 45 3e 58 bc 82 3d
       0.23236272 -0.04170019 0.19268833 0.0638358
0002b0 d9 95 30 be 79 33 24 3d bd bb 88 be c2 bb 82 be
       -0.17244662 0.04008815 -0.26705733 -0.25533873
0002c0 33 4b 03 3e e2 23 e3 bd ea 27 42 3e 0a 30 bb bd
       0.12821655 -0.110908285 0.18960539 -0.09140022
0002d0 e9 d0 eb bd 50 b5 7a 3e fe 2d 15 3e ac c8 df bd
       -0.11514456 0.24483228 0.14568326 -0.10926947
0002e0 dd f2 8b bd 8c 07 1a 3e 95 a1 6c 3e 0d ab 6b be
       -0.06833432 0.15041941 0.23108514 -0.2301447
0002f0 64 e0 92 3d d3 13 5f 3e 02 a6 90 3e 67 45 88 3e
       0.07171705 0.21784906 0.28251654 0.2661545
000300 df 68 96 be bd f8 61 be ff 3a 46 bd a8 87 dd bd
       -0.29376885 -0.22067542 -0.048396107 -0.1081689
000310 92 6c 12 be e3 46 e5 3d e2 a2 62 3e 52 14 d6 bb
       -0.14299229 0.11195161 0.22132447 -0.006533184
000320 ff e7 20 3e 06 57 8c 3d 6b e3 aa 3c 09 5d 82 be
       0.157135 0.06852536 0.020860394 -0.25461605
000330 97 89 14 3c 84 4c 54 bd df a3 77 3e 29 66 27 bd
       0.009066007 -0.051830783 0.24183606 -0.040868912
000340 cb 75 cf 3d 1d 93 86 bd 83 f3 2e 3e 52 49 91 3e
       0.10129889 -0.065710284 0.1708508 0.2837625
000350 6c 80 e0 bd d6 44 0b 3e 0e d0 c4 bd 0b 48 7d be
       -0.109619945 0.13600478 -0.09609996 -0.24734513
000360 a9 7c a7 3c 4d 85 51 3d 3b 67 3b 3e 98 33 d0 bc
       0.020445185 0.051152516 0.18301098 -0.025415227
000370 b6 1c b0 3d 6d 90 76 bb 89 39 e6 bd b2 7f 27 3e
       0.08599226 -0.0037622706 -0.11241443 0.16357306
000380 53 33 66 bd e9 02 8b be db 2c 8f bc 80 cb ba bc
       -0.05620129 -0.27150658 -0.017477443 -0.022802114
000390 ce 75 89 bd 20 49 a7 bb 3c 0a d7 bd 42 20 a1 be
       -0.067119226 -0.0051051527 -0.10499999 -0.31469923
0003a0 a8 f3 10 3e 1c fc 8a bd 04 9a 5a 3e 8d 45 1c 3e
       0.14155447 -0.06786367 0.21347815 0.15260907
0003b0 55 f8 f9 3d 11 0e 68 be 12 cc 47 3d cd 3b b7 bd
       0.12205569 -0.22661616 0.0487786 -0.08946953
0003c0 87 8d 7f 3e c9 a5 f2 3a 71 89 20 3e 48 0b bf bc
       0.24956332 0.0018512543 0.1567743 -0.023320809
0003d0 a0 18 1e be ab b5 98 3e 8f 26 3f 3d df ba 83 3d
       -0.15439081 0.29826102 0.04666763 0.06432127
0003e0 3b 26 be bd b0 d3 22 3d 41 17 1c 3d 08 37 81 3e
       -0.09284636 0.039752662 0.038108114 0.25237298
0003f0 8d 51 50 bc d6 b3 0a 3e a5 3b 3c be 15 63 52 be
       -0.012714756 0.13545164 -0.18382128 -0.2054561

prop_h_to_h.1.bias f4 [20]
000000 b7 3d a7 bb b8 21 2f 3e 8f 6c 93 3e 0f ec 23 be
       -0.0051037925 0.17102706 0.2879376 -0.16008018
000010 23 23 65 be 32 4a 88 be 07 4c 72 3e 0b bd 72 3e
       -0.22376685 -0.26619107 0.23661815 0.23704927
000020 d6 8e 42 3e 45 8c 4a 3e 52 db 54 3e 63 51 30 be
       0.189998 0.19780071 0.20786789 -0.17218547
000030 a1 fa 1e bc d0 32 40 be 16 7f 20 bd b9 91 c6 3b
       -0.009703309 -0.18769383 -0.0391837 0.006059852
000040 df 1b a2 bd 78 93 2c 3d ec 0b 58 be 2a 67 6d 3e
       -0.07915472 0.042132825 -0.21098298 0.23183885

prop_h_to_h.2.weight f4 [20, 20]
000000 9c 3d 47 3e ed 26 24 3e bb ef bc bd 5a 15 9f be
       0.19457096 0.16030474 -0.092254125 -0.31070977
000010 a0 3f 5c 3c 21 9c 81 bd aa e8 3d 3e 68 fd 05 3e
       0.013442904 -0.06328607 0.18545786 0.13084948
000020 40 d0 94 3e f5 8a 11 3d b0 aa 8c 3e 43 34 72 bc
       0.29065132 0.03553291 0.27473974 -0.014782968
000030 66 f2 0e bd 35 8f b4 3c 41 0f c4 bc e3 98 a1 3d
       -0.034899138 0.022040943 -0.023933055 0.07890489
000040 7e bf 01 be 92 89 2f 3e 8a 71 01 be 3b 83 86 3e
       -0.12670705 0.17142323 -0.12640968 0.26271996
000050 b1 f7 3f bd 3b 17 d6 bd 6e 76 ed 3d 0c df 96 bd
       -0.046867076 -0.104536496 0.11594854 -0.073667616
000060 ee 83 12 3e ae 05 05 3e a2 c8 58 be 5f 06 55 bd
       0.1430814 0.12990448 -0.21170285 -0.05200803
000070 9c 7f 17 3e bd 7a 0f be ba c5 1f be 8d 8d 9a 3d
       0.14794773 -0.14011665 -0.1560277 0.0754653
000080 d3 a8 f9 bd ef 6b 82 3e 73 59 84 bd 4c ee 99 3c
       -0.12190404 0.25472972 -0.064623736 0.018790387
000090 d7 5e 0d 3c bd 56 b8 bd aa 4d 5a 3e 2b db 4e be
       0.008628569 -0.09000919 0.21318689 -0.20200793
0000a0 80 8f 69 3e 90 13 04 3e 67 46 95 3e 38 50 3a be
       0.22808647 0.12898088 0.29155275 -0.18194664
0000b0 36 2d 05 be 83 79 29 bd ef ae 87 3c a0 56 f9 bc
       -0.13005528 -0.04137565 0.016562907 -0.030436814
0000c0 b9 a8 b0 bd e5 ed 8f 3e 3a 3c 52 3e 01 47 a0 be
       -0.08625931 0.28111187 0.20530787 -0.31304172
0000d0 5e c1 3c 3c 57 09 57 bd 24 3b 24 be d2 70 84 3e
       0.011520712 -0.05249914 -0.16038185 0.25867325
0000e0 0a 72 cd 3c 18 db 52 be 97 16 fe bd d2 86 42 3e
       0.025078792 -0.2059139 -0.124066524 0.18996742
0000f0 08 7e 52 3d 7f da d3 3d 08 0b f1 3c d9 44 18 3e
       0.051389724 0.10344409 0.029424205 0.14870013
000100 76 ab 81 3e 1c 3d 9b 3e c0 50 19 be fb 5a 7f 3d
       0.25326127 0.3032006 -0.1497221 0.062342625
000110 d7 ea 04 be b8 ec 55 be df cb 86 be 4f dd c6 3b
       -0.1298021 -0.20891082 -0.26327416 0.0060688625
000120 d2 8c 4d bd 3c fa ee 3d 85 af 21 3e 54 00 3d be
       -0.050183125 0.11668822 0.15789612 -0.18457156
000130 cc 09 7b 38 36 7b a4 3d 77 f4 83 3e bb 2c 08 be
       5.9852187e-05 0.08031313 0.2577245 -0.13298313
000140 a3 c0 55 bb 99 33 9d 3e c7 61 1f 3e 19 02 a2 bd
       -0.003261604 0.30703428 0.15564643 -0.07910556
000150 e8 66 85 be be 85 37 be 3d 17 1a bd 09 25 95 3e
       -0.26055074 -0.17922112 -0.037619818 0.29129818
000160 2a e0 8a 3e 1a 77 8c 3e 09 91 5d 3e d9 ae 6a be
       0.2712415 0.27434617 0.21637358 -0.22918262
000170 bd ae 4f 3e d3 66 98 be 53 88 6f be b9 b0 d1 bc
       0.20281501 -0.2976595 -0.23391847 -0.025596963
000180 92 25 30 be 85 d6 46 bd af 65 42 be a5 a7 1a 3e
       -0.17201832 -0.048544426 -0.18984102 0.15103014
000190 34 d6 5b 3e 2c 09 26 3e cc df 1c bd 3e 4e 9c be
       0.21468431 0.16214436 -0.038299367 -0.30528444
0001a0 8a 0b 9e 3c 39 70 56 be 7f 34 b5 bd 9e 42 ed 3d
       0.019292612 -0.20941247 -0.088479035 0.11584972
0001b0 32 c9 95 3e db 06 e4 3c 65 23 22 3e 01 29 e1 bd
       0.29255062 0.0278353 0.15833814 -0.10994149
0001c0 0c 01 68 bc b4 f6 d1 3d dd f2 37 be fc 28 a7 3c
       -0.014160406 0.10252133 -0.17963739 0.020405285
0001d0 4d ad 33 be 23 2d 1a 3e ec d0 00 bd ce 69 5a 3e
       -0.17546578 0.15056281 -0.031449243 0.21329424
0001e0 5a 83 c4 3d 7d 4b 14 3e 4f ed af 3d d1 ae 98 3b
       0.09595366 0.14481921 0.08590185 0.0046595116
0001f0 5c 63 1c bd f3 e5 51 be be fb 7b 3e 3f 68 19 3e
       -0.038180694 -0.20497875 0.24607751 0.14981173
000200 a4 5e c5 bd 7b fd c2 3d a2 7a 46 3e da 81 3f be
       -0.09637192 0.09521004 0.19382718 -0.18701878
000210 9d 4f 7d 3e 4c 89 6c be 2c f0 f3 3d c0 de 4f 3e
       0.24737401 -0.2309925 0.119110435 0.20299816
000220 79 65 de bd f6 02 8b bc 59 d3 15 3e 3b 05 bd 3d
       -0.10859198 -0.016969185 0.14631404 0.09229513
000230 e2 72 0a 3e d8 a6 fd bd 10 47 2a be 26 52 2b 3e
       0.13520387 -0.123853385 -0.1662867 0.16730556
000240 d6 d3 19 3e 89 86 b4 3c 01 dd 7e be 6f 6f 0e 3e
       0.15022215 0.022036808 -0.24888994 0.13909696
000250 54 4a 22 3c aa f2 3f be f1 87 e5 bd a6 d2 97 bc
       0.0099054165 -0.18744913 -0.112075694 -0.018533062
000260 31 60 3a be ae 33 b6 3d 75 68 87 bd 40 23 80 be
       -0.18200757 0.08896576 -0.066117205 -0.25026894
000270 d8 47 64 3d 59 c8 cc 3d 1d de 0d be 26 53 ff bd
       0.055732578 0.09999151 -0.1385426 -0.12467031
000280 09 38 90 3e da 9a 17 3e 45 f0 23 bd 35 13 d5 bb
       0.2816775 0.14805165 -0.04002406 -0.006502534
000290 c3 f3 c8 bd 18 45 7c 3d 5c 54 c0 ba 84 83 05 3e
       -0.09812119 0.06158933 -0.0014673579 0.1303845
0002a0 96 dd f7 3d 05 08 89 bd a1 0b 1f 3e ac 59 20 be
       0.12102811 -0.06690983 0.1553178 -0.15659207
0002b0 de 3b 9e bc 16 07 95 be 0f 02 9e 3d 1e b1 8f bd
       -0.019315656 -0.2910697 0.077152364 -0.07016204
0002c0 cd e5 9a be 1f 4c 42 be 7a fa 8c be d7 e6 dd 3d
       -0.3025345 -0.1897435 -0.27534848 0.10835045
0002d0 0e 96 0e 3e 77 78 3c 3e 0c 4d 61 3e 30 fe 60 be
       0.13924429 0.18405329 0.22002047 -0.21971965
0002e0 cd 0c 70 be c1 2b 8a bd 06 ca 3e 3e ec 3a 9b 3e
       -0.23442383 -0.06746627 0.18631753 0.3031839
0002f0 4c 38 71 3e 23 e3 15 3e 18 12 92 3e af c7 4f be
       0.23556632 0.14637427 0.2852943 -0.20291017
000300 82 89 c2 bc 19 76 80 be 26 ed 6c be 92 b4 07 be
       -0.02374721 -0.250901 -0.2313734 -0.13252476
000310 8a a5 d4 bd e7 40 5d 3c 4e 6c d5 3d 48 e9 44 3e
       -0.103831366 0.013504243 0.10421048 0.19229615
000320 dd 34 8a be da b3 82 be 73 d2 84 bd c7 45 56 3e
       -0.26993456 -0.2552784 -0.064854525 0.20925055
000330 3f 79 02 3e c7 0f 9d 3e a7 eb 65 be 78 72 58 be
       0.12741564 0.306761 -0.22453175 -0.21137416
000340 8a a7 75 3d 26 22 03 bc 32 4b 54 3d a6 ec bc bd
       0.05997423 -0.008003747 0.051829524 -0.092248246
000350 c3 c9 23 be f8 d9 27 3e 3d 9f 82 3e 98 df fd bd
       -0.15994935 0.16391742 0.25512114 -0.12396163
000360 5d 96 2a 3e 45 39 19 bb 2d d7 38 3e 86 16 97 3d
       0.16658922 -0.0023380083 0.18050833 0.07377343
000370 7b 3d 87 3e 37 58 ba 3d 8a 66 5e bd ad e0 24 be
       0.26414093 0.09098857 -0.054297008 -0.16101332
000380 2d 4d 84 3c a9 80 16 3e 3c dc 1f be 75 2e 7f bd
       0.016150082 0.14697517 -0.15611356 -0.062300164
000390 83 c2 06 be f2 de 3f bd 7e 06 d1 3d 27 56 6c be
       -0.13160138 -0.046843477 0.102063164 -0.2307974
0003a0 9e a1 ff 3d d3 e1 8c 3d fb f8 65 be e1 56 35 be
       0.12481998 0.0687901 -0.2245826 -0.17708923
0003b0 e3 a2 d3 bd 95 13 b1 bc 2f 1d 9f bd 5d 56 1d 3e
       -0.103338026 -0.021615783 -0.07769238 0.15364976
0003c0 12 20 c2 3d b0 89 2e be 5d 79 14 bd cb 9a e6 3d
       0.09478773 -0.17044711 -0.036248554 0.11259993
0003d0 f5 58 86 3b 17 48 39 3e e5 22 99 bd fb 93 95 bc
       0.00409996 0.18093906 -0.07477359 -0.01825904
0003e0 cc 9c 56 be 94 3c a8 be b6 b0 f7 3c e5 85 14 3e
       -0.20958251 -0.32858717 0.03023563 0.14504202
0003f0 64 1e 52 bd b6 7c 6a 3d 22 32 8e 3e 73 b4 48 3d
       -0.051298514 0.05724784 0.27772623 0.049000215

prop_h_to_h.2.bias f4 [20]
000000 bd 06 69 3e 7d f4 3d be 70 e6 9a 3e 99 3f 91 be
       0.22756477 -0.18550296 0.30253935 -0.28368834
000010 b9 20 ae 3d ad 5e 55 3e f8 37 87 3e 6b 21 0c be
       0.08502335 0.20836897 0.26409888 -0.13684623
000020 d4 e0 9f 3e 58 12 7b bd 38 b1 2b be fa 68 63 3e
       0.31226218 -0.06129679 -0.16766822 0.22208014
000030 2b 5b 2f be 33 fa 6c 3e e2 53 06 be d7 47 90 be
       -0.17124622 0.23142318 -0.13117936 -0.2817981
000040 61 59 f7 bd 7b 44 41 3e 8d be 3d be ee 56 67 be
       -0.120775945 0.1887378 -0.1852972 -0.22591755

prop_h_to_h.3.weight f4 [20, 20]
000000 7e 5c 26 bd d6 d1 8a 3d 2a 47 1e 3e 76 5e db bd
       -0.04061555 0.06778304 0.15456834 -0.10711376
000010 69 9d b3 bd d3 52 b1 3c b5 40 39 bd 67 7b 2f 3c
       -0.08770258 0.021645939 -0.045227725 0.010710574
000020 5c 8d 7f 3e ed bd 21 bd 80 62 6e be f3 72 89 3d
       0.24956268 -0.039487768 -0.23279762 0.06711378
000030 7a c4 22 be af b3 d1 bd ea 9d 0c 3d 45 8f fa 3d
       -0.15895262 -0.1023935 0.034330286 0.12234358
000040 36 0f 8e 3d c9 39 e5 bc 7c f6 87 be 04 85 bb bd
       0.06936495 -0.027981656 -0.2655524 -0.0915623
000050 9b 44 79 be 64 ab 98 3e 58 a5 82 be 32 d2 15 3e
       -0.24342577 0.2981826 -0.25516772 0.14630964
000060 d9 d2 97 be 9e 10 30 be 3c 76 38 be ed e8 67 bd
       -0.29653051 -0.17193839 -0.18013853 -0.05661862
000070 29 93 3a be db 08 fa bd 88 a5 6f 3e c5 2b 19 bd
       -0.182202 -0.1220872 0.23402989 -0.037395258
000080 64 ee 5b 3e e1 f3 95 be 55 1f 29 be 19 47 98 3e
       0.21477658 -0.29287627 -0.16515858 0.29741743
000090 60 46 12 bb ca 97 82 be 66 99 48 3e de 2b 8e bd
       -0.0022319779 -0.2550643 0.19589767 -0.06941961
0000a0 0f dc cc bc 7b df 8d be c4 8b 23 bd 00 e5 6c 3d
       -0.025007276 -0.27709565 -0.039928213 0.05783558
0000b0 f2 fa 90 bd 83 04 0c 3c 18 6b 82 bd 4e bb 3b 3b
       -0.07079114 0.008545998 -0.06368083 0.0028645578
0000c0 28 d7 22 3e bf de cb 3d 04 55 5d be 22 25 b6 bd
       0.15902388 0.09954595 -0.21614462 -0.08893801
0000d0 36 91 9c 3d 70 be 08 bd bd ce a8 bc c2 a9 da bd
       0.07644884 -0.03338474 -0.020606393 -0.1067691
0000e0 47 53 83 3d 31 80 57 3e 6b a0 95 be 79 50 f9 bd
       0.06412368 0.21044995 -0.29223952 -0.12173552
0000f0 5f f9 84 be 99 8b 7f 3e 5f 84 94 be 73 e7 d0 3c
       -0.25971505 0.24955596 -0.2900724 0.025500989
000100 ed 51 a7 bd a6 63 92 bc 62 9d e7 bc 41 de 75 3c
       -0.08169923 -0.017869782 -0.028273288 0.015006603
000110 c9 54 8e be fe f5 d3 bc 1f 60 83 bd 6c f3 31 be
       -0.2779906 -0.025874134 -0.06414818 -0.17378014
000120 84 12 58 3e db 4f 95 be 75 4f 02 3e 3e eb 47 3e
       0.21100813 -0.29162487 0.12725623 0.19523332
000130 af f1 5b be 98 cd d5 bd 35 29 72 3e 38 61 26 3e
       -0.21478914 -0.104396045 0.23648532 0.16248024
000140 81 27 45 bc 7d 8d 4c bd eb 56 ce 3a 38 32 66 3d
       -0.012033344 -0.04993962 0.0015742456 0.056200236
000150 61 be 83 3e 71 22 8b 3e ed 7b bc bd 81 83 11 be
       0.25731185 0.27174714 -0.092033245 -0.14210321
000160 e7 e7 5c 3d f9 4e 6e 3e 95 75 e2 bd 67 c4 c9 3d
       0.053932097 0.23272313 -0.11057583 0.09851914
000170 76 11 a8 bd 0e 7e 4e 3e 2a a4 33 3c af 18 84 3b
       -0.082064554 0.20165274 0.010964433 0.004031263
000180 8a c5 9a bc 3e 52 e8 bd 2a 9c 28 be c5 96 4f 3d
       -0.018893022 -0.113438115 -0.16465822 0.050680894
000190 f1 30 52 bd 6e ce a0 3d db 09 7b be 6a a7 f7 3d
       -0.051316205 0.07851873 -0.24515478 0.120924786
0001a0 84 30 8c bd bb ed a4 be 5c c1 98 be a7 16 97 3e
       -0.06845191 -0.32212624 -0.29835021 0.2950947
0001b0 2a 46 40 be 57 7c 15 3d c3 66 4f bd fb a7 02 be
       -0.18776765 0.036495533 -0.05063511 -0.12759392
0001c0 4d ce 81 3e 7d f6 40 3d c4 df b8 3d 48 43 09 3d
       0.25352708 0.04711007 0.09027055 0.03351143
0001d0 f8 9c 6a bd 65 62 93 be c3 cb 00 bd 41 e0 44 bc
       -0.057278603 -0.28786007 -0.031444322 -0.012016357
0001e0 b8 27 10 be 8a 84 7a bd 9f 09 9d bc a0 5d 55 bd
       -0.14077652 -0.061161555 -0.019169627 -0.05209124
0001f0 d6 04 08 3e f7 62 2c 3e 27 02 0b 3e bc 7b e9 3b
       0.13283095 0.16834627 0.1357504 0.007125346
000200 cf 4d b2 bd dd c7 54 3d 8d a7 ea 3d e1 ea 20 be
       -0.08706247 0.051948417 0.11457739 -0.15714599
000210 31 5b 92 3d a7 1d 1d 3d 6d 2e af 3d 2a 75 ec 3d
       0.071463 0.038358357 0.08553777 0.11545785
000220 5f e2 87 3c 54 88 e4 3d d8 95 2f 3e 16 32 0d 3d
       0.016587434 0.11158815 0.17147005 0.034471594
000230 b5 66 52 3e 0b 05 37 bd ca 1d 3f 3d a7 62 98 3a
       0.20546992 -0.044682544 0.04665927 0.001162608
000240 14 02 c8 3d 5a 6b de 3d 03 85 36 be 2d 64 19 bb
       0.09766021 0.108603194 -0.17824177 -0.0023405657
000250 4a 69 44 bd ad 66 f2 3c c6 2f c0 bd 31 39 04 be
       -0.047951974 0.029589975 -0.09384112 -0.12912442
000260 37 04 0c 3e 36 7e e9 bd 7d 9a 91 3d 4d 2f 2e bc
       0.13673483 -0.11401026 0.071095444 -0.010631395
000270 a8 c9 db 3d 8b 26 8f 3d a5 6f a1 bd 1f 4f 1b 3e
       0.10731822 0.06989773 -0.07882623 0.15166901
000280 30 aa 60 bd 62 55 0a 3e 34 00 1b be 5a b6 e6 3d
       -0.054849803 0.13509133 -0.15136796 0.112652496
000290 e3 17 41 be ec 8f 81 bd 7f f2 04 3d cc ee 77 3e
       -0.18856768 -0.06326279 0.032457825 0.24212188
0002a0 ce da 3b be 3d b1 00 3d dd b5 a2 3d 7a c8 de bd
       -0.18345186 0.031419028 0.07944844 -0.108780816
0002b0 85 57 0e 3e 67 67 b8 3b 22 b9 24 3e 39 75 5b bd
       0.13900574 0.005627561 0.16086248 -0.05357859
0002c0 bf 61 ca 38 00 1c 76 be 4c 5c 14 be 89 c4 9d 3d
       9.650317e-05 -0.24034119 -0.14488333 0.07703502
0002d0 a9 11 70 be 8f 5c 11 be 30 21 68 be 26 29 6d 3e
       -0.23444237 -0.14195465 -0.2266891 0.23160228
0002e0 e1 62 fe 3d 49 d7 50 be 12 ef 32 bd 8b 23 84 3e
       0.124212034 -0.20394625 -0.043685026 0.25808367
0002f0 d7 e1 81 be e7 94 19 be ea ea 5f 3c e9 d8 6d be
       -0.25367615 -0.14998208 0.013666848 -0.23227276
000300 75 38 ed 3d 36 dd 05 3e c8 b0 ee 3d 9a 83 6e 3e
       0.11583034 0.13072667 0.11654812 0.2329239
000310 1b 91 f6 bc a9 29 06 be 27 07 dc 3c f7 9a a1 3c
       -0.030098489 -0.1310183 0.02685888 0.019727213
000320 4a 4d 6b be be 94 10 3d 64 bd 94 be 22 5e 44 39
       -0.22978702 0.0352981 -0.29050744 0.00018727084
000330 b2 c0 be 3c e2 aa 27 3d 88 29 3e be 54 71 66 3e
       0.023285244 0.04093445 -0.1857053 0.22504169
000340 0a 37 42 3c 0d 41 11 be 7f ae 55 3e 9f 2e 8a bd
       0.011853943 -0.14184971 0.20867346 -0.067471735
000350 22 79 ed bc c7 05 11 3d fe 37 2e be 4b 2d d8 3d
       -0.028988425 0.0354059 -0.17013547 0.10555514
000360 7c 59 5a be d3 cc 22 be ca 34 ce 3d 09 69 8e bc
       -0.21323198 -0.15898447 0.100686625 -0.017384069
000370 5a 85 06 3d 0a 15 2c bd 86 0b 90 be 69 1e 7f 3e
       0.032842018 -0.042012252 -0.28133792 0.24913944
000380 af 3a 22 be 0b 8e 9c 3d 7c 7b 6a be 4a 92 f3 bc
       -0.15842699 0.0764428 -0.22898668 -0.029732842
000390 88 80 98 be 72 4a f6 3c c8 5a 06 bc 8c ae ac 3d
       -0.29785562 0.030064795 -0.008200355 0.0843173
0003a0 0c ac 9c 3e 82 f0 8a be b5 93 b8 bd 4a f0 65 3e
       0.3060001 -0.27136618 -0.09012548 0.22454944
0003b0 08 b5 f9 bd ac 78 f1 3d ec 0e 90 3d e9 ac b1 bd
       -0.12192732 0.117905945 0.07034096 -0.08675558
0003c0 0e dd 93 3e 57 19 85 bd 37 d2 97 3e 7e 61 32 be
       0.2887959 -0.06498974 0.2965257 -0.17420003
0003d0 2a af cd 3d 7b 53 81 ba 47 79 98 3c f4 d9 c1 bd
       0.100431755 -0.0009866798 0.018612517 -0.094653994
0003e0 c0 b1 0b 3e 5b 22 28 3d 41 4e 77 be e9 54 bd bd
       0.13642025 0.04104839 -0.24150945 -0.09244711
0003f0 19 bd 5b be 68 28 93 3e 3a 17 bc 3c 1b 8c 5d be
       -0.21458854 0.28741765 0.022960294 -0.21635477

prop_h_to_h.3.bias f4 [20]
000000 e7 6f 57 3e a8 9c 30 be 16 b5 9e 3e 64 5f be bd
       0.21038781 -0.1724726 0.30997533 -0.09295538
000010 bd 30 4d 3e c0 2b 9a be ca 74 56 3e ce 92 3b be
       0.20038123 -0.30111504 0.20942989 -0.1831772
000020 28 22 7a be 45 99 7a be 9f 38 b2 be 35 9a a5 be
       -0.24427092 -0.2447253 -0.34808823 -0.32344213
000030 c4 ca 77 3e 1d 0f 5c be cb 61 8b be 18 eb c3 3d
       0.24198443 -0.2149014 -0.27223048 0.09566325
000040 fb c1 98 bb 21 76 9f 3e 1c c3 a1 be 98 c7 59 be
       -0.004661796 0.31144813 -0.3159417 -0.21267545

prop_h_to_h.4.weight f4 [20, 20]
000000 cc fa f5 3d 48 42 49 bc 99 e4 b8 3d 22 b6 85 be
       0.12010726 -0.012283869 0.090279765 -0.2611552
000010 9c 10 a0 3d 93 9e a4 be fe 18 ae 3c a0 4c 96 3d
       0.07815668 -0.32152233 0.021252152 0.07338834
000020 36 36 e5 bd 9a 36 4a be 9f 75 ad be 21 1a 8b be
       -0.111919805 -0.19747391 -0.338788 -0.27168372
000030 17 45 5f 3d 53 5d 3b bc cd 66 99 be d4 1a 0e bc
       0.05450925 -0.011435824 -0.29961243 -0.0086733885
000040 e1 18 d9 3d d8 9b 77 3d a5 eb 21 bd 46 5b f1 bd
       0.106004484 0.06045136 -0.03953137 -0.11784987
000050 1c 41 76 3e 47 3e 65 be e5 cb 3b 3b bf 6c be 3d
       0.24048275 -0.22387038 0.0028655466 0.092980854
000060 8d c3 3b 3e ea 0d 2c 3c f1 21 44 3e 35 ae 18 be
       0.18336315 0.010501364 0.19153573 -0.14910205
000070 6a 75 06 3d 32 7b af bd 76 3b d0 3d c3 91 5b be
       0.03282682 -0.085684195 0.10167591 -0.21442322
000080 42 67 3e 3e c7 be 49 be 97 ff 3d bd 37 24 4f 3e
       0.18594077 -0.19701682 -0.046386328 0.20228659
000090 49 f8 af bd b9 71 b9 bb b8 97 e4 bd d4 dd 47 bc
       -0.085922785 -0.0056593088 -0.111617506 -0.012198884
0000a0 4f c7 14 bd cd ab 20 be 82 eb 8d 3d c1 77 85 be
       -0.036322888 -0.15690537 0.06929685 -0.26067927
0000b0 7e 92 1d 3e a4 08 11 3d 4e a1 b3 bd 93 de 41 be
       0.15387914 0.03540863 -0.08771001 -0.18932562
0000c0 29 c4 88 3d e9 2a cc bc ab 2a 3c be 65 e0 97 be
       0.066780396 -0.024922805 -0.18375652 -0.29663387
0000d0 35 7e 5e 3e 3b 77 8f be 73 cd b5 bb cd f5 18 3d
       0.21727832 -0.28020653 -0.005548173 0.03734379
0000e0 b0 5d c9 3d 1b b6 99 3e c6 78 a8 be ff 74 a6 3d
       0.098323226 0.30021748 -0.32904643 0.08127784
0000f0 70 ae 8a 3e 3e 25 1e be 00 87 a6 bd b0 72 85 be
       0.2708621 -0.15443894 -0.08131218 -0.26064062
000100 0c 6f 96 3e ad c0 70 be 5d 4c 40 3e ac 1f 0e 3e
       0.29381597 -0.23511 0.1877913 0.1387927
000110 c8 13 fa 3c 47 84 9b 3b 44 05 2e bd 22 e5 9f 3c
       0.03052701 0.0047459933 -0.04248549 0.019518439
000120 85 41 d1 bd e9 92 4a be 3b 92 00 be f5 68 7b bd
       -0.10217575 -0.19782604 -0.12555782 -0.06137939
000130 ed 1e 26 be 59 fe 50 3d 88 3f 9c 3d 48 e6 33 bd
       -0.16222735 0.051023815 0.07629305 -0.043920785
000140 0d 92 f8 bd 0e 2b be 3d 77 32 36 be 2e 68 13 3e
       -0.12137232 0.09285556 -0.17792688 0.1439521
000150 68 33 99 be c3 c1 90 3e 85 61 04 bd f9 f1 de bd
       -0.29922032 0.28272828 -0.032319564 -0.10885996
000160 28 04 aa bc e5 10 7b 3d a9 5d 96 3e 56 e0 6c 3d
       -0.020753935 0.06129541 0.29368332 0.05783113
000170 8d 8b a3 3d 82 08 11 bd 47 19 98 3e b4 55 95 be
       0.079856016 -0.035408504 0.29706785 -0.2916695
000180 c2 62 5e 3d 71 50 a6 be b0 fd 79 3e 2b 97 c2 3c
       0.0542934 -0.32483247 0.2441318 0.023753723
000190 88 3b af 3c fe b7 21 be 78 ed 38 3e dc a6 6a be
       0.021390691 -0.15792844 0.18059337 -0.22915214
0001a0 16 e7 70 3e 14 09 58 be 69 7f 0f 3d f7 83 33 3d
       0.23525652 -0.21097213 0.035033617 0.043827023
0001b0 e5 ac e7 bd 7b d7 3c 3d 27 bb 74 3d a3 be 73 be
       -0.11312274 0.046103936 0.059748795 -0.23803191
0001c0 80 0b 8b bd 68 2f 11 bc e1 7b 2a be 96 be e9 3d
       -0.06789303 -0.0088614 -0.16648819 0.114133045
0001d0 e7 d6 8c be a7 b1 15 3e 58 ff 63 be 5a 54 d2 3c
       -0.27507707 0.1461855 -0.22265375 0.025674988
0001e0 21 c1 ea bb 52 a1 7f be a1 e2 7e 3e 72 f7 b9 bd
       -0.007164136 -0.24963883 0.2489114 -0.090803996
0001f0 37 8e 8d 3e 34 ad a0 bd 62 21 ca bc 15 5d 92 3d
       0.27647564 -0.07845536 -0.024674121 0.0714666
000200 d8 50 47 3d b7 97 8f bd 0a b8 8d be 34 7e 0f 3d
       0.048661083 -0.07011359 -0.27679473 0.035032466
000210 35 1e 9c 3e 86 c1 15 bd 37 be d1 bc 61 7a 5f 3e
       0.30491796 -0.03656151 -0.025603397 0.21824028
000220 e8 24 8e be e1 91 6c 3d 2b c5 f0 bd 56 86 48 be
       -0.27762532 0.05775631 -0.11756357 -0.19582495
000230 4b 6b 8b 3d f3 87 3c bd 0e ca 0b 3d c3 c2 8b 3e
       0.06807574 -0.04602809 0.03412824 0.2729703
000240 22 fa 59 be 3b 13 2f 3d 4f 55 7a bd f4 81 78 bd
       -0.21286824 0.04274295 -0.061116513 -0.060670808
000250 69 05 c9 3c fc 72 80 3d ea c2 19 3d 08 05 17 3e
       0.024538713 0.062719315 0.0375394 0.14748013
000260 d7 94 92 be 7e 3d 40 3e 11 5d 3b 3e 7c 75 9f be
       -0.2862918 0.18773457 0.18297221 -0.3114432
000270 b4 5a 82 3e 98 ee e7 bc 7d e5 8e 3d 3d ed 99 3e
       0.25459826 -0.028312013 0.06977365 0.3006381
000280 48 96 12 3d fc 94 21 be dd b1 04 3e 7b 31 ad bb
       0.03578785 -0.1577949 0.12958474 -0.0052854395
000290 cd c7 9d 3d 16 8d 8f bd 5d 77 67 3e af 61 f4 3d
       0.077041246 -0.07009332 0.22604127 0.11932694
0002a0 e1 88 8c be 8c dd 24 be a9 34 72 be ae 02 58 be
       -0.2744818 -0.16100138 -0.23652901 -0.21094772
0002b0 70 4a a6 3e 3c 13 a4 be 09 f6 a0 be 53 8e 97 3d
       0.32478666 -0.32045925 -0.3143771 0.07400193
0002c0 60 a4 cb bd 7a a6 b5 bd e3 fd 46 3d 9d d2 76 bc
       -0.099434614 -0.088696435 0.04858197 -0.015064863
0002d0 b8 8d 55 bd 41 3f fe bd 50 9b 83 3e 38 23 d6 bd
       -0.052137107 -0.124144085 0.25704432 -0.10455936
0002e0 35 82 8e 3e ae ac a3 bd 9a 52 c0 3d 15 e3 be bd
       0.27833715 -0.079919204 0.09390755 -0.09320656
0002f0 71 71 0d be 78 b2 60 be 10 d9 12 3c d2 f1 a4 be
       -0.13812806 -0.2194308 0.008962885 -0.32215744
000300 b4 1f a5 bd 69 6b 5d be 39 2a a0 3b b4 40 d7 3d
       -0.080626875 -0.21623005 0.004887846 0.10510388
000310 bd 62 d8 bd c3 d3 0f 3e 5a 10 4c 3d 6b db a0 be
       -0.10565708 0.14045624 0.04982028 -0.31417403
000320 75 ee 7a 3e 95 e5 d2 bd 93 f1 72 3e 60 4b 51 be
       0.24505027 -0.102976955 0.23724966 -0.2043891
000330 6b a8 fa 3d 2b 76 ed bd 24 ec 4e bc 86 da 0b 3e
       0.122391544 -0.115948044 -0.0126295425 0.13657579
000340 44 8c 49 bd d4 e6 4d bd 0d 4f 8e 3d 4d 52 2d be
       -0.049206033 -0.050268963 0.069486715 -0.16925927
000350 56 ac fd 3d 05 3e 64 be 4d c9 5f bd 4b 7a da bc
       0.12386386 -0.22289284 -0.054635335 -0.026669642
000360 8d 57 20 3d c4 31 80 3e 57 f3 9b bd a0 ae a8 3c
       0.039145995 0.25037968 -0.07614773 0.02059108
000370 00 f0 8b be 18 c9 a1 3e 37 b4 9e 3d f8 48 c5 bc
       -0.27331543 0.31598735 0.07749217 -0.024082646
000380 f6 09 0a be 0e 8a 67 3c 31 06 73 be 5e 3a 00 3e
       -0.13480362 0.014132036 -0.2373283 0.12522265
000390 e3 76 cb 3d 2b 94 9e 3e b4 2e 77 3e f2 e0 e7 bc
       0.09934785 0.30972418 0.2413891 -0.028305504
0003a0 eb 55 60 be 13 42 09 3e 26 b7 4d 3e 4c d3 89 be
       -0.21907775 0.13404112 0.20089397 -0.2691902
0003b0 80 ae c3 bd a0 cb 63 3d d3 98 6a 3d 1f a2 f8 3d
       -0.095547676 0.055614114 0.05727465 0.12140297
0003c0 30 62 02 bd 57 5d 3c 3e b5 b0 ef bb 7a 5e 49 3d
       -0.03183192 0.18394981 -0.0073147663 0.049162365
0003d0 8a 91 5e be 5d fe 1b 3e 84 38 0f be e7 a5 4b 3e
       -0.21735206 0.1523375 -0.13986403 0.19887505
0003e0 bd c0 5e 3e 76 ee c7 3b cf 6d 9c 3e 03 e4 85 bc
       0.21753211 0.006101425 0.30552527 -0.016344076
0003f0 b7 bd 2c be aa 26 70 3e 9d 3c f9 bc dc b0 53 be
       -0.16869245 0.23452249 -0.03042441 -0.20672935

prop_h_to_h.4.bias f4 [20]
000000 c5 1f 96 3e a6 36 cf 3c d6 97 a6 3d 68 97 fe 3d
       0.29321113 0.025294613 0.08134429 0.12431222
000010 f9 76 14 be 96 36 44 3e 32 ec 50 3e f5 71 3f 3c
       -0.1449851 0.19161448 0.20402601 0.011684884
000020 70 72 90 bb 58 6d 2d 3e a8 ff b9 bd d9 72 7e be
       -0.0044081733 0.16936243 -0.09081966 -0.24848498
000030 45 62 79 be 6c 98 08 3e e1 06 a9 3d 7b 80 35 be
       -0.24353893 0.13339394 0.08253265 -0.17724793
000040 cd 31 d7 bd 60 cc 8c be f5 83 75 3e 9d ef 6d be
       -0.105075456 -0.27499676 0.23976119 -0.23235936

prop_h_to_out.weight f4 [1, 20]
000000 0e d9 9e be 10 9b 11 be 2b ef 32 be 8c 44 0c be
       -0.31024975 -0.14219308 -0.17474048 -0.13698024
000010 63 97 6c 3e 9a cb 98 be 4f 89 72 be c0 a8 6e 3e
       0.23104624 -0.29842836 -0.23685192 0.2330656
000020 e7 be 71 be b1 5b 23 be 15 29 d3 bd ca c5 20 3e
       -0.2360798 -0.15952946 -0.1031057 0.1570045
000030 64 fb 47 3e c8 7e 84 bd 19 96 8b be 44 9a 61 3e
       0.19529492 -0.06469494 -0.27262953 0.22031504
000040 5f c4 86 3e 9d 84 5b 3e 56 ef 29 be 56 50 30 3e
       0.26321694 0.21437307 -0.16595206 0.17218146
