model-RNN-DDPG/just_theta/older/Q.pth (torch, 10898 bytes, 11 tensors)

prop_in_to_h.weight f4 [20, 3]
0.13163105 -0.63699806 0.17622627 0.54706013 0.6380959 -0.17954464 -0.5425421 -0.42383948
-0.2014744 -0.032840796 -0.3676776 0.061578766 -0.2768881 0.21994862 -0.5475387 0.41962472
0.0002206514 0.232366 -0.21937884 0.68268526 -0.43496004 -0.10934771 -0.17313664 -0.22199288
0.4500036 -0.1205762 0.7204394 0.04972101 0.13392921 -0.2860227 -0.5472129 0.37879452
0.16518809 0.23992077 -0.28313857 0.26333967 -0.056431156 -0.32981238 0.4901987 -0.26378694
-0.033426 0.37802738 -0.15026571 -0.32169202 -0.16042233 0.5200298 0.35262552 -0.34479105
-0.35030776 0.38721472 0.1079311 -0.3847208 -0.29624343 0.34684253 0.23273629 0.4885632
0.033286735 -0.25292695 0.4574903 -0.21402441
00000000: 4aca 063e 4e12 23bf a974 343e 220c 0c3f
00000010: 415a 233f 8dda 37be 0ae4 0abf 7d01 d9be
00000020: 4e4f 4ebe 1284 06bd 3d40 bcbe 043a 7c3d
00000030: 47c4 8dbe 363a 613e 7f2b 0cbf 0dd9 d63e
00000040: a95e 6739 5af1 6d3e d9a4 60be 76c4 2e3f
00000050: 15b3 debe b1f1 dfbd bb4a 31be 1a52 63be
00000060: df66 e63e a8f0 f6bd b76e 383f 42a8 4b3d
00000070: bd24 093e 9171 92be 2516 0cbf 5bf1 c13e
00000080: 1127 293e caad 753e 8af7 90be 75d4 863e
00000090: 5b24 67bd 2bdd a8be 53fb fa3e 150f 87be
000000a0: b4e9 08bd ce8c c13e 41df 19be d1b4 a4be
000000b0: c045 24be ac20 053f 558b b43e 7488 b0be
000000c0: 8a5b b3be 0241 c63e fb0a dd3d 20fa c4be
000000d0: 38ad 97be 5895 b13e 6c52 6e3e f524 fa3e
000000e0: ac57 083d a47f 81be 2b3c ea3e 3729 5bbe

prop_in_to_h.bias f4 [20]
-0.2504052 -0.518183 0.46723577 -0.42277578 0.37966418 0.45513394 0.4078491 -0.06391345
-0.23109606 0.03257839 -0.47851318 0.46035296 0.26350853 -0.24789137 0.2278168 0.27101398
0.37841666 0.16504599 0.41788954 0.16747761
00000000: 1c35 80be a4a7 04bf 8739 ef3e 1176 d8be
00000010: 5863 c23e 5107 e93e 99d1 d03e 0ee5 82bd
00000020: 72a4 6cbe eb70 053d aeff f4be 62b3 eb3e
00000030: 97ea 863e 3cd7 7dbe cf48 693e 58c2 8a3e
00000040: d4bf c13e d101 293e 9ef5 d53e 407f 2b3e

prop_h_to_h.0.weight f4 [20, 20]
0.091221966 -0.0042479415 -0.011343244 0.07694985 0.29786658 0.02164684 0.007639794 0.24604958
-0.05057137 0.23548858 -0.011943473 0.11345855 0.12239862 -0.24259381 0.16694306 0.30407724
0.082610816 0.089104496 0.0352468 0.22852658 0.17630468 0.07366006 0.11375932 -0.10096018
-0.07659849 -0.15149653 0.0695708 0.18737523 0.17353077 -0.1405189 0.14354125 0.0057385666
0.11485047 0.066903435 -0.14864367 0.023613473 0.11378197 0.03524716 0.23947342 0.24454138
0.0014872585 -0.02191541 0.18255962 -0.090695135 -0.1646513 -0.13802248 0.114286445 0.2148021
0.06773789 0.053329375 -0.16735043 0.036132067 -0.12035049 0.21791813 0.17954801 0.16517001
0.16072251 -0.08958017 0.05395709 0.08293709 -0.111983776 0.17654139 0.1127018 0.07359348
0.18133423 -0.14054114 -0.124372765 0.11242153 -0.077838115 -0.119793825 0.009497893 0.13208455
0.20737985 -0.058195487 -0.05079424 -0.099353924 0.2425334 0.049127515 -0.14630798 -0.16721296
0.14376378 -0.107506424 -0.24819122 0.24397959 0.05938304 -0.006881333 -0.2503118 0.040460426
-0.1167851 -0.18246858 0.03105951 -0.02194073 -0.1835547 -0.2737534 -0.09072929 0.08209989
0.024371652 -0.1846608 0.015946364 0.09752745 -0.13141221 0.080487646 0.049357735 -0.13543166
0.20831878 0.09712217 -0.059231326 -0.1974379 0.042426106 0.11927077 0.17341414 -0.11424566
0.07205797 0.18055488 0.29340768 -0.1796301 0.081416994 0.16413452 -0.093809426 0.04648809
-0.052872017 -0.08622444 0.090995006 0.14980845 -0.07025912 0.01273568 0.051326938 -0.10797437
0.10001558 0.13940464 -0.060568914 0.14747424 -0.072031826 0.16353336 -0.07288918 0.25417188
0.12348383 -0.09609472 -0.0814902 0.041479148 -0.13425861 -0.24528693 0.2658537 -0.10376339
0.2253556 0.18120308 0.23757483 -0.083396226 0.23734882 -0.059163395 -0.0125670135 0.09834258
-0.11954488 -0.18770146 0.007136675 -0.11646371 -0.092943944 0.053432647 -0.05772614 -0.08945544
-0.1298203 0.05302972 -0.071287215 -0.030872809 -0.20655218 -0.06943216 -0.02863026 0.18305174
0.120543264 0.19172059 -0.00066822104 -0.087453276 -0.18875124 0.050757978 -0.2474774 0.18077685
-0.25088245 -0.10429998 -0.025402755 -0.2086284 -0.034528818 0.00082907424 -0.0110521205 -0.13471065
-0.04214205 -0.026481194 -0.09484616 0.02836862 0.082950585 -0.21169579 0.12075032 0.10990378
0.059154272 0.31430727 -0.16206037 0.015842365 0.20600824 0.23282787 0.3941269 -0.04915196
0.19287334 0.12491423 -0.24676153 -0.094371855 -0.20657034 -0.08831328 -0.14052528 0.23799632
-0.044544235 -0.007843307 -0.27267858 -0.22345838 -0.2235633 -0.25323996 -0.10696047 0.16241184
0.02738069 -0.17844844 -0.14658107 -0.20221937 0.025710724 0.17524658 0.007876893 0.03188038
-0.037598096 -0.22537202 -0.1947968 -0.05824572 0.14182764 -0.1645438 0.038394026 -0.20803419
-0.010202883 -0.20803387 -0.23222767 0.2623491 0.049268503 0.06503211 0.02641391 -0.13821007
0.13703579 -0.09330839 -0.21910124 0.1430328 -0.21167661 0.062072344 -0.029334184 0.043802094
0.12021416 0.15323952 0.028870037 0.027766895 -0.23655741 -0.058075745 -0.034696456 0.15388605
00000000: 95d2 ba3d 5132 8bbb 04d9 39bc e297 9d3d
00000010: f881 983e b754 b13c 3d57 fa3b 6cf4 7b3e
00000020: ed23 4fbd eb23 713e 8eae 43bc f55c e83d
00000030: 21ac fa3d 836a 78be 1ff3 2a3e 03b0 9b3e
00000040: dc2f a93d 6b7c b63d f35e 103d df02 6a3e
00000050: 3789 343e 16db 963d a5fa e83d 36c4 cebd
00000060: abdf 9cbd e821 1bbe 237b 8e3d 4bdf 3f3e
00000070: 0db2 313e 30e4 0fbe 7afc 123e 960a bc3b
00000080: b936 eb3d ab04 893d 0c36 18be 0b71 c13c
00000090: 8606 e93d 535f 103d 8538 753e 0e69 7a3e
000000a0: 1df0 c23a f287 b3bc e9f0 3a3e 5fbe b9bd
000000b0: 5a9a 28be c455 0dbe 030f ea3d 15f5 5b3e
000000c0: 2aba 8a3d e76f 5a3d e95d 2bbe 38ff 133d
000000d0: 517a f6bd ee25 5f3e 6fdb 373e 5422 293e
000000e0: 7194 243e cf75 b7bd 1c02 5d3d ecda a93d
000000f0: c057 e5bd 44c7 343e 34d0 e63d 2eb8 963d
00000100: aeaf 393e 04ea 0fbe 26b7 febd 423d e63d
00000110: 9769 9fbd 7756 f5bd 0d9d 1b3c 2c41 073e
00000120: 625b 543e 645e 6ebd 9f0d 50bd 127a cbbd
00000130: ad5a 783e ef39 493d c2d1 15be e039 2bbe
00000140: d036 133e 542c dcbd d725 7ebe c9d5 793e
00000150: a13b 733d ce7c e1bb de28 80be d5b9 253d
00000160: 072d efbd 0bd9 3abe 8370 fe3c 0cbd b3bc
00000170: c3f5 3bbe 6829 8cbe 47d0 b9bd fd23 a83d
00000180: 0fa7 c73c b917 3dbe f3a1 823c 79bc c73d
00000190: ec90 06be b5d6 a43d 562b 4a3d 99ae 0abe
000001a0: 8551 553e fde7 c63d 8c9c 72bd 292d 4abe
000001b0: ffc6 2d3d 3c44 f43d 7a93 313e a1f9 e9bd
000001c0: 2193 933d 61e3 383e 8839 963e f4f0 37be
000001d0: f4bd a63d e112 283e 281f c0bd 4c6a 3e3d
000001e0: 5490 58bd 7096 b0bd 975b ba3d 6367 193e
000001f0: 03e4 8fbd 50a9 503c 323c 523d ab21 ddbd
00000200: f8d4 cc3d 17c0 0e3e 1c17 78bd 7d03 173e
00000210: 6c85 93bd 4a75 273e ec46 95bd d122 823e
00000220: 17e5 fc3d 4fcd c4bd 55e4 a6bd 0ae6 293d
00000230: 177b 09be 7f2c 7bbe fa1d 883e e681 d4bd
00000240: 9ec3 663e 4d8d 393e d146 733e a4cb aabd
00000250: 920b 733e 5155 72bd e0e5 4dbc d667 c93d
00000260: f2d3 f4bd d034 40be c5da e93b 8784 eebd
00000270: 6559 bebd 31dc 5a3d 3f72 6cbd 6a34 b7bd
00000280: 9def 04be b135 593d 08ff 91bd f9e8 fcbc
00000290: 6a82 53be 7332 8ebd 028a eabc ea71 3b3e
000002a0: 63df f63d 6752 443e 8e2b 2fba b41a b3bd
000002b0: 0148 41be 99e7 4f3d b76a 7dbe 911d 393e
000002c0: aa73 80be 3a9b d5bd 7019 d0bc afa2 55be
000002d0: 176e 0dbd 3b56 593a f413 35bc 97f1 09be
000002e0: 249d 2cbd 17ef d8bc b43e c2bd 4f65 e83c
000002f0: ffe1 a93d c8c6 58be f24b f73d 3c15 e13d
00000300: c04b 723d e2ec a03e 27f3 25be d9c7 813c
00000310: d3f3 523e 6e6a 6e3e 00cb c93e 9153 49bd
00000320: 9780 453e 08d3 ff3d 0eaf 7cbe 0846 c1bd
00000330: 2d87 53be 98dd b4bd dce5 0fbe 4fb5 733e
00000340: 0474 36bd 3781 00bc 879c 8bbe 46d2 64be
00000350: c7ed 64be aba8 81be 170e dbbd 4a4f 263e
00000360: 784d e03c 30bb 36be 5919 16be 9812 4fbe
00000370: 4c9f d23c d773 333e 150e 013c 0095 023d
00000380: 7600 1abd ecc7 66be d078 47be 1093 6ebd
00000390: 443b 113e 2b7e 28be 0e43 1d3d ea06 55be
000003a0: fe29 27bc d506 55be 17cd 6dbe 9f52 863e
000003b0: c5cd 493d 8e2f 853d fc61 d83c f186 0dbe
000003c0: 1c53 0c3e 7818 bfbd 135c 60be 3177 123e
000003d0: c1c1 58be 923f 7e3d 3e4e f0bc d369 333d
000003e0: d732 f63d d2ea 1c3e db80 ec3c 6677 e33c
000003f0: 1b3c 72be d5e0 6dbd df1d 0ebd 4e94 1d3e

prop_h_to_h.0.bias f4 [20]
-0.03539687 0.19111802 0.09974392 -0.05917778 0.13822496 0.06415271 -0.008876945 -0.0047056796
-0.011477104 -0.096010484 -0.13653652 0.028146595 0.1330599 -0.11193041 0.26911074 -0.030551007
0.22800308 0.29182106 -0.034619704 0.2514236
00000000: 4ffc 10bd 71b4 433e 8a46 cc3d 6664 72bd
00000010: d88a 0d3e 7f62 833d 9b70 11bc 1a32 9abb
00000020: 770a 3cbc 25a1 c4bd 3bd0 0bbe b093 e63c
00000030: db40 083e c53b e5bd e2c8 893e 1b46 fabc
00000040: a479 693e 9269 953e 64cd 0dbd 98ba 803e

prop_h_to_h.1.weight f4 [20, 20]
0.04752014 0.29445285 0.13911305 -0.08565796 0.136132 0.10138736 0.0033860584 -0.029683862
-0.09115437 -0.019915959 -0.071368575 0.16799977 -0.0301204 0.18254021 0.2519849 -0.28258708
-0.086913764 0.26717648 0.10898176 0.06038497 -0.011023016 0.13563791 0.19657384 0.22953519
-0.07504276 0.123208396 -0.07330343 -0.18506539 0.0438196 0.05006316 0.0853627 0.053598024
-0.04066432 -0.19422312 0.13064577 -0.3092818 -0.006300224 -0.043711826 0.111788735 -0.038531113
0.06613748 -0.17876247 0.090663105 -0.13451749 0.15439989 -0.060737815 -0.118512094 -0.035773728
0.12043116 -0.09133612 -0.09975015 -0.1800018 0.029254874 -0.035143457 0.11377175 0.0066581024
0.05298675 -0.22697102 0.14812192 -0.21534464 0.012192541 0.08600086 -0.14040951 0.071101
0.13699433 0.054287355 -0.023475843 0.103684865 0.12449249 0.11866303 0.25303805 -0.00397996
0.22822136 -0.070488766 -0.19855599 0.28949174 0.007828575 -0.20692052 0.07220876 -0.021289378
0.20085248 0.15511532 -0.13168941 -0.016303293 -0.21232282 0.25562984 0.003508389 0.13105606
-0.0422977 0.12879643 -0.19669124 -0.16010968 -0.046461098 0.122777104 0.26799044 -0.073521994
0.12699252 0.10568736 -0.025108494 0.13122953 -0.043308303 0.07115937 0.19094402 0.0015419563
0.094406724 -0.13289134 -0.057571568 0.10722822 -0.13158566 0.13616833 -0.22819304 -0.0570441
-0.19152416 0.04247727 0.16400574 -0.2630311 0.1613123 -0.069329895 -0.042124063 -0.021142889
0.25304827 -0.07297706 -0.09674717 0.014003443 -0.18087609 -0.07348582 0.09303422 0.1722704
-0.07692613 -0.043436483 -0.22967415 -0.10671928 -0.16514221 0.16083074 -0.055972796 -0.10731632
0.20330115 -0.103898294 -0.15794265 0.14807978 0.10590565 -0.11070344 -0.15969719 -0.22447522
0.0540801 -0.28224045 0.035059664 -0.16243811 0.078667715 -0.243377 0.2288086 0.18847753
0.17029314 0.22731578 -0.03377705 0.19932811 -0.18410686 -0.30999848 -0.08541831 -0.17465645
0.023946641 0.07943088 -0.15314543 0.13701423 -0.045297723 -0.13330391 0.030453695 -0.15073378
0.07808161 -0.15155461 -0.04000199 0.037822362 -0.17205104 0.06874586 -0.076632194 -0.0809842
-0.0130553795 -0.07163615 -0.12719475 0.13199422 -0.10044179 0.20508246 -0.103878856 -0.03999838
-0.14640234 0.052128498 0.026397098 0.13223831 0.19457461 -0.0725904 -0.23317863 -0.12793273
-0.08356514 -0.072743356 0.23796211 0.045412965 0.16505635 0.03176423 -0.21425395 0.08396788
-0.28985608 0.013952848 0.08690402 -0.12727231 -0.16184068 -0.09257743 0.092392646 -0.07527811
-0.09960498 -0.2587387 0.2273145 0.078883246 0.21833731 -0.015044202 -0.10251496 0.2656813
-0.16401514 -0.1978426 0.20239072 -0.077067204 -0.25437924 0.14100187 0.05190773 -0.036829654
-0.15441999 -0.1943938 -0.1403128 0.103016235 0.23548041 0.0769774 0.14179154 -0.12879102
-0.08609971 0.24933329 -0.23588459 -0.043286335 -0.12664382 -0.025617132 -0.15824923 -0.008607437
-0.037469707 0.16145629 0.21576478 0.17580362 -0.18469532 -0.081894465 0.040060736 0.26382485
-0.22090538 -0.03389565 -0.1631178 -0.013414945 -0.18753372 0.1750436 0.25499037 -0.1367949
00000000: 7aa4 423d 86c2 963e a773 0e3e 716d afbd
00000010: 3066 0b3e 2da4 cf3d a2e8 5d3b 922b f3bc
00000020: 24af babd cb26 a3bc b029 92bd 2208 2c3e
00000030: 0fbf f6bc d2eb 3a3e 2a04 813e 41af 90be
00000040: d8ff b1bd 5bcb 883e d431 df3d 3b56 773d
00000050: e199 34bc aae4 0a3e a74a 493e 460b 6b3e
00000060: 05b0 99bd af54 fc3d 1c20 96bd c881 3dbe
00000070: 2e7c 333d 070f 4d3d a4d2 ae3d 9a89 5b3d
00000080: a18f 26bd 6de2 46be 01c8 053e 2f5a 9ebe
00000090: 1c72 cebb 2c0b 33bd 7ef1 e43d cdd2 1dbd
000000a0: 1673 873d 820d 37be 94ad b93d f4be 09be
000000b0: 011b 1e3e 37c8 78bd 78b6 f2bd 7987 12bd
000000c0: 9da4 f63d 6f0e bbbd cf49 ccbd 6452 38be
000000d0: eba7 ef3c 96f2 0fbd 2a01 e93d 362c da3b
000000e0: a208 593d 176b 68be 46ad 173e 4e83 5cbe
000000f0: 39c3 473c 3821 b03d 83c7 0fbe 679d 913d
00000100: 3e48 0c3e 6b5c 5e3d 6950 c0bc bb58 d43d
00000110: ebf5 fe3d 9a05 f33d 348e 813e 536a 82bb
00000120: dcb2 693e 6a5c 90bd 4352 4bbe 4338 943e
00000130: 6c43 003c f9e2 53be 30e2 933d 1067 aebc
00000140: 46ac 4d3e 8dd6 1e3e 97d9 06be 7c8e 85bc
00000150: 276b 59be eae1 823e 00ed 653b 8f33 063e
00000160: 5a40 2dbd 36e3 033e 6e69 49be cbf3 23be
00000170: fe4d 3ebd 9072 fb3d 0b36 893e b392 96bd
00000180: 540a 023e 9d72 d83d 54b0 cdbc 0961 063e
00000190: 0c64 31bd 01bc 913d d486 433e 781b ca3a
000001a0: 5058 c13d ab14 08be 2ad0 6bbd 789a db3d
000001b0: 64be 06be b66f 0b3e 70ab 69be 13a7 69bd
000001c0: e91e 44be a5fc 2d3d 1ff1 273e 03ac 86be
000001d0: 0d2f 253e d5fc 8dbd 488a 2cbd da33 adbc
000001e0: 8b8f 813e ff74 95bd 6123 c6bd b26e 653c
000001f0: 9537 39be bc7f 96bd ba88 be3d a767 303e
00000200: 728b 9dbd 74ea 31bd b32f 6bbe a38f dabd
00000210: 0a1b 29be d0b0 243e bb43 65bd a9c8 dbbd
00000220: 2d2e 503e a1c8 d4bd b8bb 21be 3aa2 173e
00000230: 10e5 d83d 7cb8 e2bd a987 23be d5dc 65be
00000240: 1883 5d3d d281 90be b99a 0f3d 2d56 26be
00000250: 8a1c a13d d237 79be cd4c 6a3e 4100 413e
00000260: 5361 2e3e 78c5 683e ce59 0abd ab1c 4c3e
00000270: 8286 3cbe 1fb8 9ebe cbef aebd 24d9 32be
00000280: bf2b c43c a8ac a23d 28d2 1cbe 754d 0c3e
00000290: 1b8a 39bd d280 08be 077a f93c f559 1abe
000002a0: 40e9 9f3d 2231 1bbe 20d9 23bd 9feb 1a3d
000002b0: 262e 30be a1ca 8c3d 57f1 9cbd 0bdb a5bd
000002c0: 3be6 55bc f9b5 92bd 573f 02be 7e29 073e
000002d0: 6db4 cdbd 2301 523e 70be d4bd 57d5 23bd
000002e0: 7fea 15be b184 553d ba3e d83c 7b69 073e
000002f0: 913e 473e 47aa 94bd 61c6 6ebe cc00 03be
00000300: 3324 abbd 78fa 94bd 57ac 733e f202 3a3d
00000310: 8804 293e 361b 023d 6365 5bbe 5af7 ab3d
00000320: 0468 94be 7c9a 643c bcfa b13d ac53 02be
00000330: 90b9 25be 3c99 bdbd 5b38 bd3d 692b 9abd
00000340: b2fd cbbd 6679 84be 22c5 683e 8a8d a13d
00000350: d193 5f3e f57b 76bc 5df3 d1bd 6107 883e
00000360: 96f3 27be 4097 4abe 833f 4f3e 69d5 9dbd
00000370: ff3d 82be cb62 103e 339d 543d b1da 16bd
00000380: 4620 1ebe 2b0f 47be 29ae 0fbe 2dfa d23d
00000390: c721 713e 54a6 9d3d cd31 113e cbe1 03be
000003a0: 0b55 b0bd 3a51 7f3e bb8b 71be 034d 31bd
000003b0: ebae 01be 05db d1bc 160c 22be 3506 0dbc
000003c0: d679 19bd cc54 253e 71f1 5c3e dd05 343e
000003d0: c520 3dbe 49b8 a7bd ba16 243d 0d14 873e
000003e0: 0535 62be 2ad6 0abd 5a08 27be 5cca 5bbc
000003f0: d708 40be a13e 333e 198e 823e f613 0cbe

prop_h_to_h.1.bias f4 [20]
0.1261627 0.18915308 -0.057484683 -0.19193734 0.23188567 0.28159052 0.2919401 -0.13306603
-0.08844368 0.1164158 -0.063207 0.044356983 0.22614348 -0.18014215 0.18557025 -0.1269679
0.11653853 -0.12408974 -0.20880868 -0.27765393
00000000: cb30 013e 58b1 413e 0f75 6bbd 398b 44be
00000010: 7073 6d3e a22c 903e 2c79 953e 7642 08be
00000020: f621 b5bd 686b ee3d ac72 81bd abaf 353d
00000030: 2892 673e 2f77 38be 2106 3e3e e003 02be
00000040: c1ab ee3d c322 febd f1d1 55be a828 8ebe

prop_h_to_h.2.weight f4 [20, 20]
0.030380761 0.18960029 -0.17965046 -0.107041806 0.03338313 0.27113256 0.1373312 -0.1211647
-0.123977326 -0.009490219 -0.080505386 -0.18274292 -0.103795916 -0.13764133 -0.11353271 -0.11814901
-0.0061873663 -0.030460427 -0.18038018 -0.14888199 -0.18024416 -0.15032282 -0.08887141 -0.018627983
-0.31633213 -0.1063511 -0.1694719 -0.09863655 -0.052055188 0.05844505 -0.11900233 0.18480597
0.11225767 0.18851253 -0.19962487 -0.15194425 8.323197e-05 -0.013487126 0.054305222 0.21084537
0.09004293 -0.028884651 -0.17020553 -0.25002536 0.21980615 0.19569401 -0.09717088 -0.15988284
-0.030836053 0.2053266 -0.076622784 0.02876292 0.2596682 -0.10870789 0.10518374 -0.15605688
-0.079002246 0.006868739 -0.05460162 0.07290943 -0.3131962 -0.02856862 0.2663825 -0.08141785
-0.19410518 -0.012932499 -0.31208113 0.31398338 0.11594501 -0.20927007 0.2212947 0.14645047
0.103216104 0.055694155 0.13603555 0.14935648 0.09967002 -0.00036368446 0.0022322566 0.23936853
0.22612184 0.092128016 -0.13749672 -0.08852857 0.06136225 0.29230615 -0.09716889 -0.24447039
0.10880753 -0.011074498 -0.11567856 0.12831846 0.30747527 -0.30581358 0.040320273 -0.22094618
0.0013362797 0.13406847 -0.17132835 -0.18492024 -0.25594774 0.07675237 0.06964626 -0.03622928
-0.28189805 -0.10719389 0.007967878 0.011263337 -0.15469386 -0.24218625 0.22013204 -0.047910787
-0.11158426 0.17878586 0.12308712 0.08554369 -0.078699976 0.08847446 -0.034887105 0.08559719
-0.099377565 -0.065636724 -0.037205786 0.30264002 0.031292047 0.0586646 -0.19861184 0.29711613
0.19747056 -0.015497045 0.14649417 0.1864316 -0.0736246 0.07321751 -0.072549306 -0.0406956
-0.0407004 0.18873039 -0.05866619 0.118347205 0.2838832 -0.14294294 0.06913328 0.13620746
0.1072761 0.22621292 0.19455762 0.031361047 0.034729555 0.22204189 0.04528407 0.14894538
-0.11443686 -0.08055729 -0.12516983 -0.17450874 0.1618513 -0.16373695 -0.01817431 0.08142906
0.2639612 0.20782045 0.062859766 -0.31005892 0.23723109 -0.09758495 0.24796842 -0.1425239
-0.12825939 -0.06377722 -0.12660651 -0.15411185 0.2617409 -0.05626273 0.26655743 0.17859651
-0.13454047 0.1343175 0.047650173 -0.25726107 0.01207963 0.14635682 0.06619333 0.09659624
-0.10550602 -0.12423364 0.20866494 0.119694725 0.03408662 -0.004547921 -0.26930332 -0.0745237
0.19011778 -0.033424526 0.10160113 -0.17479283 0.13182831 0.1411143 0.14847182 -0.1815691
-0.021065809 -0.18807463 -0.124009304 0.07690005 0.01770626 -0.21045874 0.016460523 -0.0937639
-0.02438277 0.21702093 0.2165925 0.20577784 0.13948256 0.0065150657 -0.046595737 0.15103771
-0.09961601 -0.16305101 -0.18876483 0.2110168 0.029258696 0.038651858 -0.019751986 0.008309883
-0.3019689 -0.12159898 0.09616491 0.27614963 0.18594702 -0.11609278 0.010850611 0.050916977
-0.124367185 -0.09314147 -0.15381789 0.011487548 0.12003261 0.179302 0.2661329 -0.009662589
-0.008036881 0.18172362 -0.012217416 0.07572367 0.15315542 0.21902594 -0.049368847 0.032442793
0.04458281 0.2321973 -0.1208698 -0.069612205 0.21902388 -0.19728538 0.047770113 0.0038029696
00000000: 13e1 f83c 9426 423e 4af6 37be bc38 dbbd
00000010: c0bc 083d e3d1 8a3e 8da0 0c3e 3325 f8bd
00000020: d3e7 fdbd dd7c 1bbc 02e0 a4bd f620 3bbe
00000030: f492 d4bd d9f1 0cbe d683 e8bd 1cf8 f1bd
00000040: 64bf cabb 2588 f9bc 95b5 38be 8574 18be
00000050: ed91 38be 3aee 19be 3702 b6bd b699 98bc
00000060: 49f6 a1be 9bce d9bd 0b8a 2dbe f601 cabd
00000070: d237 55bd 1464 6f3d 7eb7 f3bd c73d 3d3e
00000080: 59e7 e53d 6e09 413e 766a 4cbe 4697 1bbe
00000090: d38c ae38 1bf9 5cbc 276f 5e3d d9e7 573e
000000a0: 6d68 b83d 819f ecbc 5c4a 2ebe 5303 80be
000000b0: dd14 613e 0364 483e 8701 c7bd 54b8 23be
000000c0: e49b fcbc 2341 523e 68ec 9cbd 37a0 eb3c
000000d0: 3bf3 843e 3ea2 debd 936a d73d 60cd 1fbe
000000e0: eecb a1bd 2913 e13b f3a5 5fbd 8a51 953d
000000f0: 415b a0be bd08 eabc 4963 883e 67be a6bd
00000100: 82c3 46be d5e2 53bc 19c9 9fbe 6ec2 a03e
00000110: 9474 ed3d e54a 56be 149b 623e 1df7 153e
00000120: f762 d33d 8e1f 643d e74c 0b3e e8f0 183e
00000130: cc1f cc3d e7ac beb9 0d4b 123b 061d 753e
00000140: 7c8c 673e 9dad bc3d f1cb 0cbe 784e b5bd
00000150: fc56 7b3d 27a9 953e 7c00 c7bd 7256 7abe
00000160: 7bd6 de3d d071 35bc e2e8 ecbd ea65 033e
00000170: 666d 9d3e 9993 9cbe df26 253d b73f 62be
00000180: 1b26 af3a 3f49 093e b370 2fbe bb5b 3dbe
00000190: 950b 83be 5930 9d3d b3a2 8e3d 2765 14bd
000001a0: f154 90be 7888 dbbd b48b 023c dc89 383c
000001b0: 1168 1ebe acff 77be 4b6a 613e 1a3e 44bd
000001c0: 4a86 e4bd a413 373e 1a15 fc3d 8831 af3d
000001d0: 742d a1bd 1932 b53d c8e5 0ebd 944d af3d
000001e0: 7786 cbbd 8c6c 86bd 1865 18bd a2f3 9a3e
000001f0: 172c 003d 4b4a 703d e760 4bbe 9b1f 983e
00000200: b935 4a3e 51e7 7dbc 9102 163e ede7 3e3e
00000210: 7fc8 96bd 10f3 953d bb94 94bd 6eb0 26bd
00000220: 76b5 26bd 8a42 413e f54b 70bd 0560 f23d
00000230: 2459 913e a25f 12be c095 8d3d f879 0b3e
00000240: 92b3 db3d 5ca4 673e 1d3a 473e 7174 003d
00000250: 9440 0e3d f35e 633e ca7b 393d 2385 183e
00000260: df5d eabd 38fb a4bd 852c 00be 6bb2 32be
00000270: 59bc 253e a9aa 27be 4ae2 94bc 47c4 a63d
00000280: ec25 873e e2ce 543e 9fbc 803d 0bc0 9ebe
00000290: b5ec 723e 9eda c7bd 6feb 7d3e c9f1 11be
000002a0: 6e56 03be a29d 82bd 23a5 01be 7fcf 1dbe
000002b0: e702 863e c073 66bd 377a 883e 01e2 363e
000002c0: fac4 09be 878a 093e d42c 433d b9b7 83be
000002d0: a4e9 453c 90de 153e 5e90 873d 40d4 c53d
000002e0: 8a13 d8bd 356e febd 43ac 553e 8222 f53d
000002f0: 699e 0b3d ba06 95bb 20e2 89be e29f 98bd
00000300: 3cae 423e 28e8 08bd 4114 d03d e4fc 32be
00000310: 00fe 063e 4480 103e ff08 183e 40ed 39be
00000320: 3492 acbc a396 40be 97f8 fdbd c67d 9d3d
00000330: b80c 913c 7f82 57be 38d8 863c 4a07 c0bd
00000340: 60be c7bc bc3a 5e3e 6dca 5d3e 6db7 523e
00000350: 84d4 0e3e 557c d53b 2cdb 3ebd a1a9 1a3e
00000360: 7b03 ccbd d8f6 26be 914b 41be ca14 583e
00000370: efaf ef3c 6951 1e3d ebce a1bc 2d26 083c
00000380: ab9b 9abe e308 f9bd 1cf2 c43d 7c63 8d3e
00000390: e568 3e3e 0dc2 edbd c3c6 313c 528e 503d
000003a0: 39b4 febd f4c0 bebd 7082 1dbe 4536 3c3c
000003b0: a8d3 f53d f29a 373e 9242 883e d64f 1ebc
000003c0: 1fad 03bc c215 3a3e 8f2b 48bc 0315 9b3d
000003d0: c6d4 1c3e 5648 603e fd36 4abd bce2 043d
000003e0: 779c 363d 21c5 6d3e 968a f7bd d890 8ebd
000003f0: cc47 603e 2e05 4abe 98aa 433d 3e3b 793b

prop_h_to_h.2.bias f4 [20]
0.313606 -0.30207506 0.09645368 -0.20406446 0.1590866 -0.2632702 -0.30357113 0.13654701
0.1630642 0.18347813 -0.16060586 -0.087994605 0.15171103 -0.09587074 0.10036099 0.25557712
0.123104595 0.05544851 0.22217934 -0.3051153
00000000: f790 a03e 95a9 9abe 8289 c53d 46f6 50be
00000010: 99e7 223e 5acb 86be ad6d 9bbe fbd2 0b3e
00000020: 4dfa 263e b1e1 3b3e dd75 24be 8436 b4bd
00000030: 235a 1b3e e157 c4bd 108a cd3d 01db 823e
00000040: 431e fc3d fa1d 633d fb82 633e 1338 9cbe

prop_h_to_h.3.weight f4 [20, 20]
-0.27076688 0.10714493 -0.18612577 -0.020875292 -0.011323204 0.18259828 0.11135255 0.015567366
0.00058167864 -0.078873 0.049362928 0.12369092 0.10040884 0.10548759 -0.1681224 -0.14579743
-0.076027125 -0.091072574 -0.000536624 0.2692982 0.11301867 0.24831061 -0.14280108 0.0069613834
-0.117257476 0.2284558 0.098832354 0.037893854 -0.114103794 -0.15134495 0.22233547 -0.073869124
-0.15116839 0.1533322 -0.2304018 -0.092942536 -0.14305198 -0.045331094 -0.14994186 0.17154352
0.08001922 0.00088525173 -0.16895932 0.26297197 -0.15358861 0.22761677 0.109902315 -0.26522785
-0.2486285 0.056418184 0.1870262 -0.110037155 0.090122454 -0.13436306 0.030188574 -0.045292843
0.016584743 0.052047014 -0.29805106 -0.07265641 0.13013949 0.08999037 0.29846847 -0.15835112
0.15197906 -0.19850013 -0.2916846 -0.11659772 0.24220191 0.042348236 -0.15108888 0.09420184
0.25401682 -0.17950298 0.04361123 0.049004633 0.16181338 0.1434369 0.30023804 -0.24540588
-0.11791047 -0.14511229 0.1445781 -0.31130308 0.2554073 -0.12865928 0.06352489 -0.039958928
0.2920716 -0.1003835 -0.064880066 -0.22030777 0.17037529 -0.1383234 0.18145357 0.14030996
0.20953047 0.041932315 -0.051003598 -0.2003139 -0.09455567 0.24079509 0.051944643 0.22908543
-0.1153283 -0.09882881 -0.08902777 -0.055011395 -0.2264483 0.047691092 0.25759783 -0.018311208
-0.077804446 0.03865971 -0.1343701 -0.14194705 -0.08431551 -0.17786847 0.044320032 0.2949906
-0.30206516 0.30427396 -0.14280656 0.21672238 0.04002586 0.1188178 0.2553154 -0.11937486
-0.15162013 0.075356066 -0.13534284 0.08543576 -0.23245814 0.23554865 -0.18491451 0.116975136
-0.29514033 0.071696796 0.052646372 0.0087073 -0.062417325 0.16386142 -0.28793505 0.13823299
-0.30643457 0.19557059 0.15512331 -0.27685043 -0.02952546 -0.25400102 -0.04764896 0.25067064
0.012950265 0.10738255 0.018593047 -0.12168496 -0.22728817 -0.04052016 -0.2861243 0.12097422
0.030349646 0.1416436 -0.20240116 0.28305387 -0.28154415 0.20237613 0.13139896 -0.24784553
-0.06600463 -0.28029415 0.18928687 0.002690837 -0.0026035914 0.1512625 0.007668456 0.065291576
0.040039133 -0.2822205 0.04720702 0.19555221 -0.21004821 0.1995828 -0.14346486 0.13456753
0.07445144 0.13799669 0.17197958 -0.20316888 -0.29407164 0.026133107 -0.040853225 0.22767736
-0.025125882 -0.14034992 -0.0444653 -0.28810632 0.041774403 -0.15036483 0.0032655387 0.2545498
-0.19417775 0.22708692 -0.07316337 -0.07514883 -0.08195994 -0.089925505 0.24917959 0.022564335
-0.038990244 -0.13302127 -0.073359944 0.116390795 0.059116434 0.19149658 -0.023101373 -0.13488498
0.047614273 -0.22705337 -0.11431848 0.24728718 0.24070492 -0.16093534 0.2740554 -0.29350936
0.1062562 -0.2504489 -0.05036007 0.11280071 0.2860643 -0.037460674 0.12743025 -0.20660666
0.22439142 -0.05807837 -0.11244227 -0.09450174 0.2906378 0.27615485 0.23574284 -0.17464462
-0.28655222 0.21220964 0.059088223 0.2250772 -0.24943118 0.12038755 0.06145228 -0.08222377
-0.12794079 -0.25124553 -0.08263872 -0.069585875 -0.13493294 0.0414344 -0.1526818 0.059763294
00000000: f5a1 8abe cd6e db3d c197 3ebe a902 abbc
00000010: f684 39bc 0bfb 3a3e ce0c e43d 440e 7f3c
00000020: cb7b 183a 2b88 a1bd c830 4a3d aa51 fd3d
00000030: 26a3 cd3d e109 d83d 4728 2cbe ec4b 15be
00000040: 1cb4 9bbd 4284 babd 3aac 0cba 74e1 893e
00000050: 5576 e73d 2345 7e3e 723a 12be 511c e43b
00000060: b024 f0bd 51f0 693e 9e68 ca3d 9636 1b3d
00000070: 40af e9bd 2cfa 1abe e9ab 633e b248 97bd
00000080: e3cb 1abe 1e03 1d3e 73ee 6bbe a858 bebd
00000090: 387c 12be 19ad 39bd 5c8a 19be 1ba9 2f3e
000000a0: 1ee1 a33d 3d10 683a ac03 2dbe 43a4 863e
000000b0: 5546 1dbe 5f14 693e 7714 e13d f2cb 87be
000000c0: 7898 7ebe c116 673d cc83 3f3e 295b e1bd
000000d0: 1f92 b83d 7896 09be 074e f73c fd84 39bd
000000e0: badc 873c 402f 553d 269a 98be e2cc 94bd
000000f0: 4943 053e df4c b83d dcd0 983e cc26 22be
00000100: 66a0 1b3e 9e43 4bbe af57 95be c9ca eebd
00000110: c703 783e 5875 2d3d 0bb7 1abe e5ec c03d
00000120: 7e0e 823e a1cf 37be b0a1 323d 15b9 483d
00000130: 68b2 253e 1fe1 123e cdb8 993e ae4b 7bbe
00000140: 0b7b f1bd 5198 14be 480c 143e 1e63 9fbe
00000150: bfc4 823e 42bf 03be 5619 823d f9ab 23bd
00000160: 698a 953e dd95 cdbd d7df 84bd 5c98 61be
00000170: dc76 2e3e a6a4 0dbe f7ce 393e 6aad 0f3e
00000180: 288f 563e 38c1 2b3d 26e9 50bd 161f 4dbe
00000190: 67a6 c1bd fd92 763e e8c3 543d 5f95 6a3e
000001a0: 3e31 ecbd c266 cabd 3154 b6bd a153 61bd
000001b0: 10e2 67be bc57 433d dde3 833e 6301 96bc
000001c0: f057 9fbd a559 1e3d 5198 09be 915a 11be
000001d0: 9cad acbd 2723 36be ec88 353d 0209 973e
000001e0: 49a8 9abe ccc9 9b3e e23b 12be 79ec 5d3e
000001f0: 28f2 233d bf56 f33d b3b8 823e ce7a f4bd
00000200: 4f42 1bbe 4854 9a3d 5097 0abe f2f8 ae3d
00000210: 8209 6ebe aa33 713e 3b5a 3dbe a990 ef3d
00000220: a21c 97be c5d5 923d b9a3 573d 10a9 0e3c
00000230: 4fa9 7fbd 4acb 273e 396c 93be f38c 0d3e
00000240: fee4 9cbe a843 483e a5d8 1e3e 57bf 8dbe
00000250: 61df f1bc 6c0c 82be 8e2b 43bd e757 803e
00000260: 592d 543c 62eb db3d 7250 983c f735 f9bd
00000270: 3bbe 68be 78f8 25bd e27e 92be 55c1 f73d
00000280: d29f f83c 050b 113e 4042 4fbe 70ec 903e
00000290: 8e26 90be b03b 4f3e 738d 063e 38cb 7dbe
000002a0: 6f2d 87bd b782 8fbe 6bd4 413e c158 303b
000002b0: 04a1 2abb 8fe4 1a3e ac47 fb3b 97b7 853d
000002c0: 1300 243d 357f 90be 265c 413d d73e 483e
000002d0: e116 57be 6f5f 4c3e 74e8 12be 12cc 093e
000002e0: ff79 983d 014f 0d3e 6a1b 303e 810b 50be
000002f0: 8f90 96be 1915 d63c b655 27bd 4124 693e
00000300: cbd4 cdbc e4b7 0fbe 3f21 36bd ac82 93be
00000310: a31b 2b3d 3df9 19be a602 563b 5a54 823e
00000320: 88d6 46be 7989 683e add6 95bd a1e7 99bd
00000330: 9dda a7bd dd2a b8bd ef28 7f3e d7d8 b83c
00000340: 3cb4 1fbd ba36 08be bd3d 96bd 4c5e ee3d
00000350: 1324 723d ae17 443e 173f bdbc 4a1f 0abe
00000360: 2f07 433d ae80 68be cf1f eabd da38 7d3e
00000370: 5a7b 763e 3ccc 24be fd50 8c3e dc46 96be
00000380: da9c d93d d73a 80be 5c46 4ebd 0f04 e73d
00000390: 0577 923e 5d70 19bd 137d 023e b290 53be
000003a0: ddc6 653e 96e3 6dbd 2248 e6bd 218a c1bd
000003b0: 7ace 943e 2b64 8d3e 9266 713e 0ad6 32be
000003c0: f9b6 92be 7c4d 593e 7e06 723d a37a 663e
000003d0: e36a 7fbe bf8d f63d 63b5 7b3d f064 a8bd
000003e0: e902 03be 41a3 80be 7d3e a9bd 0a83 8ebd
000003f0: dc2b 0abe 1eb7 293d 9e58 1cbe 5bca 743d

prop_h_to_h.3.bias f4 [20]
-0.113118485 0.04789761 -0.13124971 0.042340927 0.08192647 -0.1075038 0.09516663 -0.13122731
-0.26198083 -0.16232523 0.117362894 0.12495049 -0.20700942 0.060717355 -0.20763291 0.26845485
0.15547508 0.1236442 -0.085327476 0.120346755
00000000: aaaa e7bd 4930 443d 5366 06be ae6d 2d3d
00000010: 11c9 a73d f42a dcbd b9e6 c23d 7460 06be
00000020: 5a22 86be 9638 26be f55b f03d 0be6 ff3d
00000030: 47fa 53be c3b2 783d b99d 54be ea72 893e
00000040: dc34 1f3e 2c39 fd3d 2cc0 aebd 5c78 f63d

prop_h_to_out.weight f4 [1, 20]
0.09709059 0.17645195 0.20551345 -0.2167174 -0.22923136 0.23507702 0.19309138 0.30892584
0.19803607 0.2915157 0.16814014 -0.3062655 0.28181362 0.065815166 0.160179 -0.29877165
-0.032078054 -0.14234704 -0.030990304 -0.03872687
00000000: 6ed7 c63d d2af 343e 1e72 523e 2beb 5dbe
00000010: a0bb 6abe 08b8 703e bfb9 453e 872b 9e3e
00000020: f8c9 4a3e 8c41 953e ee2c 2c3e d5ce 9cbe
00000030: e049 903e 1aca 863d f705 243e 99f8 98be
00000040: 4764 03bd 6cc3 11be 61df fdbc 11a0 1ebd
