pair_trading/no_prob/pi.pth (torch, 21906 bytes, 21 tensors)

prop_in_to_h.weight f4 [20, 2]
0	0x3f2ad60c	0.6673286
1	0x3e92dc3f	0.2868366
2	0x3f0090a9	0.50220734
3	0x3e89554a	0.26822883
4	0xbe179382	-0.14802364
5	0x3da9be0a	0.082882
6	0xbea56970	-0.32307005
7	0xbe58cda6	-0.21172199
8	0xbf01ec13	-0.50750846
9	0x3f133a93	0.5751125
10	0xbe8d246e	-0.27566856
11	0xbe788a00	-0.24271393
12	0x3f01b7af	0.50670904
13	0xbf1877b2	-0.5955764
14	0xbe4088bf	-0.18802164
15	0xbdcfbf17	-0.10143869
16	0xbed6699b	-0.41877446
17	0x3f024307	0.50883526
18	0xbe08dbe1	-0.13365127
19	0xbe75d6dc	-0.24007744
20	0x3ef240ef	0.47315165
21	0xbf149045	-0.5803264
22	0x3f106667	0.56406254
23	0xbecf05d1	-0.40434125
24	0xbee32856	-0.4436671
25	0x3ed61548	0.4181311
26	0xbefbd8ba	-0.49188787
27	0x3ea794ca	0.32730705
28	0x3de4708d	0.1115428
29	0x3eeed3ba	0.4664591
30	0xbe64729d	-0.22309346
31	0x3f1a1eb7	0.6020312
32	0x3e013870	0.12619185
33	0x3ea1af04	0.3157884
34	0xbba67d10	-0.0050808266
35	0x3f2eb57f	0.6824569
36	0xbf168cea	-0.5880877
37	0xbe1baaf2	-0.15201929
38	0x3ea04151	0.31299832
39	0xbec70117	-0.3886802

prop_in_to_h.bias f4 [20]
0	0x3eb2557a	0.34830838
1	0xbe6ae433	-0.22938614
2	0x3f07c613	0.5303661
3	0xbe19bdb4	-0.15013772
4	0x3e3c4edd	0.18389459
5	0xbf20afb0	-0.6276808
6	0xbe888428	-0.26663327
7	0xbc31e338	-0.010857396
8	0xbf148d2c	-0.5802791
9	0xbe5af335	-0.21381839
10	0x3d8491a9	0.06473095
11	0xbf30f14d	-0.69118196
12	0xbe978a95	-0.29597917
13	0x3c4c9dca	0.012488792
14	0xbe0c1604	-0.13680273
15	0x3e8004d5	0.25003687
16	0x3ebc6e99	0.3680313
17	0xbefb287e	-0.4905433
18	0xbf1924b7	-0.5982165
19	0x3f231bc3	0.63714236

prop_h_to_h.0.weight f4 [20, 20]
0	0x3dbe5b79	0.09294791
1	0xbd47dcb9	-0.048794482
2	0x3d362df1	0.044477407
3	0xbd3da240	-0.04629731
4	0x3c256382	0.010094525
5	0xbe29f06c	-0.1659562
6	0x3e039ed9	0.12853564
7	0xbe1ca587	-0.15297519
8	0x3e500205	0.2031327
9	0x3da6d8ec	0.08146843
10	0x3c7d793d	0.0154708
11	0xbd71cb10	-0.059031546
12	0x3dc2a818	0.095047176
13	0x3e07b0e1	0.13251068
14	0x3dfec283	0.12439444
15	0x3dcd3bd3	0.10021176
16	0xbe52d964	-0.2059074
17	0xbe0d3afb	-0.1379203
18	0xbe403561	-0.18770362
19	0xbc988b1a	-0.018621016
20	0xbd1bbe78	-0.038023442
21	0x3d1482ce	0.036257558
22	0xbe04a015	-0.12951691
23	0xbe20895a	-0.15677395
24	0xbe25bf49	-0.16186251
25	0xbdd4b041	-0.1038518
26	0x3e62a552	0.22133377
27	0x3db40bbc	0.08791301
28	0xbe2d1d7d	-0.1690578
29	0x3cbf0c2b	0.023321232
30	0x3e1830b4	0.14862329
31	0xbd76d8ab	-0.060265224
32	0xbe594292	-0.21216801
33	0x3c8b35ac	0.016993366
34	0xbe4cc4b3	-0.1999691
35	0xbdb7fa85	-0.0898333
36	0x3e30aea7	0.17254125
37	0xbe66323c	-0.224801
38	0x3e314025	0.17309625
39	0x3dbd86e2	0.092542425
40	0xbb14b76e	-0.002269234
41	0xbcc519ab	-0.024060091
42	0xbe25ecd1	-0.1620362
43	0xbe02b8cc	-0.12765807
44	0xbdda5548	-0.10660797
45	0xbde0e9c4	-0.10982087
46	0x3a15e998	0.0005718707
47	0x3db5df0e	0.08880435
48	0x3dd0249c	0.10163233
49	0xbc70d2fc	-0.01469874
50	0xbdedcad3	-0.11610951
51	0x3e48bfc9	0.1960441
52	0x3e71c0ee	0.23608753
53	0x3e0fb9f7	0.14035784
54	0xba4f5fd0	-0.00079107005
55	0xbc6231a8	-0.013805784
56	0x3d9ad8d7	0.0756089
57	0x3d20995c	0.039208755
58	0xbcafe3c1	-0.021470906
59	0x3df59d26	0.11992864
60	0xbd5d4f27	-0.054030564
61	0xbd44f4d0	-0.048085034
62	0x3cf542d1	0.029939087
63	0x3e1237fa	0.14279166
64	0xbcca02fe	-0.02465963
65	0x3da82ad0	0.08211291
66	0x3d2df820	0.04247296
67	0x3ddd707d	0.10812471
68	0xbe8929a9	-0.26789597
69	0x3d66184b	0.05617551
70	0xbdf1193f	-0.117723934
71	0x3e4e0259	0.20118083
72	0xbbf6110d	-0.007509357
73	0xbd284be4	-0.041088
74	0xbe31db62	-0.17368844
75	0xbe4347d2	-0.19070366
76	0xbc3923bf	-0.011300026
77	0x3de73441	0.112892635
78	0x3d8d76c8	0.06907421
79	0x3decfa0b	0.115711294
80	0xbe5a1ff2	-0.21301249
81	0xbe2e62d3	-0.17029886
82	0xbd20ca7e	-0.03925561
83	0xbe23d4d5	-0.15999158
84	0xbd9dfc96	-0.077141926
85	0xbe0e2ce3	-0.1388431
86	0xbe25b56d	-0.1618249
87	0xbdcded50	-0.100550294
88	0x3df6b27f	0.12045764
89	0x3b169b0f	0.0022980606
90	0x3e35e962	0.1776481
91	0xbc0896ba	-0.008336717
92	0x3cb83d43	0.02249015
93	0x3d3929c1	0.045205835
94	0x3d47f102	0.048813827
95	0x3e0f9e2b	0.1402518
96	0x3e004bca	0.12528911
97	0xbd91112e	-0.07083355
98	0xbe2704fe	-0.16310498
99	0xbe5def9d	-0.21673436
100	0x3dcb415a	0.09924574
101	0x3be315dc	0.006930096
102	0x3bf6269e	0.0075119277
103	0x3da4e2a2	0.08051039
104	0xbe8012f0	-0.25014448
105	0x3dc0cadd	0.09413693
106	0x3e67f165	0.22650678
107	0xbe220afd	-0.15824504
108	0xbc78085a	-0.01513871
109	0xbe02a548	-0.12758362
110	0x3b479eff	0.003045976
111	0x3d749e02	0.059721
112	0x3d94c3a5	0.07263879
113	0xbe1a9914	-0.15097457
114	0x3d822eea	0.063566044
115	0xbe7e31fc	-0.24823755
116	0x3e5284a5	0.20558412
117	0xbc0c82ea	-0.008576134
118	0xbd9fee94	-0.07809177
119	0x3e189b0a	0.14902893
120	0xbbe6d3df	-0.0070443
121	0x3ca6fb5a	0.020383526
122	0xbbfbce91	-0.0076845367
123	0x3dce74a3	0.100808404
124	0x3dfcc577	0.12342351
125	0x3e3269fd	0.17423244
126	0xbc5456be	-0.012960134
127	0xbbd06ff6	-0.006361003
128	0x3d217fb4	0.039428428
129	0xbc2fb161	-0.010723443
130	0xbb0e48d4	-0.002171089
131	0x3e3e49d7	0.18582855
132	0xbdac3f3e	-0.084105
133	0x3e07ef64	0.13274914
134	0x3d2ae57d	0.041722763
135	0x3dcf880a	0.10133369
136	0xbe107178	-0.14105785
137	0xbda315ee	-0.07963167
138	0xbdf9a234	-0.12189141
139	0x3c8b1dda	0.016982008
140	0x3e526908	0.20547879
141	0x3d2d0299	0.042238805
142	0xbe1f6c05	-0.1556855
143	0x3e122b2b	0.1427428
144	0x3d890947	0.06691223
145	0x3e101007	0.14068614
146	0xbe1ec2c5	-0.15503986
147	0xbd4795f6	-0.048727
148	0x3d9b20df	0.07574629
149	0xbb3d0950	-0.0028844662
150	0xbc89dd45	-0.016829142
151	0x3d95321b	0.072849475
152	0x3dc8a9ef	0.09798037
153	0xbe1513ea	-0.14558378
154	0x3e050160	0.12988806
155	0xbd660e46	-0.056165956
156	0x3d6126a6	0.0549685
157	0xbdc79f08	-0.0974713
158	0x3d0e4501	0.034733776
159	0xbe23568c	-0.15950984
160	0xbe3d098a	-0.1846067
161	0x3e44f7e4	0.19235188
162	0xbe4bc291	-0.1989844
163	0x3d71b3fb	0.059009533
164	0x3e5f691c	0.2181744
165	0xbdb676b7	-0.08909362
166	0xbdc4dc3c	-0.09612319
167	0x3dca7e7b	0.098874055
168	0xbe01d95b	-0.12680571
169	0x3e3de226	0.185433
170	0x3dd3ed28	0.10347968
171	0x3d68f6a8	0.056875855
172	0x3db169ae	0.08662735
173	0xbd873ade	-0.06603025
174	0x3d1ff4f6	0.039051972
175	0xbe0900d4	-0.13379222
176	0x3dae324d	0.08505688
177	0x3e1652c5	0.14680012
178	0xbda92726	-0.0825942
179	0x3e354f28	0.17705977
180	0x3d9049f3	0.07045355
181	0xbe4261ba	-0.18982592
182	0xbe2f61af	-0.17127107
183	0x3e04047c	0.12892336
184	0x3e472976	0.1944941
185	0xbb9d2fbc	-0.00479695
186	0x3e3af424	0.18257195
187	0xbc87711e	-0.01653343
188	0x3dc97739	0.09837193
189	0xbb6376c7	-0.0034708248
190	0xbd26ef07	-0.040755298
191	0x3b9dc83d	0.00481513
192	0xbe1e1dd3	-0.15441065
193	0xbe00534f	-0.1253178
194	0x3d6281c1	0.055299524
195	0xbe0bc829	-0.13650574
196	0xbdded49c	-0.10880396
197	0x3d04170a	0.032248534
198	0x3e08239d	0.13294835
199	0xbcc1170b	-0.023570558
200	0x3de15c6b	0.110039555
201	0x3dea79a3	0.114489816
202	0x3e118fdb	0.14215033
203	0xbdc9fe9a	-0.098630145
204	0x3d924364	0.0714176
205	0xbd24743e	-0.04014992
206	0xbd675720	-0.056479573
207	0xbe5dfee6	-0.21679267
208	0x3e087c8d	0.13328762
209	0xbe6b130c	-0.22956485
210	0xbd6ebac2	-0.058283575
211	0x3dfad7c0	0.12248182
212	0x3c80d35e	0.015725788
213	0x3e42f026	0.19036922
214	0x3c8923f8	0.016740784
215	0xbd354e58	-0.044264168
216	0xbe1c9028	-0.15289366
217	0xbe1beec4	-0.152278
218	0xbd62cc83	-0.05537082
219	0xbbd0717c	-0.0063611846
220	0x3d878f29	0.066191025
221	0x3d12c173	0.03582902
222	0xbda1ff2b	-0.079099976
223	0x3e2dccb0	0.16972613
224	0xbe390e97	-0.18071972
225	0xbe1c3b74	-0.15257055
226	0x3e3d15b8	0.18465316
227	0x3b71b2ec	0.0036880327
228	0x3e3a04e1	0.18165924
229	0x3e5c8a13	0.21537046
230	0xbd96a5c4	-0.07355836
231	0x3e1de15e	0.15418002
232	0x3e7de63c	0.24794859
233	0x3d490383	0.049075615
234	0x3df18468	0.117928326
235	0x3e525ebd	0.20543952
236	0xbd424eff	-0.047438618
237	0x3dcc93ff	0.099891655
238	0xbdaca9d3	-0.08430829
239	0xbdd4d50e	-0.103921995
240	0xbda6348a	-0.0811549
241	0x3e57e005	0.2108155
242	0x3d19cf7e	0.037551396
243	0x3d8f04c9	0.069833346
244	0xbe6d8c72	-0.23198107
245	0xbc8d3f24	-0.017242022
246	0xbe0168f4	-0.12637693
247	0xbe704d01	-0.23466875
248	0x3d991710	0.07475102
249	0xbd177458	-0.03697619
250	0xbdc54c79	-0.096337266
251	0x3c2bd7b4	0.010488439
252	0xbe75c574	-0.24001104
253	0xbd807b35	-0.062735
254	0xbe24a630	-0.1607902
255	0x3dae80a8	0.08520633

prop_h_to_h.0.bias f4 [20]
0	0x3e147aa6	0.14499912
1	0x3e469f3a	0.19396678
2	0xbe6054e3	-0.21907382
3	0x3e20a4e6	0.15687904
4	0x3cefbe84	0.02926565
5	0x3e10f2c0	0.14155102
6	0xbe221e2f	-0.15831827
7	0xbc1d7516	-0.009610435
8	0x3e05869d	0.13039632
9	0x3e6572f9	0.2240714
10	0xbd14a33c	-0.036288485
11	0xbcc43bdc	-0.023954324
12	0xbd8979c6	-0.067126796
13	0xbc80342e	-0.015649881
14	0xbc833e37	-0.016020877
15	0xbcd9ac05	-0.026571283
16	0xbc84b632	-0.016200159
17	0xbdfe1f45	-0.12408308
18	0x3d6cd6af	0.057821926
19	0xbd460bc2	-0.048351057

prop_h_to_h.1.weight f4 [20, 20]
0	0x3d9a5107	0.07534986
1	0x3e71d414	0.23616058
2	0xbe200e46	-0.15630445
3	0x3cfbcb7e	0.030736681
4	0xbe18a74c	-0.14907569
5	0x3ca6ae71	0.020346852
6	0x3c8c3d47	0.017119063
7	0xbe21a64b	-0.15786092
8	0xbdfd1681	-0.12357808
9	0xbe2cbb84	-0.16868407
10	0xbd205468	-0.039142996
11	0xbdb16faa	-0.08663876
12	0x3d3596ee	0.04433339
13	0x3df966fe	0.12177847
14	0xbd68ffd7	-0.056884613
15	0xbdec8eae	-0.115506515
16	0xbe2057ab	-0.15658443
17	0xbdb70236	-0.089359686
18	0x3e11d5e5	0.1424175
19	0xbe327551	-0.17427565
20	0xbe0cf312	-0.13764599
21	0xbdbbe3ee	-0.091743335
22	0x3e66f5e4	0.22554737
23	0xbe60b3a0	-0.21943521
24	0x3d30e45c	0.04318653
25	0xbe7d1329	-0.2471434
26	0xbe1203a7	-0.14259206
27	0x3cce2e90	0.025168687
28	0xbe20ba2e	-0.15696022
29	0x3e26128a	0.1621801
30	0x3e24e2ea	0.16102186
31	0xbe2205bb	-0.15822499
32	0x3dbee4f6	0.093210146
33	0x3e422cc0	0.18962383
34	0x3dc4b2f7	0.09604447
35	0xbe1e633b	-0.15467541
36	0xbbd6cd66	-0.006555247
37	0x3d9c72f7	0.07639115
38	0x3d3b27dc	0.04569231
39	0xbcfad99e	-0.030621346
40	0xbe2fb6dc	-0.17159599
41	0x3dc297e9	0.09501631
42	0x3c949711	0.01813844
43	0xbe07ec84	-0.13273817
44	0x3e1898c5	0.14902027
45	0xbe370af9	-0.1787528
46	0x3e03d6d0	0.12874913
47	0x3da18076	0.0788583
48	0xbba6cc88	-0.0050903
49	0x3803f88d	3.1464315e-05
50	0xbe0aa9fb	-0.13541405
51	0x3e565365	0.2093025
52	0xbdcba234	-0.09943047
53	0x3e443db0	0.19164157
54	0xbdb3039f	-0.08740925
55	0xbdc903c4	-0.09815171
56	0xbdf993bc	-0.12186381
57	0x3e1fc704	0.15603262
58	0x3e258aca	0.16166225
59	0xbde1db4c	-0.11028156
60	0x3e326c38	0.17424095
61	0x3da45f99	0.08026046
62	0xbc34ad38	-0.011027627
63	0x3e5d6a46	0.21622571
64	0xbe54fc52	-0.20799378
65	0x3d06f844	0.03295161
66	0xbe66369f	-0.22481774
67	0xbe396f6e	-0.18108913
68	0x3d18d1b3	0.03730936
69	0x3d05853a	0.032597758
70	0xbbb03019	-0.0053768274
71	0xbe097c86	-0.13426408
72	0x3de2e2a7	0.11078387
73	0x3cddbf36	0.027068716
74	0xbd84ea55	-0.06490008
75	0x3e5cf393	0.21577291
76	0x3c4a66ee	0.012353642
77	0xbdaea976	-0.08528416
78	0xbdd7c047	-0.10534721
79	0x3e049eb7	0.1295117
80	0x3d1c5a1e	0.03817188
81	0x3e5ab2d4	0.2135728
82	0x3d4a4269	0.04937974
83	0xbd02d14c	-0.031937882
84	0x3dbb9a01	0.09160233
85	0x3e8387f3	0.2568966
86	0xbc9f38e0	-0.0194363
87	0xbe324d27	-0.17412244
88	0xbe2cb7be	-0.16866967
89	0xbcb2c50a	-0.021822471
90	0x3d88047b	0.066414796
91	0x3c742515	0.014901419
92	0x3df92986	0.12166123
93	0xbe1bdf31	-0.1522186
94	0xba27d45d	-0.0006402189
95	0xbe309014	-0.17242461
96	0xbe36a8cb	-0.17837827
97	0xbe659807	-0.22421275
98	0x3e4501d9	0.19238986
99	0x3da1c672	0.078991786
100	0x3d0f8065	0.035034556
101	0x3e378f4a	0.17925754
102	0xbe62b229	-0.22138275
103	0xbe2bc151	-0.16772963
104	0xbd3e382c	-0.04644029
105	0x3d013fa7	0.031554844
106	0x3deba87e	0.11506747
107	0x3dca73aa	0.098853424
108	0x3e01ec7a	0.12687865
109	0x3cf42f9f	0.029807864
110	0xbcfb9a37	-0.030713184
111	0x3e0e99b7	0.13925825
112	0x3d932057	0.07183903
113	0x3c195382	0.009358289
114	0xbd3fa5be	-0.046788923
115	0x3e467224	0.19379479
116	0x3e2506ea	0.16115919
117	0x3cf646c8	0.030063048
118	0x3e6494b3	0.22322349
119	0x3e228fd1	0.15875174
120	0xbda076bd	-0.078351475
121	0xbe63bb05	-0.22239311
122	0xbd6fcb2f	-0.05854338
123	0xbdc25466	-0.09488754
124	0x3e13d877	0.14438044
125	0x3d26dc62	0.040737517
126	0x3e5188ac	0.20462292
127	0xbd974c3e	-0.07387589
128	0x3e2912de	0.16511104
129	0xbd3df272	-0.046373792
130	0x3dc3fbdc	0.09569523
131	0xbd9f8cdb	-0.07790538
132	0xbdd5bafe	-0.104360566
133	0xbe1aeca8	-0.1512934
134	0x3dbc3a02	0.091907516
135	0xbe29ef70	-0.16595244
136	0xbd6fd848	-0.05855587
137	0x3d9fd648	0.07804543
138	0xbe05cfcb	-0.13067548
139	0x3c127aae	0.008940382
140	0x3c2efc85	0.010680323
141	0x3d45d003	0.04829408
142	0xbd6a8ccb	-0.057263177
143	0xbded6d9e	-0.115931734
144	0xbdbaec6b	-0.091271244
145	0x3d992ce1	0.07479263
146	0xbd5f12d6	-0.054461323
147	0xbd86d525	-0.06583623
148	0xbe558ef0	-0.20855308
149	0xbc9ca737	-0.019122703
150	0x3e45183a	0.19247523
151	0x3e38f745	0.18063076
152	0x3e40001c	0.18750042
153	0xbd649d80	-0.055814266
154	0xbd897f71	-0.06713761
155	0xbdd4c4f8	-0.10389131
156	0x3da44115	0.08020226
157	0xbdf71136	-0.120638296
158	0x3dfa1f46	0.12212996
159	0xbdd7b505	-0.105325736
160	0x3e6b0ed7	0.2295488
161	0xbbb7d967	-0.005610633
162	0x3c65f4c9	0.014035412
163	0xbc41626c	-0.011803251
164	0xbd0f3958	-0.034966797
165	0x3c36d274	0.011158574
166	0xbdbcdbfd	-0.09221647
167	0xbdeb57ca	-0.11491354
168	0xbc92882f	-0.017887203
169	0xbc3d9ff8	-0.011573784
170	0xbe0e71d3	-0.13910608
171	0x3e687d5a	0.22704068
172	0xbe07b515	-0.13252671
173	0x3e24c555	0.16090901
174	0x3df61688	0.12016016
175	0x3d2c6f09	0.04209808
176	0xbd57adfd	-0.052656163
177	0x3ca38998	0.01996307
178	0x3e0dc246	0.1384364
179	0x3e3e738b	0.18598764
180	0x3e2c4f59	0.16827144
181	0x3d4de16e	0.050263815
182	0x3cff0aaf	0.031133024
183	0x3e63bb55	0.2223943
184	0x3dc1e4c2	0.0946746
185	0x3d150fee	0.036392145
186	0xbdbb2280	-0.0913744
187	0x3d3f9569	0.046773348
188	0x3d8b2ab7	0.067952566
189	0xbd9eceb4	-0.07754269
190	0xbd39936b	-0.045306604
191	0x3c6ca862	0.0144444425
192	0x3e4b0173	0.19824772
193	0x3e2468e1	0.16055633
194	0x3e4da0d7	0.20080887
195	0x3e3c2e7a	0.18377104
196	0x3dda9f35	0.106748976
197	0x3d0d0cbc	0.034435973
198	0xbd8a23ed	-0.067451335
199	0xbcc5fbe4	-0.024167962
200	0xbcfde8e8	-0.030994847
201	0xbe13d080	-0.14435005
202	0xbde77797	-0.11302107
203	0x3e048aa2	0.12943509
204	0xbcc4712e	-0.02397975
205	0x3e1b6583	0.15175442
206	0xbdf6bcae	-0.120477065
207	0x3e218429	0.15773071
208	0x3cad22a5	0.021134684
209	0xbd9dd1bd	-0.0770602
210	0xbc5ad8f8	-0.013357393
211	0x3db9fc9e	0.09081386
212	0x3e1a3134	0.15057832
213	0x3e2171b9	0.15766038
214	0xbe3fcff7	-0.18731676
215	0xbe183003	-0.14862065
216	0xbdb4afae	-0.08822571
217	0x3e802f1d	0.25035945
218	0xbe313754	-0.17306262
219	0xbde6d185	-0.112704314
220	0x3e3ba197	0.1832336
221	0x3d92d01e	0.071686015
222	0x3e41aa10	0.1891253
223	0x3ce606b6	0.028079372
224	0x3d2df57b	0.042470437
225	0xbd245ab3	-0.04012556
226	0x3e38e86a	0.18057409
227	0x3de4894e	0.11159001
228	0x3e16c15a	0.14722195
229	0xbdf1e545	-0.11811308
230	0xbe2485eb	-0.1606671
231	0x3e49915a	0.19684353
232	0xbe4a8e10	-0.19780755
233	0xbdaf0011	-0.085449345
234	0xbd23c9aa	-0.039987244
235	0x3c9e57a3	0.019328898
236	0xbe00c2a7	-0.12574254
237	0x3dd2b6c6	0.102887675
238	0xbd2a4d50	-0.041577637
239	0xbdcb1605	-0.09916309
240	0x3cb8cb71	0.022557946
241	0xbe1ed2aa	-0.1551005
242	0xbe1075dc	-0.1410746
243	0xbe2ed669	-0.17073978
244	0xbe6b3d38	-0.22972572
245	0x3daf930a	0.08572967
246	0xbd9badc0	-0.076014996
247	0xbe0efe72	-0.1396425
248	0xbd11a028	-0.035553128
249	0x3e5ad9ac	0.21372098
250	0xbbd2e7ba	-0.0064363154
251	0x3e1c69bf	0.15274714
252	0xbe0c20c0	-0.13684368
253	0x3e23cc4c	0.15995902
254	0xbd2d683f	-0.042335745
255	0x3d3056b8	0.04305145

prop_h_to_h.1.bias f4 [20]
0	0xbd81f6d4	-0.06345907
1	0x3d9d1321	0.07669664
2	0xbde66479	-0.112496324
3	0xbe0fec15	-0.14054902
4	0x3dbba5fc	0.091625184
5	0xbe0a5e6b	-0.1351258
6	0x3da7f10d	0.08200274
7	0xbe2f2d07	-0.1710702
8	0xbe171a1e	-0.14756057
9	0x3db169f5	0.08662788
10	0xbd9521da	-0.07281847
11	0x3e23cb16	0.1599544
12	0xbc120b1b	-0.008913781
13	0xbc8e9c6c	-0.017408572
14	0x3d6bbf4f	0.057555493
15	0xbde9cbaf	-0.11415803
16	0x3e494c77	0.19658075
17	0xbd844ee4	-0.0646036
18	0xbd81eaaf	-0.063435905
19	0x3e1fd8a4	0.15609986

prop_h_to_h.2.weight f4 [20, 20]
0	0x3ca96296	0.020676892
1	0xbd3feb54	-0.046855286
2	0x3d0f6f4a	0.035018243
3	0xbe4b15b0	-0.19832492
4	0xbdd4cc82	-0.10390569
5	0x3cf71573	0.030161595
6	0x3d8907dd	0.06690953
7	0xbe091ab7	-0.13389097
8	0xbd908e03	-0.070583366
9	0xbd1dcc22	-0.038524754
10	0xbde4711b	-0.11154386
11	0x3de9428d	0.11389647
12	0xbe0e948e	-0.13923857
13	0x3d2b3bec	0.041805193
14	0x3e202a82	0.15641215
15	0xbe28d0ea	-0.16485944
16	0x3ce9395f	0.02846974
17	0xbdb54086	-0.088501975
18	0x3d649213	0.05580337
19	0xbdf6ad8f	-0.120448224
20	0x3d244b66	0.040110968
21	0xbe6e1e6a	-0.2325379
22	0xbe48f0d6	-0.19623122
23	0xbe009819	-0.1255802
24	0x3e9200b0	0.2851615
25	0x3d320714	0.04346378
26	0xbcfaf95f	-0.030636488
27	0xbda82b74	-0.08211413
28	0xbde792d0	-0.11307299
29	0x3eaf0784	0.3418542
30	0xbd64dab3	-0.05587263
31	0x3d559c37	0.05215093
32	0xbc00be90	-0.007857934
33	0x3e72c4a1	0.2370782
34	0xbd8caf8f	-0.06869423
35	0xbd8ce250	-0.06879103
36	0x3da502a6	0.08057146
37	0xbb8fdf82	-0.004390658
38	0x3e9b6861	0.30353072
39	0x3e1e0697	0.15432201
40	0xbb960b82	-0.0045790086
41	0xbe26ccae	-0.16289017
42	0xbc6c0141	-0.014404596
43	0x3db10dd7	0.08645218
44	0xbe2f6153	-0.1712697
45	0xbe3af4a4	-0.18257385
46	0x3c87f8c4	0.016598113
47	0xbe0487bb	-0.12942402
48	0xbdaaba6f	-0.08336341
49	0x3d04a29e	0.032381646
50	0x3db6db91	0.08928598
51	0x3d4f7b35	0.05065461
52	0x3dfd3690	0.123639226
53	0xbe1e617c	-0.15466875
54	0xbe455828	-0.1927191
55	0x3e60bc22	0.21946767
56	0x3d75647b	0.05991028
57	0xbe31c872	-0.1736162
58	0xbccc5bca	-0.024946112
59	0x3cab1ea0	0.020888627
60	0xbdd083bc	-0.10181376
61	0x3d72f449	0.059315
62	0xbe10d178	-0.14142406
63	0x3ea434ad	0.32071438
64	0x3e7e917e	0.24860188
65	0x3d2716cb	0.04079322
66	0xbe53d466	-0.20686492
67	0x3d337df6	0.043821298
68	0x3dfa652c	0.12226328
69	0xbbc0e717	-0.005886923
70	0xbe83ee87	-0.2576792
71	0x3d7d9a44	0.061914697
72	0xbda2008f	-0.07910263
73	0xbd76ddf3	-0.06027026
74	0x3e5d60c6	0.21618947
75	0xbbf260f1	-0.00739681
76	0xbd8948cd	-0.06703339
77	0x3e11031d	0.14161344
78	0x3e25d8c0	0.16195965
79	0x3e9e4182	0.30909353
80	0xbe0028b3	-0.12515526
81	0xbdd8316d	-0.10556302
82	0xbd2de931	-0.042458717
83	0xbd8fa07c	-0.07013032
84	0xbe396aec	-0.18107194
85	0x3d104ee3	0.035231482
86	0x3c890a0f	0.01672843
87	0x3da3c80e	0.07997142
88	0xbdfca8ff	-0.12336921
89	0x3e2dac7d	0.1696033
90	0xbe2c90d6	-0.16852126
91	0x3e144aaa	0.14481607
92	0x3e49b76e	0.19698879
93	0x3e3a5129	0.18195023
94	0xbe1b9561	-0.15193702
95	0x3deb99c0	0.11503935
96	0x3cdfe589	0.02733113
97	0x3e3b4a4f	0.18290065
98	0xbe5015a5	-0.20320757
99	0xbd3890dc	-0.045060024
100	0xbc10cdec	-0.008838158
101	0x3ce967f3	0.02849195
102	0x3dd43d2f	0.10363232
103	0xbd2eaf64	-0.042647734
104	0x3dbc7fc5	0.092040576
105	0x3df354a6	0.1188138
106	0xbe3d92f8	-0.18513095
107	0x3e4e1524	0.20125252
108	0xbdf27137	-0.11838
109	0x3d971d5a	0.07378645
110	0x3e1c2ae7	0.15250741
111	0xbdf70f31	-0.120634444
112	0xbda12c06	-0.07869725
113	0x3c0a8431	0.008454368
114	0xbdc86c02	-0.09786226
115	0x3e36ffba	0.1787099
116	0x3d777ae1	0.06041992
117	0xbdf9a955	-0.12190501
118	0x3de852f3	0.11343946
119	0x3dd51269	0.10403902
120	0xbe48aa3f	-0.19596194
121	0x3e5f6c29	0.21818604
122	0xbd3e5335	-0.04646607
123	0xbe55e189	-0.20886816
124	0xbcc2c3da	-0.02377503
125	0x3e1243da	0.14283696
126	0x3db61f37	0.088926725
127	0xbd5f8e50	-0.05457908
128	0xbcaf6342	-0.021409635
129	0x3e053741	0.13009359
130	0xbd81b76d	-0.06333814
131	0x3e22a9ca	0.15885082
132	0xbdb3968a	-0.087689474
133	0x3d75abc3	0.059978258
134	0x3c3f1f4e	0.011665178
135	0xbda2fd8c	-0.079585165
136	0x3e0b60fb	0.13611214
137	0x3da58ed4	0.08083883
138	0xbe420002	-0.18945315
139	0xbe10da4c	-0.14145774
140	0x3ca0eeca	0.019645113
141	0x3d433ef9	0.047667477
142	0xbc17acbd	-0.009257493
143	0xbbd29440	-0.006426364
144	0xbd846cbc	-0.06466052
145	0x3d3f113e	0.046647303
146	0xbd25331a	-0.040331937
147	0xbd9ed1eb	-0.077548824
148	0xbbc48f5f	-0.0059985365
149	0x3d807fb8	0.062743604
150	0x3e5ba578	0.2144984
151	0x3e2f5b25	0.17124613
152	0x3d51aa93	0.051188063
153	0x3cf9016f	0.030396191
154	0xbe60c3bb	-0.21949665
155	0xbd1d6371	-0.038424913
156	0x3e132f25	0.14373453
157	0x3d72965d	0.05922543
158	0x3c22ea5b	0.00994357
159	0x3d8d779e	0.06907581
160	0xbdac2834	-0.08406106
161	0xbdcf6e68	-0.1012848
162	0x3d98a6c9	0.07453687
163	0x3d46892e	0.04847067
164	0x3da18bc9	0.0788799
165	0xbd614ee2	-0.05500687
166	0xbd2a6b57	-0.041606274
167	0x3e069456	0.13142523
168	0x3d8884b0	0.06665933
169	0xbb9c50e5	-0.0047703856
170	0xbdfc7737	-0.12327426
171	0xbe130d5a	-0.14360562
172	0x3e131a40	0.14365482
173	0xbd089d1b	-0.033352952
174	0x3e32a6f1	0.17446496
175	0xbe1fe109	-0.15613188
176	0x3cfbbb04	0.030728824
177	0x3d404ef1	0.046950284
178	0x3dd5432a	0.10413201
179	0x3df0f3be	0.1176524
180	0x3e2375c2	0.1596289
181	0x3d67c78e	0.056586795
182	0x3db3a5a6	0.08771829
183	0x3cab5629	0.020915108
184	0xbda36c10	-0.07979596
185	0xbe6c8365	-0.23096998
186	0xbe47b1e0	-0.19501448
187	0xbe3d1b53	-0.18467455
188	0x3d7c9f09	0.061675105
189	0xbdd327c5	-0.1031032
190	0xbda3e255	-0.08002154
191	0xbc97b022	-0.018516604
192	0xbca91c96	-0.020643514
193	0x3ddb0ce4	0.10695818
194	0xbd973240	-0.07382631
195	0x3dd510e5	0.10403613
196	0xbde65e5e	-0.11248468
197	0xbd403062	-0.04692114
198	0xbe11c298	-0.14234388
199	0x3d443c77	0.047909226
200	0xbc8153f9	-0.015787112
201	0x3bd4d7a7	0.0064954343
202	0x3e3f412f	0.1867721
203	0x3a0bada2	0.00053283025
204	0x3e1df708	0.15426266
205	0x3e02ee3f	0.12786196
206	0xbd8d6e33	-0.069057845
207	0x3e1bdc2a	0.15220705
208	0xbe2cd8cf	-0.16879581
209	0xbd07b6d3	-0.03313334
210	0x3dcbd103	0.09951975
211	0xbd321428	-0.043476254
212	0x3dc425d5	0.095775284
213	0x3cde25f1	0.027117701
214	0xbe6ee765	-0.23330458
215	0x3da7d0de	0.08194135
216	0xbe1f57ce	-0.15560839
217	0x3e33754d	0.17525215
218	0xbe7a4a4d	-0.24442406
219	0xbd3e9916	-0.046532713
220	0xbe1b4b59	-0.15165462
221	0xbd47cac4	-0.048777357
222	0xbd056231	-0.032564346
223	0x3e07debc	0.1326856
224	0xbe4abd43	-0.1979876
225	0xbe15e1e1	-0.14636947
226	0xbe3ebb2c	-0.18626088
227	0xbe36df59	-0.17858638
228	0x3e0fc32a	0.14039293
229	0x3e0aa86c	0.1354081
230	0x3db202fc	0.086919755
231	0x3cc5ffd0	0.024169832
232	0xbd81aac8	-0.06331402
233	0xbd19e4bc	-0.037571654
234	0xbd4a5a1a	-0.049402334
235	0xbd1d3ddf	-0.038389083
236	0x3e1dffbc	0.15429586
237	0xbe5c7c8c	-0.21531886
238	0xbd182c4f	-0.03715163
239	0x3e0a0558	0.13478601
240	0x3db5614d	0.08856449
241	0xbd89dc22	-0.0673144
242	0xbccc5c68	-0.024946406
243	0x3d905a1d	0.07048438
244	0x3d5b04a5	0.053471226
245	0x3dac7232	0.084202185
246	0xbe11ca78	-0.14237392
247	0x3e11be96	0.14232859
248	0xbe03f3ef	-0.12886022
249	0xbe001d8e	-0.12511274
250	0x3e4a6e37	0.19768606
251	0x3dce67af	0.1007837
252	0xbc0fb078	-0.008770101
253	0xbd54ba2c	-0.05193536
254	0xbe3430cc	-0.1759674
255	0x3d4ec480	0.050480366

prop_h_to_h.2.bias f4 [20]
0	0xbd2166a1	-0.039404515
1	0x3e1a9bbc	0.1509847
2	0xbd495224	-0.0491506
3	0x3e436211	0.19080378
4	0x3dec934e	0.11551534
5	0xbdaf7e90	-0.08569062
6	0xbd9ea71f	-0.077467196
7	0x3e4777f0	0.19479346
8	0x3de0a509	0.10968978
9	0xbe18d270	-0.14924026
10	0x3e43403e	0.19067475
11	0x3e036fda	0.12835637
12	0xbe125def	-0.14293645
13	0xbe22d66e	-0.15902111
14	0xbe0a2026	-0.13488826
15	0x3caed4d9	0.021341728
16	0xbd2cfb11	-0.042231623
17	0xbde983a8	-0.114020646
18	0xbe31e8f2	-0.17374018
19	0x3dff1cdf	0.124566786

prop_h_to_h.3.weight f4 [20, 20]
0	0x3d3017d0	0.04299146
1	0x3e7ae117	0.24499927
2	0x3e220f04	0.1582604
3	0x3da0057a	0.078135446
4	0xbe154f43	-0.14581017
5	0x3dfd1a34	0.123585135
6	0xbdb7de52	-0.08977951
7	0xbe12e3f5	-0.14344771
8	0xbe1ba68a	-0.15200248
9	0x3e671de0	0.2256999
10	0xbcef1abe	-0.029187556
11	0xbe6cc365	-0.23121412
12	0xbd06d01b	-0.03291331
13	0xbcd164b2	-0.02556071
14	0xbde312f2	-0.11087598
15	0x3dd33940	0.10313654
16	0x3c43274c	0.011911225
17	0xbe4fd8fa	-0.20297614
18	0x3dac808e	0.08422957
19	0xbde72884	-0.112870246
20	0xbd319e2b	-0.04336373
21	0x3e29da76	0.16587242
22	0xbd421fce	-0.047393613
23	0x3e251a8f	0.16123413
24	0xbe45a6a0	-0.19301844
25	0xbca95b3b	-0.020673385
26	0xbdc4c08f	-0.0960704
27	0x3db87f4c	0.09008655
28	0xbe17260b	-0.14760606
29	0x3e3c5b60	0.18394232
30	0x3cdcc628	0.026949957
31	0x3dcf1072	0.101105586
32	0xbc22f6d1	-0.009946541
33	0x3e4bb710	0.19894052
34	0x3e00a91c	0.1256451
35	0x3d481fc4	0.04885842
36	0xbd265dd6	-0.040616833
37	0xbe08e1a6	-0.13367328
38	0xbd5e83d6	-0.054324947
39	0xbc9bc737	-0.019015891
40	0xbdb61c82	-0.08892156
41	0xbd7b2cf9	-0.061322186
42	0x3e0d4b4f	0.13798259
43	0x3c8b14ba	0.016977657
44	0xbd2e96c2	-0.042624243
45	0xbdf34aa4	-0.11879471
46	0x3df9c5dc	0.12195942
47	0x3e518dad	0.20464201
48	0x3e51fdd4	0.20506984
49	0x3cb17e2e	0.021666612
50	0x3e3a8aff	0.18217085
51	0x3e6310a9	0.22174324
52	0xbe269b60	-0.16270208
53	0xbe3936dd	-0.18087335
54	0xbe5875f5	-0.21138747
55	0x3e13581e	0.14389083
56	0xbdbe24e8	-0.09284383
57	0x3d969a43	0.07353642
58	0x3d986e53	0.07442918
59	0xbd6ed016	-0.058303915
60	0xbe1d34cb	-0.1535217
61	0x3e345142	0.17609122
62	0x3df382fb	0.11890217
63	0x3caf5f96	0.021407884
64	0xbe6d816a	-0.23193899
65	0x3e35a773	0.17739658
66	0x3e29c25e	0.16578051
67	0xbd9aa02c	-0.075500816
68	0xbe2eb769	-0.17062153
69	0x3e568484	0.20948988
70	0x3d8f6498	0.070016086
71	0x3dca0a10	0.098652005
72	0xbe401ef7	-0.18761812
73	0x3def2bb6	0.11678259
74	0x3d422363	0.04739703
75	0xbe1d0d64	-0.1533714
76	0xbddf8540	-0.10914087
77	0xbe0cea6a	-0.13761297
78	0x3b5f7454	0.0034096437
79	0x3d49acd0	0.049237072
80	0xbe2560c2	-0.16150191
81	0xbd81f75a	-0.06346007
82	0x3c82810c	0.015930675
83	0x3d56792f	0.052361663
84	0xbdd270bc	-0.102754086
85	0x3e19ea4a	0.1503078
86	0x3e392b59	0.18082942
87	0x3e2b3f0e	0.16723272
88	0xbdada386	-0.08478455
89	0xbe567e59	-0.20946635
90	0xbb1190ac	-0.0022211475
91	0x3dbe883f	0.09303331
92	0x3cc7287d	0.024311299
93	0x3c8a7a1a	0.016903926
94	0x3e45830b	0.1928827
95	0x3e01606e	0.12634441
96	0xbe32bc54	-0.17454654
97	0xbc0a2b58	-0.0084331855
98	0xbde75ee7	-0.11297398
99	0xbdf3943d	-0.118935086
100	0xbe0eebf0	-0.1395719
101	0x3e3966d6	0.18105635
102	0xbcf902e7	-0.030396892
103	0xbc795cee	-0.01521991
104	0xbe71afac	-0.2360217
105	0x3e7e41f3	0.24829845
106	0xbc9031d2	-0.017601881
107	0xbcdb96ad	-0.026805246
108	0x3d1755e9	0.036947165
109	0x3d61db0f	0.05514055
110	0xbce389dd	-0.0277757
111	0xbdfe04ec	-0.124032825
112	0xbe0ea750	-0.13931012
113	0x3d6e4f93	0.058181357
114	0x3e4095c9	0.18807139
115	0x3d5709e2	0.05249966
116	0xbc5bebbb	-0.013422902
117	0xbe68b324	-0.22724587
118	0xbd103475	-0.035206277
119	0xbe1f2139	-0.15540017
120	0x3dfbf998	0.123034656
121	0x3ab9223f	0.0014124586
122	0xbe27bec6	-0.16381368
123	0x3ba8003b	0.0051269806
124	0xbe17d07d	-0.14825626
125	0xbbeb214b	-0.0071755997
126	0x3e4d7084	0.20062453
127	0xbe5768c2	-0.21036056
128	0xbe000de1	-0.12505294
129	0x3e3fe5ca	0.18740001
130	0x3d597513	0.053090166
131	0x3e33c706	0.1755639
132	0x3e15a639	0.1461419
133	0x3db89493	0.09012713
134	0x3e4a5de7	0.19762383
135	0x3d1c6bfd	0.038188923
136	0x3d813c18	0.0631029
137	0xbd1a7e48	-0.037718087
138	0xbda3bb71	-0.07994736
139	0x3e043b40	0.12913227
140	0x3e3828d4	0.17984325
141	0xbe112b43	-0.1417666
142	0x3e3ee1bf	0.18640803
143	0xbb3a8e42	-0.002846614
144	0x3de2df0a	0.110776976
145	0xbe1c5b6e	-0.15269253
146	0x3e43cb10	0.19120431
147	0xbe3038b5	-0.17209132
148	0x3dfc54ef	0.12320887
149	0xbda9dba2	-0.08293845
150	0x3c9c5b0b	0.019086381
151	0xbe5ad3d2	-0.21369866
152	0x3e36ec20	0.17863512
153	0x3cd963a4	0.02653677
154	0x3e147ea0	0.14501429
155	0x3e187231	0.1488731
156	0x3d07f32b	0.033190887
157	0xbd348bc0	-0.04407859
158	0xbd5e9fe1	-0.05435169
159	0x3dda7b4f	0.106680505
160	0xbe35688f	-0.17715667
161	0x3d86c4fd	0.06580541
162	0x3e3f3c67	0.18675385
163	0x3cf7523f	0.030190585
164	0xbde9c226	-0.11413984
165	0xbd59304f	-0.053024586
166	0xbcfb406a	-0.030670363
167	0x3b018761	0.001976453
168	0x3de5d968	0.112231076
169	0x3d7bf7cc	0.061515614
170	0xbe0ed350	-0.13947797
171	0x3e5fcd1b	0.21855585
172	0xbd782958	-0.060586303
173	0x3dc33db0	0.0953325
174	0xbd47b15a	-0.04875312
175	0x3e350214	0.17676574
176	0xbc5c10eb	-0.013431768
177	0x3d381e6e	0.044950895
178	0x3e400ee1	0.18755676
179	0xbe42867c	-0.18996614
180	0x3d366087	0.04452565
181	0xbdc8239c	-0.09772417
182	0xbd20ca69	-0.039255533
183	0xbe6b54b2	-0.22981527
184	0xbd60dbf3	-0.05489726
185	0x3d697a4e	0.057001404
186	0x3e703a49	0.23459734
187	0x3e316871	0.17324997
188	0x3e18c534	0.14918977
189	0xbe3600e1	-0.17773773
190	0x3d06586d	0.032799173
191	0xbe14e366	-0.1453987
192	0xbdfb0bf5	-0.1225814
193	0x3e4bbe58	0.19896829
194	0xbdc4ab2f	-0.09602963
195	0xbdcc2fe7	-0.09970074
196	0x3e4e0f9a	0.20123139
197	0x3de0af05	0.10970882
198	0x3daf9d62	0.0857494
199	0x3dd9b991	0.10631097
200	0xbdb2f2dc	-0.08737728
201	0x3e8f3820	0.27972507
202	0xbe44dc37	-0.1922463
203	0x3e02c098	0.12768781
204	0xbb9e0915	-0.00482286
205	0xbd69fb98	-0.057124704
206	0xbe2f9d8d	-0.17149945
207	0x3db289b1	0.08717669
208	0x3e43d364	0.19123608
209	0x3c45869b	0.012056018
210	0xbd562af6	-0.052287064
211	0x3e0fc8bc	0.14041418
212	0xbe22cd99	-0.15898742
213	0xbe2ba24e	-0.16761133
214	0xbd69fe08	-0.05712703
215	0xbd66c2ce	-0.056338124
216	0x3e20e776	0.15713295
217	0x3ce93957	0.028469725
218	0x3e2fc8ba	0.17166415
219	0x3d2b2ea2	0.04179252
220	0xbb575d1a	-0.003286189
221	0x3e61840e	0.22023031
222	0x3df860df	0.12127852
223	0xbddaebde	-0.10689519
224	0xbe49e00f	-0.19714378
225	0x3e40d7ea	0.18832365
226	0xbcf6dc0c	-0.030134223
227	0xbe3d1c53	-0.18467836
228	0xbe21c695	-0.1579841
229	0xbddb0c6e	-0.1069573
230	0xbe3a7358	-0.18208063
231	0x3d96c827	0.07362395
232	0xbe102984	-0.14078337
233	0x3e370946	0.17874631
234	0x3e618604	0.22023779
235	0xbe35403b	-0.17700283
236	0x3dfffe49	0.12499673
237	0xbe44d7b2	-0.19222906
238	0x3decc617	0.1156122
239	0xbe73a342	-0.23792747
240	0xbe4b4ac7	-0.19852744
241	0x3e5e7b88	0.21726811
242	0xbd789a74	-0.060694173
243	0x3e49ca14	0.19705993
244	0xbc6d7309	-0.014492759
245	0x3e7c88e3	0.24661593
246	0xbdf6ca05	-0.12050251
247	0xbde7c0e2	-0.11316086
248	0xbe09dc9a	-0.13463059
249	0x3e375dba	0.17906848
250	0xbe7d3f6c	-0.24731225
251	0x3ddb5bf5	0.10710899
252	0xbddf30a9	-0.10897953
253	0x3e65c471	0.22438218
254	0x3e79ebf3	0.24406414
255	0xbe098a81	-0.13431741

prop_h_to_h.3.bias f4 [20]
0	0xbe7cd6ff	-0.2469139
1	0xbe224906	-0.15848169
2	0x3e814744	0.25249684
3	0xbcfc4dd1	-0.030798825
4	0xbd39f771	-0.045401994
5	0xbe3e2e4d	-0.1857235
6	0xbe20d6aa	-0.15706888
7	0x3de6eaf7	0.11275285
8	0xbe0e6c3b	-0.13908474
9	0x3e917a05	0.28413406
10	0xbe425171	-0.1897638
11	0xbe887b31	-0.26656488
12	0xbe535f64	-0.20641857
13	0x3dcebaae	0.100942
14	0x3dbfbb9f	0.09361958
15	0xbcf25b33	-0.029584503
16	0xbdf413cf	-0.11917841
17	0x3e1df87c	0.1542682
18	0xbd87823e	-0.066166386
19	0x3dd642ac	0.104619354

prop_h_to_h.4.weight f4 [20, 20]
0	0x3e1f1c73	0.15538196
1	0x3e56f288	0.20990956
2	0x3e04fba0	0.12986612
3	0xbd6f14e3	-0.05836953
4	0x3d826608	0.06367117
5	0x3e2b9ca8	0.16758978
6	0x3e5f38c8	0.21799004
7	0x3d00d89b	0.03145657
8	0xbe097546	-0.13423643
9	0xbc74b0f2	-0.014934765
10	0xbdcc86fe	-0.09986685
11	0x3db84c6b	0.089989506
12	0x3dca31b6	0.09872763
13	0x3d8b2664	0.06794432
14	0xbd201f2b	-0.039092224
15	0xbe011c11	-0.12608363
16	0x3e082ab7	0.13297544
17	0x3d12819f	0.035768148
18	0xb98f0f4a	-0.00027286477
19	0xbca58cb0	-0.020208687
20	0xbd0a3601	-0.03374291
21	0xbc831c03	-0.016004568
22	0x3e2743a2	0.16334394
23	0x3d78c143	0.060731184
24	0x3da01af2	0.078176394
25	0xbd0e5a08	-0.03475383
26	0x3c14b5cb	0.009076546
27	0xbdbff63f	-0.093731396
28	0x3ddbdc06	0.107353255
29	0x3ca85b3e	0.02055132
30	0xbd877d9b	-0.06615754
31	0x3d864092	0.065552846
32	0xbc739ea2	-0.014869364
33	0xbd1f0e1e	-0.038831823
34	0x3d181988	0.037133723
35	0xbd04ce28	-0.03242317
36	0x3e2a9c52	0.16661194
37	0x3e50ae39	0.2037896
38	0x3c6019f6	0.013678065
39	0xbe05dd50	-0.13072705
40	0xbd83d06e	-0.06436239
41	0xbe1bf07f	-0.1522846
42	0x3e54c494	0.20778114
43	0x3e2bbe25	0.16771753
44	0xbce58d2a	-0.028021414
45	0xbe17efe3	-0.14837603
46	0xbe8ad630	-0.27116537
47	0xbe0c4276	-0.13697228
48	0x3db1924b	0.08670481
49	0xbd8b95f4	-0.06815711
50	0xbdce672b	-0.100782715
51	0xbe629d30	-0.22130275
52	0xbe72fe96	-0.2372993
53	0xbc292391	-0.010323421
54	0x3d8a04de	0.067392096
55	0x3db18cb4	0.08669415
56	0xbe006411	-0.12538172
57	0x3e07f807	0.13278209
58	0x3e2307db	0.15920965
59	0xbbd560ca	-0.0065117823
60	0xbe1c636b	-0.152723
61	0x3c4d1cc1	0.0125190625
62	0xbdd61c03	-0.104545616
63	0x3e2e7688	0.17037404
64	0xbe1bc019	-0.15209998
65	0x3d6a9c80	0.057278156
66	0x3d4439b1	0.04790658
67	0x3dc8955c	0.09794113
68	0x3e09f0c4	0.13470751
69	0x3dc0135c	0.093786925
70	0x3d86ffbf	0.065917484
71	0x3c1bee4f	0.009517266
72	0x3df56862	0.119828
73	0xbd5d2618	-0.053991407
74	0x3d326f6d	0.043563295
75	0xbcc0b63a	-0.023524392
76	0x3e0e023f	0.13868044
77	0x3e2e329a	0.1701149
78	0x3dcb2a52	0.09920181
79	0x3dc38d09	0.09548385
80	0x3e229273	0.15876178
81	0xbc8ffa39	-0.01757537
82	0xbdbcd3b6	-0.09220068
83	0xbd31f5a6	-0.04344716
84	0xbd41b192	-0.047288485
85	0x3c81d485	0.015848408
86	0xbdc2d475	-0.09513179
87	0x3e48fe88	0.19628346
88	0xbc368f69	-0.01114259
89	0x3d09c407	0.033634212
90	0x3e5a44e3	0.2131534
91	0xbe16c24d	-0.14722557
92	0x3e1a3400	0.15058899
93	0x3ddf0dbe	0.10891293
94	0xbe321ea3	-0.173945
95	0xbe04534e	-0.12922403
96	0xbd8ccac8	-0.06874615
97	0xbe03885d	-0.12844987
98	0xbd8ee231	-0.06976736
99	0x3de5f435	0.112282194
100	0x3e465b53	0.19370775
101	0xbe497080	-0.19671822
102	0x3d7da807	0.06192782
103	0xbd5c591b	-0.053795915
104	0xbda85b63	-0.08220556
105	0xbdb4a426	-0.08820371
106	0x3dea563b	0.114422284
107	0xbd81e429	-0.06342346
108	0x3caa265e	0.020770248
109	0xbda7f322	-0.08200671
110	0x3e3fbe5f	0.18724965
111	0xbd1c903b	-0.038223486
112	0xbe1228c9	-0.14273371
113	0x3de9cee7	0.114164166
114	0x3dd7888a	0.1052409
115	0x3e48c6ac	0.19607037
116	0x3e0e8168	0.13916552
117	0x3b873aaa	0.0041268663
118	0x3e782802	0.24234012
119	0x3d7b04b5	0.061283786
120	0x3ea6a92f	0.32550952
121	0x3e8ba571	0.2727466
122	0xbe99f407	-0.3006899
123	0x3ea34f7d	0.31896582
124	0x3c9186ba	0.017764438
125	0x3e4ba474	0.19886953
126	0x3de9e413	0.11420455
127	0xbe28dc96	-0.16490397
128	0x3e8d5eb5	0.27611318
129	0xbdc10e9b	-0.09426614
130	0xbd979483	-0.07401373
131	0x3e094874	0.13406545
132	0x3e5ad526	0.21370372
133	0xbe721ecf	-0.23644565
134	0xbdeff982	-0.11717512
135	0xbe834af9	-0.25643137
136	0x3e128553	0.14308672
137	0xbdb96e3a	-0.09054227
138	0x3e8dd71b	0.27703175
139	0xbe5bbebf	-0.21459483
140	0x3daec5ad	0.085337974
141	0xbe117e36	-0.14208302
142	0xbde6171a	-0.11234875
143	0xbe3d2603	-0.18471532
144	0x3e109709	0.14120115
145	0x3cac8679	0.021060215
146	0x3e0ce826	0.13760433
147	0x3dc180fd	0.09448431
148	0x3d6dc4cf	0.05804902
149	0x3de6c285	0.112675704
150	0x3e1447d1	0.14480521
151	0xbe346de9	-0.17620052
152	0x3c421711	0.01184632
153	0x3e107e30	0.14110637
154	0xbcbe6589	-0.023241775
155	0x3c59a911	0.0132849375
156	0xbdaec959	-0.08534498
157	0x3e10149c	0.14070362
158	0xbd041f7d	-0.032256592
159	0xbdfe8e19	-0.12429447
160	0x3e372d1b	0.178883
161	0xbe4c7249	-0.19965471
162	0x3e0444d9	0.12916888
163	0x3dd006ee	0.10157572
164	0x3dabd713	0.083906315
165	0x3e4348da	0.1907076
166	0x3d938e28	0.072048485
167	0x3e06f8a8	0.13180792
168	0xbe0dc6eb	-0.13845412
169	0x3e07f202	0.13275912
170	0xbcf3476b	-0.02969714
171	0xbe4bc2bc	-0.19898504
172	0xbde4f8bc	-0.11180255
173	0xbe646dee	-0.2230756
174	0x3dd8e759	0.10591001
175	0xbd24e5df	-0.040258285
176	0xbe0cec5e	-0.13762042
177	0x3e4fce07	0.20293437
178	0x3e1af2a5	0.15131624
179	0x3de0ec04	0.109825164
180	0x3e768e2b	0.2407767
181	0xbdc15efc	-0.09441945
182	0xbe6999e2	-0.22812608
183	0xbd9f5c65	-0.07781295
184	0xbcd1427e	-0.025544401
185	0x3e9baf3f	0.3040714
186	0x3d54760f	0.051870402
187	0x3acd9ceb	0.0015687024
188	0x3cc21e78	0.02369617
189	0xbe2c00e6	-0.16797218
190	0xbdc94cb8	-0.09829086
191	0x3e8f95a1	0.28043845
192	0x3e80a500	0.25125885
193	0xbda8c1e6	-0.08240108
194	0xbe03498c	-0.12821025
195	0xbdbd2870	-0.092362285
196	0xbd1d645d	-0.038425792
197	0xbde053f5	-0.109535135
198	0x3d3c1970	0.045922697
199	0xbda9edc8	-0.08297306
200	0x3ebb2b85	0.3655664
201	0x3d11486d	0.03546946
202	0xbd858cb3	-0.06520977
203	0x3ea51daf	0.3224921
204	0xbda87d18	-0.08226985
205	0x3e4f4f08	0.20244992
206	0x3e7a37f4	0.24435407
207	0xbebb2467	-0.3655121
208	0x3e975fca	0.2956527
209	0xbea69e8c	-0.32542837
210	0x3e3278b4	0.17428857
211	0x3e89b384	0.26894772
212	0x3ba94dc4	0.005166741
213	0xbdd22873	-0.10261621
214	0xbe4e188b	-0.2012655
215	0xbe80dcf9	-0.2516859
216	0x3e63138f	0.2217543
217	0xbe33096f	-0.17484067
218	0xbc9e7f56	-0.019347828
219	0xbeabac2f	-0.33529803
220	0x3e840bc0	0.25790215
221	0x3e1e9004	0.15484625
222	0xbe891807	-0.26776144
223	0x3ea40ead	0.32042447
224	0x3e5b7815	0.21432526
225	0x3da898e7	0.08232289
226	0x3d55d236	0.052202426
227	0xbec01dec	-0.3752283
228	0x3e1df2b0	0.15424609
229	0xbd1c13b7	-0.03810474
230	0x3eab89f5	0.3350369
231	0x3e52a667	0.2057129
232	0x3ec2e8fc	0.38068378
233	0xbde92d50	-0.11385596
234	0xbe452b63	-0.19254832
235	0xbe770d3e	-0.24126145
236	0x3e1e7ace	0.15476534
237	0xbe73c15b	-0.23804228
238	0xbcde415a	-0.027130771
239	0xbe965b9b	-0.29366764
240	0xbe07abae	-0.13249084
241	0xbdf4afbf	-0.119475834
242	0x3e0e3552	0.13887528
243	0xbdd3db4b	-0.10344561
244	0x3cc9f560	0.024653137
245	0x3dcdb2b9	0.10043854
246	0x3dcc591d	0.099779345
247	0xbe33c656	-0.17556128
248	0xbe67d46c	-0.22639626
249	0x3e3e3fbd	0.18579002
250	0x3da8981a	0.08232136
251	0xbce7efe2	-0.028312627
252	0xbe621feb	-0.22082488
253	0xbd7bd35b	-0.06148086
254	0x3e3d081b	0.18460123
255	0x3e316b67	0.17326127

prop_h_to_h.4.bias f4 [20]
0	0x3df02391	0.11725534
1	0x3d01e390	0.03171116
2	0x3d4ce9fa	0.050027825
3	0x3e28bf20	0.16479158
4	0x3cba1952	0.022717152
5	0xbc6bc998	-0.014391325
6	0xbe447952	-0.19186905
7	0x3db4f8c1	0.088365085
8	0x3d00cbf9	0.031444523
9	0xbb8a1d6a	-0.004214932
10	0xbea3e35c	-0.320094
11	0xbec70a84	-0.3887521
12	0x3e19a327	0.15003644
13	0x3c3d98c0	0.011572063
14	0x3e128c52	0.1431134
15	0x3d99e058	0.07513493
16	0x3d7a8e36	0.06117078
17	0xbe52ca26	-0.20584926
18	0x3da11f8d	0.07867346
19	0xbc21b7ec	-0.009870511

prop_h_to_h.5.weight f4 [20, 20]
0	0xbd96bf29	-0.0736068
1	0x3cc0ee5f	0.023551164
2	0x3e4808f1	0.19534661
3	0xbdc42980	-0.09578228
4	0xbd8ed22b	-0.0697368
5	0xbd4c86a2	-0.049933083
6	0x3de9fb7c	0.1142492
7	0x3b7c0996	0.0038457862
8	0x3df2cb7b	0.11855217
9	0x3e1c63d2	0.15272453
10	0x3c9bcca1	0.019018473
11	0x3e02bbde	0.12766978
12	0xbdcc6cc8	-0.09981686
13	0xbd662e05	-0.05619623
14	0xbd985749	-0.07438523
15	0xbdbdd35a	-0.09268828
16	0xbe69eb02	-0.22843555
17	0xbd8c72b6	-0.06857817
18	0x3e2c1f7f	0.1680889
19	0x3d97d1cc	0.074130625
20	0x3d569efc	0.052397713
21	0x3da63aa8	0.081166565
22	0xbcc2f2d8	-0.023797438
23	0x3dc99661	0.098431356
24	0x3da64756	0.08119075
25	0x3a24b18c	0.000628256
26	0x3d6bdb04	0.057581916
27	0xbd3cb0cb	-0.04606704
28	0xbe325569	-0.17415394
29	0xbe1c478e	-0.15261671
30	0xbc381177	-0.011234633
31	0x3e0c3e19	0.13695563
32	0x3d4faeca	0.0507038
33	0xbdd6f706	-0.10496335
34	0xbc95fb58	-0.018308327
35	0xbb69a896	-0.0035653464
36	0x3d4e5066	0.050369643
37	0xbca7811e	-0.02044731
38	0xbd10dbde	-0.03536593
39	0x3d500290	0.050783694
40	0x3e43480d	0.19070454
41	0x3e4ec419	0.20191993
42	0x3e5a99a7	0.21347676
43	0xbd8556d6	-0.06510703
44	0xbc09ffc2	-0.008422794
45	0xbe10f075	-0.14154227
46	0x3d7afa34	0.06127377
47	0xbdb2b1a0	-0.087252855
48	0x3d519be0	0.051174045
49	0xbdb9e274	-0.09076396
50	0xbe6a4fab	-0.22881953
51	0xbce973ad	-0.028497541
52	0xbe1096fd	-0.14120097
53	0x3e4449c6	0.19168767
54	0xbd19cefc	-0.03755091
55	0xbdd24da4	-0.10268715
56	0xbda751ea	-0.08169921
57	0xbe386362	-0.18006662
58	0x3e48a0a6	0.19592533
59	0x3d34e1a2	0.044160493
60	0xbd83eb67	-0.06441384
61	0xbe96dcfd	-0.29465476
62	0xbe92983e	-0.28631777
63	0xbe27fe6f	-0.16405652
64	0x3d51309d	0.051071752
65	0xbd17d79e	-0.037070863
66	0x3eb11b1e	0.34591
67	0xbe3b0aa2	-0.18265775
68	0xbe060d37	-0.13090979
69	0x3e026694	0.12734443
70	0x3e8ad3f5	0.27114835
71	0x3edc47e0	0.43023586
72	0xbed1cc6d	-0.40976277
73	0xbda6f33b	-0.08151861
74	0xbd802970	-0.062579036
75	0x3d6a6276	0.057222806
76	0xbeb172d6	-0.34657925
77	0x3ee212dc	0.44155014
78	0xbdaf961f	-0.08573555
79	0x3d354caf	0.044262584
80	0xbde9f7ec	-0.114242405
81	0x3c789ce6	0.015174126
82	0xbeae7e9e	-0.34080976
83	0xbe55b7aa	-0.20870844
84	0xbe633ce0	-0.2219119
85	0xbe922196	-0.2854125
86	0x3e2be382	0.16786006
87	0xbea138b8	-0.31488585
88	0x399a1faf	0.00029396775
89	0x3e79b3d4	0.24385005
90	0x3e840254	0.25783026
91	0x3e87b2f6	0.26503724
92	0x3d6b4de1	0.057447318
93	0xbe43eb64	-0.19132763
94	0xbe852906	-0.2600786
95	0x3e8127eb	0.25225767
96	0xbe580f9d	-0.21099706
97	0x3ec534e9	0.3851693
98	0xbe4e9efc	-0.20177835
99	0xbcfdfa83	-0.031003242
100	0x3e18af56	0.14910635
101	0xbdedd638	-0.116131246
102	0x3e82aa6d	0.2552065
103	0x3e16e6fc	0.14736551
104	0x3d500b50	0.05079204
105	0x3e063c8d	0.13109036
106	0xbe7821ea	-0.24231687
107	0xbdc91289	-0.098179884
108	0x3d316fac	0.04331939
109	0x3e5f7fd2	0.21826103
110	0xbe8d354a	-0.2757972
111	0xbe44c0f6	-0.19214234
112	0x3e7c1ff2	0.24621561
113	0x3afc5e83	0.0019254241
114	0x3d749435	0.059711654
115	0x3d5efb04	0.054438606
116	0x3e73fba7	0.23826467
117	0x3c9510ae	0.01819643
118	0x3e03d5c3	0.12874512
119	0x3d9d2004	0.07672122
120	0xbdf21f15	-0.11822335
121	0xbe823c75	-0.2543675
122	0x3ba88589	0.0051428718
123	0xbe5b20dd	-0.21399255
124	0xbe867f59	-0.26269034
125	0xbdbc946b	-0.09207996
126	0x3cfeef19	0.03111987
127	0xbe404bfa	-0.18778983
128	0xbea71754	-0.32634985
129	0x3e7a6ffc	0.24456781
130	0x3d1b6178	0.03793475
131	0x3e9ade43	0.30247697
132	0xbd748a88	-0.059702426
133	0xbde62b8b	-0.11238774
134	0xbda11825	-0.07865933
135	0x3e5a67db	0.2132868
136	0xbe7373be	-0.23774621
137	0x3eaf05a2	0.34183985
138	0xbe088077	-0.13330255
139	0xbe4d27e0	-0.20034742
140	0xbe3e6a8c	-0.18595332
141	0x3e57eb3e	0.21085832
142	0xbd8eab2f	-0.069662444
143	0x3e5803d5	0.21095212
144	0xbd539752	-0.051657982
145	0x3ca25e89	0.019820469
146	0x3dfe6683	0.12421896
147	0x3da9f3fa	0.08298488
148	0x3e1d91f2	0.15387705
149	0x3ca5b4c3	0.020227795
150	0x3dbade8b	0.09124478
151	0x3dc07c94	0.093987614
152	0x3d62b6d4	0.05535014
153	0x3d39b2ad	0.045336414
154	0xbdc15e0b	-0.094417654
155	0xbc5cf6c9	-0.013486573
156	0x3d1f61a7	0.038911488
157	0xbd07d888	-0.033165485
158	0xbde09823	-0.10966518
159	0x3e2bd8e7	0.1678196
160	0x3d6eff35	0.058348853
161	0xbe3d35cd	-0.18477555
162	0xbea48ff5	-0.3214108
163	0xbe5fc522	-0.21852544
164	0xbe029aaf	-0.1275432
165	0xbc8f02e9	-0.017457442
166	0x3e49694f	0.19669078
167	0xbe222322	-0.15833715
168	0xbecf600b	-0.40502962
169	0xbd68a5d6	-0.05679878
170	0x3eaf6776	0.34258622
171	0x3e3f7dff	0.18700407
172	0xbe961dec	-0.29319704
173	0xbd00dfaf	-0.03146332
174	0x3cdb4138	0.026764497
175	0x3cc47988	0.023983732
176	0xbe2f1032	-0.17096022
177	0x3ed72ec2	0.4202786
178	0xbdd72bef	-0.105064265
179	0xbdc7df38	-0.097593725
180	0xbe27e46d	-0.16395731
181	0xbe3c3e21	-0.18383075
182	0xbea9474e	-0.33062214
183	0xbe4a52a1	-0.19758083
184	0xbc976a31	-0.018483253
185	0xbe7582e7	-0.23975717
186	0x3e91d3de	0.28481954
187	0xbe7994b0	-0.24373126
188	0xbd383def	-0.04498094
189	0x3e3d012e	0.18457481
190	0x3eb17157	0.34656784
191	0x3e857e43	0.26072893
192	0xbde8aaa3	-0.11360671
193	0xbe911816	-0.2833869
194	0xbea07252	-0.3133722
195	0xbd90bb9d	-0.070670344
196	0xbeb4025c	-0.3515805
197	0x3e8b121f	0.27162263
198	0xbe0f7766	-0.1401039
199	0xbdd24c67	-0.10268479
200	0x3d1b6f6e	0.037948065
201	0xbdd53494	-0.10410419
202	0x3ccc7f82	0.024963144
203	0x3e4e2e32	0.2013481
204	0xbe63b00f	-0.2223513
205	0xbe12d72a	-0.14339891
206	0xbe6b4a1b	-0.22977488
207	0x3de9ef4c	0.114225954
208	0xbc60dd0e	-0.013724579
209	0x3da7a2db	0.08185359
210	0x3ca12f8e	0.019675996
211	0xbd95eddb	-0.07320758
212	0x3d5cdbb9	0.05392048
213	0x3db87124	0.09005955
214	0x3e2a4975	0.16629584
215	0x3bb42455	0.005497495
216	0x3db6d896	0.08928029
217	0xbddef031	-0.108856566
218	0x3e29b07a	0.16571227
219	0x3df40fba	0.11917062
220	0x3d8c45a4	0.068492204
221	0x3dbe7854	0.093002945
222	0x3de125a5	0.10993508
223	0x3d742914	0.059609488
224	0xbd865c3f	-0.06560563
225	0x3d6396e9	0.05556384
226	0xbd84a73c	-0.0647721
227	0xbe84eeed	-0.25963536
228	0xbd8ec42a	-0.06971009
229	0x3c3e205a	0.011604393
230	0xbdacd2e7	-0.08438664
231	0xbdf1c506	-0.11805157
232	0xbcea5033	-0.028602695
233	0xbca0605e	-0.019577201
234	0x3e1c34e8	0.15254557
235	0xbe1cf17f	-0.15326498
236	0xbe0619c1	-0.13095762
237	0xbe7104c1	-0.2353697
238	0xbda3dc17	-0.08000963
239	0xbdc6a502	-0.096994415
240	0xbde18e5a	-0.110134795
241	0xbe281000	-0.16412354
242	0x3e6b2174	0.2296198
243	0x3d824c8d	0.06362257
244	0x3e1bbfe6	0.15209922
245	0x3e3d0568	0.18459094
246	0x3d0f1290	0.034929812
247	0x3c10f7c1	0.008848132
248	0xbe193277	-0.14960657
249	0x3d6c2013	0.057647776
250	0xbc9f0942	-0.019413594
251	0xbe44b334	-0.19208986
252	0xbc91b6d9	-0.017787384
253	0xbde9db5c	-0.114187926
254	0x3d927d34	0.07152787
255	0x3e319960	0.17343664

prop_h_to_h.5.bias f4 [20]
0	0x3dfe4d12	0.12417044
1	0x3dcfe378	0.10150808
2	0xbe08c855	-0.1335767
3	0xbc7ce35e	-0.015435068
4	0xbe74dd1f	-0.23912476
5	0x3d88af11	0.06674016
6	0xbea7dcdd	-0.32785693
7	0x3da5c5ef	0.080943935
8	0xbc0d37a8	-0.0086192265
9	0xbe8204e1	-0.25394347
10	0xbc38dff4	-0.011283863
11	0x3e0ac1e5	0.13550527
12	0xbd05827d	-0.032595146
13	0xbeab5e76	-0.33470505
14	0xbeae1998	-0.340039
15	0x3d59ab8f	0.053142127
16	0xbe946d16	-0.28989476
17	0xbdc649c5	-0.09682039
18	0xbea2e309	-0.3181384
19	0xbde24ca2	-0.11049773
