pair_trading/no_prob/Q.pth (torch, 21880 bytes, 21 tensors)

prop_in_to_h.weight f4 [20, 3]
-0.07757263 0.31562027 0.2712543 -0.16293652 0.472383 -0.05836102 0.2781781 -0.40332973
0.2991166 -0.33494392 -0.11046586 0.080433436 0.53535515 -0.42171103 0.44145647 0.12627049
-0.2643826 0.38079137 0.21078849 0.59283775 -0.31216484 0.310869 -0.41067052 -0.47679505
0.114195205 -0.40391076 -0.56608087 -0.36262888 0.33693564 0.50092024 -0.367153 -0.107577495
0.69655836 -0.577899 -0.08372332 -0.011145285 -0.35264808 0.021538636 0.6165531 0.478277
0.4303855 0.29498821 -0.11437054 0.4454179 -0.2761993 -0.25734168 0.24389327 -0.71571416
-0.21705505 0.29420525 0.58742815 -0.11746858 0.20955051 0.4552917 -0.03793454 0.5271527
-0.073794015 -0.46390402 0.43415496 -0.6156571
00000000: 66de 9ebd fb98 a13e d8e1 8a3e d5d8 26be
00000010: 2fdc f13e f70b 6fbd 5c6d 8e3e 3c81 cebe
00000020: d025 993e c57d abbe ed3b e2bd 49ba a43d
00000030: 090d 093f 82ea d7be 9506 e23e 0d4d 013e
00000040: 285d 87be 16f7 c23e f0d8 573e 37c4 173f
00000050: 12d4 9fbe 392a 9f3e 6843 d2be 7b1e f4be
00000060: 2ddf e93d 64cd cebe adea 10bf 7eaa b9be
00000070: d482 ac3e 4f3c 003f 7afb bbbe 9751 dcbd
00000080: a651 323f 30f1 13bf 2277 abbd b79a 36bc
00000090: 4a8e b4be cb71 b03c 6dd6 1d3f b9e0 f43e
000000a0: 7d5b dc3e b208 973e 1a3b eabd d10d e43e
000000b0: ff69 8dbe 4ac2 83be 28bf 793e 0b39 37bf
000000c0: ae43 5ebe 12a2 963e b161 163f 5e93 f0bd
000000d0: 6994 563e fe1b e93e 4061 1bbd 7bf3 063f
000000e0: 5121 97bd d484 edbe 8f49 de3e b49b 1dbf

prop_in_to_h.bias f4 [20]
-0.12582189 -0.40529698 -0.06952522 -0.044739075 -0.343567 0.43281925 -0.3043252 -0.3785375
0.3924377 -0.08215905 0.49301794 -0.3333867 -0.18736675 -0.4260777 0.18839727 -0.35178474
0.5663508 0.55069727 -0.2693745 -0.3614511
00000000: 74d7 00be 1683 cfbe 3d63 8ebd 5240 37bd
00000010: 04e8 afbe 7c9a dd3e 83d0 9bbe abcf c1be
00000020: 98ed c83e 0143 a8bd d96c fc3e a9b1 aabe
00000030: 12dd 3fbe db26 dabe 37eb 403e 211d b4be
00000040: 5efc 103f 7ffa 0c3f 74eb 89be 1e10 b9be

prop_h_to_h.0.weight f4 [20, 20]
0.03422181 -0.1504011 0.22160059 -0.08402429 -0.20469292 0.161744 -0.025447043 0.14718914
-0.0002872728 -0.09419347 -0.2626343 -0.12073831 -0.10357478 0.039513625 -0.047235813 -0.24588719
-0.24628805 -0.12172855 0.13595374 -0.083138585 -0.25814414 0.057811514 0.1212201 0.09359011
-0.11680965 -0.058375325 -0.21023344 -0.18735039 0.08974295 -0.031570476 -0.35464123 -0.13045275
-0.36197656 -0.110261895 -0.18511006 -0.23181549 -0.14195402 0.042921085 -0.11726579 -0.07583458
-0.03683815 0.05753745 0.10144415 0.17020065 -0.03640474 0.22244328 -0.14760506 -0.19149275
-0.009752091 -0.13755637 0.17643432 -0.19308768 0.2563165 0.2816932 -0.26080057 0.23476185
0.10667505 0.20306508 0.03410615 0.13381523 0.004684584 -0.142122 8.492685e-05 0.05882307
0.2918134 0.1532801 -0.34208947 -0.06921123 -0.27477595 0.14279374 0.11623429 -0.05032985
0.33846802 0.16441979 0.02218178 0.030846052 0.30347222 0.09019488 0.1119867 0.18391573
0.12665203 -0.12517281 0.1081033 0.117962435 0.029489342 0.22119096 -0.20814335 -0.22943886
0.05296805 -0.12239203 -0.008370724 -0.11007525 0.093487754 -0.07854111 -0.18478923 -0.15576033
0.21136004 0.17753246 -0.20394349 -0.17556599 -0.05424307 0.07585242 -0.078072675 -0.21952724
-0.1355934 -0.09516842 0.31063503 -0.04097394 0.18680364 -0.089883186 -0.3021643 0.19124271
-0.020574154 0.06931469 0.031598542 -0.07890674 0.05998474 0.075355664 -0.13022503 -0.20189634
0.15698156 -0.1692542 0.11279761 -0.030077748 -0.014311421 0.32189494 0.025060723 -0.0543857
-0.24007718 0.14016943 0.19024432 -0.0030166416 -0.016717892 0.24259986 -0.27279055 0.20464802
0.07241574 0.045341723 0.14009978 -0.02035198 0.12206583 0.123931065 0.08730694 0.083393045
0.11199988 -0.114595756 -0.32891092 0.115065336 0.053703725 -0.21281493 -0.016558783 -0.094775714
-0.1550418 -0.00059786305 -0.27221653 0.048564583 -0.1418672 0.07666855 -0.11552855 0.02219524
-0.016268559 0.045012143 -0.05433581 0.09564837 -0.04938157 0.12343003 -0.17769782 0.1608808
0.10042519 -0.021630768 -0.32765993 0.15129441 -0.31636715 -0.16720812 -0.25121188 -0.35761645
-0.26201844 0.12287129 -0.1553794 -0.28169832 -0.1012333 0.0608429 0.20410454 -0.22887097
-0.14786136 -0.015955694 0.06184399 -0.06584351 -0.05357224 -0.12315396 -0.35017186 -0.096255384
0.057175484 0.010345351 -0.1257136 -0.31928098 -0.2085411 -0.088541895 0.068348154 -0.25595728
-0.0025836984 0.11860053 0.06664159 0.0721649 0.13220432 0.29846016 -0.19842884 -0.1624027
0.102549694 0.16049334 0.28984982 0.07003375 0.02630999 0.22892362 -0.050388366 0.24906474
0.03074005 0.20474957 -0.1329074 0.10010277 0.2071503 -0.024031399 -0.03337092 0.021365311
0.15970899 -0.076424606 -0.18428947 -0.17055915 -0.31674773 0.12059685 0.2889483 -0.15705289
0.017745381 0.20500872 0.06141369 -0.063930444 -0.059557635 0.21849832 -0.15013622 0.13946477
0.07603015 0.09664024 0.33678246 -0.22220542 0.34691322 0.34757397 -0.1759499 -0.2965367
-0.33171535 0.28507036 0.05523371 0.05808656 0.33416906 0.2419035 0.020022968 0.088736035
00000000: 2b2c 0c3d bf02 1abe 44eb 623e ed14 acbd
00000010: 059b 51be 38a0 253e 5176 d0bc c0b8 163e
00000020: 1a9d 96b9 82e8 c0bd 0178 86be a645 f7bd
00000030: 041f d4bd 0ad9 213d 577a 41bd dac9 7bbe
00000040: ef32 7cbe d14c f9bd 7537 0b3e 9044 aabd
00000050: 782b 84be c4cb 6c3d 3e42 f83d 2cac bf3d
00000060: e639 efbd f71a 6fbd 6f47 57be c8d8 3fbe
00000070: 27cb b73d 0b50 01bd 8993 b5be 6895 05be
00000080: fe54 b9be fdd0 e1bd 7e8d 3dbe 0a61 6dbe
00000090: 655c 11be 05ce 2f3d 0c29 f0bd 294f 9bbd
000000a0: 9ae3 16bd 64ac 6b3d f3c1 cf3d 1449 2e3e
000000b0: 231d 15bd 2cc8 633e c825 17be ad16 44be
000000c0: 3cc7 1fbc 94db 0cbe 33ab 343e c7b8 45be
000000d0: eb3b 833e 173a 903e a787 85be 6965 703e
000000e0: 7378 da3d 4bf0 4f3e e4b2 0b3d dc06 093e
000000f0: 2481 993b 6e88 11be c11a b238 76f0 703d
00000100: 9168 953e 75f5 1c3e 5a26 afbe 9ebe 8dbd
00000110: 6faf 8cbe 8638 123e 3e0c ee3d ac26 4ebd
00000120: ae4b ad3e a95d 283e 90b6 b53c dcb0 fc3c
00000130: b660 9b3e 18b8 b83d 4859 e53d 6854 3c3e
00000140: 12b1 013e 4d2d 00be 4365 dd3d 4a96 f13d
00000150: a293 f13c e27f 623e 8823 55be 05f2 6abe
00000160: 07f5 583d aca8 fabd 5c25 09bc 226f e1bd
00000170: 8276 bf3d 29da a0bd 6339 3dbe a37f 1fbe
00000180: c46e 583e 12cb 353e 90d6 50be 92c7 33be
00000190: fb2d 5ebd 8358 9b3d 91e4 9fbd c0cb 60be
000001a0: ffd8 0abe a9e7 c2bd 8e0b 9f3e 4ad4 27bd
000001b0: 7449 3f3e ad14 b8bd 47b5 9abe 21d5 433e
000001c0: 218b a8bc dcf4 8d3d 796d 013d db99 a1bd
000001d0: 8fb2 753d 1254 9a3d b659 05be eabd 4ebe
000001e0: c6bf 203e f950 2dbe 6f02 e73d 9c65 f6bc
000001f0: 737a 6abc 6acf a43e 254c cd3c 8ac3 5ebd
00000200: cbd6 75be 9388 0f3e 68cf 423e d9b2 45bb
00000210: f6f3 88bc 196c 783e 34ab 8bbe 408f 513e
00000220: b44e 943d 3eb8 393d 5176 0f3e 32b9 a6bc
00000230: a6fd f93d 92cf fd3d fbcd b23d f9c9 aa3d
00000240: 3160 e53d 2eb1 eabd 0367 a8be 60a7 eb3d
00000250: 70f8 5b3d 28ec 59be 49a6 87bc c519 c2bd
00000260: 47c3 1ebe e9b9 1cba f75f 8bbe a8eb 463d
00000270: a345 11be 6704 9d3d 3c9a ecbd cbd2 b53c
00000280: a445 85bc a75e 383d 3a8f 5ebd 4be3 c33d
00000290: 5444 4abd e2c8 fc3d 6bf6 35be f0bd 243e
000002a0: b9ab cd3d 0233 b1bc 0bc3 a7be ecec 1a3e
000002b0: e0fa a1be 9b38 2bbe d89e 80be 8119 b7be
000002c0: 4827 86be f1a3 fb3d c71b 1fbe c33a 90be
000002d0: 6853 cfbd 6836 793d c800 513e 275d 6abe
000002e0: f868 17be 84b5 82bc 2050 7d3d f6d8 86bd
000002f0: 916e 5bbd 2538 fcbd ba49 b3be 8b21 c5bd
00000300: d730 6a3d 8c7f 293c 11bb 00be cc78 a3be
00000310: cc8b 55be 7455 b5bd 1efa 8b3d d50c 83be
00000320: 4453 29bb d6e4 f23d 637b 883d 31cb 933d
00000330: 9260 073e c5cf 983e ee30 4bbe e54c 26be
00000340: 9305 d23d 5e58 243e 3267 943e db6d 8f3d
00000350: 0c88 d73c f46a 6a3e 0864 4ebd d40a 7f3e
00000360: 8fd2 fb3c dfa9 513e e118 08be ae02 cd3d
00000370: 351f 543e 7fdd c4bc f2af 08bd 4e06 af3c
00000380: c18a 233e 8184 9cbd 61b6 3cbe 0fa7 2ebe
00000390: c22c a2be 7bfb f63d 08f1 933e 79d2 20be
000003a0: c35e 913c ceed 513e ec8c 7b3d f7ed 82bd
000003b0: b5f2 73bd 06be 5f3e 4fbd 19be dacf 0e3e
000003c0: b2b5 9b3d 51eb c53d c06e ac3e d189 63be
000003d0: 9c9e b13e 37f5 b13e 362c 34be a9d3 97be
000003e0: 98d6 a9be bef4 913e be3c 623d 2cec 6d3d
000003f0: 3518 ab3e 8db5 773e 3507 a43c 3dbb b53d

prop_h_to_h.0.bias f4 [20]
-0.08368034 0.2021561 0.1976907 0.052293066 0.14284432 -0.13165502 0.26036146 0.25609812
-0.09277825 0.025835587 -0.06402678 -0.16994323 0.091841675 -0.018838799 0.24577855 0.14298938
-0.1146119 -0.112752035 0.054602094 0.08115662
00000000: 9960 abbd 0202 4f3e 6e6f 4a3e 4131 563d
00000010: c845 123e 93d0 06be 194e 853e 4b1f 833e
00000020: 8602 bebd 27a5 d33c 7920 83bd 9905 2ebe
00000030: 7d17 bc3d d353 9abc 5fad 7b3e cf6b 123e
00000040: a5b9 eabd 8aea e6bd 72a6 5f3d 7135 a63d

prop_h_to_h.1.weight f4 [20, 20]
-0.31668872 -0.40789595 0.30295146 0.14052635 0.079004705 -0.030299414 0.18726481 0.08278726
-0.24536346 -0.28369954 0.17196734 0.046623915 0.24362412 0.10088107 -0.22646597 0.37548497
-0.16577151 -0.11629265 0.07589115 -0.19876076 -0.09159269 -0.035603963 -0.22239403 -0.06421073
0.038160518 0.06329593 -0.01779959 -0.008885927 0.06809338 0.1491329 -0.078667484 0.0751416
-0.11265537 0.081259094 -0.097428665 -0.19671777 0.032879192 -0.25407842 -0.040636465 -0.18842834
-0.25928965 0.25358742 0.19244918 -0.18250458 0.14799218 -0.041375346 0.24332897 0.2420452
0.0071167797 -0.08697811 -0.18772979 -0.20179929 -0.21119614 -0.045741893 -0.21868424 -0.14598025
-0.0979704 -0.048803516 -0.021463577 -0.041457284 0.05623084 -0.31804892 0.22545318 0.09306255
0.065683566 0.07731332 0.14686075 0.10726064 -0.27097654 0.03547247 0.33637276 0.1407919
0.2658891 -0.07845317 -0.048426922 0.28395894 -0.059533216 -0.1102808 -0.2150507 -0.23247585
0.18802126 0.16152938 -0.045438178 -0.24446005 -0.12504143 -0.30333754 0.24671844 0.15603451
0.11095877 0.10994253 -0.18044443 0.0017682774 -0.12965122 0.013479073 -0.20305632 -0.18475614
-0.23323919 -0.28097773 -0.20617172 -0.16445628 -0.2224711 -0.07328188 0.24517132 0.35527462
0.25301883 -0.068691544 0.3337966 -0.084954344 -0.36750117 -0.32836375 0.107534796 0.24254707
0.10299112 -0.18633921 -0.17416328 0.0046235626 -0.038080104 -0.22080903 -0.06678252 -0.049000256
0.18978177 0.31698728 0.11904534 0.02536686 -0.08640122 -0.12095404 0.070413746 0.35964975
0.10027877 -0.043118622 -0.09237214 -0.26397273 -0.07163704 -0.1432892 0.075302064 -0.059051476
-0.19077149 0.07269614 -0.16829672 -0.12376002 0.108031146 0.07770687 0.12246762 -0.10237814
-0.15057966 -0.008639411 -0.22347896 -0.0106069995 -0.070123844 0.24576333 -0.24720725 0.08832604
-0.090234496 0.034091804 0.037553605 -0.006858947 -0.07163483 -0.07127787 0.1580986 0.16006412
0.08550508 0.29244128 -0.086316645 0.056294072 -0.06590627 0.120021105 -0.09699557 -0.01688536
0.08946339 0.03491937 0.03646863 0.051023595 0.09114987 -0.22751394 0.0237003 -0.29381886
-0.22187302 -0.217469 0.02597613 -0.12072669 0.045467667 0.23957263 -0.20203705 -0.045801718
-0.10761834 -0.1635049 -0.17200053 -0.039696362 0.034744892 0.24490136 -0.23979004 -0.19369218
0.1520225 -0.25428006 0.017945156 -0.26039818 -0.0035542333 0.043973 0.026458982 -0.16337131
0.04437768 0.32792547 0.11496149 -0.11257689 0.10559129 0.0047395653 -0.10630377 -0.16268092
-0.11357371 0.1543107 -0.15432978 0.030016622 -0.039473783 0.051425006 0.12655115 -0.014777207
0.0061858185 0.06321367 -0.2571953 -0.14560138 0.24748497 0.22643498 -0.053544346 -0.12172506
0.14670135 -0.18066671 -0.17980012 0.028581036 0.20645511 0.26781988 -0.27139404 -0.20852502
0.04300154 0.03582605 -0.05217936 -0.081835896 -0.17326623 -0.20615539 -0.052007336 -0.10858784
0.24357435 -0.17067632 -0.08643153 0.00067877804 -0.03377112 0.164856 -0.21076977 -0.17365512
-0.10856596 -0.04737494 0.033135578 0.061867986 -0.042482384 -0.10046328 0.06668746 0.12271988
00000000: 0625 a2be bdd7 d0be 741c 9b3e 24e6 0f3e
00000010: 38cd a13d 7a36 f8bc 59c2 3f3e 5e8c a93d
00000020: 8f40 7bbe 1141 91be 3518 303e b8f8 3e3d
00000030: 9a78 793e bc9a ce3d b2e6 67be 913f c03e
00000040: 02c0 29be d72a eebd d26c 9b3d f187 4bbe
00000050: f394 bbbd 76d5 11bd 43bb 63be ea80 83bd
00000060: 344e 1c3d 4ca1 813d 72d0 91bc 4796 11bc
00000070: 8b74 8b3d 4cb6 183e 6b1c a1bd d7e3 993d
00000080: dcb7 e6bd 2b6b a63d ae88 c7bd 6270 49be
00000090: 55ac 063d 9116 82be 6c72 26bd 5cf3 40be
000000a0: 9dc1 84be 36d6 813e 6611 453e 7be2 3abe
000000b0: 438b 173e 3279 29bd 3b2b 793e b2da 773e
000000c0: e033 e93b 9421 b2bd 3d3c 40be 79a4 4ebe
000000d0: cd43 58be da5b 3bbd c3ee 5fbe d97b 15be
000000e0: b4a4 c8bd 32e6 47bd 62d4 afbc 1dcf 29bd
000000f0: 4f52 663d 4fd7 a2be 33dd 663e 9497 be3d
00000100: 1b85 863d 7256 9e3d aa62 163e 77ab db3d
00000110: 70bd 8abe 954b 113d 0d39 ac3e c02b 103e
00000120: 9e22 883e 0eac a0bd 4f5b 46bd 1163 913e
00000130: 1ad9 73bd e6da e1bd 4036 5cbe 260e 6ebe
00000140: a588 403e f567 253e 621d 3abd bc53 7abe
00000150: dc0a 00be 0f4f 9bbe c2a3 7c3e 83c7 1f3e
00000160: 5a3e e33d 8d29 e13d 6dc6 38be 8bc5 e73a
00000170: 4ac3 04be 54d7 5c3c ffed 4fbe b730 3dbe
00000180: 41d6 6ebe 50dc 8fbe ae1e 53be 3a67 28be
00000190: 77cf 63be cf14 96bd 310e 7b3e 8ee6 b53e
000001a0: af8b 813e 27ae 8cbd 63e7 aa3e 8bfc adbd
000001b0: 1d29 bcbe 4b1f a8be 343b dc3d 425e 783e
000001c0: 02ed d23d b5cf 3ebe dc57 32be 4181 973b
000001d0: e2f9 1bbd c31b 62be 46c5 88bd 7eb4 48bd
000001e0: 2756 423e 284c a23e 0bce f33d 29ce cf3c
000001f0: 1ff3 b0bd c0b6 f7bd 1535 903d 0324 b83e
00000200: f55e cd3d 279d 30bd 9b2d bdbd 6f27 87be
00000210: 71b6 92bd 67ba 12be f837 9a3d f6df 71bd
00000220: 9a59 43be b7e1 943d fa55 2cbe e575 fdbd
00000230: 6f3f dd3d c824 9f3d 4ed0 fa3d a1ab d1bd
00000240: 8e31 1abe 518c 0dbc abd7 64be fbc8 2dbc
00000250: 179d 8fbd 62a9 7b3e e623 7dbe 48e4 b43d
00000260: ddcc b8bd d9a3 0b3d cfd1 193d 05c1 e0bb
00000270: 48b5 92bd 22fa 91bd 99e4 213e d9e7 233e
00000280: 4a1d af3d ddba 953e c8c6 b0bd 9d94 663d
00000290: def9 86bd a0cd f53d 9da5 c6bd 2b53 8abc
000002a0: 9538 b73d 9d07 0f3d 2160 153d 1efe 503d
000002b0: c8ac ba3d 6af9 68be 2227 c23c 6d6f 96be
000002c0: ae32 63be 32b0 5ebe e5cb d43c 8e3f f7bd
000002d0: 4e3c 3a3d 8752 753e cde2 4ebe 959a 3bbd
000002e0: 0167 dcbd d46d 27be e820 30be a798 22bd
000002f0: a950 0e3d 6cc7 7a3e 858b 75be 3e57 46be
00000300: c9ab 1b3e ff30 82be b801 933c e952 85be
00000310: 24ee 68bb 081d 343d 82c0 d83c cf4a 27be
00000320: 5fc5 353d d9e5 a73e ee70 eb3d b68e e6bd
00000330: 3f40 d83d 5b4e 9b3b cab5 d9bd d495 26be
00000340: 5599 e8bd a003 1e3e a008 1ebe 6be5 f53c
00000350: 43af 21bd 07a3 523d a096 013e 191c 72bc
00000360: 68b2 ca3b 2b76 813d 1aaf 83be 8718 15be
00000370: b36c 7d3e 92de 673e 5151 5bbd fd4a f9bd
00000380: e138 163e b200 39be 861d 38be c722 ea3c
00000390: f868 533e b01f 893e 29f4 8abe 9587 55be
000003a0: 6222 303d 56be 123d 06ba 55bd 9499 a7bd
000003b0: b46c 31be 661a 53be a505 55bd 4d63 debd
000003c0: 8e6b 793e c6c5 2ebe 0403 b1bd 06f0 313a
000003d0: 9653 0abd 03d0 283e 08d4 57be a6d2 31be
000003e0: d457 debd 3a0c 42bd 2cb9 073d 4969 7d3d
000003f0: 0202 2ebd b1bf cdbd 6f93 883d 8f54 fb3d

prop_h_to_h.1.bias f4 [20]
0.039556008 0.11992496 -0.07617312 0.046718124 -0.0015155964 0.12940907 -0.028598337 -0.16545926
-0.07716611 0.07339447 -0.025632568 0.10203132 -0.038282298 0.080197245 0.12441831 -0.10802795
-0.086890064 0.22340561 -0.01618082 -0.14678788
00000000: 7b05 223d 389b f53d a700 9cbd 815b 3f3d
00000010: faa6 c6ba d083 043e 0f47 eabc 276e 29be
00000020: 4409 9ebd d74f 963d 64fb d1bc ccf5 d03d
00000030: e6cd 1cbd 743e a43d 07cf fe3d c23d ddbd
00000040: 6bf3 b1bd 71c4 643e a48d 84bc 904f 16be

prop_h_to_h.2.weight f4 [20, 20]
-0.0152664585 0.04336236 -0.05364932 -0.006795317 -0.10527565 0.10510496 0.28101823 -0.038819447
0.04378758 -0.088125564 0.05490713 -0.14980072 -0.17484225 0.32632977 -0.2698247 0.015132464
0.23591739 -0.10681118 -0.07103168 0.10614644 0.029294588 -0.12521835 -0.1609024 -0.1692922
0.18649778 -0.029802043 -0.1058429 0.052934144 -0.117275596 -0.17892036 0.102311105 0.053472694
-0.23209214 0.097319394 -0.121201515 0.022973001 -0.073417425 -0.055522352 0.043314133 0.14882424
0.33655536 -0.18622823 -0.15686433 0.09715367 -0.11726757 0.066072464 -0.0066175545 -0.0050311713
-0.033804145 -0.111253865 -0.057404432 0.016714454 -0.07303338 -0.14668195 0.06557825 -0.30317914
0.014043612 -0.048332855 0.008491482 -0.18861973 0.013612064 -0.23128504 0.13702118 -0.07670185
0.17555179 0.02200062 0.2095479 0.19133988 0.07070574 -0.11300027 -0.06814817 0.21083817
0.1117902 -0.03885501 0.08120831 0.027401693 0.12533055 -0.10238042 0.08185609 0.03900259
0.13069585 0.1876995 -0.29807788 0.25093046 -0.06416838 0.22602554 -0.07006646 0.1269756
0.051246554 0.0069443043 0.078982905 -0.08339746 0.2448298 -0.1335179 0.20178072 -0.014234747
-0.19696654 -0.13947 -0.047211938 -0.17855394 -0.017413165 -0.19468746 -0.13805877 0.15022117
-0.107944824 0.003906109 -0.16728836 -0.090019494 -0.16582817 -0.20624071 0.00083392183 -0.20865059
-0.07961216 0.107262306 0.2777475 -0.09630904 -0.07358971 0.25073797 0.26429632 0.13036369
0.07269566 -0.06555502 -0.05491301 0.032068253 -0.1341118 0.31397125 0.05303147 -0.25536707
0.0027899412 -0.21256767 -0.06337708 -0.12170546 0.016271148 -0.24475344 -0.032247897 -0.2802064
0.173811 0.44634894 0.18383674 0.05284047 -0.22106251 0.17993355 0.15669543 -0.08717646
0.19726996 0.12795658 0.03209267 0.054067127 0.1764519 0.08026062 0.07659016 0.024346743
0.16418104 0.068941206 -0.22101621 -0.20679407 0.08244415 0.019642849 0.0013222072 0.11359298
0.090143725 0.14980131 -0.124935664 0.24184003 -0.14842167 0.2940816 -0.06244238 -0.23033634
-0.0065370593 -0.27652445 0.10706219 0.064743936 0.18184298 -0.3049137 0.2883522 -0.00818681
-0.06922316 0.18164988 0.24349435 -0.084849656 -0.0040594153 -0.012632321 -0.021132354 0.33860624
-0.30400077 0.305763 -0.052716803 0.15939534 -0.11993816 0.10466571 0.10391061 -0.19936895
0.12136446 0.066012375 0.2682993 -0.019422123 0.046647005 0.18216519 0.19588426 -0.054575413
0.16036712 0.10878833 0.09397933 0.2583607 -0.11829426 0.03893163 -0.17324351 0.05796691
0.118275575 0.14502862 0.12740532 -0.107240215 0.2075532 0.10826792 -0.020834653 -0.06599156
-0.09026344 -0.10712501 0.059920978 0.005077043 -0.23990358 0.26689646 0.0502401 -0.16989893
0.10284213 0.098431125 -0.040550414 -0.09006707 0.030868357 -0.09282734 -0.09677205 0.24706739
-0.24591689 0.13965152 0.067800306 0.055315245 0.121159405 -0.0035062481 0.030549595 -0.2013853
-0.1824833 -0.026788546 0.18838947 -0.04697564 -0.13792011 0.057302684 0.09689174 -0.17584772
0.13733767 -0.013301049 0.14922877 -0.0949174 -0.18162017 -0.028674304 -0.17022736 -0.09238667
00000000: 2b20 7abc bb9c 313d 64bf 5bbd 40ab debb
00000010: c39a d7bd 4541 d73d 9fe1 8f3e 2401 1fbd
00000020: 9b5a 333d 2d7b b4bd 4ce6 603d 5c65 19be
00000030: d909 33be b214 a73e 7726 8abe 27ee 773c
00000040: 5494 713e d2bf dabd 0f79 91bd 4e63 d93d
00000050: 34fb ef3c 3d39 00be 99c3 24be ef5a 2dbe
00000060: 46f9 3e3e 6a23 f4bc 2ac4 d8bd 79d1 583d
00000070: 302e f0bd e636 37be 7c88 d13d 2f06 5b3d
00000080: 90a9 6dbe 644f c73d 8038 f8bd e031 bc3c
00000090: e05b 96bd 686b 63bd 296a 313d 6265 183e
000000a0: fc50 ac3e 9db2 3ebe 0ba1 20be 81f8 c63d
000000b0: fb29 f0bd 0051 873d 12d8 d8bb 86dc a4bb
000000c0: 3776 0abd 11d9 e3bd e920 6bbd c0ec 883c
000000d0: 8692 95bd cb33 16be e44d 863d 4c3a 9bbe
000000e0: 2e17 663c acf8 45bd db1f 0b3c 8825 41be
000000f0: 2205 5f3c fcd5 6cbe 484f 0c3e dc15 9dbd
00000100: d9c3 333e a53a b43c ba93 563e 9aee 433e
00000110: 2cce 903d b06c e7bd 4591 8bbd f6e5 573e
00000120: 43f2 e43d 6e26 1fbd 8b50 a63d 8479 e03c
00000130: a756 003e d3ac d1bd 2aa4 a73d 2ec1 1f3d
00000140: 22d5 053e 4c34 403e aa9d 98be f579 803e
00000150: b66a 83bd 3d73 673e 017f 8fbd e405 023e
00000160: e8e7 513d 0c8d e33b cac1 a13d 4acc aabd
00000170: aab4 7a3e ebb8 08be 9b9f 4e3e db38 69bc
00000180: 99b1 49be 39d1 0ebe 4e61 41bd d8d6 36be
00000190: 0ea6 8ebc 265c 47be 475f 0dbe 94d3 193e
000001a0: 2d12 ddbd a2fd 7f3b a44d 2bbe 245c b8bd
000001b0: dcce 29be c430 53be 8c9b 5a3a 80a8 55be
000001c0: b30b a3bd 57ac db3d ec34 8e3e ad3d c5bd
000001d0: 34b6 96bd ba60 803e d951 873e 0f7e 053e
000001e0: 76e1 943d b641 86bd 77ec 60bd 005a 033d
000001f0: 9b54 09be d7c0 a03e 8737 593d 79bf 82be
00000200: 72d7 363b 57ab 59be d8cb 81bd b640 f9bd
00000210: 124b 853c a5a0 7abe 5f16 04bd 3777 8fbe
00000220: 83fb 313e d987 e43e b33f 3c3e 406f 583d
00000230: 365e 62be 8040 383e c474 203e 9289 b2bd
00000240: 2301 4a3e 0d07 033e 9b73 033d 7e75 5d3d
00000250: cfaf 343e ae5f a43d 4ddb 9c3d d272 c73c
00000260: 131f 283e 0c31 8d3d 1352 62be d3c1 53be
00000270: 7ad8 a83d 0aea a03c e94d ad3a 70a3 e83d
00000280: 469d b83d 8465 193e 45de ffbd eaa4 773e
00000290: dafb 17be dd91 963e 95c3 7fbd 4add 6bbe
000002a0: d434 d6bb 9d94 8dbe 6c43 db3d 7898 843d
000002b0: 0c35 3a3e a61d 9cbe e6a2 933e f821 06bc
000002c0: dfc4 8dbd 6d02 3a3e 9556 793e a8c5 adbd
000002d0: d804 85bb cbf7 4ebc c21d adbc cc5d ad3e
000002e0: fda5 9bbe f88c 9c3e 93ed 57bd 8838 233e
000002f0: 23a2 f5bd fa5a d63d 16cf d43d 6027 4cbe
00000300: ee8d f83d 7f31 873d 875e 893e 251b 9fbc
00000310: ee10 3f3d 8389 3a3e e295 483e 788a 5fbd
00000320: 4737 243e 6acc de3d 3c78 c03d db47 843e
00000330: 4344 f2bd c676 1f3d bf66 31be b66e 6d3d
00000340: 773a f23d 6282 143e 8a76 023e c2a0 dbbd
00000350: d388 543e 92bb dd3d 6fad aabc 9526 87bd
00000360: 0adc b8bd 5b64 dbbd b36f 753d 535d a63b
00000370: 49a9 75be a7a6 883e 90c8 4d3d fcf9 2dbe
00000380: e59e d23d 4296 c93d 3118 26bd 1675 b8bd
00000390: a3df fc3c 431c bebd 6d30 c6bd 3cff 7c3e
000003a0: a3d1 7bbe cf00 0f3e e3da 8a3d 3d92 623d
000003b0: 6c22 f83d 15c9 65bb 2543 fa3c f337 4ebe
000003c0: e7dc 3abe a773 dbbc 2be9 403e 8769 40bd
000003d0: ee3a 0dbe 38b6 6a3d 2d6f c63d 6d11 34be
000003e0: 3fa2 0c3e a5ec 59bc 6dcf 183e 0e64 c2bd
000003f0: a3fa 39be 60e6 eabc 1550 2ebe 3935 bdbd

prop_h_to_h.2.bias f4 [20]
-0.026364064 -0.24931479 -0.106517635 -0.092636295 0.111365385 0.22184514 -0.13933973 0.2360039
-0.06670377 0.253207 0.19408517 -0.034283284 -0.17564766 0.25190383 0.058919508 -0.16480242
0.12515607 -0.1611206 0.044932343 0.20850961
00000000: 73f9 d7bc 604c 7fbe eb25 dabd 19b8 bdbd
00000010: 8913 e43d 5f2b 633e 13af 0ebe 02ab 713e
00000020: fc9b 88bd 59a4 813e 43be 463e a16c 0cbd
00000030: fbdc 33be 8af9 803e 9555 713d f7c1 28be
00000040: ea28 003e ccfc 24be fa0a 383d 8b83 553e

prop_h_to_h.3.weight f4 [20, 20]
0.07459715 -0.13129987 0.1793347 0.056013137 -0.16098417 0.1464599 -0.004009758 0.07846387
-0.10094407 -0.050865844 -0.20094033 0.10262043 -0.19497383 -0.22304322 -0.1942281 0.2532896
0.15883315 -0.055478867 0.29675707 -0.04311509 -0.029146722 0.15390037 0.036760006 0.18485978
0.09182189 -0.099144995 0.15947577 0.041479193 -0.057129886 -0.036558833 0.13757424 -0.11766676
0.0962706 0.027878562 -0.07215491 0.0680386 -0.00652523 0.07168444 0.2124689 -0.14118844
-0.24101411 -0.13927646 -0.010159452 0.03209341 -0.07139725 -0.15329802 0.03641417 -0.04544501
0.07443476 0.12875074 0.1562117 -0.18092908 -0.029227197 -0.073660746 0.11754613 0.065515615
0.18658173 -0.13069826 0.19037586 -0.15082987 -0.085493915 0.010856103 0.15864728 0.023041008
-0.17232847 -0.020946117 0.29240778 -0.17433633 -0.10340146 -0.025199082 -0.13503735 -0.2458725
-0.026609367 -0.14928372 -0.031683907 0.3197141 0.20449352 0.08911266 0.23460731 -0.19752117
-0.042986333 0.15431032 0.2722212 0.13550067 -0.15803516 0.17666489 0.18690792 -0.21104294
-0.037264675 0.20843574 0.17631947 -0.12806702 0.0040075 -0.04943559 0.20905249 0.20657057
0.06881439 0.0065239635 0.05664016 -0.00804081 0.17011286 -0.21426027 -0.088583015 -0.066341154
0.11069015 0.1505919 0.047208775 -0.0026921786 0.04686848 0.18726777 -0.09513906 0.097470455
-0.20992671 0.0060634436 0.032691497 -0.14845859 -0.050033864 0.10854908 -0.13109668 0.06531737
-0.2352778 -0.115448624 0.19276927 0.04236256 0.23754127 0.17622237 -0.060857993 -0.10477378
0.0681268 0.13862413 0.020217445 -0.22606415 -0.23810126 0.19087273 0.27181154 -0.09512705
0.2929343 0.08451033 0.1001627 0.0049894443 0.0550974 0.17681453 0.121702895 -0.05090399
0.18804766 0.12711658 -0.07582215 0.15816805 0.035489455 0.037262406 -0.14679807 0.011621447
-0.069866285 0.13291569 0.19357896 0.17573844 0.099328265 -0.20560378 -0.09221601 0.26472092
0.1057547 -0.07128068 0.16677508 -0.18505038 0.13080211 0.10325118 0.3282532 -0.27774566
0.10170288 -0.105928734 -0.21949896 0.06353138 0.16148086 0.1308591 -0.089917056 0.3322552
0.15123716 -0.0030632487 0.17798068 0.10614917 -0.083619624 0.0838156 0.033774357 0.15980273
0.060445063 0.036467157 -0.020407131 -0.25185037 0.041843306 -0.099685594 -0.16206402 0.12554452
-0.04532464 0.20050545 -0.11360054 0.30332792 0.02700137 -0.07215151 -0.16826467 -0.1228775
0.09702974 -0.074186146 0.10377381 -0.14244111 -0.05032836 0.10570925 0.06863045 0.0038010874
0.07222072 0.20723662 0.16365977 -0.321888 -0.117948405 0.27827123 0.24774255 0.110766836
-0.011665627 0.1363789 0.030564332 0.24543938 0.115670994 -0.16153634 -0.14788453 0.17395191
-0.06491483 -0.030381918 -0.17697987 0.096821114 0.20729524 0.06945288 0.05971123 0.09011353
0.10766795 0.10266495 0.018156447 0.15495493 0.066195145 0.1405499 0.057769377 0.141896
-0.058936864 -0.15413849 0.117764175 0.049739778 -0.08747736 0.03655112 0.07092789 -0.22454175
0.10969126 0.15703876 0.21217121 0.032908842 -0.27515927 0.2761623 0.18423802 0.15871544
00000000: 64c6 983d 7973 06be 84a3 373e 086e 653d
00000010: 09d9 24be 96f9 153e 4a64 83bb aab1 a03d
00000020: c4bb cebd b458 50bd 4dc3 4dbe a92a d23d
00000030: 38a7 47be 7165 64be bbe3 46be 2daf 813e
00000040: 28a5 223e cf3d 63bd 8bf0 973e 7399 30bd
00000050: 1bc5 eebc 0f98 1d3e a991 163d e24b 3d3e
00000060: 1d0d bc3d 880c cbbd 9e4d 233e 16e6 293d
00000070: 0701 6abd b7be 15bd 43e0 0c3e 45fb f0bd
00000080: 8529 c53d 9561 e43c f4c5 93bd d257 8b3d
00000090: 99d1 d5bb 4bcf 923d 7391 593e b493 10be
000000a0: 67cc 76be 7d9e 0ebe d573 26bc 6174 033d
000000b0: b938 92bd 28fa 1cbe 0627 153d 8c24 3abd
000000c0: 4071 983d 3cd7 033e f6f5 1f3e 7945 39be
000000d0: e06d efbc 72db 96bd 07bc f03d 0d2d 863d
000000e0: 480f 3f3e c4d5 05be e4f1 423e 2573 1abe
000000f0: 6f17 afbd ccdd 313c 6f74 223e 7fc0 bc3c
00000100: e076 30be 3197 abbc 79b6 953e 3985 32be
00000110: 25c4 d3bd 4e6e cebc 3b47 0abe 00c6 7bbe
00000120: e3fb d9bc d5dd 18be fcc6 01bd 91b1 a33e
00000130: c066 513e b380 b63d e63c 703e fd42 4abe
00000140: 7012 30bd 8603 1e3e 9460 8b3e b0c0 0a3e
00000150: f8d3 21be a4e7 343e ca64 3f3e a41b 58be
00000160: d8a2 18bd 2e70 553e 178d 343e 0024 03be
00000170: 5951 833b f97c 4abd db11 563e 3c87 533e
00000180: 8fee 8c3d f9c6 d53b 83ff 673d 9abd 03bc
00000190: 1132 2e3e 0b67 5bbe 036b b5bd dfdd 87bd
000001a0: 84b1 e23d c334 1a3e fd5d 413d 436f 30bb
000001b0: 2af9 3f3d 1fc3 3f3e 44d8 c2bd 979e c73d
000001c0: 07f7 56be daaf c63b 85e7 053d 8705 18be
000001d0: 4ff0 4cbd fb4e de3d 353e 06be 1dc5 853d
000001e0: aaec 70be 5470 ecbd 4f65 453e 5d84 2d3d
000001f0: 053e 733e a373 343e 3b46 79bd a393 d6bd
00000200: 1086 8b3d 7cf3 0d3e 0e9f a53c 5c7d 67be
00000210: d1d0 73be 2474 433e e22a 8b3e f9d1 c2bd
00000220: 7cfb 953e c013 ad3d 1a22 cd3d 7e7e a33b
00000230: d0ad 613d de0e 353e 5e3f f93d b480 50bd
00000240: 918f 403e d92a 023e a548 9bbd cef6 213e
00000250: 645d 113d 77a0 183d 3c52 16be e267 3e3c
00000260: 0e16 8fbd 0d1b 083e 9039 463e c7f4 333e
00000270: 9e6c cb3d cc89 52be bfdb bcbd 8089 873e
00000280: ec95 d83d 9bfb 91bd 16c7 2a3e d97d 3dbe
00000290: fdf0 053e 5b75 d33d ce10 a83e ae34 8ebe
000002a0: 9949 d03d 2af1 d8bd 56c4 60be bd1c 823d
000002b0: 3d5b 253e eeff 053e 6f26 b8bd 5b1d aa3e
000002c0: eadd 1a3e c9c0 48bb 9140 363e bc64 d93d
000002d0: c440 abbd 83a7 ab3d fb56 0a3d 54a3 233e
000002e0: 3e95 773d 965e 153d db2c a7bc 88f2 80be
000002f0: e363 2b3d f627 ccbd 1cf4 25be be8e 003e
00000300: 54a6 39bd 4d51 4d3e 66a7 e8bd cc4d 9b3e
00000310: fa31 dd3c 2cc4 93bd 934d 2cbe 33a7 fbbd
00000320: 87b7 c63d e8ee 97bd 5d87 d43d 15dc 11be
00000330: 1c25 4ebd 177e d83d 1f8e 8c3d aa1b 793b
00000340: 75e8 933d d635 543e 6d96 273e 81ce a4be
00000350: ef8e f1bd 9179 8e3e 39b0 7d3e b9d9 e23d
00000360: 3021 3fbc e9a6 0b3e 0d62 fa3c 7654 7b3e
00000370: eae4 ec3d c869 25be 0b6f 17be 7320 323e
00000380: 11f2 84bd 80e3 f8bc 363a 35be 264a c63d
00000390: 3445 543e 503d 8e3d c393 743d 718d b83d
000003a0: 0481 dc3d 0042 d23d d4bc 943c 81ac 1e3e
000003b0: 5291 873d 50ec 0f3e 959f 6c3d 2f4d 113e
000003c0: c867 71bd 7bd6 1dbe 582e f13d f0bb 4b3d
000003d0: 5527 b3bd a1b6 153d a442 913d 46ee 65be
000003e0: d0a5 e03d c5ce 203e 6943 593e 6ccb 063d
000003f0: ade1 8cbe 2565 8d3e e4a8 3c3e 4d86 223e

prop_h_to_h.3.bias f4 [20]
0.013110611 -0.2443732 -0.28234196 -0.0644504 0.09278241 -0.112237364 0.21225522 0.24650607
-0.30665526 -0.23203024 0.058532916 0.18225943 0.2132641 0.22193523 0.15675692 0.06427447
-0.2646159 0.21042068 0.15450165 -0.26482737
00000000: e3cd 563c f83c 7abe 208f 90be 92fe 83bd
00000010: b404 be3d b4dc e5bd 6f59 593e 166c 7c3e
00000020: eb01 9dbe 5699 6dbe 36c0 6f3d 37a2 3a3e
00000030: e761 5a3e fd42 633e e384 203e 55a2 833d
00000040: bc7b 87be 8578 573e ae35 1e3e 7497 87be

prop_h_to_h.4.weight f4 [20, 20]
-0.30195993 0.06675554 0.06905777 0.1925033 0.022714222 0.30855682 0.053193863 -0.14116439
0.2303405 0.06510314 0.31374198 -0.1781282 0.086159654 -0.04094047 -0.18375684 0.19465803
0.2611061 0.06509585 0.24209253 0.23661649 -0.20815195 -0.0744046 -0.28909189 -0.2565705
0.08063247 0.10423857 0.21943216 0.01392297 -0.09979112 -0.24103935 0.21962835 0.050966334
0.023667391 -0.097545534 -0.122860685 0.30986506 -0.29085863 0.116208315 0.1063822 -0.055164225
0.17123917 0.062150594 0.12253194 0.14531842 0.06855483 -0.12252137 -0.152873 -0.030427452
0.20875098 0.11591974 0.11818276 0.0379482 -0.12226678 -0.14862368 -0.1081377 0.061137844
-0.1227881 0.12462909 -0.12817368 0.25709367 0.039702557 -0.06914396 0.10911246 -0.10956844
0.08020953 0.18471748 0.0016890992 -0.016863227 0.146028 0.123005174 0.09401177 -0.076727174
0.26043907 0.03196616 -0.12308471 -0.09414814 -0.1422508 0.2749851 0.055544507 0.023627821
-0.07940393 -0.2908488 0.017939208 0.09473736 0.079799846 0.04023155 0.008913604 -0.028947094
-0.04748017 -0.14906548 0.11710745 0.21927327 0.13455327 0.2035429 -0.111407615 0.26847056
-0.11175931 0.1871576 0.15854451 -0.045172166 0.039698847 -0.1290273 -0.14425345 0.062427275
0.18358888 -0.095975384 0.119766645 0.14073087 -0.2877478 0.10061743 0.070351236 -0.002748313
0.2170654 -0.12519293 -0.06061081 0.23328626 -0.07304317 0.106956504 0.18505041 -0.23084612
0.054114304 0.12904698 0.073645644 0.16771707 -0.22831419 0.017046904 -0.07111332 -0.18979052
-0.14472795 0.05129708 -0.26898894 0.11174515 -0.24451956 0.10383306 0.015490557 -0.3031206
-0.22316948 -0.17459217 0.06316203 -0.029060552 -0.010379018 -0.10101569 -0.15687685 0.1949651
0.20816661 0.042404942 0.009994536 -0.15561134 -0.043192737 -0.044859093 0.22480647 -0.13441189
0.13145997 -0.16352372 0.046911232 -0.059776485 -0.15611765 0.17748801 0.23525357 0.16415851
0.06475729 0.18998313 0.0028361955 -0.051931307 -0.21160693 -0.11814471 -0.09250743 0.23161379
0.0714346 -0.17173287 -0.053614784 0.23966655 -0.059173528 -0.040140998 0.08623088 0.13753925
0.086602144 0.12866138 0.17912261 -0.20130219 -0.07372816 -0.06379195 -0.06948945 0.10257667
0.08151794 0.12632115 -0.021507842 0.090552375 -0.044032905 0.039801035 -0.19771707 -0.057560876
0.118965164 0.073909625 -0.13873442 -0.0951547 -0.14357299 -0.083477505 -0.11708624 0.058674164
-0.18226261 -0.041779958 -0.13567092 -0.11282011 0.19837706 -0.24881558 -0.11401749 -0.12070997
-0.26578695 -0.111657225 -0.089138195 0.10906827 0.10538991 0.22048193 0.1463756 0.10511274
-0.099628255 0.25381875 0.13768223 -0.02545233 -0.20529681 -0.013181996 0.11192338 0.1787585
0.21461637 0.14279562 -0.048204936 0.020185834 0.19783084 -0.058424 0.09766857 0.057031713
0.051373914 0.0043899366 -0.0819581 0.19621089 0.2576451 -0.09567878 -0.11535033 -0.10147629
0.09417781 0.051502503 0.08688908 -0.11132668 -0.08002243 -0.08222798 0.06963877 -0.19422525
0.089757405 -0.118728064 -0.1778856 0.12200693 -0.031801138 -0.19190013 0.021609675 -0.2188662
00000000: 7e9a 9abe 21b7 883d 296e 8d3d 961f 453e
00000010: 2d13 ba3c 29fb 9d3e cfe1 593d 668d 10be
00000020: 61de 6b3e cc54 853d caa2 a03e 3d67 36be
00000030: 7974 b03d 32b1 27bd c12a 3cbe 6f54 473e
00000040: b3af 853e f950 853d 1be7 773e 984b 723e
00000050: c925 55be 7061 98bd da03 94be 355d 83be
00000060: a322 a53d 087b d53d d3b2 603e 2b1d 643c
00000070: 495f ccbd 05d3 76be 41e6 603e 13c2 503d
00000080: 1ee2 c13c f4c5 c7bd 629e fbbd a2a6 9e3e
00000090: 6ceb 94be a0fe ed3d e9de d93d e2f3 61bd
000000a0: 5259 2f3e 9f91 7e3d 07f2 fa3d 5ace 143e
000000b0: 7a66 8c3d 7cec fabd bd8a 1cbe fe42 f9bc
000000c0: d1c2 553e 5467 ed3d ce09 f23d 926f 1b3d
000000d0: 0167 fabd ce30 18be 4c77 ddbd ad6b 7a3d
000000e0: 5478 fbbd 893d ff3d f63f 03be c8a1 833e
000000f0: 269f 223d 599b 8dbd 5a76 df3d 6b65 e0bd
00000100: e544 a43d 9426 3d3e c464 dd3a c024 8abc
00000110: 5d88 153e 23ea fb3d 3e89 c03d 2323 9dbd
00000120: 4558 853e f3ee 023d d613 fcbd bdd0 c0bd
00000130: 32aa 11be d9ca 8c3e a382 633d 228f c13c
00000140: 879e a2bd 22ea 94be 3ff5 923c a905 c23d
00000150: 1a6e a33d d6c9 243d 5d0a 123c 7522 edbc
00000160: 917a 42bd 9fa4 18be 08d6 ef3d 2c89 603e
00000170: 55c8 093e 8d6d 503e ad29 e4bd f974 893e
00000180: 11e2 e4bd 3ea6 3f3e 7e59 223e 7306 39bd
00000190: 429b 223d bc1f 04be 2db7 13be beb3 7f3d
000001a0: b9fe 3b3e be8e c4bd 3748 f53d c11b 103e
000001b0: ae53 93be 8310 ce3d 4f14 903d 0a1d 34bb
000001c0: 6446 5e3e 9332 00be 0a43 78bd 98e2 6e3e
000001d0: a897 95bd 030c db3d db7d 3d3e ed62 6cbe
000001e0: f6a6 5d3d e424 043e 87d3 963d 06be 2b3e
000001f0: 32cb 69be f3a5 8b3c dca3 91bd 7258 42be
00000200: 9033 14be e31c 523d ebb8 89be a4da e43d
00000210: 5663 7abe 6da6 d43d 1bcc 7d3c a032 9bbe
00000220: 8a86 64be 4ac8 32be 185b 813d 6510 eebc
00000230: c20c 2abc 50e1 cebd 53a4 20be eea4 473e
00000240: a129 553e ceb0 2d3d 1fc0 233c 9458 1fbe
00000250: deea 30bd 2bbe 37bd ab33 663e 45a3 09be
00000260: 719d 063e c372 27be fe25 403d 30d8 74bd
00000270: 4edd 1fbe 6bbf 353e 50e6 703e 2b19 283e
00000280: 789f 843d f08a 423e 77df 393b ecb5 54bd
00000290: 7daf 58be dbf5 f1bd 8974 bdbd 2a2c 6d3e
000002a0: 4e4c 923d beda 2fbe 2d9b 5bbd 266b 753e
000002b0: f15f 72bd e36a 24bd d199 b03d 17d7 0c3e
000002c0: 775c b13d cfbf 033e eb6b 373e 2922 4ebe
000002d0: cafe 96bd 5ba5 82bd 7c50 8ebd b813 d23d
000002e0: e1f2 a63d 555a 013e 3731 b0bc 8673 b93d
000002f0: d95b 34bd 6906 233d 5876 4abe f4c4 6bbd
00000300: 02a4 f33d ee5d 973d 6510 0ebe 78e0 c2bd
00000310: cc04 13be 41f6 aabd e9ca efbd 5254 703d
00000320: 0da3 3abe 7621 2bbd 51ed 0abe 3b0e e7bd
00000330: 5b23 4b3e 83c9 7ebe 0082 e9bd ca36 f7bd
00000340: 3a15 88be 8bac e4bd 168e b6bd 2f5f df3d
00000350: aad6 d73d 04c6 613e 7ce3 153e 5945 d73d
00000360: e609 ccbd 88f4 813e 92fc 0c3e 6881 d0bc
00000370: 5439 52be 4cf9 57bc 1638 e53d 780c 373e
00000380: 65c4 5b3e 0439 123e 8a72 45bd c35c a53c
00000390: 2b94 4a3e 014e 6fbd 7606 c83d 169a 693d
000003a0: 746d 523d 75d9 8f3b a6d9 a7bd 82eb 483e
000003b0: 0fea 833e 3cf3 c3bd cb3c ecbd cdd2 cfbd
000003c0: 4ce0 c03d 4af4 523d e7f2 b13d 3eff e3bd
000003d0: cde2 a3bd 2567 a8bd c59e 8e3d fce2 46be
000003e0: bbd2 b73d b327 f3bd a527 36be c5de f93d
000003f0: e941 02bd 7881 44be c606 b13c 761e 60be

prop_h_to_h.4.bias f4 [20]
-0.24192587 0.14054339 -0.18891321 -0.0179973 0.30934376 0.16733913 0.31321993 -0.18705408
0.16937175 -0.17840028 0.26935256 -0.34254506 -0.2040686 -0.20297433 -0.2599551 0.2543076
-0.17163758 0.052019253 0.30250597 -0.047393054
00000000: 6abb 77be 9bea 0f3e 7772 41be 136f 93bc
00000010: 4e62 9e3e f35a 2b3e 5d5e a03e 1b8b 3fbe
00000020: ca6f 2d3e 90ae 36be 94e8 893e 1162 afbe
00000030: 5cf7 50be 81d8 4fbe d618 85be 9b34 823e
00000040: c3c1 2fbe 2412 553d 10e2 9a3e 381f 42bd

prop_h_to_h.5.weight f4 [20, 20]
-0.08586047 0.045768168 0.32027045 0.10884697 0.04108885 0.008677563 -0.0045277574 0.11094774
-0.14272577 0.005170571 -0.31122106 0.13445117 0.18675426 0.02780876 0.11788718 -0.19715
0.09080558 -0.17558137 -0.16776145 -0.074247845 0.3197965 0.074632674 -0.03412383 0.07262893
-0.1875582 -0.19286883 -0.30433586 0.22502786 0.005926246 0.11000992 -0.025046753 0.07567342
-0.07717901 0.25756893 -0.08182282 -0.10395595 0.00771011 -0.20368157 -0.2992528 0.044311605
-0.023387793 -0.14301156 -0.09618011 0.19644554 -0.053171884 0.041308172 -0.14431776 -0.020306889
0.14854296 0.045966867 0.08099174 -0.047528915 -0.039863877 0.02760539 0.16168357 0.029486137
-0.038217016 0.039844483 -0.23844117 0.16144663 0.1557684 -0.22012483 -0.073656455 0.007036824
-0.10989267 -0.03326941 -0.31223753 -0.11067532 -0.023542847 0.100454606 -0.08145587 0.16601197
-0.05976914 -0.08580833 0.28581345 -0.005669637 0.09238847 0.048106287 -0.29517812 0.15624002
0.16583253 -0.25450146 0.20523964 -0.03865436 -0.24718507 -0.028518321 -0.2330726 0.27918303
-0.30554488 -0.06382372 -0.23068757 0.2667181 0.1851687 0.024972785 0.3168267 -0.120844886
0.30527014 0.049990896 -0.296847 0.14103979 0.14730848 -0.13447726 0.061987992 0.09414937
-0.06500056 -0.2762614 -0.29646567 -0.025671719 -0.2530384 0.24902083 -0.20696665 -0.0842052
0.06355646 0.28118733 0.2315867 -0.10030958 0.22154033 -0.06663646 -0.07288308 0.08231998
0.11122648 0.20267293 0.020397536 -0.04652309 0.14856374 0.16249636 0.2200799 0.22953916
0.04027496 0.08199911 0.08844037 -0.25070894 -0.057501003 -0.07733826 -0.21931396 0.077032365
-0.035650045 0.269232 -0.08896526 -0.045772977 0.34605122 -0.2078939 0.24327178 0.114142366
0.0014035811 -0.14472358 -0.17505153 0.041849967 -0.028479662 0.12917529 -0.1162677 0.2590917
-0.11689268 0.16811767 -0.005080846 -0.24224792 0.29064822 -0.24159548 -0.3094219 0.15898168
0.14878803 -0.09829827 0.18783057 0.054640066 -0.081040785 0.16983952 0.16917863 -0.12636982
0.14228833 0.16803512 0.20042318 0.110402256 -0.054329112 -0.056908477 0.21108042 0.19067162
-0.13265887 0.13610478 0.016128676 0.22492078 -0.26793146 -0.07259017 0.09043084 -0.14606586
0.1853086 0.2648346 0.06937239 -0.05426676 -0.00073136366 -0.107206106 0.054252498 0.14735194
-0.21511477 -0.062658995 -0.20313965 0.05918882 -0.06347825 -0.12553515 0.12298255 -0.24520439
0.21758072 -0.1909378 0.15411274 0.052003864 -0.027344292 -0.22419095 -0.08789289 0.057057522
-0.19776179 -0.044778675 0.08230244 0.14794755 0.1789861 0.005688334 0.21403703 0.045166552
0.045567855 0.047803026 -0.25401074 0.043993555 0.0052327756 0.00017535704 0.11490846 0.118768975
-0.11307684 0.105389334 -0.13818619 -0.12617 -0.24166447 0.14661004 -0.26520655 0.17464861
-0.13040142 0.08366185 0.01935638 0.065132305 0.18762246 -0.23411168 -0.2701887 -0.07283914
-0.29245767 0.08642034 -0.17872155 0.075087056 -0.11774831 0.23389064 -0.027936166 0.09814207
0.17573336 -0.16102229 0.18230389 -0.24827287 -0.08915293 -0.2476177 -0.21911317 -0.060703654
00000000: 9dd7 afbd 6777 3b3d 7dfa a33e 29eb de3d
00000010: c84c 283d 562c 0e3c 955d 94bb 9238 e33d
00000020: b426 12be e56d a93b 5e58 9fbe 91ad 093e
00000030: 823c 3f3e 32cf e33c d56e f13d b1e1 49be
00000040: 47f8 b93d 9acb 33be a8c9 2bbe 410f 98bd
00000050: 5ebc a33e 04d9 983d 6ec5 0bbd 7abe 943d
00000060: 420f 40be 687f 45be e9d1 9bbe b46d 663e
00000070: f430 c23b e24c e13d d92e cdbc abfa 9a3d
00000080: 0710 9ebd 13e0 833e b992 a7bd dbe6 d4bd
00000090: 17a5 fc3b e791 50be aa37 99be 1680 353d
000000a0: c297 bfbc 9f71 12be 14fa c4bd 0529 493e
000000b0: c3ca 59bd c232 293d 09c8 13be a25a a6bc
000000c0: a51b 183e c147 3c3d ffde a53d aead 42bd
000000d0: 4e48 23bd b324 e23c 6190 253e e98c f13c
000000e0: 7289 1cbd f833 233d ec29 74be 4452 253e
000000f0: c081 1f3e 6768 61be 32d9 96bd 2895 e63b
00000100: 680f e1bd 8145 08bd 99dd 9fbe bea9 e2bd
00000110: eedc c0bc 25bb cd3d 56d2 a6bd 0bff 293e
00000120: 7cd0 74bd 47bc afbd 2456 923e 5dc8 b9bb
00000130: 2b36 bd3d 190b 453d 9621 97be 62fd 1f3e
00000140: 01d0 293e 044e 82be 572a 523e 0954 1ebd
00000150: 151e 7dbe 419f e9bc 95aa 6ebe 14f1 8e3e
00000160: 6170 9cbe 03b6 82bd 5d39 6cbe 468f 883e
00000170: dd9c 3d3e ba93 cc3c 1c37 a23e 867d f7bd
00000180: 5e4c 9c3e 41c3 4c3d 54fc 97be bc6c 103e
00000190: 09d8 163e 68b4 09be 1fe7 7d3d 63d1 c03d
000001a0: 031f 85bd 2272 8dbe 59ca 97be 7f4d d2bc
000001b0: 408e 81be 51ff 7e3e 11ef 53be c773 acbd
000001c0: e429 823d c9f7 8f3e 1025 6d3e 1c6f cdbd
000001d0: 78db 623e b278 88bd b943 95bd 6197 a83d
000001e0: b5ca e33d 7e89 4f3e bc18 a73c ff8e 3ebd
000001f0: 1821 183e 7265 263e a05c 613e 500c 6b3e
00000200: 5bf7 243d 26ef a73d 3a20 b53d ec5c 80be
00000210: 2c86 6bbd 8663 9ebd d793 60be 25c3 9d3d
00000220: c805 12bd c7d8 893e 6b33 b6bd 727c 3bbd
00000230: a02d b13e 23e2 54be 3d1c 793e 79c3 e93d
00000240: 5ef8 b73a 6b32 14be b540 33be df6a 2b3d
00000250: 2e4e e9bc 8746 043e c31d eebd aba7 843e
00000260: 6e65 efbd 0a27 2c3e 3a7d a6bb d70f 78be
00000270: d8cf 943e ce64 77be 8c6c 9ebe 18cc 223e
00000280: e45b 183e 9a50 c9bd a856 403e 43ce 5f3d
00000290: b6f8 a5bd 69ea 2d3e 2a3d 2d3e 1767 01be
000002a0: 08b4 113e 6611 2c3e bc3b 4d3e 941a e23d
000002b0: 3488 5ebd dd18 69bd 7725 583e 6c3f 433e
000002c0: bad7 07be 0d5f 0b3e 4920 843c a251 663e
000002d0: 502e 89be 28aa 94bd ce33 b93d 4a92 15be
000002e0: 8ac1 3d3e 6798 873e 1d13 8e3d d246 5ebd
000002f0: fcb8 3fba e08e dbbd de37 5e3d 6de3 163e
00000300: 0c47 5cbe 5c53 80bd d703 50be fa6f 723d
00000310: e200 82bd 498c 00be 46de fb3d dc16 7bbe
00000320: 7bcd 5e3e 3385 43be bbcf 1d3e 0102 553d
00000330: 2301 e0bc 5092 65be 3001 b4bd 26b5 693d
00000340: 1182 4abe d869 37bd 2f8e a83d 907f 173e
00000350: 2248 373e 3465 ba3b 862c 5b3e 9000 393d
00000360: 5ca5 3a3d 1bcd 433d b20d 82be 9632 343d
00000370: b477 ab3b 0ce0 3739 2055 eb3d 263d f33d
00000380: d594 e7bd 5dd6 d73d ae80 0dbe b532 01be
00000390: e476 77be f120 163e 27c9 87be 16d7 323e
000003a0: f387 05be e756 ab3d 4591 9e3c 1664 853d
000003b0: 1a20 403e f9ba 6fbe 2c56 8abe b02c 95bd
000003c0: 03bd 95be 26fd b03d c802 37be 3ec7 993d
000003d0: 0726 f1bd 0781 6f3e 63da e4bc b6fe c83d
000003e0: 72f3 333e 07e3 24be dfad 3a3e 3e3b 7ebe
000003f0: d095 b6bd 7f8f 7dbe 345f 60be 65a4 78bd

prop_h_to_h.5.bias f4 [20]
-0.31035435 -0.010293622 -0.12743741 -0.33179864 -0.22859097 -0.0819359 0.15438363 -0.20774068
0.24245904 0.25524604 -0.1704541 -0.051027816 0.29596955 0.013354995 -0.13073705 0.22678125
0.2347075 -0.36559048 -0.22069733 0.29202998
00000000: c4e6 9ebe 94a6 28bc f47e 02be 83e1 a9be
00000010: c013 6abe 02ce a7bd be16 1e3e f9b9 54be
00000020: 2f47 783e 9caf 823e 858b 2ebe 8b02 51bd
00000030: 5289 973e e9ce 5a3c efdf 05be 5839 683e
00000040: 2a57 703e ad2e bbbe 7bfe 61be f484 953e

prop_h_to_h.6.weight f4 [20, 20]
0.12465972 0.21936893 0.13781013 -0.026185948 0.022809904 0.30749238 -0.28989395 0.2992984
-0.06259515 -0.31824067 0.17398468 0.048036713 -0.27522075 -0.19918947 -0.09753114 -0.16282547
-0.11275807 -0.02968223 0.21029799 -0.188559 -0.32172418 -0.15619572 -0.07641487 -0.2374211
0.10157327 0.0033349607 0.30001438 -0.2765606 0.15712367 -0.08777334 -0.21669076 -0.032252137
-0.09716253 0.22112815 0.08216687 0.20615804 0.029102687 -0.27517042 0.026905894 -0.10428057
-0.0473158 0.12893605 0.24368434 0.14982265 0.16072853 -0.071754165 0.10042868 0.2531582
-0.124040276 -0.1886599 0.11169887 -0.060153972 -0.11527257 0.10109791 0.10772802 -0.1742069
-0.21512549 0.20239797 0.32246032 -0.00157064 0.24075371 0.0021454406 0.20372908 0.26059166
0.3229817 0.07859059 -0.21560237 -0.09754307 -0.20230007 0.08475097 0.17046818 0.21311973
0.057498038 -0.019017046 0.09046908 -0.1332717 -0.2817116 0.120587364 0.26019403 0.0670656
0.123774216 0.22766034 0.15292378 -0.044201773 0.028642828 0.045934353 -0.039780732 0.20065649
0.18393286 0.091551885 0.07087237 -0.047468014 -0.14646904 -0.2354981 0.02386021 0.0140676005
-0.10785655 -0.033464085 0.107900225 -0.22688246 0.26970008 -0.075632945 -0.053863045 0.21723504
0.09978552 0.1719291 -0.23184872 -0.10598538 -0.06833474 0.07422791 0.25397384 0.054761056
-0.23660651 -0.049600404 -0.041135933 0.061748896 -0.050235227 0.099898435 -0.023709072 0.034396388
0.24366362 0.24787407 -0.017117118 0.14693452 0.26287937 -0.1414043 0.098285496 -0.06381643
-0.19241452 0.020987445 -0.08434526 0.050847795 0.10206295 -0.030425755 0.080810905 -0.17826317
-0.29057312 0.066432536 -0.034323476 -0.32694703 -0.055594057 -0.16646254 -0.10742727 0.117462404
0.074069604 0.03872046 -0.01091274 -0.2456542 -0.07554959 0.28486642 0.090142 -0.27053657
0.14232075 -0.17007358 -0.12404249 0.24155724 0.10130321 0.013350812 -0.15464598 0.07638557
-0.03964114 -0.15646978 -0.004749028 -0.26257542 0.011371989 -0.22687769 -0.013612291 -0.30452368
0.025539335 0.05622243 -0.15673074 -0.17173733 0.10936538 0.23600571 -0.2654573 0.3125699
-0.002078684 -0.17035404 -0.28161246 -0.023647273 0.074108765 0.063732 -0.07783817 -0.013556552
-0.16784665 -0.1638207 0.2168876 0.10292268 0.17496417 0.24723046 -0.19435114 -0.13386339
-0.07855183 0.20367673 -0.1866847 0.092137724 0.25391185 -0.23879354 -0.2125105 0.13464834
0.08937623 -0.030829199 0.28580096 -0.0013522598 0.25738513 0.17865287 -0.22026856 0.17629874
0.0997555 0.10239966 0.1694881 0.11529455 -0.06391735 0.20130168 0.24361059 -0.24077138
-0.05921503 0.055003133 0.12509027 -0.3192848 -0.32070833 -0.06100641 0.067780964 -0.13774133
-0.14615186 -0.101741545 0.30438823 -0.2551128 0.00061925873 0.25064373 -0.019291338 0.014756342
0.20381744 0.20715277 -0.03200694 0.24937707 -0.037845526 -0.057728343 -0.15841769 0.21679333
0.17865126 0.21695921 0.029800585 0.1898107 0.35369262 0.26919284 -0.26370046 0.13531606
0.045762364 -0.25386634 -0.005556103 0.21828397 -0.20037661 0.021650458 0.15749495 -0.23019375
00000000: 984d ff3d 40a2 603e 191e 0d3e ea83 d6bc
00000010: d6db ba3c a46f 9d3e fb6c 94be a43d 993e
00000020: e331 80bd 71f0 a2be 0a29 323e 25c2 443d
00000030: bce9 8cbe 53f8 4bbe 68be c7bd b8bb 26be
00000040: b4ed e6bd 2628 f3bc 5b58 573e 9c15 41be
00000050: 08b9 a4be c5f1 1fbe 667f 9cbd 841e 73be
00000060: a605 d03d 5b8f 5a3b 7c9b 993e 5a99 8dbe
00000070: 07e5 203e 82c2 b3bd 2fe4 5dbe d11a 04bd
00000080: 26fd c6bd 6b6f 623e 1b47 a83d 181b 533e
00000090: c268 ee3c 23e3 8cbe c069 dc3c 0d91 d5bd
000000a0: 36ce 41bd d007 043e 6388 793e 1c6b 193e
000000b0: 0596 243e d9f3 92bd 8dad cd3d f49d 813e
000000c0: d408 febd 1030 41be 61c2 e43d 0364 76bd
000000d0: 0614 ecbd 6c0c cf3d 82a0 dc3d 4b63 32be
000000e0: db49 5cbe 6a41 4f3e 8519 a53e efdd cdba
000000f0: 2488 763e 859a 0c3b 5b9e 503e 456c 853e
00000100: db5d a53e 1af4 a03d dec6 5cbe a9c4 c7bd
00000110: c027 4fbe eb91 ad3d 368f 2e3e 0f3c 5a3e
00000120: 1083 6b3d a3c9 9bbc da47 b93d 6078 08be
00000130: 813c 90be 82f6 f63d 2738 853e b059 893d
00000140: 567d fd3d cb1f 693e 0d98 1c3e eb0c 35bd
00000150: 5da4 ea3c a925 3c3d 1ff1 22bd e578 4d3e
00000160: e558 3c3e 8e7f bb3d 8825 913d d26d 42bd
00000170: fbfb 15be 6a26 71be 7d76 c33c cb7b 663c
00000180: e5e3 dcbd a311 09bd cbfa dc3d e053 68be
00000190: 2116 8a3e 72e5 9abd 7f9f 5cbd dd72 5e3e
000001a0: 5a5c cc3d 2f0e 303e c069 6dbe dd0e d9bd
000001b0: 16f3 8bbd cd04 983d dc08 823e 214d 603d
000001c0: fa48 72be cb29 4bbd 277e 28bd 69ec 7c3d
000001d0: 74c3 4dbd 8d97 cc3d 8739 c2bc 3ae3 0c3d
000001e0: f582 793e b3d2 7d3e 3339 8cbc 0176 163e
000001f0: 2098 863e 4acc 10be e849 c93d 30b2 82bd
00000200: 5008 45be dded ab3c 35bd acbd c745 503d
00000210: 6106 d13d 6f3f f9bc 3080 a53d 9f8a 36be
00000220: 00c6 94be c80d 883d c696 0cbd 9a65 a7be
00000230: 98b6 63bd 2875 2abe d402 dcbd 2190 f03d
00000240: ceb1 973d 5899 1e3d 59cb 32bc c68c 7bbe
00000250: beb9 9abd 03da 913e 5e9c b83d c583 8abe
00000260: 88bc 113e c527 2ebe fd09 febd c85a 773e
00000270: 0f78 cf3d 5dbd 5a3c 845b 1ebe 0a70 9c3d
00000280: bf5e 22bd 9d39 20be bc9d 9bbb 4970 86be
00000290: 9451 3a3c a052 68be 1606 5fbc 87ea 9bbe
000002a0: de37 d13c 7e49 663d 067e 20be e9db 2fbe
000002b0: f5fa df3d 7bab 713e 05ea 87be 2909 a03e
000002c0: 883a 08bb 4a71 2ebe 822f 90be edb7 c1bc
000002d0: 56c6 973d ec85 823d 9e69 9fbd 4d1c 5ebc
000002e0: fedf 2bbe 9dc0 27be c817 5e3e 20c9 d23d
000002f0: cf29 333e fb29 7d3e fc03 47be 7c13 09be
00000300: c8df a0bd a290 503e 462a 3fbe b4b2 bc3d
00000310: bc00 823e 4b86 74be 5a9c 59be 41e1 093e
00000320: e30a b73d 848d fcbc 8154 923e 4f3e b1ba
00000330: fcc7 833e c7f0 363e 158e 61be a887 343e
00000340: 9d4c cc3d eab6 d13d 4a8e 2d3e 8d1f ec3d
00000350: 19e7 82bd 0722 4e3e 0e75 793e c68c 76be
00000360: 768b 72bd f74a 613d aa17 003e 4c79 a3be
00000370: e233 a4be dbe1 79bd bfd0 8a3d 100c 0dbe
00000380: d5a8 15be df5d d0bd c6d8 9b3e 259e 82be
00000390: c055 223a 6054 803e de08 9ebc 96c4 713c
000003a0: 85b5 503e db1f 543e b619 03bd b45c 7f3e
000003b0: e903 1bbd 8e74 6cbd 3f38 22be 12ff 5d3e
000003c0: 5bf0 363e 8e2a 5e3e 5b20 f43c bc5d 423e
000003d0: 3317 b53e a5d3 893e bf03 87be 4b90 0a3e
000003e0: 5171 3b3d c5fa 81be f80f b6bb d585 5f3e
000003f0: 872f 4dbe 4d5c b13c 5b46 213e e9b7 6bbe

prop_h_to_h.6.bias f4 [20]
-0.16320114 0.22085892 -0.3106356 -0.15677068 -0.12795258 -0.020308858 -0.1579965 0.27113923
-0.05222911 0.12256515 -0.10079704 0.2465648 -0.34177062 -0.2964725 -0.07683309 0.27219775
-0.16619137 0.33710685 0.15019026 -0.17442676
00000000: 331e 27be d728 623e a10b 9fbe 7e88 20be
00000010: 0006 03be c35e a6bc d6c9 21be c3d2 8a3e
00000020: 31ee 55bd 7003 fb3d ae6e cebd 7c7b 7c3e
00000030: 8ffc aebe 3ecb 97be ab5a 9dbd 815d 8b3e
00000040: 122e 2abe 4599 ac3e 7acb 193e ee9c 32be
