both_theta_kappa/Q.pth (torch, 13184 bytes, 13 tensors)

prop_in_to_h.weight f4 [20, 3]
000000 c6 25 16 be 59 b7 f3 3d fc c7 59 3e c5 37 04 3e
       -0.14662847 0.11900205 0.21267694 0.129119
000010 a3 ad 93 bd f8 4a 85 be 00 95 96 3e 67 7c e2 bd
       -0.07210853 -0.2603376 0.29410553 -0.11058884
000020 c1 31 96 3e 87 bb ee bd 79 3c 00 be 8e c4 e4 bc
       0.29334834 -0.11656862 -0.12523068 -0.027925756
000030 f7 5e 00 3f 6a c4 91 3c d3 b9 1a bf 1a 1f ed be
       0.50144905 0.017793853 -0.60439795 -0.4631279
000040 16 d7 5a be ef 48 bf be ba 9a 80 be 76 e7 09 bf
       -0.21371111 -0.3736033 -0.25118047 -0.53868806
000050 05 85 c5 3e b9 39 bf be e4 13 bd bc 4d 74 96 3e
       0.38578048 -0.37348726 -0.023080774 0.29385605
000060 a4 62 14 be 5d 73 d8 3e 78 00 d8 bd 71 47 d9 3e
       -0.14490753 0.42275515 -0.105469644 0.42437318
000070 fd a7 af be b3 c6 ef 3b ac c4 ed be 46 01 00 bf
       -0.34307852 0.007317388 -0.4643911 -0.50001943
000080 0d 1d 01 3f 7f 98 fe 3d 4b 47 a1 3e ff 46 a9 bd
       0.5043495 0.1243143 0.31499705 -0.082654946
000090 b4 2f 0a 3f fe b6 ce be 3f 7b 91 3e ca 15 21 be
       0.5397904 -0.40373987 0.28414342 -0.15730968
0000a0 a5 51 8c 3d 39 ab cd be db 97 ef be bd 53 8c 3e
       0.0685151 -0.40169695 -0.46795544 0.27407637
0000b0 fb 08 19 bc 67 3b 24 be 74 a1 95 3e 47 c8 ee 3e
       -0.00934052 -0.16038285 0.2922474 0.46637174
0000c0 9a 12 03 bf 82 c9 ef be b7 bb 23 3e f6 a3 21 3f
       -0.5120026 -0.46833426 0.15989576 0.6314081
0000d0 f3 c1 88 3e 4f 3e 8d 3e b6 b2 ae 3d b6 24 b2 3e
       0.26710472 0.275866 0.0853018 0.34793633
0000e0 70 c5 02 3e b3 61 cd be 81 6e 02 3e e1 37 cc bd
       0.12770629 -0.401136 0.12737466 -0.099715956

prop_in_to_h.bias f4 [20]
000000 8e c6 0d 3e 95 44 5f be 6f 86 ee be f6 a5 0c bf
       0.13845274 -0.21803506 -0.4658694 -0.54940736
000010 2a 29 cc be ff 0c d2 3e 26 d4 ca 3e ab fc c1 3e
       -0.39875156 0.4102554 0.3961498 0.37888083
000020 31 70 1b 3f ee ff 69 3e c6 16 b4 be 12 41 32 3b
       0.60718066 0.22851536 -0.35173625 0.002719943
000030 ec 44 0b 3e 33 68 ec bd 2f 3e bf 3e e6 0d 20 3f
       0.1360051 -0.11543312 0.3735213 0.6252121
000040 8e b3 fa be 7f f2 36 3f ca af 01 3f b7 77 2e bb
       -0.48965114 0.7146377 0.5065886 -0.0026621649

prop_h_to_h.0.weight f4 [20, 20]
000000 6e 2a 0a be 4b 88 c1 3d 1d c7 91 3e 94 33 75 3e
       -0.13492748 0.09449824 0.28472224 0.23945457
000010 e0 ea 18 be 76 66 91 bd b9 2a a2 be fc 96 82 be
       -0.14933348 -0.07099621 -0.3167322 -0.25505817
000020 31 aa 09 be cc 90 07 be 8e 69 92 3e ef 1d dc bd
       -0.13443829 -0.1323883 0.28596157 -0.10747897
000030 b7 5b 06 be c9 83 4f 3e 7f ce 15 3e 0f ec 99 3d
       -0.13120924 0.20265116 0.14629553 0.07515728
000040 67 0d 9f 3d 14 cd 5f be ad 32 09 be e4 18 3b 3e
       0.07766228 -0.21855575 -0.13398238 0.18271214
000050 ce 72 b2 bd 99 3f 60 be d8 47 c0 be ca a7 4e 3c
       -0.087133035 -0.2189926 -0.37554812 0.012613246
000060 bb a6 11 3e c3 3b 96 3e 07 b0 ac 3c 3a 9e 44 3e
       0.14223759 0.2934247 0.02108003 0.19200984
000070 21 01 74 bc 77 21 73 3d 59 b7 8a be e4 8f dd 3d
       -0.014892847 0.059358086 -0.27093008 0.108184606
000080 01 30 41 bd e9 83 2c be 20 b6 f2 3d 8c e6 d6 bd
       -0.04716492 -0.16847195 0.11851144 -0.10493192
000090 31 14 2e be 1b e9 98 bd 75 c2 e2 bd ff 03 ff 3d
       -0.1699989 -0.07466336 -0.11072246 0.12451934
0000a0 d7 61 ad bd 39 82 b5 3d 6b 6c 1c be a0 87 7a bd
       -0.08465927 0.088627286 -0.15275733 -0.0611645
0000b0 7b de 1b 3e 72 23 21 3c 83 31 2c bb f7 9d 57 bd
       0.15221588 0.009835111 -0.0026274628 -0.05264088
0000c0 10 94 c1 bd f7 34 5d 3e 39 11 31 3e 9d a1 e4 3d
       -0.09452069 0.21602236 0.17291726 0.11163638
0000d0 c1 d1 d1 3d 23 26 da 3d 63 5e 2e 3e a8 14 47 3d
       0.102450855 0.10651805 0.17028193 0.048603684
0000e0 15 c5 b5 3d dc db 64 3e 1d e0 0a be 9f b2 de 3c
       0.08875481 0.22349495 -0.13562055 0.027184783
0000f0 42 bd 8c be bd 56 d4 3d ee 95 81 bd 26 cf 41 3e
       -0.27488142 0.103681065 -0.06327425 0.18926677
000100 a9 54 ae bd 9d ff 00 be b3 e9 1b be 0f ea 83 be
       -0.085122414 -0.12597509 -0.15225868 -0.2576451
000110 82 f5 c9 bd 71 a0 4d 3c 47 73 2c 3d a4 f8 38 3e
       -0.0986128 0.012550459 0.042102125 0.18063599
000120 b1 1e 84 3d ec 77 57 3e 03 e6 e6 3d 84 84 0e 3d
       0.064511664 0.2104184 0.1127434 0.034794345
000130 c2 0a fa 3d f1 df 2f 3e 97 1e c4 bd 7d 83 32 3d
       0.12209083 0.1717527 -0.09576147 0.04358243
000140 5e bf 98 bd 9c 44 cc 3d ed ef 3c 3e 9f af 01 3e
       -0.074583754 0.09974024 0.184509 0.1266465
000150 bf 95 eb bd 20 ae 22 be 01 bc 34 be 5d 87 59 3b
       -0.11503171 -0.15886736 -0.17649843 0.0033192255
000160 23 59 d6 3c f0 2e d0 be 13 e1 68 bd 25 cd d5 bd
       0.02616555 -0.4066081 -0.056855273 -0.10439519
000170 3b 2c 63 be c4 6f 14 bd 66 e2 14 3e 85 e9 94 be
       -0.22184841 -0.0362394 0.14539489 -0.2908441
000180 59 b1 02 3e d1 5f 42 be 6a be 73 be 6d 4c 4a 3e
       0.12762965 -0.18981864 -0.23803106 0.19755717
000190 ed c7 c2 bd 90 5f b6 bd 93 18 92 3e 75 4e a4 3e
       -0.09510789 -0.08904946 0.28534374 0.32091108
0001a0 22 76 d5 bd 4a 9d 51 be 15 f8 6c 3d 0b 06 0d be
       -0.10422923 -0.20470157 0.057853777 -0.13771836
0001b0 cf ff 2f be 13 30 93 be ba 3c 18 be cb bc 83 3b
       -0.17187427 -0.28747615 -0.14866915 0.0040203086
0001c0 bd 57 1f be 4c a7 47 bd 17 80 43 be ef 34 a5 bb
       -0.15560813 -0.04874353 -0.19091831 -0.0050417106
0001d0 d8 72 ff 3c 7e 6a e8 be c2 9f 57 be 37 d6 4f 3e
       0.031182691 -0.45393747 -0.21057037 0.2029656
0001e0 3f c0 56 be f0 31 f9 3d ff 2c 5b bd 05 78 dc ba
       -0.20971774 0.12167728 -0.05350971 -0.0016820437
0001f0 d0 5d 60 3d 57 0d 17 bd 18 bf 4e bd 78 02 c3 bd
       0.054776967 -0.036877956 -0.05047521 -0.09521955
000200 81 d5 63 3e de 77 21 bd bb e3 eb 3d 36 12 26 3e
       0.22249414 -0.039420955 0.115180455 0.16217884
000210 83 0f 1e be e4 03 cf 3c ce 7d 47 3d b0 bd da bc
       -0.15435605 0.02527041 0.04870396 -0.026701778
000220 fe 44 a6 3c 5b c8 50 3e d2 f0 d5 bd 60 ef 8d bd
       0.02029657 0.2038893 -0.104463235 -0.06930423
000230 8f a6 21 3d 7e c4 f1 3c ee 2c 97 3d 6b dd 9b 3e
       0.039465483 0.02951264 0.073816165 0.30442366
000240 ff 41 68 be 7f 61 a4 bd ef 5b ab bd 38 29 b2 3d
       -0.22681426 -0.080264084 -0.08367144 0.08699268
000250 7b 4e ca bd a7 35 89 be 34 f0 5b 3d 9a 7c ad bd
       -0.0987825 -0.26798746 0.053695872 -0.084710315
000260 bd 50 90 be 21 79 80 bc 8d ab ac bd 11 d3 38 be
       -0.28186598 -0.015682759 -0.08431158 -0.18049265
000270 f8 be 9f 3b 8b 8c b1 be 2e c8 5b 3d c8 72 37 3e
       0.00487506 -0.34677538 0.053657703 0.1791488
000280 c2 8c 3a be 03 42 4a 3d 4a a3 58 be 92 a3 6a be
       -0.18217757 0.04937936 -0.2115604 -0.2291396
000290 81 7b 84 bd 96 43 c0 3d d4 85 0e 3e 15 48 0f bb
       -0.06468869 0.09387891 0.13918239 -0.0021863033
0002a0 b0 12 b0 bd 1d be aa 3d 9a 89 67 be dd af 3d 3e
       -0.08597314 0.083370425 -0.22611085 0.18524118
0002b0 ed 5c 5d 3d 7a 92 b0 bd 42 e3 49 3d 59 ba 05 3e
       0.0540437 -0.08621688 0.049288996 0.13059367
0002c0 08 4e d6 3d 54 3c cb 3d af c5 60 3d 16 b8 3b 3e
       0.10464102 0.09923616 0.054876026 0.18331942
0002d0 b4 c0 82 be 76 e0 4c 3e c6 39 04 be f0 01 05 be
       -0.25537646 0.200075 -0.12912664 -0.1298902
0002e0 3e f8 d6 3c 95 2d 6a bd 7c b9 13 3d bd 77 b3 be
       0.026241418 -0.057172377 0.036065564 -0.3505229
0002f0 51 5b 64 bd 1b 7a d1 3c 59 48 40 3e 78 19 b1 bb
       -0.05575115 0.02557092 0.18777598 -0.0054046474
000300 7b 29 2c 3e d6 bf 03 3e f5 29 e7 3c 5f 09 3f be
       0.16812699 0.12866148 0.028218249 -0.18655919
000310 96 b7 8c 3d 0c e6 38 be 83 33 69 bd 6a 94 1b 3e
       0.06870954 -0.18056506 -0.05693389 0.15193334
000320 dc 7e 44 be ff 58 21 3d a5 7a 19 3e 42 e2 79 bd
       -0.19189018 0.039391514 0.14988191 -0.061006792
000330 ba 21 8c 3d 1f b0 cf bc 7d 62 40 3e e8 02 88 bd
       0.0684237 -0.025352536 0.1878757 -0.06641179
000340 e3 d2 e7 bd 67 1e 3b bd b3 d1 27 be 97 0e 1b be
       -0.1131952 -0.04568329 -0.16388588 -0.15142284
000350 b9 33 d7 3d 05 61 0f 3d cf 59 9f 3b 53 a4 a8 be
       0.10507912 0.035004634 0.004863001 -0.3293787
000360 77 88 34 3e 14 9b 47 be f0 b2 3b bd 30 73 2d 3e
       0.17630182 -0.19492751 -0.045824945 0.16938472
000370 d7 be ad bd c5 57 59 3d e7 a9 0a 3c 32 e4 98 3d
       -0.084836654 0.05306222 0.008463359 0.074654
000380 6b b3 cc bd 19 a7 87 be 8f c2 9c be a6 93 bb 3c
       -0.09995159 -0.26494673 -0.30617186 0.022897553
000390 41 12 43 bc c8 80 eb bd 65 63 a0 3d e2 06 28 be
       -0.011906208 -0.114991724 0.07831458 -0.16408876
0003a0 5b 52 9d be 8d 5c f3 3d e8 1a 53 3e a2 bf 30 3d
       -0.30726895 0.11882887 0.20615733 0.043151505
0003b0 8c 8d 0c 3e 7e a5 44 3d 8b 65 74 bd 3a d2 84 3d
       0.13725871 0.04800939 -0.05966715 0.0648541
0003c0 a2 3a ce 3d 0c 24 29 bc 00 0c a3 3e 61 67 be 3e
       0.10069777 -0.010323536 0.31845093 0.37188247
0003d0 ba 0d 61 3e f6 44 96 be 47 b7 af 3b f4 03 c7 be
       0.21977893 -0.29349488 0.0053624245 -0.38870203
0003e0 37 99 59 be eb 64 ab 3d 98 ef 03 3d 9e f9 3d be
       -0.21249853 0.08368858 0.032210916 -0.18552253
0003f0 7a 73 81 be 95 97 98 bd 9f 0d 8b 3d d9 f8 e9 bb
       -0.25283414 -0.07450787 0.067897074 -0.0071402607

prop_h_to_h.0.bias f4 [20]
000000 e2 3a b7 be 11 d9 92 3e 29 4f 87 3e 1b 86 d5 bd
       -0.35787112 0.28681234 0.26427582 -0.10425969
000010 2d 6d 82 be 10 31 c5 be 52 04 82 3e bc 72 e8 be
       -0.2547392 -0.38513994 0.2539392 -0.45400035
000020 3e 39 50 3e 59 b5 c8 bd 85 f8 b2 3d c4 90 f2 bd
       0.20334336 -0.09800214 0.087388076 -0.11844018
000030 48 82 20 be 67 20 83 3e 9e e6 8f 3e e9 ec 28 be
       -0.15674698 0.2561066 0.28105634 -0.16496624
000040 d0 cc d7 3d 42 5c 9c 3b cb 10 6d bd 15 2d c7 3d
       0.10537112 0.00477174 -0.057877343 0.097253956

prop_h_to_h.1.weight f4 [20, 20]
000000 0c 2c 7c be 83 c7 ad 3d 2b 2b 44 3e 69 c3 90 bd
       -0.24626178 0.084853195 0.19157092 -0.070685215
000010 fa 45 3d 3d 54 6b 81 be 80 da bf 3c 29 a2 d5 bd
       0.046209313 -0.25277197 0.023419619 -0.1043132
000020 5d 45 4d 3d 09 f2 f4 bd a9 bd 21 be 7a e3 dc 3d
       0.050114978 -0.11960227 -0.15795006 0.10785575
000030 23 15 22 be 25 07 bc bd 16 b2 ee 3d cc 1c 25 be
       -0.15828376 -0.0918105 0.11655061 -0.16124266
000040 5a c3 53 3c 07 9f b0 3d 71 af ae be 21 01 1c be
       0.012924993 0.08624082 -0.34118226 -0.15234806
000050 49 8b d5 3e bb ca 61 3d 78 39 aa bd 68 61 09 be
       0.4170783 0.05512498 -0.083117425 -0.13416064
000060 c4 cf bf 3e 43 58 9d 3e d5 67 bc bd 99 99 c7 3e
       0.374632 0.307314 -0.09199492 0.38984373
000070 b0 3b 9a be 99 47 b2 bc 90 b3 2d bd db 0a 42 3e
       -0.30123663 -0.021762656 -0.042407572 0.18949454
000080 0b 9f 96 3e 56 ac a5 bd 31 64 71 be bc 8e ae 3d
       0.29418215 -0.08089511 -0.23573376 0.08523318
000090 46 d6 08 be c6 79 91 be 82 e4 5f 3d 18 6a 18 3d
       -0.13362989 -0.28413218 0.05466128 0.037210554
0000a0 73 4d 19 be 4c 15 d2 bd 40 72 0b 3e 49 f7 a6 3d
       -0.14970951 -0.10257968 0.13617802 0.08152635
0000b0 14 64 88 bd 6d 1b 2e 3e c1 13 29 3d dd 55 1e 3e
       -0.066597134 0.1700265 0.041278604 0.15462442
0000c0 64 dc b9 bd 7c b6 a3 3d 5c 0f 0a bd a0 20 02 be
       -0.09075239 0.079937905 -0.033706054 -0.12707758
0000d0 2c 11 4a 3d d3 bc 4e be 73 37 09 be d6 4e dd 3d
       0.049332783 -0.20189218 -0.13400058 0.108060524
0000e0 06 62 cf 3d 23 a0 1c 3d 90 18 25 3e c7 1a 85 3c
       0.10126118 0.038238656 0.16122651 0.01624812
0000f0 27 91 dc 3d e3 1c 33 3e 3e 34 71 bd d2 0f 87 3b
       0.10769873 0.17491488 -0.058887713 0.004121759
000100 1b 6c a2 bc a5 61 06 be ed 7e 26 3e 75 0f 54 be
       -0.01982694 -0.13123186 0.16259356 -0.20709021
000110 3d 3f 40 3e a8 39 7c bd fb 72 2a bb 04 82 37 be
       0.18774123 -0.061578423 -0.0026008475 -0.17920691
000120 a5 0e ac bd 07 78 0e bc e6 3a 23 bd 30 d8 52 3e
       -0.08401231 -0.008695609 -0.03985109 0.20590281
000130 c5 6b ef bd e2 af 27 3e 69 e5 8d 3c 4f 6e bf 3d
       -0.11690477 0.16375688 0.017321305 0.093472116
000140 76 ba 38 be 56 be 72 3e f2 54 06 be 1c 18 26 3e
       -0.18039879 0.2370542 -0.13118342 0.16220134
000150 3b ff 80 be c5 9b 26 bd 9b e4 43 3e 32 81 fb bc
       -0.25194725 -0.040675897 0.19130175 -0.030701254
000160 c1 90 58 bc f5 c2 08 3e 13 73 0d 3b ea 41 0e be
       -0.013218106 0.1335562 0.0021583482 -0.13892332
000170 04 41 2b 3e 17 15 1b 3e ec 6c 66 bb ca 30 25 be
       0.1672402 0.15144764 -0.0035160137 -0.16131893
000180 a5 5f 16 3d bb ff 38 3e 22 8b 49 be e1 f2 35 3e
       0.036712307 0.18066303 -0.19681981 0.17768432
000190 77 9d d7 bc 68 8e 80 bd b8 ba 37 3e f5 62 2a be
       -0.026320202 -0.06277162 0.17942321 -0.16639312
0001a0 49 4d 03 be f6 0c 2d 3c 6e 02 31 3e 03 25 a5 3d
       -0.1282245 0.010562172 0.17286083 0.080637
0001b0 9c 6d eb 3d 4a 2f 53 3e 36 db 15 3e ef 7b 39 3c
       0.11495516 0.20623508 0.14634404 0.011321052
0001c0 6e 4d 5c bb 2b 11 65 3e 8d 3a 15 3d a0 1f 11 3e
       -0.0033615488 0.2236983 0.03643279 0.1417222
0001d0 35 a0 7a 3e d7 bc 18 be d7 c3 61 3e ab 1b 1b 3d
       0.24475177 -0.14915787 0.22047363 0.037868183
0001e0 42 45 97 be c7 81 03 3e 5d ae 36 3e 92 27 8d bd
       -0.29545027 0.12842475 0.17839952 -0.06892313
0001f0 7e 2b 2e 3d 2c fe 1e 3c 05 1e 20 be bb a4 9a be
       0.042521946 0.009704154 -0.15636452 -0.30203804
000200 b9 3c 58 3c 59 d0 46 bc 46 8d 1c bd e2 db 06 be
       0.013198071 -0.012134635 -0.038220666 -0.13169816
000210 f1 26 71 be d1 21 27 3e a9 06 d5 bd 8d 0b 1f be
       -0.23550011 0.16321494 -0.10401661 -0.1553175
000220 04 a9 b5 bd 03 31 19 3e d1 0d 50 bd 2d f6 bf 3d
       -0.08870128 0.14960103 -0.050794426 0.09373126
000230 d5 9d 91 3d ad db 54 3d 9c 4a 1f 3d e8 93 59 be
       0.07110182 0.05196731 0.038889512 -0.21247828
000240 04 fc 11 be 30 d2 58 be bd 6e 00 bd 27 ee a6 be
       -0.14256293 -0.2117393 -0.03135561 -0.3260357
000250 10 dd a2 bd ea 57 35 be 0a c5 c5 bd 08 56 88 3b
       -0.079523206 -0.17709318 -0.09656723 0.0041606463
000260 de 15 8a be b4 ab 37 3e 3a 64 e9 bd 38 4d 8e bc
       -0.26969808 0.17936593 -0.1139607 -0.017370805
000270 d1 a7 26 3d 25 35 b6 3d 11 22 1e bd 06 34 00 be
       0.040687386 0.08896855 -0.038606707 -0.12519845
000280 8e 19 47 3d fb 2e 48 be 69 b6 8d 3d 0f a0 23 3e
       0.048608355 -0.19549172 0.069195576 0.15979026
000290 2d 15 89 3e 75 84 44 3e 2f 1f 65 be f2 e8 51 3e
       0.26773968 0.19191153 -0.22375177 0.20499018
0002a0 71 62 74 be 28 27 80 bd 3c 02 01 3e 6a e6 c4 3d
       -0.23865677 -0.062574685 0.12598509 0.096142605
0002b0 34 45 dd bd 0f eb 92 be 61 dc 93 be 0a 33 08 be
       -0.10804215 -0.2869496 -0.28879073 -0.1330072
0002c0 a9 cd 60 3b 3d 5c 80 be 2d 61 d1 3d 6e fc 1c be
       0.003430227 -0.25070372 0.10223613 -0.1533067
0002d0 95 e9 f8 3c 48 05 de 3d 00 2a f3 3d e3 ca 36 3e
       0.030384818 0.10840851 0.11873245 0.17850833
0002e0 ed 2d 03 bd a5 bb 20 be b6 7e 32 3e 33 33 4e be
       -0.03202622 -0.1569658 0.17431149 -0.20136718
0002f0 41 20 59 bd 1b 95 9e bd d8 71 e2 3d db 42 76 be
       -0.053009275 -0.07743283 0.1105687 -0.24048941
000300 a5 a4 bb 3c 6c 13 c8 3d 09 6a f9 3b 63 ac 47 be
       0.022905657 0.097693294 0.0076115173 -0.19499354
000310 a4 b5 6c bc 5a fc 35 be b0 00 b1 bd 87 89 db 3d
       -0.014447603 -0.17772046 -0.08642709 0.10719591
000320 d9 45 20 bc 7d b0 86 3d 6e da 29 3e 03 11 e4 3d
       -0.009782278 0.06576631 0.1658723 0.11136057
000330 e9 35 dc bd 66 fb 81 be e0 95 25 3e c9 dd 94 bd
       -0.1075247 -0.25387114 0.16170454 -0.07268865
000340 75 6d 0a be 2e fe 3c bd 8d 5d e7 3c e7 d7 9c bd
       -0.13518317 -0.046140842 0.02824285 -0.076583676
000350 62 ef 08 be 34 19 1b be 40 24 e3 3d 8b 63 42 be
       -0.13372567 -0.15146333 0.110908985 -0.18983285
000360 56 c0 41 3e c6 0a 6b 3e 61 ef 22 be f7 96 38 3e
       0.18921027 0.22953328 -0.15911628 0.18026339
000370 fb ab cf 3d 18 11 3f bc ac 11 a6 be 9f 6f 3c be
       0.101402245 -0.01166179 -0.32435358 -0.18401955
000380 b7 2a 88 3e 89 57 22 3e c2 c3 e0 bc 79 11 4d 3e
       0.2659509 0.15853705 -0.027437095 0.20026197
000390 e7 d3 95 be 26 a4 4f 3b 01 4a f1 bc 56 d2 05 3e
       -0.2926323 0.0031683533 -0.029454233 0.13068518
0003a0 55 b4 89 3e 87 e2 9f be 66 11 a3 be bb a6 07 3e
       0.26895395 -0.31227514 -0.3184921 0.13247196
0003b0 d2 39 a9 3d cc 98 b2 bc 20 66 91 3c 29 57 4c 3d
       0.082629815 -0.021801375 0.017748892 0.04988781
0003c0 d3 ad 9c 3e ea 75 2d 3e d5 f1 8f be eb 00 27 3e
       0.30601367 0.16939512 -0.2811419 0.16308944
0003d0 53 e2 c3 3d 53 46 70 3e 77 9f 1e 3e 80 75 9c 3e
       0.09564652 0.23464327 0.15490519 0.30558395
0003e0 c9 8b 87 3d 98 6f 7a 3d ce a6 56 be 7f ce c6 bc
       0.06618459 0.06114158 -0.20962068 -0.024268387
0003f0 5c 97 15 3e f4 14 f8 3b d5 7d 28 3d a4 68 4b be
       0.1460852 0.007570857 0.041135628 -0.19864136

prop_h_to_h.1.bias f4 [20]
000000 4e 28 9f 3e 09 97 ca be 5a 1b 22 be 64 9f 0c 3e
       0.31085438 -0.39568356 -0.15830746 0.13732678
000010 0f 2a 92 3d 5f 0b bb 3d 68 b8 9a 3e 66 24 a1 3e
       0.07136928 0.09133028 0.30218816 0.31473082
000020 ef 69 19 bd 19 94 23 3d 71 5e ae 3d 3d 3c de be
       -0.03745454 0.03993616 0.08514107 -0.43405333
000030 bb 2d 29 be ef c4 ba 3e fd 29 c0 bd ad 36 c2 3d
       -0.16521351 0.36478373 -0.09383009 0.09483085
000040 47 e0 93 3e 28 cb 8b be 0c 7c bb be 97 04 10 3e
       0.28882048 -0.27303433 -0.36618078 0.14064251

prop_h_to_h.2.weight f4 [20, 20]
000000 9b b0 9b be b2 93 a0 3e c7 c5 8f 3e f7 b0 21 3e
       -0.30408177 0.31362683 0.2808058 0.15790163
000010 6d 62 08 3e d5 70 c4 bd eb 1d ba be 60 c9 9c be
       0.13318796 -0.095918335 -0.3635095 -0.30622387
000020 9b 80 a5 bc 19 63 76 be c8 34 8b 3d 02 e2 a8 3d
       -0.020202925 -0.2406124 0.067971766 0.082462326
000030 71 02 25 3d f9 98 83 be 81 9b b2 3b 34 b4 b0 be
       0.04028553 -0.25702646 0.0054506664 -0.34512484
000040 53 74 5b 3d ca 1c 20 3e 9e bb 7d 3e 3c d3 93 be
       0.053577732 0.15635982 0.24778602 -0.28872097
000050 39 c2 3a 3e 08 bc ac be 3b 7e 9d be 95 81 33 3d
       0.18238153 -0.33737206 -0.3076037 0.04382475
000060 1a 7b 8c 3d a7 a2 cd 3c a1 4b ff bc ae ed 52 3e
       0.06859417 0.025101973 -0.031163992 0.2059848
000070 64 14 f0 3d 05 6c 9f bd 4d 5b 43 3c fb 49 87 be
       0.11722639 -0.07784275 0.011923623 -0.2642363
000080 89 5e 93 bd 7c 3a 91 3e e1 41 fe bd cc 81 e7 bd
       -0.071957655 0.28364933 -0.12414909 -0.11304054
000090 12 05 a4 3b 1b 4d e9 3b b7 5a a0 bd ed 43 03 3e
       0.0050054872 0.0071197874 -0.078298025 0.1281888
0000a0 d7 4e 15 be 69 3a c0 bc 0d 44 48 3d 3a e9 78 bd
       -0.14580856 -0.023465352 0.048893023 -0.060769297
0000b0 a6 c9 a3 3c 8b 10 3e 3d f3 37 2c be 4e 7b 97 3c
       0.019993614 0.046402495 -0.16818218 0.018491413
0000c0 c2 e6 71 be 30 96 f0 3c f3 d9 2d be 86 45 19 be
       -0.23623183 0.02936849 -0.16977672 -0.14967927
0000d0 1a e0 f0 bb 1a ac 0a bd 46 35 a2 3d b4 b5 1f 3e
       -0.0073509337 -0.033855535 0.07920317 0.15596658
0000e0 5f 5b 1a be 48 7d 9f bc 1d 84 cb 3d 4d 79 4b 3e
       -0.15073918 -0.019468918 0.09937308 0.19870491
0000f0 2d d9 3e 3e 81 66 34 bd 75 2c 9e be 0f 40 73 3e
       0.18637533 -0.044043068 -0.30893293 0.23754905
000100 13 69 db bd 90 be 05 bd 91 8c 93 3e 84 b0 e2 3e
       -0.10713401 -0.032652438 0.2881818 0.44275296
000110 c9 db f2 bd d3 52 84 3d 55 84 4f bd 2e fc ab be
       -0.11858327 0.0646111 -0.05066331 -0.33590835
000120 5b 01 93 be b4 73 09 be fe a5 b5 3d 45 40 16 bd
       -0.28711972 -0.13423043 0.08869551 -0.036682386
000130 b3 4d 73 3c ca 9f 4b 3d c1 11 fe bd 08 9a 8c 3d
       0.014850068 0.049712934 -0.1240573 0.06865317
000140 f6 bf fe bc 64 e6 34 3e e9 98 8a bd 74 e5 6d be
       -0.031097393 0.17666012 -0.067674465 -0.2323206
000150 c0 f8 5b be 9c 2b 8e bd bb 59 01 be 1b da 40 be
       -0.2148161 -0.069419116 -0.12631886 -0.188332
000160 1c 60 9e 3e 48 73 a1 3d 8d b1 30 bd e8 07 99 3e
       0.309327 0.07883316 -0.043138076 0.29888844
000170 77 73 63 3e 7d b0 5d be 0d 29 9c 3e 7b c0 14 be
       0.22212015 -0.21649356 0.3050007 -0.1452655
000180 43 d3 c8 bd 82 c5 a8 3e d8 db 02 3e 47 bf 15 be
       -0.0980592 0.32963187 0.12779176 -0.14623748
000190 4b 05 41 3e e0 7e b8 3c 21 3e 73 be 8e ab 2e 3c
       0.18849675 0.022521436 -0.23754169 0.010661019
0001a0 54 17 ed bd be 54 b8 bd 89 6f df 3d 6c 66 4a 3d
       -0.11576715 -0.09000538 0.109099455 0.049414083
0001b0 29 2b f0 bd cd d0 2b be 91 6e 53 3d 4a f6 ce bd
       -0.11726982 -0.1677887 0.051619116 -0.1010557
0001c0 3f ba 88 3d f6 35 9e 3d 75 de 98 bb 86 c6 06 3e
       0.066761486 0.07725136 -0.004665191 0.13161668
0001d0 cd 10 41 3e 6b 9b 4a 3e d7 da 86 3c 10 2f fe bd
       0.18854065 0.1978585 0.016461773 -0.1241132
0001e0 05 b7 81 3e 43 c4 38 be bb 2d d1 bd 4e 94 0b 3e
       0.25334945 -0.18043618 -0.102138005 0.13630792
0001f0 c7 ae d0 3d 68 cb 3b 3e c0 34 81 3d 4a a9 2b 3d
       0.10189586 0.18339312 0.063088894 0.041909494
000200 8b d8 8c be 7e 8b 63 3e 28 54 de 3d 67 fe 96 bd
       -0.2750896 0.22221181 0.10855895 -0.07372742
000210 1e dc 05 3d db e6 89 bc f3 dd 80 be 29 48 b6 bd
       0.032680623 -0.016833713 -0.25169334 -0.08900482
000220 82 59 67 3e 6f 09 a9 bd 3d 70 87 3d 9b 3d 06 bd
       0.22592738 -0.082537524 0.06613205 -0.032773595
000230 10 47 cb 3d 5e 22 35 3d 05 8c 4a bd 06 5c ed bc
       0.099256635 0.04422223 -0.04944994 -0.028974544
000240 36 ab a7 3d 29 e5 36 3d ff dc 74 3d ff 0a fe 3d
       0.08186953 0.044652138 0.05978107 0.12404441
000250 9f bd 01 bd 2e 58 2a 3d f1 bd 2c 3e b0 c9 1d be
       -0.031674977 0.041588 0.16869332 -0.15408969
000260 d2 7d 7b be a0 04 69 bd 3f 8c d0 bd 33 41 f5 3d
       -0.24559715 -0.056889176 -0.10183 0.119753264
000270 87 27 ad bd 18 87 6c be 29 1d 82 be 04 d1 52 3e
       -0.08454805 -0.23098409 -0.25412872 0.20587546
000280 12 2f b6 be 28 07 aa 3e 51 f2 56 3e 13 45 01 be
       -0.35582787 0.33208585 0.20990874 -0.12624006
000290 ca 37 99 be 23 21 96 bc 7d 58 9f be 90 95 7c bc
       -0.29925376 -0.018326348 -0.311222 -0.015416518
0002a0 69 36 80 3e d7 ea 20 bc 43 98 93 be 56 42 a8 3e
       0.25041512 -0.009821615 -0.28827104 0.3286311
0002b0 03 a8 5a 3e 2c 2e 52 be 51 a6 06 3e 18 53 c3 bd
       0.21353154 -0.20525426 0.13149382 -0.09537333
0002c0 b8 a9 9f be 46 63 b4 3e fe 7c 5d 3e fd 73 a5 be
       -0.31184173 0.3523199 0.21629712 -0.32315055
0002d0 4d f3 b9 be e3 ea 0c 3e a6 10 06 bd bd 79 6b be
       -0.36318436 0.13761477 -0.03273072 -0.22995658
0002e0 75 26 85 3c c8 ab a3 be 2f 9d bd 3b d7 59 d7 be
       0.01625369 -0.31966996 0.00578656 -0.4206073
0002f0 8d 16 29 3e 86 49 a0 be 4d 22 d9 bd 20 76 bd 3e
       0.16512509 -0.31306094 -0.106022455 0.37004185
000300 37 eb 6f 3d 3b 71 7a be 73 15 8c 3e 0e a0 d6 bd
       0.058573928 -0.24457256 0.27360114 -0.10479747
000310 3a 78 cc 3c b8 bb 29 3e fe e0 5b 3e 74 9b 6e bd
       0.024959672 0.16575515 0.21472546 -0.05825372
000320 17 bd 9c bd 32 2c 92 3e a1 75 6c 3e 2e 75 84 3d
       -0.076532535 0.28549343 0.23091747 0.06467663
000330 09 a3 90 bd f1 ee 85 be 2c 81 b8 be 08 5e 7c be
       -0.070623465 -0.2615886 -0.3603605 -0.24645245
000340 2d 42 23 3e 7c 77 2d be 00 e6 25 be fa ff 85 3e
       0.15943213 -0.16940111 -0.1620102 0.26171857
000350 7b 81 73 bd a9 2e ac be 31 84 00 3e 25 b8 8b be
       -0.059449654 -0.3362935 0.12550427 -0.2728893
000360 43 22 12 be 60 d8 50 3e 99 22 09 3c c7 3d 80 be
       -0.14270882 0.2039504 0.008370065 -0.25047132
000370 e1 83 a5 be b0 14 54 3e 27 db f4 3c 6e 86 ef bd
       -0.32327178 0.20711017 0.029889656 -0.11695562
000380 37 da 36 be 39 2a 51 3d 3c 27 5b bd 47 02 37 be
       -0.1785668 0.051065657 -0.053504214 -0.17871962
000390 7d f3 08 3e 47 89 57 bd 58 f0 e9 3d 2e 13 27 bd
       0.13374133 -0.052621152 0.11422795 -0.040789776
0003a0 a6 2d 55 3e 2b cf e8 3d 25 78 1f bd 93 3d be 3d
       0.20818195 0.11367639 -0.038932938 0.09289088
0003b0 2c be 23 be d8 5b 20 3d 2d fa a5 bd ec 91 f9 3d
       -0.15990514 0.03915009 -0.08104358 0.121860355
0003c0 bf cd 33 be 98 d5 8a 3e b5 67 f5 3c 13 29 aa be
       -0.17558955 0.27116084 0.029956678 -0.33234462
0003d0 bc 42 04 be 47 f0 ff bd 23 e7 77 be 18 e7 e9 bd
       -0.12916082 -0.12497001 -0.24209265 -0.11421031
0003e0 aa f0 30 3e 4b 82 62 be 96 bd fb bd 18 80 8c 3e
       0.17279306 -0.22120015 -0.1229202 0.27441478
0003f0 bc ac 8c 3e d0 97 9d be 2f 91 50 ba b1 11 10 bd
       0.27475536 -0.30779886 -0.00079562044 -0.03517312

prop_h_to_h.2.bias f4 [20]
000000 e5 1f d8 bc d9 c3 79 3e 73 7e 5b 3e ea 21 1f 3e
       -0.026382396 0.24391116 0.21434955 0.15540281
000010 fb 38 74 be c9 09 9d bd d9 5d 97 3e 1c 68 a6 3e
       -0.23849861 -0.07667882 0.29563788 0.32501304
000020 02 bc 9e bd 72 d7 7b be cf 7a 81 be 98 27 59 be
       -0.077507034 -0.24593905 -0.25289008 -0.2120651
000030 64 cb 99 be 3a 6f 8d 3e 17 21 3b 3e 37 d1 21 3d
       -0.30037987 0.27623922 0.18274342 0.039506163
000040 a7 00 c5 bd 18 d5 99 3e 55 24 a6 be f5 49 42 3e
       -0.09619265 0.3004539 -0.32449594 0.18973525

prop_h_to_h.3.weight f4 [20, 20]
000000 33 b7 ca 3d ce 9d 98 bd 1b cf 89 be 70 4c 4b be
       0.09898224 -0.07451974 -0.2691582 -0.19853377
000010 bf da ea 3d 6c ec 07 be 06 e4 3e bd b7 79 e1 bd
       0.11467504 -0.13273782 -0.04660418 -0.110095434
000020 9b d5 01 3d 55 ba 5e 3e af ea a2 3e 75 8f 00 3e
       0.03169785 0.21750768 0.31819674 0.12554725
000030 20 5e bf 3d 96 5a 8d be 89 e5 5d 3d 3b aa 5e be
       0.09344125 -0.27608174 0.05417398 -0.21744625
000040 e8 1a b4 3c 58 d7 07 3d f9 a8 5d 3e c0 f3 93 bd
       0.021985486 0.033164352 0.21646489 -0.07224226
000050 74 1d dc bc d8 87 84 3d dc 5e 13 3e a6 ce 72 bd
       -0.026869513 0.06471223 0.14391655 -0.059279107
000060 df b6 27 bd 55 9c 31 be 33 67 26 be fb e5 55 3e
       -0.040945884 -0.17344792 -0.16250305 0.20888512
000070 fd 9d ff bd c1 4f 66 be d8 be 31 bd 44 69 08 be
       -0.12481306 -0.22491361 -0.043394893 -0.13321406
000080 99 a7 89 be cf 05 57 3e 7c e8 fb 3d c2 ae c4 3d
       -0.2688568 0.2099831 0.12300202 0.09603645
000090 a1 75 d5 3d 77 e0 bb 3d 1b c3 42 be 35 d2 db bd
       0.104228266 0.09173673 -0.1901974 -0.10733453
0000a0 5f 6d 19 bd e6 4e cd bd 21 a0 27 3e 8f 31 4f 3e
       -0.03745782 -0.10024814 0.16369678 0.20233749
0000b0 ac 56 12 bc 64 aa f8 bc 18 0e 21 3e 48 f1 29 3e
       -0.008931797 -0.030354686 0.15728033 0.16595948
0000c0 32 2b 5c be 18 51 93 3c c4 8b aa bd 28 dd c6 bc
       -0.21500853 0.017983004 -0.083274394 -0.024275377
0000d0 c4 d2 10 be ac 04 0a be 85 fd 3f 3e 8e 75 5c 3e
       -0.141429 -0.13478345 0.18749054 0.21529219
0000e0 39 1d 03 be 43 09 9f 3e 22 63 c8 3d f1 aa 8a 3e
       -0.12804116 0.31061754 0.09784533 0.27083543
0000f0 bd b4 2d 3d ed 1f 96 3e da 5b 59 3e 94 ac 77 3e
       0.042408694 0.29321232 0.21226445 0.24186927
000100 60 ae 31 be b4 9b 90 bd 1a b1 70 3e d6 fe 57 3d
       -0.17351675 -0.07060948 0.23505059 0.052733265
000110 84 5c 5f be 66 25 9a be 94 9d 8a bd c4 f1 51 be
       -0.21812636 -0.30106658 -0.06768337 -0.20502383
000120 0b 4c 72 be ca 15 36 3d da c1 57 3e 6e 0a 46 3e
       -0.2366182 0.044454373 0.21070042 0.19339916
000130 9b ae df 3d 96 77 39 3e 07 09 09 bd a9 22 a9 3d
       0.10921975 0.18112025 -0.033455875 0.08258564
000140 9b 9b 8f be 1d fb 1d 3e 67 3b b8 bd 86 6c 8a 3e
       -0.28048405 0.15427823 -0.08995705 0.27035922
000150 23 1d 6e be c0 74 0d bd 74 7d f4 3d 5b d2 ff 3d
       -0.23253302 -0.03453517 0.11937991 0.12491294
000160 22 6f 0c be 29 0d 92 bd d2 f3 a9 be 79 7c 07 be
       -0.13714269 -0.07131416 -0.33193833 -0.13231076
000170 6f 66 21 be 31 e5 49 3e 23 a0 43 3d ac 93 50 bd
       -0.15761732 0.19716336 0.04776014 -0.05092208
000180 c3 94 0b be 57 d8 32 3e d3 08 fc bd e1 2c b8 3d
       -0.13630967 0.1746534 -0.123063706 0.08992935
000190 bf b8 c1 3b c7 06 28 be be d8 fe 3d a7 62 4b be
       0.005911916 -0.16408835 0.12443684 -0.19861852
0001a0 a5 71 44 3e 1b 5f 46 3e 00 38 8e 3c e0 5d 73 be
       0.19183977 0.19372217 0.017360687 -0.23766279
0001b0 6f 0a 43 3e be 8b 1f 3e 81 22 99 3e 1c 6f c9 3d
       0.19046949 0.15580651 0.29909137 0.098356456
0001c0 8a 23 f0 3d 1a 0b 81 be 66 b8 75 be 08 60 43 bc
       0.117255285 -0.25203782 -0.23996124 -0.011924751
0001d0 7b b7 8e 3e 31 bb 73 3d 04 71 07 3e d5 3a 97 bc
       0.2787436 0.05950469 0.13226706 -0.01846067
0001e0 5f 39 4b be 1f b9 e3 bd f3 d5 d5 3d cf c2 57 bd
       -0.19846104 -0.111192934 0.10441198 -0.05267602
0001f0 1e f6 90 be cc e6 13 bd d1 e1 86 3e fd c0 9a 3e
       -0.28312773 -0.036108777 0.2634416 0.30225363
000200 bf 71 74 be a2 c5 45 bc e3 83 89 be 8c 9b 81 be
       -0.23871516 -0.012071045 -0.26858434 -0.25313985
000210 41 48 23 be f8 3e 63 bc 1c 2d f1 3d 25 2f 99 3d
       -0.15945531 -0.013869993 0.11776182 0.07479695
000220 5f 39 69 3d b6 01 73 3e 0a 5e 03 be 06 1c 86 3d
       0.05693948 0.23731121 -0.12828842 0.06548314
000230 f3 e1 bf 3c 31 32 f9 bc 93 f5 81 3c 3e 1c 4e 3e
       0.02342317 -0.030419441 0.01586417 0.20127961
000240 55 7d 44 be fa 72 75 3c 45 c9 4d 3e 00 19 cb 3d
       -0.19188435 0.014981026 0.2009631 0.09916878
000250 41 00 4e be 34 ab 1e be 8b 1e 4b be e5 17 dd bd
       -0.20117284 -0.15494996 -0.1983587 -0.10795573
000260 a1 b7 79 be 78 19 8a 3e b3 d9 b5 3d 6f a2 28 3d
       -0.24386455 0.26972556 0.088794135 0.041170534
000270 2d a0 54 be 1b 5a 6b bd 1b 2d 3c be b5 26 28 3e
       -0.20764227 -0.05745898 -0.18376581 0.16421016
000280 51 e6 31 3e d3 f0 6c be 54 f6 cc 3d 7e 55 03 be
       0.17373015 -0.23138742 0.10007921 -0.12825581
000290 d4 d1 9d 3e 4d 5c 48 3e e9 52 55 3d a7 6a d8 bd
       0.3082415 0.1956646 0.052081022 -0.10567217
0002a0 18 2d ec bc 39 e2 51 3e 3e 47 83 3e be c6 14 bd
       -0.028830096 0.20496453 0.2564029 -0.036322348
0002b0 3a b9 93 3e ca 9a d2 bc 88 09 5b be d5 f5 7c be
       0.28852254 -0.025708575 -0.21390355 -0.24703152
0002c0 13 99 8a 3e 93 c7 ed bd 5f f5 cf 3c f5 04 93 be
       0.2706991 -0.116103314 0.025385557 -0.2871472
0002d0 f8 96 1f be 71 4b 6c 3e 33 9c 32 3d 90 f3 8c 3e
       -0.15584934 0.23075654 0.043605994 0.27529573
0002e0 09 98 23 be d6 eb 26 3e 21 36 93 3e f2 db 9e bd
       -0.15975966 0.16300902 0.28752235 -0.07756795
0002f0 22 a8 86 be 88 aa 54 be 23 69 80 3d 6c ce e1 bd
       -0.2630015 -0.20768178 0.06270053 -0.110257
000300 af be 42 bd 69 b3 5a 3e 0b e8 9f bd 48 da dc 3d
       -0.04754513 0.21357502 -0.078079306 0.10783821
000310 b4 cc 95 be 57 b5 95 bd 87 a5 0d be 36 e8 94 3e
       -0.2925774 -0.073099785 -0.13832675 0.29083413
000320 b6 64 60 be 35 57 59 3e d7 f5 35 3d ba 86 1c be
       -0.21913418 0.21224673 0.044423904 -0.15285769
000330 4a c8 db bd b4 45 2e be 3d 46 05 bd b7 49 5a 3e
       -0.107315615 -0.17018777 -0.032537688 0.21317182
000340 ac fb 3a 3d bf 87 8e 3d 2a 01 8a bd 5f 4d 6d be
       0.04565017 0.06959485 -0.06738503 -0.23174046
000350 06 43 8d bb ae 72 ed bc 5f 5e 94 3d 45 93 8d 3e
       -0.0043109683 -0.028985348 0.07244562 0.2765142
000360 bd c2 e0 3b de 88 a9 3d dd c6 8e be 7b 39 7d 3e
       0.006859152 0.082780585 -0.27886096 0.24728958
000370 14 03 9a 3d ef 1f 80 be 51 13 01 3e 78 da 9b be
       0.07520118 -0.25024363 0.12605025 -0.30440116
000380 bb 67 65 bd cb 21 3d be c7 31 9a be 85 fa 9e bd
       -0.05600713 -0.18469922 -0.30116102 -0.077626266
000390 8e 7c c3 3d 8e e1 a7 3e e6 3f 68 3e 78 35 ab 3d
       0.09545241 0.32789272 0.22680625 0.08359808
0003a0 3e 35 0b 3e 98 60 b2 3d 07 2a 1c be a7 69 f4 3d
       0.13594529 0.0870983 -0.15250407 0.11934214
0003b0 aa 3c 93 3e 13 6b 23 be ac e8 ac 3d ab 38 1c bd
       0.2875722 -0.15958814 0.08442816 -0.03813998
0003c0 1a 4c 29 be 2a 15 dd 3d a6 7b bc bd f4 e9 a4 3e
       -0.16532937 0.10795052 -0.092032716 0.32209742
0003d0 ff c6 21 bd a7 c3 5f 3d db 33 f1 bd 6d 39 ed 3d
       -0.039496418 0.054629948 -0.11777469 0.11583219
0003e0 3d 2c 43 3b e6 a0 9f bd fa 81 e4 3c 1c 80 e3 3d
       0.0029781007 -0.07794361 0.027894009 0.11108419
0003f0 6c cd 8b bd 3e 29 3c be 64 ed e8 bd 17 e9 5e 3d
       -0.068262905 -0.18375108 -0.11373404 0.05442151

prop_h_to_h.3.bias f4 [20]
000000 43 b8 2e be c1 f3 4a 3e 17 4b 86 3e 74 08 ee 3d
       -0.17062478 0.19819547 0.26229164 0.11622706
000010 e2 ae ab 3e ef ca 44 be 5d db 0f 3e e4 47 9b 3e
       0.33531862 -0.19218038 0.14048524 0.30328286
000020 1f 7a 97 be 07 4c 98 3e d0 88 22 3b b2 23 ad be
       -0.29585359 0.29745504 0.0024800785 -0.33816296
000030 e2 a3 25 3e f7 cc 43 be d3 b9 a8 be d2 0f 23 3e
       0.16175798 -0.19121157 -0.32954273 0.15924004
000040 7c 84 2d 3d a6 53 17 3e a8 6b ac 3e 12 75 ae be
       0.042362675 0.14778003 0.33675885 -0.34073693

prop_h_to_h.4.weight f4 [20, 20]
000000 a1 b1 89 3e e9 aa 62 be 5e bb 3c bd 2b 10 92 bd
       0.26893333 -0.2213551 -0.046077125 -0.0713199
000010 04 fd 8d bd fa ec d6 3b af dc 93 be 98 11 35 be
       -0.069330245 0.0065590115 -0.28879306 -0.17682493
000020 e5 3b 1f 3e 5c 3c af 3c 4c 44 70 be 43 ee b7 3b
       0.15550192 0.021391086 -0.23463553 0.00561312
000030 6b 7f ea 3c 54 fc a1 3e 3e 52 22 3e 08 e3 97 be
       0.02862521 0.31637824 0.15851685 -0.296654
000040 4b 8c 4c be c1 76 05 be 06 de 8d 3d 60 5b 98 bd
       -0.19975393 -0.13033582 0.06927113 -0.074393034
000050 08 8b 10 bc 4d a0 23 be 0c c4 39 3d e6 8a ae bd
       -0.00882221 -0.15979119 0.04535298 -0.085225865
000060 a3 5d 77 be d1 3c 69 3d 78 40 91 be 88 0d fe bc
       -0.24156813 0.056942765 -0.28369498 -0.031012312
000070 c1 48 1e 3e 37 97 a9 bd 03 4a f7 bd 14 96 93 3e
       0.15457441 -0.08280795 -0.120746635 0.28825438
000080 f4 bf 12 be ff 00 19 3e ee 71 38 3e 9d ec 6f be
       -0.14331037 0.14941786 0.1801221 -0.23430105
000090 ff 6e 08 3e fe 91 83 be 02 33 51 be 4c b6 80 3e
       0.13323592 -0.2569732 -0.20429614 0.2513908
0000a0 e2 25 d8 bc bb d1 6c bd 09 5e 8c 3d 4d 83 a2 3d
       -0.026385251 -0.057817202 0.06853873 0.079352
0000b0 07 96 60 be 62 ff dd 3d 2d d3 d9 bd 52 ad 07 be
       -0.21932231 0.10839726 -0.10635982 -0.1324971
0000c0 4f 16 74 3e 0d 57 9f bd 3a a9 ab 3d 34 4d a0 3d
       0.23836635 -0.077802755 0.08381887 0.07827225
0000d0 12 19 2b 3d 74 37 90 3e 0a ea 56 3c ed 46 c0 bd
       0.041771956 0.28167307 0.013117323 -0.09388528
0000e0 aa 93 81 3c f6 ee a9 be f1 a7 26 be 9b 0d f3 3d
       0.015817482 -0.33190125 -0.16275002 0.118678294
0000f0 ed b6 61 bd 49 5a fc bd 57 1f d6 3c dc 11 ed bd
       -0.055106092 -0.12321908 0.02613799 -0.11575672
000100 0e d6 81 bd bb 0c a5 3e 15 65 02 be e0 30 7f be
       -0.06339656 0.32236275 -0.12733872 -0.24920988
000110 2c 6b 53 3e b4 91 28 be f0 01 62 be ca 40 6b 3e
       0.20646352 -0.16461831 -0.22071052 0.22973934
000120 29 76 be bd f7 56 0d 3e 39 03 1e bd 53 d4 bb 3d
       -0.09299881 0.13802706 -0.038577292 0.09171357
000130 99 17 18 be e8 e6 9d be 3d 65 87 3c 48 91 9b bc
       -0.14852752 -0.3084023 0.016527766 -0.018990174
000140 8f 95 a6 3e f2 14 1b 3c 97 21 60 3d 21 04 24 be
       0.3253598 0.009465443 0.054719534 -0.160172
000150 2e e5 70 be e7 93 33 3d 53 42 1d be 41 01 82 be
       -0.23524925 0.043842223 -0.15357332 -0.25391582
000160 92 c6 97 3e 5c ba 62 be f5 47 7b 3c 29 ef 8c 3e
       0.29643685 -0.22141403 0.01533698 0.27526215
000170 4c 8a d4 3d f0 cb a0 3e 5d 8a 1f 3e d5 6e db bd
       0.103779405 0.31405592 0.15580125 -0.10714499
000180 d6 07 06 3e a6 49 a1 3d 39 b8 42 be 60 2d 44 bd
       0.13088927 0.078753754 -0.19015588 -0.047894835
000190 d6 b4 66 3d ca 9c 9e bd 48 9d 29 be cb ed b3 3c
       0.056324802 -0.07744749 -0.16563904 0.021963974
0001a0 da c0 99 3c c0 6d 57 3e 16 55 d4 bd d0 b6 5f be
       0.018768717 0.2103796 -0.10367791 -0.21847081
0001b0 50 40 99 bd d4 65 97 be b0 d8 56 bb c5 0c 1c 3e
       -0.0748297 -0.29569876 -0.0032782964 0.15239246
0001c0 65 83 13 be 04 27 3a 3c d4 ca ee 3c 7f 1c a1 bc
       -0.14405592 0.011361841 0.02914945 -0.019666908
0001d0 05 b6 31 bd 4a a9 53 be 26 f2 9b 3d 05 20 95 3e
       -0.043386478 -0.20670047 0.076145455 0.2912599
0001e0 86 ec 9b 3e b7 cd 6f bd 4a c1 57 be 8f 12 0a 3d
       0.3045389 -0.058545794 -0.21069828 0.033709105
0001f0 2f ef 59 be d7 32 72 3e 8c 0e 83 be 5b 5c 90 be
       -0.21282648 0.23652206 -0.25597036 -0.28195462
000200 c5 20 75 3e 28 eb dd bd 96 fc 0b 3e bf 18 94 3e
       0.23938282 -0.10835868 0.13670573 0.2892513
000210 13 6c 07 bc 94 cc b5 bb c4 9d e9 bd a7 b5 28 be
       -0.008265513 -0.0055480693 -0.114070445 -0.16475545
000220 af 37 20 bc 60 e5 8b be 9d a0 40 bd 65 1c 80 3e
       -0.009778901 -0.27323437 -0.047028173 0.25021663
000230 b0 b9 98 bd 90 8a c9 bd 1e 11 32 be 63 f5 67 be
       -0.07457292 -0.09840882 -0.17389342 -0.22652201
000240 c6 9c 8d be 99 95 17 bd be 75 91 3d fd ea 3b bb
       -0.2765867 -0.0370079 0.07102536 -0.0028674
000250 a6 a1 52 3e 05 99 6b bd ef d4 46 be ee 6c 90 3e
       0.20569476 -0.057518978 -0.19417165 0.28208107
000260 83 df 14 3d 7b 18 85 3d 0b d6 37 3d 40 bc 0b be
       0.03634597 0.0649881 0.04488186 -0.1364603
000270 a9 99 40 be fb 8d ea bd f8 a0 ec bd e9 d5 0d 3d
       -0.18808617 -0.11452862 -0.1155414 0.03462783
000280 76 e3 2e bd 28 de 9d 3d 9a 20 7c be 04 79 65 39
       -0.042697392 0.077083886 -0.24621812 0.00021884224
000290 a6 05 86 3d 1f ef 1f 3d 70 ce 05 be 79 ec 51 be
       0.06544046 0.039046403 -0.13067031 -0.20500363
0002a0 0e 50 83 3e 5c 33 a2 39 58 26 04 be 32 03 2a 3d
       0.25647014 0.00030937314 -0.12905252 0.041506954
0002b0 b7 2e 06 3e b0 4e 91 3e d7 17 49 3e c7 91 f4 bb
       0.13103758 0.28380346 0.19638 -0.007463667
0002c0 48 4e 15 3e 9d 15 8b bd 2c f7 a5 be 74 47 98 3e
       0.14580643 -0.06791232 -0.3241514 0.29742014
0002d0 22 e3 57 3e e2 0b d8 bd fd 64 64 bd 6e 87 97 be
       0.21082738 -0.105491415 -0.055760372 -0.29595512
0002e0 33 10 0f ba ad 56 24 3e 25 ea 83 bd c3 0c 34 3d
       -0.0005457431 0.16048689 -0.06441144 0.043957483
0002f0 87 57 93 3e 79 ac 8e bd 27 82 4d be dc 7c db 3c
       0.28777716 -0.0696649 -0.2006918 0.026792936
000300 28 f0 15 be f9 72 b5 3d 5d 1d 4a 3e b8 6d b7 3d
       -0.14642394 0.0885982 0.19737764 0.08956474
000310 f2 b8 78 bc 42 38 94 be 00 61 97 be e7 39 06 bd
       -0.015180813 -0.2894917 -0.29566193 -0.032770064
000320 b7 03 e7 bd 3c 64 8e 3d ea a8 9d 3e 07 a5 46 3d
       -0.112800054 0.06952712 0.30792934 0.048497226
000330 47 d5 a4 3e d6 64 81 be 9f b9 3a 3e 66 48 95 3e
       0.32193968 -0.25272244 0.18234871 0.29156798
000340 96 6c 8d be 45 d6 80 3e ad 27 c2 bd 06 f9 77 be
       -0.27621907 0.25163475 -0.09480224 -0.24216089
000350 c9 8b 54 3e 59 96 be ba 9c a6 8a be 01 ca 02 3e
       0.20756449 -0.0014540657 -0.27080238 0.12772371
000360 11 d6 1f 3e 79 53 7f bd ed 80 74 3e e0 51 87 3d
       0.15609004 -0.062335465 0.23877306 0.06607413
000370 44 63 ca 3a 60 75 3b be 12 c8 89 bd 46 47 84 bd
       0.001544096 -0.18306494 -0.067276135 -0.06458907
000380 38 76 7e be 29 d4 a4 bd 1b 93 50 bc a1 ac dc 3c
       -0.24849784 -0.08048279 -0.012730385 0.026937785
000390 4a fa e1 3d 6f 5f 4b be 68 d5 08 bc 64 27 4a 3e
       0.11034067 -0.19860624 -0.008351661 0.19741589
0003a0 e2 d5 9d bd d4 98 43 3e e4 d0 89 3e 49 97 cf bd
       -0.077068105 0.19101268 0.26917183 -0.10136277
0003b0 df b5 29 be ec 03 8a be c4 13 94 bd 98 8d a4 3d
       -0.16573285 -0.26956117 -0.072303325 0.08034819
0003c0 9a f1 4c 3d f8 20 0c 3e 0b a7 68 3e 63 f9 96 3d
       0.050035097 0.13684452 0.22719972 0.073717855
0003d0 74 16 96 3d c7 f7 8b be 9b 6b 68 3e dc d6 8c 3e
       0.07328501 -0.27337477 0.22697298 0.27507675
0003e0 63 e2 91 be c4 35 1e 3e 1a 40 99 3d c4 e8 58 bc
       -0.28493032 0.15450197 0.074829295 -0.013239089
0003f0 43 bf e8 bd 1b f0 39 be 31 8c 64 be a0 a2 ba 3c
       -0.11364605 -0.18157999 -0.22319104 0.022782624

prop_h_to_h.4.bias f4 [20]
000000 80 ff c1 3d 2e f8 f4 3d d6 7e a7 be 44 cb d3 3c
       0.09472561 0.11961399 -0.32713956 0.02585376
000010 e2 98 9e bd 4d 56 e7 bd a2 8f 2d be 53 cb 1f bd
       -0.07744004 -0.112957574 -0.16949323 -0.039012264
000020 44 54 9d be 7f cf 34 3c 79 ea 6a 3e 58 e5 64 be
       -0.30728352 0.011035799 0.22941007 -0.22353113
000030 51 09 91 3e 1f 95 7e 3e b5 be 89 be 08 a4 87 3d
       0.2832742 0.24861573 -0.2690331 0.06623083
000040 58 c7 5c 3e 0f 4a 4c bd 66 a8 38 3e 64 ed 69 3e
       0.21560419 -0.049875315 0.18032989 0.22844464

prop_h_to_out.weight f4 [1, 20]
000000 0e 98 0a 3e 2a 32 40 3e 7a 18 20 3e de 57 ba 3d
       0.13534567 0.18769136 0.15634337 0.090987906
000010 d5 d4 85 3e 58 60 01 3e e1 45 ae 3e d2 65 cb 3d
       0.2613894 0.12634408 0.34037688 0.0993153
000020 0f ef 70 3e ff 4c 4f 3e 89 cc 38 be ed 23 dc 3d
       0.23528694 0.20244215 -0.18046774 0.1074904
000030 90 90 84 be 64 6f 82 be 86 ee 1b 3e 26 1e 3f be
       -0.25891542 -0.2547561 0.15227708 -0.18663844
000040 87 76 30 be be bf 99 3e b6 f6 44 bd 81 d7 2d be
       -0.17232715 0.300291 -0.048086844 -0.1697674
