model-probRNN-DDPG/model-prob/pi.pth (torch, 8354 bytes, 11 tensors)

prop_in_to_h.weight f4 [16, 5]
0	0xbe24d7ad	-0.16097899
1	0x3e0a3b2d	0.13499136
2	0xbe8fc276	-0.2807805
3	0x3e6c731e	0.23090789
4	0xbe9c5b64	-0.30538476
5	0x3f0829b9	0.53188664
6	0x3f12e2b9	0.573772
7	0x3e85abc5	0.26107612
8	0x3e965727	0.29363367
9	0xbe635233	-0.22199325
10	0xbf0d8a05	-0.55288726
11	0x3cd8e084	0.026474245
12	0xbf19b87d	-0.6004713
13	0x3ecefd7a	0.40427762
14	0xbe415cd3	-0.18883066
15	0x3eac95ca	0.3370803
16	0x3dfc144f	0.12308561
17	0xbf0c1bd8	-0.54729986
18	0xbe5bc8c1	-0.214633
19	0x3ea1fcc7	0.31638166
20	0x3e5ddfc3	0.2166739
21	0xbefcc47d	-0.4936866
22	0x3d6870c9	0.056748185
23	0xbdf2bbb0	-0.11852205
24	0x3efea17b	0.49732575
25	0x3dbdc0e2	0.09265305
26	0x3eaf81e0	0.34278774
27	0x3e075d13	0.13219099
28	0xbdab9970	-0.08378875
29	0x3f1a8a48	0.6036725
30	0x3eb7e0b4	0.35913622
31	0x3c36a8c3	0.011148634
32	0xbe4fab94	-0.20280296
33	0xbe5d693d	-0.21622176
34	0x3ed5f47e	0.41788095
35	0x3dbb0043	0.09130909
36	0x3e71abca	0.23600689
37	0xbe81153a	-0.25211507
38	0xbe8d7b32	-0.27633053
39	0xbdeaac23	-0.11458614
40	0xbefad311	-0.48989156
41	0x3d39cad7	0.04535946
42	0xbebc48dd	-0.3677434
43	0x3da6e840	0.08149767
44	0x3f6b2447	0.9185223
45	0x3e575071	0.2102678
46	0x3de8883c	0.1135411
47	0xbd9f2d5c	-0.077723235
48	0x3e48c341	0.19605733
49	0x3ef42fc6	0.47692698
50	0xbef9dc41	-0.48800853
51	0x3e9e180e	0.30877727
52	0xbd588266	-0.052858733
53	0x3d55e5f1	0.052221242
54	0x3ec65c1d	0.38742152
55	0x3cdffa70	0.027341098
56	0xbf0429c6	-0.5162624
57	0xbd9267c5	-0.07148699
58	0x3ea72e9c	0.32652748
59	0x3ea63f0b	0.32469973
60	0xbf271e61	-0.6528073
61	0xbd8a7ac2	-0.067616954
62	0xbeaa37a0	-0.33245564
63	0x3e8e0bdf	0.27743432
64	0x3e85b0a7	0.26111338
65	0xbdf224bb	-0.11823412
66	0x3e79cbcf	0.24394153
67	0xbdc6b9bc	-0.09703395
68	0xbe452329	-0.19251694
69	0x3f05cdb2	0.5226699
70	0x3ef7c700	0.48394012
71	0x3eb6ba4b	0.35689005
72	0x3cf24844	0.029575475
73	0xbd8b72e3	-0.06809022
74	0x3f231ca0	0.63715553
75	0x3eab8dc4	0.33506596
76	0x3f233e1b	0.6376664
77	0x3ec00282	0.37501913
78	0x3d89a155	0.06720225
79	0x3e9f4f4a	0.3111518

prop_in_to_h.bias f4 [16]
0	0xbe9184de	-0.28421682
1	0xbe95599f	-0.29169938
2	0x3ea0bc34	0.31393588
3	0x3e75376b	0.23946922
4	0x3e56b5a4	0.20967728
5	0x3c26053e	0.010133086
6	0x3d856ae4	0.065145284
7	0x3e73d821	0.23812915
8	0x3e4856e7	0.195644
9	0xbd86bbd2	-0.06578793
10	0xbec04e9c	-0.37559974
11	0x3ec228bb	0.379217
12	0x3dd9fb5f	0.10643648
13	0xbc64ff28	-0.01397685
14	0xbb990c21	-0.0046706353
15	0xbe58e1f0	-0.21179938

prop_h_to_h.0.weight f4 [16, 16]
0	0xbac578fa	-0.0015065961
1	0x3e8c9bb8	0.27462554
2	0x3e64af46	0.22332487
3	0x3e73459b	0.23757021
4	0xbe228467	-0.1587082
5	0x3ddb9b8e	0.10723029
6	0x3da7ba03	0.08189776
7	0x3e1ee243	0.15516
8	0xbdec6082	-0.11541845
9	0x3d4e2aea	0.050333895
10	0xbe866e2b	-0.26255926
11	0xbc59f659	-0.013303363
12	0x3ac659d7	0.0015132976
13	0x3ddcf2b4	0.107884794
14	0x3eb48c06	0.3526308
15	0x3e3a84cb	0.18214719
16	0xbd47761e	-0.04869663
17	0xbbeb66f2	-0.007183903
18	0x3d03d00f	0.032180842
19	0x3ec462db	0.3835667
20	0x3ec99153	0.39368686
21	0xbecbb140	-0.3978367
22	0xbd472593	-0.048619818
23	0xbe95519a	-0.2916382
24	0xbda9420e	-0.08264552
25	0x3e12cfce	0.14337084
26	0xbe8e4661	-0.2778807
27	0x3e04bbd1	0.12962271
28	0xbce77f92	-0.028259072
29	0x3d7348db	0.059395652
30	0xbe9a73ac	-0.30166376
31	0xbe8dfc6c	-0.27731645
32	0x3e208af4	0.15678006
33	0x3db43557	0.08799236
34	0xbe8556d6	-0.26042813
35	0x3deee77b	0.11665245
36	0x3d0197fe	0.03163909
37	0xbe03507b	-0.1282367
38	0x3cf5e7a9	0.03001769
39	0xbe18cf24	-0.14922768
40	0x3c594d8e	0.013263119
41	0x3eb590d0	0.35462046
42	0xbe1654a2	-0.14680722
43	0x3e73b5ee	0.2379987
44	0xbe0963dd	-0.13417001
45	0xbd24b499	-0.040211294
46	0xbe471fa7	-0.19445668
47	0x3d021d72	0.031766362
48	0x3d07e8c2	0.03318096
49	0xbec2981d	-0.38006678
50	0x3f35eb05	0.71061736
51	0x3f621bf3	0.883239
52	0x3ea62dc0	0.3245678
53	0x3ea0b877	0.31390736
54	0xbbe19b8d	-0.006884998
55	0xbcfa9182	-0.030586962
56	0x3f0e3eb3	0.5556442
57	0x3f17e3ac	0.59331775
58	0xbe03f5b2	-0.12886694
59	0x3e020710	0.12698007
60	0x3f41ce72	0.75705636
61	0x3eba612d	0.36402264
62	0x3e81a660	0.25322247
63	0xbe8d6f6e	-0.27624077
64	0x3b6efbe9	0.0036466068
65	0xbe4182f8	-0.18897617
66	0x3ec0e85c	0.37677276
67	0x3ea0d13d	0.31409636
68	0xbd484d00	-0.048901558
69	0xbe56fdaa	-0.20995203
70	0xbea9006f	-0.33008143
71	0x3e53d724	0.20687538
72	0x3e24b389	0.16084112
73	0x3e9b31ee	0.3031153
74	0x3dbfbf62	0.09362675
75	0xbe40ff07	-0.18847285
76	0x3defa324	0.117010385
77	0x3e4709c9	0.19437326
78	0xbdffeb4d	-0.12496052
79	0xbed34719	-0.4126518
80	0xbeb4d809	-0.35321072
81	0x3d81b61e	0.06333564
82	0xbf12dd07	-0.5736851
83	0xbf450892	-0.769662
84	0xbda69a7e	-0.08134936
85	0xbdcfc5c6	-0.10145144
86	0xbe19160b	-0.14949815
87	0xbdedac1d	-0.11605094
88	0xbf417da0	-0.75582314
89	0xbf0062cd	-0.5015076
90	0xbe850805	-0.2598268
91	0x3e499798	0.19686735
92	0xbe37e1d3	-0.17957239
93	0xbe4865a1	-0.19570018
94	0x3e1da9cb	0.15396802
95	0x3e5e63ed	0.21717806
96	0x3e018c86	0.12651262
97	0x3e0472e6	0.12934455
98	0xbccc2697	-0.024920745
99	0x3d249af2	0.04018683
100	0xbdf2f649	-0.118633814
101	0xbe6820c6	-0.22668752
102	0x3da1c03c	0.07897994
103	0xbdb6d65a	-0.08927603
104	0xbc8b3c2e	-0.01699647
105	0xbd9d0fb5	-0.076690115
106	0x3d872389	0.06598575
107	0xbdbd56d5	-0.092450775
108	0xbd909bf8	-0.07060999
109	0xbc56e92d	-0.013117117
110	0xbdf1e648	-0.11811501
111	0x3e69997c	0.22812456
112	0x3d5f5e45	0.05453326
113	0x3e8ba1a8	0.2727177
114	0xbe36051b	-0.17775385
115	0xbd4b9131	-0.049699012
116	0xbcc28934	-0.023747064
117	0x3dbf996a	0.09355433
118	0xbd005948	-0.031335145
119	0x3e0f9035	0.14019854
120	0xbec8210d	-0.39087716
121	0xbce9b7fa	-0.02853011
122	0xbde27e52	-0.1105925
123	0x3e19f713	0.15035658
124	0xbe8bf4e1	-0.27335265
125	0x3ddace68	0.106839
126	0x3dd55705	0.10416988
127	0x3e9861d3	0.29762134
128	0x3d51c2bf	0.051211115
129	0xbd531471	-0.051533166
130	0x3ea7e351	0.32790616
131	0x3e44da47	0.19223891
132	0x3da29b36	0.079397604
133	0xbd017b57	-0.031611767
134	0x3e0c3cde	0.13695094
135	0x3df8fd30	0.12157667
136	0x3ea0f1e9	0.31434563
137	0x3ed08293	0.4072462
138	0xbdbbbb80	-0.09166622
139	0xbc74e32e	-0.014946742
140	0xbd2e53a1	-0.042560223
141	0x3ea6b1bc	0.32557476
142	0x3dfa00ce	0.12207185
143	0xbec48de1	-0.38389495
144	0xbdb7af59	-0.08968992
145	0xbe5f076f	-0.2178018
146	0xbdabd48c	-0.083901495
147	0x3ecb428e	0.39699215
148	0x3ed66c13	0.4187933
149	0xbd965add	-0.073415495
150	0xbe4414dd	-0.19148584
151	0x3e0693a9	0.13142265
152	0x3b9bf0fb	0.0047589517
153	0x3ea658a4	0.32489502
154	0x3c9a944e	0.018869545
155	0x3e63b291	0.22236086
156	0x3d677b99	0.056514356
157	0x3de237c5	0.110457934
158	0xbe280032	-0.16406325
159	0xbe5e13d3	-0.2168725
160	0x3e45bd7d	0.19310565
161	0x3bd72bc7	0.006566498
162	0x3c93ac58	0.018026516
163	0x3e8aa534	0.27079165
164	0xbe119218	-0.14215887
165	0xbea20b26	-0.3164913
166	0xbdff5344	-0.124670535
167	0xbe17d9cb	-0.14829175
168	0xbc807aa6	-0.015683483
169	0x3e82d0fb	0.25550064
170	0x3e3bdc2b	0.18345706
171	0x3d87bdb2	0.066279784
172	0xbdcb849f	-0.09937405
173	0x3eee2992	0.4651609
174	0xbe16bd97	-0.1472076
175	0xbdd259d4	-0.102710396
176	0x3d11f1cf	0.035630997
177	0xbd7b49f2	-0.061349817
178	0x3e5e691f	0.21719788
179	0x3e59ecfd	0.2128181
180	0x3eb06f0b	0.3445972
181	0xbecc31f4	-0.3988186
182	0xbe915c35	-0.2839066
183	0xbe4988bf	-0.1968107
184	0xbef56944	-0.47931874
185	0xbcbe0587	-0.023195995
186	0xbda6f4c6	-0.081521556
187	0xbd590943	-0.05298735
188	0x3ca7d161	0.020485582
189	0x3da8485e	0.08216928
190	0xbe503402	-0.2033234
191	0xbe1a1d23	-0.15050177
192	0x3e73d17c	0.2381038
193	0xbd8c9ec5	-0.068662204
194	0xbe4824ca	-0.19545284
195	0xbea0125e	-0.31264013
196	0xbea9b090	-0.3314252
197	0x3eb5d69a	0.3551529
198	0x3e2dfc5a	0.16990796
199	0xbe79346c	-0.24336404
200	0x3f0f0637	0.5586886
201	0x3c951d25	0.018202374
202	0x3e652b81	0.22379877
203	0x3d7345f4	0.059392884
204	0x3e2ea5d4	0.17055446
205	0xbe093c6f	-0.1340196
206	0x3e8104f3	0.25199088
207	0xbeddbe52	-0.43309265
208	0xbd8e8307	-0.06958585
209	0xbd6ee32d	-0.05832212
210	0x3ed17ad3	0.4091402
211	0x3e46a6de	0.19399592
212	0xbe0e93d4	-0.1392358
213	0x3e20e974	0.15714055
214	0x3eb9cfd2	0.36291367
215	0xbd94d5bf	-0.07267331
216	0x3eb415d0	0.35172892
217	0x3d174626	0.036932133
218	0xbe1a477f	-0.15066336
219	0xbd0617de	-0.032737605
220	0x3d79487d	0.060860146
221	0x3eb8d719	0.36101606
222	0x3dff80c4	0.12475732
223	0xbe9f39b3	-0.3109871
224	0x3dc35bd7	0.095390014
225	0xbd8f23b9	-0.069892354
226	0xbea78c85	-0.32724395
227	0xbeca5c9b	-0.39523777
228	0x3e10a926	0.14127025
229	0x3dddf40b	0.10837563
230	0xbe1c1160	-0.15241003
231	0xbde41e92	-0.11138643
232	0xbe34d2e3	-0.17658572
233	0xbe690769	-0.22756733
234	0xbc2429cc	-0.010019731
235	0xbc9d6661	-0.019213857
236	0xbde69ed4	-0.11260763
237	0xbed1e528	-0.40995145
238	0xbd730d13	-0.05933864
239	0x3e8a5b07	0.27022573
240	0xbcaedf59	-0.021346735
241	0x3e3ca6d6	0.18423018
242	0x3e7e04fc	0.24806589
243	0xbec59e90	-0.38597536
244	0xbeb97029	-0.36218384
245	0x3eb3f0ad	0.3514456
246	0xbdc61cdf	-0.096734755
247	0xbe340c11	-0.17582728
248	0x3cd09688	0.025462404
249	0x3c993e7a	0.018706549
250	0x3d8d91f0	0.06912601
251	0xbe2549d4	-0.16141444
252	0x3e58a9a6	0.21158466
253	0xbe198f26	-0.14996013
254	0x3e07739d	0.13227697
255	0xbdb56faf	-0.088591926

prop_h_to_h.0.bias f4 [16]
0	0xbe034772	-0.12820223
1	0x3e7fa4df	0.24965237
2	0x3da30a34	0.079609305
3	0x3e34a042	0.17639259
4	0x3bb2d3d8	0.0054573826
5	0x3e0c4252	0.13697174
6	0xbe10d0ea	-0.14142194
7	0x3d9eabc1	0.07747603
8	0xbdb816cc	-0.08988723
9	0x3b8c3b9c	0.004279567
10	0x3d50cc5a	0.050976135
11	0x3e75f990	0.24020982
12	0x3da52e3e	0.080654606
13	0xbd60b706	-0.054862045
14	0x3e53913e	0.20660874
15	0xbd6771bc	-0.05650495

prop_h_to_h.1.weight f4 [16, 16]
0	0xbccec3e3	-0.02523989
1	0x3a92f804	0.001121283
2	0x3e3fde1a	0.18737069
3	0x3eed8a9f	0.46394822
4	0xbc2efe02	-0.010680677
5	0xbe488e89	-0.19585623
6	0xbe2752cc	-0.16340178
7	0xbf0558e8	-0.52088785
8	0x3d4b68c0	0.049660444
9	0x3e413dca	0.18871227
10	0x3e818a5c	0.25300872
11	0xbc78667f	-0.015161156
12	0x3ede9fe3	0.4348136
13	0x3ee3bb9b	0.4447907
14	0xbe1a7d6d	-0.15086909
15	0x3d543df2	0.05181689
16	0x3e2a26dc	0.16616386
17	0x3e9d4ffb	0.30725083
18	0x3d177b89	0.036983047
19	0xbccf3a0b	-0.025296232
20	0xbd945b01	-0.0724392
21	0xbe31f04e	-0.17376825
22	0x3ea763c4	0.32693303
23	0x3e77f5a0	0.24214792
24	0x3c368c7e	0.011141894
25	0x3daffe18	0.085933864
26	0xbc650810	-0.013978973
27	0x3ee5820e	0.44825786
28	0x3d203d6b	0.039121073
29	0xbe10babc	-0.14133734
30	0xbdfbd0cd	-0.12295685
31	0xbe462c58	-0.19352853
32	0xbec59771	-0.38592103
33	0xbe092285	-0.13392074
34	0xbc35e18c	-0.011101138
35	0x3f03cdb8	0.51485777
36	0x3e971089	0.29504803
37	0xbe9a5a4a	-0.3014701
38	0xbe9478b7	-0.28998348
39	0xbea5ac72	-0.32358128
40	0xbc121f8b	-0.008918653
41	0xbdb168f6	-0.08662598
42	0x3e959671	0.2921634
43	0xbe9821c5	-0.29713264
44	0x3f00b600	0.5027771
45	0x3e8ded31	0.27720025
46	0x3cf87ccd	0.030332947
47	0xbe989e3a	-0.29808217
48	0xbdc4be23	-0.09606578
49	0x3e7fb61d	0.24971814
50	0x3e5182e9	0.20460095
51	0xbece905b	-0.4034451
52	0xbde26f5c	-0.11056396
53	0x3e16c572	0.14723757
54	0x3e353292	0.17695072
55	0x3e19784c	0.14987296
56	0xbe8ebbdd	-0.27877703
57	0x3e95582e	0.29168838
58	0x3dad4745	0.08460859
59	0x3ebc879a	0.36822206
60	0xbad84176	-0.0016499001
61	0x3d3bc658	0.045843452
62	0x3e4cd08a	0.20001426
63	0x3d2ed35e	0.042682044
64	0xbdd17547	-0.10227447
65	0x3e926956	0.2859599
66	0x3d8aff64	0.06786993
67	0xbddbad58	-0.10726422
68	0xbe0c17c8	-0.13680947
69	0x3daec344	0.08533338
70	0x3e24ab1c	0.16080898
71	0xbd368aaa	-0.044565834
72	0xbea8896d	-0.32917348
73	0x3e6a3141	0.22870351
74	0x3b0c5334	0.0021411898
75	0xbd123650	-0.035696328
76	0xbea52bdb	-0.32260022
77	0xbe850074	-0.25976908
78	0x3deffff5	0.11718742
79	0xbe1f685a	-0.1556715
80	0xbdad6b7b	-0.08467766
81	0xbe80c735	-0.25151983
82	0xbde2ae3a	-0.11068387
83	0xbec6b222	-0.3880778
84	0xbe85d179	-0.26136377
85	0x3ed965e9	0.42460564
86	0x3b3988af	0.002831023
87	0x3eadf199	0.33973387
88	0xbe5fd9a1	-0.21860363
89	0xbc2d9674	-0.010594953
90	0xbdc2ea07	-0.095172934
91	0xbe2acca6	-0.1667963
92	0xbdf25ab3	-0.11833706
93	0xbe79d08b	-0.24395959
94	0xbe2d5dc2	-0.16930297
95	0x3e674da2	0.22588208
96	0xbe29d607	-0.16585551
97	0xbe0b7293	-0.13617925
98	0xbd4a2c0e	-0.04935842
99	0x3d7f1ccc	0.062283322
100	0xbddf542e	-0.10904728
101	0x3eed26d0	0.46318674
102	0x3c1274c1	0.008938969
103	0x3ebc06e5	0.3672401
104	0xbe6231bf	-0.22089289
105	0xbdb68908	-0.089128554
106	0xbebdf687	-0.37102148
107	0x3d8ee1df	0.06976675
108	0x3e494f8e	0.19659254
109	0x3c8d154c	0.01722207
110	0x3edc47bb	0.43023476
111	0x3c99a9f3	0.018757796
112	0x3e36a447	0.17836104
113	0x3da0dc2f	0.07854497
114	0xbdf9bb84	-0.12193969
115	0xbe9202be	-0.28517717
116	0x3d9f0e6b	0.07766422
117	0x3da6857f	0.08130931
118	0xbed4c32d	-0.41555157
119	0xbd3354fb	-0.043782216
120	0xbe2c2d01	-0.16814043
121	0xbeb2103b	-0.34778008
122	0xbc1920f9	-0.00934624
123	0xbde75c92	-0.11296953
124	0xbe01e8a5	-0.12686403
125	0xbe194b10	-0.1497004
126	0xbd17bff4	-0.037048295
127	0x3df9002f	0.12158238
128	0x3dff5b72	0.12468614
129	0x3d8bfc6f	0.06835257
130	0xbe4e2752	-0.20132187
131	0xbd595fa8	-0.05306974
132	0x3c78edd8	0.015193425
133	0xbe690e31	-0.2275932
134	0x3e2b49c9	0.16727366
135	0xbc80e8f9	-0.01573609
136	0x3e3b068b	0.18264215
137	0x3c62e97d	0.013849613
138	0x3d92ebac	0.07173857
139	0x3ea20cd4	0.31650412
140	0xbebced12	-0.3689962
141	0x3d94cec7	0.07266002
142	0xbd92084f	-0.07130491
143	0x3e048c04	0.12944037
144	0xbdb749dc	-0.089496344
145	0xbdab0962	-0.08351399
146	0xbd8ee735	-0.06977693
147	0xbeedb7a7	-0.46429178
148	0xbe863261	-0.2621031
149	0x3eba238c	0.36355245
150	0xbe4b4c8b	-0.19853418
151	0x3eb71772	0.35760075
152	0x3b990a6e	0.004670433
153	0x3c405302	0.011738541
154	0x3e67ce5f	0.22637318
155	0x3dcaab17	0.09895914
156	0xbdabda3a	-0.08391233
157	0xbe611bb3	-0.21983223
158	0x3e846ee5	0.25865856
159	0x3e4150da	0.18878499
160	0x3d8f1188	0.06985766
161	0x3e8f1c7b	0.27951416
162	0x3e0fe0f4	0.14050657
163	0xbf3e849c	-0.74421096
164	0xbdc61b14	-0.096731335
165	0x3f0658d4	0.5247929
166	0x3d40a5af	0.04703301
167	0x3e480a36	0.19535145
168	0xbeb4f9d0	-0.35346842
169	0x3d28225e	0.0410484
170	0x3cdaa762	0.026691142
171	0x3e125e41	0.14293768
172	0x3e19e964	0.15030438
173	0xbe9a9155	-0.30189005
174	0x3e4cb143	0.19989495
175	0xbe19c7f3	-0.15017681
176	0x3db1f8dc	0.08690044
177	0xbe98b0c5	-0.29822364
178	0x3e1142fb	0.14185707
179	0xbee19b80	-0.4406395
180	0xbd880c38	-0.066429555
181	0x3f1a9204	0.6037905
182	0xbe88ee83	-0.2674447
183	0x3eafdc85	0.3434793
184	0xbe3d7862	-0.18502954
185	0xbe9cce08	-0.3062594
186	0xbe421c89	-0.18956198
187	0xbdc48af6	-0.09596817
188	0xbd8c09e8	-0.06837827
189	0xbe8962dc	-0.26833236
190	0x3e348c62	0.17631677
191	0xbe0337b2	-0.12814215
192	0xbea4ee80	-0.3221321
193	0x3eb254f0	0.34830427
194	0x3cde13a7	0.02710898
195	0xbdb80dff	-0.089870445
196	0x3d8a038b	0.06738957
197	0x3e233d2c	0.15941304
198	0x3e8c7844	0.27435505
199	0x3e9c403e	0.30517763
200	0xbe2b410b	-0.1672403
201	0x3e870bd9	0.26376227
202	0x3d1caa78	0.03824851
203	0x3c8e8edb	0.017402103
204	0xbe4b7988	-0.19870579
205	0xbe9cc5ec	-0.30619752
206	0x3eec2c9f	0.46127793
207	0xbe4f736b	-0.20258872
208	0x3d68565f	0.056722995
209	0x3e2abc8b	0.16673486
210	0x3e60a78e	0.21938917
211	0xbec99e91	-0.3937879
212	0xbd90424e	-0.070438966
213	0x3e8195e2	0.25309664
214	0xbe4213cd	-0.18952866
215	0x3dd8a4fa	0.10578342
216	0xbeb37348	-0.3504889
217	0x3e2d6701	0.16933824
218	0xbe292e6c	-0.16521615
219	0x3d7715f5	0.060323674
220	0x3d62b3f2	0.05534739
221	0xbec97347	-0.39345762
222	0x3d4a0c6d	0.049328256
223	0xbe81eca4	-0.25375855
224	0xbe85a3d6	-0.2610156
225	0x3dd029f1	0.1016425
226	0xbcb005bc	-0.02148711
227	0x3ea995dc	0.33122146
228	0x3e6bf2e8	0.2304188
229	0xbed57345	-0.41689506
230	0x3de0badf	0.10973143
231	0xbdcce013	-0.10003676
232	0x3e9e84e7	0.3096077
233	0x3e426d9f	0.1898713
234	0x3c542f79	0.0129507715
235	0xbacdeae0	-0.0015710257
236	0x3d365efc	0.044524178
237	0xb9ad91d0	-0.0003310577
238	0xbe30d318	-0.17268026
239	0x3df06330	0.117376685
240	0xbdef1358	-0.116736114
241	0xbdd02282	-0.10162832
242	0xbe3f0481	-0.18654062
243	0x3e68c612	0.22731808
244	0xbd004c43	-0.03132273
245	0x3d986ab7	0.07442229
246	0x3d225dcc	0.039640233
247	0xbd010fd4	-0.031509236
248	0x3e626a31	0.22110821
249	0x3e66344c	0.22480887
250	0xbe571801	-0.2100525
251	0x3e2d5afe	0.16929242
252	0xbe5b56df	-0.21419857
253	0x3e5a4a98	0.21317518
254	0xbe9676ee	-0.2938761
255	0xbe8c960d	-0.2745823

prop_h_to_h.1.bias f4 [16]
0	0xbe3f87c3	-0.18704133
1	0xbe13b6d1	-0.14425208
2	0x3deebfd2	0.116576806
3	0xbe2bdfdc	-0.16784614
4	0x3c2b0c17	0.010439894
5	0x3e74b710	0.23897958
6	0x3e4c4d25	0.19951303
7	0x3e36eff4	0.17864972
8	0x3dc4198b	0.095751844
9	0x3e61f018	0.22064245
10	0xbce7ad31	-0.028280826
11	0x3e8808de	0.26569265
12	0xbdefb0d1	-0.11703647
13	0xbd9ca756	-0.07649104
14	0xbe675bb1	-0.22593571
15	0xbe2430a7	-0.16034184

prop_h_to_h.2.weight f4 [16, 16]
0	0x3c868519	0.016420888
1	0xbdf056ea	-0.117353275
2	0x3e1bdb41	0.15220357
3	0xbe89e2b0	-0.2693076
4	0xbe01a783	-0.12661557
5	0xbd46cdc1	-0.048536066
6	0xbcdac4c3	-0.026705151
7	0xbd68baf7	-0.05681893
8	0xbd3f56ff	-0.046713825
9	0xbdb6a477	-0.08918088
10	0x3dfb21c3	0.12262299
11	0xbe3bb7c7	-0.18331824
12	0xbe31e0ac	-0.17370862
13	0xbe24cc60	-0.16093588
14	0x3eae3941	0.34028056
15	0x3eb1a3de	0.34695333
16	0x3dbacbd2	0.09120907
17	0x3e1d4055	0.15356572
18	0xbdcf9e7e	-0.10137652
19	0x3d2c88e2	0.04212273
20	0x3e31f9c9	0.17380442
21	0xbe236390	-0.15955949
22	0x3d008039	0.031372283
23	0x3d962165	0.07330588
24	0xbd8c98ee	-0.068651065
25	0x3c253f65	0.010085915
26	0x3de44166	0.11145286
27	0xbcf33a72	-0.029690955
28	0xbdda0888	-0.106461585
29	0xbdd3de8f	-0.10345184
30	0x3c385041	0.011249603
31	0xbe3acd17	-0.18242298
32	0xbeea780c	-0.45794713
33	0xbe5e1cf9	-0.2169074
34	0xbe4cf3ea	-0.20014921
35	0x3e3942e9	0.1809193
36	0x3e0782d9	0.13233508
37	0x3de31918	0.11088771
38	0x3ed12b2e	0.40853256
39	0xbcc30bf3	-0.023809409
40	0x3c87fec2	0.01660097
41	0x3ee03110	0.43787432
42	0x3e84ec9e	0.25961775
43	0x3e9b5603	0.3033906
44	0x3e8e387f	0.27777478
45	0x3e999b0b	0.300011
46	0xbeeb6478	-0.4597509
47	0xbdbc08b5	-0.09181348
48	0x3b863a41	0.0040963
49	0xbde143f3	-0.109992884
50	0x3eca8081	0.39551166
51	0x3dc809dc	0.097675055
52	0xbe88d01a	-0.2672127
53	0xbe161de1	-0.14659835
54	0xbd9f0a7c	-0.077656716
55	0xbea8a1a5	-0.32935825
56	0x3e0e6b04	0.1390801
57	0xbdd1963a	-0.102337316
58	0xbe89d8fa	-0.26923352
59	0xbdc97865	-0.098374166
60	0x3e313647	0.17305861
61	0xbe76d71c	-0.24105495
62	0x3e4a0f0a	0.197323
63	0x3e05d2ad	0.13068648
64	0x3e2b7b29	0.167462
65	0x3e6139ea	0.21994749
66	0x3d961b61	0.07329441
67	0xbd637b68	-0.05553761
68	0x3e624cd1	0.22099616
69	0xbe95cd6e	-0.29258293
70	0xbda90652	-0.08253159
71	0xbe9e66c3	-0.30937776
72	0x3da7dc03	0.08196261
73	0xbd906991	-0.07051385
74	0x3ddb6a82	0.10713674
75	0xbd9eef85	-0.077605285
76	0x3ebb0a4b	0.3653129
77	0x3d9dff90	0.0771476
78	0x3e89ff26	0.26952475
79	0x3e8e66df	0.2781286
80	0x3e676107	0.22595607
81	0x3d5e900b	0.05433659
82	0x3d96259d	0.07331393
83	0xbe8b5e2f	-0.27220294
84	0xbe6c2fc1	-0.23065092
85	0xbe84aebf	-0.2591457
86	0xbe408b26	-0.18803081
87	0xbe488b6e	-0.19584438
88	0x3d297867	0.04137459
89	0xbec53b98	-0.3852203
90	0xbe922945	-0.2854711
91	0xbd90ee01	-0.07076646
92	0x3e2dc4b5	0.16969569
93	0xbe6135dd	-0.21993203
94	0x3e857251	0.2606378
95	0x3e5d63de	0.21620128
96	0x3e6c5d97	0.23082577
97	0xbe5139ec	-0.20432252
98	0x3ed08bf7	0.40731785
99	0x3d95f8cd	0.073228456
100	0x3e20173b	0.15633862
101	0xbe4a8814	-0.19778472
102	0x3e4945e4	0.19655567
103	0xbe6596e5	-0.22420843
104	0xbe8f6ae5	-0.28011242
105	0xbe3eebb6	-0.18644604
106	0x3c215ee1	0.009849281
107	0xbe17c829	-0.14822449
108	0xbdbd4fdc	-0.092437476
109	0xbd44c148	-0.04803589
110	0x3e944dd1	0.2896562
111	0x3e3d822a	0.18506685
112	0x3e12b25c	0.14325851
113	0xbda67b1f	-0.08128952
114	0x3e11766f	0.14205335
115	0x3b90d791	0.004420229
116	0x3ce18158	0.027527496
117	0x3cfbb27e	0.03072476
118	0xbea5f4ae	-0.32413238
119	0xbda8ba9c	-0.08238718
120	0xbdba9b97	-0.09111708
121	0x3e865c13	0.26242122
122	0x3c6a562f	0.014302774
123	0x3e34edfd	0.1766891
124	0xbe9758f3	-0.2956005
125	0xbe0dabce	-0.1383507
126	0x3cfbfd36	0.030760389
127	0xbe09c53e	-0.13454148
128	0xbd261c0b	-0.040554088
129	0x3dd642e3	0.104619764
130	0x3d85939b	0.06522294
131	0x3e8ff363	0.28115377
132	0xbc7ff11f	-0.015621453
133	0xbe061406	-0.13093576
134	0x3da4ca8a	0.08046444
135	0x3e2aa431	0.16664197
136	0x3ddef9c0	0.1088748
137	0xbcc285cb	-0.023745438
138	0x3ea6e5e7	0.32597277
139	0xbdc660c3	-0.096864246
140	0x3e1308bf	0.14358805
141	0x3d8145e7	0.06312161
142	0xbd8d4a14	-0.06898895
143	0x3cb457cc	0.022014521
144	0xbd682a88	-0.056681186
145	0x3db7b940	0.089708805
146	0x3e48c80e	0.19607565
147	0x3e44742c	0.19184941
148	0x3de2c97d	0.11073587
149	0x3e17d5fc	0.14827722
150	0x3f0681c8	0.5254178
151	0xbe362072	-0.17785814
152	0x3dd0d9af	0.1019777
153	0x3e0a74d1	0.13521124
154	0xbe525e98	-0.20543897
155	0x3d2cefd0	0.04222089
156	0x3e416e1b	0.18889658
157	0x3d84f0ee	0.06491266
158	0xbda927ce	-0.08259545
159	0x3d8ce52a	0.06879647
160	0x3e80b133	0.25135192
161	0xbe5326c4	-0.20620257
162	0xbb4374b1	-0.0029824192
163	0xbdd622be	-0.10455845
164	0x3e4a54a3	0.19758849
165	0x3e2ec7c4	0.17068392
166	0x3dd2eddf	0.102992766
167	0x3e7a7d4e	0.24461862
168	0xbd04b1b1	-0.032396022
169	0xbd92dcde	-0.07171033
170	0xbe5ab44e	-0.21357843
171	0x3bfa9ba8	0.00764795
172	0x3d3bb9f5	0.04583164
173	0x3e426b59	0.18986262
174	0x3d3dcd23	0.04633821
175	0xbdc97aea	-0.09837897
176	0xbe93f3a0	-0.2889681
177	0x3b829990	0.003985591
178	0xbe22721e	-0.15863845
179	0x3e29cbf7	0.16581713
180	0xbdf63607	-0.12022024
181	0xbd94656e	-0.07245909
182	0x3e04199a	0.12900391
183	0x3dea7206	0.114475295
184	0x3e629ae0	0.22129393
185	0x3d1ecbe7	0.038768675
186	0xbc37b317	-0.011212132
187	0xbd3d282d	-0.046180893
188	0x3c9c62c6	0.019090068
189	0x3e387140	0.18011951
190	0x3e002fb0	0.12518191
191	0x3e262a68	0.16227114
192	0xbe7dfa74	-0.24802572
193	0x3e4a1e0b	0.19738023
194	0xbe51f59c	-0.20503849
195	0x3e11eb1a	0.1424984
196	0xbd2ce623	-0.042211663
197	0x3d9c0ba1	0.076194055
198	0x3e427267	0.18988954
199	0xbc622447	-0.0138025945
200	0x3e52afd0	0.2057488
201	0xbda301d9	-0.07959337
202	0x3e02fef7	0.12792574
203	0x3e1a3fc8	0.15063393
204	0x3e1c805a	0.15283337
205	0x39945443	0.0002829154
206	0xbd9430c4	-0.07235864
207	0xbe5fcd49	-0.21855654
208	0x3ee998b9	0.4562433
209	0xbe11cb63	-0.14237742
210	0x3f017eb5	0.50583965
211	0xbe4cff9c	-0.20019382
212	0xbed5ef28	-0.41784024
213	0xbe28e0df	-0.16492032
214	0x3e3d94a7	0.18513738
215	0xbd2f44be	-0.042790167
216	0xbebf13cc	-0.3731979
217	0x3ddcc476	0.107796595
218	0xbf4077f1	-0.75183016
219	0xbe75e4b8	-0.2401303
220	0xbdd0f81c	-0.10203573
221	0xbe6b3c2b	-0.22972171
222	0x3d6f1173	0.05836625
223	0x3e4befc8	0.19915688
224	0xbb6d6873	-0.0036225587
225	0xbde7215d	-0.112856604
226	0x3c6ce40f	0.01445867
227	0x3ebb3f71	0.3657184
228	0x3dac5fe6	0.08416729
229	0x3e5f0d66	0.21782455
230	0x3e08c159	0.13355006
231	0x3e7b2d05	0.24528892
232	0xbdca51d9	-0.098788925
233	0x3d6b104b	0.057388585
234	0x3e4a36ba	0.19747439
235	0x3e338281	0.17530252
236	0x3ded659d	0.11591647
237	0x3e359cbb	0.17735569
238	0xbe330f59	-0.17486323
239	0xbdf19dd0	-0.117976785
240	0x3e195423	0.14973502
241	0x3d012387	0.031528022
242	0x3eae1b91	0.34005406
243	0xbd247b45	-0.04015662
244	0xbe9944db	-0.29935345
245	0x3bdfb003	0.006826402
246	0xbc05c775	-0.00816523
247	0xbe368c0e	-0.17826864
248	0x3dcb5113	0.09927573
249	0xbd30c4a9	-0.0431563
250	0xbde27cb6	-0.11058943
251	0xbe9a69c8	-0.3015883
252	0xbe99105a	-0.29895288
253	0xbe1fad8d	-0.15593548
254	0x3ec03170	0.37537718
255	0x3e0065b2	0.12538794

prop_h_to_h.2.bias f4 [16]
0	0xbe7afe12	-0.24510983
1	0xbe68a6dc	-0.22719902
2	0xbd517a40	-0.051141977
3	0xbddbae9f	-0.10726666
4	0x3d006cc0	0.031353712
5	0x3cf84a5c	0.030308895
6	0xbe761748	-0.24032319
7	0xbe4304c8	-0.19044793
8	0xbc83da3a	-0.01609527
9	0x3d96b98c	0.07359609
10	0xbd2ee3a1	-0.042697553
11	0x3be7c60d	0.00707317
12	0xbe1fc932	-0.15604094
13	0x3d0e7a5f	0.03478467
14	0x3e8ad5b0	0.27116156
15	0x3d86e686	0.065869376

prop_h_to_h.3.weight f4 [16, 16]
0	0x3e73fe7e	0.2382755
1	0x3cfb8ac1	0.030705811
2	0xbe08fa6d	-0.1337678
3	0x3e2848d1	0.16434027
4	0xbd0782e6	-0.03308382
5	0x3e385d6e	0.1800439
6	0xbe2ef3e5	-0.17085226
7	0xbe5e99d0	-0.21738362
8	0x3c181215	0.009281655
9	0xbe0e93ef	-0.1392362
10	0x3d157564	0.036488906
11	0xbdd9a781	-0.10627652
12	0x3c8747aa	0.016513664
13	0x3ece2648	0.4026358
14	0xbe832eae	-0.2562155
15	0x3e8bb607	0.27287313
16	0xbe8457f0	-0.2584834
17	0xbe9ca793	-0.305966
18	0xbe03ea54	-0.12882358
19	0xbe6178b4	-0.22018701
20	0xbe885c9d	-0.26633158
21	0xbe423910	-0.1896708
22	0x3cd7ce04	0.026343353
23	0xbe74650a	-0.23866668
24	0xbe7777fe	-0.24166867
25	0xbe0ccd68	-0.13750231
26	0x3e56e7ef	0.20986913
27	0x3e0d2602	0.1378403
28	0x3c46c592	0.012132065
29	0x3e160209	0.14649214
30	0x3da8e20c	0.0824624
31	0x3b33de40	0.0027445704
32	0xbe352620	-0.17690325
33	0x3e1f871a	0.15578881
34	0xbd8fb6a8	-0.07017261
35	0xbd3cef13	-0.046126436
36	0x3db08ecd	0.08620987
37	0x3e073592	0.13204029
38	0x3d64cbca	0.05585841
39	0x3e5a8cd7	0.21342789
40	0x3e05e961	0.13077308
41	0x3d3bd7e5	0.04586019
42	0x3e5254ff	0.20540236
43	0x3d32a9e2	0.043619044
44	0x3e7b17b0	0.24520755
45	0x3bbfc6ae	0.005852542
46	0x3ea56f82	0.32311636
47	0x3dc7bd40	0.097528934
48	0xbd42a6b7	-0.047522273
49	0xbe4b1655	-0.19832738
50	0x3dcf5276	0.1012315
51	0xbebdc2fe	-0.3706283
52	0x3e4bf2af	0.19916795
53	0xbca68714	-0.020328082
54	0xbec89861	-0.39178756
55	0xbed17c12	-0.4091497
56	0x3e112e01	0.14177705
57	0x3e211776	0.15731606
58	0x3db93d94	0.09044948
59	0x3e07d8cf	0.132663
60	0x3cf9c52c	0.030489527
61	0xbeb6b0d4	-0.35681784
62	0x3e8d9eaa	0.27660114
63	0xbe9c2ca4	-0.30502808
64	0xbdbdd021	-0.09268213
65	0xbd688d99	-0.056775663
66	0x3e871848	0.26385713
67	0xbe890414	-0.26760924
68	0xbdfc7441	-0.12326861
69	0x3d80b585	0.06284622
70	0x3ba1003f	0.0049133594
71	0xbe81a2fd	-0.25319663
72	0x3d8facde	0.07015394
73	0x371e1183	9.421611e-06
74	0x3db0f4a8	0.086404145
75	0xbdfd7145	-0.1237512
76	0xbe3bf4a9	-0.18355049
77	0xbe2fc449	-0.1716472
78	0x3ec40401	0.38284305
79	0xbe48879a	-0.19582978
80	0x3ce9aca4	0.028524704
81	0xbcf0d25a	-0.029397178
82	0xbe14b687	-0.14522754
83	0xbc181199	-0.009281539
84	0x3d60b748	0.05486229
85	0xbe07dd52	-0.13268021
86	0x3e288bf3	0.16459636
87	0x3df4b5bd	0.11948726
88	0x3e08efa4	0.13372666
89	0x3e2c9330	0.16853023
90	0x3e1ed571	0.15511109
91	0x3cd4b56f	0.02596542
92	0x3e61956f	0.2202966
93	0x3debb0e6	0.1150835
94	0xbe815a48	-0.25264192
95	0xbe2a6cca	-0.16643062
96	0xbd8d3a04	-0.06895831
97	0xbe0d2c2c	-0.13786381
98	0x3c1c7ec2	0.009551706
99	0x3e703229	0.23456635
100	0x3d936219	0.07196445
101	0x3e31ad0d	0.1735117
102	0x3da1662a	0.078808144
103	0x3e453b16	0.19260821
104	0xbdaa75fc	-0.08323285
105	0x3c7649a9	0.01503221
106	0x3e4eacfe	0.20183179
107	0xbc27ba64	-0.01023731
108	0x3da253c3	0.079261325
109	0x3e98b923	0.29828748
110	0xbe15b8b4	-0.1462124
111	0x3e8111bb	0.2520884
112	0xbe113495	-0.14180215
113	0x3d8e44f8	0.069467485
114	0xbdc398ea	-0.095506504
115	0xbc11c06b	-0.008895974
116	0x3ea03d9a	0.31296998
117	0x3e1e9965	0.15488203
118	0xbdfce9cc	-0.12349281
119	0x3d5a1ca5	0.053249974
120	0xbe0fee3f	-0.14055727
121	0x3e63a8e3	0.22232394
122	0x3e4fb7b9	0.20284928
123	0xbe13ea2e	-0.14444801
124	0xbdaa97e0	-0.08329749
125	0x3e197d4d	0.14989205
126	0xbdfc0a70	-0.12306678
127	0x3b1aba5f	0.002360962
128	0x3e8b4e6f	0.27208278
129	0x3b45017e	0.0030060704
130	0xbdb5d5d6	-0.088786766
131	0x3e96df49	0.29467228
132	0x3e8d5ec0	0.2761135
133	0x3aa2b8f5	0.0012414741
134	0x3e8656d6	0.26238126
135	0xbd3fc848	-0.046821862
136	0x3e91ec3e	0.2850055
137	0x3ddbc984	0.107317954
138	0x3e10afed	0.1412961
139	0x3e01b03b	0.12664883
140	0xbd3e2dc1	-0.046430353
141	0xbc9526b6	-0.018206935
142	0x3c8fc038	0.017547712
143	0x3dd615bb	0.104533635
144	0xbd741167	-0.05958691
145	0xbd29c560	-0.041447997
146	0x3c37d986	0.011221295
147	0x3cd3100e	0.025764491
148	0x3dee32b0	0.116307616
149	0xbea09b37	-0.3136842
150	0xbe7c236a	-0.24622884
151	0xbe5654fc	-0.20930856
152	0x3e1530f4	0.14569455
153	0xbcd6f5d1	-0.026240261
154	0x3e74705f	0.23870991
155	0x3e18ebc0	0.14933681
156	0x3e38c494	0.18043739
157	0xbc601a34	-0.013678122
158	0x3e64300f	0.22283958
159	0x3e378654	0.17922336
160	0x3d39c4ec	0.045353815
161	0x3cd8a4ef	0.026445834
162	0xbe232d3c	-0.15935224
163	0xbd037167	-0.03209057
164	0x3e8c72f0	0.2743144
165	0xbdc81c8b	-0.09771069
166	0x3c77687f	0.015100597
167	0xbe15e5b4	-0.14638406
168	0x3e187531	0.14888455
169	0x3e21e7a2	0.15811017
170	0x3e62ae4c	0.22136801
171	0xbd01f6ac	-0.031729385
172	0x3db3c865	0.087784566
173	0x3eb7efef	0.35925242
174	0xbe618f5b	-0.22027342
175	0xbb6bb944	-0.0035968581
176	0xbdc5e977	-0.096636705
177	0xbe3fd1b6	-0.18732342
178	0x3e43a3ba	0.19105425
179	0xbd91bf65	-0.07116584
180	0x3e7e8ba7	0.2485796
181	0x3d3eaa5d	0.04654919
182	0xbe3d46e2	-0.18484071
183	0x3e309245	0.17243297
184	0xbcf69871	-0.030101987
185	0x3e465c6b	0.19371192
186	0xbe958263	-0.2920104
187	0x3dc538dc	0.09629986
188	0x3cfa8934	0.030583002
189	0xbda46bd1	-0.08028377
190	0x3e7d4df9	0.24736775
191	0xbe697701	-0.22799303
192	0x3d5cdbf1	0.05392069
193	0xbc3aac79	-0.01139366
194	0x3e04651c	0.12929195
195	0xbd9b7082	-0.075898185
196	0xbc8e8775	-0.017398575
197	0xbd5f4473	-0.054508638
198	0xbdca83fd	-0.09888456
199	0xbe526dc7	-0.20549689
200	0xbe2de36b	-0.16981284
201	0x3ca43348	0.020043984
202	0xbe500864	-0.20315701
203	0x3e0e2608	0.13881695
204	0xbc9a96a3	-0.018870657
205	0x3e98204b	0.29712138
206	0x3e2fbd73	0.17162113
207	0x3e7b8689	0.2456304
208	0xbe88e41b	-0.2673653
209	0xbe50a560	-0.20375586
210	0x3ecc5332	0.39907223
211	0xbe9dad1b	-0.30796131
212	0x3e07e6a7	0.1327158
213	0xbebdad18	-0.37046123
214	0xbe8fc9bd	-0.28083602
215	0x3c92a5f3	0.017901396
216	0xbdb18f37	-0.08669894
217	0x3e91db09	0.28487423
218	0xbe1d8540	-0.15382862
219	0x3bfd6833	0.007733369
220	0xbe2487ed	-0.16067477
221	0xbdb39e6d	-0.08770452
222	0x3d587913	0.05284984
223	0xbe74d16b	-0.23908012
224	0xbc9c5a6c	-0.019086085
225	0x3de75c93	0.11296954
226	0xbd713f23	-0.058898102
227	0x3d8aae4b	0.06771525
228	0x3ea0aacb	0.31380305
229	0x3e39e6e6	0.18154487
230	0x3e475d37	0.19469152
231	0x3df6e621	0.12055612
232	0xbe2d1267	-0.16901551
233	0x3e681953	0.2266591
234	0xbd4bee4f	-0.049787816
235	0x3e2d5e31	0.16930462
236	0xbe46bee8	-0.19408762
237	0x3ead7165	0.33875576
238	0xbd52c288	-0.05145505
239	0x3b73f455	0.003722449
240	0x3d9ed5b7	0.077556066
241	0x3c7b0d8e	0.015323056
242	0x3e2f562d	0.17122717
243	0xbe34d81b	-0.17660563
244	0xbd378927	-0.044808533
245	0xbe43d142	-0.19122794
246	0xbdc185f6	-0.09449379
247	0x3dfb76f7	0.1227855
248	0x3de8dc73	0.11370172
249	0x3e18e4f1	0.14931084
250	0xbdb0c5d1	-0.086314805
251	0x3da81685	0.0820742
252	0xbd5fcabe	-0.05463671
253	0x3e896b13	0.26839504
254	0x3dfdb7e8	0.12388593
255	0xbd3c7858	-0.046013206

prop_h_to_h.3.bias f4 [16]
0	0xbe3b523a	-0.18293086
1	0xbdca3ae2	-0.09874512
2	0x3e5853ff	0.21125792
3	0x3d3800ba	0.044922568
4	0x3dd50146	0.104006335
5	0x3e0728aa	0.13199106
6	0xbe4d0cf0	-0.20024467
7	0xbe0e6983	-0.13907437
8	0xbe3d62eb	-0.18494765
9	0x3eb43588	0.3519709
10	0xbd022fe7	-0.031783964
11	0xbdbfa5e9	-0.09357817
12	0xbe2242a4	-0.15845734
13	0x3e976edd	0.2957677
14	0xbe3cfae8	-0.18455088
15	0x3c2633cc	0.010144185

prop_h_to_out.weight f4 [1, 16]
0	0xbddeb467	-0.10874253
1	0x3c4da371	0.0125511745
2	0x3e347058	0.1762098
3	0x3e132af2	0.14371851
4	0x3e01e83c	0.12686247
5	0x3c703f19	0.014663481
6	0xbdfbe9de	-0.12300466
7	0xbd9e1f56	-0.077208206
8	0xbdd3b2ef	-0.10336863
9	0x3e304700	0.17214584
10	0xbdb65d27	-0.08904486
11	0x3cc5c1a2	0.024140183
12	0xbdce9c1f	-0.100883715
13	0x3e949d34	0.29026186
14	0xbdd8285f	-0.10554575
15	0x3c5fa5fc	0.013650414
