model-RNN-DDPG/both_theta_kappa/pi.pth (torch, 48714 bytes, 61 tensors)

gru.weight_ih_l0 f4 [30, 1]
0	0xbbb9ab96	-0.0056662066
1	0xbd918f7c	-0.071074456
2	0x3e0186cc	0.12649077
3	0x3e087bd8	0.13328493
4	0xbe850310	-0.259789
5	0x3e1af7ce	0.15133592
6	0x3e2941ca	0.16529003
7	0x3e5d744c	0.21626395
8	0xbdc209d6	-0.09474532
9	0xbc174d0e	-0.00923468
10	0xbe354257	-0.17701088
11	0x3d2aebfc	0.04172896
12	0xbde93ae4	-0.113881856
13	0x3b6167e3	0.0034394197
14	0x3e78aec9	0.24285425
15	0x3d6a358c	0.057179973
16	0x3e691056	0.22760138
17	0x3e873704	0.2640916
18	0x3e8e788a	0.2782634
19	0x3de22430	0.110420585
20	0x3e35c8ca	0.17752376
21	0xbdc66cbf	-0.096887104
22	0x3e8b022c	0.27150095
23	0x3de796c0	0.1130805
24	0xbe8512f4	-0.25991023
25	0xbdc2b183	-0.09506514
26	0x3e486ece	0.19573519
27	0xbe652e91	-0.22381045
28	0xbd968a82	-0.07350637
29	0x3e326817	0.1742252

gru.weight_hh_l0 f4 [30, 10]
0	0xbe89e5f9	-0.26933268
1	0x3d20dae3	0.039271247
2	0x3d110376	0.03540369
3	0x3e4e317c	0.20136064
4	0xbe18e114	-0.1492961
5	0x3d9ec98c	0.07753286
6	0x3d2c3b9c	0.042049035
7	0x3e86ada8	0.26304364
8	0x3daaf128	0.08346778
9	0xbe0e9b0e	-0.13926336
10	0xbdf4e7af	-0.11958253
11	0xbe31f8f4	-0.17380124
12	0xbdc5cee2	-0.096586004
13	0x3cfc8016	0.030822795
14	0x3d7bf64c	0.061514184
15	0x3e1f6ad5	0.15568097
16	0xbe8a4ccd	-0.2701172
17	0x3e68a27d	0.22718234
18	0xbdd06758	-0.10175961
19	0xbe322184	-0.17395598
20	0x3e145c04	0.14488226
21	0xbd565efb	-0.052336674
22	0x3e1c1e65	0.1524597
23	0xbd311aea	-0.043238558
24	0x3e5046f6	0.2033957
25	0x3e8786ef	0.26470134
26	0x3d190cd7	0.03736576
27	0xbd743d58	-0.059628814
28	0xbe8face8	-0.28061604
29	0x3e3692b8	0.17829406
30	0xbe4082a1	-0.18799831
31	0xbcef017b	-0.02917551
32	0xbdd9ad85	-0.10628799
33	0xbc228054	-0.009918291
34	0xbe28dd47	-0.1649066
35	0x3e86c66a	0.26323253
36	0xbe7da2f2	-0.2476919
37	0x3e309766	0.17245254
38	0x3da68848	0.08131462
39	0x3c8fc832	0.017551515
40	0x3c9045b0	0.017611355
41	0x3e29ac42	0.16569617
42	0x3d87d9d6	0.06633346
43	0xbc30a4e1	-0.010781498
44	0x3e877ad4	0.26460898
45	0x3d85a2f1	0.06525219
46	0x3e44510a	0.19171539
47	0x3e038575	0.12843879
48	0xbe893ba3	-0.26803312
49	0xbe974042	-0.29541212
50	0xbe36de71	-0.17858292
51	0x3e6036e3	0.21895938
52	0xbe2a7d40	-0.16649342
53	0xbda772cd	-0.081761934
54	0x3e80fe38	0.25193954
55	0x3e0bc449	0.13649096
56	0x3e523da6	0.2053133
57	0xbe4728d0	-0.19449162
58	0xbde13a05	-0.109973945
59	0xbc8ed201	-0.017434122
60	0xbd6cb981	-0.057794098
61	0x3e713ad6	0.235576
62	0xbe7af012	-0.24505642
63	0xbde5d144	-0.11221555
64	0x3e4affb5	0.19824107
65	0x3e90daec	0.28292024
66	0xbc65e126	-0.01403073
67	0xbe7d56db	-0.24740164
68	0xbcb17a84	-0.021664865
69	0xbe71a808	-0.23599255
70	0x3e2b1667	0.16707765
71	0x3e77e2ba	0.24207583
72	0xbe39a17c	-0.18128008
73	0x3e820690	0.25395632
74	0x3e389f44	0.18029505
75	0xbd9bc0d9	-0.07605142
76	0xbe523ec1	-0.20531751
77	0xbc9bd118	-0.019020602
78	0x3d97dbd2	0.07414974
79	0xbe8bc4db	-0.27298626
80	0xbd350c0a	-0.044200934
81	0x3cbad2f9	0.022805678
82	0xbe6c0ebe	-0.23052499
83	0x3dfd8bf8	0.123802125
84	0xbe71cdd1	-0.23613669
85	0xbcf5adb5	-0.029990057
86	0xbe939776	-0.28826493
87	0x3dec9425	0.11551694
88	0x3c55d281	0.013050676
89	0x3d2a8389	0.041629348
90	0x3e4c3feb	0.19946258
91	0xbe41b7fd	-0.18917842
92	0xbe2d3e0f	-0.16918205
93	0x3dfa0e3d	0.12209747
94	0x3dd35a2f	0.103199355
95	0x3e92a5e4	0.2864219
96	0xbdc79015	-0.09744278
97	0xbd7c03e7	-0.06152716
98	0x3ca3986a	0.019970138
99	0xbe6884aa	-0.22706857
100	0x3e613fd7	0.21997009
101	0xbe42aee1	-0.19012024
102	0xbe68f25f	-0.22748707
103	0x3e489ef2	0.19591883
104	0x3e540da4	0.20708328
105	0xbe3c62e4	-0.18397099
106	0x3e1977ce	0.14987108
107	0xbe68f1e1	-0.2274852
108	0x3e998b3e	0.29989046
109	0xbd021525	-0.031758446
110	0x3e4e9d40	0.20177174
111	0x3e45dd9d	0.1932282
112	0x3d439e98	0.04775867
113	0xbd5cd6d3	-0.05391581
114	0x3e80048c	0.2500347
115	0xbe268be9	-0.16264309
116	0x3e2af6d8	0.16695726
117	0xbd2fcbca	-0.042918958
118	0x3cbb8068	0.022888377
119	0xbe24fd47	-0.16112243
120	0x3e6c57af	0.23080324
121	0x3da0632d	0.07831416
122	0xbe524161	-0.20532753
123	0xbe558336	-0.20850834
124	0xbe2e22a0	-0.17005396
125	0xbe017df2	-0.126457
126	0x3e5b97a7	0.2144457
127	0xbd589b60	-0.052882552
128	0x3c26bcf8	0.01017689
129	0xbb25264f	-0.0025199836
130	0x3d00c6a3	0.031439435
131	0x3e5d4855	0.21609624
132	0xbd3d21f0	-0.046174943
133	0x3e18db58	0.14927423
134	0xbe1b22f1	-0.15150048
135	0x3dc97b43	0.098379634
136	0xbdda9c14	-0.10674301
137	0x3de78f54	0.113066345
138	0x3e8278f1	0.25482896
139	0x3e862e75	0.2620732
140	0xbdca05c4	-0.09864381
141	0xbe53fdd9	-0.20702304
142	0xbe778245	-0.24170788
143	0x3e4679ca	0.19382396
144	0x3e56035b	0.20899718
145	0x3ddfd0d0	0.109285
146	0x3dab4ff2	0.08364858
147	0x3e11a5e0	0.14223433
148	0x3c55c1a4	0.013046656
149	0x3e457e7b	0.1928653
150	0xbe084141	-0.13306142
151	0x3d53701f	0.0516206
152	0xbe676931	-0.22598721
153	0x3e737462	0.23774865
154	0x3e56070b	0.20901124
155	0xbe85ea63	-0.26155385
156	0xbdc92f4b	-0.098234735
157	0x3d0b0a63	0.033945452
158	0x3e66b0c4	0.22528368
159	0x3d582dd2	0.052778073
160	0xbdf160b1	-0.117860205
161	0x3e8e121b	0.27748188
162	0xbd5e73d8	-0.054309696
163	0x3e625016	0.22100863
164	0x3da58f0c	0.08083925
165	0xbdb97257	-0.09055012
166	0xbe23513e	-0.1594896
167	0x3d9dfa5a	0.077137664
168	0x3e55df57	0.20885979
169	0x3e9050e9	0.2818673
170	0x3d909985	0.070605315
171	0x3e8e6703	0.27812967
172	0x3e439c02	0.19102481
173	0x3d7ab968	0.061211973
174	0x3e63c7f6	0.22244248
175	0x3dbb4996	0.09144895
176	0x3d188c73	0.037243318
177	0x3e8d0a54	0.27546942
178	0x3e97682e	0.2957167
179	0xbe44394f	-0.19162486
180	0x3e4d821f	0.20069169
181	0xbe5f9495	-0.21834023
182	0xbe1c6482	-0.15272716
183	0xbe1104ca	-0.14161983
184	0x3e26ffa3	0.16308455
185	0xbdd82559	-0.105539985
186	0xbdb60085	-0.08886818
187	0xbe99298a	-0.29914504
188	0x3d3e0da1	0.046399716
189	0xbe12708a	-0.14300743
190	0xbe60d932	-0.21957853
191	0xbe93b284	-0.28847134
192	0xbdab2091	-0.08355821
193	0xbcc08772	-0.023502085
194	0x3c959c6a	0.01826306
195	0x3d15bacb	0.036555093
196	0xbe4bf196	-0.19916376
197	0x3e74a927	0.23892651
198	0x3e3103ae	0.1728656
199	0xbe085777	-0.13314615
200	0x3e96a627	0.2942364
201	0x3e573987	0.21018039
202	0xbe657599	-0.22408141
203	0x3e2a5118	0.16632497
204	0xbdeea1a2	-0.11651923
205	0xbe473e9f	-0.19457482
206	0xbdd772cb	-0.10519942
207	0xbe07900a	-0.1323854
208	0x3b4ec2dd	0.0031549253
209	0xbe811f56	-0.2521922
210	0xbd3aa0df	-0.045563575
211	0x3e5415b4	0.20711404
212	0x3da7cec3	0.081937335
213	0x3dd23dba	0.1026568
214	0x3e817ea3	0.2529193
215	0xbe0e9a94	-0.13926154
216	0xbe176b84	-0.14787108
217	0xbdeb76ef	-0.11497294
218	0xbe674a73	-0.22586994
219	0xbe931f1c	-0.28734672
220	0xbe8e5a75	-0.27803388
221	0x3e3eaaf3	0.186199
222	0x3e1cf8ab	0.15329234
223	0xbe6ce9bc	-0.23136038
224	0x3e8afbad	0.27145138
225	0xbe293019	-0.16522254
226	0x3e58336c	0.21113366
227	0xbe88753d	-0.26651946
228	0x3de883e6	0.11353283
229	0x3d168744	0.036750093
230	0xbce43633	-0.027857875
231	0xbc7467ff	-0.014917373
232	0xbe35e60f	-0.17763542
233	0xbe6b3c1f	-0.22972153
234	0x3d6589cf	0.056039628
235	0xbd296480	-0.04135561
236	0x3e38878e	0.1802046
237	0xbe94d18f	-0.2906613
238	0x3e325709	0.17416014
239	0xbe53d7dd	-0.20687814
240	0xbe7e770a	-0.24850097
241	0xbcd91948	-0.026501313
242	0x3cafc140	0.021454453
243	0xbe62a038	-0.22131431
244	0x3dd54359	0.10413236
245	0x3e3d9b80	0.1851635
246	0x3e80842f	0.25100848
247	0x3e927790	0.28606844
248	0x3dc632fb	0.096776925
249	0xbe783bb1	-0.2424152
250	0x3e964bf7	0.29354832
251	0x3e37dc12	0.17955044
252	0x3e7acd3f	0.24492358
253	0x3e986bb9	0.29769686
254	0xbe2689aa	-0.16263452
255	0xbc6090fc	-0.013706442

gru.bias_ih_l0 f4 [30]
0	0x3d7effc8	0.06225565
1	0x3e327381	0.17426874
2	0xbe811785	-0.25213256
3	0xba9f985f	-0.0012176147
4	0x3e0a64e6	0.13515052
5	0xbe4cf4e4	-0.20015293
6	0x3ddfa7e6	0.10920696
7	0xbd8bb358	-0.068213165
8	0x3e727dc2	0.23680785
9	0x3e7a1d46	0.2442523
10	0x3da615fe	0.081096634
11	0x3e919742	0.28435713
12	0x3e97a9e9	0.2962182
13	0xbe8e965c	-0.2784909
14	0xbe6538c8	-0.22384942
15	0x3e692fa5	0.22772081
16	0xbdb91799	-0.09037704
17	0x3e54edaa	0.20793787
18	0xbe3a8143	-0.18213372
19	0x3de53445	0.1119161
20	0xbe6b9309	-0.23005308
21	0x3ddc45d4	0.10755506
22	0x3e801faa	0.25024158
23	0x3e361c01	0.1778412
24	0x3dff1b8a	0.124564245
25	0x3e90ac84	0.2825662
26	0xbe14bbee	-0.14524814
27	0xbe29b9a6	-0.16574726
28	0xbd5bd327	-0.053668167
29	0x3ce6851d	0.028139645

gru.bias_hh_l0 f4 [30]
0	0x3cfcca20	0.0308581
1	0x3e8ca71b	0.2747124
2	0x3e240c06	0.16020212
3	0xbdc78aed	-0.09743295
4	0xbe609e67	-0.21935426
5	0xbe3b7e2d	-0.18309851
6	0xbdcddedb	-0.10052272
7	0x3e8f1c12	0.27951103
8	0x3e8b4f73	0.27209052
9	0x3e79a88e	0.24380705
10	0x3e629133	0.22125702
11	0xbe478e0b	-0.19487779
12	0x3dd20a66	0.102558896
13	0x3ce7d0fa	0.02829789
14	0xbd533396	-0.051562868
15	0xbe5c3286	-0.21503648
16	0xbdab38de	-0.08360456
17	0xbe827e06	-0.25486773
18	0xbe0a0dc4	-0.13481814
19	0xbdece03f	-0.11566209
20	0x3d5a9cd4	0.05337222
21	0xbe3b3eb4	-0.18285638
22	0xbd049527	-0.032368805
23	0xbe1dd3b6	-0.15412793
24	0xbe49f17b	-0.19721024
25	0x3e374edc	0.17901176
26	0xbe85f07c	-0.26160038
27	0xbcabc1ca	-0.02096643
28	0x3e6be961	0.23038246
29	0xbe285fe6	-0.16442832

gru.weight_ih_l1 f4 [30, 10]
0	0x3e2ec738	0.17068183
1	0x3a5f5ccb	0.0008520602
2	0x3ce94b7c	0.028478377
3	0xbe80ea47	-0.2517874
4	0x3b6ae1d5	0.0035840173
5	0x3e278ae9	0.16361584
6	0xbe9898a9	-0.2980397
7	0x3e555008	0.20831311
8	0xbe6307b9	-0.22170915
9	0xbd49815b	-0.04919563
10	0xbe01d353	-0.1267827
11	0x3e7a20e0	0.24426603
12	0x3c862869	0.016376691
13	0xbe500c59	-0.2031721
14	0xbe923458	-0.2855556
15	0xbe8e5958	-0.2780254
16	0xbe836837	-0.25665447
17	0x3e534ad6	0.20634016
18	0x3e6d8487	0.23195086
19	0x3e97692c	0.29572427
20	0x3e949ce9	0.29025963
21	0xbd285512	-0.041096754
22	0xbe964112	-0.2934652
23	0xbe978c3d	-0.2959918
24	0xbcfa0c00	-0.0305233
25	0xbc7763df	-0.015099495
26	0x3e6ca359	0.23109187
27	0x3df92731	0.12165678
28	0xbd62f49f	-0.05540907
29	0x3e17a782	0.14809993
30	0xbdc71717	-0.09721201
31	0x3d947cf0	0.072503924
32	0x3e479607	0.19490825
33	0x3d87c52e	0.06629406
34	0xbc9dbfe3	-0.019256538
35	0x3e799034	0.24371415
36	0x3daa8034	0.08325234
37	0xbd8b7614	-0.06809631
38	0xbe890fbf	-0.26769826
39	0xbd9ccbac	-0.07656035
40	0x3e4f8c46	0.20268354
41	0x3e5c177b	0.21493332
42	0x3e70e040	0.23523045
43	0xbe98217f	-0.29713055
44	0xbe6a3e97	-0.22875439
45	0xbe88d5d9	-0.26725653
46	0x3e43a61a	0.19106331
47	0xbe025c92	-0.12730625
48	0xbe6f0f3f	-0.2334566
49	0xbe8dcb74	-0.27694285
50	0x3dd5e56e	0.10444151
51	0xbe91bf65	-0.28466335
52	0x3db5f605	0.08884815
53	0xbd7a7346	-0.06114509
54	0xbe8225a9	-0.25419357
55	0xbe96e807	-0.29473898
56	0x3e218893	0.15774755
57	0x3e76b1a7	0.24091206
58	0x3b050c5e	0.002030156
59	0xbd377ddd	-0.044797767
60	0xbe3d697b	-0.18497269
61	0xbe398098	-0.18115461
62	0x3e3a6e39	0.18206109
63	0xbe04c29f	-0.12964867
64	0x3e87fc2a	0.26559573
65	0xbe1c9cc9	-0.15294184
66	0x3e2efec8	0.17089379
67	0x3e6d200b	0.23156755
68	0x3d468339	0.048464987
69	0x3e99ab1e	0.30013365
70	0x3e5d8fcf	0.2163689
71	0xbd512a89	-0.051065955
72	0x3dabb90f	0.083849065
73	0x3e0005d1	0.12502219
74	0x3e966203	0.29371652
75	0x3e56e8af	0.20987199
76	0xbe41fa41	-0.1894312
77	0xbe7f1528	-0.24910414
78	0xbe454f0a	-0.19268432
79	0xbbc19fe8	-0.005908955
80	0xbe2f65a0	-0.1712861
81	0xbe09ecd1	-0.13469245
82	0xbcaaacc8	-0.020834342
83	0x3d97fe77	0.07421582
84	0x3e37ebab	0.17960994
85	0x3e588ff4	0.21148664
86	0xbe466555	-0.19374593
87	0xbd89e202	-0.06732561
88	0x3e444b37	0.19169317
89	0x3dd304e6	0.10303669
90	0xbe8d0a91	-0.27547124
91	0xbd8eeea8	-0.06979114
92	0xbe994bc4	-0.29940617
93	0xbe1179f7	-0.14206682
94	0x3dd1dd45	0.10247282
95	0x3e2c8856	0.16848883
96	0x3d99475b	0.07484313
97	0x3e77fa17	0.24216495
98	0xbe087419	-0.13325538
99	0x3e60060a	0.21877304
100	0xbd82e890	-0.06392014
101	0x3defb676	0.117047235
102	0x3c9bcbe3	0.01901812
103	0x3dad87ba	0.084731534
104	0xbe667e79	-0.22509183
105	0x3d1b1fe2	0.037872203
106	0xbe3f1b36	-0.18662724
107	0xbd07347a	-0.03300903
108	0xbe83a448	-0.25711274
109	0x3dbc41e7	0.091922574
110	0x3e3ee187	0.1864072
111	0xbd5566c0	-0.052099943
112	0x3d0d2bec	0.034465715
113	0x3db1fd56	0.08690898
114	0x3cb1f2be	0.021722194
115	0x3ca7f190	0.020500928
116	0xbe8c58ec	-0.27411592
117	0x3e9216cf	0.28533027
118	0xbe976bc4	-0.29574406
119	0x3e90f215	0.28309694
120	0x3d89c956	0.06727855
121	0xbde73680	-0.11289692
122	0x3e96c730	0.29448843
123	0xbe0a7671	-0.13521744
124	0x3e2880f2	0.16455439
125	0xbe425ba9	-0.18980278
126	0xbe8f0bdc	-0.27938735
127	0x3e4ba030	0.19885325
128	0x3e50864c	0.2036373
129	0x3b89d1a6	0.0042059002
130	0x3d8ebbcb	0.069694124
131	0x3e347c83	0.17625622
132	0x3b42dfdf	0.0029735488
133	0xbd290ea6	-0.041273735
134	0x3afa7e2f	0.0019111092
135	0x3cb0043e	0.021486398
136	0xbd8bc7e1	-0.06825233
137	0xbe6b6382	-0.22987178
138	0x3e03596e	0.12827083
139	0x3e7726cc	0.24135894
140	0xbe7a45e8	-0.2444073
141	0xbd1d0453	-0.038334202
142	0x3e95b7e6	0.29241866
143	0xbcabeb0e	-0.020986106
144	0xbd26356f	-0.040578302
145	0xbd996613	-0.07490172
146	0x3e39544a	0.1809856
147	0x3e8c6041	0.27417186
148	0x3cead9fa	0.028668392
149	0xbe6ea26f	-0.23304151
150	0x3d9b0b6b	0.07570537
151	0x3e713096	0.2355369
152	0x3e2fb08a	0.17157188
153	0x3dc86d2c	0.09786448
154	0x3e3b5ac3	0.18296342
155	0x3dca6ab9	0.09883637
156	0xbe2cbf7c	-0.1686992
157	0xbde25a04	-0.11052325
158	0xbe2aa4f1	-0.16664483
159	0xbdde6af2	-0.10860242
160	0xbdb1fbcb	-0.08690604
161	0xbe5347e0	-0.20632887
162	0x3e72d365	0.23713453
163	0x3d923892	0.07139696
164	0xbe8ef08b	-0.27917895
165	0xbe9485bc	-0.2900828
166	0xbe461ae4	-0.19346195
167	0x3c1e50fb	0.009662862
168	0x3e90fd05	0.2831804
169	0xbd43591a	-0.047692396
170	0xbc94c11d	-0.01815849
171	0x3e8f0473	0.27933082
172	0x3c56b76f	0.013105257
173	0x3e220f96	0.15826258
174	0xbe8a1095	-0.26965776
175	0x3e04d6f9	0.1297263
176	0xbe579480	-0.21052742
177	0xbe29ba46	-0.16574964
178	0xbcaf8175	-0.021424035
179	0x3e2c9392	0.16853169
180	0xbe1edfff	-0.15515135
181	0x3e825365	0.2545425
182	0x3e86b425	0.26309314
183	0x3de92208	0.11383444
184	0x3c8e7ae1	0.017392578
185	0x3e7d9cb6	0.24766812
186	0xbe55dc47	-0.2088481
187	0x3e998144	0.29981434
188	0xbd84a35a	-0.06476469
189	0xbe8aa705	-0.2708055
190	0xbe6e2c8c	-0.23259181
191	0x3dc84c8e	0.09780227
192	0x3caf1ee2	0.02137703
193	0xbdc08da4	-0.09402016
194	0xbde27316	-0.11057107
195	0x3de0b48d	0.10971937
196	0xbe8ba161	-0.2727156
197	0x3e20ecea	0.15715376
198	0xbe545024	-0.20733696
199	0xbd28e50e	-0.04123407
200	0x3e784984	0.24246794
201	0xbe279617	-0.16365848
202	0xbe8b6572	-0.27225834
203	0x3e5442f3	0.20728664
204	0xbe204a76	-0.15653405
205	0xbe417ecb	-0.18896024
206	0xbe2cf124	-0.16888863
207	0x3e465af7	0.19370638
208	0xbd96ebaa	-0.07369168
209	0xbdc6c358	-0.097052276
210	0xbdf43707	-0.11924558
211	0x3df0c0b0	0.11755502
212	0xbe81b8f8	-0.25336432
213	0xbe42eb81	-0.1903515
214	0xbe641e45	-0.22277172
215	0x3d10e104	0.03537084
216	0xbe8bcf78	-0.27306724
217	0xbd8d1478	-0.0688867
218	0xbc2b8915	-0.010469695
219	0x3e83c1ce	0.257338
220	0x3e754c22	0.23954824
221	0xbdc5fd12	-0.0966741
222	0xbe10f238	-0.14154899
223	0xbe948c68	-0.2901337
224	0x3d9c1b70	0.07622421
225	0xbe9135b4	-0.28361285
226	0xbdeeacdb	-0.11654063
227	0x3e8246c6	0.2544462
228	0x3d9d79a8	0.0768922
229	0x3dbbe592	0.091746464
230	0x3e6d2a21	0.23160602
231	0xbd5d9e83	-0.054106247
232	0xbb9dd3af	-0.0048164944
233	0xbdc68b7e	-0.09694575
234	0xbd9aa058	-0.075501144
235	0x3e6724f8	0.22572696
236	0xbd2f6322	-0.04281915
237	0xbe6daf67	-0.23211442
238	0x3e351341	0.17683126
239	0x3e92d54e	0.28678364
240	0xbe82b562	-0.2552901
241	0x3e3d1124	0.1846357
242	0x3db1b8f7	0.08677857
243	0x3cc5873d	0.024112338
244	0x3e22d624	0.15902
245	0x3e139e3f	0.14415835
246	0xbe4c2ff6	-0.1994017
247	0x3dc2e7f6	0.09516899
248	0xbdf000f2	-0.1171893
249	0xbe3c1b14	-0.18369704
250	0xbda0f00e	-0.07858287
251	0x3e3336a3	0.17501311
252	0x3e22baaf	0.15891527
253	0xbe093de8	-0.13402522
254	0x3e9384ba	0.288122
255	0x3e8348fa	0.25641614

gru.weight_hh_l1 f4 [30, 10]
0	0x3e976a09	0.29573086
1	0x3c5b1527	0.013371742
2	0xbc3f33b1	-0.011670039
3	0xbe2b5fdb	-0.16735785
4	0xbe982fb4	-0.29723895
5	0xbd8553f6	-0.06510155
6	0x3d74bf33	0.059752654
7	0xbe0f35f6	-0.13985428
8	0x3e0225af	0.12709688
9	0xbe1eb6e9	-0.15499462
10	0x3cc0df04	0.023543842
11	0x3d4d5afa	0.05013559
12	0xbe1aa19b	-0.1510071
13	0x3e199c8f	0.15001129
14	0x3da70045	0.08154348
15	0xbe81bd95	-0.25339952
16	0xbdac62c4	-0.084172755
17	0xbe001fa4	-0.1251207
18	0x3e4efc99	0.20213546
19	0xbe1ec4fe	-0.15504834
20	0xbdd3b101	-0.10336495
21	0xbe986304	-0.29763043
22	0xbdb0c994	-0.08632198
23	0x3e7b3e74	0.24535543
24	0xbe884b89	-0.2662013
25	0x3d356ba7	0.04429212
26	0x3ca1fd43	0.019774085
27	0xbde806cd	-0.11329422
28	0x3e99c61d	0.3003396
29	0xbbf4c1f5	-0.0074694105
30	0x3ddb32fc	0.10703084
31	0x3e8aa890	0.27081728
32	0xbe8132f1	-0.25234178
33	0xbe30f1d9	-0.17279758
34	0x3e204d5e	0.15654513
35	0x3d3f1343	0.04664923
36	0x3d61c85c	0.05512272
37	0x3dd63201	0.10458756
38	0xbe0d032c	-0.13770741
39	0xbd3a2cac	-0.04545276
40	0xbe63b19d	-0.22235723
41	0x3d8badd3	0.06820264
42	0xbd9f416b	-0.07776149
43	0x3da916da	0.08256312
44	0xbe90853a	-0.28226644
45	0x3dabb99f	0.08385014
46	0x3e1e0a3f	0.15433596
47	0x3dfbcfc8	0.122954905
48	0xbe0742ba	-0.13209048
49	0x3db3eb06	0.087850615
50	0x3e6b1a93	0.22959356
51	0x3e94ea14	0.29084837
52	0xbe8ee2a2	-0.27907282
53	0xbd2d0d64	-0.0422491
54	0x3e86a8ab	0.26300558
55	0xbe09ce7b	-0.13457672
56	0xbe43c032	-0.19116285
57	0xbe0c24b3	-0.13685875
58	0xbe2db004	-0.16961676
59	0xbd678dcf	-0.056531724
60	0x3a63018d	0.0008659594
61	0x3c2020ad	0.0097734155
62	0x3d29b3f5	0.041431386
63	0x3e202f49	0.15643038
64	0xbe04d2b9	-0.1297101
65	0xbe5530ae	-0.20819351
66	0xbe838b13	-0.25692043
67	0x3e77944d	0.24177666
68	0xbe6790e4	-0.22613865
69	0x3e6a0366	0.22852859
70	0x3d8f8b44	0.07008985
71	0x3dc00308	0.09375578
72	0xbe93426d	-0.28761616
73	0x3e846892	0.2586103
74	0xbd8a9dc4	-0.06768373
75	0xbcbfe7a8	-0.023425892
76	0xbdfd6a04	-0.123737365
77	0x3e82e672	0.2556644
78	0xbdbd2007	-0.09234624
79	0xbe86c4a4	-0.263219
80	0x3e5aae03	0.21355443
81	0xbe6484d5	-0.22316296
82	0x3bc80822	0.006104485
83	0x3e22116b	0.15826957
84	0xbe336e5b	-0.17522566
85	0xbdde5ac7	-0.10857158
86	0x3e5979f8	0.21237934
87	0x3e572529	0.21010269
88	0x3e03d252	0.128732
89	0xbdf61b78	-0.12016958
90	0xbdd066bb	-0.10175844
91	0x3d0d5680	0.03450632
92	0xbe3962f1	-0.1810415
93	0x3e561e63	0.20910029
94	0xbd6be0c9	-0.05758742
95	0xbdfa283d	-0.12214706
96	0xbd14c862	-0.036323912
97	0x3e2dcbd9	0.16972293
98	0x3dd3acd4	0.10335699
99	0xbe7c0db2	-0.246146
100	0x3e6795ec	0.22615784
101	0xbe406e6d	-0.18792124
102	0xbe7f441c	-0.24928325
103	0xbe42566e	-0.18978283
104	0xbe68281d	-0.22671552
105	0x3e2e4cb3	0.17021446
106	0xbdc918f8	-0.098192155
107	0x3e020412	0.12696865
108	0xbe69340f	-0.22773765
109	0x3d5786cc	0.052618787
110	0x3e668665	0.22512205
111	0xbd2a6d6f	-0.04160827
112	0xbc8335e3	-0.016016906
113	0xbe4fefa9	-0.20306267
114	0xbe900598	-0.28129268
115	0x3e7668d7	0.2406343
116	0x3e436e95	0.19085152
117	0x3d7e277d	0.062049378
118	0x3e5a23ae	0.21302673
119	0xbd80f071	-0.062958606
120	0xbe59c151	-0.2126515
121	0xbe3ecf60	-0.18633795
122	0x3d53e06a	0.05172769
123	0xbe2f8c29	-0.1714331
124	0x3dd6d33e	0.1048951
125	0xbe0191cf	-0.12653278
126	0xbe3427b6	-0.17593274
127	0xbe8684f3	-0.26273307
128	0x3db73e84	0.08947471
129	0x3db179eb	0.08665832
130	0xbe3c4af6	-0.1838797
131	0x3e8a1d01	0.26975253
132	0x3e905da4	0.28196442
133	0xbe800300	-0.2500229
134	0x3d9f8b54	0.077902466
135	0x3e75b01e	0.23992965
136	0xbe737797	-0.23776089
137	0xbd2268d7	-0.039650764
138	0x3d07f4f2	0.033192582
139	0xbe90694e	-0.2820534
140	0xbe82f0c0	-0.25574303
141	0xbe51f761	-0.20504524
142	0x3e0e43c6	0.13893041
143	0xbd810ef6	-0.06301682
144	0xbd8a38d3	-0.067491196
145	0xbd9ed684	-0.07755759
146	0xbe1cbbce	-0.15306017
147	0x3d24ce77	0.040235963
148	0xbe8da033	-0.27661285
149	0x3e84046a	0.25784618
150	0xbe897d25	-0.2685329
151	0xbdc72a19	-0.09724826
152	0xbe4ff5fe	-0.20308682
153	0x3e01f026	0.12689266
154	0x3e22aa29	0.15885223
155	0x3d82d6ac	0.06388602
156	0xbe542ce9	-0.20720257
157	0x3e7325f3	0.23744945
158	0x3e873544	0.26407826
159	0x3dc08d74	0.0940198
160	0xbe504a9f	-0.20340966
161	0x3e12892e	0.14310142
162	0xbcceea1d	-0.025258118
163	0xbe602e0a	-0.21892563
164	0xbe90666b	-0.2820314
165	0xbe828943	-0.25495347
166	0x3e8a47c3	0.27007875
167	0x3d917a68	0.07103425
168	0xbd467d21	-0.048459176
169	0x3e88975b	0.26677975
170	0xbe36bc5f	-0.17845295
171	0x3e81a0d4	0.25318015
172	0xbded4814	-0.115860134
173	0x3cb0e442	0.021593217
174	0xbde6503b	-0.112457715
175	0x3e953c8a	0.2914775
176	0x3e86bc74	0.26315653
177	0x3e82b36e	0.2552752
178	0x3ba0ccfc	0.0049072485
179	0xbd5e74eb	-0.05431072
180	0x3e089a1d	0.1334004
181	0xbc599b06	-0.013281589
182	0xbe350320	-0.17676973
183	0xbe86d487	-0.2633402
184	0x3e122430	0.14271617
185	0x3e88bd30	0.2670684
186	0xbe7f71c6	-0.24945745
187	0x3e51a325	0.20472391
188	0x3db199a0	0.0867188
189	0xbd9d091f	-0.07667755
190	0xbe3ff05c	-0.18744034
191	0xbe24d83e	-0.16098115
192	0xbe576122	-0.21033147
193	0x3d916cbe	0.07100819
194	0xbe89b74a	-0.2689765
195	0x3cd2b265	0.02571983
196	0x3e55021c	0.20801586
197	0xbdd62db9	-0.1045794
198	0xbe96d458	-0.2945888
199	0x3e9449e4	0.28962624
200	0x3e603dcd	0.21898575
201	0x3e96e093	0.29468212
202	0x3d3fa656	0.04678949
203	0x3e27c208	0.16382611
204	0xbe16cbde	-0.14726207
205	0xbe732741	-0.23745443
206	0xbe970065	-0.29492489
207	0xbe8b8ca2	-0.27255732
208	0x3d062d95	0.032758314
209	0xbdd525a3	-0.10407569
210	0xbe5c98d0	-0.21542668
211	0x3e99217a	0.29908353
212	0xbe43880d	-0.19094868
213	0xbdef8432	-0.11695136
214	0xbddcfa83	-0.10789969
215	0xbe7dbf4a	-0.24780002
216	0x3e77a9a3	0.24185805
217	0x3dc0e2d4	0.09418264
218	0x3d715d9e	0.05892717
219	0x3e336b2e	0.17521355
220	0x3d77b02f	0.060470756
221	0x3c4b7cc7	0.012419886
222	0x3e2ee877	0.17080866
223	0x3e15b363	0.14619212
224	0xbe632b86	-0.22184572
225	0xbe3acaf2	-0.1824148
226	0xbd41a8e9	-0.047280226
227	0xbe23c115	-0.15991624
228	0xbe100d9d	-0.14067693
229	0x3db75b2c	0.089529365
230	0xbda216ee	-0.0791453
231	0xbe0b6875	-0.13614066
232	0xbcf64334	-0.030061342
233	0xbde7a1e3	-0.11310174
234	0x3e0e2cf0	0.1388433
235	0x3ad1e5a4	0.0016013873
236	0x3d9ede2f	0.07757222
237	0x3da56883	0.08076575
238	0xbdaededa	-0.08538599
239	0xbe5d584a	-0.21615711
240	0xbe3c6a22	-0.18399861
241	0x3e97d881	0.29657367
242	0xbe2d8848	-0.16946518
243	0xbc9d3dec	-0.019194566
244	0x3e055ae9	0.1302296
245	0x3e24276b	0.16030662
246	0xbe16827a	-0.1469821
247	0x3d77148a	0.060322322
248	0xbe19c5be	-0.15016839
249	0xbd8dccf0	-0.06923854
250	0x3d1b0b35	0.037852485
251	0xbcadd88b	-0.02122142
252	0x3e91cca0	0.2847643
253	0xbe416758	-0.18887079
254	0xbe983a42	-0.29731947
255	0x3e6f9397	0.23396145

gru.bias_ih_l1 f4 [30]
0	0x3ccc324b	0.024926325
1	0xbe35fe8c	-0.17772883
2	0xbe862b40	-0.26204872
3	0xbe5b51cc	-0.21417922
4	0x3ccf070e	0.025271919
5	0x3b89d549	0.004206334
6	0xbe6af544	-0.22945124
7	0x3db904a9	0.09034092
8	0x3e1f3061	0.15545799
9	0xbe312128	-0.17297804
10	0xbe707250	-0.23481107
11	0xbccfe519	-0.025377797
12	0x3e93e2f9	0.28884104
13	0x3e76a5cb	0.24086682
14	0xbe5584af	-0.20851396
15	0xbe237ab7	-0.15964781
16	0xbd329c15	-0.043605883
17	0xbd438fd1	-0.047744576
18	0x39131d3d	0.00014029905
19	0x3d44fff5	0.048095662
20	0x3d13c1cc	0.03607349
21	0xbe87db02	-0.26534277
22	0xbced16ad	-0.028941477
23	0x3e2c828c	0.16846675
24	0x3e386acc	0.1800949
25	0xbe2b2046	-0.1671153
26	0x3d78d8ad	0.060753513
27	0xbe2e2a08	-0.17008221
28	0x3e83810b	0.2568439
29	0x3c1732b5	0.009228398

gru.bias_hh_l1 f4 [30]
0	0x3d9ba99b	0.07600709
1	0x3e7bb2f6	0.24579987
2	0x3e6b9fae	0.23010132
3	0xbdd31008	-0.10305792
4	0xbe655be9	-0.22398342
5	0x3e0acb04	0.13554007
6	0xbe5e1761	-0.21688606
7	0xbdc60891	-0.09669603
8	0xbd00b0cc	-0.031418607
9	0xbdddb033	-0.10824623
10	0xbe04f529	-0.12984146
11	0xbcb614dd	-0.022226745
12	0x3d5f65e3	0.054540526
13	0xbc8014bc	-0.015634887
14	0xbe6ad4da	-0.22932759
15	0xbe37c6c8	-0.17946923
16	0xbe60766d	-0.21920176
17	0xbe89fba1	-0.2694979
18	0x3d0b858c	0.034062907
19	0x3e1edd55	0.15514119
20	0xbd5c4349	-0.053775106
21	0xbe938208	-0.28810143
22	0x3e8debf0	0.2771907
23	0x3d5a11da	0.05323968
24	0xbda64f54	-0.081205994
25	0x3dd7dccd	0.10540161
26	0x3e2e1b8c	0.17002696
27	0x3e9317ce	0.287291
28	0xbe36e35e	-0.17860171
29	0xbe3d8f29	-0.18511643

gru.weight_ih_l2 f4 [30, 10]
0	0xbe96d8cc	-0.29462278
1	0xbd183e54	-0.037168816
2	0x3e95c530	0.29252005
3	0xbe22cb48	-0.15897858
4	0x3e45baa6	0.19309482
5	0x3e5b4f42	0.21416953
6	0xbe65c285	-0.22437485
7	0x3e0ccb7b	0.13749497
8	0xba622a53	-0.00086275226
9	0xbd2c81ea	-0.042116083
10	0x3e909572	0.28239018
11	0xbe86decd	-0.26341859
12	0xbd199d78	-0.03750369
13	0xbe78cbf6	-0.24296555
14	0xbdade712	-0.08491339
15	0xbe802d8b	-0.25034747
16	0xbe21d48e	-0.1580374
17	0x3e6043a4	0.21900803
18	0xbe867d1b	-0.26267323
19	0x3e683a81	0.22678567
20	0x3d8025c4	0.06257203
21	0x3c36f073	0.011165726
22	0xbe6c5867	-0.23080598
23	0x3e256abf	0.16154002
24	0xbb76a782	-0.0037636464
25	0xb9e2023c	-0.00043107744
26	0x3e215500	0.15755081
27	0x3ca637c0	0.020290256
28	0xbdab36af	-0.083600394
29	0xbdfb1e29	-0.12261612
30	0xbe91eb2e	-0.2849974
31	0x3e3f6075	0.18689139
32	0x3d8b0f28	0.0679
33	0x3d4d5ba5	0.050136227
34	0xbe982512	-0.29715782
35	0x3e984690	0.29741335
36	0xbdcdf905	-0.10057262
37	0x3e873131	0.26404718
38	0xbe35d3d8	-0.17756593
39	0x3c44290b	0.011972676
40	0xbe334c12	-0.17509487
41	0xbd5e8b11	-0.054331843
42	0x3e3e2b83	0.18571286
43	0xbd07e57c	-0.033177838
44	0xbdadc089	-0.08483989
45	0xbe019d1c	-0.12657589
46	0x3e65f882	0.2245808
47	0xbe816dc0	-0.25279045
48	0xbdeeb5af	-0.11655747
49	0x3ddb87c4	0.107192546
50	0xbd94dc79	-0.07268614
51	0x3e635e05	0.22203834
52	0xbe48601a	-0.1956791
53	0x3dd06d18	0.10177058
54	0x3d42e27a	0.047579266
55	0xbde71f70	-0.11285293
56	0xbe342d62	-0.17595437
57	0x3cd7870e	0.026309516
58	0x3bb5cc91	0.005548068
59	0x3e95fe8d	0.2929577
60	0xbe8c1e74	-0.27366984
61	0xbe69fc3d	-0.22850128
62	0x3e40c044	0.18823344
63	0xbe7a6baa	-0.24455133
64	0x3dbdbdbc	0.092647046
65	0xbe6135fd	-0.21993251
66	0xbd91dc87	-0.071221404
67	0x3d2425ff	0.0400753
68	0x3d968fed	0.073516704
69	0xbe26598d	-0.16245098
70	0xbb2bd487	-0.0026219205
71	0x3e5fc0b5	0.21850856
72	0xbe10f6b4	-0.1415661
73	0xbdfa04ce	-0.12207948
74	0x3e7d3c44	0.24730021
75	0x3e00eebe	0.12591073
76	0x3dc7a24e	0.09747754
77	0xbe76ab0b	-0.24088685
78	0xbe97922e	-0.29603714
79	0xbe439e10	-0.19103265
80	0x3ded8415	0.11597458
81	0x3e3f396e	0.18674251
82	0xbe78e601	-0.2430649
83	0xbe0b1826	-0.1358343
84	0x3e02fb2a	0.12791124
85	0x3e4b7a4f	0.19870876
86	0xbe48a306	-0.19593439
87	0xbe4d87c7	-0.20071326
88	0x3e7546d9	0.23952807
89	0xbe80e232	-0.25172573
90	0x3e2a562c	0.16634434
91	0xbe88df03	-0.26732644
92	0x3e4b9643	0.19881539
93	0xbe9374ac	-0.2879995
94	0xbd215017	-0.03938302
95	0xbc24f218	-0.010067485
96	0xbcaf6cc3	-0.021414166
97	0xbd970de3	-0.073756956
98	0x3dd0c046	0.10192923
99	0x3e295a3a	0.16538325
100	0x3da38c59	0.079857536
101	0x3e44fcf8	0.19237125
102	0x3c211b38	0.00983315
103	0x3e16c217	0.14722477
104	0x3e99107a	0.29895383
105	0xbe2cfb0b	-0.1689264
106	0x3d7b9566	0.061421774
107	0xbca29532	-0.019846532
108	0xbe33c685	-0.17556198
109	0xbe78c38b	-0.24293344
110	0xbd8bf6ab	-0.068341576
111	0x3e7f75d1	0.24947287
112	0x3dc6c370	0.097052455
113	0xbe944bd4	-0.28964102
114	0x3d97dec5	0.07415537
115	0x3e69ea10	0.22843194
116	0x3dd1cf9f	0.10244679
117	0x3e36bf41	0.17846395
118	0xbe928e67	-0.2862427
119	0x3e209c6c	0.1568467
120	0x3da6566e	0.08121954
121	0x3e7b186c	0.24521035
122	0xbe55b047	-0.20868026
123	0x3db118e7	0.08647328
124	0x3dc9aaf6	0.09847061
125	0xbe874bc7	-0.26425
126	0xbe166129	-0.14685501
127	0xbcf308e1	-0.02966732
128	0x3e7a7bb1	0.24461247
129	0xbb943608	-0.0045230426
130	0x3e173e87	0.14769946
131	0xbe307867	-0.1723343
132	0xbe93f00c	-0.2889408
133	0xbe934d8d	-0.28770104
134	0x3e0ec3b6	0.13941845
135	0xbdc127b8	-0.09431404
136	0xbe46c790	-0.19412065
137	0xbe937df2	-0.28807026
138	0xbe96293d	-0.29328337
139	0x3e029bad	0.12754698
140	0x3d1fecba	0.03904412
141	0x3e421311	0.18952586
142	0xbe825919	-0.254586
143	0xbe0f2d93	-0.13982229
144	0xbde56052	-0.11200012
145	0xbe64c972	-0.2234247
146	0xbde6a436	-0.112617895
147	0x3e146d15	0.14494736
148	0x3e049d7c	0.129507
149	0x3d9c4144	0.07629636
150	0x3cead238	0.028664693
151	0x3e8115c8	0.2521193
152	0xbdbfb37a	-0.09360404
153	0x3e48b0e8	0.19598734
154	0x3e8c84fc	0.2744521
155	0x3c3f31be	0.011669574
156	0xbe70d21d	-0.23517652
157	0xbdf6c927	-0.120500855
158	0xbe4d4dfc	-0.2004928
159	0xbe19fec6	-0.15038595
160	0x3e60c682	0.21950725
161	0x3d97ae80	0.0740633
162	0x3c3df3f2	0.011593806
163	0x3ce4a986	0.027912866
164	0x3e5457db	0.20736639
165	0xbde92545	-0.11384062
166	0xbc347a9b	-0.01101556
167	0xbe3ffb4d	-0.18748207
168	0x3d9a42c9	0.075322695
169	0x3e28635b	0.16444151
170	0xbd5b029d	-0.05346929
171	0xbda708a5	-0.08155946
172	0xbe5ea6dc	-0.2174334
173	0xbb2c2bab	-0.0026271145
174	0x3e053023	0.13006644
175	0xbe90b251	-0.28261045
176	0xbe0a0065	-0.13476713
177	0x3e9976ef	0.29973552
178	0x3e4594a7	0.19294988
179	0xbddfc713	-0.10926642
180	0x3db3b958	0.08775586
181	0x3e182685	0.14858444
182	0xbd507746	-0.050894998
183	0x3ded17fb	0.115768395
184	0x3e1ba13a	0.15198222
185	0x3d48948e	0.048969798
186	0xbd83f823	-0.06443813
187	0xbcf0013e	-0.029297467
188	0x3d8bbbf4	0.068229586
189	0x3e1abadd	0.15110345
190	0xbe119180	-0.1421566
191	0xbe4ceddd	-0.20012613
192	0x3d0b32e6	0.033984087
193	0xbe010f5e	-0.12603518
194	0xbe77a105	-0.24182518
195	0xbdd9876b	-0.10621532
196	0xbd961222	-0.07327677
197	0x3e7ceb54	0.24699146
198	0xbe383d19	-0.17992057
199	0x3e0d360a	0.13790146
200	0xbe99f45c	-0.30069244
201	0x3df7a526	0.120920464
202	0xb9addc77	-0.0003316139
203	0xbe8a501c	-0.27014244
204	0x3e96470d	0.29351082
205	0xbe354775	-0.1770304
206	0x3e837769	0.2567704
207	0xb9758141	-0.00023413172
208	0xbd827a09	-0.063709326
209	0x3e29d704	0.16585928
210	0xbe704891	-0.23465182
211	0xbd238c3d	-0.039928664
212	0xbe5d7297	-0.21625744
213	0xbe94d387	-0.29067633
214	0x3d74d993	0.059777807
215	0xbe1689fd	-0.14701076
216	0x3e3d6446	0.18495283
217	0xbd192253	-0.03738625
218	0xbe89fe9b	-0.2695206
219	0xbd7fc784	-0.062446132
220	0xbe9429d1	-0.28938153
221	0x3e7fee82	0.24993327
222	0x3e85fccd	0.26169434
223	0xbe51b1b0	-0.20477939
224	0xbde26776	-0.1105489
225	0x3e1918cd	0.14950867
226	0x3d8ad5d3	0.06779065
227	0xbcfe74a9	-0.031061487
228	0x3da2e583	0.07953932
229	0xbdddc887	-0.10829263
230	0x3bd8f137	0.006620552
231	0xbe8a1779	-0.26971033
232	0xbe8a48dc	-0.27008712
233	0xbe8d9181	-0.27650073
234	0xbc6ff579	-0.014645928
235	0xbe7e0934	-0.24808198
236	0xbc79ee4e	-0.01525457
237	0xbe820061	-0.25390914
238	0x3e28850c	0.16457003
239	0xbdb72b7c	-0.08943841
240	0xbe01e477	-0.12684809
241	0xbe05222f	-0.13001321
242	0x3d8e79ef	0.06956851
243	0xbe1621d2	-0.14661339
244	0x3d5475ee	0.05187028
245	0xbcfb18d0	-0.03065148
246	0x3dc4508e	0.09585677
247	0x3da71f6c	0.0816029
248	0x3dceeaa5	0.10103349
249	0x3e36c23d	0.17847534
250	0xbe17bf16	-0.14818987
251	0x3e4e9202	0.20172885
252	0xbdbf99eb	-0.093555294
253	0x3da5bd39	0.08092732
254	0xbe8824a8	-0.26590466
255	0x3cde94ff	0.027170656

gru.weight_hh_l2 f4 [30, 10]
0	0xbe3306e7	-0.17483102
1	0xbe0d403c	-0.13794035
2	0xbc9c231c	-0.01905971
3	0xbe67bb55	-0.22630055
4	0xbe304817	-0.17215
5	0xbe886aa0	-0.26643848
6	0xbe21af13	-0.15789442
7	0x3db3aac7	0.087728076
8	0x3e526cf3	0.20549373
9	0x3de6d924	0.11271885
10	0x3cd16dda	0.025565077
11	0x38e56519	0.00010938402
12	0x3e8a70be	0.2703914
13	0x3e98136d	0.2970232
14	0xbde831c4	-0.11337617
15	0x3e717f77	0.2358378
16	0xbe8392ba	-0.2569788
17	0xbd0c6e66	-0.03428497
18	0x3e87069b	0.26372227
19	0x3dc6310a	0.09677322
20	0xbe286e77	-0.16448389
21	0xbb244f9b	-0.0025071863
22	0xbe995f9f	-0.29955766
23	0xbe5a2119	-0.21301688
24	0xbe82c05d	-0.25537387
25	0x3cd16944	0.02556289
26	0xbdf9c04b	-0.1219488
27	0xbe459908	-0.19296658
28	0x3e7a61e0	0.24451399
29	0x3e24a31e	0.1607785
30	0x3cc3aefe	0.023887154
31	0xbdf70b13	-0.12062659
32	0xbe8f0fbd	-0.27941695
33	0xbe2690f4	-0.16266233
34	0xbe1b0261	-0.15137626
35	0x3ddec828	0.108780205
36	0xbe44ca4e	-0.19217798
37	0xbdd36b12	-0.103231564
38	0xbdf50c8c	-0.11965284
39	0xbe521395	-0.20515282
40	0xbdfd2864	-0.123612195
41	0xbd5c068a	-0.053717174
42	0x3e3b5cfe	0.18297192
43	0xbe18fe9b	-0.14940874
44	0x3e378d8b	0.17925088
45	0x3ae4bf4d	0.0017452032
46	0x3dfc2cb5	0.12313215
47	0x3e775d8a	0.24156776
48	0xbdaee55d	-0.08539841
49	0xbe9117d2	-0.28338486
50	0xbe509c79	-0.2037219
51	0xbe904355	-0.2817637
52	0xbe97732a	-0.2958005
53	0xbe5327ca	-0.20620647
54	0xbd4ac2b8	-0.049502105
55	0x3c16180c	0.009161007
56	0x3d3816a4	0.044943467
57	0xbde429cf	-0.11140787
58	0xbcd38294	-0.0258191
59	0xbe944d18	-0.28965068
60	0xbe380fb7	-0.17974745
61	0xbe485c3a	-0.19566432
62	0x3e34a1f6	0.17639908
63	0x3e763cb5	0.24046595
64	0x3e07e063	0.1326919
65	0xbe0ffd4b	-0.14061467
66	0xbdbabb05	-0.091177024
67	0x3e39aa15	0.18131287
68	0xbe29a088	-0.16565144
69	0x3e900b27	0.2813351
70	0xbe4b0bac	-0.19828671
71	0x3e49e0e3	0.19714694
72	0x3e5de1d3	0.21668176
73	0x3e789164	0.24274212
74	0xbe3b3ec7	-0.18285666
75	0xbe23c8ec	-0.15994614
76	0x3de925be	0.11384152
77	0xbe444664	-0.19167477
78	0x3e1b361e	0.15157363
79	0x3e7ef948	0.24899781
80	0xbe29ff4a	-0.16601291
81	0x3e3cc4a5	0.18434389
82	0x3e256c2f	0.1615455
83	0x3e816905	0.25275436
84	0xbe071d21	-0.13194706
85	0xbd905fc6	-0.07049517
86	0xbd93bc0e	-0.07213603
87	0x3dc30f4c	0.09524402
88	0x3e071178	0.13190258
89	0x3d9ff287	0.0780993
90	0x3e6915fd	0.22762294
91	0xbe347ce8	-0.17625773
92	0xbb9e62f9	-0.004833576
93	0x3e9646fe	0.29351038
94	0xbda4d822	-0.080490366
95	0xbe576784	-0.21035582
96	0xbe06fd45	-0.13182552
97	0xbe872362	-0.26394182
98	0xbe16972a	-0.14706102
99	0xbde7ae34	-0.113125235
100	0x3ca6fbe5	0.020383785
101	0x3e8b06f9	0.27153757
102	0xbdc6629b	-0.09686776
103	0xbcb04097	-0.021515174
104	0xbcf35a58	-0.029706165
105	0xbdf8d0f1	-0.121492274
106	0xbd9be528	-0.076120675
107	0x3e8e0cf9	0.27744272
108	0x3da8efca	0.08248861
109	0x3cb6454b	0.022249838
110	0x3e2cc9cd	0.16873856
111	0x3d7eb156	0.06218084
112	0x3e7f0ba2	0.24906781
113	0x3e6e846c	0.23292702
114	0xbe9658ca	-0.29364616
115	0x3e2f06ba	0.1709241
116	0x3e99132b	0.29897436
117	0xbe8b658a	-0.27225906
118	0xbd4d2255	-0.05008157
119	0xbdf43c83	-0.11925604
120	0x3e83f5ff	0.25773618
121	0x3d122fff	0.035690304
122	0x3e8935c1	0.26798823
123	0xbd938698	-0.07203406
124	0xbd2dbb3d	-0.042414892
125	0xbc131cd7	-0.008979044
126	0xbc06f79c	-0.008237746
127	0x3e0450d8	0.12921464
128	0xbe2d0017	-0.16894566
129	0xbe1a3b21	-0.15061618
130	0xbe975917	-0.29560158
131	0x3e6b64d1	0.22987677
132	0xbe97e185	-0.29664245
133	0x3d68328f	0.05668884
134	0xbe44ea41	-0.19229986
135	0x3e90af80	0.28258896
136	0x3e68ce06	0.22734842
137	0x3e505339	0.20344247
138	0xbe2de9af	-0.16983674
139	0xbdda7adb	-0.10667964
140	0xbdb0028b	-0.08594235
141	0x3e3b9ca2	0.1832147
142	0x3d6efd4e	0.05834704
143	0xbab7fa62	-0.0014036412
144	0x3d3af8d7	0.04564747
145	0xbe6bdffe	-0.23034665
146	0x3d8d2d4a	0.06893404
147	0x3d846afa	0.06465717
148	0xbe95e9b1	-0.29279855
149	0x3dcb41c8	0.09924656
150	0xbe79a41c	-0.24379009
151	0xba40a1fd	-0.0007348357
152	0x3e84129a	0.25795442
153	0xbd884ffc	-0.06655881
154	0x3e43d2e3	0.19123416
155	0x3e7e4c83	0.24833874
156	0x3debf768	0.11521798
157	0xbe3e3ecd	-0.18578644
158	0xbe8467f8	-0.25860572
159	0xbe63f45c	-0.22261184
160	0xbe40ec08	-0.18840039
161	0x3c9446af	0.01810011
162	0xbc03e7b1	-0.008050845
163	0xbd560e8e	-0.052259974
164	0x3dd5e994	0.10444942
165	0xbd16cdac	-0.036817238
166	0xbe507e0d	-0.20360585
167	0x3e2f5585	0.17122467
168	0x3e1347a5	0.14382799
169	0xbe1317a2	-0.14364484
170	0xbe676ce5	-0.22600134
171	0xbdaf42f9	-0.08557696
172	0x3e07e628	0.13271391
173	0xbdc9a138	-0.09845203
174	0x3e622077	0.22082697
175	0x3d9973ae	0.07492767
176	0x3e18efbc	0.14935201
177	0x3d8ac41d	0.06775687
178	0x3e38b8d6	0.1803926
179	0x3e17b35a	0.14814511
180	0x3e99cd1d	0.30039302
181	0xbde83950	-0.113390565
182	0xbe6d2eef	-0.23162435
183	0xbdb8b7c2	-0.09019424
184	0xbe368f9c	-0.1782822
185	0xbe13bb12	-0.1442683
186	0xbd0220ac	-0.03176944
187	0xbd55e79d	-0.052222837
188	0x3e43bfc5	0.19116123
189	0xbe788984	-0.24271208
190	0xbcce3359	-0.025170969
191	0x3c36b69d	0.011151937
192	0xbddf5001	-0.109039314
193	0x3d2a60f2	0.04159636
194	0xbe556eb0	-0.20843005
195	0xbe7204ff	-0.23634718
196	0x3e22689a	0.15860215
197	0xbdaa5bf6	-0.083183214
198	0x3e0d0a2b	0.1377341
199	0xbcdbaf72	-0.026817057
200	0x3d9290cb	0.07156523
201	0xbe7b5cdc	-0.24547142
202	0xbc03f2df	-0.00805351
203	0x3e07b6a4	0.13253266
204	0xbe8285c9	-0.25492695
205	0x3e8aa088	0.270756
206	0x3db5a10f	0.0886861
207	0xbe37a920	-0.1793561
208	0xbe0ddff5	-0.13854964
209	0xbcced12a	-0.025246222
210	0xbe68c41a	-0.22731057
211	0xbe53de71	-0.20690323
212	0x3ddc60ac	0.10760626
213	0x3e4e556a	0.2014977
214	0x3d6b2493	0.057407927
215	0xbe99abec	-0.30013978
216	0xbd87105a	-0.06594916
217	0xbd7e7174	-0.062119916
218	0x3d0f2fdc	0.03495775
219	0xbe440474	-0.19142324
220	0x3e6290d9	0.22125567
221	0x3bf268ce	0.0073977476
222	0x3ca92c4e	0.020651009
223	0xbdff8208	-0.12475973
224	0x3cf8c00a	0.030365009
225	0x3e417401	0.18891908
226	0x3c8cb413	0.01717571
227	0x3e1bef0f	0.15227912
228	0x3dd4d3f0	0.10391986
229	0x3e63cd69	0.22246327
230	0xbdbab09a	-0.09115715
231	0xbdcb1a29	-0.09917099
232	0xbe5bc987	-0.21463595
233	0xbe41cad2	-0.18925026
234	0x3e8aa908	0.27082086
235	0x3c907820	0.017635405
236	0x3caafbd4	0.020872034
237	0xbe912fd9	-0.28356817
238	0x3e907b65	0.28219143
239	0xbe685c00	-0.22691345
240	0xbe99250f	-0.29911086
241	0xbc5bcbfc	-0.013415333
242	0xbe02f3aa	-0.12788263
243	0xbd987efb	-0.074460946
244	0xbe75be7a	-0.23998442
245	0x3d242037	0.040069785
246	0x3d6337cf	0.055473145
247	0x3e5bb840	0.21457005
248	0x3d90c039	0.070679136
249	0xbce76b87	-0.028249515
250	0x3cf18d5d	0.029486353
251	0xbe992d05	-0.2991716
252	0xbd94b608	-0.07261282
253	0x3de4ff65	0.11181525
254	0xbe7009f7	-0.23441301
255	0x3e5060f4	0.20349485

gru.bias_ih_l2 f4 [30]
0	0xbe95059c	-0.29105842
1	0x3e5bfa9b	0.21482317
2	0x3e982cf7	0.29721805
3	0xbcad0647	-0.021121157
4	0x3e834062	0.25635058
5	0x3e875042	0.2642842
6	0xbe1f26fb	-0.15542214
7	0x3d783e80	0.06060648
8	0x3e090d26	0.13383922
9	0x3e41f948	0.1894275
10	0x3e563d40	0.20921803
11	0x3b803be5	0.00391339
12	0xbd194f11	-0.03742892
13	0x3dc1429d	0.094365336
14	0x3e96e67a	0.29472715
15	0xbddf6184	-0.109072715
16	0xbe2c0479	-0.16798581
17	0x3e557a24	0.20847374
18	0x3de8e832	0.11372413
19	0xbd8bad7c	-0.06820199
20	0x3e65704d	0.2240612
21	0xbdbde9d4	-0.09273115
22	0x3e1668ac	0.14688367
23	0xbe81b452	-0.25332886
24	0x3e03fe07	0.12889872
25	0x3e47defe	0.19518659
26	0xbe8dc06c	-0.2768587
27	0xbdad2663	-0.08454587
28	0xbe232bb3	-0.15934639
29	0x3dfd110a	0.123567656

gru.bias_hh_l2 f4 [30]
0	0xbd34e7f8	-0.044166535
1	0x3e8ac072	0.2709995
2	0xbe79deee	-0.24401447
3	0x3d692c6c	0.05692713
4	0x3e5a073a	0.21291819
5	0xbe928be7	-0.28622362
6	0xbd37834c	-0.04480295
7	0xbd6b45a2	-0.057439454
8	0xbccd4f73	-0.025062298
9	0xbd008972	-0.031381078
10	0xbd3e8371	-0.04651207
11	0x3e27702a	0.16351381
12	0xbe92c62d	-0.2866682
13	0x3e4d133f	0.20026873
14	0xbe4d0bee	-0.20024082
15	0xbe59a3bf	-0.2125387
16	0xbdc245ee	-0.09485994
17	0x3cbf65ec	0.02336403
18	0x3d80b01a	0.06283589
19	0xbe98cf64	-0.29845726
20	0xbdd52e87	-0.10409265
21	0xbbd54404	-0.0065083522
22	0x3e88bb60	0.26705456
23	0xbd963bbf	-0.073356144
24	0xbe937132	-0.287973
25	0xbdd1d10e	-0.10244952
26	0xbe7cbd4b	-0.24681585
27	0x3d4dfe46	0.050291322
28	0xbe546227	-0.20740567
29	0x3cf74cc2	0.030187968

gru.weight_ih_l3 f4 [30, 10]
0	0x3c4b4bea	0.012408236
1	0xbd289225	-0.041155
2	0x3d16339e	0.03667032
3	0xbce9e0de	-0.028549608
4	0xbe471a3d	-0.19443603
5	0xbc8ab435	-0.016931633
6	0xbc9d816f	-0.019226758
7	0x3e25258b	0.16127603
8	0x3e6f6e29	0.23381867
9	0xbda114c2	-0.07865287
10	0x3e9406ae	0.28911346
11	0xbe89b203	-0.26893625
12	0xbd29556a	-0.041341223
13	0xbe314c79	-0.17314328
14	0xbdc2dcac	-0.09514746
15	0x3e3e7d65	0.18602522
16	0xbe919060	-0.28430462
17	0x3daf2908	0.08552748
18	0xbdbfe814	-0.09370437
19	0x3dd39a70	0.10332191
20	0x3e1325e5	0.14369924
21	0x3e55ffd8	0.20898378
22	0xbe410b48	-0.1885196
23	0x3d8e60e8	0.06952077
24	0xbdd341ea	-0.103153065
25	0x3dcc073b	0.099623166
26	0xbdcdff7e	-0.10058497
27	0xbdf3dd3a	-0.1190743
28	0xbe0c763b	-0.13716976
29	0x3e553afc	0.20823282
30	0xbe0b8c33	-0.136277
31	0xbe8851d3	-0.26624927
32	0xbe17f474	-0.14839345
33	0xbe26af3f	-0.16277789
34	0x3dcdeed7	0.10055321
35	0xbe680cb3	-0.22661094
36	0x3e6b8c0e	0.23002645
37	0xbe841407	-0.2579653
38	0x3e57fa1f	0.21091507
39	0x3e4b0ff9	0.19830312
40	0xbe366000	-0.17810059
41	0x3e3601e1	0.17774154
42	0xbe27fe6f	-0.16405652
43	0xbe1e4573	-0.1545618
44	0x3e85a23e	0.26100343
45	0x3e8c1ad2	0.27364212
46	0x3e8d80f9	0.2763746
47	0x3d07cf9b	0.033156972
48	0x3e550bd6	0.20805296
49	0x3cfbb5c7	0.030726327
50	0xbe25e83c	-0.16201872
51	0xbe3522e7	-0.17689095
52	0xbe7df2dc	-0.24799675
53	0x3e728c43	0.23686318
54	0xbe311f20	-0.1729703
55	0x3b2c4afb	0.002628981
56	0x3e1ab70f	0.15108894
57	0x3d2b842f	0.041874107
58	0x3e302101	0.1720009
59	0x3e70c236	0.23511586
60	0x3c9a987b	0.018871536
61	0xbdc34ac2	-0.09535743
62	0x3e1d72b2	0.15375784
63	0x3d820cfc	0.06350133
64	0x3c6d0215	0.014465828
65	0xbdb97124	-0.09054783
66	0x3d03c7e3	0.03217305
67	0x3c3c4ee4	0.011493418
68	0xbe4fa5db	-0.20278113
69	0x3bbe7ba1	0.0058130776
70	0xbe7ed3fc	-0.24885553
71	0xbe06b792	-0.13155964
72	0xbe6cde61	-0.23131706
73	0xbe7f492e	-0.2493026
74	0xbdac9bb1	-0.08428133
75	0xbe4040ba	-0.18774691
76	0xbe52128a	-0.20514885
77	0x3e824b61	0.25448135
78	0x3e9681e3	0.2939597
79	0x3e376c56	0.1791242
80	0xbe89f80a	-0.2694705
81	0xbdd02216	-0.101627514
82	0x3e2a7f03	0.16650014
83	0xbe934518	-0.28763652
84	0xbe7edf9e	-0.2488999
85	0x3d30d8e7	0.043175604
86	0x3cae6e5b	0.021292856
87	0x3e52d102	0.20587543
88	0xbc453233	-0.012035894
89	0xbe354030	-0.17700267
90	0x3e91b141	0.28455546
91	0xbdd86ec9	-0.105680056
92	0xbe6c37de	-0.23068187
93	0x3e085c9a	0.13316575
94	0x3ddd96a4	0.10819748
95	0xbe7a549b	-0.24446337
96	0x3e8c1845	0.27362266
97	0x3c7418cf	0.014898493
98	0xbd630d0f	-0.055432376
99	0x3e55c90a	0.20877472
100	0x3d96216e	0.07330595
101	0xbdc1f6d4	-0.09470907
102	0xbddf6f0a	-0.10909851
103	0xbdc03f2f	-0.09387051
104	0x3e1b5f6c	0.1517312
105	0xbe42857b	-0.18996231
106	0xbe6ac1a5	-0.22925432
107	0x3dd11ae2	0.102102056
108	0xbddf009e	-0.108887896
109	0x3e882c82	0.26596457
110	0x3cfbdca2	0.030744854
111	0xbdea576a	-0.11442454
112	0x3e5ba837	0.21450888
113	0xbe8af61e	-0.27140898
114	0xbd324946	-0.04352691
115	0x3b126590	0.0022338368
116	0xbdd73267	-0.1050766
117	0x3d5dff3e	0.054198496
118	0xbe04f2ac	-0.12983197
119	0x3e5c45cb	0.21510999
120	0xbdf11fac	-0.11773619
121	0xbc535aef	-0.012900098
122	0x3de10353	0.10986962
123	0x3d37c82c	0.044868633
124	0xbe8b2d23	-0.27182874
125	0x3d62d910	0.05538279
126	0x3ad902d1	0.0016556625
127	0x3db1e263	0.08685758
128	0xbe1343b8	-0.14381301
129	0xbe3b8dfa	-0.18315879
130	0x3c93729e	0.01799899
131	0x3e223200	0.15839386
132	0x3e96bfb5	0.29443136
133	0xbe0b0928	-0.13577712
134	0x3e541691	0.20711733
135	0x3e087d32	0.13329008
136	0xbdcdd370	-0.10050094
137	0x3e7e2664	0.24819332
138	0xbe8bbe65	-0.27293697
139	0xbe838957	-0.2569072
140	0x3d8b8642	0.06812717
141	0xbe2ce195	-0.16882928
142	0xbe83f90d	-0.25775948
143	0x3e6bb918	0.23019826
144	0x3e76738c	0.24067515
145	0xbd68e7a8	-0.05686155
146	0xbe255e61	-0.16149284
147	0x3e514dcc	0.20439833
148	0xbe02aef7	-0.12762056
149	0xbdb843ef	-0.08997332
150	0x3e7abe4e	0.24486658
151	0xbdc9cedc	-0.098539084
152	0x3e371b13	0.17881422
153	0x3dd41e22	0.1035731
154	0x3e262043	0.16223244
155	0xbda19248	-0.07889229
156	0x3e0c01e3	0.13672595
157	0xbe8f5bcb	-0.2799972
158	0x3e83f562	0.2577315
159	0x3dc8862b	0.097912155
160	0x3d55edb8	0.05222866
161	0x3e6a99f0	0.22910285
162	0xbd877d3e	-0.06615685
163	0x3e789ff7	0.24279772
164	0xbe89aaf7	-0.26888248
165	0x3e0005b1	0.12502171
166	0xbe06988c	-0.1314413
167	0xbe5af38d	-0.2138197
168	0x3e2c9a0e	0.16855642
169	0xbe908a0c	-0.2823032
170	0xbd0401ac	-0.032228157
171	0xbdb2e007	-0.08734136
172	0xbd865936	-0.065599844
173	0x3e80213e	0.25025362
174	0x3e5fd99c	0.21860355
175	0xbe1c8ee2	-0.1528888
176	0x3c62a427	0.013833082
177	0x3ce311ed	0.027718509
178	0x3e8b39ea	0.27192622
179	0xb94ec94a	-0.00019720677
180	0xbe4e233d	-0.2013063
181	0xbe83e09c	-0.257573
182	0x3de7494c	0.11293277
183	0x3e880a1d	0.26570216
184	0xbe6edcbf	-0.23326395
185	0xbe869a61	-0.26289657
186	0x3e775f1a	0.24157372
187	0xbc70cc78	-0.014697187
188	0x3ce58417	0.028017087
189	0xbdf4132b	-0.119177185
190	0xbe629916	-0.2212871
191	0xbe5bd45f	-0.21467732
192	0xbdeb5d74	-0.11492434
193	0x3e8b3c5a	0.27194482
194	0xbe918aad	-0.28426114
195	0x3e92158d	0.28532067
196	0x3e3ecfb7	0.18633924
197	0x3e866bc6	0.262541
198	0xbe3ddf2d	-0.18542166
199	0x3e8c95aa	0.27457935
200	0xbe1d0c57	-0.15336739
201	0xbe76e4d0	-0.24110723
202	0xbe9350ae	-0.2877249
203	0x3ca93b46	0.020658147
204	0x3e91a026	0.28442496
205	0x3ddb2726	0.10700826
206	0xbdfae07e	-0.1224985
207	0xbe4a3b2f	-0.19749139
208	0x3cb4a9c2	0.022053603
209	0x3dc53d82	0.09630872
210	0x3e3d2fe6	0.18475303
211	0x3e0173ae	0.12641785
212	0x3e8fd281	0.2809029
213	0x3d14cd15	0.036328394
214	0xbe7c8b92	-0.24662617
215	0xbe79c709	-0.24392332
216	0xbe07990f	-0.13241981
217	0x3e37a814	0.1793521
218	0x3e062848	0.13101304
219	0xbe5b4b94	-0.2141555
220	0xbd8af14a	-0.067843035
221	0x3d5a2237	0.053255286
222	0x3e1f3b06	0.1554986
223	0x3e94d3a7	0.29067728
224	0xbb232a6c	-0.0024897112
225	0x3e62dbb2	0.2215412
226	0x3e63cf2a	0.22246996
227	0xbe2e8dfd	-0.17046352
228	0xbe1fc960	-0.15604162
229	0xbe67ee19	-0.22649421
230	0xbd753d4f	-0.05987292
231	0xbe0f66e2	-0.1400409
232	0xbcdafd57	-0.02673213
233	0xbdf4cc4f	-0.11953031
234	0xbe516b1d	-0.20451017
235	0x3c94574c	0.018108033
236	0xbb9c9f6c	-0.0047797468
237	0x3e38fa13	0.18064146
238	0xbe16ddad	-0.14733
239	0xbdd936da	-0.10606165
240	0xbc8dcb60	-0.01730889
241	0x3ddd99f4	0.1082038
242	0xbe064c52	-0.13115051
243	0xbdf099c3	-0.11748078
244	0x3ba840f9	0.0051346985
245	0xbdf686c1	-0.12037421
246	0x3e818de9	0.2530358
247	0x3e845a1b	0.25849995
248	0x3e8dc64a	0.27690345
249	0xbe4b50cd	-0.19855042
250	0x3dced196	0.10098569
251	0xbe6ad8aa	-0.22934213
252	0xbd32763c	-0.04356979
253	0x3e81437b	0.25246796
254	0xbcb7b6e5	-0.022426078
255	0xbd4f0896	-0.050545298
