model-prob/model.pth (torch, 102372 bytes, 34 tensors)

gru.weight_ih_l0 f4 [15, 1]
0.21371394 -0.09123077 -0.28768256 0.27929947 0.036459558 -0.28247067 -0.41225025 -0.13005057
-0.7476664 0.24956693 0.3240942 -0.35944796 -0.27394092 0.32242376 0.40009943
00000000: d4d7 5a3e 33d7 babd 214b 93be 5700 8f3e
00000010: 9e56 153d ff9f 90be 7712 d3be fa2b 05be
00000020: 1167 3fbf 798e 7f3e adef a53e 9009 b8be
00000030: fc41 8cbe ba14 a53e d5d9 cc3e

gru.weight_hh_l0 f4 [15, 5]
-0.19869363 -0.43753782 0.29712874 0.28517956 -0.043893706 0.21681012 -0.41291583 -0.4138665
0.1949721 -0.1764582 -0.30615383 -0.07373749 -0.06624824 0.10831827 0.15587662 0.079257
-0.048769586 -0.11744801 -0.42029902 -0.10724001 0.2082899 -0.07985551 0.02101072 0.010799838
-0.2843871 -0.21482255 0.04644677 0.033834014 -0.37772277 -0.5668003 -0.26693526 0.029433483
-0.47613928 -0.53363824 -0.3303246 0.35671443 -0.034600876 -0.34858623 0.31945226 0.16431686
-0.16882409 0.23150021 -0.76877195 -0.44167787 -0.097459845 0.05017818 0.5372172 0.014387909
-0.15214333 -0.45056897 -0.061912723 0.111999124 0.025554312 0.2779437 0.42392123 -0.4476417
0.43786797 0.08209578 -0.1909831 -0.0893319 -0.03403142 -0.34032738 0.48535737 0.2837249
-0.28193223 0.5214335 0.36489248 -0.2307109 -0.14278233 0.020832423 0.114698 -0.12700747
-0.5769739 -0.079840176 0.0011416668
00000000: 5876 4bbe f504 e0be 4221 983e 0e03 923e
00000010: e3c9 33bd 7903 5e3e b469 d3be 4fe6 d3be
00000020: c4a6 473e 75b1 34be 32c0 9cbe ae03 97bd
00000030: 28ad 87bd f8d5 dd3d 1f9e 1f3e 7e51 a23d
00000040: 9ec2 47bd 9588 f0bd 6f31 d7be a6a0 dbbd
00000050: f349 553e 498b a3bd ac1e ac3c cef1 303c
00000060: 309b 91be 71fa 5bbe f83e 3e3d 8995 0a3d
00000070: e164 c1be d319 11bf bdab 88be 7d1e f13c
00000080: 87c8 f3be 849c 08bf 4e20 a9be 46a3 b63e
00000090: a6b9 0dbd e579 b2be 3f8f a33e ae42 283e
000000a0: 39e0 2cbe 640e 6d3e 3dce 44bf 9a23 e2be
000000b0: 0799 c7bd a387 4d3d 1187 093f 44bb 6b3c
000000c0: 76cb 1bbe fab0 e6be 3298 7dbd cc5f e53d
000000d0: 4757 d13c a34e 8e3e 340c d93e 4b31 e5be
000000e0: 3b30 e03e d521 a83d 1391 43be a5f3 b6bd
000000f0: 8864 0bbd 643f aebe c380 f83e 6444 913e
00000100: 6c59 90be aa7c 053f 30d3 ba3e 7a3f 6cbe
00000110: 8835 12be c2a8 aa3c c9e6 ea3d 3f0e 02be
00000120: 90b4 13bf 3f83 a3bd fba3 953a

gru.bias_ih_l0 f4 [15]
-0.3406773 -0.1901556 0.076711684 -0.27124268 0.046256952 -0.17780921 -0.30687684 -0.32875374
-0.58764815 0.1789719 -0.14637418 0.21150647 0.27392292 0.25593248 -0.02385309
00000000: 416d aebe 26b8 42be 041b 9d3d 52e0 8abe
00000010: ee77 3d3d 9e13 36be f61e 9dbe 6952 a8be
00000020: 1c70 16bf 6944 373e 1de3 15be 2795 583e
00000030: a03f 8c3e 9509 833e 8e67 c3bc

gru.bias_hh_l0 f4 [15]
-0.06645827 -0.37027818 -0.30248347 0.47523037 0.38568115 -0.7093832 -0.082128055 -0.3143606
-0.5071491 0.095771514 -0.18327256 -0.35137528 0.045737904 -0.26427618 0.19909991
00000000: 461b 88bd 1a95 bdbe 1ddf 9abe 6551 f33e
00000010: 0078 c53e 239a 35bf c132 a8bd dff3 a0be
00000020: 86d4 01bf db23 c43d cdab 3bbe 76e7 b3be
00000030: ab57 3b3d 354f 87be d9e0 4b3e

gru.weight_ih_l1 f4 [15, 5]
-0.38469288 -0.06340206 0.2601301 0.1248568 0.11135404 0.34050483 0.103614 0.114761494
-0.1770782 -0.14058271 -0.46349737 0.38057715 0.56914335 0.20213428 0.11892579 0.2752055
-0.41570297 -0.14227329 0.40133804 0.49520344 -0.44626307 -0.24704202 -0.15389895 0.022843828
-0.1504871 -0.18882173 0.33133572 -0.30061957 0.31592247 -0.13489793 0.18250883 0.0759945
-0.47933453 -0.04248383 -0.041295864 0.05034915 -0.56712544 0.13077742 0.12404609 0.192206
-0.43029565 0.5556728 -0.058140595 -0.032112043 -0.31887132 0.5798879 -0.31626618 -0.30625117
-0.29424122 0.4995707 0.56428176 -0.47410512 -0.27089897 -0.3236555 -0.2425646 0.2395593
0.19234134 -0.078305334 0.36892927 -0.0706649 -0.2098257 0.3828359 0.4241794 -0.41825175
0.09039826 0.3162286 0.22862308 -0.23580766 0.1369003 0.35710666 -0.26022828 -0.45048958
-0.41852045 0.046504293 -0.11436489
00000000: 77f6 c4be f0d8 81bd c62f 853e ecb4 ff3d
00000010: 960d e43d a656 ae3e 9433 d43d 1308 eb3d
00000020: fd53 35be eaf4 0fbe 874f edbe 02db c23e
00000030: 61b3 113f 4afc 4e3e 5d8f f33d bce7 8c3e
00000040: 05d7 d4be 17b0 11be 2e7c cd3e 4e8b fd3e
00000050: 987c e4be 95f8 7cbe b097 1dbe fb22 bb3c
00000060: 4a19 1abe 7c5a 41be d6a4 a93e cfea 99be
00000070: 97c0 a13e af22 0abe 98e3 3a3e 01a3 9b3d
00000080: 566b f5be 8603 2ebd da25 29bd e93a 4e3d
00000090: 222f 11bf 84ea 053e e00b fe3d a6d1 443e
000000a0: b64f dcbe 9340 0e3f d524 6ebd eb87 03bd
000000b0: 1a43 a3be 8973 143f a4ed a1be f4cc 9cbe
000000c0: c9a6 96be bbc7 ff3e c574 103f e8bd f2be
000000d0: 45b3 8abe 2cb6 a5be db62 78be 084f 753e
000000e0: 21f5 443e 8c5e a0bd 4ce4 bc3e c2b8 90bd
000000f0: 8cdc 56be 1103 c43e 0b2e d93e 1825 d6be
00000100: b922 b93d b7e8 a13e 2b1c 6a3e 9077 71be
00000110: 982f 0c3e afd6 b63e a43c 85be 92a6 e6be
00000120: 5048 d6be 497b 3e3d 2438 eabd

gru.weight_hh_l1 f4 [15, 5]
-0.021849332 0.41566122 0.56444854 -0.26503962 -0.21048853 0.31090236 -0.394427 -0.21113586
-0.33529723 -0.32045093 0.11851331 -0.049411118 0.61658776 0.23276559 -0.4409894 0.30437943
-0.44215393 0.054338176 0.21886529 -0.17536578 -0.11172755 -0.25037822 0.4517464 -0.47594783
-0.42428106 0.008070462 0.25982904 -0.016921517 0.32674655 -0.28305888 0.31146526 0.07334431
-0.08105625 -0.046153743 -0.35830292 0.35961944 -0.027390638 -0.026653443 0.15450767 0.032908287
-0.6056327 -0.1401011 0.104559645 0.108255014 -0.27928427 0.29192278 -0.1587919 -0.17526236
-0.13036506 -0.30506986 0.12709188 0.09242514 -0.13540308 -0.047072034 0.42900577 0.40741882
0.16850197 -0.016794892 0.19596213 0.14026053 -0.63993585 -0.40519693 0.04827393 -0.160311
-0.2814478 0.22299105 -0.09135979 -0.7130742 0.015159415 -0.37453607 -0.1814113 -0.14434138
-0.5799012 0.30596122 -0.20084164
00000000: 5ffd b2bc 8cd1 d43e b37f 103f 46b3 87be
00000010: 4e8a 57be 982e 9f3e 56f2 c9be 0034 58be
00000020: 14ac abbe 2512 a4be 1bb7 f23d 5063 4abd
00000030: b2d8 1d3f 1a5a 6e3e 5dc9 e1be 9fd7 9b3e
00000040: 0062 e2be b591 5e3d 391e 603e 1693 33be
00000050: 6ad1 e4bd 9331 80be 4e4b e73e 6faf f3be
00000060: 5e3b d9be f939 043c 5008 853e fe9e 8abc
00000070: 534b a73e 18ed 90be 6078 9f3e 8b35 963d
00000080: d200 a6bd b50b 3dbd 7b73 b7be 0a20 b83e
00000090: 5562 e0bc 5258 dabc 4237 1e3e d7ca 063d
000000a0: bf0a 1bbf aa76 0fbe 5e23 d63d ceb4 dd3d
000000b0: 59fe 8ebe e776 953e 589a 22be fa77 33be
000000c0: 6b7e 05be 1e32 9cbe 6024 023e 6449 bd3d
000000d0: 1ba7 0abe 9bce 40bd a5a6 db3e 3399 d03e
000000e0: c88b 2c3e 7195 89bc 4caa 483e 75a0 0f3e
000000f0: d6d2 23bf f975 cfbe e2ba 453d 9128 24be
00000100: ed19 90be c457 643e d71a bbbd 088c 36bf
00000110: 325f 783c 31c3 bfbe e2c3 39be 3ace 13be
00000120: 6874 14bf f3a6 9c3e 6ea9 4dbe

gru.bias_ih_l1 f4 [15]
0.28868014 0.4420037 0.14816786 0.54830605 0.27045763 0.30040318 0.13751835 0.4357149
-0.37456766 -0.04536637 0.106880866 -0.22605306 0.22507362 0.13032985 -0.34717757
00000000: e2cd 933e 4f4e e23e 51b9 173e c95d 0c3f
00000010: 6c79 8a3e 72ce 993e 9cd1 0c3e 0616 df3e
00000020: 55c7 bfbe 16d2 39bd 5be4 da3d 747a 67be
00000030: b379 663e 3075 053e 42c1 b1be

gru.bias_hh_l1 f4 [15]
-0.12509038 -0.110616826 0.2473477 -0.19424625 -0.35346958 0.22159794 0.18597667 0.15667503
0.30816594 -0.15367305 -0.03083187 0.1545465 0.015002766 -0.12331531 -0.40146485
00000000: b117 00be 138b e2bd b748 7d3e 7de8 46be
00000010: f7f9 b4be 92ea 623e ab70 3e3e 6b6f 203e
00000020: edc7 9d3e 785c 1dbe 1e93 fcbc 7041 1e3e
00000030: 29ce 753c bd8c fcbd cd8c cdbe

gru.weight_ih_l2 f4 [15, 5]
0.11537592 0.07047419 -0.72509587 0.34390762 0.17159456 0.32573196 0.2451784 -0.25367022
-0.07672822 -0.30366495 -0.18173823 0.1221452 0.5397595 -0.41954073 -0.3674475 0.46457064
0.19330189 -0.14995673 -0.30183932 0.07112984 -0.00047389284 0.34133458 -0.09163435 0.23182027
-0.119514 0.4602193 0.053989206 0.16074954 -0.123180285 -0.4073012 -0.4773052 0.20972694
0.14987798 -0.43722755 0.016063344 0.10215022 0.25171265 -0.51278925 0.03480108 -0.1959288
0.06261705 -0.30624408 -0.3327156 0.090503395 -0.39079747 -0.08136332 0.021385802 0.13891955
-0.29823446 0.14710158 -0.14794645 -0.12065449 0.41625962 -0.07514546 0.18192449 0.11198027
-0.12388628 -0.38509253 -0.29798868 -0.08043222 0.4557628 0.3523314 -0.32230645 0.47195002
0.17308114 -0.53061557 0.112814106 0.35786298 0.35133666 -0.2766534 0.008795158 0.3511236
0.4914219 -0.48220295 -0.20248713
00000000: 364a ec3d c654 903d e29f 39bf a914 b03e
00000010: 7cb6 2f3e 57c6 a63e 0c10 7b3e 10e1 81be
00000020: af23 9dbd f979 9bbe 9619 3abe 4327 fa3d
00000030: ae2d 0a3f 0bce d6be 1422 bcbe 34dc ed3e
00000040: eef0 453e 428e 19be af8a 9abe 86ac 913d
00000050: d274 f8b9 68c3 ae3e caaa bbbd 4b62 6d3e
00000060: c2c3 f4bd dda1 eb3e c923 5d3d 879b 243e
00000070: f245 fcbd c889 d0be 5961 f4be a9c2 563e
00000080: 9d79 193e 4adc dfbe 4697 833c 2234 d13d
00000090: 7be0 803e 2846 03bf 948b 0e3d 8fa1 48be
000000a0: 5e3d 803d 06cc 9cbe b359 aabe d859 b93d
000000b0: 9b16 c8be d0a1 a6bd 4731 af3c ed40 0e3e
000000c0: 30b2 98be cca1 163e 467f 17be b419 f7bd
000000d0: fb1f d53e dde5 99bd 6a4a 3a3e e955 e53d
000000e0: 17b8 fdbd d92a c5be f991 98be a6b9 a4bd
000000f0: be59 e93e c864 b43e 5a05 a5be 6fa3 f13e
00000100: 2f3c 313e 6cd6 07bf 150b e73d d139 b73e
00000110: 66e2 b33e 84a5 8dbe 9119 103c 79c6 b33e
00000120: a79b fb3e 4ee3 f6be c958 4fbe

gru.weight_hh_l2 f4 [15, 5]
0.2869803 0.2734463 -0.31214598 -0.026741372 -0.36303672 0.020257207 -0.24295026 -0.062085032
-0.5147127 -0.23949875 0.42926434 -0.16842799 0.25816894 -0.3179673 0.49836597 -0.06279686
-0.17032932 0.3999755 0.102583766 -0.029883234 0.1753638 0.21879148 -0.1803792 0.124850295
0.21001898 0.13913691 0.38600272 -0.3769818 -0.19563532 0.39988625 -0.44228834 -0.09953902
0.25809273 -0.21507345 -0.22632526 0.14977585 0.5618578 0.21222608 -0.18084791 -0.004896666
0.35353214 -0.24348351 -0.30949962 0.06370136 0.0066837952 0.22491533 -0.14618675 -0.16290274
0.23937026 -0.13971359 0.0104481075 0.20711227 0.07902546 0.3511847 -0.1116336 -0.5271991
0.015786022 -0.124380305 0.0836996 0.056324463 0.032050457 0.26488778 0.26664573 -0.16295943
-0.019987302 0.16268991 0.19840176 -0.054959998 -0.058577716 -0.11699081 0.35407484 0.11253143
-0.07672301 -0.35555464 -0.07356858
00000000: 15ef 923e 2701 8c3e 99d1 9fbe b910 dbbc
00000010: f3df b9be 71f2 a53c f4c7 78be e04c 7ebd
00000020: 36c4 03bf 293f 75be 89c8 db3e 6378 2cbe
00000030: b82e 843e 9ccc a2be d329 ff3e a49b 80bd
00000040: cf6a 2ebe 97c9 cc3e 7017 d23d afcd f4bc
00000050: 9192 333e e00a 603e 53b5 38be 83b1 ff3d
00000060: 370f 573e e879 0e3e 26a2 c53e c203 c1be
00000070: a054 48be e4bd cc3e 9e73 e2be 1ddb cbbd
00000080: bb24 843e 373c 5cbe cfc1 67be d75e 193e
00000090: ead5 0f3f cb51 593e 3230 39be 3674 a0bb
000000a0: 2a02 b53e be53 79be bc76 9ebe dc75 823d
000000b0: bd03 db3b 3450 663e fbb1 15be facf 26be
000000c0: 7a1d 753e 1411 0fbe 8a2e 2b3c 3d15 543e
000000d0: 1ad8 a13d 7bce b33e 28a0 e4bd 85f6 06bf
000000e0: b051 813c 1abb febd b26a ab3d 7bb4 663d
000000f0: 5747 033d 5f9f 873e ca85 883e d6de 26be
00000100: 69bc a3bc 2f98 263e d529 4b3e bc1d 61bd
00000110: 30ef 6fbd e198 efbd 4c49 b53e e176 e63d
00000120: f420 9dbd 420b b6be 20ab 96bd

gru.bias_ih_l2 f4 [15]
-0.37403244 -0.33912185 -0.39373216 -0.26577738 -0.11178897 0.4931612 0.15030271 0.35298553
0.3577152 0.39467314 0.32320222 0.122855626 -0.31740758 0.20119277 0.12086098
00000000: 2e81 bfbe 61a1 adbe 4397 c9be f913 88be
00000010: 9ef1 e4bd a07f fc3e f4e8 193e 85ba b43e
00000020: 7226 b73e 9912 ca3e c37a a53e bb9b fb3d
00000030: 3f83 a2be 7a05 4e3e f685 f73d

gru.bias_hh_l2 f4 [15]
-0.16986509 -0.4177031 0.18619564 0.12174372 0.08779864 -0.23234348 -0.29621333 0.26341987
0.16638295 0.3513736 -0.34446037 -0.09715804 -0.0018411637 -0.3887056 0.09807287
00000000: 1df1 2dbe 2edd d5be 12aa 3e3e c554 f93d
00000010: c6cf b33d 73eb 6dbe 46a9 97be f8de 863e
00000020: 4b60 2a3e 3ee7 b33e 1c5d b0be cbfa c6bd
00000030: 3453 f1ba 6c04 c7be 6eda c83d

gru.weight_ih_l3 f4 [15, 5]
-0.13236424 0.1827611 -0.20515434 0.3316097 -0.4802472 -0.52122235 -0.15558554 -0.0802088
-0.14328696 0.19887723 -0.38480586 0.16042371 -0.27909717 -0.18548489 0.15351866 -0.31634903
-0.2755963 -0.2933705 0.43789575 0.044826187 0.347368 0.0037882028 -0.17731722 -0.23115055
-0.055643745 0.33895272 0.26395535 -0.30735692 0.44985917 0.1248439 0.089164175 0.07323066
-0.47755623 0.41038164 -0.048697952 0.26854235 -0.14995277 -0.3539491 0.26165754 0.13925046
-0.4193838 -0.10163121 0.18946806 -0.33125973 -0.33696875 -0.027830279 -0.006837955 0.1911506
0.057797402 0.09837983 0.01254236 -0.22932501 0.24848126 0.036659993 -0.2268862 0.017628856
-0.18674764 0.0083991 -0.3271171 -0.29915267 0.121285476 0.051064588 0.059602972 0.36335155
0.04355661 0.072744235 0.34145162 -0.06288286 0.043089252 -0.058295943 0.25114682 0.30493355
-0.21948647 -0.24966793 -0.43184194
00000000: 7e8a 07be ba25 3b3e fb13 52be bfc8 a93e
00000010: f6e2 f5be d46e 05bf d151 1fbe 8344 a4bd
00000020: d1b9 12be 79a6 4b3e 4605 c5be 1d46 243e
00000030: d3e5 8ebe c0ef 3dbe ff33 1d3e 80f8 a1be
00000040: f51a 8dbe a834 96be df33 e03e aa9b 373d
00000050: 38da b13e 7f43 783b a592 35be bbb2 6cbe
00000060: b2ea 63bd 368b ad3e 2825 873e e35d 9dbe
00000070: f153 e63e 29ae ff3d b59b b63d f5f9 953d
00000080: 4082 f4be 8b1d d23e 8177 47bd 627e 893e
00000090: 388d 19be d138 b5be faf7 853e ac97 0e3e
000000a0: 79b9 d6be 0624 d0bd ea03 423e e09a a9be
000000b0: 2b87 acbe 53fc e3bc ed10 e0bb fcbc 433e
000000c0: f8bc 6c3d 5d7b c93d 797e 4d3c 2dd4 6abe
000000d0: df71 7e3e ca28 163d db54 68be 646a 903c
000000e0: c63a 3fbe 619c 093c e47b a7be 8a2a 99be
000000f0: 8564 f83d 1a29 513d 3f22 743d 3709 ba3e
00000100: 6a68 323d eefa 943d bfd2 ae3e bbc8 80bd
00000110: 5b7e 303d bac7 6ebd 5196 803e 4020 9c3e
00000120: 10c1 60be f3a8 7fbe 631a ddbe

gru.weight_hh_l3 f4 [15, 5]
-0.21396963 0.044366863 -0.27041632 0.3342359 -0.3993917 0.24951561 0.13140395 -0.17041096
-0.026623672 0.39756373 -0.33131182 0.1325115 -0.29987857 0.33175242 0.3826498 0.24881339
0.162616 -0.16981566 -0.18348569 0.4069636 -0.121075965 0.19039473 0.06476498 -0.26100743
-0.3171623 0.083966434 0.11289185 0.35760087 -0.08547868 -0.085756145 0.18201137 0.436681
-0.3060674 -0.36519876 0.49316 0.15949462 0.06886008 -0.4324292 0.2453357 -0.07542775
-0.06628257 0.3014054 -0.14617825 0.06386947 0.39981487 0.4782498 -0.10501491 -0.28531423
-0.32795638 0.11928739 0.33432454 -0.37944385 -0.14207911 -0.004591858 0.38798067 0.32191023
-0.18805721 -0.26453623 -0.44933313 -0.1761945 -0.23786981 0.1846511 -0.14390212 0.48029685
0.13488115 -0.039657816 -0.42848098 0.48236197 -0.1731444 -0.4483559 -0.21349806 -0.16553155
-0.3177452 0.24653304 0.29425707
00000000: db1a 5bbe 07ba 353d 0274 8abe f820 ab3e
00000010: 127d ccbe 0581 7f3e c28e 063e 3680 2ebe
00000020: e319 dabc 798d cb3e b4a1 a9be 18b1 073e
00000030: af89 99be 74db a93e adea c33e f0c8 7e3e
00000040: cf84 263e 28e4 2dbe ace3 3bbe 885d d03e
00000050: adf6 f7bd d6f6 423e 80a3 843d c4a2 85be
00000060: 1963 a2be 98f6 ab3d d833 e73d 7617 b73e
00000070: 720f afbd eba0 afbd 3061 3a3e a794 df3e
00000080: deb4 9cbe 55fb babe 787f fc3e 8f52 233e
00000090: 8306 8d3d 5c67 ddbe 4839 7b3e dd79 9abd
000000a0: 28bf 87bd cf51 9a3e c0af 15be ffcd 823d
000000b0: 89b4 cc3e 28dd f43e 0f12 d7bd b514 92be
000000c0: e6e9 a7be f24c f43d 962c ab3e 7746 c2be
000000d0: 307d 11be 4c77 96bb 67a5 c63e 6bd1 a43e
000000e0: 1292 40be 4b71 87be fe0e e6be 556c 34be
000000f0: 2594 73be 2e15 3d3e 145b 13be 78e9 f53e
00000100: 491e 0a3e 3c70 22bd dc61 dbbe 26f8 f63e
00000110: c44c 31be e88e e5be 3c9f 5abe 1a81 29be
00000120: 80af a2be 2873 7c3e dda8 963e

gru.bias_ih_l3 f4 [15]
0.32808784 0.1470229 -0.47704652 0.46583244 0.060409404 0.42900696 0.41024983 0.50597566
-0.13530584 -0.048547365 0.017350437 0.15189596 -0.23084977 0.35660845 -0.012709937
00000000: 21fb a73e 2c8d 163e 713f f4be 9781 ee3e
00000010: da6f 773d cda6 db3e 440c d23e 9f87 013f
00000020: 9d8d 0abe 9ad9 46bd 8122 8e3c 9d8a 1b3e
00000030: e263 6cbe 6295 b63e 573d 50bc

gru.bias_hh_l3 f4 [15]
-0.28998187 0.12632374 0.1854866 0.306252 0.08496676 -0.1640363 0.089062 0.40179503
0.07468511 -0.16482922 0.19416869 0.3159145 -0.20836242 -0.012931372 -0.11472252
00000000: 8178 94be 035b 013e 33f0 3d3e 10cd 9c3e
00000010: 0d03 ae3d 22f9 27be 2366 b63d 14b8 cd3e
00000020: 82f4 983d fec8 28be 28d4 463e 8cbf a13e
00000030: f55c 55be 1bde 53bc a4f3 eabd

gru.weight_ih_l4 f4 [15, 5]
0.329385 0.007879222 -0.07536684 0.34954393 0.2321406 0.22827673 -0.20949043 -0.17401436
0.0014350447 -0.39032313 0.046352223 0.009100093 -0.060231827 0.3566636 -0.039477244 -0.19133608
-0.27848807 -0.46171468 0.21883953 -0.041598078 -0.071550615 0.18933849 -0.28593397 0.30130112
-0.343271 0.35007378 0.111025855 -0.5172167 -0.13402559 -0.065636955 -0.27664495 -0.07683449
-0.42708817 0.21704856 -0.38580906 -0.037639953 0.03776405 -0.39140168 -0.30672345 0.22982295
-0.010012943 -0.35522485 0.1461733 -0.113916375 -0.26890755 0.44973314 0.0009517723 0.29754975
0.25701013 -0.16074224 -0.2367813 -0.042189173 -0.15606488 0.06747423 0.12881622 0.032912917
-0.4031137 0.12604982 -0.3173734 0.12814105 -0.02267225 0.21045426 0.37371215 -0.12086103
0.09683654 -0.004327151 0.27018034 0.042885914 0.1804423 -0.2400053 0.15904427 -0.37728187
0.3502895 -0.04734642 -0.22988394
00000000: 27a5 a83e da17 013c ee59 9abd 6cf7 b23e
00000010: 44b6 6d3e 60c1 693e a984 56be d230 32be
00000020: 1c18 bc3a 6fd8 c7be d4db 3d3d 8e18 153c
00000030: a6b5 76bd 9d9c b63e e4b2 21bd 9bed 43be
00000040: fd95 8ebe de65 ecbe 7817 603e bf62 2abd
00000050: 2189 92bd f3e1 413e f065 92be 2444 9a3e
00000060: 37c1 afbe df3c b33e 8661 e33d 5068 04bf
00000070: 013e 09be ab6c 86bd 68a4 8dbe 675b 9dbd
00000080: 4dab dabe fa41 5e3e c488 c5be 5a2c 1abd
00000090: 7aae 1a3d cd65 c8be db0a 9dbe b556 6b3e
000000a0: 540d 24bc 08e0 b5be 74ae 153e fd4c e9bd
000000b0: 40ae 89be 6c43 e63e 5c80 793a 7158 983e
000000c0: d596 833e 9d99 24be cc76 72be 8ece 2cbd
000000d0: 79cf 1fbe ee2f 8a3d 66e8 033e b2cf 063d
000000e0: eb64 cebe 3413 013e c47e a2be 6837 033e
000000f0: 28bb b9bc 5281 573e 3357 bf3e fd85 f7bd
00000100: 3c52 c63d c6ca 8dbb 1455 8a3e 24a9 2f3d
00000110: dec5 383e f3c3 75be 80dc 223e 172b c1be
00000120: 2559 b33e 52ee 41bd b266 6bbe

gru.weight_hh_l4 f4 [15, 5]
-0.08639849 -0.27613196 0.40944302 0.09474059 0.4265052 0.31617445 0.31230405 -0.20588915
-0.025740713 0.28306988 -0.38700163 -0.3580257 -0.2762403 -0.36613 -0.28766063 0.2498453
-0.071132235 0.06362421 0.116611935 -0.42520058 -0.124947876 0.008420338 -0.11581207 0.1163604
0.08413806 0.24999392 0.339777 0.023073668 -0.4639596 0.21824442 -0.07395348 0.37503156
0.23845834 0.076238036 -0.11391896 -0.473129 -0.12985004 -0.2682786 0.02899629 -0.07670935
-0.036568098 -0.40483987 -0.022534892 -0.056059867 0.25822213 -0.30126765 -0.34493044 -0.25246978
-0.42243335 0.38453645 -0.38637033 -0.2892649 0.008653381 -0.47297645 0.13518298 -0.02148397
-0.07130186 0.1400334 -0.11733878 0.26463473 0.16165788 0.24047752 0.29079 0.24642992
-0.34707478 0.17538692 -0.1684255 0.0078066024 -0.026318116 0.06502145 -0.38500038 0.38963777
0.37103137 0.11682332 -0.05526859
00000000: b1f1 b0bd 2b61 8dbe 84a2 d13e 5b07 c23d
00000010: e45e da3e 9ee1 a13e 51e6 9f3e 9bd4 52be
00000020: 30de d2bc 89ee 903e 1425 c6be 254f b7be
00000030: 5e6f 8dbe 6475 bbbe 4148 93be 72d7 7f3e
00000040: c7ad 91bd 694d 823d 3dd2 ee3d e4b3 d9be
00000050: ace4 ffbd 75f5 093c e12e edbd 5d4e ee3d
00000060: 9350 ac3d 68fe 7f3e 40f7 ad3e fd04 bd3c
00000070: 1d8c edbe 777b 5f3e ec74 97bd 2304 c03e
00000080: 6c2e 743e b022 9c3d 584e e9bd f73d f2be
00000090: 69f7 04be d05b 89be a189 ed3c cb19 9dbd
000000a0: 6ec8 15bd 2c47 cfbe 189b b8bc 089f 65bd
000000b0: b135 843e c13f 9abe b99a b0be b843 81be
000000c0: 2f49 d8be f6e1 c43e 55d2 c5be 871a 94be
000000d0: e9c6 0d3c f829 f2be 686d 0a3e 27ff afbc
000000e0: b606 92bd ea64 0f3e 504f f0bd 347e 873e
000000f0: a589 253e bd3f 763e 6de2 943e 2058 7c3e
00000100: c9b3 b1be a198 333e bc77 2cbe 87ce ff3b
00000110: 1799 d7bc f729 853d c51e c5be 9a7e c73e
00000120: d3f7 bd3e 1141 ef3d 5161 62bd

gru.bias_ih_l4 f4 [15]
-0.020989615 -0.1381832 -0.031233722 -0.25940713 0.22144926 -0.02701829 -0.36696744 0.34198081
-0.22508705 0.02710002 -0.31517932 0.24536383 -0.3459888 -0.23811823 0.20513442
00000000: 6af2 abbc e67f 0dbe dddd ffbc 03d1 84be
00000010: 98c3 623e 7655 ddbc 28e3 bbbe 1c18 af3e
00000020: 387d 66be dc00 de3c 2f5f a1be a840 7b3e
00000030: 7225 b1be 44d5 73be c20e 523e

gru.bias_hh_l4 f4 [15]
-0.48702586 0.13838348 -0.39689544 0.45628405 -0.19720167 0.22868632 0.16702871 -0.19988564
0.3761716 0.005228299 -0.14365567 -0.037705064 -0.123277634 0.3313109 -0.40593812
00000000: 745b f9be 66b4 0d3e e135 cbbe 109e e93e
00000010: 3cef 49be bf2c 6a3e 9309 2b3e d2ae 4cbe
00000020: 9099 c03e 2752 ab3b 791a 13be a070 1abd
00000030: fc78 fcbd 95a1 a93e 1fd7 cfbe

fc1.weight f4 [64, 25]
0.30830902 0.075621225 -0.3632632 0.22590652 0.038152885 0.12598573 0.15118667 -0.47704792
-0.06411386 0.050670292 -0.21211134 -0.14895795 -0.066790774 0.15243453 -0.3104772 -0.10906986
0.146732 -0.1390761 0.18331026 -0.09501924 0.041430973 0.10376504 0.11211693 0.13876145
-0.1127981 0.09906824 -0.1100995 -0.36861187 -0.001932644 -0.051196765 0.029008647 -0.058906145
-0.19601583 0.12958993 -0.11579109 -0.10114164 0.14317355 0.21619302 -0.055111118 0.040951822
0.14910164 0.005737197 0.13473892 -0.117112905 -0.13848953 -0.1260555 -0.0014407949 0.11781788
-0.1863742 -0.045268234 0.053028725 0.03967309 0.10623965 -0.061164316 -0.11215395 -0.05591418
0.021741383 0.113002874 0.17710899 -0.0024019412 -0.08840061 -0.1328427 -0.12297387 -0.0211149
0.08302417 -0.1868898 0.22018798 0.15139836 -0.05207751 -0.07682569 0.029916443 -0.15084757
0.14970283 -0.120748 0.03882097 0.13876559 0.042755242 -0.1702135 0.019278668 0.13371801
0.094100736 0.09467549 -0.40214437 0.10578302 -0.021993574 -0.15523688 -0.017914705 0.00018513176
0.08564784 -0.14767998 0.058233652 0.12119907 -0.09748964 0.0698776 -0.19660409 0.060482845
0.04054485 0.110075034 0.11285758 0.12776792 -0.11903282 0.21654303 0.25557986 -0.05447827
-0.10579103 -0.29896095 -0.16463706 0.12756972 -0.19220716 -0.1785359 -0.015156636 -0.110739276
0.0955462 -0.12233795 0.0481289 0.094647676 -0.13154854 0.033589207 0.094237976 0.17413992
-0.08011188 -0.18732159 -0.12526314 -0.116671935 -0.10501375 -0.20038693 0.046289288 -0.16443539
0.13987541 0.04347056 0.081833765 -0.055792585 -0.079584576 -0.09447536 -0.004216565 0.10446126
-0.0884007 0.14415984 0.07919047 -0.0869213 0.0038861402 0.11743593 0.22848643 -0.1741928
0.14993021 -0.07587754 -0.044681348 -0.11727077 0.036825214 0.064514235 0.10043914 -0.16390552
-0.22381708 0.21002321 -0.024703745 0.080371484 -0.22495475 -0.06576305 0.24748982 0.17355923
-0.08323442 0.11134264 0.11857453 -0.18770152 -0.26557755 0.17448367 -0.06872129 0.110087045
-0.11110168 0.06055177 -0.14520703 0.07237528 0.11397293 -0.03639534 -0.22935161 -0.30618778
0.13411514 0.04227385 0.072148986 -0.07217987 -0.3190647 0.0953724 0.45938733 -0.18476717
-0.034935176 0.111806996 0.0061312835 -0.016142698 0.15471725 -0.0039653555 -0.107234314 -0.0657864
-0.21311189 0.068153515 0.04479528 -0.1593116 2.6067157e-05 -0.010793508 -0.103060424 0.103690915
0.16743352 -0.15534161 -0.22192541 0.22296365 -0.09562715 0.17797588 0.109542266 -0.32416704
-0.13855553 -0.021078885 -0.16109784 -0.15387487 0.12836535 0.119420014 -0.18353242 0.15489665
0.14481288 -0.0024105373 0.020071756 0.026746357 0.13930577 -0.19998801 -0.03033589 0.076106265
-0.00082574494 0.061164066 0.23172912 0.124645345 -0.11474109 0.09271203 -0.21464309 0.045669902
0.17672667 -0.13379866 -0.15562342 0.16727163 -0.15885033 -0.14740384 0.00016894961 0.04067674
0.06869255 -0.06664762 -0.0725513 -0.00028782294 -0.037551917 0.06970912 -0.020861972 -0.16101816
-0.1366323 0.08749296 0.28086323 -0.25197643 -0.13722898 0.10544182 0.26591396 0.21408987
00000000: aeda 9d3e 4ddf 9a3d a2fd b9be 0a54 673e
00000010: 3346 1c3d 6702 013e aed0 1a3e a03f f4be
00000020: 214e 83bd a78b 4f3d b733 59be 6f88 18be
00000030: 9ac9 88bd cc17 1c3e def6 9ebe 0560 dfbd
00000040: ea40 163e f769 0ebe afb5 3b3e 7399 c2bd
00000050: 86b3 293d c482 d43d 909d e53d 7b17 0e3e
00000060: b102 e7bd 4ae4 ca3d d97b e1bd b2ba bcbe
00000070: c650 fdba b3b3 51bd 8ba3 ed3c 9247 71bd
00000080: 60b8 48be 39b3 043e e123 edbd 5923 cfbd
00000090: 169c 123e b461 5d3e 32bc 61bd 19bd 273d
000000a0: 1aae 183e 19ff bb3b 00f9 093e e4d8 efbd
000000b0: 33d0 0dbe b114 01be 0ed9 bcba 804a f13d
000000c0: e1d8 3ebe 2f6b 39bd a634 593d 4080 223d
000000d0: 2c94 d93d 6f87 7abd f8b0 e5bd 4406 65bd
000000e0: fc1a b23c 0d6e e73d 0f5c 353e e369 1dbb
000000f0: 610b b5bd eb07 08be b9d9 fbbd 28f9 acbc
00000100: 9308 aa3d 0a60 3fbe f578 613e 2c08 1b3e
00000110: 3a4f 55bd ca56 9dbd 5413 f53c c977 1abe
00000120: b34b 193e ba4a f7bd bd02 1f3d 9118 0e3e
00000130: 1f20 2f3d 734c 2ebe 4cee 9d3c 60ed 083e
00000140: e3b7 c03d 39e5 c13d dee5 cdbe c5a4 d83d
00000150: de2b b4bc 6bf6 1ebe dcc1 92bc ee1f 4239
00000160: 2268 af3d 6c39 17be 6986 6e3d 3837 f83d
00000170: a6a8 c7bd fd1b 8f3d 9552 49be dcbc 773d
00000180: 5b12 263d 056f e13d e021 e73d 98d5 023e
00000190: 7bc7 f3bd 75bd 5d3e 5ddb 823e 9b24 5fbd
000001a0: f8a8 d8bd 6911 99be 9e96 28be a3a1 023e
000001b0: f4d1 44be 1dd2 36be 8a53 78bc 46cb e2bd
000001c0: baad c33d 528c fabd cf22 453d a4d6 c13d
000001d0: a9b4 06be d694 093d d7ff c03d bc51 323e
000001e0: b311 a4bd 3bd1 3fbe fb44 00be b2f1 eebd
000001f0: 7311 d7bd 3b32 4dbe d699 3d3d c061 28be
00000200: 803b 0f3e 300e 323d 7698 a73d c486 64bd
00000210: 3dfd a2bd 4c7c c1bd 1c2b 8abb c9ef d53d
00000220: 6d0b b5bd a39e 133e 9d2e a23d cb03 b2bd
00000230: 9dae 7e3b 4082 f03d 59f8 693e 995f 32be
00000240: 4e87 193e af65 9bbd ca03 37bd a82b f0bd
00000250: 09d6 163d 0a20 843d 09b3 cd3d d9d6 27be
00000260: 4e30 65be 5310 573e 825f cabc ce99 a43d
00000270: 8a5a 66be c7ae 86bd f96d 7d3e 83b9 313e
00000280: cf76 aabd 9c07 e43d 34d7 f23d d434 40be
00000290: c8f9 87be d9ab 323e bfbd 8cbd 5175 e13d
000002a0: 4789 e3bd 2205 783d 27b1 14be 7e39 943d
000002b0: a46a e93d 4813 15bd 26db 6abe a5c4 9cbe
000002c0: 7b55 093e 5827 2d3d d9c2 933d 0ad3 93bd
000002d0: 735c a3be 9b52 c33d d134 eb3e 9b33 3dbe
000002e0: 3018 0fbd 11fb e43d efe8 c83b b13d 84bc
000002f0: 336e 1e3e d0ef 81bb aa9d dbbd 05bb 86bd
00000300: 013a 5abe 1294 8b3d 417b 373d 9422 23be
00000310: cbaa da37 41d7 30bc 5811 d3bd e75b d43d
00000320: b173 2b3e df11 1fbe 6a40 63be 9550 643e
00000330: 2bd8 c3bd 4f3f 363e b257 e03d 39f9 a5be
00000340: 80e1 0dbe a0ad acbc d5f6 24be 6091 1dbe
00000350: 3572 033e 7b92 f43d ecef 3bbe 3a9d 1e3e
00000360: d449 143e 1bfa 1dbb 866d a43c 2d1b db3c
00000370: 2ca6 0e3e a8c9 4cbe f982 f8bc 9add 9b3d
00000380: ce76 58ba 2c87 7a3d 664a 6d3e 0f46 ff3d
00000390: 60fd eabd cedf bd3d 66cb 5bbe 5d10 3b3d
000003a0: d6f7 343e 8402 09be bf5b 1fbe 4149 2b3e
000003b0: a9a9 22be 08f1 16be 1128 3139 a79c 263d
000003c0: aeae 8c3d 8c7e 88bd c795 94bd f1e6 96b9
000003d0: 0ad0 19bd a8c3 8e3d bae6 aabc f2e1 24be
000003e0: 56e9 0bbe 822f b33d 4ecd 8f3e 0e03 81be
000003f0: c185 0cbe e2f1 d73d e025 883e 603a 5b3e

fc1.bias f4 [64]
0.0036545354 0.041068852 0.086641535 0.115114644 0.102887735 0.03924325 0.02246732 0.09282236
-0.18014972 0.14409842 -0.15899402 -0.05549041 -0.07488854 -0.11683267 -0.096354365 -0.10684137
0.18829507 -0.060497165 -0.082410716 0.093282126 0.14906123 0.045493692 -0.11388097 -0.033986013
-0.07419644 0.107407495 0.061966438 -0.19225031 0.18065412 0.073800534 0.03609528 0.051386964
-0.05488997 0.0048229466 0.09414362 0.16070762 0.108666986 -0.038788162 0.08347467 0.071038984
0.13008417 -0.096963696 0.12686214 0.16917875 0.22671981 -0.012093823 -0.013803944 0.10115481
-0.039712325 -0.041252613 0.14494891 -0.07840306 0.062235925 -0.026072862 0.19209935 0.025576627
0.003757572 -0.021280585 0.0018313191 -0.060478006 -0.026047222 -0.10660742 -0.1761819 0.024505638
00000000: ee80 6f3b d037 283d 1e71 b13d 3ac1 eb3d
00000010: ceb6 d23d 88bd 203d 630d b83c a619 be3d
00000020: 2b79 38be 898e 133e 54cf 22be ea49 63bd
00000030: 2a5f 99bd f845 efbd 7055 c5bd a6cf dabd
00000040: 6cd0 403e e0cb 77bd f3c6 a8bd b30a bf3d
00000050: 82a3 183e 9857 3a3d 6d3a e9bd eb34 0bbd
00000060: 4ef4 97bd 76f8 db3d 85d0 7d3d 44dd 44be
00000070: 65fd 383e bc24 973d a5d8 133d 237b 523d
00000080: 4ed4 60bd cf09 9e3b 5fce c03d 8a90 243e
00000090: cc8c de3d 56e0 1ebd c5f4 aa3d e37c 913d
000000a0: c934 053e e794 c6bd 26e8 013e 323d 2d3e
000000b0: 3d29 683e 2c25 46bc f029 62bc 412a cf3d
000000c0: 64a9 22bd 80f8 28bd 7d6d 143e c991 a0bd
000000d0: 19eb 7e3d c196 d5bc b1b5 443e 1386 d13c
000000e0: 9941 763b 9f54 aebc df08 f03a c9b7 77bd
000000f0: fc60 d5bc fe54 dabd 0769 34be 0cc0 c83c

prop_h_to_h.0.weight f4 [64, 64]
-0.048110653 -0.09671942 -0.024645032 -0.113718905 0.0045247404 -0.10840579 -0.17803258 0.13062862
-0.02090387 0.0064690886 -0.23287718 0.17158385 -0.17590524 0.023448614 -0.12546606 -0.017658165
-0.015209211 0.047594793 -0.0008882302 -0.11975981 0.07609917 0.06381178 -0.0155147 0.0505019
0.016897703 0.17993733 0.19596392 0.007152483 -0.019414604 -0.022415766 0.042187788 -0.12974173
0.07428764 0.02143084 0.17778337 0.021110166 0.07558844 -0.15223837 0.14674027 -0.051391583
-0.008040782 0.04046112 0.12429426 0.024574056 0.045165777 0.035486322 -0.13058524 -0.11789138
-0.16354445 0.18979113 0.069358915 -0.022093477 -0.04648703 -0.12502612 -0.07395145 0.018314341
-0.11512022 0.019283297 -0.07762223 0.036811244 -0.054091457 0.03952727 -0.10553735 -0.050395567
0.006335661 0.07158877 0.017779073 0.12150734 -0.1967509 -0.017665416 0.15586996 -0.029445961
0.0049190805 0.016773192 0.1823873 -0.13358872 0.19139068 -0.0068670735 0.16759151 -0.065081395
0.19663785 0.07874823 -0.16135459 -0.014417051 0.036325824 -0.03679587 -0.08230976 -0.015560633
0.23574904 -0.037362088 -0.28419566 0.24020082 -0.20236728 0.018359184 0.053812914 0.019897843
-0.17677487 -0.019499695 -0.12736176 -0.21308523 0.041728526 0.08563025 -0.2733188 0.10959524
-0.08693989 -0.088742346 0.075551786 0.1667365 -0.1710099 0.09723776 0.11320225 -0.0072374684
0.09677784 -0.07856307 -0.0967943 -0.085784994 -0.036330443 0.17822927 -0.12889332 0.21962103
0.21383685 0.05785995 0.12598364 -0.06390379 -0.19542892 -0.107743286 0.19966416 0.038228326
-0.20717442 -0.08120659 0.01705666 -0.11831245 -0.02594429 0.13023761 -0.054128975 0.14069882
-0.0788762 0.124114454 -0.21985522 0.121254675 0.027806487 0.027781455 -0.05022745 -0.13858591
0.014781137 -0.11858846 0.114996344 -0.04084341 -0.06225975 -0.046038598 -0.0068990802 -0.04647449
-0.05051607 0.123603724 0.22942786 -0.24233937 -0.017400825 0.022777112 -0.017265642 -0.012758485
-0.008284782 -0.054651223 0.074085735 0.09974005 -0.14033666 -0.031115685 0.06347179 0.06207593
-0.08132858 0.06642213 0.09682508 -0.08600105 0.04067898 -0.0987036 -0.14226526 -0.14979081
-0.064550795 0.13548192 0.15210554 0.1563314 -0.005472465 -0.0551496 0.1265122 -0.14662914
-0.010747717 -0.0831119 -0.104856856 -0.11095403 -0.046642903 -0.08086336 -0.19050275 0.02584759
-0.17578876 -0.13001023 -0.052090783 0.109400064 -0.019910937 -0.07241016 -0.022042423 0.21914162
0.01299775 0.008484307 -0.04013876 0.011280347 -0.1664485 0.045591887 -0.037136238 0.08576152
-0.09243331 -0.06704058 0.121397026 -0.1604165 0.024050146 0.11871857 -0.107715465 0.00097266183
-0.081261754 0.112684906 0.15915771 -0.09281715 0.06500564 0.1348757 -0.06723619 -0.056927435
0.061181393 0.0021813246 0.05579672 0.052430674 -0.017935546 -0.17507164 0.12395782 -0.009185634
0.0596193 -0.08815938 0.0658092 -0.1727163 0.069017425 -0.21973792 -0.08688375 0.025923496
-0.033518914 0.17652309 -0.041921422 0.0008239275 -0.066996776 -0.19746429 0.049131278 -0.08623838
-0.08920925 -0.097133495 -0.0011295492 -0.028107643 -0.03521485 0.02235127 -0.11375681 0.054093927
00000000: ad0f 45bd d514 c6bd 61e4 c9bc 75e5 e8bd
00000010: 4644 943b db03 debd 2c4e 36be 82c3 053e
00000020: 983e abbc a6fa d33b 5b77 6ebe adb3 2f3e
00000030: 8120 34be 4f17 c03c 2d7a 00be dba7 90bc
00000040: 0e30 79bc c2f2 423d 1fd8 68ba a244 f5bd
00000050: e2d9 9b3d c0af 823d 5e31 7ebc 15db 4e3d
00000060: 0d6d 8a3c 7e41 383e c4aa 483e 605f ea3b
00000070: 600b 9fbc 45a1 b7bc 1acd 2c3d 04db 04be
00000080: 1e24 983d bb8f af3c d80c 363e 3aef ac3c
00000090: 1dce 9a3d 60e4 1bbe 1543 163e fb7f 52bd
000000a0: 7cbd 03bc 8fba 253d fd8d fe3d 884f c93c
000000b0: c0ff 383d 1b5a 113d 23b8 05be 0971 f1bd
000000c0: 3278 27be 9b58 423e 0c0c 8e3d 61fd b4bc
000000d0: 2f69 3ebd d906 00be dc73 97bd f507 963c
000000e0: 26c4 ebbd 01f8 9d3c 67f8 9ebd 63c7 163d
000000f0: 018f 5dbd 59e7 213d f723 d8bd 956b 4ebd
00000100: 609b cf3b 229d 923d 6ba5 913c d7d8 f83d
00000110: 1179 49be 10b7 90bc 609c 1f3e a838 f1bc
00000120: 3d30 a13b ef67 893c bdc3 3a3e 7bcb 08be
00000130: ebfb 433e 3005 e1bb 1c9d 2b3e 6549 85bd
00000140: 6f5b 493e c146 a13d 233a 25be 7f35 6cbc
00000150: 63ca 143d 44b7 16bd 0592 a8bd 06f2 7ebc
00000160: 3268 713e fd08 19bd 1882 91be 34f7 753e
00000170: 5e39 4fbe 0066 963c ee6a 5c3d cd00 a33c
00000180: 7904 35be d3bd 9fbc 1f6b 02be 0433 5abe
00000190: 88eb 2a3d ea5e af3d 71f0 8bbe 7873 e03d
000001a0: 8b0d b2bd 8cbe b5bd e5ba 9a3d f9bc 2a3e
000001b0: 381d 2fbe 9724 c73d 95d6 e73d 4928 edbb
000001c0: 7633 c63d ade5 a0bd 173c c6bd 0bb0 afbd
000001d0: 3bcf 14bd bc81 363e 9cfc 03be 56e4 603e
000001e0: 0cf8 5a3e 8efe 6c3d db01 013e fedf 82bd
000001f0: 851e 48be 83a8 dcbd c374 4c3e 4e95 1c3d
00000200: 8825 54be a44f a6bd 69ba 8b3c cc4d f2bd
00000210: 1f89 d4bc 025d 053e 58b6 5dbd 5a13 103e
00000220: d889 a1bd b82f fe3d ba21 61be 5f54 f83d
00000230: 6eca e33c ef95 e33c 4cbb 4dbd 77e9 0dbe
00000240: 952c 723c 82de f2bd 3483 eb3d 6b4b 27bd
00000250: 1404 7fbd f892 3cbd ae11 e2bb 095c 3ebd
00000260: f0e9 4ebd f323 fd3d 23ef 6a3e d027 78be
00000270: 2d8c 8ebc 1197 ba3c ad70 8dbc f708 51bc
00000280: e5bc 07bc f6d9 5fbd 43ba 973d 8344 cc3d
00000290: 6ab4 0fbe 52e6 febc 7ffd 813d 5543 7e3d
000002a0: 998f a6bd 5308 883d 3a4c c63d 5221 b0bd
000002b0: 019f 263d 1d25 cabd fcad 11be c362 19be
000002c0: 3533 84bd c6bb 0a3e 8ec1 1b3e 5715 203e
000002d0: 5d52 b3bb 8ce4 61bd 6a8c 013e f325 16be
000002e0: 3117 30bc 9236 aabd 31bf d6bd de3b e3bd
000002f0: a10c 3fbd b09b a5bd 2713 43be 53be d33c
00000300: f801 34be 6721 05be 255d 55bd 240d e03d
00000310: 431c a3bc c74b 94bd 5092 b4bc a966 603e
00000320: 84f4 543c c301 0b3c 8a68 24bd 34d1 383c
00000330: 7a71 2abe 8fbe 3a3d 2b1c 18bd bca3 af3d
00000340: ad4d bdbd 924c 89bd 019f f83d 3944 24be
00000350: d004 c53c b922 f33d ed99 dcbd 3bfa 7e3a
00000360: 906c a6bd 58c7 e63d 3dfa 223e eb16 bebd
00000370: ad21 853d db1c 0a3e 21b3 89bd be2c 69bd
00000380: 5799 7a3d 8ef4 0e3b 1a8b 643d 8cc1 563d
00000390: 91ed 92bc fb45 33be 99dd fd3d 577f 16bc
000003a0: 5e33 743d e88c b4bd f9c6 863d 8bdc 30be
000003b0: 0259 8d3d fa02 61be 1cf0 b1bd 835d d43c
000003c0: 214b 09bd 78c2 343e ccb5 2bbd d7fc 573a
000003d0: 9b35 89bd 1434 4abe e13d 493d bf9d b0bd
000003e0: 57b3 b6bd eded c6bd 620d 94ba 0042 e6bc
000003f0: 723d 10bd 031a b73c 55f9 e8bd 9891 5d3d

prop_h_to_h.0.bias f4 [64]
0.034767076 -0.11363717 0.06621763 0.064687416 -0.116763584 0.013898032 -0.002816962 -0.05992031
0.0323489 -0.106134914 -0.11122221 0.04544439 -0.07945252 0.07624281 0.013645098 -0.05569394
0.000953513 0.11556309 0.003932408 0.061940566 -0.020924103 -0.05327987 0.030358948 -0.04918076
-0.052844502 0.059519213 -0.017679181 0.019114474 0.07915316 -0.105384156 -0.07396865 -0.080661006
-0.02055093 -0.010167305 0.06787885 0.09043811 0.046470016 -0.08401447 -0.045570634 0.040666785
-0.06032988 0.098833755 -0.05458585 0.0031148845 0.057438526 -0.110860854 0.10046576 0.1260406
-0.019625643 -0.02075177 -0.041119073 0.027566414 0.0481497 -0.014798532 -0.0065830327 0.05587589
-0.047179576 -0.045001358 -0.0211955 0.06699058 0.028076101 -0.0725558 -0.019318277 -0.0020148184
00000000: ec67 0e3d 9bba e8bd 1c9d 873d d67a 843d
00000010: bf21 efbd 92b4 633c c89c 38bb 006f 75bd
00000020: 4880 043d 435d d9bd 78c8 e3bd e623 3a3d
00000030: 01b8 a2bd 3125 9c3d b08f 5f3c 541f 64bd
00000040: 2df5 793a 57ac ec3d 6edb 803b 64b5 7d3d
00000050: 0669 abbc fe3b 5abd 54b3 f83c c471 49bd
00000060: 7a73 58bd 6bca 733d eed3 90bc f595 9c3c
00000070: 0d1b a23d a6d3 d7bd e07c 97bd 9931 a5bd
00000080: 6d5a a8bc c594 26bc 1104 8b3d 9e37 b93d
00000090: 5857 3e3d c70f acbd 46a8 3abd 3792 263d
000000a0: 771c 77bd 5a69 ca3d 6a95 5fbd 1723 4c3b
000000b0: a944 6b3d 040b e3bd fec0 cd3d c910 013e
000000c0: f5c5 a0bc 9eff a9bc 796c 28bd f6d2 e13c
000000d0: 9f38 453d 8b75 72bc 7bb6 d7bb 1ede 643d
000000e0: 5f3f 41bd 5853 38bd 2fa2 adbc 5b32 893d
000000f0: daff e53c 2398 94bd 5d41 9ebc 0b0b 04bb

prop_h_to_h.1.weight f4 [64, 64]
-0.13141042 0.11763522 0.06431305 -0.031127661 0.013705953 0.11454115 0.040304918 0.08320775
0.03805061 0.13736878 -0.0036844078 -0.13271604 0.037839126 0.098017655 0.03871417 -0.09661376
-0.08505802 -0.08368362 0.05051818 -0.077243954 -0.15388364 -0.14610584 0.06456053 0.064530365
-0.082405955 -0.009419258 0.05222147 0.054285068 -0.03542507 0.02923214 0.010543992 -0.02895465
-0.1286986 0.013550729 0.14439037 0.01055405 0.030886346 0.11682779 0.03163435 0.00662339
-0.10034624 0.029174663 -0.030000087 0.08830645 -0.06766721 -0.055113103 -0.18766662 0.03629974
-0.074875176 -0.037684474 -0.042617846 0.06329146 -0.046591092 0.053224683 -0.06128139 -0.083552755
0.1524729 0.10458994 0.101277955 -0.020149669 0.07994835 0.08338407 0.066784166 0.12356551
-0.045758117 0.0547014 0.056236066 0.001251248 0.11671207 -0.095045775 -0.023896193 0.030173838
-0.105750315 -0.008388747 0.06461523 -0.07325085 -0.011189454 0.10679892 0.020614898 -0.0075655375
0.007098635 0.010250821 0.0816763 0.008577679 -0.107895285 -0.042719822 -0.046464443 0.03186051
0.104290605 -0.08110843 -0.08826835 0.04602634 -0.07833021 -0.007077598 -0.078821026 -0.031711377
0.04685016 0.14462817 0.14506415 0.1043412 0.025256861 0.018750684 0.052409556 0.06624751
-0.0865901 0.045241483 -0.023374943 0.002284865 -0.00024538976 0.06141139 0.012753649 0.0049760626
-0.18399058 0.036315527 -0.013361348 -0.06950128 0.08078415 -0.075498305 -0.08293567 -0.06839558
0.05720582 0.13655454 -0.070381254 -0.004733874 0.13703115 -0.014560308 -0.030329395 -0.02707924
0.006246392 -0.05528775 0.050674442 0.11805638 -0.16309401 0.06437576 0.06818286 -0.17330992
0.03588917 -0.1612918 -0.10700258 -0.10185415 -0.072956376 0.052181207 0.049893983 0.049344707
0.024638806 0.1386258 -0.08146505 0.027500702 -0.02757394 -0.024449626 0.1909581 -0.16098182
0.12359657 0.05966046 -0.009397056 -0.15585989 0.006292392 -0.14889294 -0.0047706505 -0.025546122
0.04182044 -0.040352914 -0.12663746 -0.036465995 -0.17065695 -0.058236454 -0.055245433 0.026246883
0.0712797 0.08422747 -0.12357472 -0.006003188 -0.16052121 -0.15124644 0.068358004 0.05215925
0.06531474 -0.13535282 -0.13193393 0.035546143 0.06841033 0.07302092 0.028165523 0.21573731
-0.14265278 -0.0059139607 0.09910197 0.07300609 -0.101502076 -0.108606815 0.07060095 0.095438994
0.021148806 -0.26094234 0.035223447 0.18037042 -0.13498288 0.00081074634 0.081965804 -0.02350934
0.06402251 -0.113207296 -0.08821723 0.04795332 -0.23237203 0.0021447502 0.09513824 0.07893523
0.07131114 0.22860935 -0.08457437 0.03173927 0.09327415 0.009012849 0.1398935 -0.09425657
0.12032538 -0.1658838 0.09565017 -0.16026077 0.13233346 -0.13634218 -0.09262828 0.011498251
0.08411258 0.022177592 -0.021303248 -0.104028605 -0.012315464 -0.11431361 -0.0629106 0.05080827
-0.0051623066 0.16020414 0.0023415647 0.025015218 -0.1601035 -0.0112982765 0.23537378 0.0969598
0.20038301 -0.11614813 -0.029588891 0.053525947 0.062817514 0.16600941 -0.12027593 0.18633118
0.0057338974 -0.14935869 -0.045042317 0.06511486 -0.06766487 -0.065530166 -0.14547954 0.028648864
00000000: 7490 06be bcea f03d 8fb6 833d 70ff febc
00000010: ef8e 603c 8d94 ea3d c516 253d d368 aa3d
00000020: f5da 1b3d 67aa 0c3e 1b76 71bb b7e6 07be
00000030: 33fd 1a3d 7bbd c83d c092 1e3d 6fdd c5bd
00000040: e632 aebd 5162 abbd 27ec 4e3d 1432 9ebd
00000050: ac93 1dbe c59c 15be 5038 843d 7f28 843d
00000060: 74c4 a8bd 3b53 1abc 2ee6 553d 055a 5e3d
00000070: e119 11bd 3e78 ef3c b5c0 2c3c 4d32 edbc
00000080: 91c9 03be e003 5e3c 12db 133e e5ea 2c3c
00000090: 5d05 fd3c 6943 ef3d 0593 013d 0609 d93b
000000a0: 5482 cdbd b4ff ee3c bec2 f5bc 03da b43d
000000b0: 1b95 8abd 47be 61bd ae2b 40be 09af 143d
000000c0: 2858 99bd 095b 1abd 0d90 2ebd f49e 813d
000000d0: 4dd6 3ebd 2002 5a3d 3202 7bbd b51d abbd
000000e0: db21 1c3e 4033 d63d d16a cf3d eb10 a5bc
000000f0: f6bb a33d 44c5 aa3d 23c6 883d ea0f fd3d
00000100: dd6c 3bbd 930e 603d ca57 663d ea00 a43a
00000110: bd06 ef3d 5ca7 c2bd f3c1 c3bc 202f f73c
00000120: 9f93 d8bd f570 09bc fd54 843d 8b04 96bd
00000130: f953 37bc 64b9 da3d 93e0 a83c 54e8 f7bb
00000140: ab9b e83b 0ff3 273c e745 a73d 6589 0c3c
00000150: 34f8 dcbd fbfa 2ebd 8051 3ebd 2b80 023d
00000160: 5096 d53d 2d1c a6bd 09c6 b4bd 1e86 3c3d
00000170: 976b a0bd 32eb e7bb eb6c a1bd cae3 01bd
00000180: f4e5 3f3d 6819 143e b28b 143e d7b0 d53d
00000190: 7ae7 ce3c 099b 993c 67ab 563d c6ac 873d
000001a0: 2656 b1bd 224f 393d cf7c bfbc acbd 153b
000001b0: a8a7 80b9 828a 7b3d aef4 503c 3d0e a33b
000001c0: 0768 3cbe 97bf 143d 8ee9 5abc b056 8ebd
000001d0: 2972 a53d db9e 9abd 2dda a9bd fb12 8cbd
000001e0: a650 6a3d f4d4 0b3e 0c24 90bd 9d1e 9bbb
000001f0: e551 0c3e 5c8e 6ebc 5a75 f8bc 48d5 ddbc
00000200: 89ae cc3b 6875 62bd 0190 4f3d 8bc7 f13d
00000210: 1e02 27be 70d7 833d 75a3 8b3d 2878 31be
00000220: 8600 133d ad29 25be 2b24 dbbd e998 d0bd
00000230: 276a 95bd f6bb 553d a25d 4c3d ad1d 4a3d
00000240: 52d7 c93c ecf3 0d3e 26d7 a6bd 2749 e13c
00000250: bee2 e1bc 954a c8bc 858a 433e 6bd8 24be
00000260: 3320 fd3d 875e 743d 1cf6 19bc bc99 1fbe
00000270: 6930 ce3b 6477 18be 1e53 9cbb 1a46 d1bc
00000280: e94b 2b3d 1949 25bd 40ad 01be 5e5d 15bd
00000290: b2c0 2ebe 5989 6ebd 0949 62bd b403 d73c
000002a0: 17fb 913d 747f ac3d be14 fdbd 64b6 c4bb
000002b0: ac5f 24be 59e0 1abe 48ff 8b3d f0a4 553d
000002c0: bcc3 853d ee99 0abe b019 07be d598 113d
000002d0: b71a 8c3d fe8b 953d 62bb e63c 3eea 5c3e
000002e0: 9213 12be e6c9 c1bb f9f5 ca3d 3884 953d
000002f0: 52e0 cfbd 406d debd 3b97 903d 8575 c33d
00000300: 4340 ad3c 3c9a 85be 7646 103d 06b3 383e
00000310: f438 0abe 4488 543a b0dd a73d a996 c0bc
00000320: 3c1e 833d 3ad9 e7bd 3cab b4bd b36a 443d
00000330: eff2 6dbe f08e 0c3b d6d7 c23d cba8 a13d
00000340: 930b 923d 9218 6a3e 5435 adbd 0901 023d
00000350: 8406 bf3d a1aa 133c 3e40 0f3e 9709 c1bd
00000360: 276d f63d 71dd 29be 3de4 c33d 661b 24be
00000370: 6c82 073e 499d 0bbe e5b3 bdbd 2963 3c3c
00000380: 3743 ac3d c8ad b53c 2684 aebc f30c d5bd
00000390: cdc6 49bc 411d eabd 46d7 80bd 551c 503d
000003a0: 9128 a9bb 8e0c 243e f074 193b b7ec cc3c
000003b0: 2cf2 23be 681c 39bc d305 713e dc92 c63d
000003c0: 3431 4d3e 12df edbd 6764 f2bc 063e 5b3d
000003d0: 78a6 803d 5ffe 293e 3a53 f6bd 9acd 3e3e
000003e0: 6be3 bb3b 7cf1 18be 4b7e 38bd f15a 853d
000003f0: e193 8abd ae34 86bd 97f8 14be 06b1 ea3c

prop_h_to_h.1.bias f4 [64]
-0.0817426 -0.06154177 -0.0816133 0.15612723 0.13050513 -0.061174277 0.018038318 -0.0803006
-0.08090162 -0.017579067 -0.115768194 -0.043338306 0.07135206 0.14740081 0.008018801 0.13955055
0.11448931 0.04017338 -0.08454835 -0.026723275 -0.044222098 0.051382907 -0.06634302 0.104752176
-0.06889588 0.009641057 -0.018872505 0.18480825 -0.032257535 0.061274983 -0.03790621 -0.010425375
0.00938836 -0.055072676 -0.09865958 0.07972809 0.11480193 0.02056383 0.09205911 0.018113928
-0.04933004 0.09516957 -0.03917993 -0.05611429 -0.037525095 0.05930317 -0.018882439 0.021478172
0.10105398 0.04140737 -0.11693678 0.0051033925 -0.05110515 -0.12104126 0.01316529 0.14640674
-0.14475049 -0.047640108 -0.058477324 0.05780001 -0.11828001 0.045282282 -0.06813168 0.09088741
00000000: aa68 a7bd 3913 7cbd e024 a7bd d1df 1f3e
00000010: 23a3 053e e191 7abd 18c5 933c a474 a4bd
00000020: c0af a5bd fa01 90bc e017 edbd 8283 31bd
00000030: 0721 923d 3df0 163e 4a61 033c 57e6 0e3e
00000040: 5f79 ea3d d88c 243d af27 adbd c5ea dabc
00000050: 3b22 35bd e276 523d d9de 87bd 4f88 d63d
00000060: 4819 8dbd 86f5 1d3c 839a 9abc 603e 3d3e
00000070: 7a20 04bd 7afb 7a3d 8b43 1bbd 31cf 2abc
00000080: a3d1 193c e393 61bd 090e cabd 7b48 a33d
00000090: 461d eb3d 7a75 a83c 7d89 bc3d a963 943c
000000a0: 4c0e 4abd 43e8 c23d 227b 20bd 19d8 65bd
000000b0: eab3 19bd e1e7 723d 58af 9abc fef2 af3c
000000c0: 64f5 ce3d c69a 293d 8d7c efbd 5c3a a73b
000000d0: a253 51bd 7be4 f7bd 3ab3 573c a6eb 153e
000000e0: 7939 14be 4622 43bd eb85 6fbd b4bf 6c3d
000000f0: ca3c f2bd ea79 393d 9f88 8bbd 2e23 ba3d

prop_h_to_h.2.weight f4 [64, 64]
-0.06826352 -0.061294932 -0.077933125 0.036342684 0.037370488 -0.18583068 0.12413678 -0.07524477
-0.14001833 0.09878883 -0.15354273 0.08305336 0.07210323 0.19232114 0.09456057 0.18105327
-0.00040612844 0.05316366 0.017928725 0.059987396 -0.04629768 -0.07756574 -0.101529405 0.11193169
0.110416576 -0.04601244 0.10850738 0.06489901 -0.107687294 0.07224033 -0.11852099 0.097438864
-0.12521169 0.047426198 -0.1279162 0.08690447 -0.05359237 -0.01606288 -0.08188267 0.04989825
-0.051430404 0.075538196 0.016614024 -0.13108175 -0.07840517 0.09769766 -0.118763156 0.15749294
-0.030181376 0.062261015 -0.13349628 -0.1015422 0.012071212 -0.020128395 0.13822275 0.12836911
-0.20917003 0.07356727 -0.11099864 -0.12425197 -0.09464227 -0.06317962 -0.1527759 -0.11168746
-0.047828525 -0.10459108 0.025625816 0.12062253 0.03545615 -0.11894757 -0.007852166 -0.04727655
-0.023104366 0.019432874 -0.01680174 -0.052847534 0.15139817 0.047931578 -0.07606382 -0.02501625
0.12918413 0.015749581 -0.15447922 0.13250962 0.0013654575 -0.041503403 0.005011343 0.14510602
0.0862006 -0.015613638 0.10704743 0.1717646 -0.04336868 -0.0460643 0.11512743 0.06328612
-0.085930154 0.07405223 -0.08839853 0.10961834 -0.06193145 0.04360651 0.034926165 0.10603214
-0.08920445 0.0355058 0.04802571 0.07842979 0.08530567 0.12951152 -0.12499435 -0.07100908
0.08233322 -0.056052268 -0.03824329 -0.13682143 0.044869505 -0.029564071 0.046648882 0.2068262
0.06378087 -0.09307216 -0.007499463 -0.02486573 -0.036197457 0.06614107 0.013829699 -0.007815658
0.048141085 -0.13858412 -0.06843553 -0.004884961 -0.0006639035 -0.10859428 0.045468535 0.07161718
0.03858164 -0.018775223 -0.09836349 0.017280439 0.010385302 0.18246363 0.0017468937 0.015932897
0.022411091 0.022944158 -0.19315267 0.013006212 -0.010393334 0.016937608 -0.055444464 0.17288062
-0.12911212 -0.00705254 0.047961194 0.12308976 -0.06911208 0.020503232 -0.007863934 0.02862557
0.042607572 -0.15225133 -0.0047409255 0.116850644 -0.13273005 -0.050360333 -0.071576275 0.04511006
-0.052440163 0.0390806 -0.094069436 0.026013076 -0.10217839 0.09122598 -0.07278801 0.074745074
0.01759687 -0.10438952 -0.12384702 -0.1247582 0.04849032 -0.17800702 0.049326222 0.118921146
-0.053351287 -0.069546804 -0.09115168 -0.11888571 -0.055438347 0.13664214 -0.07407548 -0.11473759
0.08422807 0.013389719 0.06581058 -0.035866037 -0.14960892 0.048748743 0.012094575 0.11581226
0.13067736 -0.072018296 0.09585037 0.07594693 -0.1211218 0.027451888 0.06843515 -0.11200394
0.06748846 -0.078478836 0.018335873 0.07521049 -0.11498863 0.12308642 0.09973152 -0.028483188
-0.107196406 0.06750836 0.0673045 -0.14830922 -0.07336241 0.08093937 -0.04496397 -0.12717287
0.07332025 0.10675534 0.011518795 0.036070466 0.011649878 -0.0280779 -0.03976925 -0.024174169
0.06736847 -0.012894922 0.12511261 0.09693321 -0.052581158 -0.105931185 -0.017152488 -0.017766818
-0.07926071 0.082264975 -0.009796529 0.0854467 -0.04588284 0.005154639 -0.1516249 0.04556568
-0.009242778 0.018018845 -0.063064575 0.11511031 0.22261435 0.03263505 0.075876564 0.058770932
00000000: bfcd 8bbd 6510 7bbd 679b 9fbd 11dc 143d
00000010: cc11 193d 664a 3ebe 6d3b fe3d ee19 9abd
00000020: f760 0fbe cc51 ca3d 4e3a 1dbe e117 aa3d
00000030: dcaa 933d d5ef 443e f9a8 c13d 0766 393e
00000040: a3ed d4b9 23c2 593d 43df 923c 58b5 753d
00000050: a3a2 3dbd c9da 9ebd a6ee cfbd 713c e53d
00000060: 1622 e23d 8a77 3cbd 1e39 de3d c6e9 843d
00000070: 288b dcbd bdf2 933d 22bb f2bd 078e c73d
00000080: 7e37 00be f941 423d 77fc 02be f9fa b13d
00000090: ac83 5bbd 4d96 83bc 1ab2 a7bd 1b62 4c3d
000000a0: b0a8 52bd c5b3 9a3d 221a 883c 4b3a 06be
000000b0: e492 a0bd b615 c83d 193a f3bd d445 213e
000000c0: ef3e f7bc 6805 7f3d 40b3 08be 5bf5 cfbd
000000d0: 55c6 453c 4ee4 a4bc 448a 0d3e 3173 033e
000000e0: ab30 56be 70aa 963d 4153 e3bd d177 febd
000000f0: ced3 c1bd 5164 81bd 4971 1cbe 65bc e4bd
00000100: d8e7 43bd d933 d6bd 3bed d13c f208 f73d
00000110: 783a 113d c99a f3bd 5fa6 00bc 0ea5 41bd
00000120: 5e45 bdbc b131 9f3c cda3 89bc a876 58bd
00000130: 1f08 1b3e e753 443d 59c7 9bbd e1ee ccbc
00000140: d848 043e 4405 813c cd2f 1ebe 9ab0 073e
00000150: 27f9 b23a 79ff 29bd 3136 a43b ac96 143e
00000160: f189 b03d 58d0 7fbc af3b db3d 0fe3 2f3e
00000170: 5ba3 31bd ebad 3cbd eec7 eb3d 279c 813d
00000180: 26fc afbd b2a8 973d 4a0a b5bd 957f e03d
00000190: d5ab 7dbd bd9c 323d bd0e 0f3d 6127 d93d
000001a0: d3b0 b6bd 886e 113d 9bb6 443d cc9f a03d
000001b0: bdb4 ae3d ab9e 043e 0afd ffbd 356d 91bd
000001c0: 529e a83d 1097 65bd ffa4 1cbd eb1a 0cbe
000001d0: 16c9 373d 5a30 f2bc e612 3f3d 3fca 533e
000001e0: 8b9f 823d 9e9c bebd 0ebe f5bb 37b3 cbbc
000001f0: c943 14bd f874 873d f695 623c 3f0d 00bc
00000200: 962f 453d ffe8 0dbe ed27 8cbd 0612 a0bb
00000210: cf09 2eba ae66 debd 373d 3a3d 07ac 923d
00000220: c807 1e3d 7fce 99bc cc72 c9bd b58f 8d3c
00000230: 1d27 2a3c bfd7 3a3e 07f8 e43a b585 823c
00000240: 7797 b73c 63f5 bb3c d0c9 45be 0218 553c
00000250: cd48 2abc bdc0 8a3c bc19 63bd 9e07 313e
00000260: f835 04be fe18 e7bb f572 443d 7c16 fc3d
00000270: a28a 8dbd 65f6 a73c bbd7 00bc 2c80 ea3c
00000280: 4785 2e3d c6e7 1bbe c459 9bbb 644f ef3d
00000290: 63ea 07be a346 4ebd 9596 92bd 54c5 383d
000002a0: 7fcb 56bd fb12 203d 7aa7 c0bd 6019 d53c
000002b0: e742 d1bd b0d4 ba3d e111 95bd f213 993d
000002c0: 5027 903c 2cca d5bd 82a3 fdbd 3a81 ffbd
000002d0: c99d 463d 7947 36be 4b0a 4a3d ee8c f33d
000002e0: e186 5abd 8e6e 8ebd bbad babd 5a7a f3bd
000002f0: 5213 63bd ebeb 0b3e e3b4 97bd 8bfb eabd
00000300: c47f ac3d 8d60 5b3c b3c7 863d 44e8 12bd
00000310: 1533 19be c3ac 473d 5328 463c fa2e ed3d
00000320: 49d0 053e 547e 93bd 334d c43d 108a 9b3d
00000330: b50e f8bd c8e2 e03c ba27 8c3d 5262 e5bd
00000340: 6437 8a3d 83b9 a0bd 1d35 963c f507 9a3d
00000350: 297f ebbd bc14 fc3d 0a40 cc3d 9355 e9bc
00000360: ca89 dbbd d341 8a3d f1d6 893d 5fde 17be
00000370: 083f 96bd 8ac3 a53d 242c 38bd 9b39 02be
00000380: ed28 963d 8ba2 da3d 54b9 3c3c a0be 133d
00000390: 21df 3e3c a003 e6bc 15e5 22bd e808 c6bc
000003a0: 7bf8 893d 3945 53bc 851d 003e eb84 c63d
000003b0: 575f 57bd 73f2 d8bd 6083 8cbc b88b 91bc
000003c0: 7053 a2bd 8a7a a83d 9f81 20bc aefe ae3d
000003d0: a5ef 3bbd 3fe8 a83b 8f43 1bbe 14a3 3a3d
000003e0: 056f 17bc 429c 933c 0028 81bd f4be eb3d
000003f0: 04f5 633e 55ac 053d 2c65 9b3d cab9 703d
