model-prob/model.pth (torch, 102372 bytes, 34 tensors)

gru.weight_ih_l0 f4 [15, 1]
0	0x3e55ec0a	0.20890823
1	0xbdbd00b1	-0.092286475
2	0xbe92c9e5	-0.28669658
3	0x3e8ef7be	0.27923387
4	0x3d1b753f	0.03795361
5	0xbe3ee196	-0.18640742
6	0xbeb4fb9e	-0.3534822
7	0xbd5075e5	-0.050893683
8	0xbf1f4fda	-0.6223122
9	0x3e83de2f	0.2575545
10	0x3ea5ea3e	0.32405275
11	0xbeb7e867	-0.35919496
12	0xbe8c71b9	-0.27430514
13	0x3ea50dd9	0.32237127
14	0x3ecd573b	0.40105614

gru.weight_hh_l0 f4 [15, 5]
0	0xbe4f6211	-0.20252253
1	0xbedf2100	-0.43579865
2	0x3e97ffc9	0.29687336
3	0x3e91469b	0.2837418
4	0xbd37a277	-0.044832673
5	0x3e5c53ff	0.21516417
6	0xbed34f74	-0.41271555
7	0xbed4ad88	-0.41538644
8	0x3e474724	0.19460732
9	0xbe347732	-0.17623594
10	0xbe9d2db3	-0.30698928
11	0xbd9490f4	-0.0725421
12	0xbd70b388	-0.058764964
13	0x3ddce060	0.10784984
14	0x3e1ebb6e	0.15501186
15	0x3da031fe	0.07822035
16	0xbd404741	-0.046942953
17	0xbded1dd5	-0.11577956
18	0xbed7b896	-0.42133015
19	0xbddf9dc4	-0.10918763
20	0x3e57a94e	0.21060678
21	0xbda9cf6c	-0.08291516
22	0x3c9026f9	0.017596709
23	0x3c568278	0.01309263
24	0xbe902607	-0.28154013
25	0xbe24fe05	-0.16112526
26	0x39751d84	0.00023376016
27	0x3e0fc797	0.14040981
28	0xbeaa7bee	-0.33297676
29	0xbf03343d	-0.51251584
30	0xbe649ab1	-0.22324635
31	0xbc0baf7e	-0.008525727
32	0xbebbec46	-0.367037
33	0xbf0046d1	-0.5010806
34	0xbe90d129	-0.28284577
35	0x3ef13dfa	0.47117597
36	0xbe198d76	-0.1499537
37	0xbe6aa6c2	-0.22915176
38	0x3ed971ad	0.4246954
39	0x3e936bca	0.28793174
40	0xbd2dcc44	-0.04243113
41	0x3db9f22f	0.09079396
42	0xbf134d26	-0.57539594
43	0xbe8b7afb	-0.27242264
44	0x3d455912	0.048180647
45	0x3d597c55	0.053097088
46	0x3f076255	0.5288442
47	0x3d895a26	0.067066476
48	0xbe138bcb	-0.14408796
49	0xbedeedb2	-0.43540722
50	0xbd7c80ba	-0.0616462
51	0x3de34e59	0.11098928
52	0x3cb11f34	0.021621324
53	0x3e8e7d0a	0.27829772
54	0x3ed98911	0.42487386
55	0xbee50399	-0.44729307
56	0x3ee09511	0.4386373
57	0x3daa70ca	0.08322294
58	0xbe43d66a	-0.19124761
59	0xbdb9111a	-0.09036465
60	0xbd159a87	-0.036524322
61	0xbead05f7	-0.33793613
62	0x3efc2322	0.49245554
63	0x3e909f37	0.2824647
64	0xbe91480c	-0.2837528
65	0x3f05a108	0.5219884
66	0x3eba2676	0.36357468
67	0xbe6f35e9	-0.23360409
68	0xbe119634	-0.14217454
69	0x3cb60467	0.022218896
70	0x3df04bad	0.11733184
71	0xbe053087	-0.13006793
72	0xbf146548	-0.5796704
73	0xbd9fceeb	-0.07803138
74	0x3b803c1a	0.0039134147

gru.bias_ih_l0 f4 [15]
0	0xbeae18dd	-0.34003344
1	0xbe4212bc	-0.18952459
2	0x3d9c910f	0.07644855
3	0xbe8b8a9e	-0.27254194
4	0x3d44fdd0	0.048093617
5	0xbe03592a	-0.12826982
6	0xbe8f574b	-0.27996287
7	0xbe799edd	-0.24377008
8	0xbef3f386	-0.4764673
9	0x3e3ef360	0.18647528
10	0xbe154f7f	-0.14581107
11	0x3e57b9bd	0.21066947
12	0x3e8bff5c	0.2734326
13	0x3e8389ee	0.2569117
14	0xbcb9ff00	-0.022704601

gru.bias_hh_l0 f4 [15]
0	0xbd86c8cc	-0.06581268
1	0xbebd41d4	-0.36964285
2	0xbe9b01d2	-0.30274826
3	0x3ef2a83d	0.4739398
4	0x3ec6685a	0.3875149
5	0xbf28ec47	-0.6598553
6	0xbd622872	-0.055214353
7	0xbe6ae2ec	-0.22938126
8	0xbecac9d3	-0.39607105
9	0x3dd37f0c	0.10326967
10	0xbe3b1fc1	-0.18273832
11	0xbeb45657	-0.35222122
12	0x3d392126	0.04519763
13	0xbe86de2d	-0.26341382
14	0x3e4d0db0	0.20024753

gru.weight_ih_l1 f4 [15, 5]
0	0xbec2c541	-0.38041118
1	0xbd884c61	-0.06655193
2	0x3e87150a	0.2638324
3	0x3e03ac17	0.12858616
4	0x3de986eb	0.11402687
5	0x3eb75613	0.35807857
6	0x3db51bd9	0.08843202
7	0x3dd03f02	0.10168268
8	0xbe29d81c	-0.16586345
9	0xbe02cb16	-0.12772784
10	0xbee32f55	-0.4437205
11	0x3eb96776	0.36211747
12	0x3f1533da	0.58282244
13	0x3e6242ed	0.22095843
14	0x3e0be733	0.13662414
15	0x3e93c756	0.2886302
16	0xbedd4fd5	-0.4322497
17	0xbde668ab	-0.112504326
18	0x3ed75fbf	0.42065236
19	0x3f03673f	0.51329416
20	0xbee3e14f	-0.44507834
21	0xbe7e9a67	-0.24863587
22	0xbe113164	-0.14178997
23	0x3cce143a	0.02515613
24	0xbe17802a	-0.14794984
25	0xbe0f7ebb	-0.14013188
26	0x3e95fedb	0.29296002
27	0xbe17623e	-0.1478357
28	0x3eb26711	0.34844258
29	0xbdc26225	-0.09491376
30	0x3e47899f	0.19486092
31	0x3d92d019	0.07168598
32	0xbf010642	-0.50400174
33	0xbd36c4ba	-0.044621207
34	0xbd25125d	-0.040300716
35	0x3d9c3a41	0.076282986
36	0xbf188b9a	-0.59588015
37	0x3e179e6d	0.14806528
38	0x3e1751a8	0.14777243
39	0x3e64d7e2	0.22347978
40	0xbed2e3f5	-0.41189542
41	0x3f0a36cc	0.53989863
42	0x3b7b0439	0.0038302077
43	0xbc93b83c	-0.018032186
44	0xbe9a1c95	-0.3009993
45	0x3f2014f6	0.62531984
46	0xbeafc49c	-0.3432969
47	0xbeaf5b61	-0.34249404
48	0xbe8dc695	-0.2769057
49	0x3f04fccf	0.51948255
50	0x3f108f35	0.56468517
51	0xbef33abf	-0.47505757
52	0xbe8ca5b4	-0.2747017
53	0xbea59346	-0.32338923
54	0xbe777470	-0.24165511
55	0x3e7dd2b3	0.24787407
56	0x3e3ef140	0.18646717
57	0xbdcb340a	-0.09922035
58	0x3ebe42bf	0.37160298
59	0xbd89f40e	-0.06736003
60	0xbe568477	-0.20948969
61	0x3ec42207	0.3830721
62	0x3edba00b	0.4289554
63	0xbed5ee09	-0.4178317
64	0x3db8bbef	0.090202205
65	0x3ea20cfa	0.31650525
66	0x3e6944b4	0.22780114
67	0xbe737328	-0.23774397
68	0x3e0c5a53	0.13706331
69	0x3eb75250	0.35804987
70	0xbe84c150	-0.25928736
71	0xbee7346b	-0.4515718
72	0xbed992d6	-0.4249484
73	0x3d3fb087	0.04679921
74	0xbde8f0d9	-0.11374063

gru.weight_hh_l1 f4 [15, 5]
0	0xbd0c8945	-0.034310598
1	0x3ed0abed	0.4075617
2	0x3f1c39d2	0.61025727
3	0xbe8805da	-0.26566964
4	0xbe5c71be	-0.21527764
5	0x3eb77ff5	0.3583981
6	0xbec6cb1b	-0.38826832
7	0xbe999785	-0.29998413
8	0xbea1f7a2	-0.3163424
9	0xbea74a11	-0.32673696
10	0x3df05559	0.11735029
11	0xbd86db71	-0.06584824
12	0x3f260327	0.6484856
13	0x3e7d4199	0.24732055
14	0xbeeb3aa6	-0.45943183
15	0x3ea3c42e	0.3198561
16	0xbee872af	-0.45399997
17	0x3cca0301	0.024659635
18	0x3e72c4e3	0.23707919
19	0xbe46cc04	-0.19413763
20	0xbe031c03	-0.12803654
21	0xbe85c22f	-0.26124713
22	0x3f003345	0.5007823
23	0xbef3ca76	-0.47615403
24	0xbedc70a7	-0.43054697
25	0x3c765ae1	0.015036316
26	0x3e50ee27	0.20403348
27	0x3d36b348	0.04460457
28	0x3ec457a7	0.38348123
29	0xbea941c9	-0.33058003
30	0x3ead7fbd	0.3388652
31	0x3da1030d	0.0786191
32	0xbdf9918d	-0.12185965
33	0xbd06c8f1	-0.032906476
34	0xbeb71e0a	-0.35765105
35	0x3eb9db0e	0.36299938
36	0xbd901efe	-0.07037161
37	0x3c731172	0.014835702
38	0x3e46d62f	0.19417642
39	0xbbae7116	-0.0053235395
40	0xbf1eee28	-0.6208215
41	0xbe3577f8	-0.17721546
42	0x3e2079ac	0.15671414
43	0x3e058adf	0.13041256
44	0xbe9b458e	-0.30326504
45	0x3eb00e8d	0.343861
46	0xbe26e2c9	-0.16297449
47	0xbe5f932a	-0.21833482
48	0xbdb73092	-0.08944811
49	0xbea3d7c6	-0.3200056
50	0x3e11b7df	0.14230298
51	0x3dcad47d	0.0990381
52	0xbe3c98e0	-0.18417692
53	0xbd31f843	-0.04344965
54	0x3edcc272	0.431171
55	0x3ee53ce7	0.44773027
56	0x3e3b26e0	0.18276548
57	0xbdba506a	-0.09097369
58	0x3e507acd	0.20359345
59	0x3e13b2ed	0.14423724
60	0xbf27f8a3	-0.65613765
61	0xbed32e30	-0.41246176
62	0x3dccc4af	0.09998452
63	0xbe2787a1	-0.16360332
64	0xbe919cda	-0.2843998
65	0x3e73137e	0.23737904
66	0xbdb0af91	-0.08627237
67	0xbf42b862	-0.76062596
68	0x3c9e42e0	0.019318998
69	0xbebf07f5	-0.37310758
70	0xbe28e0f4	-0.16492063
71	0xbe0b1a02	-0.1358414
72	0xbf214fdf	-0.630125
73	0x3e9e1e35	0.3088242
74	0xbe49f9de	-0.19724223

gru.bias_ih_l1 f4 [15]
0	0x3e952ea9	0.2913716
1	0x3ee64d32	0.4498077
2	0x3e29761d	0.16548963
3	0x3f1284ad	0.572337
4	0x3e8c1748	0.27361512
5	0x3ea74b98	0.3267486
6	0x3e04b0d5	0.12958081
7	0x3eeb4915	0.45954195
8	0xbeb89635	-0.360521
9	0xbd1b293f	-0.037881132
10	0x3ddbfa71	0.10741127
11	0xbe682ede	-0.22674128
12	0x3e669afa	0.22520056
13	0x3e05ff9c	0.13085788
14	0xbeb1c44a	-0.3472007

gru.bias_hh_l1 f4 [15]
0	0xbdfaafb6	-0.122405455
1	0xbdd295bf	-0.10282468
2	0x3e87841c	0.2646798
3	0xbe2e48ac	-0.1701991
4	0xbeb35af7	-0.35030338
5	0x3e7de4fd	0.24794383
6	0x3e365051	0.17804076
7	0x3e38dd2a	0.18053117
8	0x3ea4f74f	0.3221993
9	0xbe15b0c2	-0.14618209
10	0xbcfc725e	-0.030816253
11	0x3e1d5954	0.15366107
12	0x3c7e4e5a	0.01552161
13	0xbdfb490d	-0.12269793
14	0xbece0bbf	-0.40243337

gru.weight_ih_l2 f4 [15, 5]
0	0x3df4b972	0.119494334
1	0x3d9adbd7	0.075614624
2	0xbf41d26f	-0.7571172
3	0x3eb0b53e	0.34513277
4	0x3e320132	0.17383268
5	0x3e92649a	0.28592378
6	0x3e756296	0.23963389
7	0xbe66eb05	-0.2255059
8	0xbda860ce	-0.08221589
9	0xbe9e3261	-0.3089781
10	0xbe087706	-0.13326654
11	0x3dc36982	0.095416084
12	0x3f0c121f	0.5471515
13	0xbec63dc2	-0.38718992
14	0xbecaf9a2	-0.3964358
15	0x3ee907f4	0.4551388
16	0x3e45b03d	0.19305511
17	0xbe20df15	-0.15710099
18	0xbe99b206	-0.30018634
19	0x3d8d5374	0.06900683
20	0xbba95683	-0.0051677837
21	0x3ead1e5e	0.3381223
22	0xbd5f18e6	-0.054467104
23	0x3e6b72fc	0.22993082
24	0xbdf7079e	-0.12062
25	0x3f0679f4	0.52529836
26	0x3d38507c	0.04499863
27	0x3e0e0913	0.13870649
28	0xbdc51e2b	-0.09624895
29	0xbed7bd57	-0.42136642
30	0xbf052678	-0.52011824
31	0x3e59be65	0.21264036
32	0x3e54cd2c	0.20781392
33	0xbeee23d3	-0.46511707
34	0x3c94d18b	0.018166324
35	0x3e3f1160	0.18658972
36	0x3e797666	0.24361572
37	0xbf070d8a	-0.52755034
38	0x3d89b68d	0.06724272
39	0xbe576e56	-0.21038184
40	0x3ca5cac0	0.02023828
41	0xbea90850	-0.33014154
42	0xbeaac39d	-0.33352366
43	0x3dfd0297	0.123540096
44	0xbedda58f	-0.43290374
45	0xbd88b9f9	-0.066760965
46	0xbc732c2d	-0.014842075
47	0x3de84d52	0.11342873
48	0xbe8db197	-0.27674553
49	0x3df2ffc5	0.118651904
50	0xbe1b655a	-0.15175381
51	0xbdfd9aee	-0.12383066
52	0x3ee3bca7	0.44479868
53	0xbd9ef5f6	-0.07761757
54	0x3e39b850	0.18136716
55	0x3db82f2a	0.08993371
56	0xbe0a5058	-0.13507211
57	0xbea31d55	-0.31858316
58	0xbe894b6a	-0.2681535
59	0xbddc7997	-0.10765379
60	0x3eecaf0c	0.462273
61	0x3eb633e6	0.3558647
62	0xbeb7c494	-0.35892165
63	0x3ef2f44c	0.4745201
64	0x3e32236a	0.17396322
65	0xbf058076	-0.5214914
66	0x3de76dda	0.113002494
67	0x3ebaed01	0.36508945
68	0x3eb3174f	0.3497872
69	0xbe8c9a68	-0.27461553
70	0x3bbdbbcb	0.005790209
71	0x3eb295a1	0.34879783
72	0x3f0625fc	0.5240171
73	0xbef82b8e	-0.4847073
74	0xbe4f9f3f	-0.20275591

gru.weight_hh_l2 f4 [15, 5]
0	0x3e8fbdad	0.280744
1	0x3e8c82af	0.27443454
2	0xbe9b3bc6	-0.3031904
3	0xbcf5464e	-0.02994075
4	0xbec1c263	-0.37843618
5	0x3cc825d3	0.024432098
6	0xbe744b4c	-0.23856848
7	0xbd858c42	-0.06520893
8	0xbf03763d	-0.5135229
9	0xbe6ae9c3	-0.22940736
10	0x3eeb41cf	0.45948645
11	0xbe1084ee	-0.14113209
12	0x3e682378	0.2266978
13	0xbe942278	-0.28932548
14	0x3f074c49	0.52850777
15	0xbd86da5c	-0.065846175
16	0xbe2a7ed9	-0.16649951
17	0x3ecf9eac	0.40550745
18	0x3dd0d576	0.101969644
19	0xbd2bf40e	-0.041980796
20	0x3e38d97a	0.1805171
21	0x3e5cc61e	0.2155995
22	0xbe4142a1	-0.18873073
23	0x3e0255b4	0.12728006
24	0x3e694de7	0.22783624
25	0x3e2199d9	0.15781344
26	0x3ed1e7ea	0.4099725
27	0xbec9e32e	-0.39431137
28	0xbe2c59bf	-0.1683111
29	0x3ed17b0e	0.40914196
30	0xbef75e53	-0.4831415
31	0xbe014282	-0.12623027
32	0x3e992fa4	0.2991916
33	0xbe9430ac	-0.28943384
34	0xbe743986	-0.23850068
35	0x3e3242cf	0.17408298
36	0x3f171068	0.5900941
37	0x3e41f443	0.18940835
38	0xbe1405ed	-0.14455386
39	0x3ba30da9	0.0049759937
40	0x3ebd2967	0.3694565
41	0xbe56a4ce	-0.20961305
42	0xbea59968	-0.32343602
43	0x3da1fc04	0.07909396
44	0x3c8ce4fe	0.017199036
45	0x3e85d545	0.26139274
46	0xbdf463ac	-0.119330734
47	0xbe4dd992	-0.20102528
48	0x3e8bb995	0.27290025
49	0xbdb8cf76	-0.09023945
50	0x3c6ff5e2	0.014646025
51	0x3e50e33c	0.20399183
52	0x3d939c4d	0.072075464
53	0x3eb492df	0.35268304
54	0xbdc8c89c	-0.09803888
55	0xbefec350	-0.49758387
56	0x3c397f91	0.011321918
57	0xbe30d96d	-0.17270441
58	0x3df1a603	0.11799242
59	0x3ddea0a2	0.10870482
60	0x3cd57a63	0.026059335
61	0x3e88aa7d	0.26692572
62	0x3e8d2f95	0.27575365
63	0xbe2a66ed	-0.16640826
64	0xbd13d548	-0.036092073
65	0x3e293af8	0.16526401
66	0x3e46ae0f	0.19402336
67	0xbd75c3ea	-0.06000129
68	0xbd6eee70	-0.05833286
69	0xbdd7c017	-0.10534685
70	0x3eb7b0f1	0.35877183
71	0x3de100fa	0.109865144
72	0xbdad0f96	-0.084502384
73	0xbeb50857	-0.35357925
74	0xbd67ab01	-0.056559566

gru.bias_ih_l2 f4 [15]
0	0xbebfef77	-0.37487385
1	0xbeab8f97	-0.33507988
2	0xbeba2e4c	-0.36363447
3	0xbe86c327	-0.26320764
4	0xbde59c6c	-0.11211476
5	0x3f02078b	0.5079276
6	0x3e1841ce	0.14868852
7	0x3ebcacdb	0.36850628
8	0x3ed1303a	0.40857106
9	0x3ed802db	0.4218968
10	0x3ea50dd1	0.32237104
11	0x3e143d68	0.1447655
12	0xbea21731	-0.3165832
13	0x3e4b7ccb	0.19871823
14	0x3df55145	0.119783916

gru.bias_hh_l2 f4 [15]
0	0xbe2ed35b	-0.17072813
1	0xbed3ce43	-0.41368303
2	0x3e5d7b42	0.2162905
3	0x3dfe9565	0.124308385
4	0x3db32492	0.087472096
5	0xbe5ec194	-0.21753532
6	0xbe987d49	-0.29783085
7	0x3e8ed26f	0.27894923
8	0x3e5e7236	0.21723256
9	0x3ec1d824	0.37860215
10	0xbeb10f80	-0.34582138
11	0xbda532f5	-0.0806636
12	0xbae046ff	-0.0017111002
13	0xbec88a87	-0.39168188
14	0x3dc70f29	0.097196884

gru.weight_ih_l3 f4 [15, 5]
0	0xbe0abee7	-0.13549386
1	0x3e411380	0.18855095
2	0xbe49b955	-0.19699605
3	0x3ea90dea	0.33018428
4	0xbf00a981	-0.5025864
5	0xbf01b47a	-0.5066601
6	0xbe366095	-0.1781028
7	0xbdc680e5	-0.096925534
8	0xbe13a5f5	-0.14418776
9	0x3e6f80f2	0.23389032
10	0xbec59560	-0.38590527
11	0x3e2173f0	0.15766883
12	0xbe8d6564	-0.27616417
13	0xbe3c839e	-0.18409583
14	0x3e124771	0.14285065
15	0xbea00085	-0.31250396
16	0xbe89eae0	-0.26937008
17	0xbe974d4a	-0.29551154
18	0x3ee25d52	0.44211823
19	0x3d357ab5	0.044306476
20	0x3eae9c11	0.34103444
21	0xbb1c0a65	-0.0023809907
22	0xbe2a5c4e	-0.16636774
23	0xbe75d134	-0.24005586
24	0xbda3910b	-0.07986649
25	0x3eae78aa	0.34076434
26	0x3e852959	0.26008108
27	0xbe9e0521	-0.30863288
28	0x3ee78c4b	0.45224223
29	0x3df049ff	0.11732864
30	0x3dabdf36	0.083921835
31	0x3da78c34	0.081810385
32	0xbeee89f9	-0.4658964
33	0x3ecef7f3	0.40423545
34	0xbd876d1e	-0.06612609
35	0x3e98c5b9	0.2983835
36	0xbdfe9fad	-0.124327995
37	0xbec79bea	-0.3898614
38	0x3e879e34	0.26487887
39	0x3e3dc3cc	0.18531722
40	0xbed2a6ff	-0.41143033
41	0xbdcd7981	-0.10032941
42	0x3e372beb	0.17887847
43	0xbea64c77	-0.32480213
44	0xbea81298	-0.32826686
45	0xbcdb36a8	-0.02675946
46	0xbc4743c8	-0.012162156
47	0x3e40661b	0.1878895
48	0x3d67cfbc	0.056594595
49	0x3dddb843	0.10826161
50	0x3c15fb06	0.009154087
51	0xbe654fc7	-0.22393714
52	0x3e834adc	0.2564305
53	0x3d0f21f3	0.034944486
54	0xbe7d4ca5	-0.24736269
55	0x3ce4121b	0.027840665
56	0xbe5c024f	-0.21485256
57	0xbb67d40c	-0.0035374193
58	0xbea99bb1	-0.33126596
59	0xbe88c294	-0.2671095
60	0x3e00e589	0.1258756
61	0x3d6a67b5	0.05722781
62	0x3d657858	0.056022972
63	0x3ebc9132	0.36829525
64	0x3d3c0cb1	0.04591054
65	0x3d8f06c4	0.06983712
66	0x3eac0581	0.3359795
67	0xbd7dd7a8	-0.061973244
68	0x3d23c153	0.03997929
69	0xbd666e17	-0.056257334
70	0x3e7a3b4e	0.24436685
71	0x3e9d8b10	0.3077016
72	0xbe5642ab	-0.2092387
73	0xbe82301e	-0.25427336
74	0xbee5acb3	-0.44858322

gru.weight_hh_l3 f4 [15, 5]
0	0xbe12e6ef	-0.14345907
1	0x3d57ae7f	0.052656647
2	0xbe8d600c	-0.2761234
3	0x3eacadc8	0.33726335
4	0xbecf0ac9	-0.40437916
5	0x3e9e5249	0.30922154
6	0x3e039202	0.12848666
7	0xbe25ade9	-0.16179623
8	0xbd261076	-0.040543042
9	0x3ec48934	0.38385928
10	0xbeca828b	-0.3955272
11	0x3e0151e0	0.12628889
12	0xbe99b753	-0.30022678
13	0x3eaa9483	0.3331643
14	0x3ec2a7a6	0.3801853
15	0x3e8a0d11	0.26963094
16	0x3e2f0f59	0.17095698
17	0xbe33fb0d	-0.17576237
18	0xbe37401c	-0.1789555
19	0x3ed2e389	0.4118922
20	0xbdfd813d	-0.12378166
21	0x3e3874e9	0.18013348
22	0x3d933f0b	0.07189759
23	0xbe895ca1	-0.26828483
24	0xbea40ec1	-0.32042506
25	0x3dee3ece	0.11633073
26	0x3ddf1661	0.1089294
27	0x3eb7a2c3	0.35866365
28	0xbdaa2661	-0.083081014
29	0xbdc71a7f	-0.097218506
30	0x3e171f10	0.14757943
31	0x3ee052b1	0.4381309
32	0xbea07e64	-0.31346428
33	0xbeb84864	-0.3599273
34	0x3ef5fd54	0.48044837
35	0x3e273955	0.16330464
36	0x3dabab53	0.08382287
37	0xbee55093	-0.44788036
38	0x3e88c6b7	0.26714107
39	0xbd9527e2	-0.07282998
40	0xbd22e52c	-0.039769337
41	0x3e9aa249	0.3020194
42	0xbe1c4bd6	-0.15263304
43	0x3d862e1f	0.06551766
44	0x3eafba30	0.34321737
45	0x3ee201df	0.44142053
46	0xbde9cb84	-0.11415771
47	0xbe8f647a	-0.28006345
48	0xbea9f912	-0.33197838
49	0x3deeb619	0.11655826
50	0x3ecde512	0.4021383
51	0xbebe5015	-0.37170473
52	0xbe169429	-0.14704956
53	0xbb07a28d	-0.0020696253
54	0x3ec42ff1	0.38317826
55	0x3ec29396	0.38003224
56	0xbe4862a6	-0.19568881
57	0xbe80d91f	-0.2516565
58	0xbeef0875	-0.4668614
59	0xbe432d30	-0.19060206
60	0xbe5c747f	-0.21528815
61	0x3e44f0fe	0.19232556
62	0xbe19a060	-0.15002584
63	0x3ef8a7d7	0.48565552
64	0x3e0f5570	0.13997436
65	0xbd83ab6c	-0.064291805
66	0xbedf668a	-0.4363292
67	0x3ef971c3	0.48719606
68	0xbe34b96f	-0.17648862
69	0xbee7cb15	-0.45272127
70	0xbe2ec890	-0.17068696
71	0xbe269c34	-0.16270524
72	0xbea1f930	-0.31635427
73	0x3e7ac0e4	0.24487644
74	0x3e99b04a	0.3001731

gru.bias_ih_l3 f4 [15]
0	0x3eaa4704	0.33257306
1	0x3e170686	0.14748582
2	0xbef89706	-0.48552722
3	0x3ef16225	0.4714519
4	0x3d51f1fb	0.05125616
5	0x3ed644c9	0.41849354
6	0x3ed329d3	0.41242847
7	0x3f0b1b2a	0.54338324
8	0xbe026574	-0.12734014
9	0xbd55db92	-0.05221135
10	0x3caf17f2	0.021373723
11	0x3e141609	0.1446153
12	0xbe64b43c	-0.22334379
13	0x3eb446a4	0.35210145
14	0xbc64be6c	-0.013961416

gru.bias_hh_l3 f4 [15]
0	0xbe922e64	-0.28551018
1	0x3e01d3a5	0.12678392
2	0x3e353c62	0.17698815
3	0x3e9faea1	0.3118792
4	0x3d9b41b7	0.075808935
5	0xbe32bbae	-0.17454407
6	0x3dbadb08	0.09123808
7	0x3ee0d4b5	0.43912283
8	0x3da93f36	0.0826401
9	0xbe2c8b5b	-0.16850035
10	0x3e4ad670	0.19808364
11	0x3e9e1e38	0.3088243
12	0xbe4e5128	-0.20148146
13	0xbc8f05d7	-0.01745884
14	0xbdedc38a	-0.11609562

gru.weight_ih_l4 f4 [15, 5]
0	0x3ea4fff7	0.32226536
1	0x3b84d916	0.004054199
2	0xbd951439	-0.07279248
3	0x3eb20046	0.34765834
4	0x3e678306	0.22608575
5	0x3e908bcf	0.28231665
6	0xbe503968	-0.20334399
7	0xbe37276e	-0.17886135
8	0x3b790387	0.0037996487
9	0xbec2fd7f	-0.38084027
10	0x3cc85fc8	0.024459735
11	0x3ba2f636	0.0049731983
12	0xbd7042e4	-0.058657542
13	0x3eb630e8	0.35584188
14	0xbd32eb54	-0.043681458
15	0xbe2ca4ce	-0.16859743
16	0xbe8d157a	-0.27555448
17	0xbeed6a93	-0.46370372
18	0x3e60fd5e	0.21971652
19	0xbd263f50	-0.040587723
20	0xbdc261e4	-0.094913274
21	0x3e3de46d	0.18544169
22	0xbe91fd3c	-0.28513515
23	0x3e9a5c5e	0.30148596
24	0xbeb14f9a	-0.34631044
25	0x3eb1a5b9	0.3469675
26	0x3ddffcaf	0.109368674
27	0xbf032a9c	-0.5123689
28	0xbe0ce993	-0.13760976
29	0xbd544949	-0.051827703
30	0xbe9b37c6	-0.3031599
31	0xbd858942	-0.065203205
32	0xbee11685	-0.43962494
33	0x3e709355	0.23493703
34	0xbec42893	-0.38312206
35	0xbb07e013	-0.0020732924
36	0x3d27da43	0.040979635
37	0xbec8d44e	-0.39224476
38	0xbe9cc134	-0.30616152
39	0x3e6fc9f1	0.23416878
40	0xbb93de9c	-0.004512621
41	0xbeb68eb6	-0.35655755
42	0x3e1723d1	0.14759757
43	0xbdebeadf	-0.115194075
44	0xbe8a0a71	-0.2696109
45	0x3ef48266	0.47755736
46	0x3bc16dbc	0.005902974
47	0x3e975244	0.2955495
48	0x3e840771	0.25786927
49	0xbe22a105	-0.15881737
50	0xbe6675b9	-0.22505845
51	0xbd125e80	-0.035734653
52	0xbe249861	-0.16073753
53	0x3d91ab8c	0.07112798
54	0x3e0ad16b	0.13556449
55	0xbca433ad	-0.020044172
56	0xbed11be6	-0.40841597
57	0x3e04e25d	0.12976976
58	0xbea2f632	-0.31828457
59	0x3df215e3	0.11820581
60	0x3aebb4c9	0.0017982955
61	0x3e5c8775	0.21536048
62	0x3ebe3d1e	0.37156004
63	0xbdf4cb8f	-0.11952888
64	0x3dcf2542	0.10114528
65	0x3c69c251	0.01426752
66	0x3e8bffe3	0.27343664
67	0x3d2483eb	0.04016487
68	0x3e3a6f90	0.1820662
69	0xbe746e91	-0.23870303
70	0x3e3c5d5a	0.18394986
71	0xbebee7ea	-0.3728631
72	0x3eb2ba43	0.3490773
73	0xbd412489	-0.047153983
74	0xbe685197	-0.22687374

gru.weight_hh_l4 f4 [15, 5]
0	0xbdabddfa	-0.08391948
1	0xbe8f79ad	-0.2802252
2	0x3ed2b185	0.41151062
3	0x3dc4d284	0.09610465
4	0x3edb1a05	0.4279329
5	0x3ea066b8	0.31328368
6	0x3e8f2aa0	0.27962208
7	0xbe557d5b	-0.208486
8	0xbd0e26e9	-0.034705076
9	0x3e8e9d5a	0.27854425
10	0xbec5599f	-0.38544938
11	0xbeb9d430	-0.362947
12	0xbe8cea12	-0.2752233
13	0xbeba99c4	-0.3644544
14	0xbe929161	-0.2862654
15	0x3e7ea284	0.24866682
16	0xbd889535	-0.06669084
17	0x3d8072df	0.0627191
18	0x3def5fe3	0.11688211
19	0xbedb201c	-0.42797935
20	0xbdfe3fd7	-0.1241452
21	0x3c008a83	0.007845524
22	0xbded01ed	-0.11572633
23	0x3defb43e	0.117043
24	0x3dae1366	0.08499794
25	0x3e838eb9	0.25694826
26	0x3eb0af7c	0.34508884
27	0x3d00b6bc	0.03142427
28	0xbef78d6b	-0.4835008
29	0x3e6893e5	0.22712667
30	0xbdb948ce	-0.090470895
31	0x3ec63bce	0.38717502
32	0x3e62e3ad	0.22157164
33	0x3d85ac8c	0.06527051
34	0xbdfabe5e	-0.12243341
35	0xbef2abd7	-0.47396728
36	0xbe001446	-0.12507734
37	0xbe89977d	-0.2687339
38	0x3cd419b0	0.025891155
39	0xbd9efc64	-0.077629834
40	0xbd0cdf80	-0.034392834
41	0xbeccc9d2	-0.39997727
42	0xbca53360	-0.0201661
43	0xbd647fc8	-0.055785924
44	0x3e84d73f	0.2594547
45	0xbe9b41e3	-0.30323705
46	0xbeade54d	-0.33964005
47	0xbe81f445	-0.25381675
48	0xbed88a7e	-0.4229316
49	0x3ec40415	0.38284364
50	0xbec80747	-0.39068052
51	0xbe91b4ae	-0.2845816
52	0x3b9e5e48	0.0048330165
53	0xbef32653	-0.47490177
54	0x3e06c2ec	0.13160294
55	0xbca1a5c9	-0.019732373
56	0xbd2dfb5f	-0.042476054
57	0x3e1129b0	0.14176059
58	0xbddcf4d7	-0.10788887
59	0x3e89dacd	0.26924744
60	0x3e238758	0.15969598
61	0x3e7ba2f3	0.24573879
62	0x3e942976	0.28937882
63	0x3e7a58c1	0.2444792
64	0xbeb2a2f7	-0.34889957
65	0x3e31bb3c	0.1735658
66	0xbe275d85	-0.16344269
67	0x3bca663a	0.006176737
68	0xbcd878c7	-0.026424779
69	0x3d7d271b	0.061804872
70	0xbec5bf18	-0.38622355
71	0x3ec79e0f	0.38987777
72	0x3ebdb88d	0.37054864
73	0x3dedd881	0.116135605
74	0xbd678406	-0.05652239

gru.bias_ih_l4 f4 [15]
0	0xbcc1af9f	-0.023643313
1	0xbe0b20e7	-0.1358677
2	0xbd05de21	-0.03268254
3	0xbe848e8f	-0.25890014
4	0x3e623f95	0.22094567
5	0xbcf47a26	-0.029843401
6	0xbeb2a254	-0.34889472
7	0x3eaf96e7	0.34294817
8	0xbe689d74	-0.22716314
9	0x3cec81ff	0.02887058
10	0xbe9f152d	-0.31070843
11	0x3e7a9f29	0.24474777
12	0xbeb01f59	-0.34398916
13	0xbe727cf4	-0.23680478
14	0x3e52fbe2	0.20603898

gru.bias_hh_l4 f4 [15]
0	0xbefab6f7	-0.48967716
1	0x3e1012eb	0.14069717
2	0xbecbf40c	-0.3983463
3	0x3ee9e147	0.45679685
4	0xbe4a72dd	-0.1977038
5	0x3e6746f4	0.2258566
6	0x3e3d8e9f	0.18511437
7	0xbe4bb088	-0.1989156
8	0x3ebf8e61	0.37413314
9	0x3be55ff6	0.006999965
10	0xbe0ea433	-0.13929825
11	0xbd1be166	-0.038056754
12	0xbdf8a9cc	-0.12141761
13	0x3eaa423a	0.33253652
14	0xbecf61d3	-0.4050432

fc1.weight f4 [64, 25]
0	0x3e9cb2f4	0.3060528
1	0x3d9f4be4	0.07778147
2	0xbeb7974d	-0.3585762
3	0x3e66a3fd	0.22523494
4	0x3d184c2b	0.037182014
5	0x3de8dfa8	0.11370784
6	0x3e1a257e	0.15053365
7	0xbef445df	-0.47709557
8	0xbd834c3b	-0.06411024
9	0x3d4bc092	0.049744196
10	0xbe5a2b1d	-0.21305509
11	0xbe1626ed	-0.14663287
12	0xbd81c448	-0.06336266
13	0x3e1bdf37	0.15221868
14	0xbea3c311	-0.3198476
15	0xbdaa921a	-0.08328648
16	0x3e1b5894	0.15170509
17	0xbe0fa5e5	-0.14028127
18	0x3e3bd1cb	0.18341748
19	0xbdc19484	-0.09452155
20	0x3d24dfb6	0.04025241
21	0x3dcc959c	0.09989473
22	0x3de4ecde	0.11177991
23	0x3e0da63e	0.13832948
24	0xbdea68fb	-0.11445805
25	0x3dc93312	0.09824194
26	0xbddf2cc4	-0.1089721
27	0xbebaa6e5	-0.36455455
28	0xbaed5092	-0.0018105677
29	0xbd52c019	-0.05145273
30	0x3c977c99	0.01849203
31	0xbd76b9bb	-0.06023572
32	0xbe4a3617	-0.19747196
33	0x3e057243	0.13031869
34	0xbdef7862	-0.11692883
35	0xbdd0a737	-0.10188144
36	0x3e15aea2	0.14617398
37	0x3e60f1d7	0.21967255
38	0xbd61e878	-0.05515334
39	0x3cf89dc1	0.03034866
40	0x3e385a5e	0.18003222
41	0x3c37a270	0.011208162
42	0x3e082893	0.13296728
43	0xbdeed252	-0.11661209
44	0xbe0c940c	-0.1372835
45	0xbe02b229	-0.12763275
46	0xbc087e70	-0.008330926
47	0x3defd7dd	0.117110945
48	0xbe4075e2	-0.18794969
49	0xbd426fb9	-0.04746983
50	0x3d5b28de	0.05350577
51	0x3d1c3b82	0.03814269
52	0x3ddcd589	0.10782916
53	0xbd756a0c	-0.059915587
54	0xbde2f811	-0.11082471
55	0xbd5b6263	-0.053560626
56	0x3cbebb24	0.023282595
57	0x3df94852	0.12171997
58	0x3e359950	0.17734265
59	0xbb976d04	-0.00462115
60	0xbdadc4b4	-0.08484784
61	0xbe0b300b	-0.13592546
62	0xbe05c3d8	-0.1306299
63	0xbc92bc1c	-0.017911963
64	0x3dd10ae4	0.10207155
65	0xbe6544c3	-0.22389512
66	0x3e5f63b7	0.21815382
67	0x3e1a046c	0.1504075
68	0xbd4eaed7	-0.05045971
69	0xbda60294	-0.081059605
70	0x3cebb7d4	0.02877418
71	0xbe08ed0e	-0.13371679
72	0x3e177c98	0.14793622
73	0xbde570ca	-0.112031534
74	0x3d1eec87	0.03879979
75	0x3e0b9154	0.13629657
76	0x3d398208	0.045290023
77	0xbe2b2089	-0.1671163
78	0x3c943c2c	0.018095098
79	0x3e075457	0.13215767
80	0x3da9c08b	0.08288678
81	0x3dc183ea	0.09448989
82	0xbecc99db	-0.39961132
83	0x3dd79a28	0.1052745
84	0xbcb52089	-0.02211024
85	0xbe20a747	-0.15688811
86	0xbc8ada73	-0.016949868
87	0x3b8f8b73	0.0043806373
88	0x3dad801a	0.08471699
89	0xbe2249e4	-0.158485
90	0x3da72212	0.08160795
91	0x3e00ab86	0.12565431
92	0xbdc8a39b	-0.0979683
93	0x3d8d90c3	0.06912377
94	0xbe4ac968	-0.19803393
95	0x3d75de5e	0.06002652
96	0x3d145fdf	0.036224242
97	0x3de24cd5	0.11049811
98	0x3de7ba02	0.11314775
99	0x3e01ca4a	0.12674823
100	0xbdefadc6	-0.117030665
101	0x3e5bbf88	0.21459782
102	0x3e7fd5ba	0.24983874
103	0xbd5cdb3a	-0.05392001
104	0xbdd6da49	-0.10490853
105	0xbe926a6e	-0.28596824
106	0xbe279ffe	-0.16369626
107	0x3dfe192c	0.12407145
108	0xbe44c613	-0.19216184
109	0xbe35abf6	-0.17741379
110	0xbc7271f5	-0.014797677
111	0xbde75bdb	-0.11296817
112	0x3dbebfe4	0.09313944
113	0xbdfacbbd	-0.12245891
114	0x3d5f314d	0.054490376
115	0x3d868604	0.0656853
116	0xbe0b69e7	-0.13614617
117	0x3d0e5930	0.034753025
118	0x3dc0902a	0.09402497
119	0x3e31555f	0.17317723
120	0xbda19d1e	-0.07891296
121	0xbe3b04cf	-0.18263553
122	0xbdffb558	-0.124857605
123	0xbdf13f4b	-0.1177965
124	0xbdd4087c	-0.10353181
125	0xbe4a90be	-0.19781777
126	0x3d388c56	0.04505571
127	0xbe2d6d75	-0.16936286
128	0x3e10f620	0.14156389
129	0x3d350b74	0.044200376
130	0x3da0f66f	0.078595035
131	0xbd6d9076	-0.057999097
132	0xbd8c7911	-0.06859029
133	0xbdc180bc	-0.09448382
134	0xbba4e325	-0.0050319606
135	0x3ddb9f13	0.107237004
136	0xbdb6b2c8	-0.089208186
137	0x3e10bd87	0.14134799
138	0x3da68afb	0.08131977
139	0xbda4c6cd	-0.08045731
140	0xbb45beb2	-0.0030173478
141	0x3df6456d	0.12024961
142	0x3e6ad8ed	0.22934313
143	0xbe31de36	-0.17369923
144	0x3e17b9c9	0.14816965
145	0xbd9cc7b0	-0.07655275
146	0xbd1adef9	-0.0378103
147	0xbdf088ce	-0.117448434
148	0x3d11fd07	0.035641696
149	0x3d8308ee	0.063981876
150	0x3dc9728b	0.098363005
151	0xbe25a07e	-0.16174504
152	0xbe617f49	-0.22021212
153	0x3e5642cd	0.2092392
154	0xbcd3d2f2	-0.025857423
155	0x3d8ebb9c	0.069693774
156	0xbe66b5e5	-0.22530325
157	0xbd896430	-0.067085624
158	0x3e7d5d15	0.24742539
159	0x3e312c6d	0.17302103
160	0xbdad5201	-0.08462907
161	0x3de828fa	0.11335941
162	0x3dfb1c5e	0.1226127
163	0xbe40e0f5	-0.18835814
164	0xbe8dcbd9	-0.27694586
165	0x3e49c510	0.1970408
166	0xbd830da9	-0.0639909
167	0x3ddf9d1f	0.1091864
168	0xbde40218	-0.11133212
169	0x3d78f6cd	0.060782243
170	0xbe15922e	-0.14606544
171	0x3d8e5eb0	0.06951654
172	0x3de96233	0.11395683
173	0xbd18d3a5	-0.037311215
174	0xbe6c3b43	-0.23069482
175	0xbe9c0059	-0.30469015
176	0x3e07976c	0.13241357
177	0x3d175bee	0.036952905
178	0x3d946069	0.07244951
179	0xbd9283f4	-0.07154074
180	0xbe9d17e1	-0.3068228
181	0x3dc5a247	0.096500926
182	0x3eeae99c	0.45881355
183	0xbe3d7d17	-0.18504749
184	0xbd0a43e1	-0.03375614
185	0x3de5f2b9	0.11227936
186	0x3b669635	0.0035184745
187	0xbc9b53ec	-0.018960916
188	0x3e1e5495	0.15461953
189	0x3b5bf516	0.003356283
190	0xbe0d22c4	-0.13782793
191	0xbd90e9e0	-0.07075858
192	0xbe58b86c	-0.21164101
193	0x3d8acb33	0.067770384
194	0x3d341e2b	0.043974083
195	0xbe21b44d	-0.15791436
196	0x3bba1057	0.0056782174
197	0xbc2757df	-0.010213821
198	0xbdd44ddd	-0.10366414
199	0x3dd828ac	0.105546325
200	0x3e29659f	0.16542672
201	0xbe1d23f7	-0.15345751
202	0xbe5cf1b1	-0.21576573
203	0x3e63f77a	0.22262374
204	0xbdc566e7	-0.09638768
205	0x3e29e9fa	0.16593161
206	0x3ddf819f	0.10913395
207	0xbea6f07c	-0.3260535
208	0xbe0d7691	-0.1381476
209	0xbcb6c1e8	-0.022309259
210	0xbe25ceeb	-0.16192214
211	0xbe1a2778	-0.15054119
212	0x3e06cc92	0.13163975
213	0x3df47f1f	0.11938309
214	0xbe44cf38	-0.19219673
215	0x3e3519af	0.17685579
216	0x3e1969f4	0.14981824
217	0xbb81ef19	-0.0039652702
218	0x3ca6e530	0.020372957
219	0x3cf06c53	0.029348528
220	0x3e0d2341	0.1378298
221	0xbe4f3e9b	-0.20238726
222	0xbcfe0b0b	-0.031011125
223	0x3d97ff36	0.074217245
224	0xbb2ac965	-0.0026059982
225	0x3d821d97	0.063533
226	0x3e6a6a6d	0.2289216
227	0x3df7c774	0.120985895
228	0xbde7a201	-0.11310197
229	0x3dc1f2e9	0.094701596
230	0xbe52e19d	-0.20593877
231	0x3d399b9b	0.045314413
232	0x3e378798	0.17922819
233	0xbe083f29	-0.13305344
234	0xbe1fde94	-0.1561225
235	0x3e2d2725	0.16909464
236	0xbe24815c	-0.16064972
237	0xbe1ba71f	-0.1520047
238	0x3ad70105	0.0016403502
239	0x3d4de58e	0.05026775
240	0x3d2beb58	0.04197249
241	0xbd8eda76	-0.06975262
242	0xbd94897f	-0.07252788
243	0x3a2f75ac	0.00066932547
244	0xbd1eca92	-0.038767405
245	0x3d8e32e4	0.069433
246	0xbc820d17	-0.015875382
247	0xbe25d32d	-0.16193838
248	0xbe0c9dfe	-0.13732144
249	0x3db475bc	0.088115185
250	0x3e8e84e3	0.2783576
251	0xbe7f92de	-0.24958369
252	0xbe087f58	-0.13329828
253	0x3dd6071b	0.10450574
254	0x3e878626	0.26469535
255	0x3e4f11a1	0.20221569

fc1.bias f4 [64]
0	0x3b906054	0.0044060145
1	0x3d2cb3a6	0.042163514
2	0x3db4d268	0.08829194
3	0x3debbd0a	0.11510666
4	0x3dd10ac5	0.10207132
5	0x3d228e0d	0.03968625
6	0x3cbb9b47	0.02290119
7	0x3dbc25ff	0.09186935
8	0xbe37520d	-0.17902394
9	0x3e145c87	0.14488421
10	0xbe22503f	-0.15850924
11	0xbd67ca1e	-0.05658924
12	0xbd997b49	-0.07494218
13	0xbdec4c1d	-0.11537955
14	0xbdc77a79	-0.09740157
15	0xbde056a2	-0.10954024
16	0x3e40bc9f	0.18821953
17	0xbd6dc0b3	-0.0580451
18	0xbdaa59d2	-0.08317913
19	0x3dbf2e65	0.09335021
20	0x3e17c28d	0.14820309
21	0x3d387f3e	0.045043223
22	0xbde93662	-0.11387326
23	0xbd07d5ab	-0.033162754
24	0xbd977f41	-0.07397319
25	0x3dd9f2fd	0.106420495
26	0x3d797e80	0.060911655
27	0xbe44983b	-0.19198696
28	0x3e3858e3	0.18002658
29	0x3d9563bb	0.07294413
30	0x3cfb6dc7	0.030691994
31	0x3d530b93	0.05152471
32	0xbd64cb7b	-0.055858117
33	0x3b7fc6d4	0.0039028423
34	0x3dbe63ac	0.09296355
35	0x3e231b41	0.15928365
36	0x3ddfa3c0	0.10919905
37	0xbd20a920	-0.03922379
38	0x3daaab19	0.083334155
39	0x3d92cb41	0.07167674
40	0x3e041e8c	0.12902278
41	0xbdc7194a	-0.097216204
42	0x3df1f92f	0.11815106
43	0x3e2d7282	0.16938213
44	0x3e66c1d7	0.22534882
45	0xbc455dea	-0.012046317
46	0xbc5c9afc	-0.0134646855
47	0x3dd01365	0.10159949
48	0xbd20e715	-0.039282877
49	0xbd2b7fbe	-0.04186987
50	0x3e13153b	0.14363568
51	0xbda047f4	-0.07826224
52	0x3d7d0434	0.061771587
53	0xbcd4d2ba	-0.025979389
54	0x3e4212e0	0.18952513
55	0x3cd1e585	0.025622139
56	0x3b7b7874	0.0038371356
57	0xbca23d70	-0.019804686
58	0x3b1f2b27	0.0024287195
59	0xbd8245ed	-0.063609935
60	0xbcd85e47	-0.026412142
61	0xbdd4549c	-0.103677005
62	0xbe3481e8	-0.1762768
63	0x3ccc0ec4	0.024909385

prop_h_to_h.0.weight f4 [64, 64]
0	0xbd2e92db	-0.04262052
1	0xbdc77daa	-0.097407654
2	0xbcd40a23	-0.02588374
3	0xbde84b02	-0.113424316
4	0xbc0c338b	-0.008557211
5	0xbdde1e4b	-0.10845622
6	0xbe361d78	-0.17784679
7	0x3e021c90	0.12706208
8	0xbca714a3	-0.020395583
9	0x3bf779dd	0.007552369
10	0xbe69fe2f	-0.2285087
11	0x3e28ed26	0.16496715
12	0xbe3134be	-0.17305276
13	0x3ca82178	0.020523772
14	0xbde46453	-0.11151948
15	0xbc96cc0f	-0.01840785
16	0xbc570540	-0.01312381
17	0x3d447d64	0.047971144
18	0xbba2627f	-0.0049555893
19	0xbdeeb9cf	-0.11656534
20	0x3d8e9626	0.06962232
21	0x3d5ec9ee	0.054391794
22	0xbc946666	-0.018115234
23	0x3d4c2f1e	0.049849622
24	0x3cb8a3c0	0.02253902
25	0x3e38c5f2	0.1804426
26	0x3e45e42c	0.19325322
27	0x3c4d8ba8	0.012545504
28	0xbcae179c	-0.021251492
29	0xbce277ed	-0.027645076
30	0x3d15c3cd	0.036563683
31	0xbe0386ae	-0.12844345
32	0x3d91b737	0.071150236
33	0x3c9cdbd5	0.019147793
34	0x3e349558	0.17635095
35	0x3c83c9d2	0.016087446
36	0x3d9c9326	0.07645254
37	0xbe0fc85f	-0.1404128
38	0x3e0fa429	0.14027466
39	0xbd5b0eb7	-0.05348083
40	0xbbbd5cfb	-0.0057789064
41	0x3d2f01dc	0.042726383
42	0x3e001047	0.1250621
43	0x3ce94fe3	0.028480476
44	0x3d2f5fbe	0.042815916
45	0x3d2b1bad	0.04177444
46	0xbe058152	-0.13037613
47	0xbdedf529	-0.11619026
48	0xbe1373da	-0.14399663
49	0x3e38d042	0.18048194
50	0x3d836611	0.06415952
51	0xbcaa5799	-0.020793723
52	0xbd372b0b	-0.044718783
53	0xbdfcd3ff	-0.123451225
54	0xbd9cf180	-0.0766325
55	0x3cc9e657	0.024645967
56	0xbdd1e7dd	-0.102493025
57	0x3ca9d711	0.020732434
58	0xbd98a7a3	-0.07453849
59	0x3d174f0f	0.03694063
60	0xbd76fed3	-0.060301613
61	0x3d20a5d2	0.03922064
62	0xbdc77951	-0.09739936
63	0xbd603404	-0.054737106
64	0x3afe8813	0.0019419215
65	0x3d95d284	0.07315543
66	0x3c8d7fe0	0.01727289
67	0x3df7fabc	0.12108371
68	0xbe3d88cc	-0.18509215
69	0xbc91d5d8	-0.017802164
70	0x3e1fc122	0.15601018
71	0xbcf44382	-0.029817346
72	0x3bb6338b	0.0055603436
73	0x3c6b9b70	0.014380321
74	0x3e36d24c	0.1785366
75	0xbe036576	-0.12831673
76	0x3e409c62	0.18809655
77	0xbbf8c846	-0.007592234
78	0x3e1c6416	0.15272555
79	0xbd81033a	-0.062994435
80	0x3e46b805	0.19406135
81	0x3da2fabf	0.07957982
82	0xbe25575e	-0.16146609
83	0xbc89a6dd	-0.0168032
84	0x3d2b5e52	0.041837998
85	0xbcecd246	-0.02890886
86	0xbda54e8b	-0.080716215
87	0xbc3c26fe	-0.011483906
88	0x3e6d33cf	0.23164295
89	0xbd23b77d	-0.03996991
90	0xbe91a11f	-0.28443238
91	0x3e71abb3	0.23600654
92	0xbe51161f	-0.20418595
93	0x3cb753c4	0.02237881
94	0x3d5e12a0	0.05421698
95	0x3c9a1eec	0.018813573
96	0xbe35ef83	-0.17767148
97	0xbc93fa0b	-0.018063566
98	0xbe027568	-0.127401
99	0xbe584d8f	-0.21123336
100	0x3d2565fc	0.040380463
101	0x3d9ba7b1	0.07600344
102	0xbe89fd87	-0.2695124
103	0x3dd99717	0.10624521
104	0xbdab47cd	-0.08363304
105	0xbdb7e59d	-0.08979342
106	0x3d96d22f	0.07364308
107	0x3e273491	0.16328646
108	0xbe2eef29	-0.1708342
109	0x3dbb5f53	0.09149041
110	0x3de6d9e5	0.11272029
111	0xbc15c820	-0.009141952
112	0x3da3c6db	0.07996913
113	0xbd943a4d	-0.072376825
114	0xbdc0d463	-0.094155096
115	0xbdbd9cda	-0.09258433
116	0xbd1cf726	-0.038321637
117	0x3e349794	0.17635947
118	0xbe063042	-0.13104346
119	0x3e5bc44d	0.21461602
120	0x3e4fe21f	0.20301102
121	0x3d6c2828	0.057655483
122	0x3dfe1d77	0.12407964
123	0xbd840aa2	-0.064473405
124	0xbe42f614	-0.19039184
125	0xbdd79565	-0.105265416
126	0x3e44d54f	0.19221996
127	0x3d2b414f	0.04181033
128	0xbe4cad5c	-0.19988006
129	0xbda8850c	-0.08228502
130	0x3c8f6720	0.017505229
131	0xbdf5195a	-0.11967726
132	0xbd2cd547	-0.042195585
133	0x3e0246fe	0.12722394
134	0xbd5ddc03	-0.054164898
135	0x3e093146	0.13397703
136	0xbd9b2a1e	-0.075763926
137	0x3dfa58c9	0.12223966
138	0xbe599015	-0.21246369
139	0x3dea211e	0.11432098
140	0x3cfd5f15	0.030929128
141	0x3cc094c5	0.023508439
142	0xbd13c92d	-0.036080528
143	0xbe0cdcb1	-0.13756062
144	0x3c858dbc	0.016302936
145	0xbdedc73a	-0.11610265
146	0x3ddcb6ec	0.10777077
147	0xbd10add5	-0.03532203
148	0xbd923758	-0.07139462
149	0xbd63ec90	-0.055645525
150	0xbbec90e1	-0.0072194193
151	0xbd3cd44e	-0.046100907
152	0xbd2c0d54	-0.0420049
153	0x3dfa8704	0.122327834
154	0x3e622eed	0.22088213
155	0xbe71055a	-0.23537198
156	0xbcb317ab	-0.021861872
157	0x3c71f36b	0.014767508
158	0xbca72027	-0.020401074
159	0xbc497961	-0.012297005
160	0xbc80c8e0	-0.015720785
161	0xbd783d30	-0.060605228
162	0x3d8e7b0a	0.069570616
163	0x3dbb2dc6	0.0913959
164	0xbe1037de	-0.14083812
165	0xbc63dfd2	-0.013908343
166	0x3d70648b	0.058689635
167	0x3d738bec	0.05945961
168	0xbda2feca	-0.079587534
169	0x3d90729e	0.070531115
170	0x3dc2c08b	0.09509381
171	0xbda5196b	-0.08061489
172	0x3d08c7b6	0.033393584
173	0xbdb77ed6	-0.08959739
174	0xbe12c0f6	-0.14331421
175	0xbe18e828	-0.1493231
176	0xbd223762	-0.0396036
177	0x3dfd36e4	0.12363985
178	0x3e13d8ee	0.14438221
179	0x3e1fe528	0.1561476
180	0xbb921341	-0.0044578617
181	0xbd5cdad9	-0.053919647
182	0x3dfbcdac	0.12295088
183	0xbe0c0544	-0.13673884
184	0x3bd14b2d	0.0063871355
185	0xbda7ae83	-0.08187582
186	0xbdceca31	-0.10097159
187	0xbdddf283	-0.10837271
188	0xbd51ed10	-0.05125147
189	0xbd9e4a8d	-0.07729063
190	0xbe38eccd	-0.18059082
191	0x3cc2eff7	0.023796065
192	0xbe2dcc4e	-0.16972467
193	0xbe062f2b	-0.1310393
194	0xbd599945	-0.053124685
195	0x3ddf91cb	0.1091648
196	0xbd08b93d	-0.033379782
197	0xbd964d32	-0.073389426
198	0xbcb16cdd	-0.021658355
199	0x3e5c142f	0.21492074
200	0x3c696f6b	0.0142477555
201	0x3c0d0670	0.008607492
202	0xbd0f6d56	-0.03501638
203	0x3b8cfcc5	0.0043025934
204	0xbe278d64	-0.1636253
205	0x3d2abb94	0.041682795
206	0xbccb2873	-0.024799561
207	0x3daf821b	0.085697375
208	0xbdb9a069	-0.09063799
209	0xbd874c56	-0.06606357
210	0x3dee843b	0.11646315
211	0xbe2076b2	-0.15670279
212	0x3c8c5c77	0.017133934
213	0x3ddefd3a	0.10888143
214	0xbde14d09	-0.110010214
215	0x3aafbf83	0.0013408515
216	0xbd985f02	-0.07439996
217	0x3de60aee	0.112325534
218	0x3e1eba8e	0.15500852
219	0xbdb2228b	-0.08697995
220	0x3d7e164f	0.062032994
221	0x3e0460ed	0.12927599
222	0xbd9a41a3	-0.075320505
223	0xbd647b3a	-0.05578158
224	0x3d68305d	0.056686748
225	0xba8cdc6e	-0.0010746846
226	0x3d5a46aa	0.053290047
227	0x3d3d1c2e	0.046169452
228	0xbc8fca1a	-0.017552424
229	0xbe257f93	-0.16161947
230	0x3df2486c	0.118302196
231	0xbc2e30ef	-0.010631784
232	0x3d7f32b2	0.062304206
233	0xbdaeb697	-0.0853092
234	0x3d863dbd	0.065547444
235	0xbe2c150f	-0.16804908
236	0x3d84dd79	0.06487555
237	0xbe594967	-0.21219407
238	0xbdb26986	-0.08711533
239	0x3cdf94f4	0.027292706
240	0xbc394fb7	-0.011310509
241	0x3e2a97d7	0.16659485
242	0xbd44d6df	-0.04805648
243	0x3a925528	0.0011164295
244	0xbd85ffa6	-0.06542902
245	0xbe48c233	-0.19605331
246	0x3d380611	0.04492766
247	0xbda1801f	-0.07885765
248	0xbd999985	-0.07499985
249	0xbdc3bf3e	-0.09557961
250	0x3b05ab77	0.002039639
251	0xbce1660d	-0.027514482
252	0xbd29a333	-0.041415405
253	0x3cc19ce9	0.02363439
254	0xbdd69e6b	-0.104794346
255	0x3d4d6ac4	0.050150648

prop_h_to_h.0.bias f4 [64]
0	0x3d0cc057	0.034363117
1	0xbde95abd	-0.1139426
2	0x3d80d770	0.062910914
3	0x3d82348a	0.06357677
4	0xbdef5be7	-0.11687451
5	0x3c843ef4	0.0161433
6	0xbb7894fb	-0.0037930596
7	0xbd72a935	-0.0592434
8	0x3cfc380d	0.030788446
9	0xbdd6ef86	-0.10494904
10	0xbde2903f	-0.11062669
11	0x3d3825c5	0.044957895
12	0xbda234c6	-0.07920222
13	0x3d9cbc7e	0.076531395
14	0x3c553f5e	0.013015596
15	0xbd668e11	-0.05628783
16	0x3adeb24e	0.0016990395
17	0x3de8ca75	0.113667406
18	0x3b82b8d1	0.003989317
19	0x3d7adb67	0.061244395
20	0xbcb30478	-0.021852717
21	0xbd5246d4	-0.05133708
22	0x3cf156f6	0.029460412
23	0xbd47d6ac	-0.04878871
24	0xbd56ca18	-0.052438825
25	0x3d73febe	0.059569113
26	0xbc975ba6	-0.018476319
27	0x3ca0680c	0.019580863
28	0x3d9f83ce	0.077888116
29	0xbdd738ef	-0.10508906
30	0xbd96e2f6	-0.07367508
31	0xbda64c79	-0.08120055
32	0xbcaa2f72	-0.020774577
33	0xbc25d360	-0.0101211965
34	0x3d8b0dc0	0.06789732
35	0x3db91568	0.09037286
36	0x3d3c1a9e	0.04592382
37	0xbdab5120	-0.08365083
38	0xbd2bfd7f	-0.0419898
39	0x3d1eb7ae	0.03874939
40	0xbd7ee91a	-0.06223402
41	0x3dbf0758	0.093275726
42	0xbd5e1fab	-0.05422942
43	0x3b4882a1	0.003059544
44	0x3d6c5358	0.05769667
45	0xbde20ead	-0.110379554
46	0x3dca05e2	0.09864403
47	0x3dff6254	0.124699265
48	0xbcaef3e5	-0.021356532
49	0xbca4a3be	-0.02009761
50	0xbd28397d	-0.04107045
51	0x3cdfb047	0.027305735
52	0x3d460762	0.048346885
53	0xbc87b351	-0.016564997
54	0xbbc74734	-0.006081486
55	0x3d5f3774	0.054496244
56	0xbd3f7656	-0.046743713
57	0xbd388990	-0.045053065
58	0xbc8fecd4	-0.017568983
59	0x3d8748ef	0.06605708
60	0x3ce30693	0.027713096
61	0xbd9467dc	-0.07246372
62	0xbca68514	-0.020327128
63	0xbb70a33f	-0.0036718396

prop_h_to_h.1.weight f4 [64, 64]
0	0xbe0384c9	-0.12843622
1	0x3dec6aff	0.115438454
2	0x3d897e0e	0.06713496
3	0xbcd07517	-0.025446458
4	0x3c42155a	0.011845911
5	0x3ddd2447	0.10797935
6	0x3d3015b6	0.042989455
7	0x3da3f1cf	0.08005106
8	0x3d2df238	0.042467326
9	0x3e0afda6	0.13573322
10	0xbbe722dd	-0.0070537166
11	0xbdf53f96	-0.11975019
12	0x3d0cb407	0.034351375
13	0x3dc96115	0.0983297
14	0x3cf5c77c	0.030002348
15	0xbdbfc44d	-0.09363613
16	0xbda784d8	-0.08179635
17	0xbda35ebe	-0.07977055
18	0x3d4ffc4b	0.050777715
19	0xbd9f1740	-0.077681065
20	0xbe1a374a	-0.15060154
21	0xbde6f7e9	-0.11277754
22	0x3d8f1648	0.06986672
23	0x3d81860d	0.06324396
24	0xbda3390f	-0.079698674
25	0xbc2b692b	-0.010462086
26	0x3d5f7cbd	0.05456232
27	0x3d57a313	0.052645754
28	0xbcf1f35f	-0.029534994
29	0x3ce606a8	0.028079346
30	0x3c0e2d82	0.008677842
31	0xbd009a97	-0.03139743
32	0xbe0311bb	-0.12799732
33	0x3c4d8a5c	0.0125451945
34	0x3e141e30	0.1446464
35	0x3c2185ed	0.009858591
36	0x3d01f324	0.031726018
37	0x3deb8d94	0.11501613
38	0x3d070d73	0.03297181
39	0x3c3cf5d2	0.0115332175
40	0xbdcabe9b	-0.09899636
41	0x3d0466b2	0.0323245
42	0xbd0d7ead	-0.034544636
43	0x3db1d404	0.08683017
44	0xbd8bc9c9	-0.06825597
45	0xbd7276dc	-0.059195384
46	0xbe39eabb	-0.18155949
47	0x3d2dae82	0.04240275
48	0xbd93e71d	-0.07221816
49	0xbd2135bd	-0.03935789
50	0xbd347ac9	-0.04406241
51	0x3d887c7a	0.06664367
52	0xbd414e7c	-0.04719399
53	0x3d650d08	0.05592063
54	0xbd81e851	-0.06343139
55	0xbda2b578	-0.07944769
56	0x3e1a859f	0.15090035
57	0x3dd48ac2	0.103780285
58	0x3dc5a814	0.09651199
59	0xbcaa1d41	-0.020765902
60	0x3da30bd9	0.07961244
61	0x3da90872	0.08253564
62	0x3d872224	0.06598309
63	0x3dfdb7e6	0.123885915
64	0xbd29ecdd	-0.041485656
65	0x3d4b38c0	0.049614668
66	0x3d7a426c	0.0610985
67	0x3be15a16	0.006877194
68	0x3de4eaae	0.11177574
69	0xbdc07880	-0.093979836
70	0xbc9c7a94	-0.019101419
71	0x3ccbe714	0.02489046
72	0xbdcf6a70	-0.10127723
73	0xbc3acbb3	-0.011401105
74	0x3d73790c	0.05944161
75	0xbd835767	-0.06413155
76	0xbc8bf995	-0.017086783
77	0x3dd64b87	0.104636244
78	0x3ca15c63	0.019697374
79	0xbb2837a8	-0.002566794
80	0x3be52204	0.0069925804
81	0x3c5e8a67	0.013582802
82	0x3da0b047	0.07846122
83	0x3bc309ca	0.0059520947
84	0xbdd22045	-0.10260061
85	0xbcc661d8	-0.024216577
86	0xbd26ebbe	-0.040752165
87	0x3ce5ef5b	0.028068235
88	0x3dde49aa	0.10853894
89	0xbdacb7b7	-0.08433478
90	0xbdaccc55	-0.08437411
91	0x3d2d6695	0.042334158
92	0xbd966272	-0.07342996
93	0xbc33155b	-0.0109303845
94	0xbdab5435	-0.083656706
95	0xbd16f83c	-0.03685783
96	0x3d4d64b0	0.05014485
97	0x3e0ffb0e	0.14060614
98	0x3e124c87	0.14287005
99	0x3dd08e4d	0.10183392
100	0x3cc1fd51	0.023680361
101	0x3c75e316	0.015007755
102	0x3d55a33d	0.05215763
103	0x3d908134	0.070558935
104	0xbda7be59	-0.08190603
105	0x3d6572b2	0.056017585
106	0xbcf4c97b	-0.02988123
107	0x3b807f31	0.0039214124
108	0xbb4b81d6	-0.003105273
109	0x3d64760a	0.055776633
110	0x3c87ae7c	0.016562693
111	0x3c2a448e	0.010392321
112	0xbe37dd40	-0.17955494
113	0x3d02ed43	0.03196455
114	0xbc8c51cd	-0.01712885
115	0xbd801edc	-0.06255886
116	0x3da256dd	0.07926724
117	0xbd900c7e	-0.07033633
118	0xbdb3edfc	-0.08785626
119	0xbd8505fd	-0.06495283
120	0x3d5d6b00	0.05405712
121	0x3e078951	0.13235976
122	0xbd955430	-0.07291448
123	0xbbc646d5	-0.0060509243
124	0x3e0a0af0	0.13480735
125	0xbc974fd2	-0.018470678
126	0xbcecd230	-0.028908819
127	0xbcea05e8	-0.02856727
128	0xbb0c3ec5	-0.0021399718
129	0xbd34ca6c	-0.044138357
130	0x3d37e4ec	0.04489605
131	0x3de1e1db	0.11029407
132	0xbe1b8237	-0.15186392
133	0x3d8b67ef	0.06806933
134	0x3d7188c3	0.058968317
135	0xbe2b4b73	-0.16728
136	0x3cf4e7a9	0.02989562
137	0xbe21838b	-0.15772836
138	0xbdcb6398	-0.099311054
139	0xbdedcaa6	-0.11610918
140	0xbd7def25	-0.061995644
141	0x3d721b4a	0.059108056
142	0x3d2abf6c	0.04168646
143	0x3d28f730	0.04125136
144	0x3cbb4cab	0.022863707
145	0x3e08c1eb	0.13355224
146	0xbd9486a8	-0.07252246
147	0x3d0a3a32	0.033746906
148	0xbd11a1df	-0.035554763
149	0xbdef8a9a	-0.11696358
150	0x3e3a77f1	0.18209817
151	0xbe1b230b	-0.15150087
152	0x3df06210	0.11737454
153	0x3d897de8	0.06713468
154	0xbc98e8ba	-0.01866566
155	0xbe160872	-0.14651659
156	0xb998a051	-0.00029111144
157	0xbe0ed7db	-0.1394953
158	0x3b620a96	0.0034491173
159	0xbc8fa1f6	-0.017533284
160	0x3d0ac415	0.033878405
161	0xbcfdaffd	-0.030967707
162	0xbdf6bf0c	-0.12048158
163	0xbcf4406d	-0.029815877
164	0xbe28e28f	-0.16492675
165	0xbd4426c9	-0.04788855
166	0xbd84ab2a	-0.064779595
167	0x3ca96ec4	0.0206827
168	0x3d83c54c	0.06434116
169	0x3d937563	0.07200124
170	0xbde8dbcd	-0.11370049
171	0xbbdd9e87	-0.0067632827
172	0xbe1bfd87	-0.15233432
173	0xbe141357	-0.14460503
174	0x3d7fa7d3	0.06241591
175	0x3d386baf	0.04502457
176	0x3d6e9eed	0.058257032
177	0xbdff6249	-0.12469918
178	0xbdfadfa5	-0.12249688
179	0x3cc24de2	0.023718778
180	0x3d9625cf	0.0733143
181	0x3d7d0180	0.06176901
182	0x3d1432d7	0.036181297
183	0x3e57a941	0.21060659
184	0xbe085c4c	-0.13316458
185	0x3b9e8c4d	0.0048385025
186	0x3dd088af	0.1018232
187	0x3d9f13b7	0.07767432
188	0xbdbf4d09	-0.09340865
189	0xbdc911a0	-0.09817815
190	0x3d8b10d8	0.06790322
191	0x3dc5ee44	0.09664586
192	0x3c725368	0.014790393
193	0xbe8242cb	-0.25441584
194	0x3cf741fe	0.030182835
195	0x3e302745	0.1720248
196	0xbe03388d	-0.12814541
197	0x3c1288a4	0.0089437105
198	0x3d9b29dc	0.075763434
199	0xbc971b57	-0.018445654
200	0x3d69a155	0.057038624
201	0xbde0175b	-0.10941955
202	0xbda62004	-0.08111575
203	0x3cf3511e	0.029701766
204	0xbe65a3da	-0.22425786
205	0x3ba0af40	0.004903704
206	0x3dd5471a	0.10413952
207	0x3d951eb2	0.07281245
208	0x3d9b026b	0.075688206
209	0x3e62d36e	0.22150967
210	0xbda4ead3	-0.08052602
211	0x3d04cfb2	0.032424636
212	0x3db1bf6c	0.08679089
213	0x3b2698b2	0.0025420603
214	0x3e061abe	0.13096139
215	0xbdb6a3ab	-0.08917936
216	0x3dec899d	0.11549685
217	0xbe25f38e	-0.1620619
218	0x3db7e10c	0.08978471
219	0xbe1e5988	-0.15463841
220	0x3e000c4e	0.12504694
221	0xbe064e03	-0.13115697
222	0xbdb28d31	-0.087183364
223	0x3c870932	0.016483877
224	0x3da39da7	0.07989054
225	0x3cdddef0	0.027083844
226	0xbc9a0c01	-0.018804552
227	0xbdce6b2a	-0.10079034
228	0xbc34c912	-0.011034267
229	0xbddc61d9	-0.107608505
230	0xbd4b12ad	-0.049578357
231	0x3d316993	0.043313574
232	0xbc1ea5bf	-0.009683072
233	0x3e14f1e4	0.14545399
234	0x3c248afc	0.010042902
235	0x3cbdce01	0.02316952
236	0xbe1f8d79	-0.15581311
237	0xbbb63754	-0.005560795
238	0x3e68fc17	0.22752415
239	0x3db646e2	0.089002386
240	0x3e470b21	0.19437839
241	0xbde2709e	-0.11056636
242	0xbcbdad58	-0.023153946
243	0x3d411656	0.04714044
244	0x3d824f06	0.06362729
245	0x3e23b935	0.1598862
246	0xbdecdede	-0.11565946
247	0x3e3839f0	0.17990851
248	0x3c3bdac8	0.011465736
249	0xbe138d71	-0.14409424
250	0xbd232874	-0.0398335
251	0x3d8574ee	0.06516443
252	0xbd81bee1	-0.063352354
253	0xbd774573	-0.060368966
254	0xbe12e048	-0.14343369
255	0x3cda5293	0.026650703

prop_h_to_h.1.bias f4 [64]
0	0xbda53057	-0.08065861
1	0xbd783af2	-0.06060309
2	0xbda945a4	-0.08265236
3	0x3e1cf4ed	0.15327807
4	0x3e01a683	0.12661175
5	0xbd7e1c7a	-0.062038876
6	0x3c941f45	0.018081317
7	0xbd8ad086	-0.06778054
8	0xbda75453	-0.081703804
9	0xbc8c8582	-0.017153505
10	0xbde5eedd	-0.112272
11	0xbd38da49	-0.045130048
12	0x3d8b6bc5	0.06807665
13	0x3e13ccff	0.14433669
14	0x3bab4785	0.0052270317
15	0x3e0b690b	0.1361429
16	0x3de61bae	0.11235748
17	0x3d180fd6	0.037124477
18	0xbdb2dc51	-0.08733428
19	0xbcd7159b	-0.02625542
20	0xbd048ba1	-0.032359723
21	0x3d4bd72e	0.04976576
22	0xbd8a9855	-0.06767336
23	0x3dcb3fc3	0.09924271
24	0xbd933e2d	-0.071895935
25	0x3bdec207	0.006798032
26	0xbca55fb9	-0.020187246
27	0x3e394945	0.18094356
28	0xbd098e12	-0.033582754
29	0x3d68297b	0.056680184
30	0xbd1fdbf9	-0.03902814
31	0xbbd18d3a	-0.0063950093
32	0x3bfe1dde	0.0077550253
33	0xbd5e9d95	-0.0543495
34	0xbdc7f227	-0.09762984
35	0x3d9695be	0.0735278
36	0x3de7516a	0.112948254
37	0x3c974efc	0.01847028
38	0x3db04a7a	0.08607955
39	0x3c73f57f	0.014890074
40	0xbd5a8b97	-0.05335578
41	0x3dbd7a14	0.092518
42	0xbd24cda9	-0.040235195
43	0xbd6d590d	-0.057946254
44	0xbd175cec	-0.03695385
45	0x3d66139f	0.056171056
46	0xbca3671e	-0.019946631
47	0x3c98e038	0.018661603
48	0x3dcb619f	0.09930729
49	0x3d194ac6	0.037424825
50	0xbdd9cbb3	-0.10634556
51	0x3b98b68d	0.0046604336
52	0xbd4b7b77	-0.049678292
53	0xbdf849a6	-0.12123422
54	0x3c2fa69b	0.010720874
55	0x3e132ef4	0.1437338
56	0xbe143fac	-0.14477414
57	0xbd3cbee1	-0.046080474
58	0xbd75ae84	-0.059980884
59	0x3d62072a	0.055182613
60	0xbdfa9123	-0.12234714
61	0x3d34615d	0.044038165
62	0xbd8cf9b2	-0.06883563
63	0x3db74202	0.08948137
