pair_trading/model.pth (torch, 99907 bytes, 34 tensors)

gru.weight_ih_l0 f4 [15, 1]
000000 cb 20 e2 be 68 83 87 3e 97 b5 37 be 44 af b9 38
       -0.44165644 0.26467443 -0.17940365 8.854133e-05
000010 8f cf f7 be f1 f9 84 be cf d9 50 be c4 ac b3 be
       -0.48400542 -0.2597194 -0.20395587 -0.35092747
000020 66 f4 09 be 58 49 33 3e f4 26 eb 3e da ae 3a be
       -0.13472137 0.17508447 0.45928156 -0.18230763
000030 33 13 11 bf d8 74 b8 be a1 8d 77 3d
       -0.5666992 -0.36026645 0.060437802

gru.weight_hh_l0 f4 [15, 5]
000000 83 e5 d3 3e 0a cb bf 3e 39 54 76 bd 54 f9 67 be
       0.4138604 0.37459594 -0.060138915 -0.22653705
000010 94 5a 97 be af b2 ab 3d e2 c1 66 3e 74 56 c4 be
       -0.29561293 0.083836906 0.22534898 -0.38347208
000020 ea 33 b6 be 65 a8 9e 3e 15 5e 8d bc e3 fc 1c bf
       -0.35586482 0.3098785 -0.017256776 -0.61323375
000030 f9 e8 a7 3b 82 1c 16 bf df f2 86 be 0b 5c 1a 3e
       0.005124208 -0.5863725 -0.2635717 0.15074174
000040 41 c0 30 be a4 95 38 3e 7d 9d fd bd 44 0a a4 be
       -0.17260839 0.18025833 -0.12383554 -0.32039082
000050 a5 25 49 3e 31 8e d6 be 1b f3 b8 3e 02 d9 bf be
       0.19643266 -0.41905358 0.36122975 -0.3747025
000060 b2 35 66 be e5 3b d8 3e ab 7c 99 3d b0 f1 81 bd
       -0.2248142 0.42233196 0.07494482 -0.06344926
000070 be d5 12 3f 5e 45 e6 bc 9e c1 a3 3e da 61 ea bc
       0.57357395 -0.028109249 0.31983656 -0.028611112
000080 09 01 35 3e b3 47 b4 bd 95 26 12 bc 48 dd 1e 3e
       0.17676176 -0.08802738 -0.0089203315 0.155141
000090 85 c6 0f 3e 2a ad e2 be 60 5b 0a 3f 28 22 25 3e
       0.14040573 -0.4427274 0.5404568 0.16126311
0000a0 f1 d3 2c be 6e 5c 8e bd 59 9b 2c 3d d8 a6 23 bf
       -0.16877724 -0.06951223 0.04214034 -0.6392646
0000b0 63 8d a8 be 11 67 f1 bd a5 cd 27 bf ce 0b 45 3e
       -0.3292037 -0.117872365 -0.65548164 0.19242784
0000c0 2d 9b c9 bd 5b 24 1c bf 32 ab a0 3e 5f 1f ab 3e
       -0.098440506 -0.60992974 0.31380612 0.33422372
0000d0 d0 31 bb 3d 92 95 a8 3c ec 01 48 3e 89 9e cc 3e
       0.0914036 0.020579133 0.19531983 0.39964703
0000e0 f2 d1 65 bc 69 62 bc 3e 22 3d bc 3c e2 70 e6 bd
       -0.014027106 0.3679383 0.02297837 -0.112519994
0000f0 c2 97 c0 be 50 45 b8 3e ff dd 82 3e 7c 0b f0 3e
       -0.37615782 0.3599038 0.25559995 0.46883762
000100 b5 08 84 be 86 49 9f be 7c 87 b4 3d 83 f9 9b 3e
       -0.25787893 -0.3111078 0.08814904 0.304638
000110 95 a5 d6 3e cd 81 7d 3e 12 4c 93 3e 1e 3f a5 3e
       0.41923204 0.24756546 0.28768975 0.32274717
000120 f9 4f 4b bd 9a 60 cb be 3a 36 7b 3e
       -0.049636815 -0.3972214 0.24532405

gru.bias_ih_l0 f4 [15]
000000 b7 f6 ed bd 9f 2e 16 3e af 2a 3b be d6 1c 25 3d
       -0.11619323 0.14666222 -0.18278001 0.040310703
000010 3c b9 bf be f8 ed f5 bc 50 29 7f be fc 21 0f bf
       -0.3744601 -0.030020699 -0.24918103 -0.5591123
000020 66 5f 01 3f 18 1f ba 3e 60 bf 9e be 5d cc 70 be
       0.5053619 0.36351848 -0.31005383 -0.23515458
000030 80 6c 69 bc 9a 3d 4c be 4c 5e 97 be
       -0.01424706 -0.19945374 -0.2956413

gru.bias_hh_l0 f4 [15]
000000 4a 91 f7 bc c6 ec 0f 3e ac 14 19 3e 9a 8f b8 bd
       -0.030220646 0.14055166 0.14949292 -0.09011765
000010 e6 60 5f 3e fd 8d f1 be 3c 1e 0b bf fc 66 70 3d
       0.21814308 -0.4717864 -0.5434301 0.058691964
000020 0c 50 bd 3e f0 05 41 be 16 08 96 be 67 58 5f be
       0.36975133 -0.18849921 -0.29303044 -0.21811067
000030 2d f2 9b 3c 58 12 ee bd 26 45 b1 bd
       0.019036377 -0.116245925 -0.08655767

gru.weight_ih_l1 f4 [15, 5]
000000 cd 08 bb 3e be 9e 7c 3c 94 2c 59 3e e3 77 0f 3f
       0.36530152 0.015418706 0.21208411 0.5604231
000010 1e 7e 7d bd bc c4 94 be 0e cf 93 3e 51 2d 91 be
       -0.061887853 -0.29056346 0.28868908 -0.28354886
000020 f9 ad 36 3e 2d 1d bf be 7a 60 d8 bd 9e 68 e9 3c
       0.17839803 -0.37326947 -0.105652764 0.028492268
000030 82 b1 c9 3d 01 c1 3b be 04 3e 79 3e d7 f5 7d 3e
       0.0984831 -0.18335344 0.24340063 0.24800812
000040 60 0d f1 be 65 eb c0 3e 86 db d5 be 3b e8 61 bd
       -0.47080517 0.37679592 -0.41769046 -0.055153113
000050 6c 0e 16 be d0 1f 90 be e7 22 35 be 1e 8d d1 3e
       -0.14653939 -0.2814927 -0.17689095 0.40927976
000060 07 7b 24 bd 39 20 12 3f e5 80 41 be 40 1b a1 3e
       -0.04015639 0.5708042 -0.18896826 0.31466103
000070 63 6d f6 bd 11 fe 48 bd ea d7 55 3e ce 3e fc 3c
       -0.120325826 -0.04907042 0.20883146 0.030791666
000080 ce fe a7 be 97 bb 01 3c df 68 0a 3f 1a 4c a6 3d
       -0.32811588 0.00791826 0.5406627 0.08119984
000090 40 66 13 be 2d 97 51 bc 42 df 9b be 2c 67 8b be
       -0.14394474 -0.012792391 -0.3044377 -0.2722715
0000a0 07 51 c9 3e bb 12 52 3e 08 b9 84 3e f5 8d d2 3e
       0.3931963 0.20514958 0.25922418 0.4112393
0000b0 bc b9 eb 3e e8 56 c2 3e e1 ae 1e bc 37 d6 9a 3e
       0.46040142 0.3795693 -0.009685249 0.30241558
0000c0 24 c1 ea 3e 11 7b 42 be e9 a8 c5 be c0 f2 38 3e
       0.4585048 -0.18992259 -0.3860543 0.18061352
0000d0 e6 f5 39 3d 2a 9f ea 3e d7 55 98 be 25 52 96 bd
       0.045400523 0.45824558 -0.2975299 -0.073398866
0000e0 0c 7f 97 be 25 c8 d9 be f6 ef 1c 3e 2b 51 15 3e
       -0.29589117 -0.4253551 0.15325913 0.14581744
0000f0 41 0c 19 3e c5 c8 3f 3e 80 f1 9c be 6e 0e be bd
       0.1494608 0.18728931 -0.30653 -0.09280096
000100 b3 76 b5 be 19 e0 ef 3e b9 50 21 be 2a 12 98 be
       -0.35442123 0.4685066 -0.1575345 -0.29701358
000110 fe 47 4b be 98 4e d5 be 41 9d db be 11 0c e7 3e
       -0.19851682 -0.41661525 -0.42893413 0.45126393
000120 b2 59 9e 3e 27 5d bf 3e 16 35 07 be
       0.30927807 0.37375757 -0.13203844

gru.weight_hh_l1 f4 [15, 5]
000000 05 5a e4 3d 40 e2 16 be df 76 06 bf 33 d7 dc 3e
       0.11149982 -0.14734745 -0.5252513 0.43132934
000010 29 ff 01 3e ec 5b 2a 3e f1 57 9f 3d d1 03 cb be
       0.12694992 0.16636628 0.07780445 -0.3965135
000020 53 ae e9 bd d8 dc c1 bd d9 33 a3 3e dc 63 0f 3e
       -0.11410203 -0.09465951 0.31875494 0.14002937
000030 f1 17 ce be a8 09 95 be 30 a2 2a be f3 ac c0 3e
       -0.4025264 -0.2910893 -0.16663432 0.3763195
000040 e8 b2 40 3e 06 51 99 3e 0b 3a 86 be 43 71 91 be
       0.18818247 0.29944628 -0.26216158 -0.28406724
000050 dc 91 57 be 4d a6 c5 3e 3d 5c 03 bd 6f 4d 4a 3e
       -0.21051735 0.3860344 -0.032070387 0.19756101
000060 2a 3c a0 3d 33 3a 5e be 19 94 0f be 23 00 c7 be
       0.078239754 -0.21701889 -0.14021339 -0.38867292
000070 41 20 ab 3e 4b 58 b7 3d 8e 52 e4 be 0a b6 a4 be
       0.33423045 0.089523874 -0.44594234 -0.32170135
000080 f9 16 b5 be 53 4c ad 3e 52 96 5f bd 95 2a 4e be
       -0.3536909 0.33847293 -0.054586716 -0.20133431
000090 18 54 5a be 87 40 7f 3e 6a 86 9f be 64 82 0b 3e
       -0.21321142 0.24926959 -0.31157237 0.13623959
0000a0 84 67 f1 be 4e 9a fd 3d 0c 4f 34 be e7 15 0a 3f
       -0.4714929 0.12382947 -0.17608279 0.5393967
0000b0 31 36 a8 be d0 43 a6 be 52 c5 c1 3d 4b 87 9a ba
       -0.32853845 -0.32473612 0.09461464 -0.0011789588
0000c0 8c 69 ab 3e e9 d2 39 3e 28 4a 72 be c0 41 69 bc
       0.33478963 0.18146862 -0.23661101 -0.014236867
0000d0 62 bd 08 be 9e b7 b5 3d 12 57 58 3e 02 28 84 be
       -0.13353494 0.08872913 0.21126965 -0.25811774
0000e0 90 4c 76 be 4c 54 56 bd 16 e5 a0 3e fe e2 6e 3e
       -0.24052644 -0.052326486 0.3142478 0.23328778
0000f0 ee de 81 3e 8f 98 c2 bc 2f dc 2d 3e 60 fe 66 be
       0.25365394 -0.023754386 0.16978525 -0.22557974
000100 6a dc 88 3e 23 4c 86 3d 91 85 cc bd 75 41 21 be
       0.26730663 0.06557491 -0.09986413 -0.15747626
000110 0a 1c ff 3e 71 8f b7 be 37 32 47 be ce 20 e7 3d
       0.4982608 -0.35851625 -0.19452749 0.11285554
000120 e1 ab 8a 3e af ec bd 3e 19 7d d9 3e
       0.27084258 0.37094638 0.42478254

gru.bias_ih_l1 f4 [15]
000000 3d bc 92 3e 51 6b 17 be 18 5d 4c 3b d8 d9 bf 3e
       0.2865924 -0.14787032 0.0031183418 0.3747089
000010 16 a4 df be 17 fc 06 bf 91 23 85 be e4 36 bd be
       -0.43679875 -0.5272841 -0.26003698 -0.3695594
000020 71 a0 56 be 9a b2 b3 be 16 a3 b2 bd 63 70 9c 3e
       -0.20959641 -0.350972 -0.087225124 0.30554494
000030 41 0f c9 3e a4 9f 72 be 5f d4 00 bd
       0.3926945 -0.2369371 -0.031452533

gru.bias_hh_l1 f4 [15]
000000 8e 33 f9 3d f4 b1 ad bd cd 84 b7 be 9d c4 0a 3e
       0.121680364 -0.084812075 -0.35843506 0.13551565
000010 c7 3c 6e 3e 54 fe 80 bd 45 0c 10 bf b7 4a 4f 3e
       0.23265372 -0.06298509 -0.5626872 0.20243345
000020 11 1f 43 3c ca 27 ef be 2a f1 90 3d 30 6c 4c bd
       0.011909262 -0.46710044 0.070772484 -0.049907863
000030 02 1d 9f 3e 8c bc 21 3e a4 74 b6 3e
       0.3107682 0.15794581 0.35635865

gru.weight_ih_l2 f4 [15, 5]
000000 8b a9 0c 3f 1a 86 a8 3e a8 3a 72 3e 48 ec b3 be
       0.549462 0.3291481 0.23655188 -0.35141206
000010 7c 26 7c be 25 86 4f be 3a ca 4b 3e 06 50 69 be
       -0.24624056 -0.20266016 0.19901362 -0.22784433
000020 ae 19 78 be 18 8b 9f be 31 02 44 be 15 88 6d be
       -0.24228546 -0.31160808 -0.19141461 -0.23196442
000030 af 7d be 3e 22 ba c1 3e 66 9d 87 bd 65 5c 2e 3e
       0.37205264 0.3783732 -0.06621818 0.17027433
000040 50 af 85 bd 2e ec c0 bc 97 c5 83 3c a7 69 20 3e
       -0.06527579 -0.02355012 0.01608543 0.15665303
000050 6a 4e ff 3e 3a f9 1c be fb 4b 65 3e 98 08 a2 3e
       0.49864513 -0.15329447 0.22392265 0.31647182
000060 ae ce aa be 6d 54 09 be b6 b6 e9 3e ba c8 f3 bd
       -0.3336081 -0.13411112 0.4564721 -0.1190352
000070 75 79 99 be e4 2e 50 be e6 0c ba 3e 99 23 20 3f
       -0.29975477 -0.20330387 0.36337966 0.6255432
000080 6e 3f 24 bb f5 25 ce be 93 c5 16 3f 02 3b cd be
       -0.002506222 -0.40263334 0.58895224 -0.40084082
000090 84 21 14 3e 52 79 14 3e 70 20 e1 3e 73 9a 27 3d
       0.1446591 0.14499405 0.4397006 0.04091878
0000a0 28 bb 20 be df 65 76 3d d2 f9 d9 be dc 1c bc 3e
       -0.15696394 0.060155746 -0.4257341 0.36740768
0000b0 9f 1a c3 bd c8 81 dd be f7 e8 d9 be 10 85 ca be
       -0.09526562 -0.43263078 -0.4256055 -0.39554644
0000c0 89 0d 13 be ae dc 82 be ed 56 d7 bc da ae e8 be
       -0.14360632 -0.2555899 -0.026286567 -0.454459
0000d0 c6 76 9a be 30 0b c8 be 89 d4 a8 bd da 5d ce 3e
       -0.30168742 -0.39071035 -0.08243663 0.40305978
0000e0 39 03 90 be a9 54 23 3e 34 4a 1c be 9b 49 3f bd
       -0.2812746 0.15950264 -0.15262681 -0.046701055
0000f0 6a fc 01 be f3 8d 8c be 3d e5 52 be 82 ad 9e 3e
       -0.12693945 -0.2745205 -0.2059526 0.3099175
000100 de ed 6a bd 22 b9 41 3e 42 0d 13 3e df 70 35 3e
       -0.057355754 0.18918279 0.14360526 0.17718838
000110 03 03 b3 be b1 0e 61 3e 49 1a ee bd 43 2a 14 be
       -0.34963235 0.2197826 -0.11626107 -0.14469247
000120 f4 c5 9c 3e d1 d8 8b 3e 1f be a5 ba
       0.30619776 0.27313855 -0.0012645161

gru.weight_hh_l2 f4 [15, 5]
000000 29 fa 25 3e c5 11 39 3e 81 e1 18 be 3b 8a c1 3e
       0.1620871 0.18073185 -0.14929773 0.37800774
000010 1b 5e 98 3e ab 7b 2b be 21 a7 10 3e 9e a8 b9 3e
       0.29759297 -0.16746394 0.14126255 0.36261457
000020 70 02 cc be ab 3a 78 3e b9 96 a1 be ce d8 44 be
       -0.3984561 0.2424113 -0.31560305 -0.1922333
000030 eb 12 8d be ca bf 4f 3e 16 13 a0 be e4 8d 45 3e
       -0.27553496 0.20288005 -0.3126456 0.19292408
000040 62 e9 8b bd 80 ee 8b be ba 58 68 be 49 75 08 3e
       -0.068316236 -0.273304 -0.22690096 0.1332599
000050 5b ba 73 3e 99 72 a3 be 5b 0e 8c be eb b4 00 be
       0.23801558 -0.3192337 -0.27354702 -0.12569015
000060 07 8a 94 be dd 39 be be 43 a8 38 be 17 ef 11 be
       -0.29011557 -0.3715352 -0.18032937 -0.14251362
000070 64 ab ab bd 7e 8a 9d 3d 5a 97 b1 3e 3d 3a 79 bc
       -0.083822995 0.07692431 0.34685785 -0.015211639
000080 c6 7a 07 3e 61 8f 09 bb 33 85 2b be e9 e0 d1 3c
       0.13230428 -0.0020990002 -0.1675003 0.02561994
000090 15 40 ae 3e 94 c7 62 3e 37 5d 94 3e bc 35 b4 be
       0.34033266 0.22146446 0.28977367 -0.35197246
0000a0 c9 44 c4 3d 88 58 b1 3e 52 7a aa bd e9 54 ca 3e
       0.09583432 0.34637856 -0.08324112 0.39517906
0000b0 d7 2c e1 3b 6e 27 11 be a7 da a3 3e 86 e6 0d 3f
       0.0068718004 -0.14175197 0.32002756 0.55429876
0000c0 89 7a 02 3f 91 2c 60 3e ad a1 be 3e 72 7e ca be
       0.50968224 0.21892 0.37232724 -0.39549595
0000d0 8c a3 c3 3e 9e e0 11 3e 65 17 b2 3e e8 b8 ba be
       0.38210714 0.14245841 0.34783474 -0.36469197
0000e0 ad 27 7b 3e 2d 56 ac bd a8 fa 73 be 74 66 90 bd
       0.24526854 -0.08414874 -0.23826087 -0.070507914
0000f0 95 8c e6 3e e2 21 15 bd 92 c8 d1 3e 16 a1 88 be
       0.4502913 -0.036409266 0.40973336 -0.266854
000100 f8 a5 27 3e f1 06 81 be 71 d8 a7 3e 7b e9 88 bd
       0.16371906 -0.25200608 0.3278232 -0.06685158
000110 83 63 57 3d 7c 9b 8a 3e 9c a9 cf be ac 0e 85 3e
       0.052585136 0.2707175 -0.4055909 0.25987756
000120 c5 28 c3 be 31 66 d8 be 53 1f a3 be
       -0.38117042 -0.42265466 -0.31859836

gru.bias_ih_l2 f4 [15]
000000 93 98 b2 be 84 7c d6 3e 87 d3 5f 3e b1 c3 d1 3e
       -0.3488203 0.41891873 0.21858035 0.40969613
000010 7d 42 a5 3e 20 67 2a 3e 64 a1 c9 3e da fb 1f bf
       0.3227729 0.16640902 0.39380944 -0.6249367
000020 19 19 c2 bd 61 02 ee be ec aa 91 3e 3d f5 63 be
       -0.09477443 -0.4648619 0.28450716 -0.2226152
000030 29 18 b0 be cf 52 9f bd 15 9f 8d 3e
       -0.34393433 -0.07779466 0.27660432

gru.bias_hh_l2 f4 [15]
000000 c8 4d fd bc 33 32 3a 3e 20 63 36 be 67 a6 8a 3d
       -0.030920878 0.18183212 -0.1781125 0.0677002
000010 7a d0 00 be da b0 4a 3e c8 85 20 3f 45 97 f9 bd
       -0.12579527 0.19794026 0.62704134 -0.121870555
000020 f7 6d dc be f6 46 87 3d 95 cb 20 3e 6e 59 d3 be
       -0.43052647 0.066053316 0.1570266 -0.41279167
000030 28 98 d6 3e 8f 7d 62 be 86 a2 fe bd
       0.4191296 -0.2211821 -0.12433343

gru.weight_ih_l3 f4 [15, 5]
000000 d9 1e f5 3e 52 72 4d be 0d a6 9f be b7 d1 d9 be
       0.47875097 -0.20063141 -0.31181374 -0.42542812
000010 7a a9 e6 3d 78 02 16 bd 97 97 ad 3e 2c 43 e2 3e
       0.11262794 -0.036623448 0.33904716 0.44191873
000020 9e 9a bb 3e b7 66 27 be 5b 64 db be e0 00 13 3e
       0.366414 -0.16347776 -0.42850003 0.14355803
000030 86 62 c6 3e 14 2d b2 be b1 d8 d4 be ce 2c ba 3c
       0.38747042 -0.34800017 -0.41571572 0.022726443
000040 ca 6e bd be bf 72 92 3e 5b f2 9c be 94 ab 19 3d
       -0.36998588 0.2860317 -0.30653653 0.037517145
000050 fc a0 cb be 8d 36 bf 3d a8 19 a3 be 8d ce 9d be
       -0.3977126 0.093365766 -0.31855512 -0.30821648
000060 0b 40 3f be 14 29 af bd 33 76 ce 3d a0 fb f7 3e
       -0.18676774 -0.08552757 0.100811385 0.48434162
000070 6e d0 b6 3d c3 cc dc be 84 19 d9 be 21 d4 fc 3e
       0.089264736 -0.4312497 -0.4240228 0.49380592
000080 2f f3 99 3e 40 c1 cc 3d 6a c6 02 3e 6c f4 c9 be
       0.30068347 0.09997797 0.12771001 -0.39444292
000090 92 58 bb 3d 64 f3 a1 3d 34 91 97 3e f2 92 ec be
       0.09147753 0.07907751 0.2960297 -0.4620586
0000a0 61 8e dc 3d 16 82 7b bd 26 1b c0 be 40 28 c8 3e
       0.10769344 -0.061403356 -0.37520713 0.39093208
0000b0 40 02 6a bd 3a d1 6e be c8 fa 4d be c5 7b 8a 3e
       -0.057131052 -0.23322001 -0.20115197 0.27047554
0000c0 79 be b1 3e 30 2a 2e bd 82 1e b5 bd 56 f8 79 be
       0.34715632 -0.042520702 -0.088437095 -0.24411139
0000d0 6b 51 a1 3e 77 38 b1 3e d6 95 af 3e 25 68 79 3e
       0.3150743 0.34613392 0.34294003 0.24356134
0000e0 68 a4 94 3e 2c 31 a6 be a3 f2 00 3f a1 e4 75 bd
       0.29031682 -0.3245939 0.50370234 -0.06003249
0000f0 ff ba 0c bb a7 39 54 3e 84 28 c5 be 4f 9d e3 be
       -0.0021473763 0.20725118 -0.38507473 -0.44455954
000100 51 7d 8e be a6 a0 4a be 25 1b 48 be 6a 24 7d 3e
       -0.27829984 -0.19787845 -0.19541605 0.24720922
000110 ea 32 8f be d8 3b 99 be ec 6c c1 3e 6f 7b 27 3e
       -0.27968532 -0.2992847 0.37778413 0.1635568
000120 c6 4e 88 3e 75 55 05 3f 3b f8 e9 be
       0.266226 0.5208352 -0.45697197

gru.weight_hh_l3 f4 [15, 5]
000000 0b b0 54 3d ca b1 78 3d 57 d5 d4 3e fe 68 9e 3e
       0.0519257 0.060716428 0.41569015 0.30939478
000010 15 48 b6 3e 59 35 b4 be 1c a3 c1 be bb 8d ba be
       0.3560187 -0.3519695 -0.37819755 -0.36436257
000020 a6 74 03 3e bb 39 b4 3e 7a 05 8b 3c ca 8d b5 be
       0.12837467 0.35200295 0.016970385 -0.3545974
000030 2a 50 4e 3c 97 b7 7f be 13 02 8d be ca 1f de 3e
       0.012592355 -0.24972378 -0.27540645 0.43383628
000040 94 71 94 be 3d 7b c4 be c5 da 3d be b9 7a 59 3e
       -0.28992903 -0.38375273 -0.18540485 0.21238221
000050 f9 cf ad be bb 2d d3 be 2d eb 83 be 8f 72 59 be
       -0.33947733 -0.41245827 -0.25765362 -0.21235107
000060 5b aa 77 be c1 73 0b 3e c4 c4 0b bf a8 99 f0 bc
       -0.24186079 0.13618375 -0.54597116 -0.029370144
000070 d4 40 9d bc 2d ce 82 3d ae c0 cb bd 87 c5 0f be
       -0.019195952 0.06386981 -0.0994886 -0.14040194
000080 ba 55 67 3e 89 55 57 be 5a 9f 34 be ec fa a4 3d
       0.22591296 -0.21028723 -0.17638913 0.08055672
000090 95 0d 31 3e d6 37 b8 bd d3 b9 be bb 09 fb 63 be
       0.17290337 -0.08995025 -0.005820492 -0.22263731
0000a0 c5 d6 d1 3e be 52 be be c3 1e 15 be 18 d3 c8 be
       0.4098417 -0.37172502 -0.14562516 -0.39223552
0000b0 46 bc fe bd 9a 32 f9 3e 97 6e 0d bc 16 08 26 3e
       -0.12438254 0.48671418 -0.008632324 0.16214022
0000c0 99 3b db ba bf 59 87 be 0a 4e f5 bd 3a f7 b3 be
       -0.0016726136 -0.26435658 -0.119777754 -0.35149556
0000d0 e2 3b 8c be 9e 2b e5 bd 56 1a 0a bd 81 46 3a 3e
       -0.27389437 -0.1118996 -0.033716522 0.18190958
0000e0 3e 7b 49 be ae 41 e0 be da 17 7a 3e 77 41 f9 3e
       -0.1967592 -0.4380011 0.24423161 0.48682758
0000f0 b1 36 9b 3e 47 37 8c be 06 37 92 bd 72 6a 34 be
       0.30315164 -0.27385923 -0.07139401 -0.1761873
000100 80 38 f7 be d3 67 b2 bd 99 80 a3 be 58 c9 e9 3d
       -0.48285294 -0.08711209 -0.3193405 0.114153564
000110 b7 e8 04 3e 0a fb 72 bd de 33 64 3e 6d 16 93 bd
       0.12979399 -0.05932144 0.22285411 -0.07182012
000120 40 2f ae 3e 3a 53 9e bc fe a1 42 3e
       0.34020424 -0.019326795 0.19007108

gru.bias_ih_l3 f4 [15]
000000 fe f4 bb be da 05 c1 bd 95 f5 6d be af 74 5f 3e
       -0.36710352 -0.09424944 -0.23238213 0.21821855
000010 1b 41 4d 3e 6b d1 42 be 38 c0 d6 bd 71 fc 40 3e
       0.20044367 -0.19025199 -0.104858816 0.18846299
000020 a3 12 b5 be 6e 2d 69 3e 06 78 47 3e bb 72 d5 3d
       -0.3536578 0.22771236 0.19479379 0.10422274
000030 05 fd 8e 3e df 8c 09 3d 01 47 99 3e
       0.27927414 0.03358161 0.29936984

gru.bias_hh_l3 f4 [15]
000000 e7 49 62 3e 08 1f ae be af 32 99 be 4d 45 92 3e
       0.22098504 -0.3400805 -0.2992148 0.28568497
000010 a0 4e 22 3e 2d 2f d7 bd 04 d0 c4 be 20 c7 1c bf
       0.15850306 -0.10507045 -0.38439953 -0.6124134
000020 a1 20 92 be 3f 55 18 3e ae 38 35 be da f3 22 3e
       -0.2854052 0.14876269 -0.17697403 0.15913334
000030 d0 39 1f 3e 17 fe 4d 3e d8 84 6d be
       0.15549397 0.20116459 -0.23195207

gru.weight_ih_l4 f4 [15, 5]
000000 e3 df 2b 3e 58 3d 2e 3e 38 2f a4 3e 0f 79 cf be
       0.16784625 0.17015588 0.32067275 -0.40522048
000010 91 b9 28 be ac 2c e8 3e 98 fa 83 be f7 5d 79 3e
       -0.16477038 0.45346582 -0.25777125 0.24352251
000020 01 1e cf 3e 2a 6d cf 3e 62 8a d0 3e 0a af 02 3d
       0.4045258 0.40512973 0.40730578 0.03190521
000030 ad 93 49 be 89 86 02 be aa 2b ad 3e e1 56 65 3e
       -0.1968524 -0.12746634 0.33822376 0.22396423
000040 ff 89 4c 3d 19 f0 c2 be f0 99 cd 3e 7c c3 b2 be
       0.04993629 -0.38073805 0.40156507 -0.34914768
000050 17 92 05 3e 96 d1 19 3e ed 2e 40 bd 98 37 f7 bd
       0.1304401 0.15021357 -0.046919752 -0.120711505
000060 f3 a4 de 3e 33 f2 21 3e fb 07 b1 be 7d 27 07 bf
       0.4348522 0.15815048 -0.345764 -0.5279463
000070 7c d6 47 be 4f ae dc be 83 94 21 3e d4 70 23 3f
       -0.19515413 -0.43101737 0.15779309 0.6384404
000080 ce 49 08 3e 56 73 25 3f f4 d4 ec 3e cc 3a 8e bd
       0.13309404 0.64629114 0.4625622 -0.06944808
000090 b4 a3 16 3e ee 8d 9d be da 3b 00 be 0f 7a d5 3e
       0.14710885 -0.30772346 -0.12522832 0.41694686
0000a0 55 f2 1b 3e a8 a8 12 3e 23 02 23 3f 8d 73 e6 3e
       0.15229161 0.1432215 0.63675135 0.45010033
0000b0 de c3 10 3e b1 79 10 be 1d e4 20 3e 08 dc 66 3e
       0.14137217 -0.14108922 0.15712018 0.22544873
0000c0 4d 67 00 3f e3 82 e6 3e 49 1b 61 bc ad 0c bd be
       0.50157624 0.45021734 -0.013739415 -0.36923733
0000d0 05 29 23 bd 2c 75 9d be 21 f6 f2 3e 0b 8e 85 be
       -0.03983404 -0.30753458 0.47453406 -0.26084933
0000e0 a7 31 24 3e d3 dc cd be a8 dc af be 1a 71 c5 3e
       0.16034566 -0.40207538 -0.34348035 0.38562852
0000f0 68 28 1d be ab c8 cb 3e 1d 95 8d bd 7b 20 3a 3e
       -0.15347445 0.39801535 -0.06913207 0.18176453
000100 29 52 fa 3e 34 8e 97 3d 97 b9 68 be 35 41 b4 3d
       0.48890808 0.0740017 -0.22727047 0.088015
000110 a8 f5 cf be 3b d6 d2 bd 3c 44 a1 bd 95 05 8e bd
       -0.40617108 -0.102947675 -0.07874343 -0.069346584
000120 a3 fd 04 3e 97 e9 4b bd 49 b0 9f be
       0.1298738 -0.049783316 -0.31189182

gru.weight_hh_l4 f4 [15, 5]
000000 2d 6a f8 3d 2b ca 1b be 64 b1 e3 3c eb bb ec bd
       0.121296264 -0.1521384 0.027794547 -0.1155928
000010 1b 2b 70 3e 60 a1 43 be c0 42 a7 3e 69 8e d9 3e
       0.23453943 -0.19104528 0.32668114 0.42491463
000020 bc ab a7 be 33 45 b0 be d7 43 a1 3e 63 06 a2 3e
       -0.3274821 -0.34427795 0.3149707 0.31645498
000030 f8 5e b5 3e 2f 3b 3c 3e bc b9 29 3e aa c9 a3 3e
       0.35424018 0.18381952 0.16574758 0.31989795
000040 44 56 63 be 8f a1 89 bb 35 e5 16 3e b5 72 2f be
       -0.22200876 -0.0042001675 0.14735873 -0.17133601
000050 91 9a 9c 3d 59 70 98 be 0e 56 3e be 69 77 40 3e
       0.07646669 -0.29773214 -0.18587515 0.18795551
000060 04 75 d2 be 83 4b b8 bd 72 44 99 bd 96 d3 05 be
       -0.411049 -0.08998778 -0.07483758 -0.13068995
000070 5a e6 09 3e bf e9 bb 3d a6 03 bf bd 97 a1 1f 3f
       0.13466778 0.09175443 -0.09326868 0.6235594
000080 00 8d b1 3c 9f ba d0 bc 17 8c 46 be 6e 51 c2 3d
       0.02167368 -0.025479613 -0.19389378 0.09488188
000090 df 72 a4 be 8c 78 d7 3e c4 b8 74 be e4 68 30 3e
       -0.3211889 0.42084157 -0.23898607 0.17227513
0000a0 c4 97 ef be f7 6a 8b 3e b2 29 01 3f a7 41 92 be
       -0.46795475 0.27230045 0.50454247 -0.28565714
0000b0 57 5d 8f 3d 2e 5a 2f 3e 2e fe 97 3e 7c 40 9b 38
       0.07000225 0.17124245 0.2968611 7.402987e-05
0000c0 01 8e 1f bf 43 89 4f be f0 d8 df be a2 02 c0 3e
       -0.62326056 -0.20267205 -0.43720198 0.3750201
0000d0 8b 86 1c 3e 0a 76 cf 3e af 21 2f 3e 7d e1 6f bd
       0.15285699 0.40519744 0.17102693 -0.05856465
0000e0 40 9f 21 be 10 09 57 be b2 2a c6 3e 6f bd ad 3b
       -0.15783405 -0.20999551 0.3870445 0.0053021233
0000f0 55 7d a4 3e e7 8a 47 3e cf 7c 88 be 1d 53 28 bc
       0.3212687 0.19486581 -0.2665772 -0.010273722
000100 34 54 ba be 8c 97 be 3e 7b 97 e5 3c 93 46 82 3d
       -0.36392367 0.37224996 0.028026333 0.06361117
000110 dd 15 95 bd 38 3a 2b bd 8e 99 b4 3e 86 8b 99 be
       -0.07279561 -0.04180357 0.35273403 -0.2998926
000120 47 86 a5 bd eb 34 c9 3d 21 19 e6 3d
       -0.08082252 0.098245464 0.11235262

gru.bias_ih_l4 f4 [15]
000000 53 93 12 3e 7c f7 cf bd 7d 5f dd be bf 35 18 3e
       0.14314012 -0.10154626 -0.43236914 0.14864253
000010 2d 27 a3 3e b2 c5 f8 bd 54 ee 9b 3e 72 51 a9 be
       0.31865826 -0.121470824 0.30455267 -0.3306995
000020 4c 6c ca 3d 0f f3 d1 3e f7 c7 39 be 26 aa 56 3e
       0.09883937 0.41005751 -0.18142687 0.20963344
000030 82 77 f1 3d 7b 27 0e be 70 23 be be
       0.117903724 -0.13882248 -0.37136412

gru.bias_hh_l4 f4 [15]
000000 b8 19 c3 be 13 ff 60 3d f5 b5 d3 3e 07 2b 9b be
       -0.3810556 0.054930758 0.4134976 -0.30306265
000010 9e c4 95 be 06 c8 e2 3d 0c 02 9b 3e d6 bb 92 bd
       -0.2925157 0.11073308 0.30275 -0.07164733
000020 b3 f6 e9 3e 0d 14 48 be 4c f7 5d be ca b6 e2 3e
       0.4569603 -0.19538899 -0.21676368 0.44280082
000030 2c b4 36 3e b4 9c 00 be c9 6b 61 be
       0.17842168 -0.12559777 -0.22013773

fc1.weight f4 [64, 25]
000000 61 5e 62 be 96 bb 2c 3e 91 db 7b 3e 60 8e 06 3e
       -0.22106315 0.16868433 0.24595477 0.13140249
000010 80 84 54 be 87 de ae 3e df 6b 95 bc 48 8a 78 bd
       -0.2075367 0.3415415 -0.018239914 -0.06067875
000020 fb 14 68 be 19 2c 01 3e 4b 21 c0 bd 62 ee 19 3e
       -0.22664253 0.12614478 -0.0938135 0.15032342
000030 ba bf 0b be 14 11 8f 3d 1b 2d 06 3e 90 e6 96 bd
       -0.13647357 0.06985679 0.13103144 -0.07368195
000040 ef b7 b5 bd 66 fb f8 bd 22 af 55 be 42 f4 b0 3d
       -0.08872973 -0.121573254 -0.20867589 0.086403385
000050 8e 50 b6 bd 46 43 31 3e 2e a8 17 3e f6 2d 11 3e
       -0.08902083 0.17310819 0.14810249 0.14177689
000060 e5 0f bb 3d c3 a1 4a bc 14 e2 f5 3b 18 2f 67 3e
       0.09133891 -0.012367669 0.0075037573 0.22576559
000070 4a 08 19 bd ad d7 40 bd 33 bd 70 3d 16 a4 b5 3a
       -0.03736142 -0.047080684 0.058774184 0.0013858106
000080 24 da 1e be aa 25 12 be 45 a1 c7 bd 44 89 37 3e
       -0.15512902 -0.1427218 -0.097475566 0.17923456
000090 88 5b 10 3e 3d 07 2b bd 53 3e a3 bd 1e 10 66 bd
       0.14097416 -0.04175495 -0.07970872 -0.056167714
0000a0 3f 86 dd bd 9a a1 01 3e 2f a0 a4 3c 89 67 03 be
       -0.10816621 0.12659302 0.020095913 -0.12832464
0000b0 80 58 02 3e 10 33 ef bb 1a ab 56 3e 72 ea 50 3e
       0.12729073 -0.0072997883 0.20963708 0.20401934
0000c0 39 f3 92 39 ce 89 96 bd b5 d7 85 bd 00 5a 28 bd
       0.00028028505 -0.07350503 -0.065352835 -0.041101456
0000d0 91 2d f4 3d 96 63 f4 3d 03 a5 68 3d a0 77 51 3e
       0.119227536 0.11933057 0.056797992 0.2045579
0000e0 06 3e 14 be 1a 50 cf bd fe 01 09 be 07 bb 9a bd
       -0.14476785 -0.101227 -0.13379666 -0.07555204
0000f0 bd 41 99 3d 28 1a 1b 3d c3 54 8c 3d f1 15 b5 3d
       0.07483242 0.03786674 0.068521045 0.088420756
000100 79 63 8e bd 07 4f e9 3b 95 e1 3a 3e f1 ac 9f bd
       -0.06952567 0.0071200165 0.18250115 -0.07796658
000110 7a 91 16 3e 05 3c 82 3e 44 09 d1 bd a9 50 5d 3e
       0.14703932 0.25436416 -0.102068454 0.216128
000120 85 2a a7 3d 5b b0 32 3e 11 b9 26 3e 73 8d 09 3e
       0.08162407 0.17450087 0.16281535 0.13432865
000130 4b 9f b6 3d 73 d2 8d be 66 fa 97 3c 4e 2a cd bb
       0.089171015 -0.27699623 0.018552016 -0.0062611466
000140 71 fe 50 3d d5 05 b1 bd 1c f0 c5 bd 20 9c fd 3d
       0.051023904 -0.086436905 -0.09664938 0.12383294
000150 e7 e3 50 3c fd 85 d6 3d b6 da 26 bd 82 31 0d bd
       0.012749649 0.10474775 -0.040735923 -0.034471042
000160 72 c8 7d be d1 c3 22 3e 04 c1 14 be bd 89 42 bd
       -0.24783495 0.1589501 -0.14526755 -0.04749464
000170 77 a2 ef 3d c6 e4 58 3e 1e fc e8 3c 9d 58 e3 bd
       0.117009096 0.2118102 0.028440531 -0.11100886
000180 36 de 55 bd 29 74 e8 3d 7d 5b 03 be b4 ff e3 3d
       -0.05221387 0.11350281 -0.12827869 0.11132756
000190 b4 ad 7e bc 03 3b 91 3b a1 9f 18 3e 81 4d 79 3e
       -0.015544344 0.0044320836 0.14904644 0.24345972
0001a0 f1 82 e0 3d 2a 25 55 bc f3 d1 3e be 60 98 e1 bd
       0.10962475 -0.013009349 -0.18634777 -0.11015391
0001b0 1d 03 21 be e9 99 84 3e 0a ab d6 bd 71 ad 2d be
       -0.15723844 0.25898674 -0.10481842 -0.16960694
0001c0 cc 6d 79 bd 6b 6a ff 3c 6e 2b 33 be e4 cb 07 be
       -0.060895726 0.031178674 -0.17497036 -0.13261372
0001d0 5c ae 73 3e f7 28 db bd fe f4 15 3e cc e8 4d 3c
       0.23796982 -0.10701173 0.14644238 0.01256771
0001e0 fe 81 22 bd 97 47 2c be e5 8c 1d 3e a0 46 dd 3c
       -0.03967475 -0.16824184 0.15385778 0.027011216
0001f0 46 83 20 be ee d4 bf 3c e0 55 b0 3d 87 3d 96 be
       -0.15675077 0.023416962 0.08610129 -0.29343817
000200 36 1f 7d be e6 05 83 bd fb ea 51 be d8 54 07 be
       -0.24718937 -0.063976094 -0.20499794 -0.13215959
000210 f7 2f 9f 3c 49 a5 4c 3e 46 44 e5 bd 2d c5 86 3d
       0.019432051 0.19984926 -0.11194663 0.06580577
000220 d3 4a 26 be 46 d6 18 3e c5 38 3b be 16 51 1e 3e
       -0.1623948 0.14925489 -0.18283375 0.1546062
000230 c8 48 25 bd a9 50 06 3d 62 de 0a be 95 d6 fa 3d
       -0.040352613 0.032791767 -0.13561395 0.122479595
000240 51 ea 68 3b cc 33 a3 bc 2f 1a c7 bc 90 c9 40 3e
       0.0035540054 -0.01992216 -0.024304477 0.1882689
000250 14 c7 43 be f0 93 0d 3e ac 17 15 3d 41 7f 1a 3e
       -0.19118911 0.13825965 0.03639953 0.15087606
000260 d2 33 a4 be fe c2 03 be 47 4d f4 3b 6a 58 9a be
       -0.32070786 -0.12867352 0.0074555012 -0.3014558
000270 0e 96 96 3a 5a 4c 13 ba da 72 4e 3c 5d 7f 25 be
       0.0011488812 -0.0005618982 0.012600625 -0.16161866
000280 ee 4e 1a be 89 f2 c4 3c af ea 1c be 4d c7 83 be
       -0.15069172 0.024041431 -0.153239 -0.25737992
000290 04 61 59 3d 4f b6 45 3d e3 39 cd bb a0 dc 37 3e
       0.053071037 0.048269566 -0.006263004 0.17955256
0002a0 5c 24 1c 3e 50 36 5d 3d 81 96 dc bd 76 a9 7c 3d
       0.15248245 0.054006875 -0.10770894 0.061685048
0002b0 05 da 0a 3e 0b 89 b2 3c ba 88 43 3e e4 91 1b 3e
       0.1355973 0.021793863 0.19095126 0.15192372
0002c0 88 68 cb bd b6 c6 86 3c c7 af 43 be 24 87 11 be
       -0.09932047 0.016452175 -0.19110022 -0.14211708
0002d0 ac 85 2f be 28 cc 90 3c 11 ad 00 3e e4 44 59 3b
       -0.17140836 0.017675474 0.1256602 0.0033152634
0002e0 d9 30 12 be ed 5c 5e be f1 d7 58 be d5 ca 1f be
       -0.14276446 -0.21715136 -0.21176125 -0.15604718
0002f0 a5 3d 1f be 26 50 b2 3d 24 b5 3c 3e d1 c4 88 bc
       -0.1555086 0.08706693 0.18428475 -0.016695412
000300 66 9a b4 bd 88 19 5d 3e 85 19 8b be 56 d0 fc bd
       -0.08818512 0.2159177 -0.27167907 -0.123444244
000310 08 be 60 bd d6 f6 15 be 33 dd 2a 3e e9 42 21 3e
       -0.054868728 -0.14644942 0.16685943 0.1574818
000320 a6 5f a6 bd af 71 d9 3d d0 43 8d 3d 46 c7 99 3d
       -0.08123712 0.106173865 0.068977 0.075087115
000330 13 f8 3d be 46 71 07 3c f2 ce 26 be 32 59 e1 bd
       -0.18551664 0.008266753 -0.16289881 -0.11003341
000340 cd 6d d5 3d 18 93 50 3e 89 94 3e 3e 2c 72 82 3c
       0.104213335 0.20368612 0.18611349 0.015923582
000350 72 fe 18 3e cd e3 33 bd 2a 50 81 bd a4 49 36 be
       0.14940813 -0.04391842 -0.06314118 -0.17801529
000360 f5 cf 73 3e 45 4e e0 3d 4b d7 e4 bd 8d 8c 0a 3e
       0.23809798 0.10952429 -0.111738764 0.13530178
000370 af ef 21 3e 9a f4 d1 3d 44 7d 92 3d eb fa 1e be
       0.15814088 0.10251732 0.07152799 -0.15525405
000380 08 22 21 be 9f bb 0a be e4 7b e2 3d 9c dd 58 be
       -0.15735638 -0.13548134 0.110587865 -0.21178287
000390 ad 6b ed bd 41 57 2a 3d 0b b3 f1 3d ba f0 a1 bd
       -0.11592803 0.041587118 0.11801728 -0.07907243
0003a0 0c c9 25 3d bc 23 01 3d b7 c4 44 be 70 a6 6f bd
       0.040474936 0.03152822 -0.19215666 -0.058508337
0003b0 30 38 05 3e 82 2c 40 bd 6a 03 37 3c 71 b0 cf bd
       0.13009715 -0.046917446 0.011170248 -0.101410754
0003c0 8a 79 35 be e0 6b b8 bd 13 87 27 be 7b 9c e4 3d
       -0.17722145 -0.090049505 -0.1636012 0.11162659
0003d0 b3 ba 24 3d d1 02 0a 3e 74 db c5 bd 13 cd 7e bc
       0.040217113 0.13477637 -0.09660998 -0.015551823
0003e0 36 09 90 3d 36 17 d7 bd d8 cc d1 3d 26 f4 96 3d
       0.07033007 -0.10502474 0.10244149 0.07370786
0003f0 6d 22 a8 3e 87 2f 77 3e 01 ad d5 3c 9f 88 91 3e
       0.32838765 0.24139224 0.026083471 0.28424546

fc1.bias f4 [64]
000000 9b c9 e6 bd af bc ad bd b9 1f 37 be a0 03 a1 3d
       -0.11268922 -0.08483254 -0.17883195 0.078620195
000010 fa 17 01 3d c8 10 33 be 86 ad 44 3d 6c 02 70 bc
       0.031517006 -0.1748687 0.048017047 -0.014649015
000020 eb dd 07 be b2 61 3c be d5 af c9 3d 2e 9e 0e be
       -0.13268249 -0.18396643 0.098479904 -0.13927528
000030 0f d6 7c bd dc f2 d3 bd 7a 0f ee bd c3 23 1a be
       -0.06172758 -0.10349056 -0.11624046 -0.15052705
000040 86 e8 4c 3e 3c 11 02 be 88 ea 59 bd 60 93 8a bb
       0.20010576 -0.12701887 -0.053202182 -0.0042289943
000050 c3 8e 24 3e ad f1 6b 3b 43 8a 23 3d cf 6d e1 bd
       0.16070084 0.0036002204 0.03992678 -0.110072725
000060 51 64 8c bd ca 49 ea 3d b1 e0 cf 39 eb 76 bf 3c
       -0.06855071 0.114398554 0.00039649525 0.023372134
000070 1e 8e 20 bc 42 ac 18 3e 29 93 b5 3d 00 83 9e 3d
       -0.009799508 0.14909461 0.08865959 0.0773983
000080 8e d8 47 be e1 7e 1a be 34 2a be bd e5 b1 20 be
       -0.19516203 -0.15087463 -0.09285393 -0.15692861
000090 89 f8 e8 3d cc e8 89 3c 4c 46 06 be 1a d8 34 3e
       0.11375529 0.016834639 -0.13112754 0.17660561
0000a0 9d 1a 1d 3e 3d 45 c6 bd 5b b9 d6 bd 7d 38 e2 bd
       0.15342183 -0.09681175 -0.104845725 -0.110459305
0000b0 07 92 9d 3d 25 d2 2f be d0 9c f2 3d 5e a9 54 3b
       0.07693868 -0.17170008 0.11846316 0.0032449584
0000c0 03 7e ae 3d 8f fb 40 3e 4a a8 41 3d 74 f5 48 3d
       0.085201286 0.18845962 0.047279634 0.049062207
0000d0 11 e3 74 bb 1a 5e e7 bd ec f5 02 be 51 3a bb bc
       -0.0037366787 -0.11297245 -0.12789124 -0.022854956
0000e0 14 1b 1b bd 36 dc 2f be 4d fa a5 3d 4d 14 41 3d
       -0.03786762 -0.17173848 0.08104382 0.0471385
0000f0 8b 48 24 be aa dc 35 be a0 5b f8 3c 53 8b 0d be
       -0.16043298 -0.17759958 0.030317128 -0.13822679

prop_h_to_h.0.weight f4 [64, 64]
000000 ed eb 44 3e 6c ed 0c 3e 9f fa e4 bb 74 c4 42 3c
       0.19230624 0.13762444 -0.006987884 0.011887658
000010 51 c3 26 3e ed 66 3c be 53 e1 65 be dc d1 39 bd
       0.16285445 -0.18398638 -0.22449236 -0.045366153
000020 11 3b 43 3d 5e 92 17 be 3d d5 ba bb db 93 04 3e
       0.047663752 -0.14801928 -0.0057016895 0.12947027
000030 c8 0a 6b 3e e7 98 2f 3e d0 96 c2 bc ae 1e 56 3c
       0.22953331 0.17148171 -0.023753554 0.013068838
000040 8b 74 21 3e 51 91 46 3d a7 c7 4f be d3 4b d1 bd
       0.15767114 0.04847843 -0.20291005 -0.102195404
000050 d9 53 95 3d 4c 19 97 bd 22 6a 1d bd 9b 73 4d 3e
       0.07291383 -0.07377872 -0.038431294 0.20063631
000060 cb 3b 92 bd cf 3f b4 bd 28 6c 16 bc 49 e9 bf ba
       -0.07140311 -0.08801233 -0.00918106 -0.0014641668
000070 e5 d6 c0 bd 57 6d b2 bd 0d 24 a1 bd d7 71 4c bc
       -0.09415988 -0.08712261 -0.07868204 -0.012478313
000080 f9 8a eb bc 43 41 01 3c 6d 9d bd bd 18 d2 cc bd
       -0.02875279 0.007889095 -0.09258542 -0.1000101
000090 a9 9e fa bc 92 ec 6f 3c 71 d1 0c bd 11 a0 e3 bd
       -0.030593233 0.014643805 -0.034379426 -0.111145146
0000a0 45 da e8 3d 2b e4 24 3d 05 46 33 be 13 34 90 3d
       0.113697566 0.04025666 -0.17507179 0.07041182
0000b0 e7 7a d6 bd aa 92 b2 bd 68 d5 ee 3d 98 bb db bd
       -0.104726605 -0.0871938 0.11661798 -0.1072914
0000c0 9a 7a d8 bd c6 4a 9c bc c9 91 7f 3a 7e 6a aa 3d
       -0.105702594 -0.019078624 0.00097492017 0.08321093
0000d0 78 b5 c5 bc 2d 8c 4b be e9 db f2 3d 2a ce 24 bd
       -0.024134383 -0.19877692 0.11858351 -0.040235676
0000e0 ab 18 a7 3b ae 51 6b bd 8f 3e 99 3d 16 93 43 3e
       0.005099376 -0.057450943 0.07482635 0.19099078
0000f0 7c 4e 9d 3d 3f f3 d3 3d 4a d2 1b bc a4 cf e7 3d
       0.07680985 0.1034913 -0.009510586 0.11318901
000100 ff 6c 25 3e 68 a8 2f 3e 8c 71 bc 3d 7c 55 24 be
       0.1615486 0.17154086 0.09201345 -0.16048235
000110 00 3e 92 3d 36 fc fa 3c 5c a3 38 bd e3 e3 aa bd
       0.07140732 0.030637842 -0.045077667 -0.08344247
000120 12 fa 15 3e 45 9e c5 bd fe 05 52 3e 2c dd 56 3e
       0.14646176 -0.09649328 0.20510098 0.20982808
000130 82 94 09 3d a9 c0 20 3d df 8a d8 bd cc 63 c4 bd
       0.033588894 0.039246235 -0.105733626 -0.09589347
000140 41 73 f5 3c 9d 58 6f bb 36 4a 5d be c1 48 39 3c
       0.029962184 -0.0036521323 -0.2161034 0.01130885
000150 74 ea 11 3e 5e 45 86 bc 50 00 aa bc fe 12 1a 3d
       0.14249593 -0.016390499 -0.020752102 0.03761577
000160 42 3c 9c bd 93 a2 ba bd 02 24 a5 3d 3c d3 47 bc
       -0.07628681 -0.0911304 0.080635086 -0.012196358
000170 f1 6f f9 bd 66 ca e7 bd 22 7d 4b 3d 13 8c 01 bd
       -0.12179554 -0.11317901 0.049679883 -0.031627726
000180 6f 1c bb bd 00 46 99 3d c3 e8 0c 3d 75 cd d4 3c
       -0.09136283 0.074840546 0.034401666 0.025976876
000190 97 d6 64 3d f3 ea 50 bb 49 78 b5 3d 2d ca 12 be
       0.05586871 -0.0031878322 0.08860833 -0.14334936
0001a0 ee 28 01 bb b4 37 5c 3e bb 7d 8a 3d 59 1a 8e 3d
       -0.0019708234 0.21505624 0.067622624 0.06938619
0001b0 32 99 bf bd 93 9c b1 bd 66 21 54 3d de 80 b1 bd
       -0.093553916 -0.08672442 0.051789664 -0.086671576
0001c0 a1 97 da 3d 39 ed 54 bd 79 b0 21 be d3 fe f2 3d
       0.10673452 -0.051984046 -0.15789975 0.1186501
0001d0 8a 6a 4a 3b 7e 23 ab 3c 96 0d 20 3e 98 ec 16 3e
       0.0030886256 0.020890947 0.15630183 0.14738691
0001e0 3d d3 86 bd 41 f0 2c bd ce 99 3a bd 20 f6 21 3e
       -0.06583259 -0.04222131 -0.045556836 0.15816545
0001f0 74 06 f5 3d d6 d3 41 bc be 19 27 3d 5c 67 59 3e
       0.119641215 -0.011830291 0.040796034 0.21230835
000200 95 04 e0 3d d3 e2 0a 3d cb 6d d4 bc 8b 42 6c 3d
       0.10938374 0.033907723 -0.02593126 0.057680648
000210 9b d3 ca 3d 45 3e 53 3d c8 6b bd bc ea db 63 bb
       0.09903642 0.051573057 -0.023122683 -0.003476853
000220 1c 3a bf bc 04 5b c4 bd 34 50 12 3e ed 7f 10 bd
       -0.023343138 -0.09587672 0.14288408 -0.03527825
000230 0f 3a 27 bd ab 80 a1 3d a5 be 90 bd 36 d1 ff bd
       -0.040826853 0.078858696 -0.070676126 -0.12491076
000240 b8 d9 09 bd a5 65 72 3d 04 0f aa bd f0 48 8a bd
       -0.0336549 0.059178967 -0.08303645 -0.06752193
000250 52 e2 eb bc 2e 82 70 3d a4 6a f5 bd 22 aa 65 3d
       -0.028794441 0.0587179 -0.11983231 0.056070454
000260 73 e9 7a 3d ce 59 88 3d a1 a1 ad 3d b0 bf a8 bb
       0.06125779 0.06657754 0.08478094 -0.005149804
000270 1a d7 23 be 34 f9 85 bc 37 14 12 3d e9 f3 57 3d
       -0.16000023 -0.01635418 0.03566381 0.052722845
000280 3e 85 69 3d 99 21 e8 bd 3b 98 c1 bd 11 30 0d 3c
       0.057011835 -0.11334533 -0.09452864 0.008617417
000290 1e 38 f9 bd 01 be 17 3e 01 f0 c4 bd 51 30 9f bd
       -0.12168907 0.14818574 -0.096160896 -0.077728875
0002a0 59 2d d6 bd 00 94 be 3d f8 9e 8c bb 49 3c 95 bd
       -0.10457868 0.093055725 -0.0042914115 -0.07286889
0002b0 6a a8 d6 bd 6f 20 96 bd 74 2f 27 3e f2 01 37 be
       -0.10481341 -0.07330405 0.16326696 -0.17871836
0002c0 f8 30 4c 3b 48 e3 b8 bd 79 8b b1 bd 41 b6 84 bd
       0.0031157117 -0.090277255 -0.086691804 -0.06480075
0002d0 6f 99 03 3d 3c 5d fc bd 80 ed a0 3d fb d9 ca 3d
       0.032128748 -0.123224705 0.078577995 0.09904858
0002e0 00 f6 f6 3c a5 7d 85 bd 01 28 5a bd 35 70 b5 3c
       0.030146599 -0.065181054 -0.053260807 0.022148231
0002f0 bd b9 2f 3e 28 66 ee bd 3a ad 15 bd 61 ba 36 bd
       0.17160697 -0.116405785 -0.036542155 -0.04461134
000300 21 ac 3e 3e 01 08 17 3e ad e8 91 3d f8 57 77 3c
       0.1862035 0.14749147 0.071244575 0.015096657
000310 6b cf 58 3e 89 91 34 be 87 a5 13 be f3 2f 2b bd
       0.21172874 -0.17633642 -0.14418612 -0.041793775
000320 43 59 4b bc 0b 55 6e bd d5 03 2a 3e 7f d6 1f 3e
       -0.012411418 -0.058186572 0.16603024 0.15609168
000330 00 a7 45 3e ac 0f ff 3c 0e ec 38 3d ec 7f a8 bd
       0.19301987 0.031135403 0.045146994 -0.08227524
000340 69 aa 01 3e cb 13 2d 3d 49 1a d4 bd ec 5a 29 3c
       0.12662663 0.042255204 -0.10356576 0.010336619
000350 26 38 0c 3e 27 1a a7 bc 65 f7 ed bd b7 ee 6a 3c
       0.13693294 -0.020398213 -0.116194524 0.014339141
000360 2f 13 f0 bd 47 50 d1 3d 40 e5 b8 bd df 81 68 3d
       -0.11722409 0.1022039 -0.09028101 0.05676448
000370 c3 e1 af bd 81 09 1c be da 3a b5 bc 31 08 19 bd
       -0.085879825 -0.15238 -0.02212279 -0.037361328
000380 09 cc ee 3b 20 1f c5 bc 08 99 ae 3d e0 47 fb bd
       0.0072875065 -0.024062693 0.08525282 -0.122695684
000390 b8 7f fa bb c8 48 30 3d d2 6e c8 3d 40 28 58 3d
       -0.00764462 0.04303816 0.09786762 0.05277276
0003a0 6d 66 ca bc 40 49 7a 3e ed 58 17 3d f8 71 6c 3d
       -0.024707044 0.24442005 0.03695004 0.057725877
0003b0 1d 66 87 bd 17 24 33 be 0f a3 32 3e b3 2f fe bd
       -0.066112734 -0.17494236 0.17445014 -0.12411442
0003c0 37 28 f2 3d 12 c1 ac bd 05 73 9f 3c 72 62 60 3d
       0.118240766 -0.08435263 0.019464025 0.054781385
0003d0 49 7f b6 bd 53 a7 95 3c 0a e4 5f 3d b0 f8 3c 3e
       -0.089109965 0.018268263 0.054660834 0.18454242
0003e0 5e 89 11 bd 0e 14 0c bd 19 f1 b6 bc 55 e0 e7 3d
       -0.035531394 -0.034198813 -0.022331761 0.11322085
0003f0 c8 a3 01 3e 6c 46 4e bd 76 be cd bd 06 67 6d 3d
       0.12660134 -0.05036013 -0.10046093 0.05795958

prop_h_to_h.0.bias f4 [64]
000000 83 8b 11 3d 8b 76 b6 3d c3 dc bd bd 8f 83 a4 bd
       0.03553344 0.08909329 -0.092706226 -0.08032905
000010 7b e4 d9 bd c0 57 9e bd ad 9e 67 bd 8f 46 bf bd
       -0.10639282 -0.07731581 -0.05654781 -0.0933963
000020 36 1c a7 bc 76 d1 f6 3c 8a f6 63 3d 66 73 fc bc
       -0.020399194 0.030129176 0.05565504 -0.030816745
000030 48 ab cb 3c 2b 12 a1 bd c3 67 02 bd 09 82 d2 3d
       0.024861947 -0.078647934 -0.031837236 0.102787085
000040 3d da 9d bd 15 fb 31 bc a7 92 3a bd 0d c1 39 3d
       -0.07707641 -0.010863085 -0.045550015 0.045350123
000050 80 80 63 3d 33 b3 e8 3d a1 f3 fa 3d a7 35 93 bb
       0.05554247 0.113623045 0.122535 -0.00449248
000060 30 97 b7 3c f5 14 cb bd be 67 ff 3d 87 d4 28 3d
       0.022410959 -0.099161066 0.12470959 0.041218307
000070 e9 85 11 bd 57 d8 c3 3d ed b4 d8 3d 77 6d d5 3d
       -0.035528097 0.09562748 0.10581384 0.104212694
000080 5b 4f 8b 3d c3 4a 35 bd 45 87 6a bd 19 ee f0 3c
       0.06802245 -0.04426075 -0.05725791 0.029410409
000090 d9 27 2a 3d 1d e4 a5 bd 1f fe a0 3d 01 8a 81 3d
       0.041541908 -0.0810015 0.0786097 0.0632515
0000a0 5a fe c9 3d b0 e3 08 3e 68 35 57 3d ab bf 7e 3d
       0.09862967 0.13368106 0.052541167 0.062194508
0000b0 a5 cb a6 bd 90 e6 36 3c 34 34 cf 3b f3 db db 3d
       -0.08144311 0.011163369 0.006323362 0.10735311
0000c0 28 35 e6 3d 3e 06 d1 3d 21 3b dd 3d b1 66 9b 3d
       0.112406075 0.10206269 0.108022936 0.07587946
0000d0 c7 a9 7c bd e2 36 ab 3c 9f 7e 07 3d 29 20 01 3d
       -0.06168535 0.020900194 0.03307974 0.03152481
0000e0 16 42 67 3d 86 1b 5c bd 99 00 5c 3c ba 42 7b 3d
       0.05645951 -0.053737186 0.013427877 0.061342932
0000f0 19 ed be 3d f3 08 dc 3d 7b 20 a4 3d c8 2c 59 bc
       0.093225665 0.107438944 0.08014008 -0.013255306

prop_h_to_h.1.weight f4 [64, 64]
000000 a2 9b 1d 3e 24 3b 33 3d ba 4e 91 bc 6b 25 2a 3e
       0.153914 0.043757573 -0.017737735 0.16615836
000010 02 88 74 3d 9f c4 7f bc fd d4 a2 3d fd 2d 16 3d
       0.05970002 -0.015610843 0.079507805 0.03666495
000020 38 68 e1 bc 9d ca ca bc b9 46 b1 bb 6b b1 88 bb
       -0.027515516 -0.024754817 -0.005410042 -0.0041715405
000030 c6 52 1e be 1e bb 0a 3d ac 48 01 3b 4b 64 32 bd
       -0.15461263 0.033869855 0.0019727154 -0.043552678
000040 00 b0 ef 3c d5 ef 21 bd a1 a9 91 3c 76 2e 71 3d
       0.029258728 -0.039535362 0.01778108 0.0588822
000050 2d ca 52 3d e8 c3 e7 3d 76 d5 e7 bd d2 86 7c bd
       0.05146234 0.11316663 -0.11320011 -0.061652012
000060 bd 65 4c 3d db ac f8 bc a7 d7 96 bd c1 f6 2c bc
       0.049901713 -0.030355861 -0.07365351 -0.010556878
000070 75 ad db 3d 6b 01 0d bc 1f d2 24 be fb 07 3b ba
       0.10726444 -0.008606295 -0.1609578 -0.0007134673
000080 e7 ee 8c bc 44 cc 02 bd 89 09 22 be b0 41 00 3c
       -0.017203761 -0.031933084 -0.1582395 0.007828161
000090 71 9b 48 bd 57 b4 47 3c 46 74 a7 3c a4 13 4c 3c
       -0.048976365 0.012188992 0.020441186 0.012455855
0000a0 e6 be f2 3d 1b 50 03 be ef 7f 15 bd 75 8a 92 3d
       0.11852817 -0.12823527 -0.03649896 0.07155315
0000b0 49 38 db bb f3 38 cf 3d 12 f9 3e 3d ab de bd bd
       -0.0066900593 0.10118284 0.04662425 -0.09270986
0000c0 1c d4 a4 3c 35 7f c9 bc f2 45 d3 bd f3 8a 4f 3d
       0.020120673 -0.02459679 -0.103160754 0.05066962
0000d0 d9 0e 52 3d 5b 15 9f ba ed 2d 81 bd 47 1b 10 3d
       0.05128369 -0.0012137102 -0.06307588 0.035182264
0000e0 f9 4a 66 be 32 ec d4 bd b6 db 02 3e 4d 2d 93 bd
       -0.22489537 -0.10396613 0.12779126 -0.07186375
0000f0 8b c5 1d 3d 7d 6f 7c 3d 79 ba 24 bc e4 c6 a0 bd
       0.03851847 0.06162976 -0.010054224 -0.078504354
000100 e4 8e fb bd 4d 5d e7 bd 30 50 ac bd ec 8d bf bd
       -0.122831136 -0.112970926 -0.08413732 -0.09353241
000110 1c ad da bd a0 cf dc 3c ec d6 a7 3d 56 5a 43 3d
       -0.10677549 0.026954472 0.0819529 0.047693573
000120 ad e8 dc bd c8 86 13 3e d4 e1 30 bc 1f f9 02 be
       -0.10786567 0.14406884 -0.010796029 -0.12790345
000130 67 01 99 3d 53 7a 62 3d 3a 9f 69 bd 76 cf 2c 3e
       0.074709706 0.05529244 -0.057036616 0.16876015
000140 23 e3 18 bc a6 0e 15 3e 71 98 a3 3d 79 a1 90 bc
       -0.009331497 0.14556369 0.0798806 -0.017655121
000150 61 2e e2 3d e2 1c f6 bd 3f 29 4e bd 5b 4a 22 3e
       0.11044002 -0.12017228 -0.050332304 0.15848677
000160 9a 8c de 3d e0 4e 86 bd a2 68 e4 3d 44 32 cc bd
       0.10866661 -0.06558013 0.111527696 -0.09970525
000170 f9 37 dd bd 82 d8 54 3d 63 cd 5f 3d 7a fd b6 3c
       -0.108016916 0.05196429 0.05463923 0.022337664
000180 7c 42 29 3e c1 6b ae 3d af 3a 87 bd 9d 9e 1d 3e
       0.16529268 0.08516646 -0.0660299 0.15392537
000190 8c 86 6a 3d 6e 17 89 bd 83 31 0c 3e b6 88 e2 3c
       0.05725722 -0.06693922 0.13690762 0.02765308
0001a0 7a 20 26 bc 9c 16 e3 3c 35 b9 a3 bd 5e ae 24 bd
       -0.010139579 0.027720742 -0.0799431 -0.040205352
0001b0 fa f6 3e 3d 63 cc 74 bd b4 b9 f1 bd 6e 87 85 bd
       0.046622254 -0.05976523 -0.11802998 -0.06519972
0001c0 43 b9 e4 bc d7 9d 39 3b 26 a2 a9 3c 41 df a4 3c
       -0.02792037 0.002832284 0.020707201 0.020125987
0001d0 95 62 c9 3c 37 e7 19 be f3 42 c0 3d 29 8a 9f bd
       0.02458314 -0.15029608 0.093877696 -0.07790024
0001e0 c6 68 4c bd 32 5b 15 3d 84 bc 42 3d 41 62 8a ba
       -0.049904607 0.036463924 0.047543064 -0.0010557846
0001f0 db 2d 99 3d 5b 0b c8 3d 8a f0 4b 3d d7 a5 fd 3c
       0.07479449 0.09767791 0.049789943 0.030962868
000200 69 d8 cf 3d bc 81 46 bc f8 dd d7 3d c5 24 12 3e
       0.10148699 -0.012115892 0.10540384 0.14271839
000210 ce 01 41 bd 71 38 b7 bc c3 2c 6d 3e 51 1f ec bd
       -0.04712086 -0.02236578 0.23161606 -0.11529411
000220 3d 14 22 bd c0 21 69 bd 39 6b 39 3d bb fc b3 bc
       -0.039570082 -0.056916952 0.04526827 -0.021971097
000230 7d 56 f9 bc 7a 7b 01 3e 1c b3 36 3e fb a2 0d 3d
       -0.030436749 0.12644759 0.17841762 0.03457926
000240 af ef b5 3c 11 99 51 bd 01 28 65 bd 4d 29 07 3e
       0.022209017 -0.051171366 -0.055946354 0.13199349
000250 ac 99 0f bd 41 4a 4c 3e 37 b7 3e bd 57 fa 60 be
       -0.035058662 0.199502 -0.046561446 -0.21970497
000260 70 41 c7 bc d6 f6 03 3e d9 dc e4 39 6e a0 92 bd
       -0.024323195 0.12887129 0.00043652093 -0.07159506
000270 0d 80 81 bd 33 e2 b2 bd 53 9c 18 be 05 02 50 be
       -0.06323252 -0.0873455 -0.14903383 -0.2031327
000280 2d 5d d4 bd 4a cc 7f 3d 86 86 48 bd 41 1c 2d 3d
       -0.10369334 0.062450685 -0.048956417 0.042263273
000290 3c e5 80 3d 5a c6 22 bc 22 aa cc bd 5e 76 d9 3d
       0.06293723 -0.009934986 -0.09993388 0.1061828
0002a0 72 e2 48 3e 9d b3 4a bc 9c d5 98 3d 4a 5e 2b be
       0.19617632 -0.012371925 0.07462618 -0.16735187
0002b0 6a 31 0d be 2f 75 31 3e 12 07 0a bd e0 7e 2f 3d
       -0.13788381 0.17329858 -0.03369815 0.042845607
0002c0 50 1e ab 3d fd 49 08 3d b5 03 f6 bd b3 09 ba bc
       0.08355391 0.033273686 -0.12012426 -0.022709703
0002d0 24 f3 1f 3e d9 cb 91 bc 2b b3 03 3d 9e b9 38 be
       0.15620095 -0.017797397 0.03215329 -0.18039557
0002e0 26 7a 19 be 17 e4 82 bd 37 67 1f 3e 0d 11 2e 3d
       -0.14988002 -0.06391161 0.15566717 0.04249673
0002f0 07 63 17 be 0a d0 12 be b8 75 51 bd 57 04 bf bd
       -0.1478387 -0.14337173 -0.051137656 -0.09327
000300 05 14 f9 bd 2d 3a 3d be 5c e0 0b bd 5e d0 d9 bd
       -0.121620215 -0.18479224 -0.034149513 -0.10635446
000310 5d 82 02 3c 10 63 26 3d 3f 5b 4c bc 5b 12 d8 3d
       0.007965651 0.040621817 -0.012472927 0.10550376
000320 27 54 bd 3c d5 49 fd 3d ac 57 01 3d 6f 01 b7 bd
       0.023111416 0.12367598 0.03157775 -0.0893582
000330 a9 f0 1f 3d 16 4b 04 3d 68 af b3 bd b1 4e f2 3d
       0.03904787 0.03229817 -0.087736905 0.118314154
000340 dd cb f8 3d 79 2f 60 3c b0 9e 16 3e 4e 2e aa bc
       0.12148259 0.013683193 0.14708972 -0.020774033
000350 da b1 21 3d 15 13 22 3d 35 bd ed 3c 2d 61 1e 3e
       0.039476253 0.03956898 0.029020885 0.15466757
000360 5c dd 20 3e eb 2f 41 bd de 1b 6a bc 3c 21 ad bd
       0.15709442 -0.04716484 -0.014288871 -0.084536046
000370 a9 81 ee 3c a7 98 85 3d 50 7e 82 3d 84 c2 c8 3d
       0.029114561 0.06523257 0.063717484 0.09802726
000380 cc c3 30 3e 2f 76 b5 bd 60 ae fe bc ba d8 82 bd
       0.1726219 -0.08860432 -0.031089008 -0.063889936
000390 ee a8 40 3d f4 60 31 bd 46 01 b8 3d 7f 46 69 3d
       0.047036104 -0.043305352 0.08984618 0.056951996
0003a0 85 9d e9 bd 73 ce 29 3e a9 0a 00 3e c0 0c 1e 3e
       -0.114069976 0.1658266 0.12504067 0.15434551
0003b0 d9 95 e5 3d eb 62 12 be 5f cf 61 bd 1f b2 2b bd
       0.11210222 -0.14295547 -0.055129405 -0.041917916
0003c0 f4 83 d8 3d 32 c1 1f be 37 6c b7 bd 7a c8 9c 3b
       0.10572043 -0.15601042 -0.08956187 0.004784641
0003d0 a0 68 b6 bd e7 62 29 be 5e 29 ec 3c 77 8a 20 3d
       -0.089066744 -0.16541635 0.02882832 0.03919455
0003e0 68 37 73 bc e1 33 b7 bc df 98 c1 3c 1c c9 0e 3e
       -0.014844753 -0.022363605 0.023632465 0.13943905
0003f0 ff 0b 1f 3e 69 92 f7 39 71 c1 0f 3e 49 68 e7 3d
       0.1553192 0.00047220595 0.14038636 0.11299188

prop_h_to_h.1.bias f4 [64]
000000 45 a5 01 bd 29 e8 98 bd 67 c6 bf 3b 93 d9 04 3e
       -0.031651754 -0.07466156 0.005852509 0.12973623
000010 43 e1 03 3e 4a 68 82 3d 91 3e 46 3d 4f fe b8 3d
       0.128789 0.06367548 0.04839951 0.090328805
000020 9d 16 bd 3d a3 58 c8 3d c5 fe 67 3d 47 a9 ea 3d
       0.09232829 0.09782531 0.05663945 0.11458068
000030 a8 55 b5 bb 49 66 cd bd 5e 5a 41 bd fb bf 1c 3c
       -0.0055338927 -0.10029275 -0.04720532 0.009567256
000040 51 a4 0a bd 09 44 c5 bd 2f 7e ca 3d 38 86 cb 3d
       -0.03384811 -0.09632117 0.09887349 0.099377096
000050 e9 27 df bc 83 ce b3 3d 4d bb 8f bc 4b 0f 69 bd
       -0.02724071 0.08779623 -0.017545367 -0.05689935
000060 da 42 42 bd 5e 72 c4 3d 33 e8 d1 bd d0 c6 1f 3d
       -0.047427036 0.09592126 -0.102493666 0.03900796
000070 d7 72 9a bd 0a 20 ce bd 54 c6 d9 bc cd 5c 47 bd
       -0.07541435 -0.10064705 -0.026583828 -0.048672486
000080 0f 56 bb bd 7b 5c 2b bd e5 b8 c5 3d b9 e4 95 3d
       -0.09147274 -0.041836243 0.096544065 0.07319016
000090 91 a6 5b 3d d1 29 17 bd be 0e 09 3e f8 3b b1 3c
       0.053625647 -0.036905114 0.1338453 0.02163504
0000a0 5d 8c a0 3d 57 e4 86 3d 6d 74 7e bd c9 00 1f 3d
       0.07839272 0.06586521 -0.06212275 0.03881911
0000b0 9c 63 cd 3d 22 0f 95 3b a2 fd ac bd 91 0c 77 3c
       0.100287646 0.004548923 -0.08446814 0.01507868
0000c0 07 ec d7 3d 9a 2e 9d 3d 73 06 fa 3d 8b 5a a3 3c
       0.105430655 0.07674904 0.12208261 0.019940635
0000d0 fa 6c bf bb c1 ea 04 3e 06 99 7e 3d 75 29 a2 bd
       -0.0058418484 0.12980177 0.062157653 -0.079180636
0000e0 f1 61 cc bc 7a 41 7f bd a0 9f bd bd d8 9d 1c 3d
       -0.024949046 -0.062318303 -0.09258962 0.03823647
0000f0 ea da 4a bd dc c8 3f bc 31 d0 ea 3d d0 d4 cc bc
       -0.04952518 -0.011705603 0.114654906 -0.02500382
