pair_trading/pi.pth (torch, 21778 bytes, 21 tensors)

prop_in_to_h.weight f4 [20, 4]
000000 54 5e f9 3e 10 85 9f 3e 70 7a bf 3e 40 cd 86 3e
       0.4870478 0.31156206 0.373981 0.26328468
000010 88 00 e8 bd e0 67 0a 3d 7c 66 6d be 28 db 34 be
       -0.11328226 0.03379047 -0.23183626 -0.17661726
000020 d6 9d c2 be 60 aa bb 3e 7c 62 57 be bc d9 2d be
       -0.38011044 0.36653423 -0.21033663 -0.1697759
000030 d4 d1 b3 3e 64 80 c3 be ac 01 0a be 4c e1 02 be
       0.35121024 -0.38183892 -0.134772 -0.12781256
000040 da 1a ae be 54 f3 aa 3e 08 82 d2 bd 04 01 4f be
       -0.3400486 0.3338877 -0.10278708 -0.20215231
000050 f2 68 b3 3e 0a 32 cc be 12 2a d8 3e b2 7d 8d be
       0.35041004 -0.39881927 0.42219597 -0.2763496
000060 94 b9 b4 be 1a 66 81 3e b8 42 c2 be 10 ae 28 3e
       -0.35297835 0.2527321 -0.37941527 0.1647265
000070 48 32 cc 3d aa 68 c2 3e 30 e2 27 be 1c 11 be 3e
       0.09970528 0.37970477 -0.16394877 0.37122428
000080 d0 a8 8a 3d 64 f8 ae 3e 00 6a b4 bb 4a 5d e6 3e
       0.0677048 0.34173882 -0.0055058002 0.4499305
000090 b2 b7 dc be 08 05 cf bd 64 97 5d 3e ac e1 50 be
       -0.43108898 -0.101083815 0.21639782 -0.20398587
0000a0 56 fa 87 3e 84 85 1d be e6 db c3 3e 98 bb 03 be
       0.2655818 -0.15382963 0.38253707 -0.1286453
0000b0 30 10 cd 3d b4 db fa be 00 f5 57 be 00 e2 ae bc
       0.10012853 -0.48995745 -0.21089554 -0.021348
0000c0 1a bb f9 be dc eb 34 be c0 7e 77 3d 5e 75 ff be
       -0.4877556 -0.17668098 0.060423613 -0.49894232
0000d0 70 db 89 be 40 9c 23 bd 28 4c 8d bd 50 c1 2d 3e
       -0.2692523 -0.039943933 -0.06899291 0.16968274
0000e0 94 aa 87 3e 62 5b c6 be 74 fa e6 be 40 8a f1 3e
       0.26497328 -0.38741595 -0.45112956 0.4717579
0000f0 7c b9 01 3e ac bd 1f be 00 35 b8 3d 00 ea d8 bd
       0.12668413 -0.15599698 0.08994484 -0.10591507
000100 80 3b f1 3d e6 64 c5 be 40 01 55 3e 36 a6 bf be
       0.11778927 -0.38553542 0.20801258 -0.37431496
000110 80 7f fb 3e 08 d9 2d 3e 80 04 8b bd c0 30 5d be
       0.49120712 0.16977322 -0.06787968 -0.21600628
000120 82 3d 80 3e de f8 b9 3e 7e e4 cf 3e ea f1 ac 3e
       0.25046927 0.36322683 0.40604013 0.33778316
000130 e6 de f5 be b4 b2 98 be 0a 06 de be f4 ae 0a be
       -0.4802162 -0.2982384 -0.43363982 -0.13543302

prop_in_to_h.bias f4 [20]
000000 3c 09 5a be a0 3d aa 3c 42 07 b7 be 04 8a ae be
       -0.21292585 0.020781338 -0.35747725 -0.34089673
000010 ac 68 8f be 84 95 57 be 70 6d d2 3e 7c 41 58 3e
       -0.28009546 -0.2105313 0.4109912 0.2111873
000020 3a 76 b7 be 20 52 6f 3d c8 f4 62 3e 38 52 69 be
       -0.35832387 0.05842793 0.22163689 -0.2278527
000030 44 05 e6 be 48 f4 dc 3d 5e 91 b7 be f8 34 d1 bd
       -0.44925892 0.107887805 -0.35853094 -0.10215181
000040 d2 36 c2 3e e2 92 f6 be f2 c3 e3 3e b0 dc c3 3d
       0.3793245 -0.48158938 0.44485432 0.09563577

prop_h_to_h.0.weight f4 [20, 20]
000000 80 63 97 ba 38 83 86 bc a9 60 28 be ba ca 2b be
       -0.0011550039 -0.016419992 -0.16443123 -0.16776553
000010 de 49 08 be 76 47 1b be f0 1a 30 3c a0 e1 78 3d
       -0.13309428 -0.15163979 0.01074861 0.060762048
000020 98 ff 8c 3d 20 9e 48 bd 28 b6 e6 bd 38 b7 54 3e
       0.06884688 -0.048978925 -0.11265212 0.20773017
000030 56 2f 59 3e 20 6f f1 3d 40 f7 2b 3c 3c aa 03 bd
       0.21209463 0.117887735 0.010495961 -0.03214477
000040 54 36 d6 3d 60 a4 b7 bb 3c c6 7a bd 1c 68 0f 3e
       0.10459581 -0.005604312 -0.061224207 0.14004558
000050 bd 23 ee bd c5 40 ca bd c0 3c e0 bb ce 7c 55 3e
       -0.1162791 -0.09875635 -0.0068431795 0.2084839
000060 d0 fd a0 3c 60 48 17 3e 00 50 df 39 18 57 2e 3e
       0.019652277 0.14773703 0.0004259348 0.17025411
000070 8c a0 5f be b0 5a ec 3d db d8 37 be 8c 7f 3e 3e
       -0.21838588 0.11540735 -0.17953818 0.18603343
000080 58 ba 5e 3d 60 04 4f 3c c4 09 5b be 52 9d 2c be
       0.05437693 0.01263532 -0.21390444 -0.16856888
000090 84 9e 8e bd 42 d5 41 3e 8a 78 0a 3e 30 1c 64 3d
       -0.06963828 0.18929008 0.13522545 0.055690944
0000a0 52 47 50 be 43 f4 20 be 60 80 e6 bc 1e e3 54 be
       -0.20339707 -0.15718178 -0.028137386 -0.20789763
0000b0 96 26 dd bd 99 ce 3f be f7 01 19 be 55 83 14 be
       -0.10798375 -0.18731155 -0.14942156 -0.14503224
0000c0 a4 69 aa 3d f0 fa 14 bd 7c b5 58 3e 80 ac c7 3a
       0.083209306 -0.036372125 0.21162981 0.0015233904
0000d0 68 c0 9c bc d0 b4 2a 3c 10 1b 8f 3d 12 66 01 3e
       -0.019134715 0.010419086 0.06987584 0.12636593
0000e0 76 4c 29 3e b8 3a 01 be ca ea 5a be 37 65 49 be
       0.16533074 -0.12620056 -0.21378627 -0.19667517
0000f0 50 12 5b 3d 00 00 98 bc 40 81 47 bc 24 4c c2 3d
       0.05348426 -0.018554688 -0.012176812 0.09487179
000100 01 ac 5f be 7c ba e4 3d c8 e0 43 3e 18 c3 29 be
       -0.21842958 0.111683816 0.19128716 -0.16578329
000110 00 56 a2 b9 6e c5 09 be 68 49 4e bd 30 7b ca 3c
       -0.00030963123 -0.1345422 -0.050362974 0.024716944
000120 a0 f1 c5 3d d7 c5 04 be ac 75 f1 3d 97 eb 56 be
       0.09665227 -0.12966095 0.11790022 -0.20988308
000130 f0 73 54 3e 80 a4 3a 3c 4e 74 89 bd cc c5 d9 3d
       0.20747352 0.011391759 -0.067116365 0.1063343
000140 98 88 0a bd 80 4d 4c 3c c0 5d cb bc a4 0e ef 3d
       -0.033821672 0.012469649 -0.024824977 0.11672714
000150 f4 dc e1 3d e8 92 4a 3e 40 80 85 3b 00 f0 ce 3a
       0.110284716 0.19782603 0.0040741265 0.0015788078
000160 50 72 54 3d c0 37 84 3b 00 2e ba 39 34 2b 5e 3e
       0.05186683 0.004034966 0.00035510957 0.21696168
000170 ba 28 a9 bd 6a 86 0b 3e 00 7e b5 3a fc 4e 93 3d
       -0.08259721 0.13625494 0.0013846755 0.071927994
000180 0d 02 31 be 7a eb b2 bd 8d df ec bd c0 e1 3c 3b
       -0.17285939 -0.0873632 -0.115660764 0.002882108
000190 cc a0 3d 3e 70 6d 7b 3c ca f9 42 be c2 57 3f 3e
       0.1851837 0.015345916 -0.190406 0.1868582
0001a0 10 c5 9e 3d 6a f2 3e 3e e8 d8 30 be 50 29 4d bc
       0.077524304 0.18647161 -0.17270243 -0.012522057
0001b0 04 69 ec 3d 30 6d 1b 3d c8 07 13 bd 84 38 9b 3d
       0.11543468 0.037945926 -0.035896093 0.07579139
0001c0 0e 39 0a 3e ca 6d 05 be 78 45 b2 3d b8 19 a4 bd
       0.13498327 -0.13030162 0.08704656 -0.08012718
0001d0 68 05 8a 3c d6 f8 8d bd 5c 5a 97 3d 15 40 4a be
       0.016848281 -0.06932227 0.073902816 -0.19751008
0001e0 75 28 51 be 0a 4b 53 3e ee 67 4f be 78 e3 01 3d
       -0.2042559 0.20634094 -0.2025449 0.03171107
0001f0 0c 97 5a 3e 1b 2a 00 be a8 d1 c5 bd 4c 05 94 3d
       0.21346682 -0.12516062 -0.096591294 0.07227573
000200 31 b0 2a be 2e 7d 27 3e f0 2e df 3d e0 85 71 3d
       -0.16668774 0.16356346 0.108976245 0.058965564
000210 e0 d8 73 3d 5c 5f c1 bd 78 46 5b 3d cc ed 1d be
       0.059533 -0.094420165 0.053534 -0.15422744
000220 4c 3c e1 3d f0 08 e4 3d fb 9d f6 bd 9a 94 41 3e
       0.10997829 0.11134517 -0.12041851 0.18904343
000230 50 e1 9b 3d 0c 7d 50 be b6 ca 55 be 36 70 29 3e
       0.07611334 -0.20360202 -0.2087811 0.16546711
000240 ba 61 5b 3e 30 ff df 3c 78 a3 49 3e 60 1e 76 3c
       0.21423998 0.027343363 0.19691265 0.01502189
000250 86 3b 0b 3e 80 15 f6 3c 54 bb 2a bd 28 41 8a 3c
       0.13596925 0.030039549 -0.041682556 0.016876772
000260 e4 01 08 be 87 bd e1 bd 30 8b d0 3c a4 77 13 be
       -0.13281971 -0.110224776 0.025456995 -0.14401108
000270 d4 27 0d be a8 19 92 3d c6 18 32 3e 1c 94 0a bd
       -0.13784724 0.071338 0.17392263 -0.033832654
000280 14 87 fe 3d 44 05 ed 3d c2 d6 11 3e 24 b6 af bd
       0.12428108 0.1157327 0.1424208 -0.085796624
000290 00 cf 85 3d 20 b5 cd bc 50 2a 45 bd 08 82 51 be
       0.06533623 -0.025110781 -0.048136055 -0.20459759
0002a0 0c f4 1e 3e 95 9c 5e be 38 b7 4a bd 26 93 10 3e
       0.15522784 -0.21739419 -0.049491137 0.14118633
0002b0 80 70 e7 3c 74 8c 50 3e 60 57 c9 bc 68 2e 87 bd
       0.028251886 0.20366079 -0.024577796 -0.06600648
0002c0 e3 f8 36 be 3c 16 14 be d4 02 2e bd 00 a6 bd b9
       -0.1786838 -0.14461607 -0.042483166 -0.0003617257
0002d0 28 7e 9a 3d 00 d9 55 3d 4c a3 8d bd 82 74 0d 3e
       0.07543594 0.0522089 -0.06915912 0.13813975
0002e0 ca e2 5b be 7f af 4f be fe 0e 55 3e 80 8c 11 bd
       -0.21473232 -0.2028179 0.208065 -0.035534382
0002f0 06 01 16 3e 90 db 3e 3e c6 cb 81 bd 02 7a 2a 3e
       0.14648828 0.18638444 -0.06337695 0.16648105
000300 84 1e 5f 3e 90 e4 83 3c ca ee 0e 3e 7c e9 47 3e
       0.21788985 0.016100198 0.13958278 0.19522661
000310 10 61 97 bc 98 bf 4c 3d 98 c5 08 be 6a 81 b8 bd
       -0.0184789 0.049987406 -0.13356626 -0.09009059
000320 31 30 0c be 4c 8e 39 3e 40 1a 75 3b 9c ad ff 3d
       -0.13690259 0.18120688 0.003739968 0.12484285
000330 d0 e6 53 be 50 9e 15 3d 28 35 2d be 6b 25 4a be
       -0.20693517 0.03652793 -0.16914809 -0.19740836
000340 ca 64 09 3e e0 12 34 3c 7e 21 18 be c0 b7 d0 bb
       0.13417354 0.010990828 -0.14856526 -0.006369561
000350 4b cc 4a be e8 57 99 bc 42 15 4c be e8 fe dd 3d
       -0.19804494 -0.018718675 -0.19929984 0.10839635
000360 c8 31 d1 3c 95 a1 e5 bd e0 fb cb bd 88 93 46 3d
       0.025536433 -0.1121246 -0.09960151 0.04848054
000370 4c 30 48 3e 20 44 da 3d a0 91 72 bd ca ec 5c 3e
       0.19549674 0.10657525 -0.05922091 0.21574703
000380 60 6c 95 bb 66 e6 89 bd f0 b3 b4 bc a5 fe 61 be
       -0.0045600384 -0.06733398 -0.022058457 -0.22069795
000390 e2 3f 49 3e 68 b5 e9 bd 90 96 e5 3c 10 27 9b bc
       0.19653276 -0.114115536 0.028025895 -0.018939525
0003a0 88 7e 37 bd 24 6d 32 3e 44 e9 98 3d c9 cd 08 be
       -0.044798404 0.17424446 0.07466367 -0.13359751
0003b0 70 9a b2 bc d2 7c 5e 3e cc 46 bc bd 80 d6 49 bb
       -0.021802157 0.21727303 -0.09193191 -0.0030798018
0003c0 88 cd b5 3c f6 77 0a 3e 68 a8 5e 3d 36 c7 96 bd
       0.022192731 0.13522324 0.054359823 -0.07362215
0003d0 96 24 27 3e 00 d8 01 3a d8 a9 53 3e 44 0b 0b bd
       0.1632255 0.0004953146 0.20670259 -0.03394629
0003e0 24 7d bb 3d 98 b7 fb bd 82 e5 11 3e 7c fa 33 3e
       0.09154728 -0.12290877 0.14247707 0.17576021
0003f0 0c 57 83 3d 40 13 04 bb 20 14 59 bd c8 d9 d7 bd
       0.06413087 -0.0020153075 -0.05299771 -0.10539585

prop_h_to_h.0.bias f4 [20]
000000 74 b8 13 be 70 14 68 bd 2e d3 55 3e 4d be 59 be
       -0.14425832 -0.056660116 0.2088134 -0.21264
000010 00 b6 f6 ba c4 c7 61 be 2a b8 30 be f0 1c 2d 3c
       -0.0018822551 -0.22048861 -0.17257753 0.010565981
000020 ab 12 0f be dc 60 5f 3e fa 55 4c 3e e8 c9 3a be
       -0.13971965 0.21814293 0.19954672 -0.18241084
000030 68 c2 e1 3d 76 dd 48 3e 4a 3d 06 3e 6d 59 1b be
       0.11023408 0.1961573 0.13109317 -0.15170832
000040 3c 49 1b bd 80 6f 5e 3c 30 9a 51 3d 12 f9 a0 bd
       -0.03791164 0.013576388 0.051172435 -0.078600064

prop_h_to_h.1.weight f4 [20, 20]
000000 a0 b0 3d be c0 14 0c 3e d8 3d 8d bc 91 7a d8 bd
       -0.18524408 0.1367979 -0.017241403 -0.10570253
000010 80 d3 c7 3d f6 64 1a be fc 80 e8 3d 5c 02 9b 3d
       0.09757137 -0.15077576 0.11352727 0.075688094
000020 50 3a 6b 3c 40 4f 63 3d 93 23 d2 bd aa ed 47 3e
       0.0143571645 0.0554955 -0.102606915 0.19524255
000030 1e 6a a0 bd a8 d3 45 3e 26 b5 82 bd ae e8 9b bd
       -0.0783274 0.19319022 -0.063822076 -0.076127395
000040 e2 c9 30 be f4 ee b9 3d cc 86 3a 3e b4 56 2b be
       -0.17264512 0.0907878 0.18215483 -0.16732293
000050 94 b0 41 3e 68 96 47 3d d8 8c a8 3c 38 f1 43 3e
       0.18915015 0.048727423 0.020574972 0.19134986
000060 de ec 19 be 00 8e 8b b9 78 44 5c be 4e 0f 43 be
       -0.15031764 -0.00026617944 -0.21510494 -0.19048807
000070 60 ed a8 3c 10 3e c6 bc d4 41 45 bd 4f 15 f9 bd
       0.020621002 -0.024199516 -0.04815848 -0.121622674
000080 70 1b b3 3d 80 ed 0e 3d 90 f6 c3 bd 18 d5 46 3e
       0.08745468 0.034894466 -0.095685124 0.19417226
000090 c0 c9 6f 3d f0 68 41 bc 9e 8c 05 be e6 83 41 3e
       0.058542013 -0.011804804 -0.13041922 0.18897972
0000a0 90 34 ee 3c 54 45 29 3e 74 bd b4 3d 0c 09 6e bd
       0.029077798 0.16530353 0.08825198 -0.058114097
0000b0 b8 08 2b 3e 32 08 57 3e a0 c9 60 3c 9a 51 20 be
       0.16702545 0.2099922 0.013719946 -0.15656129
0000c0 4f 68 60 be 50 04 ae bd 30 6b db 3c b8 fd 02 3d
       -0.2191479 -0.08496916 0.02678451 0.031980246
0000d0 2c 9c e2 3d 52 1f 2d be e4 2e 4c bd 29 4f 4d be
       0.11064944 -0.16906479 -0.049849406 -0.20049728
0000e0 3c e2 15 be 0b be 14 be 2c 3d 35 3e 4c cb 12 3e
       -0.14637083 -0.1452562 0.17699116 0.14335364
0000f0 b4 5f 91 3d 66 68 58 3e da 9d 60 be b0 b2 2e be
       0.07098332 0.21133575 -0.21935216 -0.17060351
000100 f0 29 93 bc 00 ec 43 3d 74 2e fa 3d 28 2f 86 3d
       -0.017964333 0.04783249 0.122158915 0.06551963
000110 44 22 20 3e 60 37 45 3c 62 6f 81 bd 94 3f 19 3e
       0.15638071 0.012037128 -0.06320073 0.1496566
000120 08 47 8e 3d a8 21 82 3c c4 04 06 bd 26 30 46 3e
       0.06947142 0.01588519 -0.03271939 0.19354305
000130 94 87 37 3e 9c 02 8d 3d 20 8d 47 3e 22 4b 3e 3e
       0.17922813 0.06885263 0.19487429 0.18583348
000140 2a 77 b7 bd c6 be 52 be ec 0c cb bd 9c 54 5b bd
       -0.089582756 -0.20580587 -0.09914574 -0.053547487
000150 8c 46 b7 3d 30 c7 8c 3d 44 a9 55 3e 94 20 a0 bd
       0.089490026 0.068739295 0.20865351 -0.07818714
000160 9c 71 3f 3e 90 98 33 3c 70 fd 12 3e af f2 dd bd
       0.18695682 0.010961667 0.14354491 -0.10837304
000170 4e 11 94 bd d0 e1 2f be 1c 8b f0 3d ac ea 09 be
       -0.07229863 -0.17175984 0.11745283 -0.13468426
000180 48 88 e9 bd 30 20 6f 3c de ad 00 be 88 68 25 bd
       -0.11402947 0.014595076 -0.12566325 -0.040382892
000190 c0 a8 64 3d f4 1d b0 3d 2c 5d 2d bd 49 a8 ff bd
       0.055824995 0.08599463 -0.042325184 -0.1248327
0001a0 14 49 7b bd 78 a6 da 3d a8 1a b3 bd c1 d8 f1 bd
       -0.06134899 0.10676283 -0.08745319 -0.11808921
0001b0 16 07 3c be 54 ec 3d bd 24 cf 2a 3e 00 61 4d 3e
       -0.18362078 -0.04636796 0.1668058 0.20056534
0001c0 b8 b4 3a 3e c4 5c 27 bd 84 be 28 bd e6 bf 03 be
       0.18233001 -0.040859953 -0.041197315 -0.12866172
0001d0 ac 97 cd 3d e4 12 b6 bd 14 79 c0 3d 32 1b b0 bd
       0.10038695 -0.08890322 0.09398094 -0.08598937
0001e0 f6 6a 61 3e 40 ed 07 bc 20 a2 1f bc 80 62 a8 3b
       0.22013459 -0.008296311 -0.009743243 0.0051386952
0001f0 74 c6 9c bd b0 85 3a 3c 2c fa e3 bd e5 71 db bd
       -0.076550394 0.011384413 -0.11131701 -0.10715083
000200 50 be dc bc b0 1f c5 3c c2 70 ee bd 80 5b 61 3e
       -0.026946217 0.024062961 -0.116426006 0.2200756
000210 1a 7b f8 bd 38 b3 1d 3e 7c eb fb 3d a8 70 76 3d
       -0.12132855 0.15400398 0.123007745 0.06016603
000220 ec 27 a6 bd b8 24 ec bc d6 06 35 3e 88 45 25 3e
       -0.08113083 -0.028826103 0.17678389 0.16139805
000230 c6 02 36 3e 28 ed 86 3c 64 54 82 3d 9c 5d 58 3e
       0.17774495 0.016470507 0.063637525 0.21129459
000240 1c 5c 21 3e 00 ee 1a 3a 78 4c 64 bd 28 1f 88 3d
       0.15757793 0.00059100986 -0.05573699 0.066465676
000250 40 a0 47 3d cc e3 05 be 80 a8 a7 bd d0 70 11 3d
       0.04873681 -0.13075179 -0.08186436 0.035507977
000260 36 b4 45 3e bc 90 30 3e 06 f6 37 3e 6c a4 39 3e
       0.19307026 0.17242712 0.17964944 0.18129128
000270 b4 93 15 3e 38 83 e9 3d da 61 d3 bd e8 dc bf 3c
       0.14607126 0.11401981 -0.10321398 0.023420766
000280 dc 36 40 bd c7 65 12 be 37 7c 16 be 98 cd 21 3e
       -0.046927318 -0.14296637 -0.14695822 0.15801084
000290 9e c2 85 bd 16 29 2c 3e 90 7c 10 be 6a 8e 28 3e
       -0.06531261 0.16812548 -0.14110017 0.16460577
0002a0 70 b9 b5 3c 4c 17 24 bd a0 8d 43 3c 5c a9 90 3d
       0.02218315 -0.04006128 0.0119356215 0.07063553
0002b0 0c a3 34 3e 7c 19 17 3e 46 9b 46 be e8 f4 12 be
       0.17640322 0.14755815 -0.1939517 -0.14351237
0002c0 3e 76 fa bd e6 53 53 3e 66 82 2b be 34 01 26 be
       -0.12229584 0.20637473 -0.16748962 -0.16211396
0002d0 60 16 64 3e 34 1a b4 3d aa 2a 54 3e 28 b4 3a 3d
       0.2227416 0.0879406 0.207194 0.045581967
0002e0 e8 e8 90 3d 3c b0 19 bd fc d9 4d 3e 0c e2 ad 3d
       0.07075673 -0.037521586 0.20102686 0.08490381
0002f0 d8 fa 2d 3e 09 78 0a be 82 4b 45 be f8 9c 52 3e
       0.1699022 -0.13522352 -0.19267085 0.20567691
000300 73 df 50 be 06 60 b5 bd fc 53 06 bd 68 58 c0 3c
       -0.20397739 -0.08856206 -0.032794937 0.023479655
000310 90 70 07 be 6a 08 18 3e 40 83 bd bd 46 59 b6 bd
       -0.13226533 0.1484696 -0.092535496 -0.08903746
000320 38 37 73 3d 38 9d 0d be 4a 82 12 be 3f fb 2d be
       0.059378833 -0.13829505 -0.14307514 -0.16990374
000330 31 1f 5d be 0c 53 dc 3d 2a 3e 9a bd 20 8e 41 be
       -0.2159393 0.107580274 -0.07531388 -0.18901873
000340 c0 91 46 bc 40 6d 5c 3e c8 44 ef bc 90 c3 23 3e
       -0.01211971 0.2152605 -0.029207602 0.1599257
000350 25 44 15 be ec 8d 33 3e b8 97 d2 bc 88 46 2e 3d
       -0.14576776 0.17534608 -0.02570711 0.042547733
000360 d4 5f 1e bd fc 59 b9 3d 26 28 3b 3e a6 f0 e1 bd
       -0.038665608 0.09050366 0.18277034 -0.11032228
000370 8a b9 46 3e 18 1d c4 bd b0 c8 21 be 70 0d 1a bc
       0.19406715 -0.09575862 -0.15799212 -0.009402618
000380 80 50 ca 3d 40 40 f2 3c 08 15 89 3c ec ea 08 bd
       0.098786354 0.029571652 0.016733661 -0.033427164
000390 f0 20 18 bc f4 a2 1a 3e 5c 34 ed 3d 4c 56 08 3e
       -0.009285197 0.15101224 0.115822524 0.1331417
0003a0 16 d6 06 be e6 43 c4 bd f0 86 13 3e 74 34 39 3e
       -0.13167605 -0.09583263 0.14406943 0.18086416
0003b0 4e 97 2d be 10 e0 31 bc 58 53 b4 bc 80 e8 a3 3d
       -0.1695225 -0.010856643 -0.022012398 0.0800333
0003c0 dc 03 0d 3e b0 95 08 3d 50 59 5a 3c a2 c1 0c 3e
       0.13771003 0.033345878 0.013326958 0.1374574
0003d0 00 09 1e ba a4 f1 44 3e 42 ee 48 3e 19 56 07 be
       -0.0006028563 0.19232804 0.19622138 -0.13216437
0003e0 60 3e 0e 3c 44 51 18 be 7a bc 18 be 07 5a 42 be
       0.008681864 -0.1487475 -0.14915648 -0.18979655
0003f0 f0 21 c6 3d 14 20 5d bd 91 b4 0f be 35 3d f9 bd
       0.09674442 -0.05398567 -0.14033724 -0.121698774

prop_h_to_h.1.bias f4 [20]
000000 c6 90 01 3e 82 fa af bd 50 8c 69 bd 30 81 54 be
       0.12652883 -0.085927024 -0.057018578 -0.20752406
000010 6c fa e8 3d 7a 58 b5 bd 78 e8 71 3d 84 7b 24 be
       0.11375889 -0.08854766 0.05905959 -0.16062742
000020 20 90 01 bc dc e9 2f 3e 24 b2 d4 3d 46 94 11 be
       -0.007907897 0.17179054 0.1038554 -0.14216718
000030 1b 38 16 be 72 ab 10 3e 74 e8 33 be cc 41 ba 3d
       -0.1466984 0.14127901 -0.17569143 0.09094581
000040 b3 fb fe bd 23 78 10 be 36 0f 48 3e 24 d1 04 bd
       -0.124503516 -0.14108329 0.19537053 -0.032426015

prop_h_to_h.2.weight f4 [20, 20]
000000 30 bb 4b bc 67 d7 61 be 14 54 75 bd 04 54 21 3e
       -0.012434766 -0.22054826 -0.059894636 0.15754706
000010 2a 77 10 be 0c c6 34 be 08 62 ec bc 21 9b ed bd
       -0.14107957 -0.17653674 -0.028855339 -0.11601854
000020 fe ae 0e be 80 84 86 3d 28 e2 60 3d c8 17 9e 3d
       -0.13933942 0.06568241 0.05490318 0.0771938
000030 a8 9e 10 3e 8e 1d db bd 20 fb 29 be 5c cb 4a 3e
       0.14123023 -0.106989965 -0.16599703 0.19804138
000040 28 41 ac 3d c4 33 31 be 88 df 17 3d 50 6d 4c 3d
       0.08410865 -0.17304903 0.03707841 0.049908936
000050 58 c2 2d bd 08 18 53 3e f4 10 23 bd 54 8e 61 3e
       -0.04242167 0.20614636 -0.03981109 0.2202695
000060 48 fe 06 3e 1c 20 61 bd 3a d8 b6 bd c8 ae 1c bd
       0.13182938 -0.054962263 -0.08927961 -0.038252622
000070 b0 0a 45 3e ac 07 0a be 07 af 18 be cc 39 6f bd
       0.19242358 -0.13479489 -0.14910518 -0.05840473
000080 f0 6d 2b be bf 74 40 be 00 84 1c 3e 48 12 b9 3d
       -0.16741157 -0.18794535 0.15284729 0.0903669
000090 00 d4 46 be e0 cb 67 3d c0 00 8f 3d e6 69 50 3e
       -0.19416809 0.056590915 0.06982565 0.20352897
0000a0 79 90 12 be 60 51 02 be d6 6c 8f bd d8 d1 7f bd
       -0.14312924 -0.12726355 -0.07003181 -0.062455982
0000b0 bf f0 2b be 78 ef 2f 3d 80 57 65 3b 30 48 a7 3d
       -0.16791056 0.042952985 0.003499478 0.081680655
0000c0 f6 d8 24 be e4 cc 4c 3e bc 9d 4a be aa e7 36 3e
       -0.16098389 0.20000035 -0.19786733 0.1786181
0000d0 c8 10 64 3e 34 df 57 3e b2 97 12 be 40 c0 bd 3d
       0.22272027 0.21081239 -0.1431568 0.092651844
0000e0 10 b4 73 3d 60 07 4b 3e 2a e3 48 be 38 4e c2 bc
       0.059497893 0.19827032 -0.19617906 -0.023718938
0000f0 70 ed cb bc 94 bf a7 3d d4 36 0d 3e 2a cc 09 be
       -0.024893492 0.081908375 0.13790447 -0.13456789
000100 4c b8 91 3d c4 b2 f8 3d 2e 74 0d be e0 a4 4a 3e
       0.0711523 0.12143472 -0.1381385 0.19789457
000110 08 c1 c1 bd 38 85 59 3d 6e 37 3d 3e f7 86 0c be
       -0.09460646 0.053105563 0.18478176 -0.1372336
000120 3e b4 9b bd e0 69 61 bd 87 2c f6 bd 3c 7b 42 3e
       -0.07602738 -0.05503261 -0.12020212 0.18992323
000130 c0 56 72 3d 2a d0 fd bd 80 6a 6e 3d ec 37 ca 3d
       0.059164762 -0.1239322 0.058207035 0.098739475
000140 b9 ca 53 be 32 71 2e 3e 78 18 c5 bd 97 64 1a be
       -0.20682801 0.17035368 -0.09623808 -0.15077434
000150 08 d3 8b 3c 30 4b 2b 3e 40 86 47 3d 1c ee 29 bd
       0.017068401 0.167279 0.048712015 -0.041486844
000160 08 c5 9b bd 54 55 32 3e a5 00 de bd 30 42 47 3e
       -0.0760594 0.17415363 -0.10839967 0.19458842
000170 82 02 ab bd 54 67 f3 3d 10 44 40 3d 96 a1 ed bd
       -0.08350088 0.11884943 0.04693991 -0.11603086
000180 18 7e 2a 3e 48 4d c3 3d fc 43 05 be 21 ce f7 bd
       0.16649663 0.095362246 -0.13014215 -0.12099863
000190 b8 9a 19 3d d0 78 5b bc bc f8 37 bd f8 04 a8 3d
       0.037501067 -0.013395503 -0.044914946 0.08204073
0001a0 f0 04 2f bd 40 bd 69 3d a2 f9 c1 bd a8 03 8f bd
       -0.04272932 0.05706525 -0.09471442 -0.06983119
0001b0 20 c5 50 bd 30 ab b9 3d 38 9e 4a 3e 08 ba 3f 3e
       -0.050969243 0.090658545 0.19786918 0.18723309
0001c0 48 c7 3a 3d 04 e2 b5 3d 2f 4b 5c be 2c 2b 4c bd
       0.045600206 0.08881 -0.21513055 -0.04984586
0001d0 34 c9 19 3e 70 37 7e 3d fc 81 b0 3d 14 f1 9e 3d
       0.15018159 0.062064588 0.086185426 0.07760826
0001e0 6c f6 5b bd f0 2d 34 be 20 7d 58 3d 40 a3 20 3e
       -0.053701803 -0.17595649 0.052853703 0.15687275
0001f0 84 84 c7 3d 10 9d 7c bd 25 45 db bd e2 f3 18 3e
       0.09742072 -0.061673224 -0.10706548 0.14936784
000200 f0 ff f6 3c 60 6b d3 3b 04 dc 16 be e6 0a 24 be
       0.030151337 0.006452009 -0.14732367 -0.16019782
000210 8e 87 00 3e a8 96 ba 3c c6 23 45 3e 44 e8 21 be
       0.1255171 0.022776917 0.19251928 -0.15811259
000220 40 1c 6f 3c c8 62 11 3d 84 5a 49 3e 84 23 eb 3d
       0.014594138 0.035494596 0.19663435 0.114813834
000230 c0 af e6 3d e4 67 ba 3d 0c 9b a1 3d 08 e3 4c bd
       0.112639904 0.09101847 0.07890901 -0.0500212
000240 b4 14 6c bd a1 43 54 be 29 97 21 be 88 28 34 be
       -0.05763693 -0.20728923 -0.1578032 -0.17593586
000250 90 22 70 3d 14 ab ab bd ea 00 d2 bd 78 5a cf 3c
       0.05862671 -0.0838224 -0.102540806 0.025311694
000260 a0 ea 1e 3d 94 b5 a5 3d 3c 7a 8b bd d0 ae 7f 3d
       0.038797975 0.08091274 -0.06810424 0.062422574
000270 46 ac 82 bd 00 04 5b bb 09 b1 2c be cc d5 cb 3d
       -0.06380515 -0.0033419132 -0.16864409 0.09952888
000280 80 32 5b 3b 64 97 4e bd 2c d0 25 3e c0 f6 b3 3d
       0.0033446848 -0.050437346 0.16192693 0.08787298
000290 3c 42 41 3e 2c a6 09 3e 38 a7 fd bd b0 bf 2c 3e
       0.18872923 0.13442296 -0.1238541 0.16869998
0002a0 be a1 63 be 00 f1 68 bc b8 93 9b 3d 60 29 1e bd
       -0.22229668 -0.014217615 0.075965345 -0.038613677
0002b0 48 ec bc 3d 84 76 b0 3d 57 c1 64 be 78 7e 97 3d
       0.092247546 0.08616355 -0.22339378 0.07397169
0002c0 d5 b9 25 be 64 5c 34 3e 7a 75 3a be 10 50 1d bd
       -0.1618417 0.17613369 -0.18208876 -0.03840643
0002d0 18 3e 4b be 06 5c 80 bd 3c 8c 84 bd 40 68 35 3e
       -0.19847906 -0.06267552 -0.0647206 0.1771555
0002e0 63 e9 3d be 95 ca 0a be 25 61 63 be a5 76 28 be
       -0.18546061 -0.13553841 -0.22205026 -0.1645151
0002f0 14 05 d9 3d fa fd 24 3e b8 2e 81 3d d8 81 55 3d
       0.10596672 0.1611251 0.06307739 0.05212578
000300 9c 3b 00 bd 80 da e1 3a 14 d1 0f bd 96 53 a0 bd
       -0.031306848 0.0017231256 -0.0351115 -0.07828443
000310 18 a5 42 3e a9 a2 53 be 18 50 8a bc 1e 8c 2f 3e
       0.19008291 -0.20667519 -0.016883895 0.17143294
000320 10 bc 7f 3d 70 bc 07 be ae 52 c9 bd d0 67 d4 3d
       0.06243521 -0.13255477 -0.09830223 0.10371363
000330 6a 63 0b 3e 86 8a 07 3e 94 1c 3a be 42 0d 33 3e
       0.13612142 0.13236436 -0.18174964 0.17485526
000340 3c 84 56 be 90 77 71 bd be 61 0b 3e 5e b4 3c 3e
       -0.20948881 -0.058951914 0.13611504 0.1842818
000350 e8 6b 2a 3d 40 16 d5 bb f3 54 e9 bd 60 fc f9 bc
       0.041606814 -0.0065028965 -0.11393156 -0.03051585
000360 b0 ef 43 3d f0 dd c9 3d fc 66 0e be 2c d2 d0 3d
       0.047836006 0.09856784 -0.13906473 0.10196337
000370 c9 fb 41 be 76 dc 29 3e 35 a2 16 be 9c 69 01 3e
       -0.18943705 0.16588005 -0.14710315 0.12637943
000380 08 8f 40 be e8 56 a1 3d 44 c6 4b 3e 5c 08 c2 bd
       -0.18804562 0.07877904 0.19899851 -0.09474251
000390 d6 a6 2e be 88 42 fa bd c0 60 fb 3d a8 b7 27 be
       -0.1705583 -0.12219721 0.12274313 -0.16378653
0003a0 b7 7d e1 bd a0 80 46 3d 98 a6 27 3d 36 f2 51 be
       -0.11010306 0.04846251 0.04093036 -0.20502552
0003b0 81 bf 55 be 12 cb 02 3e 80 ae a2 3b 50 0f 74 bd
       -0.20873834 0.12772778 0.0049646497 -0.059584916
0003c0 44 7c 37 bd 3a 5a 02 3e d4 39 e5 3d 54 5b 57 3e
       -0.044796243 0.12729731 0.111926705 0.21030933
0003d0 16 15 27 be c0 5a 27 bc 3a 6b 06 be 80 9f 35 3b
       -0.16316637 -0.010214508 -0.13126841 0.0027713478
0003e0 d8 47 ef 3d 59 31 38 be 58 08 04 3e 84 98 21 be
       0.11683625 -0.17987575 0.12893808 -0.15780836
0003f0 e2 24 50 3e d2 69 59 3e a8 ea 41 3e 5c 18 2f 3e
       0.2032657 0.21231773 0.1893717 0.17099136

prop_h_to_h.2.bias f4 [20]
000000 80 33 ce ba a0 b9 63 3c b0 8e f9 bc 16 16 10 3e
       -0.0015731901 0.013899237 -0.030463547 0.14070925
000010 28 3a f7 bd 56 c5 8a bd b0 bc d8 bc ce 44 34 3e
       -0.12071639 -0.0677592 -0.02645716 0.17604372
000020 b6 0b d5 bd 0e b5 19 3e c0 b7 c0 3d b2 36 36 3e
       -0.10402624 0.15010473 0.094100475 0.17794302
000030 a8 a0 05 3d 88 73 28 3e 78 06 a5 3d bc ca ad 3d
       0.032623917 0.16450322 0.080578744 0.08485934
000040 34 6a b1 bd ce cb be bd b0 1b 4f bd b8 b2 0d 3d
       -0.08662835 -0.093162164 -0.050563514 0.034594268

prop_h_to_h.3.weight f4 [20, 20]
000000 8e 34 c4 bd dc 7f 46 3e 72 cc 32 3e 5c d7 0b 3e
       -0.095803365 0.19384712 0.17460802 0.13656372
000010 50 1c a7 bd aa 8d f1 bd d4 df a9 3d f6 11 3b 3e
       -0.08159697 -0.117945984 0.08294645 0.1826857
000020 64 c2 53 3e e8 20 05 3d 4c 78 33 3e d2 04 5e 3e
       0.20679623 0.032502085 0.17526358 0.21681526
000030 0c 7b 52 be 36 3e 3c be 44 7a 57 be 56 5e 2c 3e
       -0.20554751 -0.18383107 -0.21042734 0.16832861
000040 46 44 c8 bd 68 e8 7d 3d cc 57 f4 3d 54 7c 79 bd
       -0.09778647 0.061989218 0.119308084 -0.060909584
000050 f2 af 12 be 70 61 6b 3d ba f8 07 3e c8 42 d5 bc
       -0.1432493 0.05746597 0.13278475 -0.02603282
000060 2d e3 4a be ac 19 36 3e 14 83 5f 3e 90 f5 13 bd
       -0.19813223 0.1778323 0.21827346 -0.03612286
000070 1c 15 24 be 04 b2 5d 3e 78 19 d5 3d f2 25 0e 3e
       -0.16023678 0.21649939 0.104052484 0.13881662
000080 71 13 25 be 98 93 f0 3d 78 0e 2b 3d a8 6c 16 be
       -0.16120698 0.11746901 0.041761845 -0.14689887
000090 3e b3 02 be 2d dd ed bd 50 38 50 3c c8 ad 8f 3d
       -0.12763688 -0.116144516 0.012708738 0.07015568
0000a0 19 46 3a be 1e 9e 59 be 80 ed 75 bb 1c 25 14 bd
       -0.18190803 -0.21251723 -0.0037525594 -0.036168203
0000b0 24 5b f1 bd 72 5b 2c 3e 8e 34 42 3e c6 6e 2f 3e
       -0.11784962 0.16831759 0.1896536 0.171321
0000c0 58 2e b7 bd d9 d2 5d be 80 5a 55 bc 98 c3 a2 3d
       -0.08944386 -0.21662463 -0.013022065 0.07947463
0000d0 80 87 de 3c 40 15 c2 3c 9a 70 51 3e 4c 1b f1 3d
       0.02716422 0.023691773 0.2045311 0.117727846
0000e0 20 39 23 be 80 63 6d bb 54 0d 01 be 28 2a 12 be
       -0.1593976 -0.0036222637 -0.1260274 -0.14273894
0000f0 c2 e0 b2 bd 34 46 88 3d e0 6b a9 3b e8 35 a2 bc
       -0.087342754 0.06654015 0.0051703304 -0.019801095
000100 dc 8a 18 be d2 61 4e 3e f0 5d 90 3d 10 97 91 3d
       -0.1489672 0.20154503 0.07049167 0.07108891
000110 38 60 db 3d 40 4d 39 3b d0 80 5d 3d 78 34 2b bd
       0.10711712 0.0028274804 0.054077923 -0.041798085
000120 14 91 b5 bd 00 38 0f 3b f6 b1 06 3e 5c e3 de 3d
       -0.08865562 0.0021853447 0.13153824 0.10883209
000130 1c 54 95 bd 42 eb 31 be c0 7e 0e bc 08 c8 be bd
       -0.07291433 -0.173749 -0.008697212 -0.09315497
000140 94 3b 0a 3e f4 40 e2 bd 4c 54 29 be 40 52 36 bd
       0.1349929 -0.11047545 -0.16536063 -0.044512033
000150 5a 2b 1b be 80 b1 19 bb d6 25 64 3e 8d b9 61 be
       -0.15153256 -0.0023451746 0.22280058 -0.22043438
000160 95 11 0a be f8 b3 58 3e b0 93 7f 3d 3c 29 46 3e
       -0.1348327 0.21162403 0.062396705 0.19351667
000170 24 3b 25 3e 4c 95 d4 3d 48 51 5e 3e f8 93 48 3d
       0.16135842 0.103800386 0.21710694 0.04896924
000180 50 64 74 3d 08 eb fc bc 04 5c 92 bd 5c c5 12 3e
       0.059665978 -0.03087379 -0.07146457 0.14333099
000190 5e 5f 59 3e c8 fd 73 3d 86 e9 5d 3e 50 dc d8 3d
       0.21227786 0.059568197 0.21671113 0.10588896
0001a0 c8 23 e8 3d 36 dd 3b be 82 48 47 3e 2a 65 38 be
       0.1133495 -0.18346104 0.19461253 -0.18007341
0001b0 48 3b 1d 3e 78 5f e6 bd 18 65 0a 3d 22 ca 5d be
       0.15354645 -0.11248678 0.033787817 -0.21659139
0001c0 0c ed 37 3e 00 8b ab 3b f6 03 09 3e 10 c4 37 3e
       0.1796152 0.005235076 0.13380417 0.17945886
0001d0 88 83 9a 3c 74 68 1c bd 08 3e f9 bc be 85 0c 3e
       0.018861547 -0.03818555 -0.030425087 0.13722894
0001e0 12 33 4d be 0c f7 c0 bd ce e3 3d 3e 2c ca 5c bd
       -0.20039013 -0.094221205 0.18543932 -0.053903744
0001f0 a2 95 f3 bd 70 aa 23 bd 20 6d 93 bc 00 38 59 3a
       -0.118937746 -0.039957464 -0.01799637 0.0008286238
000200 04 f1 cd 3d 6c 75 a4 3d 13 31 20 be d0 ec 60 3e
       0.10055736 0.08030209 -0.1564372 0.21965337
000210 0c 63 6d bd 60 33 ec 3d 2c d8 29 bd 02 78 32 3e
       -0.057955787 0.115332365 -0.041465923 0.17428592
000220 00 41 6b bb 78 3a 5d 3d b8 58 40 3e 81 cb 5d be
       -0.0035896897 0.05401084 0.18783844 -0.21659662
000230 e0 0f 41 3d f8 63 17 3e 00 65 fd bb d9 b6 11 be
       0.04713428 0.14784229 -0.0077329874 -0.14229907
000240 2e 7e d3 bd a0 f4 87 3d 84 62 5e 3e c4 18 10 3e
       -0.10326801 0.066384554 0.21717268 0.14071947
000250 96 21 19 3e a4 13 3b be 20 ae 51 3c b9 b8 3c be
       0.14954218 -0.18269211 0.012797862 -0.18429841
000260 79 0b 18 be 7e 20 5e 3e b4 c5 b2 bd 62 55 aa bd
       -0.14848126 0.21692082 -0.08729115 -0.08317067
000270 d2 df 5a 3e 80 d9 f7 3d bc fe 10 3e 10 c1 db 3d
       0.21374443 0.12102032 0.14159673 0.10730183
000280 10 72 c6 bd bc ee de 3d d9 57 55 be d8 19 38 3d
       -0.096897244 0.10885379 -0.20834292 0.04494652
000290 40 ae 2c 3c f0 30 63 bd 12 e3 18 be bc b2 d7 3d
       0.010539591 -0.055466592 -0.1493037 0.10532138
0002a0 a8 8b 49 3e c0 e9 72 3c 9c bb 58 bd a8 e3 15 3e
       0.19682181 0.014826238 -0.052913293 0.14637625
0002b0 fc a8 15 be 73 53 30 be 5a 5b 80 bd e2 b1 84 bd
       -0.14615244 -0.17219333 -0.06267424 -0.06479241
0002c0 3a b0 2c 3e 10 05 4b 3d de e6 31 3e d0 27 13 3d
       0.168641 0.049565375 0.17373225 0.03592664
0002d0 50 28 a1 3d fc 88 00 3e 38 1e 41 3e 64 08 c3 bd
       0.07869017 0.12552255 0.18859184 -0.09523085
0002e0 06 63 ac bd f0 74 ea 3d 0c 7b b6 3d 74 e6 90 bd
       -0.08417325 0.11448085 0.08910188 -0.070752054
0002f0 a2 ca 94 bd 83 87 46 be 5e 78 ad bd a0 ef 40 3e
       -0.07265212 -0.19387631 -0.08470224 0.1884141
000300 d0 06 71 bd d4 3d d8 3d c2 a9 10 3e 98 76 dc bd
       -0.058844388 0.10558668 0.14127257 -0.107648075
000310 b8 09 51 3d 6d 60 d4 bd ac 5e 33 3e dc ae 21 be
       0.05103466 -0.10369954 0.17516583 -0.1578936
000320 84 1a 07 be 78 ad d0 3d 00 51 9c bc dc cf 5c 3e
       -0.13193709 0.101893365 -0.019081593 0.21563667
000330 fc 98 d6 3d 20 95 38 3e a0 f0 38 bc 00 05 c4 3a
       0.10478398 0.18025637 -0.011287838 0.0014955103
000340 c4 0b 57 bd 0c 09 e4 3d 24 88 20 be 52 87 61 3e
       -0.052501455 0.11134538 -0.15676934 0.22024277
000350 00 f5 0f bd 40 47 22 3e 9a 55 2f 3e 9e 2c 9b bd
       -0.03514576 0.15847492 0.17122498 -0.075768694
000360 f0 0e 4c bc 4c aa c3 bd e0 8c b9 3d 22 52 07 3e
       -0.012454733 -0.09553966 0.09060073 0.13214925
000370 42 ee 9a bd 9c 57 4d 3e 08 69 54 3e 58 d8 40 3d
       -0.07564975 0.20052952 0.20743191 0.04708132
000380 46 75 00 be 3c e3 22 bd 72 c3 2f be 4f 05 4a be
       -0.12544736 -0.03976749 -0.171644 -0.19728588
000390 54 86 e2 3d e0 fe 9e 3c 84 ef 02 be 4f a7 03 be
       0.11060777 0.019408643 -0.1278668 -0.12856792
0003a0 40 f2 e5 bb f8 c1 ba bd 5e 78 bd bd 58 7d 02 3e
       -0.007017404 -0.09119028 -0.09251474 0.12743127
0003b0 c4 5e 99 bd 94 44 5d bd 34 7e 1f 3e 6b 72 29 be
       -0.07488778 -0.05402048 0.15575486 -0.16547553
0003c0 c5 01 da bd fe 95 23 3e b0 c7 a3 3d 64 95 04 bd
       -0.10644869 0.15975186 0.07997072 -0.032369033
0003d0 56 00 52 be 0a 86 01 3e 70 aa 79 3c 06 e4 5a 3e
       -0.2050794 0.12648788 0.015238389 0.21376047
0003e0 04 e0 db 3d 12 73 af bd 0a 76 c9 bd 70 6f 82 bc
       0.10736087 -0.0856687 -0.09836967 -0.015922278
0003f0 38 28 a2 3d ac 12 4c be c4 5e 1d be a0 6e 5e 3e
       0.07917827 -0.19928998 -0.15368181 0.21721888

prop_h_to_h.3.bias f4 [20]
000000 90 ad b8 bc 88 9b 3d bd ba 5a 1d 3e a0 15 d8 3c
       -0.022543699 -0.046290904 0.1536664 0.0263775
000010 98 bc 4f 3d 74 c0 21 bd 68 10 91 3c 42 63 c8 bd
       0.050716966 -0.03949018 0.017708018 -0.09784557
000020 44 95 ec 3d 80 4c 32 3b cc 31 7e bd ac 9c a1 3d
       0.11551908 0.0027206242 -0.06205921 0.07891211
000030 e0 e3 c9 bc 50 bc 1e bc f8 b5 7e 3d 50 6f 5c bc
       -0.024644792 -0.009688452 0.062185258 -0.013454273
000040 f8 95 1f 3e 62 24 4f 3e c8 59 c0 bd 55 5d 04 be
       0.15584552 0.20228723 -0.093921244 -0.12926228

prop_h_to_h.4.weight f4 [20, 20]
000000 40 39 8d 3b 08 c4 0b be d4 b8 0d 3e ae 76 43 3e
       0.0043098032 -0.13648999 0.13840038 0.19088241
000010 74 99 2c bd 66 0e d0 bd 78 4a 5f be 2f 30 4c be
       -0.04213853 -0.10158996 -0.21805751 -0.19940256
000020 3c ed 1a 3e cc 2b 19 be 08 96 31 bd b9 4e 27 be
       0.1512956 -0.14958113 -0.04335597 -0.16338624
000030 ba 16 4f be 00 7c 8c 3b 98 4c 43 3d 88 95 f6 3d
       -0.20223513 0.004287243 0.047680467 0.120402396
000040 8e 1f d5 bd 64 96 8e 3d 88 e0 a4 3c 24 b2 40 bd
       -0.10406409 0.069622785 0.020126596 -0.04704489
000050 ae c5 f4 bd a8 74 14 3d 40 4c 14 be 62 13 4e 3e
       -0.11951767 0.036244065 -0.14482212 0.20124581
000060 7f cd 48 be dc 85 c1 3d 30 80 af 3d 8c eb 90 3d
       -0.1960964 0.0944936 0.08569372 0.07076177
000070 f0 d6 2c 3e 20 8c 66 3d 00 e0 ca 3d e8 b3 47 3d
       0.16878867 0.056285977 0.09906006 0.048755556
000080 0c c0 22 3e 50 6f 72 bc a0 77 15 3d c0 17 c3 bc
       0.15893573 -0.014797047 0.036491036 -0.023815036
000090 34 a3 1b 3e f8 de 15 3e 40 b5 84 bb fc 6b c9 3d
       0.15198976 0.14635837 -0.004049927 0.098350495
0000a0 94 72 29 3e 04 5d 44 bd a5 c9 d2 bd 16 65 a2 bd
       0.16547614 -0.04794027 -0.10292367 -0.07929437
0000b0 de 1e bb bd 80 14 a6 3a 11 8c d9 bd 4c c1 63 3e
       -0.09136747 0.0012670904 -0.10622419 0.22241706
0000c0 50 96 bf bc d8 10 0b 3d e8 69 5e 3e 74 f2 21 be
       -0.023387104 0.03395161 0.21720088 -0.15815145
0000d0 f0 53 10 3e d2 53 1f 3e a8 f9 1c be 1c 2a 06 be
       0.1409452 0.15559319 -0.15329611 -0.13102001
0000e0 fb ac d1 bd f7 08 06 be a6 67 2b be d4 f6 0e 3e
       -0.102380715 -0.13089357 -0.16738757 0.13961345
0000f0 3c f9 33 3e 92 57 4f be 78 85 c1 3d e4 47 38 bd
       0.17575544 -0.20248249 0.09449285 -0.044990435
000100 7c e4 1a be 78 fb e2 bd 74 7b af 3d b4 1f 67 bd
       -0.15126222 -0.1108312 0.08568469 -0.05642672
000110 80 cd 71 bc 18 92 87 bd 56 58 2c 3e bc 99 8b bd
       -0.014758468 -0.06619662 0.16830572 -0.06816432
000120 4e 95 20 be 6a 2c 44 3e 0e 22 01 3e 30 e4 2b 3e
       -0.15681955 0.19157568 0.12610647 0.16786265
000130 30 23 dc 3d 80 71 e5 3c 68 3d 27 3e 08 97 f0 3d
       0.10748899 0.028008223 0.16332018 0.11747557
000140 74 65 46 3e fc 85 23 3e 87 2c 29 be 3a 3b 63 3e
       0.19374639 0.1596908 -0.16520892 0.22190562
000150 b0 a1 63 bd 14 cb 93 3d 08 ce b2 bc 1c 2f 1f bd
       -0.05557412 0.072164685 -0.021826759 -0.038863286
000160 c0 81 1e 3e 58 37 5e 3d 24 44 55 be 30 eb 36 bc
       0.15479183 0.054252 -0.20826775 -0.0111644715
000170 b8 8c a8 3d f8 b8 1f be c0 1b a7 3b d6 1d 5c be
       0.08229965 -0.15597904 0.0050997436 -0.21495757
000180 50 9b 21 3d 58 fe 39 3d 48 6a 59 3e e3 50 d5 bd
       0.03945476 0.045408577 0.2123195 -0.104158185
000190 78 53 34 3e d6 21 f5 bd 71 d6 38 be b3 2d 3f be
       0.17609966 -0.11969344 -0.18050553 -0.18669777
0001a0 10 a9 0d 3e d0 12 b9 3d 56 0a 63 3e e0 ae 7e 3d
       0.13834023 0.09036791 0.22171912 0.062178493
0001b0 56 bc 01 3e 40 9f 52 3d ac ed 57 3e ca e2 be bd
       0.126695 0.051421404 0.21086758 -0.093206
0001c0 28 d4 a3 3d 5a 38 1c 3e 9c f6 17 bd 54 a5 b8 3d
       0.0799945 0.15255871 -0.03710042 0.09015909
0001d0 00 fb 71 bd 5c 32 c6 3d 98 0b 7e bd b4 64 23 be
       -0.059077263 0.09677574 -0.062022775 -0.15956384
0001e0 48 11 5a 3e bf ea 5e be e4 ba d8 3d 5c a2 c4 3d
       0.21295655 -0.21769236 0.105825216 0.0960128
0001f0 e8 47 41 3d e6 d0 58 3e a4 9a c2 3d 18 9e 03 3e
       0.047187716 0.21173438 0.095021516 0.12853277
000200 7a 81 0a be c0 38 df 3d 18 4d 93 bc 9f a8 40 be
       -0.13525954 0.10899496 -0.017981097 -0.18814324
000210 66 14 e3 bd ca 56 43 be f4 1d 02 3e 30 d2 e5 bc
       -0.11087875 -0.19076076 0.12706739 -0.028054327
000220 de 8a 22 be dc 2b 47 3e d0 2a 73 3d 32 15 01 3e
       -0.15873286 0.19450325 0.059367 0.12605742
000230 2c 6f fe 3d da af 33 be be 16 e7 bd bc b0 05 be
       0.12423548 -0.17547551 -0.112836346 -0.130557
000240 de 98 84 bd 62 a2 55 3e 3c b8 86 bd 84 eb d0 3d
       -0.064744696 0.20862725 -0.06578109 0.10201171
000250 30 35 ad bd 34 a5 24 bd c7 5e 4f be 56 7b 22 3e
       -0.0845741 -0.040196612 -0.20250998 0.15867361
000260 f8 66 1a 3e 68 62 ed bc 7c 0e 4d bd 36 34 43 be
       0.15078342 -0.028977588 -0.05006264 -0.19062886
000270 51 bb ef bd 00 0d 2d bb 38 7d dd bc 00 42 33 3b
       -0.1170565 -0.0026405454 -0.027037248 0.0027352571
000280 1a 74 34 3e 5b 7e ff bd 00 46 0d 3e e4 dd 46 3e
       0.17622414 -0.12475272 0.13796234 0.19420582
000290 70 a0 46 be c8 c6 ab 3c 50 af 68 3d 67 0d 52 be
       -0.1939714 0.02096881 0.056807816 -0.20512925
0002a0 6c 5e f7 3d 0e ef 0c be 00 d4 ee b9 94 74 8e 3d
       0.120785564 -0.13763067 -0.0004555285 0.06955829
0002b0 36 73 3e be 10 a0 77 3c 0c b2 71 bd b7 13 5c be
       -0.18598637 0.0151138455 -0.05900769 -0.21491896
0002c0 24 c3 9f 3d 40 3a 12 3c 60 af cc bd eb ac 3b be
       0.07800892 0.008925021 -0.099943876 -0.18327682
0002d0 34 a2 8f 3d 00 ba 72 ba fc c6 af bd 40 e4 3f 3e
       0.0701336 -0.00092592835 -0.08582875 0.18739414
0002e0 c8 53 fd 3d c7 ad d1 bd e8 01 0d be 4c 0e 61 be
       0.12369496 -0.102382235 -0.13770258 -0.2197811
0002f0 68 60 a3 bc 56 a8 20 3e 64 5d 33 3e a0 75 21 3c
       -0.019943431 0.15689215 0.17516094 0.009854704
000300 92 51 57 3e 20 38 ba bb 24 17 56 bd 33 a9 4e be
       0.2102721 -0.00568296 -0.052268162 -0.20181732
000310 e0 4e 41 3c a6 b1 84 bd 0e bc f6 bd e6 c3 17 be
       0.01179859 -0.06479196 -0.12047587 -0.14820823
000320 0b 07 dd bd d3 2e f8 bd ec 21 e7 3d 1d 7b d9 bd
       -0.10792359 -0.12118306 0.11285767 -0.10619185
000330 60 c6 58 bc ec 8c fe 3d c8 f2 05 3e 31 8e 4e be
       -0.01323089 0.124292225 0.13080895 -0.20171429
000340 3a 1a 63 be 3a b5 23 3e 18 fb d6 3d 80 f7 1a bb
       -0.22177973 0.15987101 0.10497111 -0.0023646057
000350 3d 37 5d be b0 7a bb bc 9a 26 4a 3e 62 32 3a 3e
       -0.21603103 -0.02288565 0.19741288 0.18183282
000360 a2 86 1c 3e 94 76 d6 3d d8 95 88 3c 70 21 07 3c
       0.15285733 0.10471836 0.016673014 0.008247718
000370 9f 36 2e be d2 e9 00 be 10 c9 39 3d 24 6a 16 3e
       -0.17013024 -0.12589195 0.045357764 0.14688927
000380 8c 4d b0 3d 48 0f 2e 3d 72 96 44 3e 88 86 55 3d
       0.08608541 0.042495042 0.19198015 0.052130252
000390 50 fe c3 3d 20 23 aa bd f0 fd 17 bd fb 9c e9 bd
       0.09569991 -0.08307481 -0.037107408 -0.11406895
0003a0 2a 9c 3a be 68 d4 c1 3c 3e 47 00 be 56 6e a2 bd
       -0.18223634 0.023660854 -0.12527177 -0.07931201
0003b0 d0 0b 3d bd 28 d0 00 3d 70 19 90 3d f4 20 40 3e
       -0.046153843 0.031448513 0.07036102 0.1876257
0003c0 40 7c ab 3b e4 4a 3b 3e 28 72 09 be de 97 54 3e
       0.0052333176 0.18290287 -0.13422453 0.20761058
0003d0 34 98 85 3d c4 b8 bd 3d c2 3d 00 3e 94 af a2 bd
       0.06523171 0.09263757 0.12523559 -0.07943645
0003e0 10 4b 76 3c c8 6f b2 bc 28 78 71 bd 8f 14 28 be
       0.015032545 -0.021781817 -0.05895248 -0.16414092
0003f0 ec 21 ce 3d d4 7e 51 3e 64 1b 57 3e 30 24 b3 3c
       0.10065064 0.20458537 0.21006542 0.021867841

prop_h_to_h.4.bias f4 [20]
000000 b8 4d 40 3d 88 dc 9c 3d 2c cc 05 bd f0 69 b7 3d
       0.04694912 0.076592505 -0.032665417 0.08955753
000010 e4 ce d9 3d a0 6f 96 3b 30 2f aa 3d c8 be 9b bc
       0.106351644 0.0045909435 0.083097816 -0.01901187
000020 2d e7 4f be 30 18 51 be 38 58 0a 3d ec 3b 48 3e
       -0.2030303 -0.20419383 0.03377554 0.19554108
000030 50 02 ca 3c 34 1b c3 bd 48 62 a4 bc 34 f0 05 bd
       0.024659306 -0.09526673 -0.020066395 -0.03269978
000040 60 26 0c 3d 88 23 9d 3c 60 ac 27 bd 14 14 85 3d
       0.034216285 0.019181982 -0.040935874 0.0649797

prop_h_to_h.5.weight f4 [20, 20]
000000 84 cb 1a 3e b6 84 33 3e dc 0f 53 3e 83 d3 f9 bd
       0.15116698 0.17531094 0.20611519 -0.12198546
000010 20 b1 10 3c 64 a4 08 be 00 aa d9 3d 18 99 f3 bc
       0.008831292 -0.1334396 0.10628128 -0.029736087
000020 80 87 ca 3b 36 5a 49 be fa 66 27 be c0 c1 5d 3d
       0.0061807036 -0.19663319 -0.16347876 0.054139853
000030 67 f7 62 be 94 9f 4f 3e 6e 66 a3 bd 87 2b 2d be
       -0.22164689 0.20275718 -0.07978521 -0.16911136
000040 62 14 0e be 98 28 06 be 00 97 29 3e 90 a2 86 3d
       -0.13874963 -0.13101423 0.16561508 0.06573975
000050 58 e8 c4 3d 94 8d 08 be 64 8a 14 be f0 21 cf 3c
       0.096146286 -0.13335258 -0.14505917 0.025284737
000060 f6 47 26 3e 78 c4 b9 3d 94 f4 f7 3d 02 b6 05 be
       0.16238388 0.090706766 0.121071965 -0.13057712
000070 10 c3 76 3d 94 db ae 3d 40 bf 42 3c b0 c8 38 3e
       0.06024462 0.08537975 0.011886418 0.18045306
000080 ad 3c 5b be 30 34 79 3d 98 fa bb 3d c0 65 ac 3b
       -0.21409865 0.060840786 0.09178656 0.005261153
000090 cf df 24 be 9e ee 4a 3e b8 d7 9f 3d fa 30 16 3e
       -0.16101001 0.19817588 0.07804817 0.1466712
0000a0 10 fa e6 bc 58 a5 29 3e 93 ef 2c be 2d 0f cd bd
       -0.028195411 0.1656698 -0.16888265 -0.1001266
0000b0 6a f1 89 bd 84 51 27 be 80 fa 28 bb e6 86 14 be
       -0.06735499 -0.1633969 -0.0025784075 -0.14504585
0000c0 8a 54 10 3e 00 7f 8e 3d 84 85 c0 3d e0 8d ce 3d
       0.14094749 0.06957817 0.09400466 0.10085654
0000d0 c8 15 39 3e 96 87 bd bd e9 8c 3d be 1c e3 c8 3d
       0.18074715 -0.092543766 -0.18510784 0.09808943
0000e0 1e 6f bd bd d2 2d 47 3e 1b b8 f0 bd 3e db 21 3e
       -0.092497095 0.19451073 -0.11753865 0.1580629
0000f0 3c ae b8 3d 6a d3 3f be a2 4c 5d 3e e4 a8 b2 3d
       0.090176076 -0.18732992 0.21611264 0.087236196
000100 e0 e5 06 3d 88 20 37 3e 6b 55 43 be dc a6 6f bd
       0.03293407 0.17883503 -0.19075553 -0.05850874
000110 d8 b4 89 bc a4 cb 07 3e 48 93 4c be c4 d0 dd bd
       -0.016809866 0.13261276 -0.19978058 -0.108308345
000120 62 28 36 3e 60 03 d3 3b c0 5f 74 3b 60 5c af 3b
       0.17788842 0.0064396113 0.0037288517 0.005351588
000130 dc 8e 3d 3e 34 23 d5 3d 44 34 9b 3d f8 e5 7f 3d
       0.18511528 0.10407105 0.07578328 0.062475175
000140 d8 70 cc 3c 0a e4 aa bd 94 c0 44 3e 50 6e 63 bd
       0.024956152 -0.08344276 0.19214088 -0.055525124
000150 37 e1 fd bd 78 ef 8c bc 24 0e 17 be e8 0b b7 bd
       -0.12396472 -0.017204031 -0.14751488 -0.08937818
000160 46 b9 2a be f8 ca 4c 3e f7 da 1f be 2e 62 01 3e
       -0.16672239 0.19999301 -0.15610872 0.12635109
000170 c8 bd f0 3d c0 f4 4f bc 40 68 73 3d 6e 43 0a 3e
       0.11754948 -0.01269263 0.059425592 0.13502285
000180 ee 67 9e bd 7e 9e 18 3e 40 3b 25 3c a0 05 49 bd
       -0.07734667 0.1490421 0.010084927 -0.04907763
000190 50 2f 64 be a0 a4 51 3e 00 35 b3 bd 00 8f 43 3e
       -0.22283673 0.20472956 -0.08750343 0.19097519
0001a0 20 ce 34 bd 80 5c fc 3b 78 a0 20 3e 18 b2 dd 3d
       -0.04414189 0.0077014565 0.15686214 0.10824984
0001b0 b8 62 03 3e 88 76 d3 bc d2 df 0a 3e b2 9a 16 3e
       0.12830627 -0.025813356 0.13561943 0.14707449
0001c0 28 5c 9b 3c c0 73 38 3d a6 88 f2 bd 08 f4 27 bd
       0.018964842 0.045032263 -0.1184247 -0.04100421
0001d0 c0 36 d2 3b 20 f1 84 bb eb 50 0d be 5c ea 36 3e
       0.006415218 -0.0040570647 -0.13800399 0.17862839
0001e0 ce 99 3a 3e b8 b6 ee bc ba d7 38 be f4 fa 59 bd
       0.18222734 -0.029139861 -0.18051043 -0.053217843
0001f0 50 aa 0e bd 48 2c a2 3d 10 b1 72 bd 56 e2 f6 bd
       -0.03483039 0.07918602 -0.05925089 -0.12054889
000200 27 d7 5e be 5e 26 f0 bd 34 fd db 3d 90 7d 2a bd
       -0.21761762 -0.11726068 0.10741654 -0.041623652
000210 84 1d f4 bd 08 5d d0 3d 8c fb 14 3e 80 1b ea bb
       -0.11919692 0.10173994 0.14549083 -0.0071443915
000220 00 28 b5 3c 30 cf 37 3e 98 6d c4 3c a0 cc 93 bc
       0.0221138 0.1795013 0.02397804 -0.018041909
000230 08 67 96 3c 70 3c 50 bc 41 30 32 be 70 95 18 bc
       0.018359676 -0.012709722 -0.1740122 -0.009312972
000240 ac 7b f7 3d ac dc 11 be 10 05 ad 3d 0b b3 2a be
       0.120841354 -0.14244336 0.08448231 -0.16669862
000250 56 e7 10 3e 7e 8b 1b 3e f0 17 f6 3d e0 54 b9 3c
       0.14150748 0.15189931 0.120162845 0.02262348
000260 84 45 bc 3d 70 21 29 be b0 07 12 be e0 f1 14 be
       0.091929466 -0.16516662 -0.14260745 -0.14545393
000270 b4 49 33 be e8 15 43 3d 70 c9 24 3d 40 71 03 3d
       -0.17508584 0.047628313 0.04023117 0.032090425
000280 00 91 94 bb 05 d9 1a be 00 e2 52 3a 88 68 17 3e
       -0.004533887 -0.15121849 0.0008044541 0.1478597
000290 50 c9 5c be 40 52 15 be 8a 6f fc bd 86 36 34 3e
       -0.2156117 -0.14582157 -0.12325962 0.17598924
0002a0 28 cc 8d bd a0 59 0a 3d e4 4f 3a 3e 34 ed b9 3d
       -0.06923705 0.03377688 0.18194538 0.09078446
0002b0 d8 2e e3 bc a4 a5 a8 3d 82 37 09 3e 84 85 36 bd
       -0.027732298 0.082347184 0.13400081 -0.044560924
0002c0 c0 d3 f4 3c 68 ee 13 3d 6e 97 05 3e 50 bf 17 3e
       0.029886127 0.036116034 0.13046047 0.14819074
0002d0 e0 7c aa 3c d8 32 39 3d a0 49 a5 3d c0 06 42 3b
       0.020811498 0.045214504 0.080706835 0.0029606074
0002e0 7e 2d 8c bd 4c ed a3 3d 70 a2 55 bc dc 54 5a be
       -0.068446144 0.08004245 -0.013039216 -0.21321434
0002f0 1a 75 07 be dc 73 a8 bd 80 cf f1 bb 50 b5 25 bd
       -0.13228264 -0.082252234 -0.0073794723 -0.040456116
000300 fc bf d9 bd 38 d0 bf bc 44 0c f5 3d 98 23 60 be
       -0.10632321 -0.023414716 0.1196523 -0.21888578
000310 c2 1e 4c be 14 2a 32 be 8d a9 06 be 28 24 c1 bd
       -0.19933608 -0.17398864 -0.13150616 -0.094307244
000320 44 85 16 be 05 0b 61 be 48 65 60 3e 70 f9 34 3c
       -0.14699274 -0.2197686 0.21913636 0.011045799
000330 9e 0e 35 3e 06 92 5d 3e 18 2a c8 3d e4 b3 b2 3d
       0.17681357 0.21637735 0.09773654 0.08725718
000340 a3 8e 64 be 9c 9b 37 bd a0 b0 68 3d f8 51 04 be
       -0.22320037 -0.044826135 0.056809068 -0.12921894
000350 3e 88 bb bd 07 d0 fe bd b8 79 6a 3d 20 ec db 3d
       -0.091568455 -0.12442022 0.057244986 0.10738397
000360 4a 11 23 3e 77 56 18 be c0 0d 16 bb ff a0 42 be
       0.15924564 -0.14876734 -0.002289638 -0.19006728
000370 a8 18 5b bd 88 60 42 bd e8 23 e3 3d a0 12 0c 3d
       -0.05349031 -0.04745534 0.11090833 0.03419745
000380 1e 41 64 3e 92 e5 c3 bd 0f 65 cf bd f4 3e 62 be
       0.22290465 -0.095652714 -0.10126697 -0.22094327
000390 88 0e f6 bc bc 40 63 3e d8 0b 6c 3d d8 4a 6c 3d
       -0.030036226 0.22192663 0.057628483 0.057688564
0003a0 e4 eb e5 3d 94 f7 2f bd de 54 48 3e ca 3f 24 be
       0.11226633 -0.04296072 0.19563624 -0.16039959
0003b0 41 88 21 be 94 26 4c bd 30 a4 17 3e b0 af cc 3d
       -0.15774633 -0.04984148 0.14808726 0.09994447
0003c0 80 8b d0 ba 2c 84 f1 3d f2 a5 41 3e 08 7b 04 be
       -0.0015910715 0.11792788 0.1891096 -0.12937558
0003d0 18 78 a2 3d 00 1f 2d 3a 32 9e f9 bd c5 5a 5e be
       0.07933062 0.00066040456 -0.121883765 -0.21714313
0003e0 44 ee 3e be 40 06 41 3d e0 61 26 bc 42 9c 3e 3e
       -0.18645579 0.0471251 -0.010155171 0.18614295
0003f0 64 45 41 be 50 11 de 3d 80 6d 36 3d 2a bf 03 be
       -0.18874127 0.10843146 0.04453802 -0.12865892

prop_h_to_h.5.bias f4 [20]
000000 58 b6 5c 3d 80 23 e3 3a 84 6b ba 3d 32 36 35 3e
       0.053884834 0.0017329305 0.09102538 0.17696455
000010 58 d4 23 3d 20 a2 cb bb 68 29 96 bd c0 f2 99 3d
       0.03999743 -0.006214395 -0.07332116 0.07517004
000020 34 e3 d1 3d 0c bf 8b 3d 0c e6 4b bd 40 8c f8 bd
       0.10248414 0.06823549 -0.049779937 -0.121361256
000030 9a 89 46 be 7c 16 8b 3d 3a d1 49 3e 14 fa 63 be
       -0.19388428 0.06791398 0.1970872 -0.22263366
000040 c8 e1 55 bd 48 34 a0 bd 86 ab 14 be 8c be 4c 3e
       -0.052217275 -0.07822472 -0.14518556 0.19994563
