pair_trading/Q.pth (torch, 21816 bytes, 21 tensors)

prop_in_to_h.weight f4 [20, 5]
00000000: 564a b63e 70d1 fb3d fcd9 08be a88d 74bd
00000010: c8ff 8cbd cfaf 65be 26b5 37be 1446 b0be
00000020: fc0f 88be 428d 973e 3a88 ad3e 727e 07be
00000030: 90f1 6c3e 7e00 943e 8727 51be 9c6e 323e
00000040: 00d7 af3d aa7e a6be c8d5 a93e 80e8 a8be
00000050: d8d6 55bd 6ac2 ccbe c08f d7bd 5805 50bd
00000060: 0ea4 94be 788c 963e 60a6 9bbe a29d b5be
00000070: 144e 933e 64e6 e0bd da91 c43e e2ea 83be
00000080: 8e81 87be 97b5 c6be 04c5 043e e1d6 7fbe
00000090: caac ba3e 7807 ce3e 975d adbe b0d8 44be
000000a0: 6c25 6a3e 2fcd 72be 34d1 e43e d0e4 9fbd
000000b0: 0cb8 ccbe 928e c03e c89e ac3d 5805 c53e
000000c0: 0c59 00be 00f7 7cbc b8cc 68be 2093 3bbe
000000d0: 009c 233c e092 513d c08b 1d3c 3023 89be
000000e0: 3ecd c2be f921 54be 7e74 bd3e 08dd 093d
000000f0: bde1 53be b085 a43e d021 5d3e 6270 e13e
00000100: aefc 7ebe ac27 07be da48 a2be 344b dabe
00000110: 5c5c 73be 806b 943e b137 98be 688b 90bd
00000120: ac48 b8be 3dcb 8ebe 33c8 5ebe 8e49 0cbe
00000130: 90c7 78bd 5428 0e3e 2021 73bc ec15 143e
00000140: 0dbe 94be 24b6 763e 4012 00bd ca2e c63e
00000150: 4dfe abbe 64a6 263e 844e e9bd 7149 99be
00000160: 0093 3a3e 0ab5 d7be b8f6 223d 6310 99be
00000170: fa6e b03e 469b cf3e c70a d0be e063 db3e
00000180: 789d 2bbd 34a9 3b3e b0a1 273e 083c 5d3e
0.3560359 0.122958064 -0.13364404 -0.059705406 -0.06884724 -0.22430347 -0.17940196 -0.34428465
-0.26574695 0.2959996 0.33892995 -0.13231829 0.23139024 0.28906626 -0.20425235 0.17425007
0.0858593 -0.32518512 0.33170915 -0.32989883 -0.052206844 -0.39992076 -0.10525465 -0.050786346
-0.29031414 0.29404044 -0.30400372 -0.35471827 0.28770506 -0.109814435 0.38392526 -0.2576514
-0.2646603 -0.38810417 0.1296578 -0.24984314 0.36459953 0.40240073 -0.33860466 -0.19223285
0.22865838 -0.23711084 0.4469086 -0.078073144 -0.39984167 0.37608773 0.084287226 0.3848064
-0.12533969 -0.015439749 -0.22734344 -0.18317842 0.009985924 0.05116546 0.0096158385 -0.26784658
-0.38047212 -0.20716085 0.3700294 0.033658057 -0.20691581 0.32133245 0.2159493 0.44031054
-0.24901077 -0.13198727 -0.31696206 -0.426355 -0.23765701 0.28988266 -0.2972999 -0.0705784
-0.35992944 -0.27889434 -0.21756057 -0.13699934 -0.060737193 0.13882571 -0.014839441 0.14461488
-0.29051247 0.24092919 -0.031267405 0.38707572 -0.33592454 0.1627441 -0.11391929 -0.29938844
0.18220139 -0.4213031 0.03978607 -0.29895315 0.34459668 0.40548152 -0.40633222 0.42849636
-0.04189822 0.18326265 0.16370273 0.21604931

prop_in_to_h.bias f4 [20]
00000000: 0fa2 c2be ff33 5abe 932a a7be 10f5 8b3d
00000010: f4c4 933e 60a8 06bc 0b0a 92be a4bf 5a3e
00000020: a4d7 89bd 60be 8a3c 9d55 55be 402f 56bd
00000030: 26d1 c13e 301b da3d 28aa 883e 6cdd 123e
00000040: 945a 543e 5525 7fbe 1a96 8a3e 2c7c d63e
-0.38014266 -0.21308897 -0.3264967 0.06833851 0.288612 -0.008218855 -0.28523287 0.21362168
-0.06730583 0.016936481 -0.2083344 -0.052291155 0.3785488 0.10649717 0.2669232 0.14342278
0.20737678 -0.24916585 0.27067643 0.4189161

prop_h_to_h.0.weight f4 [20, 20]
00000000: 183b 073d 72bd c2bd f020 333c c44c f73d
00000010: be55 a0bd 7860 d43d cfd7 1dbe 9084 47be
00000020: 3a19 103e 3f16 46be e713 25be d290 b4bd
00000030: c0a0 9c3b b8e5 1abe 5e82 14be 6231 56be
00000040: 6ccb cb3d 2404 a73d 32ad 41be 2b6c 59be
00000050: b05f 233d 7422 b53d b0be e1bc c51b 33be
00000060: 140d 96bd 8818 9cbc 1c4a 253e 38e6 81bd
00000070: 0ca5 b53d 4088 b53b b5e9 2abe 180a 633e
00000080: e869 c13d 6c00 b63d d0f2 603c 00fb 583b
00000090: a604 1c3e 4ecc 033e 9b44 ecbd ce4b debd
000000a0: a0c9 323d c408 b7bd 88ea b1bc a0af ed3b
000000b0: 2c7e 25be 9c54 2b3e ba40 1e3e e873 823c
000000c0: 095c dabd bc34 a33d d80a 013d 889f 8e3d
000000d0: a431 d5bd c2d7 133e e1d6 43be f032 543e
000000e0: 0a4f 86bd c4a3 abbd fe76 5c3e e86d e7bc
000000f0: 845f 9f3d 4824 3d3e e0e4 ed3c 44f5 e83d
00000100: 7065 533d b2f3 4dbe f690 4abe 6cde 1a3e
00000110: d030 8d3d 0874 55be 2810 debc 84d8 66bd
00000120: a00f ddbd 300e 52bd 2a4b 4dbe 14bc a73d
00000130: 328b 4ebe e809 b33c a84f 75bd b8cd 163d
00000140: 18a1 a23d 7c24 d73d be9a 9dbd aa64 283e
00000150: 5401 62bd 9281 033e f694 98bd 7669 593e
00000160: 9014 bd3c 304f a73d 3d0b 3cbe 204a 573e
00000170: 20d4 49be 431d 48be 3734 40be a2ca 63be
00000180: 8834 5dbe c020 013e 465b bfbd cc38 31be
00000190: f84d cabc 4476 ce3d 7834 5d3e 08da 3ebe
000001a0: 2898 08be a08f 3f3c 5869 f33d 4c4c 03bd
000001b0: 40d9 10be a00c 25bd 470e 53be 7af0 81bd
000001c0: 8636 2c3e 009c 0a3a ee08 afbd a335 64be
000001d0: a9d4 1bbe 1c3f 89bd ccba ee3d 9fc1 3bbe
000001e0: 4181 f1bd 2645 3e3e 047e 6bbd 948a b23d
000001f0: 0034 d9ba 5867 1c3e a52b edbd 4fc9 dabd
00000200: 125d 5d3e 34ce a43d d68c 003e d2c9 003e
00000210: b038 a3bd 228d 0b3e f862 803c c668 633e
00000220: 6e00 dcbd 90f0 aa3d 4045 babd b85f 883d
00000230: 6cfa e53d b8ff d7bc 0c06 e3bd c09d 53bb
00000240: 248b c13d 18fa 14be 2421 16bd 0029 44bd
00000250: d0e0 14be 607b 2f3d 7a96 253e 3f16 32be
00000260: c964 dbbd d294 3a3e 74cc b73d 08fb 86bd
00000270: 9850 3bbe 08f7 dc3d 97f7 2cbe 78b7 f33d
00000280: 0868 87bd d835 313e dc3b 4b3e 0d77 61be
00000290: ea06 4e3e 3cd1 3a3e 1479 27bd 69e4 49be
000002a0: 085e 1abe 7c01 463e 5c8b 03be b066 f63d
000002b0: c2eb 643e ee99 0b3e 9495 e63d 88b3 973d
000002c0: 1ad4 0e3e 1709 61be 0c50 b7bd 10c4 5fbc
000002d0: 2f66 29be 9742 d5bd 0c41 5dbd 0823 483e
000002e0: f40b 823d b013 30bc 18d7 f9bc 84c3 70bd
000002f0: 583d a43c 8f8c 3fbe 1c5f 2c3e f0ff 503d
00000300: 80b5 48be 763e 0cbe 705a 5ebd e612 363e
00000310: aa99 8abd c888 563e feef 27be 5e71 3c3e
00000320: 0d1e 45be 286f 8ebc f7e8 5ebe ee76 033e
00000330: ce1e c2bd bc5b b9bd 38ad 0cbd 285a 813d
00000340: 8818 e0bd 903f 003e e4a0 bbbd 2084 49bd
00000350: ec35 0e3e 8065 adba aa45 2c3e a4e4 443e
00000360: a1ae f1bd 1c37 46be f4e9 f13d a4ad 39bd
00000370: 10ad 3f3c 164a 5abe 98a7 063d 9805 d7bd
00000380: 62de 163e 2f4f f4bd 988e 06be b2ca 0a3e
00000390: 70a1 083d 6625 2e3e c04b 3b3d ca68 e5bd
000003a0: 3633 2e3e d823 2b3e 609c 3d3d d82a 24be
000003b0: 6811 2a3e 4eed 493e 5cf8 b33d 4c37 ce3d
000003c0: 84ec f93d 2e17 5ebe 2c03 70bd 4091 733b
000003d0: a6d9 adbd 7ad8 363e 16d1 2cbe f241 1c3e
000003e0: 027b 223e 5507 cbbd 20c8 96bd a0a8 273c
000003f0: 9449 04be bc30 a1bd 9c19 2cbd 101e a7bd
0.03301534 -0.0950879 0.010933146 0.12075189 -0.07828854 0.103699625 -0.15414356 -0.19484162
0.14072123 -0.19344424 -0.16120873 -0.08816685 0.004779905 -0.15126693 -0.14502856 -0.20917276
0.09950909 0.08155087 -0.18913725 -0.21232669 0.039886177 0.08844462 -0.027556747 -0.17491062
-0.07326713 -0.019054666 0.16141552 -0.06342739 0.08869371 0.005539924 -0.16690715 0.22171819
0.09444028 0.08886799 0.013729766 0.0033108592 0.15236148 0.12870905 -0.11536523 -0.10854302
0.043649316 -0.08937219 -0.021718279 0.007253602 -0.16161412 0.16731495 0.15454379 0.015924409
-0.106620856 0.07969043 0.031504482 0.06964022 -0.10409859 0.14437774 -0.19124939 0.20722556
-0.06558044 -0.08380845 0.21529767 -0.02825065 0.0778189 0.18470871 0.0290398 0.11374906
0.05161041 -0.20112494 -0.1978186 0.1512391 0.06894076 -0.20845044 -0.027107313 -0.05635883
-0.10793996 -0.05128306 -0.20048204 0.0819017 -0.20170286 0.02185531 -0.05989042 0.036817282
0.079408824 0.10505006 -0.0769553 0.1644465 -0.055177048 0.12842396 -0.07450287 0.21231636
0.023081094 0.08169401 -0.18363662 0.2102437 -0.19709826 -0.19542412 -0.18769918 -0.22245267
-0.2160207 0.1261015 -0.09343581 -0.17306823 -0.024695382 0.10081151 0.21602046 -0.1863786
-0.13339293 0.011691958 0.11885327 -0.032055184 -0.14145374 -0.040295243 -0.20610915 -0.063446954
0.16817674 0.0005287528 -0.08546625 -0.22286086 -0.15217842 -0.0670149 0.116567224 -0.1833558
-0.11792231 0.18581066 -0.057493225 0.08717838 -0.0016571283 0.15273798 -0.1158059 -0.10682928
0.21617535 0.080471426 0.12553725 0.12576988 -0.07969797 0.13628057 0.015672192 0.22207937
-0.107422695 0.08346665 -0.0909524 0.06658882 0.11229405 -0.026367053 -0.11085138 -0.0032290071
0.09450367 -0.14548528 -0.0366527 -0.047890663 -0.14538884 0.04284227 0.16170684 -0.17391299
-0.107125826 0.18220833 0.08974543 -0.06590849 -0.18292463 0.10789305 -0.16891323 0.11900228
-0.06611639 0.17305696 0.19847053 -0.2201807 0.20119825 0.18243879 -0.040886953 -0.19716038
-0.15074933 0.19336504 -0.1284613 0.12031305 0.2235556 0.13632938 0.112589985 0.0740729
0.13948098 -0.21976124 -0.089508146 -0.013657585 -0.16542886 -0.10413092 -0.05401711 0.19544613
0.06349936 -0.010746881 -0.030498073 -0.05878021 0.020048782 -0.18705963 0.16833156 0.05102533
-0.19600487 -0.13695702 -0.054285467 0.17780647 -0.0676759 0.20950615 -0.16400144 0.18402621
-0.19249745 -0.017386988 -0.21768557 0.12838337 -0.09478532 -0.090507 -0.03434488 0.06316024
-0.10942179 0.12524247 -0.09161547 -0.04919827 0.13887757 -0.0013229102 0.1682345 0.19227844
-0.11800886 -0.1935696 0.11812201 -0.045331612 0.011698976 -0.21317324 0.032874674 -0.10499114
0.1473327 -0.119291656 -0.13140333 0.13553885 0.033357084 0.17006454 0.045726538 -0.112016276
0.17011723 0.16712892 0.04629171 -0.16031969 0.16608202 0.19719431 0.08787605 0.10069141
0.12203315 -0.2168853 -0.058596775 0.0037165433 -0.08488779 0.17856017 -0.16876635 0.15259531
0.15867236 -0.09913508 -0.073623896 0.010233074 -0.12918693 -0.078706235 -0.04201661 -0.08160031

prop_h_to_h.0.bias f4 [20]
00000000: 3af5 523e 387f b8bd 0ca5 e23d c766 e6bd
00000010: 400a 79bb 0e55 343e 50d0 133d 5026 0b3e
00000020: 91ac d4bd e2e3 543e 3a23 603e e053 1d3d
00000030: 9a77 1e3e d05f 9ebd acf5 8b3d 7040 d83d
00000040: 2cd0 23bd 04e3 80bd 08fc 36be 676b 44be
0.20601359 -0.0900864 0.110666364 -0.11250072 -0.0038000494 0.17610571 0.036087334 0.13588834
-0.10384477 0.20790055 0.21888438 0.038410068 0.15475312 -0.077331185 0.068339676 0.105591655
-0.03999345 -0.062933 -0.1786958 -0.19181596

prop_h_to_h.1.weight f4 [20, 20]
00000000: 3e42 593e b007 7ebc 46a7 a9bd de0c 3abe
00000010: 40aa 4fbe c89e 59be 4e98 5c3e 10ba fd3d
00000020: 205f a63d e861 a63d fccc 62be 00ae c53a
00000030: 1531 33be a00f 1d3e 976d 16be 2559 25be
00000040: ebb3 cebd eef2 21be 6461 03be 7497 52bd
00000050: e0b1 95bd f462 273e 700c fa3d 88d4 213e
00000060: d202 333e 0896 373d 7c97 5f3e 587d a7bd
00000070: b125 4fbe 7446 26be 1836 96bc f454 183e
00000080: 509c 9abc 8748 30be 3cab 3abd 6061 3fbe
00000090: 00e5 dc3b 7695 24be 90aa 5bbc e8f8 a23c
000000a0: 6e20 543e 72fa 573e 6c7f bb3d c85f 163e
000000b0: 0916 3dbe 7833 9bbc e089 113d 3e47 593e
000000c0: 985e 843d a6fb acbd 10b1 f3bc 2a04 b1bd
000000d0: 70c3 423d 949b 27bd f0a5 e83d 0098 b239
000000e0: a799 18be 1658 1c3e 92ae 38be 38f9 ebbc
000000f0: 085f 9a3c 173b 1abe e44b 1f3e 3872 0d3d
00000100: 78fd 31be 00a8 bebc c12f 56be c083 62bd
00000110: 0857 52be 04e2 0a3e 6471 5abe f2df 143e
00000120: a865 63bd 04f6 cb3d f054 59bc 30d2 c03d
00000130: 4c51 2dbd 4496 55bd 0a28 213e ec8b 443e
00000140: 98bb 7c3d c0e4 fc3d e023 91bd fe91 433e
00000150: 4481 d1bd 8807 343e ce90 b1bd c8d8 29bd
00000160: d08a 5b3c 201b ebbc 7c9f 8f3d d083 aa3d
00000170: a410 f83d 5cb4 01be e0ba 333d d7f6 51be
00000180: 2ed9 04be 62c4 0cbe 88f0 9c3d 5cad 2ebd
00000190: 98e7 63bd c048 093c d897 25be fceb f03d
000001a0: cffd e5bd d99e 45be 2967 0ebe 1666 bbbd
000001b0: 3fca cabd 54d3 d73d cff5 35be 9ab9 f1bd
000001c0: da85 5d3e 7b1b 4dbe 9093 1cbd c802 16be
000001d0: 6830 0b3d cca1 973d 3038 ab3c 4601 20be
000001e0: d8eb b23d d41e 413e 8cad b63d 900d 3fbd
000001f0: a08c 413d 7899 e63d b084 13be 2eb4 3cbe
00000200: 1e58 f6bd 6c82 163e 3a80 40be 00d8 553c
00000210: b836 95bd 98ed 4a3e 3c53 583e 70c0 af3c
00000220: 90d4 153e ea7c 603e 24b0 37be f83c cebc
00000230: be20 4e3e 9829 d43c 2023 afbc ac08 8b3d
00000240: f00c fd3d 760c 26be 4e6e 22be 7896 85bd
00000250: 60eb e63d 30e1 263e e496 2abe 24e9 b8bd
00000260: 884a e63d c48b c43d d67e 81bd 806f 673c
00000270: f79a d1bd 41c6 36be c091 00bd bc1b 86bd
00000280: 565b 223e 3eb4 22be c83e c0bc e8ae 98bc
00000290: f808 6d3d 2037 243d 9820 18be 5a6c edbd
000002a0: 127b 1fbe cb91 eebd 00a8 093d c06a 8cbb
000002b0: a214 92bd b9b4 3fbe fcfa 0fbd c0a2 283e
000002c0: 241f cc3d b44c b33d 0efb 033e 0c79 06be
000002d0: 24f9 bd3d 204f 0cbe 7037 123d e210 0ebe
000002e0: 6075 3b3c 9edf 5d3e 2ae0 393e 9812 21be
000002f0: 3c16 1a3e 3e03 23be e962 28be f5b3 1abe
00000300: 309a 1f3d 32b2 a6bd 24a5 193e 04dd 00be
00000310: 7cf4 5a3e 0004 063e 2667 00be 60be 513e
00000320: 8c2e 4c3e c706 ecbd 582d 44be 4cce a93d
00000330: 40e5 f73c 8094 41bd fcf2 803d d66c 15be
00000340: 267f 0cbe 8047 773d 4002 d13b f44f e6bd
00000350: f621 493e 9017 29bc 58ed 4ebe 8490 5ebd
00000360: b8fc e73d 8671 89bd 0c9f 583e d448 9d3d
00000370: 3e3e 253e 1862 8b3d 0732 41be 2ca4 e93d
00000380: 7ace 0abe 4c10 34be ecf9 283e 9e95 bdbd
00000390: 6ee0 533e 548f be3d 4855 523d c03e 27bc
000003a0: 2ef5 2cbe ca91 04be f875 f23d a46f dc3d
000003b0: 18af 253d b096 223e 8038 0c3c c06e dbbd
000003c0: 38a3 4bbe 018c fabd 00a0 6c3a d076 033e
000003d0: a940 49be da63 303e 00dc 8fbd f409 8d3d
000003e0: 9044 2c3e 5205 1d3e c82d 3d3e 4d32 50be
000003f0: d97c d8bd 8ec4 e0bd 71bf 09be 8c51 c6bd
0.21216676 -0.0155047625 -0.08283858 -0.18168971 -0.20279789 -0.21251976 0.21542475 0.12389004
0.081236124 0.08124143 -0.22148508 0.0015081763 -0.17499192 0.15337992 -0.14690243 -0.16147287
-0.100929104 -0.15815327 -0.1283012 -0.05141397 -0.073093176 0.16346341 0.122094035 0.1580373
0.17481545 0.044820815 0.2183513 -0.08178204 -0.20229222 -0.16237813 -0.01833634 0.14876157
-0.018873364 -0.17215167 -0.045573458 -0.1868949 0.006741166 -0.1607264 -0.0134073645 0.019894078
0.20715496 0.21091631 0.09155163 0.14684975 -0.18465437 -0.01894544 0.03553188 0.21218583
0.06463355 -0.08446436 -0.029747516 -0.08643372 0.047549665 -0.040919855 0.11359775 0.00034064054
-0.14902364 0.15267977 -0.18035343 -0.02880536 0.018844143 -0.15061603 0.15556294 0.034532756
-0.17381847 -0.023273468 -0.20916654 -0.055301428 -0.20541012 0.1356278 -0.21332318 0.14538553
-0.05551687 0.09959033 -0.01326488 0.0941509 -0.04231386 -0.052145258 0.1573793 0.19194001
0.06170234 0.12348318 -0.07086921 0.1909866 -0.102297336 0.17580998 -0.086701974 -0.041466504
0.013399795 -0.028699458 0.07012841 0.083259225 0.12112549 -0.12666458 0.04387939 -0.20504318
-0.12973472 -0.13746789 0.07663065 -0.042645797 -0.055640787 0.008379161 -0.16171205 0.117637604
-0.11230051 -0.19298877 -0.1390654 -0.09150331 -0.09901857 0.105383545 -0.1776955 -0.11802979
0.21633092 -0.20030014 -0.038226664 -0.14649498 0.03398171 0.07403907 0.020900816 -0.15625486
0.0873639 0.18859416 0.0891982 -0.046643794 0.04725325 0.112597406 -0.14406085 -0.18428108
-0.12028526 0.1469819 -0.18798915 0.013051987 -0.072858274 0.19817197 0.21125501 0.021454066
0.14631867 0.21922651 -0.17938286 -0.025175557 0.20129678 0.02589874 -0.021379054 0.067887634
0.12355983 -0.16215691 -0.1586239 -0.0652284 0.11275363 0.1629684 -0.16659123 -0.09028843
0.112446845 0.09596971 -0.0632302 0.014125705 -0.10234635 -0.17849065 -0.031388998 -0.06548259
0.15855154 -0.1588907 -0.023467436 -0.01863809 0.05786988 0.040091634 -0.14856184 -0.11592932
-0.15574291 -0.116489016 0.033607483 -0.0042851865 -0.07132842 -0.18721284 -0.035151467 0.16468334
0.09966877 0.08754864 0.12888739 -0.13132113 0.092760354 -0.13702059 0.0356974 -0.13873628
0.011441559 0.21667334 0.18151918 -0.15729749 0.15047544 -0.15919206 -0.16443981 -0.1510771
0.038965404 -0.08139457 0.15004402 -0.12584311 0.21382326 0.13087463 -0.12539348 0.20482779
0.19939631 -0.1152473 -0.19157922 0.08291301 0.030260682 -0.04726076 0.062963456 -0.14592299
-0.13720378 0.060370922 0.006378442 -0.112457186 0.19641861 -0.010320559 -0.20207727 -0.05433704
0.11327499 -0.06711106 0.21154422 0.076799065 0.16137025 0.06805819 -0.1886674 0.114082664
-0.13555327 -0.17584342 0.16501588 -0.09257053 0.20691082 0.093046814 0.05135086 -0.010207832
-0.16890404 -0.12946239 0.11838907 0.10763481 0.040450186 0.15877795 0.0085583925 -0.10714483
-0.19886482 -0.12233735 0.00090265274 0.12838292 -0.19653572 0.1722559 -0.070243835 0.06886664
0.1682303 0.15334061 0.18474495 -0.20331688 -0.10570688 -0.1097499 -0.13451935 -0.096835226

prop_h_to_h.1.bias f4 [20]
00000000: 6079 c43d 8a57 3abe 989d 003d e04d 42bc
00000010: 1cc7 0d3e 089f 683d b44d 8d3d 7452 573e
00000020: 40f6 6d3d 2296 c2bd 62a2 82bd 60bc 483e
00000030: 4c99 573e d6f2 bdbd 82b2 223e f04a 133d
00000040: e4ef d53d 70a7 b5bd 5c0f df3d e8a7 a13c
0.09593463 -0.18197456 0.031400293 -0.011859387 0.13845485 0.05679229 0.06899586 0.21027547
0.05809617 -0.09501292 -0.06378628 0.1960311 0.21054572 -0.09274833 0.15888408 0.035960138
0.10446146 -0.08869827 0.108916014 0.019733384

prop_h_to_h.2.weight f4 [20, 20]
00000000: 4076 8ebb c2b0 533e a5ef 06be 4476 0b3e
00000010: 682e d83c 925b 153e 7c82 c53d 6e37 093e
00000020: 6cd8 ce3d 702b 293d 20ce 003e b0e6 453c
00000030: e81b 1d3e 98fe f6bc b0c9 9b3d 809d 8e3c
00000040: f299 12be b0ac 53be 3c34 01be ea2d 24be
00000050: 247b 23be b089 3fbe 2066 ea3c 0030 c63c
00000060: 8040 9cba f00f cabd 60d8 133c 8812 68bd
00000070: 5efe b6bd a1a0 29be 58c1 6c3d 9980 16be
00000080: a688 24be c24b 5a3e 0ef2 173e 2803 29bd
00000090: 401b b73c 7287 303e 9cd8 4a3e 8cb1 4b3e
000000a0: 1014 74bd 4cf6 ae3d fc97 94bd 0c46 1fbe
000000b0: 8cf3 d5bd c8d9 f13d 601f 523d 9e4d 90bd
000000c0: b41f c03d 403a a8bd 98d1 bc3d ba2a 09be
000000d0: 8c33 ff3d c79d 0ebe c6a0 3abe 1697 22be
000000e0: e272 1d3e 6a53 453e 0cf1 de3d 4c03 e13d
000000f0: 488b f6bd e009 3f3e ce10 043e 30ca 323c
00000100: a66c 283e a41d 5c3e 887e a7bd 10f7 5a3d
00000110: be82 323e d85a 4d3d 109d 4c3d dc69 7bbd
00000120: 76ce 5a3e 0842 12bd c24c f8bd 8725 63be
00000130: e400 993d cce3 953d 74b3 a43d 5cb8 ed3d
00000140: 7cd8 83bd 6459 453e 109a 683d 04b8 d33d
00000150: 9093 c3bc a425 3b3e c0a4 023e c953 3dbe
00000160: 8009 b93d 6da6 5ebe 266c 463e cabc 203e
00000170: 6017 f23d d194 3ebe 6425 133e 14df 8f3d
00000180: c8d7 1e3d 4cfe a93d 785c 253e d026 5fbc
00000190: 7370 1ebe 20a5 4b3c 4e87 1e3e a27d 563e
000001a0: a7ad 47be 1edd 4e3e b6bc 043e 94e0 583e
000001b0: e409 07bd 2c48 2a3e 2a90 333e 9c23 09be
000001c0: b067 653d 5c01 363e 30ce 043e 3013 483d
000001d0: 6e0e 1e3e 04bd b93d a8ad f43d 20a1 883c
000001e0: b031 9f3d 485f 2b3e da57 593e 18dd 3e3e
000001f0: 10eb 86bd 600b bbbb a489 3fbd 80ef 1a3d
00000200: ba20 163e 2890 4e3e 967e 0d3e 6046 c83b
00000210: 649e 1e3e dae1 253e bcee d9bd 20da 87bd
00000220: 00f6 5abd afb2 0ebe f010 52bd c07d 4e3c
00000230: 4046 45be 60e9 2b3e ec31 84bd 73c8 f5bd
00000240: 30eb e53d dce4 f83d 62ac 06be d863 e0bc
00000250: a8f8 ae3d 4465 07be d63a b5bd d45d a63d
00000260: 1527 46be 1cae 8e3d b44f 003e 5ce8 be3d
00000270: 087b 243e 28df d0bc bc71 273e 6334 02be
00000280: f02b 32be 58b9 dd3d 849b fe3d f4fd 54bd
00000290: 2f5c 1dbe d081 f13c 40fb 84bb 424a 12be
000002a0: 3ca8 113e a86a a13d 20df 643e f226 9dbd
000002b0: 389f acbd 0879 b6bc ae8a 2ebe 98d2 49bd
000002c0: 2621 293e 34c8 e33d 6e22 11be a420 70bd
000002d0: f0a7 793d 4015 2fbe 183c 163e 74d9 f33d
000002e0: 8830 16be 8466 633e e006 b93d 9579 4fbe
000002f0: 4c3e 803d a014 243d fcc3 57be d586 39be
00000300: e8c5 1dbe 50e9 2b3d 20e5 49be fc26 f03d
00000310: 6888 843c 80d3 473d 40e3 c33d 6859 71bd
00000320: cce0 003e 606b c83d a476 963d 2e87 35be
00000330: fe76 2f3e 3450 153e df8b 1fbe 780f 943c
00000340: b8f4 5ebd a3a4 d1bd 0c06 7cbd b666 a2bd
00000350: 41b1 63be abc2 f6bd a007 86bb c634 36be
00000360: dc54 1cbd 2641 20be 0c36 893d 8cc4 023e
00000370: d417 97bd 58ba dcbd 8bb3 5bbe b61b 4d3e
00000380: 4858 86bc fa2f d5bd d745 17be 98d2 c23c
00000390: d870 77bd e210 37be 4878 623d 0815 21bd
000003a0: 0e67 303e 0830 0a3d f49d 323e 142c 5f3e
000003b0: 0044 0139 d8d7 d1bc de9c 193e ba26 343e
000003c0: 1ce8 d73d 7f9d 52be 882d f63d 62d9 a4bd
000003d0: 28ef 41be e81b 573d 8ce1 86bd 9d5e 59be
000003e0: f06a ebbc 6691 30be 5e6e 3f3e 2622 b4bd
000003f0: 703a 973d 08ad 6e3d 3686 4f3e 00f5 c13d
-0.0043475926 0.20672897 -0.13177355 0.13619334 0.026389316 0.14585713 0.096440285 0.13400051
0.10099873 0.04130119 0.1257863 0.012078926 0.15342677 -0.030150697 0.07606828 0.017409086
-0.14316538 -0.20671344 -0.12617582 -0.1603314 -0.15964943 -0.18704867 0.02861315 0.02419281
-0.0011921078 -0.09866321 0.009023756 -0.056658298 -0.089352354 -0.16565181 0.057801574 -0.14697494
-0.16067752 0.21317962 0.1483843 -0.041262776 0.022351861 0.17239168 0.19809192 0.19891948
-0.059589446 0.08543071 -0.07255551 -0.15554065 -0.104468435 0.118091166 0.051299453 -0.07046054
0.09381047 -0.08214235 0.09219664 -0.13395205 0.12461004 -0.13927375 -0.18225393 -0.15877947
0.15375856 0.19270101 0.1088582 0.10986957 -0.120382845 0.18656111 0.12897035 0.010912463
0.16447696 0.21495682 -0.08178431 0.053458273 0.17432687 0.050135463 0.049954474 -0.061380252
0.21367821 -0.035707504 -0.121240154 -0.22182284 0.07470873 0.073188394 0.080420405 0.116074294
-0.064377755 0.19272381 0.05678755 0.103378326 -0.023874074 0.18276078 0.1275816 -0.18488993
0.09035015 -0.21743174 0.19377193 0.15697017 0.11820865 -0.18611456 0.14369732 0.07024971
0.038780004 0.083004564 0.16148555 -0.013620093 -0.15472583 0.012429506 0.15481302 0.20946363
-0.19499837 0.20201537 0.12962613 0.2117942 -0.032968417 0.16629094 0.17535463 -0.1339249
0.056007087 0.17773956 0.1296928 0.048846424 0.15435192 0.09069255 0.11947185 0.016678393
0.07773149 0.16735566 0.21224919 0.18639028 -0.06587803 -0.005708143 -0.046762124 0.03782606
0.14660922 0.20172179 0.1381782 0.006111905 0.15490109 0.16199437 -0.10641238 -0.06633401
-0.05345726 -0.1393535 -0.051285684 0.012603223 -0.1926508 0.16788244 -0.06454834 -0.12001123
0.11226499 0.121530265 -0.13151696 -0.02739136 0.08543521 -0.13222224 -0.08849113 0.08123365
-0.19350846 0.069668025 0.12530404 0.09321663 0.16062558 -0.025497034 0.1635198 -0.12715296
-0.17399573 0.10826367 0.12432006 -0.052 -0.15367197 0.029480845 -0.0040582716 -0.1428614
0.14224333 0.07881671 0.2235074 -0.07673444 -0.08428806 -0.02227451 -0.1704509 -0.049273103
0.16516551 0.1112217 -0.1417329 -0.05862488 0.060951173 -0.1709795 0.14671361 0.1190671
-0.1466695 0.22207075 0.090345144 -0.20261224 0.06261882 0.040058732 -0.21070856 -0.1811784
-0.15407526 0.04197055 -0.1971631 0.11726186 0.016178325 0.048785686 0.09564829 -0.058923155
0.12585753 0.09786105 0.07346848 -0.17727348 0.17135236 0.14581376 -0.155807 0.018073782
-0.0544326 -0.1023648 -0.061529204 -0.07929747 -0.22235586 -0.12048849 -0.0040902644 -0.17793569
-0.038166866 -0.15649852 0.06699762 0.12770289 -0.07377592 -0.1077773 -0.21455209 0.20030102
-0.016399518 -0.104095414 -0.14772736 0.02378206 -0.06041035 -0.17877534 0.05529049 -0.039326698
0.17226812 0.033737212 0.17443067 0.21794158 0.0001232773 -0.025615618 0.15001246 0.17592898
0.10542318 -0.20567892 0.12020403 -0.08049275 -0.18938887 0.052516848 -0.065859884 -0.21227498
-0.028737515 -0.17242965 0.18694445 -0.08795576 0.07384193 0.058270484 0.20266041 0.09470558

prop_h_to_h.2.bias f4 [20]
00000000: 8056 c4bc 2013 9bbb 588a 943c 6073 dc3c
00000010: 332b 48be 5024 4cbd 6411 283e 046e 45bd
00000020: 7bca 58be fc15 01bd b218 03be 6415 4cbe
00000030: 009c 14bc e015 39be 06d7 a7bd d840 563e
00000040: b8b5 223e 1c74 f03d 0e1a 4b3e 1fd6 4cbe
-0.023967028 -0.0047325045 0.018132374 0.026910484 -0.19547729 -0.049839318 0.16412884 -0.048200622
-0.2117099 -0.031515107 -0.1280239 -0.19930035 -0.009070396 -0.18074751 -0.08195309 0.20923173
0.15889633 0.11740896 0.19834158 -0.20003556

prop_h_to_h.3.weight f4 [20, 20]
00000000: e43f abbd 00d9 ca3d 1ec8 283e e011 9a3d
00000010: 70b0 4abe 182a 353e d8ab 183e 2456 75bd
00000020: 1b82 25be 3496 4c3e 449e 4d3e 7c32 abbd
00000030: 309a f3bc 06cd 85bd 5c41 273e 5608 063e
00000040: c0bc ec3c f438 1ebd fe75 553e 2013 e5bb
00000050: 0e57 3c3e e37d 54be 6450 c2bd 7259 91bd
00000060: 387e 1c3d 9494 d13d acd7 f03d 2056 d9bb
00000070: 8098 5b3b 9451 083e 5a1e 01be 8227 133e
00000080: 79f5 48be 7425 65bd 48ad 71bd 72ac 0bbe
00000090: 90c7 0bbe 1caa 043e 848a 84bd f054 a83c
000000a0: bb16 3ebe d809 4cbd e42e 4a3e dcc2 e73d
000000b0: b030 fe3d 4ca0 b03d 3864 b43d 42b5 d3bd
000000c0: 60d9 2a3c 0024 023d 96d6 96bd 0e95 03be
000000d0: bde6 2bbe 00c5 c53d ccd6 2f3e d020 3abd
000000e0: 56b4 423e 7c92 1c3e d481 413e 2a77 c6bd
000000f0: e467 a63d c82b 5c3e 1094 b43d 1021 b1bc
00000100: ac46 d13d c0d8 873d c890 1b3d a0b1 563e
00000110: cc03 5fbd cc20 2cbd 8667 59be 4813 cd3d
00000120: 708d e7bc 2c68 883d 5c4c e83d e647 493e
00000130: c857 a03c 6289 3abe 004f d33c 3809 503e
00000140: ac44 373e 1ec9 b5bd f086 463d d454 4cbe
00000150: b0f2 df3d 201c 7a3d a64a 403e f953 35be
00000160: f099 273d 673e efbd 1539 51be 2c55 f33d
00000170: 7022 423e bc52 a93d 455f 11be 4ef0 5b3e
00000180: a837 b83d 507d ee3c dc20 043e b015 e03d
00000190: 4e11 83bd 8071 2e3d 1022 6fbd d8b4 fe3d
000001a0: 5874 c93d 98a7 5d3d abe0 3bbe 33ed 25be
000001b0: b024 613c 8c57 66bd fc53 e0bd f402 043e
000001c0: 408b 8bbd 282e 633e 8dcd d7bd d81a 453e
000001d0: e053 f33c 5440 afbd 52ab 5cbe 30c4 a1bd
000001e0: 0672 283e 683e 14bd e0c7 733d a7f3 d8bd
000001f0: 3b57 3cbe a0cf b83b 9031 923d 84ca e13d
00000200: d0c8 66bc 74fd c83d 6c27 a63d 6fb2 40be
00000210: d4c3 59bd f23b 343e 54df f63d 80a9 c93d
00000220: 5f75 10be 4658 473e 7e1e 3f3e 126f 1b3e
00000230: f0cd 953d 1ed8 34be 56f3 21be d440 2c3e
00000240: f42e aebd 60da cfbc ec01 95bd 8443 cb3d
00000250: e2b9 233e a022 6a3d 8032 5e3d fcf8 d43d
00000260: ccf7 c73d ac64 df3d e85f 833c 523b 493e
00000270: e44d 8f3d e0b4 f23d 74e7 153e a631 0c3e
00000280: 800a fe3b d2ff b6bd c8b5 d33d f0b5 f83d
00000290: 1da7 62be 2063 8abd 0262 5b3e 46fa 4cbe
000002a0: 90c0 2b3d 88b7 303d 2c5a f43d babd 233e
000002b0: 21d5 4cbe 2e61 323e 70b1 883d 1a02 4f3e
000002c0: 627c 643e 8d0c 0abe e80d b43d 8c49 2f3e
000002d0: a41e ef3d e03a 613e 7c55 f33d 2af9 95bd
000002e0: 3067 7f3c a806 82bc 0ac3 64be 3012 f93c
000002f0: 1a26 3bbe d564 ecbd 44d7 3f3e 4e9a afbd
00000300: d4c7 f8bd fcbc 24be 1c1d 22be 76ce 0a3e
00000310: 7c38 003e e659 343e a6d8 4c3e a181 f9bd
00000320: ac84 a73d 5a26 17be 80d9 043d 2cf6 f1bd
00000330: 529e c1bd 648c 453e 19bf 33be feb3 48be
00000340: 20c7 b0bb c8c5 f33d a43c 0ebe 9cda c3bd
00000350: e867 99bc fcba 9dbd 7d67 1dbe e004 91bd
00000360: 68ca 1abe 8080 27be 04f4 353e 2884 223e
00000370: b057 2a3d b1d2 27be 32eb 9bbd c069 e83d
00000380: 8008 1fbe 6066 20bd 009c 5e3b a891 4bbd
00000390: a289 093e e23c 073e 8427 f33d 4cd2 b03d
000003a0: 859b dfbd 4a99 563e b752 43be b247 503e
000003b0: 346a 123e cb62 62be 20c3 36bc f2f0 0dbe
000003c0: 2059 853b 50c4 b6bd 4a13 0f3e c005 d93b
000003d0: 6866 0e3d 106f a7bd d46d e3bd d93d e8bd
000003e0: dc1b 49be 40b8 dc3d d239 82bd 7066 20be
000003f0: f8ee 60bd 1c6e 1bbe 7023 24bc fe74 573e
-0.083617955 0.09904671 0.16482589 0.07522941 -0.19793868 0.17691839 0.14909303 -0.059896603
-0.16162913 0.19979173 0.20079905 -0.083592385 -0.029736608 -0.06533246 0.16333526 0.13089117
0.028898597 -0.038628533 0.20845792 -0.0069908053 0.18392584 -0.20751147 -0.094879895 -0.070971385
0.03820631 0.10233417 0.11759886 -0.0066325814 0.0033507645 0.1331237 -0.12609234 0.1437054
-0.1962489 -0.05594392 -0.059003145 -0.13640001 -0.13650346 0.12955517 -0.06471732 0.020548314
-0.18563358 -0.049814075 0.1974445 0.11316463 0.1241163 0.08624324 0.08808178 -0.103373066
0.010427803 0.031772614 -0.07365148 -0.12849829 -0.16787238 0.096567154 0.17171782 -0.04544145
0.19014105 0.15290254 0.18897182 -0.096906975 0.08125284 0.21501076 0.08817303 -0.02162221
0.10218558 0.06633139 0.03797987 0.20966196 -0.05444698 -0.042023465 -0.21230897 0.10013443
-0.028265685 0.06660494 0.113426894 0.19656333 0.019573107 -0.1821647 0.025794506 0.20316017
0.1789729 -0.08876251 0.04846853 -0.19954234 0.10934961 0.06106198 0.18778476 -0.17707814
0.04091829 -0.11681824 -0.20431931 0.118814796 0.1895845 0.082677335 -0.14196499 0.21478388
0.089949906 0.029112488 0.1290316 0.109416366 -0.06399785 0.04258871 -0.058382094 0.12436837
0.09836644 0.054114908 -0.18347423 -0.16203766 0.013741657 -0.056235835 -0.10953519 0.12891752
-0.06813669 0.22185576 -0.105372526 0.19248521 0.02970308 -0.085571915 -0.21549729 -0.07898748
0.16449746 -0.036192328 0.059516788 -0.10593348 -0.18392651 0.005639985 0.071383595 0.11024955
-0.014085963 0.09813967 0.08112988 -0.18818067 -0.053165272 0.17600992 0.12054315 0.09846783
-0.14107274 0.19467267 0.18663976 0.15179089 0.0731467 -0.17660567 -0.15815482 0.16821605
-0.08505049 -0.025372684 -0.07275757 0.09924987 0.15988877 0.057161927 0.05424738 0.103990525
0.097640604 0.109078735 0.016036943 0.19651535 0.06997278 0.118509054 0.14639074 0.13690814
0.0077527165 -0.089355126 0.103374064 0.12144077 -0.22134061 -0.06757188 0.21424106 -0.20017347
0.04193169 0.04314378 0.119312614 0.15990344 -0.20003177 0.17419884 0.066744685 0.20215645
0.22313073 -0.1348135 0.08791715 0.171179 0.11675766 0.21995115 0.11881539 -0.07322915
0.015588567 -0.015872315 -0.22340026 0.03040418 -0.18276253 -0.1154267 0.18734461 -0.08574353
-0.12147489 -0.16087717 -0.15831417 0.13555321 0.12521547 0.17612419 0.2000452 -0.12182928
0.08179602 -0.14760724 0.032433987 -0.11814532 -0.09454025 0.19291836 -0.17553367 -0.19599912
-0.0053948313 0.11902958 -0.1389032 -0.09563181 -0.018726304 -0.0770168 -0.15371509 -0.07081008
-0.15116274 -0.16357613 0.17768866 0.15870726 0.04158753 -0.16388966 -0.07613219 0.11348295
-0.15530586 -0.039160132 0.0033967495 -0.049699455 0.13431409 0.13206819 0.118727714 0.08633861
-0.10918335 0.20956913 -0.19074522 0.2033985 0.14298326 -0.22107999 -0.01115492 -0.13861445
0.0040694624 -0.089241624 0.13972202 0.006623 0.03476563 -0.0817548 -0.111049324 -0.113399215
-0.19639534 0.107773304 -0.063586846 -0.15664077 -0.0549154 -0.15178722 -0.010018215 0.21040723

prop_h_to_h.3.bias f4 [20]
00000000: 44f6 8a3d 6cf6 7cbd 6c75 e63d b800 adbd
00000010: 70e4 a83c 3e49 183e 16d5 9cbd 2042 a6bd
00000020: 6c41 023e 8c40 f93d 5819 cb3c e488 11be
00000030: e876 443e 7cb9 233e 945b fbbd 8a9a 34be
00000040: 1885 11be a21a 593e b0c7 8dbc 08f5 823c
0.06785253 -0.061758444 0.11252865 -0.08447403 0.02061674 0.1487169 -0.076578304 -0.08118081
0.12720269 0.121705145 0.024792358 -0.14212376 0.19185984 0.15988725 -0.122733265 -0.17637077
-0.14210927 0.21201566 -0.017307132 0.01598598

prop_h_to_h.4.weight f4 [20, 20]
00000000: 7cb9 3cbd d943 63be e438 ed3d 527c 3a3e
00000010: 305b 093c 58b5 213d c7a6 ccbd 3459 07be
00000020: 0046 5a3d 5cf3 7cbd a093 b93c 00d8 f83d
00000030: f011 093d da1a 4f3e dcbb 54be 9896 303e
00000040: c8de dcbc 9880 b53d b803 6e3d 3033 343d
00000050: 00a3 823d fcb2 82bd 1c3f 67bd 00b4 0d3e
00000060: fe18 013e 76e9 a9bd 1857 d43c 5059 573d
00000070: 9b8f 48be 827b 443e 8070 62bc ecc2 cbbd
00000080: 50ab 053e eb04 20be 190c 1abe 86b7 183e
00000090: 701d 013c c893 8e3c 94ff c73d f879 1bbe
000000a0: 6067 b13b 56fb 2b3e a84f 213e 6276 513e
000000b0: 78a7 f6bd 5cb3 ca3d e880 07bd 4bea 50be
000000c0: 606e 57bd cc64 0a3e f051 64be a46a b03d
000000d0: f236 48be 00a0 8a3a 2ca5 5fbd b280 3dbe
000000e0: 490f 2abe a51c 1ebe 90a4 e73d 0011 3f3d
000000f0: 70cc 67bc 2ac5 c8bd d04a 12be 5ce8 5e3e
00000100: b203 303e bc33 943d 1c78 28bd a7d3 4fbe
00000110: 10ba b5bc 98d2 cfbc 2c62 363e d489 3abe
00000120: c49b ad3d 5eee 45be 3894 023d 3af9 f6bd
00000130: 0897 14be 3a1b 093e aa98 483e 3ac5 3e3e
00000140: 001e 913a 0821 5e3e c4af 8c3d 387e fdbc
00000150: 7f3f 4dbe 60da f5bc ada7 f3bd f679 5a3e
00000160: ae9d 213e 1ca9 e8bd 420a 89bd 3626 5d3e
00000170: d233 a2bd c5cc eebd 689a 153d d451 083e
00000180: 5e73 113e ac2d e23d 4c49 293e 80b3 16be
00000190: 9047 2cbc 783c 7dbd 8684 d2bd 600c d93d
000001a0: 68bf 853d 641e a13d 0006 acb9 7c27 e83d
000001b0: a0b9 b9bd b03b 4a3c 6a92 47be 607e 0cbd
000001c0: 9edd 0d3e 30da c03d c696 f9bd 1c56 bbbd
000001d0: 40ce 2cbe 3684 8dbd 81c3 d7bd 40fc 0e3d
000001e0: 4041 46be b0f1 36bc d4e7 8abd 3204 a8bd
000001f0: e4c4 553e bc19 5dbe 7aae 22be 724f 2cbe
00000200: 6483 3fbe 64bb 38bd 1cdd f7bd 844b 803d
00000210: 70d2 973d bcbd 343e 1414 b73d 987f a83d
00000220: dccd 34bd f48a 643e 2c46 d93d f814 253d
00000230: c23e aebd 2484 04bd 20cb c73b 5cd4 333e
00000240: 742a aa3d f8f3 efbc 963c 00be c078 963c
00000250: ac16 8f3d 6a81 34be 3088 713c 90e6 be3d
00000260: a452 20bd c0d5 1f3e e0ab 053c e89c 253d
00000270: e873 363e 0d71 1fbe ab0f 53be c016 59be
00000280: 1c3a e13d e064 fc3c 1897 c93c 8268 0ebe
00000290: be3a d7bd 1a92 efbd 9009 cc3d 5c9b 29be
000002a0: b030 633c 3730 3fbe 42b9 2bbe d405 2c3e
000002b0: f060 4fbc 0ec0 26be 20b2 973d 4a9b 5fbe
000002c0: b413 07be f298 2f3e 2043 b6bd 0188 f9bd
000002d0: 08a6 e23d ec15 2b3e 3c6c 3dbe c09f 613b
000002e0: 242d 183e e8e2 bf3d c039 56bb c8a9 db3d
000002f0: 4cf3 e63d b04e 6e3d 7429 2bbd 58a2 5b3d
00000300: 50f5 693d 141d 9cbd e64b 90bd 7c77 533e
00000310: 83f9 62be c095 e13b 9f2c 0cbe eef9 3ebe
00000320: 535f 4dbe 6efa 193e 1c1f ef3d e09c 263c
00000330: 8c1a fe3d 72af 3fbe b108 3bbe d3f9 4bbe
00000340: 10b0 0cbe 7039 d13d d002 57bc 44bf 14be
00000350: 4468 3f3e 8473 813d b05d 81bc 5815 30bd
00000360: f4d1 01be 8f67 ddbd 20d0 b8bb 5175 d9bd
00000370: 1865 44bd 77d0 43be 724e 303e c43a 5ebe
00000380: f324 ecbd 0439 b43d 4072 0a3d acc2 923d
00000390: e665 92bd e4c6 8d3d 94fe 083e ba1a 3d3e
000003a0: 90f8 febc 0828 c03c e83c e5bd 8df9 05be
000003b0: f88b dd3d ee31 593e 3c29 9e3d ea48 efbd
000003c0: 6054 32bc c7db 06be c88f c03d 9c72 95bd
000003d0: 90bf 5d3d 5286 263e 74e3 5cbe b697 0bbe
000003e0: 40cc f93d d66d 2f3e 75d2 dfbd c050 6dbc
000003f0: 5ca0 533e 90b8 013d 00c8 f2b9 b4a8 7fbd
-0.04607533 -0.2219385 0.11583117 0.18211487 0.008383557 0.039479584 -0.09992748 -0.13217622
0.053289413 -0.061755523 0.0226534 0.12150574 0.033464372 0.20225087 -0.20774788 0.17244947
-0.0269617 0.08862418 0.058109015 0.04399413 0.06378746 -0.06381795 -0.05645667 0.13838196
0.1260719 -0.08296482 0.025920436 0.05257541 -0.19586031 0.1918774 -0.013820767 -0.09949288
0.13053632 -0.15626876 -0.15043677 0.14913759 0.007880554 0.017404452 0.097655445 -0.15183246
0.0054139346 0.16795096 0.15753043 0.20455316 -0.12043661 0.09897491 -0.03308192 -0.20401876
-0.052595496 0.13515013 -0.22296882 0.0861409 -0.1955221 0.0010576248 -0.05460088 -0.18506125
-0.16607393 -0.15440615 0.11310685 0.04664707 -0.014147863 -0.09803231 -0.14286351 0.21768326
0.1718891 0.0723643 -0.04113017 -0.20295583 -0.022183448 -0.025368974 0.17810887 -0.1821664
0.084769756 -0.19329211 0.031879634 -0.12059255 -0.14510739 0.13389292 0.19589487 0.18629923
0.0011071563 0.21692288 0.06869462 -0.030943975 -0.20043753 -0.030011356 -0.11897216 0.21335587
0.15782806 -0.1136038 -0.0669141 0.21596608 -0.0792004 -0.116601504 0.036524206 0.13312465
0.14204165 0.110438675 0.16531867 -0.14716911 -0.010515109 -0.061825246 -0.10279183 0.105980635
0.065306485 0.07867125 -0.00032810867 0.11335656 -0.09068608 0.012343332 -0.19489446 -0.034300208
0.13854071 0.09416616 -0.12186961 -0.091472834 -0.16875553 -0.06909983 -0.10535336 0.034908533
-0.19360828 -0.011166021 -0.06782499 -0.08203925 0.20875889 -0.21591848 -0.1588687 -0.16827181
-0.18702465 -0.045100585 -0.1210272 0.062644035 0.07413185 0.17650503 0.089393765 0.082274616
-0.044141635 0.22318631 0.10609087 0.0403032 -0.08508064 -0.03235258 0.0060972124 0.17561477
0.083088785 -0.029291138 -0.12523112 0.018368125 0.06986746 -0.17627493 0.014741942 0.0932132
-0.039141312 0.15608883 0.008158654 0.04043284 0.17817652 -0.15570469 -0.20611446 -0.21200085
0.109974116 0.03080982 0.02460818 -0.13907054 -0.10509251 -0.116977885 0.099627614 -0.16563171
0.0138665885 -0.18670736 -0.16769889 0.16799098 -0.012657389 -0.162842 0.074070215 -0.21836582
-0.1319111 0.17148188 -0.08899522 -0.12184144 0.11066824 0.16707581 -0.1849832 0.0034427494
0.1486097 0.09369451 -0.003268823 0.107257426 0.11276874 0.05818051 -0.04178758 0.05362162
0.057118714 -0.07622734 -0.070457265 0.20651048 -0.22165494 0.0068843067 -0.13688897 -0.18650028
-0.20055895 0.15036938 0.116758555 0.010169238 0.12407407 -0.18719271 -0.18265034 -0.19919519
-0.13739038 0.102160335 -0.013123229 -0.14526087 0.18692118 0.06320861 -0.015791744 -0.042989105
-0.12677747 -0.10810768 -0.005640045 -0.106180795 -0.047947973 -0.19122492 0.17217425 -0.21702105
-0.11530485 0.08799937 0.033800364 0.07166037 -0.07148342 0.06922701 0.13378364 0.18467227
-0.031124383 0.023456588 -0.111932576 -0.13083477 0.108177125 0.21210453 0.077227086 -0.11683829
-0.010884374 -0.13169776 0.09402424 -0.07297251 0.054137766 0.16262177 -0.21571141 -0.13632092
0.12197161 0.17131743 -0.10928813 -0.014484584 0.20666641 0.031670153 -0.00046306849 -0.062416747

prop_h_to_h.4.bias f4 [20]
00000000: 0000 d03c b9a2 02be 5ba9 40be 9037 933d
00000010: 2023 f8bb 84a9 8a3d c32d 43be 7977 39be
00000020: 0ccb a93d c0dd 353c 406c d53c a8eb 523d
00000030: 624c 1dbe 683a 49be b6ce 3e3e a0bc ca3d
00000040: 48b5 a5bc 68b7 163e 603e 3abe 1c5e b13d
0.025390625 -0.12757386 -0.18814604 0.07188332 -0.0075725466 0.06770614 -0.19060425 -0.18111981
0.08290681 0.011100233 0.026052594 0.05149427 -0.15361169 -0.19651186 0.18633541 0.098992586
-0.020228043 0.14718401 -0.18187857 0.08660528

prop_h_to_h.5.weight f4 [20, 20]
00000000: 303f b53c a693 52be 2414 af3d f804 42bd
00000010: ff68 1cbe 8052 0f3d 804e fbba e8e8 a33d
00000020: 3ebc 61be 036c 29be 2a4b f6bd 16bc 103e
00000030: f4c9 c53d 3622 e5bd 0caa 523e 9496 10bd
00000040: 6ccb f63d 588f b33d e1ec 2dbe 24ab a03d
00000050: 5004 873c c6b6 9abd 78e9 46bd c0f1 e33d
00000060: 608c d13c ef96 5ebe ac5e debd 4543 33be
00000070: 08c7 30be b616 2e3e 66c4 debd 1c70 54be
00000080: b071 69bc 3c8f 303e 6ab8 063e 3086 a0bc
00000090: 4470 903d 4093 91bc 20f2 423d f0c6 e03c
000000a0: 4e89 593e be80 083e 98ce bf3d 6349 d0bd
000000b0: b0f1 a63d f0c4 ba3d 48a6 3e3e 08ca 583e
000000c0: c48f 10bd e8b2 133e 1842 9e3c e68f 38be
000000d0: 80ee 153b 6824 adbc ecc9 1ebe 60f6 aa3b
000000e0: 8803 893c cccd 4b3e e334 32be 1037 eb3c
000000f0: 34f3 593e 3a58 29be ac55 063e b4ab d73d
00000100: e416 ce3d 16ba babd e877 703d 7c2c 18be
00000110: 30b8 723d 18c6 273d e0d7 eabb 58f1 0d3e
00000120: 6c19 52be c094 2d3d 990f f5bd 360b 2abe
00000130: 00d3 e43d 5303 64be 9a03 41be b057 df3d
00000140: 68a5 393e 5652 c3bd 38a8 403e 3c53 c23d
00000150: b667 a7bd 2cb8 343e 32c8 133e fbcf 09be
00000160: bafb 143e 1683 1f3e bae9 513e cc27 f83d
00000170: 7017 7cbd 563a 82bd 3445 5b3e 5c12 4a3e
00000180: 5e57 e2bd de19 163e 6039 b83b 5c65 603e
00000190: 7a78 48be 9a7d 00be 948d 183e 5963 32be
000001a0: cab9 103e d68b 623e d0d5 a53c 0c8c 97bd
000001b0: 0c31 64bd 1e71 92bd 002a 593b e68b 5c3e
000001c0: adbc 38be f077 a1bc ce18 1fbe f09c 183c
000001d0: 607b bbbb 8ecb 39be 90d5 793d 9131 4bbe
000001e0: 6004 b93d e344 eebd c0d3 563d 5c5e c13d
000001f0: 7812 873d f4be 16be d8f8 863d 6045 e3bc
00000200: 4d87 e1bd 5a57 08be 00e5 403e 50b2 113d
00000210: 0c16 c93d 00f9 d5bd 08ae ed3d f264 0d3e
00000220: 1a57 abbd 147e 003e d69c 12be 38c8 a6bc
00000230: 0e24 c0bd f073 803d 1822 413d 5c49 1a3e
00000240: b0e7 48bd b414 333e 1c09 63bd b7b1 0bbe
00000250: b344 39be c4f7 c03d f684 4ebe c889 c83d
00000260: 488b 47be 0889 863c 98ba 55bd fcad 0a3e
00000270: 148a ea3d bf45 38be e539 48be 051e debd
00000280: 80ab 48be 802c da3b 6d78 d5bd b8c9 9d3c
00000290: a798 4ebe ea56 213e 8c0d c1bd 4480 c93d
000002a0: bc68 c63d 737d cabd 0cce db3d 7085 2cbe
000002b0: a0a2 adbc 66f7 3ebe b80e 16be 5299 14be
000002c0: e0d0 783d 46a5 4d3e 78d4 833d a061 933d
000002d0: 0b82 fdbd 7878 623d acd3 1dbd a4a5 bbbd
000002e0: 88e5 c6bd 14cf 72bd 004f 063b 70f0 a5bc
000002f0: 38d2 33be 026c 64be a0f0 b93d ea51 513e
00000300: bc48 413e e4bb 9f3d 1009 2c3e 50f1 d4bc
00000310: 086a acbc d291 5e3e 16cf 273e b60b 303e
00000320: e41d 013e 5c29 52be 42c7 353e d02b 24bc
00000330: 947f 2b3e d85b c33c 1e4b 13be cc24 2c3e
00000340: 5eea 073e d789 5dbe 7677 90bd 7279 593e
00000350: 0404 c03d 7d93 e1bd 3012 ab3d e8a9 8dbc
00000360: f6ed 89bd 902d e83c c418 1abd b8ec 0abe
00000370: eefa 553e fcde 513e d0a6 43be 5a31 643e
00000380: 8e84 4c3e 002a 32bb 08b6 4ebd 4878 dbbc
00000390: ce24 a3bd 18a1 853d 166f 15be 3445 1a3e
000003a0: fe25 1bbe 6c42 1cbd 6e8b 31be 9498 de3d
000003b0: 0aa8 4c3e da6a 623e c377 09be f09f 233c
000003c0: 54ac 823d 71b6 09be 8cb0 f33d b0b1 1a3c
000003d0: 931b 2dbe 13ad 38be e006 d33d 8820 41bd
000003e0: 675d d9bd 581f 1f3d bcb4 ef3d a8d3 1dbe
000003f0: a74f 2fbe c032 1c3b 3886 e13d 34a6 0cbe
0.022124857 -0.20564136 0.085487634 -0.04736802 -0.15274428 0.034990788 -0.0019173175 0.08003408
-0.22044465 -0.1654511 -0.12026055 0.14134249 0.0965766 -0.11188166 0.2057268 -0.035299852
0.120505184 0.08767575 -0.16984893 0.078451425 0.016481549 -0.075543925 -0.048562497 0.111300945
0.025579631 -0.21737264 -0.10857901 -0.1750613 -0.17263424 0.17000851 -0.10877304 -0.20745891
-0.014248297 0.1724214 0.13156286 -0.019595236 0.07052663 -0.01777041 0.04759419 0.02743861
0.21243784 0.13330361 0.093655765 -0.101702474 0.08151567 0.09119594 0.18618119 0.21170819
-0.035293356 0.14423716 0.019318625 -0.18023643 0.0022877753 -0.021135524 -0.15506715 0.0052173585
0.016725317 0.19902724 -0.17402987 0.02871278 0.21284181 -0.16537562 0.13118619 0.10530797
0.1006296 -0.09117524 0.0587081 -0.1486072 0.059257686 0.0409604 -0.0071668476 0.13861597
-0.2051751 0.042378187 -0.11965866 -0.16605839 0.111730576 -0.22266893 -0.1884903 0.10905397
0.18129504 -0.09537189 0.1881417 0.09488532 -0.08174078 0.17648381 0.14431837 -0.13458245
0.14549151 0.15577349 0.20499316 0.12116966 -0.06154579 -0.06358783 0.21413118 0.19733566
-0.1105182 0.14658305 0.005622074 0.21913666 -0.19577208 -0.12547913 0.14897758 -0.1742071
0.14133373 0.22123656 0.020243555 -0.07399759 -0.055710837 -0.07150482 0.0033136606 0.21537742
-0.18040724 -0.019710511 -0.15536806 0.009314761 -0.0057214946 -0.18144056 0.060994685 -0.19843127
0.090340376 -0.11634233 0.052448034 0.09441826 0.065953195 -0.1472128 0.06590432 -0.027743042
-0.11012135 -0.13314572 0.18837357 0.035570443 0.09818658 -0.104478836 0.116054595 0.13808039
-0.08366223 0.12548095 -0.1431764 -0.020359144 -0.09381877 0.06272113 0.047151655 0.15067047
-0.04904908 0.17488366 -0.05542861 -0.13642012 -0.18092613 0.094222575 -0.20167908 0.09791905
-0.19486725 0.016422763 -0.052179903 0.13542932 0.114521176 -0.17995356 -0.19553335 -0.108455695
-0.19596672 0.006658137 -0.1042336 0.019261226 -0.2017542 0.15755811 -0.09426412 0.09838918
0.09687945 -0.09887209 0.1073266 -0.16847777 -0.02119571 -0.18649063 -0.14654052 -0.14511612
0.060746074 0.20082578 0.064370096 0.07196355 -0.12378319 0.05529067 -0.038531944 -0.09162453
-0.09711748 -0.059279516 0.0020493865 -0.020256251 -0.17560661 -0.22306827 0.09079099 0.20441404
0.18875402 0.07799509 0.16800332 -0.025993973 -0.021046653 0.21735314 0.16387591 0.17191967
0.12609059 -0.2052359 0.17751792 -0.010020211 0.16747886 0.023847505 -0.14384124 0.16810912
0.13272998 -0.21634613 -0.07054035 0.21237734 0.09375766 -0.11014459 0.08353078 -0.017292932
-0.067348406 0.028342038 -0.037621275 -0.13566864 0.20896503 0.20495218 -0.19106603 0.22284451
0.1997244 -0.0027185678 -0.050466567 -0.026790753 -0.07966004 0.06524867 -0.14593157 0.15065461
-0.15151212 -0.038149282 -0.17338344 0.10868946 0.19985977 0.22111073 -0.13424592 0.009986863
0.06380525 -0.13448502 0.11898908 0.009441778 -0.1690505 -0.18034773 0.10304046 -0.047150165
-0.10613518 0.03884825 0.11704394 -0.15412772 -0.17120229 0.002383396 0.11011928 -0.13735276

prop_h_to_h.5.bias f4 [20]
00000000: d851 023e e0c3 61bd d01d f63d 9408 123e
00000010: 22da 5b3e 1849 9bbc e1d6 ffbd d9ae 56be
00000020: 9cec c4bd fa24 4e3e b4b4 823d 70ad fa3d
00000030: 34a9 273e 28c6 c63c 90ec 92bc b096 1fbd
00000040: 3437 29be 80d2 843a 182d 1c3e f6b4 3c3e
0.12726533 -0.05511844 0.12017405 0.14261085 0.2146993 -0.018955752 -0.12492157 -0.20965137
-0.09615442 0.20131293 0.06382123 0.12240112 0.1637314 0.02426441 -0.017935067 -0.038962066
-0.16524965 0.0010133535 0.15251577 0.18428406

prop_h_to_h.6.weight f4 [20, 20]
00000000: b808 d43d 5ec6 323e 3eb6 0b3e 7cf2 95bd
00000010: 20d1 093c 20db da3b 5845 e0bc 1c56 483e
00000020: 4e00 513e e0dc e43d a078 843d 0869 babd
00000030: 8cee 0fbe d22d 3cbe 4024 503c 289a b73c
00000040: 0e9e 9cbd 38c4 77bd 64c7 bd3d 4263 5dbe
00000050: 02aa 2b3e 6461 c3bd e632 0abe 90cb df3d
00000060: a087 f4bb dccc f53d 6c1b 0ebe 3931 5abe
00000070: 60ca ba3c eec1 343e beed 203e 2029 e03b
00000080: 3279 15be 9424 10bd a63d 16be c2fe 283e
00000090: 480c 5f3d b0c5 29bc e87e 07be c814 0e3e
000000a0: 56f5 003e a463 613e 865f babd 40eb b93c
000000b0: a2a4 163e 8b83 60be 6283 5d3e d7ee 3bbe
000000c0: 3cce afbd 5865 0c3e 6920 52be 3094 71bc
000000d0: bad8 613e 807a cbba 9c37 10bd 5c0d 8abd
000000e0: 583a 39be d49b 72bd ee33 22be 751b 63be
000000f0: a8ac 0c3d 43a9 ffbd 2442 88bd 1885 5d3e
00000100: ba5c 2c3e 9a4a 033e 266d b7bd 5b94 2bbe
00000110: 2277 1dbe 2cf1 5c3e 041e 373e 8d7d 4cbe
00000120: 7c10 8a3d 7cb8 5bbe 086e 32bd 0898 2a3e
00000130: 08fe 983c c8ec df3d d419 91bd 804d 3fbb
00000140: 1cfa 873d c0c0 0abe 18f5 383d 2c62 25be
00000150: ac0a f53d 6690 2ebe 3d53 edbd 4176 57be
00000160: 387a 7abd 68f3 0cbd b41b 6bbd 6098 fcbd
00000170: d017 653c cc78 633e 26d9 2ebe 367c 5e3e
00000180: c24e bcbd 0cb5 85bd aeed 3bbe 228a f5bd
00000190: 022a 063e 80b5 0c3e fad2 a4bd 301f 303d
000001a0: f866 f4bd 6078 b9bd 6e79 333e 28c0 1d3e
000001b0: 60ea 133e d820 5c3e 9ee1 1dbe 0a01 92bd
000001c0: 7e50 00be 30ea 103e 2d23 15be 188c 423d
000001d0: 4032 5f3e 3bbe 41be 9bc0 2abe 8412 c43d
000001e0: c03f 04bd fc76 76bd 581f 413e c694 06be
000001f0: 1a46 113e 9c5d f83d 92ec 04be 3c1e 883d
00000200: 902b 543e 4ed5 5f3e b060 593d d4a6 803d
00000210: 184c 243d 5016 613e 4077 083e b688 17be
00000220: d8bf 813d cebe 8fbd 209a fb3b 3c46 5abe
00000230: 9d93 5dbe 54af 17bd 82cf 053e c8d4 cdbc
00000240: 78ca 17bd 88c0 1bbd 90ec 533e 3c5b 1fbe
00000250: bf61 d0bd 485a 203e fcb2 af3d 007f 9e3d
00000260: e46b d73d b446 453e 086e 973d b24a 183e
00000270: 847c 11be 9862 6d3d d8ad 51bd 207d f53d
00000280: b02f 123d 6285 343e b63e c7bd 88e8 2a3d
00000290: 148b 613e a2d2 4c3e 120d 12be 4050 c33b
000002a0: 84ac 4b3e d467 f0bd 1e56 15be 7415 183e
000002b0: 36d4 8fbd 90c2 533d f0ed b33c 3e48 dfbd
000002c0: d8ab 9e3c eadb 0f3e dc8f 65bd 7d1a 58be
000002d0: c8f1 0f3e cac9 07be 4075 61bc ac33 f03d
000002e0: 300f f43d 7686 4dbe f08a 1dbc 5077 143e
000002f0: 802f f53d 7f7e 54be e803 813c 50c1 39be
00000300: 2015 8bbb 9582 4cbe 7d52 2fbe 3cf2 3fbd
00000310: 0808 9ebd a47c e73d d01b bbbc 2888 0f3e
00000320: 84cc a63d 6033 e5bd 9a71 41be fd07 28be
00000330: 2ce7 583e 1c08 d13d 787b 12bd 44e9 5a3e
00000340: 00c8 53b9 a648 5fbe 0630 24be 4471 6ebd
00000350: a017 143d be2e 5fbe afaa 35be 0841 97bc
00000360: 2acb 48be 8418 103e ccad 543e 50a8 ac3d
00000370: a079 013d e639 033e 7ab1 3a3e bced 55be
00000380: d027 c9bc 7032 23be 99fc f7bd 3a7b 43be
00000390: e098 943d 909f febd e827 27be 8156 5fbe
000003a0: 7485 403e a060 b0bc 1c24 b93d 0a77 21be
000003b0: a29f 153e 084a 0c3d bc12 f33d 96c4 8cbd
000003c0: e898 f23d 8055 e43c fc23 1cbd 38fb b4bc
000003d0: b43b 613e 54f5 303e c030 d43c 280e 253e
000003e0: 9c1a 06bd 1a9d 153e c897 8a3d a478 67bd
000003f0: 5868 4c3d e86a 513e c0e7 e33b 9a00 10be
0.103532255 0.17458484 0.13643739 -0.07321641 0.008411676 0.0066789538 -0.027376816 0.19564098
0.20410272 0.11174941 0.0646832 -0.09102064 -0.14055842 -0.18376854 0.012703955 0.022412375
-0.07647334 -0.060489863 0.09266546 -0.21619895 0.16764072 -0.0954006 -0.13495979 0.10927498
-0.007462457 0.120019644 -0.13877648 -0.2130784 0.022801578 0.17652103 0.15715691 0.00684084
-0.14597014 -0.035191134 -0.14671955 0.16503432 0.05445507 -0.010362074 -0.13232005 0.13875115
0.12593588 0.22010666 -0.09100251 0.022695184 0.1471124 -0.2192518 0.2163215 -0.18352829
-0.08584258 0.13710535 -0.20520176 -0.014744803 0.22055331 -0.0015524179 -0.035209283 -0.06740829
-0.18088663 -0.05923064 -0.15840122 -0.22178443 0.034344345 -0.12483456 -0.0665324 0.21632802
0.16832247 0.12821427 -0.08956365 -0.16755812 -0.15377477 0.21576375 0.17882544 -0.19969769
0.067414254 -0.21457094 -0.043561965 0.16659558 0.018675819 0.10933834 -0.070850044 -0.002919048
0.066395015 -0.13550091 0.045155615 -0.16150731 0.11964926 -0.17047271 -0.11588142 -0.21041204
-0.061151713 -0.034411818 -0.057399467 -0.12333751 0.013982728 0.22214049 -0.17075023 0.2172707
-0.09194709 -0.065286726 -0.18352386 -0.11989237 0.13101962 0.13741112 -0.08048053 0.042998493
-0.11933702 -0.09056163 0.1752679 0.15405333 0.14444876 0.21496904 -0.15418097 -0.071291044
-0.12530705 0.14151835 -0.145642 0.047496885 0.21796513 -0.18920223 -0.16675036 0.09573844
-0.03228736 -0.060172066 0.18859613 -0.1314269 0.14186898 0.121272296 -0.1298087 0.06646392
0.20719743 0.21858713 0.053070724 0.0628182 0.04011163 0.21981168 0.1332674 -0.14798245
0.063354194 -0.07018815 0.0076782852 -0.21315855 -0.21638341 -0.03703244 0.13067439 -0.025125876
-0.037058324 -0.03802541 0.2069571 -0.15562147 -0.101748936 0.1565944 0.085790604 0.07739067
0.105186254 0.19265252 0.07394034 0.14872244 -0.14207655 0.057955354 -0.05119118 0.11986756
0.03569001 0.17629007 -0.09728758 0.041725665 0.2202571 0.20002225 -0.14262798 0.0059604943
0.19890028 -0.11738554 -0.14583632 0.14851934 -0.07022898 0.05169922 0.021964043 -0.10902451
0.01936905 0.14048734 -0.056045398 -0.21103854 0.14057076 -0.1326057 -0.013760865 0.11728606
0.11916959 -0.20070824 -0.009615645 0.14498639 0.119719505 -0.2075138 0.015748933 -0.18140149
-0.0042444617 -0.19971688 -0.1712131 -0.046861872 -0.077163756 0.1130307 -0.02284041 0.14016783
0.08144477 -0.1119144 -0.18890992 -0.16409297 0.21181935 0.10206625 -0.03576228 0.21378046
-0.00020197034 -0.21805057 -0.16033944 -0.058213487 0.036155343 -0.21795174 -0.17740892 -0.018463627
-0.19608751 0.14071852 0.20769423 0.084305406 0.03161013 0.12815055 0.18231764 -0.2089147
-0.024555117 -0.15937209 -0.12108726 -0.19089976 0.07255721 -0.12432778 -0.16323817 -0.21810342
0.18800908 -0.02153045 0.090400904 -0.15768066 0.14611676 0.03425029 0.11868808 -0.06873433
0.11845571 0.0278728 -0.038120255 -0.022092447 0.21995431 0.17281085 0.025902152 0.16118681
-0.03274022 0.1461071 0.06767231 -0.056511536 0.049904197 0.20450938 0.006955117 -0.1406273

prop_h_to_h.6.bias f4 [20]
00000000: 4203 103e b00b 963c 1828 a6bd c061 9b3c
00000010: e0b5 543c 029a 5cbe 5a3e a3bd 40de 08bb
00000020: 762f 3d3e fe4e 0cbe d0d8 e53c 6c25 08bd
00000030: 4916 3fbe 3077 c23c d9e3 43be 44b5 0ebd
00000040: 1431 86bd c8fc e13d 0e04 0bbe 5873 c43c
0.14063743 0.01831612 -0.08113116 0.01896751 0.0129828155 -0.21543124 -0.07970877 -0.0020884424
0.18475136 -0.13702008 0.028057486 -0.033238813 -0.18660845 0.023738474 -0.19129886 -0.034840837
-0.0655233 0.11034542 -0.13575765 0.023980781
