pair_trading/Q.pth (torch, 6034 bytes, 11 tensors)

prop_in_to_h.weight f4 [10, 5]
00000000: 8582 a5bd 679c ba3e d9f3 96be d0ff a53e
00000010: dd7c 4cbf 3689 23bf 78b4 293c 5551 d8be
00000020: 471b d63d 5925 173e cb36 6abe b91a 853e
00000030: 241c fd3e d47f 023d 8216 90be b2af 653d
00000040: abb8 3f3e e975 0c3e 0465 f1be 97d6 3cbe
00000050: ca56 533e 0ff5 47be f97b 51be ef79 233f
00000060: f2a4 a5bd 5afe 083e 5ad4 893d 9e3b 863b
00000070: c285 fe3e 7e11 35bd b190 c53e 4e32 97be
00000080: c1dd b33e 4644 06bd b085 35bd 896f 7abe
00000090: f45b fc3e e5e8 c73e 4979 ec3d 5073 093f
000000a0: 4d33 8f3d eb68 aebd a2a2 ce3e 034d 103e
000000b0: 85d5 223e d5ee 1dbf a4eb 32be c014 0cbe
000000c0: 56c9 9fbe cf12 82bd
-0.08081535 0.3644745 -0.29482916 0.32421732 -0.79878026 -0.6388124 0.0103579685 -0.4224955
0.104544215 0.14760341 -0.22872464 0.2599695 0.49435532 0.031860188 -0.28142172 0.05607576
0.18722789 0.13716854 -0.4714738 -0.18441235 0.20638576 -0.19527076 -0.20457448 0.6385793
-0.080881014 0.13378277 0.06729956 0.0040964624 0.49711424 -0.044206135 0.38586953 -0.29530567
0.35130122 -0.032779954 -0.044316947 -0.2445661 0.49288905 0.39044872 0.11546571 0.5369158
0.06992207 -0.08516105 0.40358454 0.14091878 0.15901764 -0.61692554 -0.17472702 -0.1367979
-0.31208295 -0.06351244

prop_in_to_h.bias f4 [10]
00000000: 1fe6 a6bb f663 41be 8931 cb3d 9bcf 51be
00000010: cf9c 0d3f a783 6e3e 1844 d0bc 5a86 2d3d
00000020: 7b51 093f 0d56 7cbe
-0.0050933505 -0.18885788 0.099215575 -0.20489351 0.55317396 0.23292409 -0.025423095 0.042364456
0.53639954 -0.24642201

prop_h_to_h.0.weight f4 [10, 10]
00000000: b7b9 933d 6c5c 3fbd bd38 a5bd 8801 9f3d
00000010: 6a53 cb3e 5f22 103e 4404 11be e575 9ebe
00000020: 16c2 ad3c b6c1 06be 8e02 d9bd 68ba d13d
00000030: 0cd2 95bd 3ca5 a4be e00f 9abd 34c3 13bd
00000040: d5c5 17be d5e5 883e 0502 c23e 0bac 01be
00000050: bd55 6a3e 8883 a7be f5ba 38bd 2dd3 56be
00000060: 6577 653e 2f98 933e d178 f33d 6d52 7c3e
00000070: 8677 1b3e b7b8 72be 944b 793e 9ca8 833c
00000080: eb1f 433e a6ac d3b8 1d2a 7b3e 2630 723e
00000090: a5f9 a43c bf4c 9d3e 07de 5c3e 7dc3 e3bd
000000a0: 350a 30be cd8c cabd 5394 64be 1526 923e
000000b0: 58c7 9fbd be91 173e 127b 19be 076a 6b3e
000000c0: 0c28 0dbe 4c05 bf3e ae2e 94bd df38 87bd
000000d0: b0dd f4be 35f5 9d3e 55b2 bebe b1b3 91be
000000e0: 84df f9bc ce56 0dbe 511a 4cbe 3200 773e
000000f0: 5891 4d3c 73a9 babd 60d3 4ebb 49cd a6be
00000100: 108b a83e faee f53c 2e46 04be 61f4 65be
00000110: 3387 c43d 81bd 1b3d 92be eb3e b92d 8a3e
00000120: 4702 783d 1ce5 05bd bed4 0cbf 8453 79be
00000130: 5065 cbbe fb55 a13e aa43 cabe 4e7b 253f
00000140: 5075 533e e086 9b3d d043 6bbd ce63 273b
00000150: ef8c a7be 121a e1be 054e b2be 773e e23d
00000160: 5783 78be a86a 1c3e 1f51 853e f309 48be
00000170: 5fb7 ca3e 6e44 52bb 6540 5b3e ab6b 1abc
00000180: cfa5 75bc db7d 993e 7471 b43e b928 b23d
0.07213157 -0.046719 -0.080674626 0.07763964 0.39712077 0.14075612 -0.14161783 -0.3094932
0.021210711 -0.13159832 -0.105961904 0.10240632 -0.07315454 -0.32157314 -0.07522559 -0.036074832
-0.1482156 0.26737848 0.37892166 -0.12663285 0.22884269 -0.32717538 -0.04510017 -0.20978995
0.22408827 0.28827044 0.11888278 0.24640818 0.15182313 -0.23703276 0.24345237 0.01607161
0.19055144 -0.00010093422 0.24527784 0.2365118 0.020138571 0.30722615 0.21569072 -0.11121271
-0.17191394 -0.09890137 -0.22322206 0.2854468 -0.07801694 0.1480169 -0.14988354 0.22989665
-0.13784808 0.3730873 -0.07235466 -0.06602644 -0.47825384 0.3085114 -0.37245432 -0.28457406
-0.030502088 -0.13802645 -0.19931914 0.24121168 0.01254686 -0.09114351 -0.0031559095 -0.32578495
0.32918596 0.03002118 -0.12917396 -0.22456504 0.095961 0.038022522 0.4604383 0.2698801
0.060549047 -0.0326892 -0.5501212 -0.24348265 -0.39725733 0.3151091 -0.3950475 0.64641273
0.2065022 0.07594085 -0.057437718 0.0025541666 -0.3272471 -0.43965203 -0.3482515 0.110470705
-0.24268852 0.15275061 0.26038453 -0.19535045 0.39593026 -0.0032084244 0.21411283 -0.009425084
-0.014993145 0.29978833 0.35242808 0.086991735

prop_h_to_h.0.bias f4 [10]
00000000: 45e1 123e b74d c63e f2ae 053f 67f1 363e
00000010: e8ad 83be 42fb adbe 4061 b83e c018 97be
00000020: bc98 0fbf 8ad3 de3d
0.14343746 0.38731167 0.5222007 0.17865525 -0.25718617 -0.33980757 0.36011696 -0.2951107
-0.5609243 0.108801916

prop_h_to_h.1.weight f4 [10, 10]
00000000: e476 c2bc b44f eb3c 191d 583d 2862 923c
00000010: c94a c43e 590c e63e 033e cebd 9f3a b33d
00000020: d9d4 843e 6082 11be b18d f5bd 1466 cf3d
00000030: 43c9 8f3e 13b8 e13c a0df d73d d52f a4be
00000040: 59d9 cc3e 7d0c acbd 25fc 22be 8e2c 433e
00000050: 122e 133e 1130 fd3e 1ac8 c03e 8aa6 0fbd
00000060: f62d a9be 3de2 d1be 7586 053f 4366 e6be
00000070: 8fd2 e1be f816 c63e 8511 ad3c 4983 2d3d
00000080: 423a febd 0545 0cbe e1b1 c33d dc32 093f
00000090: c8e1 22be 6f6b ee3e 62f0 5f3d 74b0 a7be
000000a0: 9368 5f3e 6548 f7be b23a 98be 2788 8dbe
000000b0: f314 253e 3a4f 8f3d 79d5 2abd d06a d03d
000000c0: c73f dd3d 08ad 873c e30f 95be 50e8 d1be
000000d0: fd58 6abe 97e6 a5be d28e 4e3e 12f2 6ebd
000000e0: bee4 c1be 07e8 e83c 3f60 a23e 0feb 5abe
000000f0: e923 853e bfda 6c3d 7b31 d13e ae2e 453e
00000100: db4e 94bd c178 95be 4cd3 b73e 6be8 f63c
00000110: 1e3c bbbe 8e33 b23e 7a09 41be 3f88 c8be
00000120: 50c3 3bbe 60df a4bd 223c 303e 2270 863e
00000130: 2959 8ebe d0eb 503e 4e2e d93e 7843 ad3d
00000140: 9b89 113e c51c c6be ba7f 3dbe 9028 d33d
00000150: af87 a83e 2590 09be c7bb f9bd 8ae6 823d
00000160: 0ec2 443e 1c30 253c 1ecd c33d f4f7 933e
00000170: 77af bc3e d6d0 803e 5e59 ec3d d4b7 993b
00000180: 300b ba3d e2fc 63be ff39 dfbe ae63 edbd
-0.023738332 0.028724529 0.052762125 0.01786907 0.38338307 0.44931296 -0.100704215 0.087514155
0.2594364 -0.1420989 -0.11989916 0.10126892 0.28083238 0.027553594 0.105407 -0.32067743
0.40009573 -0.084008195 -0.15916498 0.19059965 0.14373043 0.49450734 0.37652665 -0.035070933
-0.33042878 -0.4099292 0.5215829 -0.44999894 -0.44105956 0.386894 0.021126518 0.04236153
-0.124134555 -0.13698204 0.09555412 0.5359323 -0.15906441 0.4656634 0.054672606 -0.3275181
0.21817236 -0.4829742 -0.2973228 -0.27642938 0.16121273 0.06997533 -0.04170749 0.10176623
0.1080318 0.016562 -0.29113683 -0.40997553 -0.22885509 -0.3240249 0.20171669 -0.058336325
-0.3786983 0.028430952 0.31714055 -0.2137873 0.2600396 0.0578258 0.40858063 0.19256088
-0.07241603 -0.2919369 0.35903394 0.030140122 -0.36569303 0.34804958 -0.18851271 -0.39166448
-0.18336225 -0.08050418 0.17210439 0.26257426 -0.278024 0.20402455 0.4241814 0.08460134
0.14212649 -0.38693824 -0.18505755 0.10310471 0.32916018 -0.13433893 -0.12194019 0.06391628
0.19214651 0.010082271 0.095606074 0.2890011 0.3685262 0.2515933 0.11540483 0.0046911035
0.09084165 -0.22264436 -0.43598935 -0.11591278

prop_h_to_h.1.bias f4 [10]
00000000: 22a2 02bf e954 873e 6992 353e c368 e8be
00000010: 1221 d8be 51f7 97be 6ae4 833e c80b 07bf
00000020: 4756 50be f941 eb3e
-0.51028645 0.2643197 0.17731632 -0.45392427 -0.4221273 -0.29680875 0.25760204 -0.5275235
-0.20345412 0.4594877

prop_h_to_h.2.weight f4 [10, 10]
00000000: 6b67 93be 433b 623e ea5e f93e 97ac 8dbc
00000010: 5321 cdbe 5f9b b8bd a47b f73e d364 f1be
00000020: 181d 1ebe 6636 e33d c21f 23bd 2f29 c6be
00000030: 9286 cdbe 302c 633d 3faa 9c3e 895a 713c
00000040: 8868 cebd 89d2 a33e a86d b53e 0878 03be
00000050: 142c 3c3d 0cf4 d53e a954 9d3e 62e2 f3bd
00000060: 801b 55bd a48a d13d 3c50 213e 0f2d 903d
00000070: c6e6 d43c d9e1 8d3d db29 b3be abea 763d
00000080: 3173 c83e 0ee3 f8be 010c ffbe c529 78be
00000090: ac15 e83e 9f56 0dbf 945a 4f3c 1d3e 923e
000000a0: fba6 e83e 15e3 8c3d fa4e 9cbe 0202 ff3e
000000b0: d362 1d3e 4e28 e13d 280c a73c a434 063e
000000c0: 96af 113e 9ca4 92be c169 b3bd ca47 b13e
000000d0: 49b0 e43e e427 49be 9ba8 aebe c797 28bd
000000e0: 5365 433e 59be 69bd fbce bdbd 6c14 d43c
000000f0: 4f1c f23e 3e40 a1be 85a9 d239 c55b 8cbd
00000100: 2dae a63e 664d c5bc d681 123e bd9a 153e
00000110: 3c0f bf3e 945e babe f75d b9bd 70fe 34be
00000120: 31aa cdbe 8fac 853d 9884 903c f359 0e3e
00000130: e8d0 62be a0b5 f3bd 5f1a 25be 2647 a03c
00000140: f7b8 9b3e d411 27bd 9b1f 23be 16e4 ab3d
00000150: da9e 9e3e 5953 853e 772c 71be eb1a b13e
00000160: 3411 b0bd bd6e adbe 79e4 09bf 4954 4b3e
00000170: 415e e03e 3c99 e33c 4507 79be 422d 94be
00000180: 75ec d83e 2db4 f1bd c191 f1be 6c07 d43d
-0.2878984 0.22092919 0.48705226 -0.017294211 -0.40064487 -0.0901401 0.48336518 -0.47147235
-0.15440786 0.1109436 -0.03982521 -0.38703296 -0.40141732 0.055462062 0.30598637 0.014731058
-0.100785315 0.31996563 0.35435224 -0.12838757 0.045940474 0.41787755 0.30728653 -0.119084135
-0.05202818 0.10231522 0.15753263 0.07039844 0.025988948 0.06927843 -0.3499287 0.06028239
0.39150384 -0.4861073 -0.49813846 -0.24234684 0.45329034 -0.552103 0.012655873 0.28563014
0.45439896 0.0687925 -0.30529004 0.4980622 0.1536973 0.10994016 0.020391539 0.13106018
0.14227137 -0.28641212 -0.08760405 0.34625083 0.44665745 -0.19644123 -0.3411301 -0.04116037
0.19081621 -0.057066295 -0.09267994 0.025888644 0.47287223 -0.31494325 0.00040180623 -0.06853441
0.3255476 -0.024084758 0.14307341 0.14609809 0.3731631 -0.36400282 -0.090511255 -0.17675185
-0.40168908 0.065270536 0.01764135 0.139015 -0.22150004 -0.118998766 -0.16123341 0.019565176
0.30414554 -0.040788487 -0.15930025 0.08393113 0.3098057 0.26040152 -0.23552118 0.3459085
-0.08597031 -0.3387355 -0.53864247 0.19856371 0.4382191 0.027783029 -0.2431918 -0.2894078
0.42367902 -0.11801944 -0.47181514 0.10352978

prop_h_to_h.2.bias f4 [10]
00000000: 1c08 de3e 609f 92be d833 8abd 6cb2 8c3e
00000010: 00d7 cbbe 3a97 bd3e 739b d0be b790 a3be
00000020: 8eb8 31be 2c42 283e
0.43365562 -0.28637218 -0.0674817 0.27479875 -0.3981247 0.3702944 -0.40743598 -0.31946346
-0.17355558 0.16431493

prop_h_to_h.3.weight f4 [10, 10]
00000000: d25a 423e f4fc 293c 01d1 ac3d e5c9 2a3e
00000010: 2e77 a2bd e42a 683e e69e 07be d9c6 58be
00000020: 7e40 2e3e 6e9f d53d 5051 9ebe b84f 263e
00000030: 003c c7bd 64ff 86be c339 6e3e 35c5 0dbe
00000040: 5ce3 9bbc a13d 20bd 7f3e 273e af87 9bbe
00000050: 1a2d ee3e 6282 d7be f1f0 173d e46c 073f
00000060: e421 0cbf 82c7 af3e 4c39 b8be c8de 50bd
00000070: 5727 afbe c60d a43e ea81 a2be 198b 023e
00000080: 5a97 11be ca2d 4bbd b612 a93d 7702 fabd
00000090: 9506 a7bc 53ba 1f3e 2540 d43e a70d 203d
000000a0: 79bb adbe 78d5 35bd 0a83 b53e c136 c7be
000000b0: 9176 8a3e b53b a1be c6f5 68bd 07a7 bd3e
000000c0: ca93 b53d 2b3f 84bd 7953 2ebd 16b7 adbe
000000d0: 1584 ed3d ed73 883d 9f5b ffbe 3662 5d3e
000000e0: 89ba d2be a878 cfbe 4a3b 14be c689 683e
000000f0: 6847 b6bd 2582 c63e 5b32 3fbd fdbc d8be
00000100: a79a e73e 1a39 a8bd bfe7 82bd c8a6 4f3e
00000110: f075 7b3e dfea 1fbe 0b1a 033f 35fa 94be
00000120: 8eda 743e c62e d43e 84f4 9cbe abf4 e13d
00000130: 3f4a 8bbe 4548 8d3d f943 cabe aff2 8dbd
00000140: b0bf 70be b2c1 84bd b09b 92bd 6b0f 453d
00000150: b717 913e 4512 d7be abe8 6d3e eb7c 603e
00000160: f53e d43e faf5 7fbe 7255 95be 21dc 003d
00000170: 496c a53d 3c09 b4be cd1e 363e fe7e eebd
00000180: 1d95 5d3e 4c5e 0cbe 8757 c13e bf8c 94be
0.18979958 0.01037525 0.08438302 0.16678579 -0.07932888 0.22672611 -0.13244209 -0.21169604
0.1701679 0.104307994 -0.30921412 0.16241348 -0.09728241 -0.26366723 0.23264222 -0.1384476
-0.019029312 -0.039121274 0.16332434 -0.30376956 0.46518785 -0.42091662 0.037095014 0.5290053
-0.54739213 0.343319 -0.35981214 -0.05099371 -0.342097 0.32041758 -0.31739742 0.12748374
-0.14217892 -0.049604215 0.08255522 -0.122075014 -0.02038888 0.15598421 0.41455188 0.03907552
-0.33932093 -0.044393033 0.35451537 -0.3890896 0.27043584 -0.31490865 -0.056875013 0.37041494
0.08866079 -0.06457361 -0.042560074 -0.33928746 0.11597458 0.06662736 -0.4987459 0.21619496
-0.4115794 -0.4052174 -0.14475742 0.22708806 -0.089003384 0.38771167 -0.046678882 -0.42331687
0.45235178 -0.08214016 -0.06391858 0.20278466 0.24556708 -0.1561694 0.51211613 -0.29097143
0.23911497 0.41441935 -0.306553 0.11032995 -0.27205083 0.0689855 -0.39504984 -0.06931054
-0.23510623 -0.06482257 -0.07158601 0.048110407 0.28338405 -0.42006126 0.23233287 0.21922652
0.41454282 -0.24996176 -0.29166752 0.03145993 0.080772944 -0.35163295 0.17785187 -0.116453156
0.21638913 -0.13707846 0.3776209 -0.2901363

prop_h_to_h.3.bias f4 [10]
00000000: bb43 6e3e 005e 293e eef5 063f 911e c1be
00000010: b50a 8639 adb9 a63e 21ea e73d 129d 55bd
00000020: 90fb 34be 0d9e 09be
0.23268025 0.16539764 0.5271901 -0.37718633 0.0002556645 0.32563534 0.113239534 -0.052151747
-0.17674088 -0.13439198

prop_h_to_out.weight f4 [1, 10]
00000000: b79a cebd 7871 503e 7d9b dcbe e460 b03e
00000010: 17ef b13e 6c4d eabe 748d 9d3e 79ab 3ebe
00000020: d61c ad3e 780e 013f
-0.10088103 0.20355785 -0.43087378 0.34448922 0.34752724 -0.45762193 0.30771983 -0.18620099
0.33811063 0.504127
