model-prob-all-pmt-chnge/just_k/just_ddpg/pi.pth (torch, 13074 bytes, 13 tensors)

prop_in_to_h.weight f4 [20, 2]
000000 95 1a 8e bf db e7 37 3f ab 1c a3 be 55 41 03 3f
       -1.1101862 0.7183816 -0.3185781 0.51271564
000010 1b d4 bd be 87 cf 45 bc 4e e8 af be 9c 8e c9 3d
       -0.37075886 -0.012073404 -0.34356922 0.09841654
000020 95 3a 7f 3f 73 56 16 3f a7 94 c0 3e 60 87 bf be
       0.99698764 0.5872566 0.37613413 -0.3740797
000030 12 22 17 bf db f0 5d bf 24 f3 a2 be 5c d3 1f bf
       -0.5903636 -0.8669564 -0.31826127 -0.62431884
000040 60 a0 bc be 37 6a 55 bf 6e 70 c9 bf 14 eb af be
       -0.36841106 -0.83365196 -1.5737436 -0.34359038
000050 dd bf 09 3f 20 14 1d 3f 38 f0 18 be ff 86 32 bf
       0.53808385 0.61358833 -0.14935386 -0.6973724
000060 84 3d 81 3f 4e e9 be 3e 27 aa 9b bf 23 c2 b2 be
       1.0096898 0.37287372 -1.2161301 -0.3491374
000070 65 f3 6a bd 4a df 34 bf d4 16 67 3e 05 ca 4a 3f
       -0.057361025 -0.7065321 0.22567302 0.7921451
000080 3b 05 c9 bd 98 90 6e 3f 05 14 7e bf e7 08 e3 3a
       -0.09815451 0.9318938 -0.992493 0.0017321379
000090 a8 a7 69 be 5d f0 39 bf f0 9c 8f bf 36 29 35 bf
       -0.22817862 -0.7263239 -1.1219769 -0.7076601

prop_in_to_h.bias f4 [20]
000000 1c 19 b7 be 59 1f a9 3d 53 48 83 bd 3b 0b 36 3e
       -0.35761344 0.08257932 -0.06410279 0.17777722
000010 f7 f8 65 bc 37 03 c0 be dc 63 08 3f d2 2e 0d 3f
       -0.014036409 -0.37502453 0.53277373 0.5514957
000020 75 31 a2 3e 80 1d 4b be 79 43 59 3d fc 6a d6 3d
       0.31678358 -0.19835472 0.053042863 0.104696244
000030 55 8f 33 3e 35 23 53 be a4 3b 9c 3e 13 79 4f be
       0.17535146 -0.20618899 0.30514252 -0.2026103
000040 42 e9 08 3a 74 81 11 be 33 25 0d 3f bb 0d 95 3c
       0.00052227464 -0.14209539 0.55134887 0.018195024

prop_h_to_h.0.weight f4 [20, 20]
000000 71 a2 c5 bd fe c8 9d 3d 84 62 7b 3d f8 7d e9 bd
       -0.09650124 0.07704352 0.06137325 -0.1140098
000010 a8 f9 a4 3e d6 82 98 be dc 18 86 3e ac 8d 1f 3e
       0.32221723 -0.2978732 0.2619084 0.15581387
000020 23 d5 96 3d eb d3 d0 be b9 0c b1 3b b9 85 82 bd
       0.07364871 -0.4078668 0.005403128 -0.06373162
000030 b7 b0 ca 3e 64 87 3b 3c 87 3d e9 3d 50 5b 94 be
       0.39587948 0.011445854 0.113886885 -0.28975916
000040 36 8e 23 bd 5e 8c 77 be bd 33 ca bd ea a9 c5 be
       -0.039930545 -0.2417464 -0.098731495 -0.38606197
000050 8f a5 5c be 95 a7 7c be 7e 89 5d be 23 59 8e 3d
       -0.2154753 -0.24673302 -0.2163448 0.06950595
000060 4f 8c 94 bd e3 4d 4b 3e bd ad e0 3b 51 bd 51 bc
       -0.07253324 0.1985393 0.0068566487 -0.012801484
000070 3f 32 75 3a 25 ba 28 3d 29 f9 99 bc 39 b0 03 3e
       0.00093534956 0.041193146 -0.018795567 0.12860192
000080 bb 5f 43 be b7 a3 12 be 3f 1d 50 be 99 ce 01 3d
       -0.19079487 -0.14320265 -0.20323656 0.031691168
000090 dd 73 2a bd e7 d8 ff bd bc cf c1 3d 8b a9 73 be
       -0.041614402 -0.12492543 0.0946345 -0.23795144
0000a0 78 5a 04 3e 42 98 ab 3c 4b 40 f0 bd 7e ac 97 bd
       0.12925136 0.020946626 -0.11731013 -0.07405947
0000b0 02 43 f5 be 70 72 31 3d a8 e4 a1 3c 5a 50 8d 3d
       -0.47902685 0.043322027 0.019762352 0.069000915
0000c0 73 5d c3 bd b0 b2 df 3e 4b db 12 bf 4b db 82 3e
       -0.095393084 0.43691015 -0.57365865 0.25557932
0000d0 a9 98 b7 be 64 fb d2 3a 4e 1f fb 3d ee e0 48 bd
       -0.35858658 0.0016096649 0.1226183 -0.049042635
0000e0 d4 49 52 be 91 a9 1b 3e ad de d2 3d ed a5 a7 3e
       -0.20535976 0.15201403 0.10296378 0.3274378
0000f0 c0 ad 8f 3e 26 22 e7 bc a9 50 86 3d 68 fd cf 3c
       0.28062248 -0.028214525 0.065583535 0.025389388
000100 27 a7 7a be ff ef 29 3d 13 bb 33 3e c6 20 00 be
       -0.24477826 0.041488644 0.17551832 -0.12512502
000110 cb bd 09 3e 3b ce 93 3d 43 8a 92 bd 6b 10 f0 bd
       0.13451307 0.0721707 -0.071552776 -0.117218815
000120 3f 1e 91 be 5a 2e c8 bd 56 07 a1 bb 05 14 4a 3e
       -0.28343388 -0.09774466 -0.0049142046 0.197342
000130 f3 46 f0 bd 7e 89 2b bd 04 bb 10 3e 47 f5 a5 3e
       -0.117322825 -0.04187917 0.14133841 0.32413694
000140 52 e2 83 3e e4 fc 82 be 81 83 b2 3d 13 ce 85 3d
       0.25758606 -0.25583565 0.08716489 0.06533446
000150 39 76 4d be 9d ca 04 3d 98 a7 58 3d e9 44 b7 3d
       -0.2006463 0.03241979 0.052894205 0.089486904
000160 78 fa e3 bd 7c 32 ae 3e 93 b5 88 be 4b dd 6c 3d
       -0.111317575 0.34022892 -0.2670103 0.05782823
000170 73 1c aa be 4b 95 df 3d dd 9b 3e be b4 f2 28 be
       -0.3322483 0.10917147 -0.18614145 -0.16498834
000180 03 60 8d 3d 66 6a a3 bd 10 04 8b 3b 81 e6 cc 3e
       0.069030784 -0.07979278 0.0042424276 0.4001961
000190 6d 90 0d bc 05 d3 49 be 91 8b 9e bd b5 c1 4f be
       -0.008640391 -0.19709404 -0.07741464 -0.20288737
0001a0 5f 6d b3 3e 05 58 21 3e a3 ef 4e bc 4e a3 69 bb
       0.3504438 0.15756233 -0.012630376 -0.0035650316
0001b0 82 d2 34 be fe 57 15 be ac 48 5c bd 47 6c d5 bb
       -0.17658427 -0.14584348 -0.053780243 -0.006513152
0001c0 3a 65 bb 3d ca 8f c2 bd 17 23 dc 3d 72 40 73 3e
       0.09150167 -0.09500082 0.1074888 0.23755053
0001d0 ee 62 02 3e 88 a3 81 be 66 07 c9 3d fd b9 1c bc
       0.12733051 -0.25320077 0.09815864 -0.009565827
0001e0 53 48 43 3c f1 52 3a 3e db 6d 0d 3e fd c4 39 3e
       0.011919099 0.18195702 0.13811438 0.18141551
0001f0 98 6b 93 be 90 73 a0 bd e7 55 c5 3d 35 a3 8b bd
       -0.28793025 -0.07834542 0.09635525 -0.06818239
000200 a7 10 50 39 df c5 6d 3e 10 ef b8 be 09 0d 00 3c
       0.00019842629 0.23220013 -0.3611989 0.007815608
000210 04 fe 24 be 44 6d 50 3e b7 f6 50 3d 03 85 02 3d
       -0.16112524 0.20354182 0.051016536 0.03186513
000220 28 ee 10 be b4 e1 a3 3e 21 03 88 bc 1c 4c cf 3e
       -0.1415335 0.32008135 -0.016603054 0.40487754
000230 b4 72 af bd 98 a5 9f bd 75 ea 97 bd b0 0c 30 3e
       -0.085668 -0.077952564 -0.07417766 0.1719234
000240 da ab 05 bf 35 88 80 bd 3c fa 55 3e da f8 aa 3d
       -0.5221535 -0.062759794 0.20896238 0.08348246
000250 c9 4c 9a 3e 54 d5 8f 3e 97 15 a6 be 1d e1 08 bd
       0.30136707 0.28092444 -0.32438347 -0.03341781
000260 b7 4b bb be 79 c6 a0 bd ef 5f c7 3d 98 b2 ed bc
       -0.36581203 -0.07850356 0.09735095 -0.029015824
000270 97 21 81 be 0d a2 65 bc d8 75 4d 3e 2a 3f 36 3d
       -0.2522094 -0.014015687 0.20064485 0.04449383
000280 3c 9d 9c bd 3e 40 8c 3c 5d 90 13 3d 42 51 73 3c
       -0.076471776 0.017120477 0.036026347 0.014850916
000290 6f 78 1c be 42 a2 9b 3d d8 13 e6 3d 7d 23 0d 3e
       -0.15280317 0.075993076 0.11234254 0.13783069
0002a0 5e 44 9f bc 9b 53 cc 3e 53 05 0c be 56 00 dd bc
       -0.01944178 0.39907536 -0.13673906 -0.0269777
0002b0 ff 6c 90 be 2c 8a 90 3d 18 88 00 be 46 b6 a3 bd
       -0.28208157 0.07057604 -0.12551916 -0.0799375
0002c0 1b 32 b1 3d 11 58 c7 3d f8 5b 76 3d 90 5b 00 3c
       0.08652135 0.09733594 0.060146302 0.00783433
0002d0 fd 36 33 3e b7 ed 60 be f3 ea b6 bd bd 7c 92 3d
       0.17501445 -0.21965681 -0.08931532 0.07152698
0002e0 c6 1c 25 be ec dc 73 bd 32 32 76 bd a7 e8 82 be
       -0.16124257 -0.05953686 -0.060106464 -0.25568125
0002f0 24 0e 55 bd 8d 26 b0 bc 4a 4c 2b bd c2 dd 80 3c
       -0.05201544 -0.021502757 -0.0418208 0.015730742
000300 52 b4 a0 be b7 ae 1c bd 42 06 d7 3b 2c 56 91 3e
       -0.31387573 -0.03825256 0.0065620253 0.28386056
000310 53 33 32 3d 31 e3 0f 3d a0 b9 16 3e cd 9c 1f 3e
       0.043505978 0.035128776 0.14719248 0.15587159
000320 57 f4 97 bd c8 ae 1f 3e cc bd 81 be 01 ca 95 3e
       -0.07419651 0.15594018 -0.25340116 0.2925568
000330 98 5a 88 3a d6 06 94 bd 77 2a 33 3d 6f 1e 5e 3c
       0.0010402976 -0.07227866 0.04374167 0.013557061
000340 f7 b9 85 3e c6 e5 e9 bd a2 fc 9d 3d 50 89 1a 3e
       0.26118442 -0.11420779 0.077142015 0.15091443
000350 42 00 98 3e 48 e3 6b be 94 12 a6 3d 24 fd 2c bd
       0.29687697 -0.2303592 0.08109012 -0.0422336
000360 a8 0a c2 3e 86 7e 44 3e 8b 9c 68 bc 8e cc 83 3e
       0.37898755 0.1918889 -0.014197479 0.25742
000370 dd f9 94 3d b1 51 a5 3e c7 99 19 3b 25 cb fe 3d
       0.0727422 0.32288888 0.0023437606 0.124410905
000380 22 42 33 bc ef 8e d9 3d 24 8c 09 3e 4b 32 dd 3c
       -0.01094106 0.106229655 0.13432366 0.02700152
000390 5c 33 de ba 27 f5 4d be 1a 02 65 3d 5d b8 6b bd
       -0.0016952562 -0.2011305 0.055910207 -0.05754887
0003a0 0d 88 c2 bc 04 f7 52 bd e4 5c da 3d 2d f6 5a 3e
       -0.023746515 -0.051505104 0.10662249 0.21382971
0003b0 06 c6 34 3e 7d 12 1f be 94 d1 05 3e 97 50 87 3c
       0.17653665 -0.15534396 0.13068229 0.01651792
0003c0 b0 17 cd be 36 79 09 be 53 45 41 be c6 79 de 3c
       -0.40057135 -0.13425145 -0.18874101 0.027157675
0003d0 a8 a2 c0 3e b7 17 b4 be 45 75 68 3e 38 2e ea 3d
       0.37624097 -0.35174343 0.22700985 0.11434597
0003e0 87 0a 0f 3e a8 02 8d be 6f 58 38 3c a3 ba 43 bc
       0.1396886 -0.2754109 0.011251553 -0.011946353
0003f0 d6 4a 31 3d 9e 0d 0a be 81 e1 ce 3d 16 1c 89 bd
       0.04328426 -0.13481757 0.10101605 -0.0669481

prop_h_to_h.0.bias f4 [20]
000000 8d 2c bc bc 73 ff 09 3e ac e8 7f 3c b3 65 27 bd
       -0.022970462 0.13476352 0.015619438 -0.040868472
000010 0b b2 6e bb 8f 64 14 be ef 51 79 3e e7 4c 4c bd
       -0.003642204 -0.14491485 0.24347661 -0.049878027
000020 d2 43 c2 3d d3 f5 ff bd c7 b7 aa ba 34 e2 3d be
       0.09485592 -0.12498059 -0.0013024741 -0.18543321
000030 d5 05 8e 3e 71 46 0b bd 6b 0e ea bd af ce bb 3e
       0.27738824 -0.034002725 -0.11428531 0.36681125
000040 2f d2 f8 3c d2 00 10 3e 53 35 8e 3e 28 65 24 be
       0.03037366 0.14062813 0.27775058 -0.16054213

prop_h_to_h.1.weight f4 [20, 20]
000000 6f 15 a4 3d 93 1c 09 be a8 99 a0 be bb 99 aa bd
       0.08011901 -0.13389806 -0.3136723 -0.08330103
000010 2e 6a ba bd 2e e2 47 be 67 49 8c bc bd 36 71 3d
       -0.091022834 -0.19519874 -0.017124845 0.058890093
000020 72 b3 0f 3e 1b 33 4f be a3 d1 1a 3e 2d 87 74 bd
       0.14033297 -0.20234339 0.15119033 -0.059699226
000030 33 10 80 3e e6 84 92 be 0e 93 17 3d d9 00 8c 3e
       0.2501236 -0.28617018 0.037005477 0.27344397
000040 fd 11 1d 3e 71 ec ac 3e 25 ae 3d 3e 05 db 0c 3d
       0.15338893 0.3377414 0.18523462 0.03438856
000050 60 43 07 3f a3 0f 99 3d d6 c8 9c be b7 d0 03 bf
       0.5283718 0.074736856 -0.30621976 -0.5149035
000060 ee 11 a8 be 69 b1 b5 3d bf 20 06 bd 33 3a 5a be
       -0.3282618 0.08871729 -0.032746073 -0.21311264
000070 30 f6 60 be b1 92 3b be 73 e0 a9 be bf 4a a6 be
       -0.21968913 -0.18317677 -0.33179054 -0.32478902
000080 d1 05 4e 3e 6a a0 b1 bd 2c f1 67 3e 16 9e 84 3e
       0.20119406 -0.08673175 0.22650594 0.2590186
000090 df 18 a4 3e 58 c7 5b 3e d6 d6 a3 be 1b 32 88 be
       0.32050225 0.21462762 -0.31999844 -0.26600727
0000a0 4c 79 54 3d 4a ec 58 3e 95 5c 41 3d a6 25 c8 3d
       0.05187349 0.21183887 0.047207434 0.09772806
0000b0 b1 45 39 bc 70 3c 97 bd 60 11 e9 3d 19 75 0f 3e
       -0.01130812 -0.073845744 0.11380267 0.14009513
0000c0 6e e2 38 bd 34 2c 1d bd f4 c5 1e 3e fb 59 bf 3d
       -0.045137815 -0.038372234 0.155052 0.09343334
0000d0 46 09 e1 bd eb 8f c9 3e cc 28 3e 3e 55 45 8e be
       -0.10988097 0.39367613 0.1857025 -0.2778727
0000e0 c9 69 30 be 86 4f 08 bd 81 82 e2 3b cd d3 e9 3d
       -0.17227854 -0.033278964 0.00691253 0.11417351
0000f0 fe a5 e1 3d 31 4a 64 3e 86 e2 ed bd 20 86 b9 3d
       0.110179886 0.22293927 -0.116154715 0.090587854
000100 0d b6 96 bc 96 99 57 3d 0f d2 c8 bd 56 0c 89 bc
       -0.018397355 0.052636705 -0.098056905 -0.016729515
000110 3c a0 2e be c2 d2 08 3e b0 22 e3 bd 89 69 30 be
       -0.17053312 0.13361648 -0.110906005 -0.17227758
000120 47 07 1f bd e2 84 c2 bd d3 6a 19 bc b7 1f 8a 3d
       -0.0388253 -0.09498002 -0.009363848 0.067443304
000130 ab ee 3a 3d a3 22 af 3d 77 e3 3f bc 9b 40 bd bc
       0.045637768 0.08551528 -0.011711947 -0.023102095
000140 e7 2e 0f 3d 22 c2 0c be e1 ba 03 bd 6c 75 18 bd
       0.03495684 -0.13745931 -0.032160643 -0.037221357
000150 bb 26 b1 3d 67 eb e8 3d b1 82 95 3e 13 8f 55 3e
       0.086499654 0.113730244 0.29201272 0.2085536
000160 72 fe cb bc ab 01 59 bd 43 d5 86 bd 7c 25 38 3e
       -0.024901602 -0.052980106 -0.06583645 0.17983049
000170 98 38 15 3c a1 c8 cb bc 64 0d d7 bd 07 b0 72 3e
       0.009107731 -0.02487594 -0.10500601 0.23699962
000180 8d 66 93 bd 70 97 82 bd 20 f1 2f 3c d8 27 db bd
       -0.071972944 -0.06376541 0.010738641 -0.10700959
000190 87 29 e8 bd a2 ce 0e be 58 1e 52 bd 7e 44 40 3d
       -0.11336046 -0.13946012 -0.05129847 0.04694032
0001a0 af 41 ed 3d 11 66 fb bd db 74 84 3e f0 2d fb bc
       0.11584794 -0.12275327 0.25870404 -0.030661553
0001b0 be 7e 64 3d b6 35 46 3e b5 6b 2c 3e d5 06 91 3d
       0.055784933 0.19356427 0.16837962 0.07081381
0001c0 93 d6 c9 be 96 1a 06 3f 0b 84 63 3e 7f ff 87 be
       -0.3942152 0.52384317 0.22218339 -0.26562116
0001d0 0b f5 75 bd f9 e8 dd bd 4c 85 2c 3e f1 93 27 3e
       -0.060048144 -0.10835452 0.16847724 0.16365029
0001e0 e9 49 44 bd 6a e8 77 bd 2d a6 d9 3d f9 7c 34 3d
       -0.04792205 -0.06052438 0.10627399 0.044064496
0001f0 01 d2 d2 bd 52 cc 8b bd 4f e9 49 3d 21 a7 35 3e
       -0.10293961 -0.068260804 0.049294766 0.17739536
000200 59 00 1b 3d 91 e4 39 3e 2f 39 88 3e 38 00 6d 3e
       0.03784213 0.18153597 0.26606128 0.23144615
000210 ce 4a 01 be f6 16 c2 3d 8c 79 ee 3d 14 6b b8 be
       -0.12626192 0.09477036 0.11644277 -0.36019194
000220 95 7e 38 be e9 a0 4f be a2 ed 54 3d e5 78 a7 bd
       -0.18017037 -0.20276226 0.051984437 -0.08177356
000230 0d d8 ac 3d b5 91 1e be b7 61 62 3e 1d 17 a4 3d
       0.08439646 -0.1548527 0.22107588 0.08012221
000240 92 21 ef 3c 6b e0 ff 3b 1a 83 d1 3d 2f 7f 72 3e
       0.029190812 0.007808735 0.10230084 0.23681329
000250 57 77 ca 3c f1 5b f9 bd 7c 9c 58 bd c3 c5 f0 bc
       0.024715109 -0.121757396 -0.05288361 -0.029391175
000260 1f 09 86 3c 91 e5 e5 bc f4 0f ce bd 64 b8 4b bb
       0.016361771 -0.028063567 -0.100616366 -0.0031085247
000270 ff b1 cd 3c a5 5b 31 3d 1c d0 b9 bc 22 3d 76 3d
       0.02510929 0.04330029 -0.022682242 0.060116895
000280 1c ba dc 3d 48 dc aa 3e c5 c4 6a 3d 7c f2 42 3e
       0.10777685 0.33371186 0.05731656 0.19037813
000290 e2 04 22 be 55 4a ba be 1a 13 b5 3e 05 ee 9d bb
       -0.15822175 -0.36384836 0.35366136 -0.004819634
0002a0 34 a5 a8 3d 6e f8 42 be c4 36 fd 3c a0 f8 96 be
       0.08234635 -0.19040081 0.030909903 -0.2948656
0002b0 f5 4d ff 3e fe c7 aa be ef a0 90 be 47 20 fc 3e
       0.49864164 -0.33355707 -0.28247783 0.49243376
0002c0 c9 1f 20 be 9a 31 ab 3d af c0 07 3e 81 1d b3 be
       -0.15637125 0.0835907 0.13257097 -0.34983447
0002d0 f9 65 2f 3e dc ad fa bc de 70 f3 be 6e 50 38 be
       0.17128743 -0.03060048 -0.47547048 -0.17999431
0002e0 42 32 a7 3b 4e 69 43 bd 76 c4 68 3d e6 6e 80 be
       0.0051024267 -0.04770785 0.056827985 -0.2508461
0002f0 df fa 2e 3e 30 db 93 bd 7c 4a 2e bd 07 0a bd bd
       0.17087887 -0.07219541 -0.042551503 -0.09230428
000300 c4 09 95 3d 29 bc 2f 3e 14 3b 90 bd 39 38 7b 3e
       0.07277253 0.17161621 -0.07042518 0.24533166
000310 26 de 6e bd 01 15 27 39 7c 4d bd bc b8 50 e7 3b
       -0.058317326 0.00015934186 -0.023108236 0.007059183
000320 a4 93 c7 bd 39 fe 47 3c c7 2b c4 3c c6 e5 ae 3d
       -0.09744957 0.0122066075 0.023946656 0.085399196
000330 23 a0 7c 3e a4 ca 1c 3e 6f 48 30 3e 35 47 8b bc
       0.24670462 0.15311676 0.17215131 -0.017001728
000340 fd f1 48 be a8 ac 44 3e b8 1b 7d 3e 31 d3 8b bd
       -0.19623561 0.19206488 0.24717605 -0.06827391
000350 6a 3d 83 be 78 aa 36 3e f1 96 c6 3d c2 20 04 be
       -0.25632793 0.17838466 0.096967585 -0.12903121
000360 e9 8a de bb 17 7d 0c be 13 26 02 3e af 8a 38 bc
       -0.0067914617 -0.13719593 0.12709837 -0.0112635335
000370 3f 6c 19 3e 62 d4 36 3e 73 20 87 3b 4c f9 00 3d
       0.14982699 0.17854455 0.0041237413 0.031487748
000380 16 58 a7 bd 91 ff 0a be 56 2f dc bd 74 f1 64 3d
       -0.08171098 -0.13574053 -0.10751216 0.05589433
000390 79 75 a1 3b ed 26 14 be fe 17 f7 3c 7e f7 e0 bd
       0.004927334 -0.14467974 0.030162808 -0.109847054
0003a0 31 7e 64 3d a3 ef 41 be 93 24 14 be 4a 81 0f 3e
       0.055784408 -0.1893907 -0.14467077 0.14014164
0003b0 2c f7 c0 bd 10 cb dc 3c f8 00 f7 3d e7 af 3b 3e
       -0.09422144 0.026952296 0.12060732 0.1832882
0003c0 77 a5 b1 bd 12 12 2a 3e 55 80 74 3d b9 1d 77 be
       -0.08674138 0.16608456 0.0596927 -0.24132432
0003d0 80 ea 9f bd 73 2e a1 bd e7 a1 34 bd 2e 4f c0 be
       -0.07808399 -0.078701876 -0.044099715 -0.3756041
0003e0 98 61 91 bd f3 99 65 be cd 97 ee 3d cd 8d 37 be
       -0.07098693 -0.22422008 0.116500475 -0.17925186
0003f0 5e c6 a0 3e 4f 16 e6 bc 00 4f 97 3c 1f 16 70 3e
       0.31401342 -0.02808681 0.018470287 0.23445939

prop_h_to_h.1.bias f4 [20]
000000 4b 4a 87 bc c8 72 1e bd c2 50 31 be f3 43 e7 bd
       -0.016514918 -0.038683683 -0.17315963 -0.11292257
000010 55 c0 ad 3d 18 6f 5c bb 45 02 c3 bc db 20 40 3b
       0.0848395 -0.0033635553 -0.023804793 0.0029316458
000020 f8 ff 0e 3e 97 cd dc bd 25 aa c0 3d 4d 2d 01 3e
       0.13964832 -0.10781401 0.094074525 0.12614937
000030 cb df d7 3b 1a de c4 3d b4 be 5e bd 8e 10 1a 3e
       0.0065879575 0.09612675 -0.054381087 0.15045378
000040 5f 55 55 3e 42 47 30 3e 36 7a 11 3e d0 07 bb 3d
       0.20833348 0.17214683 0.14206776 0.091323495

prop_h_to_h.2.weight f4 [20, 20]
000000 fb d2 11 be 6e 08 4a be 62 91 d2 bc b7 04 2a 3c
       -0.14240639 -0.19729778 -0.02570409 0.010377101
000010 c0 31 95 bd 4c c7 ba bc 97 3c 79 3d e4 e3 bf bd
       -0.0728488 -0.02280011 0.0608488 -0.093696386
000020 70 29 7a be f4 9c 46 3e f9 4a 3b 3e 93 96 35 be
       -0.2442987 0.1939581 0.18290319 -0.17733221
000030 7b 78 4b bc 6a 86 8a 3d 48 a5 75 3e bb 12 87 be
       -0.0124188615 0.06763919 0.23988831 -0.26381478
000040 f2 d4 32 bd 4c 5c 1c be a2 88 4c bc 64 e5 2c be
       -0.04366011 -0.15269583 -0.012483748 -0.1688438
000050 5d c6 23 3e 40 a3 23 3e f1 8c 96 3d e2 90 0c be
       0.15993638 0.15980244 0.07351101 -0.13727143
000060 e0 6d 46 3e 5a 4d 90 be 83 a9 9f 3d 5b 41 37 3e
       0.19377851 -0.28184015 0.07796004 0.17896025
000070 fb 12 d8 3e 50 fa 1d be 2c e7 2a 3d ee 15 b9 3d
       0.4220198 -0.15427518 0.04172437 0.09037386
000080 ce e7 4f 3e 26 52 35 be ea 25 fb bb 90 b0 35 3e
       0.2030327 -0.17707118 -0.007664432 0.17743134
000090 1f d1 44 3d d3 5b a0 3e eb db 46 be 20 6a c0 3d
       0.048050996 0.31320056 -0.1941983 0.09395242
0000a0 8d 93 11 3e e2 ae 75 bd 43 be 5d 3e ae cf 2b bd
       0.14216442 -0.059981234 0.2165461 -0.041946106
0000b0 ab de dc bc f2 3c 11 3e 74 cd 41 be 15 73 ea bd
       -0.026961645 0.14183405 -0.1892603 -0.114477314
0000c0 36 7d eb bc d3 d7 9e bd 35 18 01 3e f2 ff 4e 3c
       -0.028746229 -0.07756009 0.1260689 0.012634264
0000d0 f3 d0 22 be 8c 47 c5 3b b0 b0 14 3e e7 24 2a be
       -0.1590002 0.006020492 0.14520526 -0.1661564
0000e0 e4 61 fb 3d d4 7b a6 bd ad 8d 35 be e4 47 49 3d
       0.122745305 -0.08129087 -0.17729826 0.049140826
0000f0 f2 29 3a 3e 97 35 ea 3d 88 ab 31 bd 6c 44 7e bd
       0.18180063 0.11436003 -0.043376476 -0.06207697
000100 67 90 29 3e a5 d8 14 be 4e c5 12 3e df f3 8c bd
       0.16558991 -0.14535768 0.14333078 -0.06882452
000110 c3 83 68 3e c1 96 ff 3c 71 b1 ff bd 61 b5 3b 3e
       0.22706513 0.031199815 -0.12485016 0.1833091
000120 c2 a1 ab 3d a4 38 fb bd f6 33 23 be 96 50 c6 3d
       0.08380462 -0.12266663 -0.1593779 0.09683339
000130 87 74 fc bc 15 dc b3 3c 4a 8f 0a 3d 63 a2 59 bc
       -0.030817283 0.02195553 0.033828057 -0.013283345
000140 7c 64 3b 3e 3d c6 51 3d b3 63 3d be f8 1f c5 bc
       0.1830005 0.051214445 -0.18495063 -0.024063095
000150 20 c8 bb 3d c6 db 06 bd 70 da 76 bc 39 81 1f bd
       0.0916903 -0.032924436 -0.015066728 -0.038941596
000160 23 e7 72 3e 00 93 29 be e5 53 3b be ff 08 37 3e
       0.23720984 -0.16559982 -0.18293722 0.17874525
000170 26 a9 cb 3d c8 3f 02 3e ce 2b 39 bc 5f a4 34 3e
       0.09944372 0.12719643 -0.011301948 0.17640828
000180 f4 a6 33 be b3 5c 63 3e 7d 5a a8 3d e4 1a 95 3c
       -0.17544156 0.2220333 0.08220384 0.018201299
000190 b5 28 89 bc ee 3b ec bc c1 c9 b6 3d 25 99 23 3c
       -0.016743043 -0.02883717 0.089252 0.009985243
0001a0 67 ef 3b 3c b3 08 55 be 48 e3 4f be 1b d7 09 3e
       0.011470652 -0.208041 -0.20301545 0.13460962
0001b0 3a d0 c9 3d 09 39 ff 3d 8c 9a 22 be 3f 96 b8 3d
       0.09854169 0.124620505 -0.15879267 0.09013032
0001c0 1f 75 f4 3c 3c 10 64 3e 40 2d 42 3d f6 45 4e 3e
       0.029841004 0.22271818 0.047406435 0.20143875
0001d0 ea 04 a9 3d ad dc 0c 3e 92 5d c2 bd 65 79 a5 bc
       0.082528904 0.13756056 -0.09490503 -0.020199487
0001e0 b9 9e 58 bd ef e0 01 bb 42 46 86 be d6 c7 99 3d
       -0.052885745 -0.0019817909 -0.26225477 0.07508819
0001f0 8c 32 80 bd 87 82 9a be 1f a0 21 be 92 75 80 bc
       -0.06259641 -0.3017771 -0.15783738 -0.015681062
000200 b3 00 a4 3e 96 9a 75 bd 88 66 43 bd 39 eb 62 bc
       0.32031783 -0.059961878 -0.047705203 -0.013850027
000210 94 38 23 3d b2 31 f8 bd c4 16 3f 3d 24 4f 99 3e
       0.03984888 -0.12118854 0.04665257 0.29943192
000220 78 20 9d bd bb d0 c3 3e f8 18 15 bd fa c1 21 3e
       -0.076722085 0.38245186 -0.036400765 0.15796652
000230 9d fd f9 3d 0c 9e f8 bd e9 51 1d 3e 6d 09 6f be
       0.12206576 -0.1213952 0.15363277 -0.2334344
000240 87 68 0f 3d dd 7b 05 3e 8c 7f cb 3b 3d 78 51 3d
       0.035011794 0.13035531 0.006210273 0.05114006
000250 23 df 21 3d f0 5a 10 be 46 e4 a2 3d 9f 88 47 be
       0.03951944 -0.1409719 0.07953696 -0.1948571
000260 bd fe 25 3e 53 30 21 be 1c 84 85 bc 36 a3 8a be
       0.16210456 -0.1574109 -0.016298346 -0.27077645
000270 99 d6 39 bd ec 77 cc bd 85 c7 19 3e d8 6a 57 be
       -0.045370672 -0.09983811 0.15017517 -0.21036851
000280 78 5b b5 3a 42 4f 10 be 9d 6a 3f be cc ca 83 3d
       0.0013836464 -0.14092734 -0.18693013 0.06435165
000290 be 7d 63 3e 73 cb 98 bc d9 79 e7 bc 02 43 10 be
       0.22215936 -0.0186517 -0.028256344 -0.14088061
0002a0 d4 fe 0c 3e 1a 49 c7 3d fa 1e 25 be d1 17 58 3e
       0.13769084 0.0973074 -0.16125098 0.21102835
0002b0 51 d9 e5 bd fa 5b 1f 3d 04 31 33 3e 16 38 3f 3e
       -0.112230904 0.038906075 0.17499167 0.18673739
0002c0 77 64 db bd 6f a2 4c 3d eb 57 d9 3b 51 c8 95 bc
       -0.107125215 0.049959596 0.006632795 -0.018283995
0002d0 35 c7 87 3e 51 48 d7 bd 17 1d d8 3d f4 c8 60 be
       0.2651917 -0.1051184 0.105524234 -0.21951658
0002e0 52 00 19 3c cd 95 dd b9 22 8f 6b 3d d6 a5 ab bd
       0.009338455 -0.00042264015 0.05750955 -0.0838124
0002f0 d0 bf 1b 3e db cd 00 bc 6c 70 14 be 3d 39 98 3d
       0.1520989 -0.00786158 -0.1449601 0.07432792
000300 af 80 3b 3e 22 07 9e bd 07 00 a5 3d f9 6e 24 bc
       0.18310808 -0.07716204 0.08056646 -0.010036224
000310 42 cf 31 3e b3 a2 09 3d 82 70 16 3d 72 2f 98 be
       0.17364219 0.033602428 0.03672839 -0.29723698
000320 68 8f 05 3e 29 98 a4 3e f7 34 28 be d0 f0 2b be
       0.13042986 0.3214734 -0.16426454 -0.16791081
000330 4e 16 cd bd 44 8b 5b 3c 2a 04 79 be c0 47 d2 bd
       -0.1001402 0.013399903 -0.24317995 -0.102675915
000340 b7 e4 22 3e a7 89 49 3c 42 81 6e be bf fa 13 be
       0.1590756 0.012300885 -0.23291495 -0.14451121
000350 a7 bc 22 3e 1d 1d 54 3d fc 41 00 be 80 25 b7 3d
       0.15892278 0.051785577 -0.12525171 0.089426994
000360 01 52 07 3e 84 ec 51 3e d5 a6 26 3e 08 c5 f8 bd
       0.13214876 0.2050038 0.16274579 -0.12146956
000370 0c 33 09 3d 35 10 49 be 59 9c 25 bc 9d 38 8e 3d
       0.033495948 -0.19635089 -0.010108077 0.06944392
000380 06 34 d5 bd 86 88 0e 3e f3 58 0e be 57 1b 12 3e
       -0.10410313 0.13919267 -0.13901119 0.14268242
000390 e3 ad 79 3e 0e a6 98 3e 7a b6 17 3e 60 2a 18 be
       0.24382739 0.2981419 0.14815703 -0.14859915
0003a0 5c 0b 64 be 4f b8 90 bd 82 12 b2 bd dc 5c 98 3d
       -0.22269958 -0.07066404 -0.08694936 0.074395865
0003b0 bf 92 34 3c 7e 70 29 be d6 b7 4c 3e 79 bf 96 be
       0.011021315 -0.16546819 0.19992003 -0.29442957
0003c0 62 c2 a3 3e 89 5e ce 3e 76 1e 69 be 2c 75 00 be
       0.3198424 0.403065 -0.22765526 -0.12544698
0003d0 06 7e 90 3e e9 8c d1 be 8a 9d a0 be 06 9e e3 bd
       0.28221148 -0.40927818 -0.31370193 -0.11114125
0003e0 8f 12 03 3f 87 d0 81 be c2 68 79 bd 40 e5 21 3d
       0.51200193 -0.25354406 -0.06089092 0.03952527
0003f0 0a d8 9b 3e c4 b7 6d 3e 16 c5 0a be 52 8d be 3e
       0.30438262 0.23214632 -0.13551745 0.37217194

prop_h_to_h.2.bias f4 [20]
000000 80 73 88 bd a5 73 d7 3d 71 32 03 3e 9e ad 4f 3e
       -0.06662655 0.10520104 0.1281221 0.20281073
000010 6d d8 42 3c e7 c5 5c 3e 8a 49 51 3e 88 be 89 be
       0.01189242 0.21559869 0.20438209 -0.26903176
000020 27 bc 89 be 61 08 88 be 66 a0 3f 3e 25 91 1f be
       -0.2690136 -0.26568893 0.18713531 -0.15582712
000030 14 40 46 3d 18 70 e3 3d 8b 2f bc bd b4 78 01 3c
       0.048400953 0.111053646 -0.091887556 0.007902313
000040 b3 c6 06 3b 00 23 c2 bb fd 0c 28 bd 2d 3c 89 be
       0.0020565211 -0.0059245825 -0.04102801 -0.26803723

prop_h_to_h.3.weight f4 [20, 20]
000000 d4 02 a8 3d 8f 09 aa 3e c9 16 b2 bc 1d dc 82 bd
       0.082036644 0.33210418 -0.02173938 -0.063896395
000010 8e 7e a8 3e ff 68 0e 3e ac c8 8d 3e 36 0e 87 be
       0.32909054 0.1390724 0.27692163 -0.2637803
000020 6c 13 a0 3d 00 17 03 bd c3 fa 5a bd 94 3a 46 be
       0.078162044 -0.032004356 -0.0534618 -0.19358283
000030 49 2f 59 be 58 2a ef 3d f6 d3 19 3c 3f 5f 37 be
       -0.21209444 0.11677998 0.009388914 -0.17907427
000040 b1 96 49 be 83 8d 68 3d ba 68 18 be 2c e8 1b be
       -0.1968639 0.05677558 -0.148837 -0.15225285
000050 94 a9 8d 3c 68 a3 94 3e 44 a5 71 3e c1 ca 30 3c
       0.017292775 0.2903092 0.235982 0.010790528
000060 de 41 85 be ff 08 b6 bd de 49 06 bc 65 67 4b be
       -0.26026815 -0.088884346 -0.008196322 -0.1986366
000070 b5 9f 73 be 19 25 05 be 5c 92 0d 3e 36 5e a6 be
       -0.23791392 -0.13002433 0.13825363 -0.32493752
000080 c0 65 d0 bc 3b 9c d8 bd bb b9 86 be 18 02 ae bd
       -0.025439143 -0.105766736 -0.26313576 -0.08496493
000090 3d b0 a4 3d b7 ae 6f be 26 35 03 bd 6c 35 e0 be
       0.08041427 -0.23406492 -0.03203311 -0.43790758
0000a0 67 a8 08 bc 03 ce 82 3e a0 b8 5c 3e 94 eb 87 3e
       -0.0083409315 0.255478 0.21554804 0.2654692
0000b0 f6 1f 36 3e 5f bf 16 3e b2 cd ef 3d 34 b2 8d be
       0.1778563 0.1472144 0.11709155 -0.2767502
0000c0 ce c5 18 be de ae bb bc 9e fd 82 3e 41 ee 34 be
       -0.14919207 -0.022910532 0.2558412 -0.17669012
0000d0 ad 68 e2 3d 02 d8 26 3e 74 98 8e be 08 0c e0 3d
       0.110551216 0.16293338 -0.27850688 0.10939795
0000e0 21 88 89 3d 6d 84 04 be f8 29 7b 3e e8 d7 86 be
       0.06715418 -0.12941141 0.24527729 -0.26336598
0000f0 45 2e 00 3d b9 6c 45 3e 8c a7 b1 be e1 28 33 be
       0.031294126 0.19279756 -0.3469814 -0.17496063
000100 21 35 4c 3e 7c 18 7c 3d 35 76 15 3e c4 87 72 3e
       0.19942142 0.061546788 0.14595874 0.23684603
000110 28 dc 87 3e d6 23 af 3e 48 5a 5b 3d 21 19 d1 3d
       0.26535153 0.34207028 0.053552896 0.10209871
000120 14 f6 20 3e dc 52 f9 bd e2 2f 17 3e 38 60 3c 3e
       0.15718871 -0.12174007 0.1476436 0.1839608
000130 93 c9 1e 3e 80 72 b2 3d 07 0c 8f 3e cb c4 98 3e
       0.15506582 0.087132454 0.27938864 0.2983764
000140 b9 5c 39 be cf 2c f7 3d 0a d9 80 bd c5 b7 8b 3d
       -0.18101777 0.120690934 -0.06291397 0.06822161
000150 ec a7 36 be 41 c7 04 be 44 3d 9c be 7d f4 16 3e
       -0.17837495 -0.12966634 -0.30515492 0.14741702
000160 cb e9 28 be 6d bb 54 bd e1 07 a3 3d ee 97 bd 3c
       -0.16495435 -0.051936556 0.07960487 0.023143735
000170 a3 c5 15 be 96 50 67 bd 7f d2 dc 3d d0 2c 95 be
       -0.14626174 -0.056473337 0.107823364 -0.29135752
000180 9a 7a ec bd 60 5b 0d 3e 5d 50 0c be b1 7c a7 be
       -0.11546822 0.13804388 -0.13702531 -0.3271232
000190 6c bd b9 bd 61 75 a5 bc 24 c6 38 be 90 7b 85 3d
       -0.090693325 -0.020197572 -0.18044335 0.06517708
0001a0 de 9b b8 3d 9b 37 ac bd 4d 48 67 3e 9c 29 d2 bd
       0.09014104 -0.084090434 0.22586174 -0.102618426
0001b0 2b 6d 67 3e 30 dc 64 ba 78 f0 16 3e d4 4c 68 bd
       0.22600238 -0.000873032 0.14740169 -0.056713894
0001c0 fd b3 56 3e 4c 03 2d 3e 49 f6 87 be 4e c0 2a 3d
       0.20967098 0.16895789 -0.26555088 0.041687302
0001d0 93 1b 44 3e 88 ed 7d be 23 60 bd 3c ac 7f 03 3d
       0.19151144 -0.24797642 0.02311713 0.03210418
0001e0 cb a2 09 bc 9e a3 73 3e de f6 3e 3e ba ba 18 3e
       -0.008400629 0.23792884 0.1864886 0.1491498
0001f0 28 dd 20 be e7 b2 b1 bd d6 c9 22 be ed a4 3e be
       -0.15709364 -0.08676701 -0.15897307 -0.18617602
000200 8c 82 b6 3d 23 34 6e be 8b 35 c9 bd 01 82 45 3e
       0.089116186 -0.23262076 -0.09824666 0.19287874
000210 47 aa f1 3d 55 80 10 3e 1a 61 7d 3b ea 2b 93 bd
       0.11800056 0.14111455 0.0038662613 -0.0718611
000220 a4 cb 25 3e 4d 8b 42 be 1e 96 95 3d 32 4a 19 be
       0.16190964 -0.18998452 0.07304023 -0.1496971
000230 31 76 2c be c3 e6 b5 bc 26 00 3c 3e 10 8f 8b 3e
       -0.16841961 -0.022204762 0.18359432 0.27257586
000240 b9 39 09 3e 80 53 02 3e 93 01 aa 3e fb c7 77 be
       0.13400926 0.12727165 0.33204326 -0.2419738
000250 69 01 23 be 0f fd fe bc a3 e4 86 3d 06 3a 06 3e
       -0.15918507 -0.031126527 0.06586578 0.13108072
000260 da e2 f6 3d 5f 13 95 3e a1 59 a4 bd 7a 3d 0e 3e
       0.12054987 0.2911634 -0.08024908 0.13890639
000270 89 5b 58 3e 0f f4 8f 3e 49 b2 a2 bd ba 7f 60 bd
       0.21128668 0.2811589 -0.079441614 -0.05480931
000280 ed 73 8d bd 60 55 60 3e 80 97 8e bd f1 82 ea 3d
       -0.06906877 0.21907568 -0.0696249 0.11450756
000290 38 db 8e bd 06 e1 72 3e 6c ce bf 3e e5 17 8e be
       -0.069754064 0.23718652 0.37462175 -0.27752605
0002a0 19 b6 e3 3c 76 20 10 3d cd 69 06 3e d5 83 ea bd
       0.027796792 0.035187207 0.13126297 -0.11450926
0002b0 bf 3d f6 3d 0c 71 9e 3e eb 9e a1 be 8a 0e 09 3d
       0.12023496 0.30945623 -0.31566557 0.03346113
0002c0 29 03 28 3e 73 c5 6d bd 61 91 a5 3e 1e cc 7c 3d
       0.16407456 -0.05804963 0.32337478 0.0617181
0002d0 bf ab 99 3e 1a bb f5 bd 85 27 02 be 25 ab 1a be
       0.30013844 -0.119985774 -0.12710388 -0.15104349
0002e0 7c fe 61 bc db 65 6f be 36 ef 21 3e b7 3d 66 3d
       -0.013793584 -0.23378699 0.15813908 0.0562112
0002f0 2d 0f 6a 3e 03 8f 70 3e 0f ca 4b be 7d ca 32 3d
       0.22857352 0.23492055 -0.19901298 0.04365014
000300 5e f8 e8 be bc 71 47 3c 48 10 91 3e cc 49 06 be
       -0.4550199 0.0121731125 0.28332734 -0.13114089
000310 f6 db 85 bd b9 c9 03 3e 68 55 84 be da d9 24 bd
       -0.06536095 0.1286992 -0.2584641 -0.040246822
000320 ac 00 07 bd 56 5e 2a be de 93 4a be 5f 79 e2 3d
       -0.032959625 -0.16637549 -0.1978297 0.11058306
000330 1b a9 4f 3c b1 6a 94 bd 58 54 04 be 37 fe 35 3b
       0.012674595 -0.07246912 -0.129228 0.0027769932
000340 36 78 a5 bd 66 a2 b0 bd 83 ca 08 3e 7b 79 18 bd
       -0.08079569 -0.08624725 0.13358502 -0.037225228
000350 3a 0c c7 3d 9a 05 11 3e 34 ab 1b be a7 48 5f bd
       0.09719129 0.14162293 -0.15202028 -0.054512646
000360 da e3 4a 3e d5 fd 6c 3d 82 1d fb 3d 06 a5 43 be
       0.19813481 0.05785926 0.122614875 -0.1910592
000370 02 02 70 3e 00 4a 4f be ec 67 70 3e 76 4b 7d bc
       0.23438266 -0.20243073 0.23477143 -0.015459886
000380 fe a6 93 be e6 4d 88 be 2c 59 85 be c6 60 23 3e
       -0.28838342 -0.26621932 -0.26044595 0.15954885
000390 71 3e a1 be 5e f9 94 be 31 80 af 3d 4c 31 16 be
       -0.31492952 -0.29096502 0.085693724 -0.14667243
0003a0 7c f2 3f be 19 9b 4a bc 66 a1 35 bd ae b8 3d be
       -0.18744844 -0.01236608 -0.044343375 -0.18527481
0003b0 1f a5 af be 0e 50 c9 bd 24 c4 4a be aa 8d 9d be
       -0.34305665 -0.09829722 -0.19801384 -0.30772144
0003c0 64 70 39 3d f2 a7 21 bd db cb 19 be 77 36 0a 3e
       0.0452732 -0.039466806 -0.15019171 0.13497339
0003d0 5c 91 0d 3e 54 20 52 3d 14 33 3f 3e e8 31 b2 bb
       0.13824981 0.05130036 0.18671829 -0.005438078
0003e0 52 03 1a 3e 17 d7 b4 bd 3c d4 81 3e 1e 2b 75 be
       0.15040329 -0.08830088 0.25357234 -0.23942229
0003f0 fa 8f 99 3e 3e e3 be 3d 65 b7 b3 be 4c a8 51 3e
       0.29992658 0.09320687 -0.35100856 0.20474356

prop_h_to_h.3.bias f4 [20]
000000 08 7c 81 bd 9f 04 dd bd 9d 2b 18 bd 82 c6 a7 bc
       -0.06322485 -0.10791897 -0.037150968 -0.020480398
000010 14 f6 3f bd e7 f7 3e be bb 0e ca bd 55 4c 04 be
       -0.046865538 -0.18649255 -0.09866091 -0.12919743
000020 db c1 64 3d bd 67 87 bd ec 97 d6 3d e2 54 8d bd
       0.055848937 -0.066115834 0.104781955 -0.06900956
000030 6b 9b 01 bc 1c 70 62 ba e9 0e 25 bd 15 d4 6a be
       -0.00791059 -0.00086379214 -0.040297423 -0.22932465
000040 9c 0f 62 3d 26 af e0 bd 67 d5 db 3d 5e 7b 42 bd
       0.055190668 -0.10970907 0.10734063 -0.047480933

prop_h_to_h.4.weight f4 [20, 20]
000000 c3 97 27 3d 96 62 aa 3c fa 55 8c be d3 30 a5 be
       0.040916216 0.020798963 -0.27409345 -0.32263812
000010 89 7a ea 3d 68 f0 a9 be fe 3c 02 bd 78 74 84 be
       0.11449153 -0.33191228 -0.031796448 -0.2587011
000020 13 0a bc be 15 6f d2 3e 85 ee a7 bc db 5c b5 3e
       -0.36726436 0.41100374 -0.020499477 0.35422406
000030 cb b3 d1 bd 32 90 12 3e 73 a9 8d 3e 26 56 69 be
       -0.10239371 0.14312819 0.27668342 -0.2278677
000040 21 2d 4e bd 1b ce f3 be 63 13 af 3d a7 0b d7 be
       -0.050336007 -0.47618183 0.085486196 -0.42001078
000050 ff 61 a3 bd aa 2d ea bd 9e c6 5c 3d 4a f6 1b 3d
       -0.07977676 -0.11434491 0.053900354 0.038076676
000060 ae c5 d9 3c 34 5a 2c 3e 34 56 24 be c3 6a 55 3d
       0.026583519 0.16831285 -0.16048509 0.05210377
000070 45 47 18 3e be 27 32 bd d6 38 6b bd 2f 4f 18 bd
       0.14870937 -0.043494932 -0.05742725 -0.03718489
000080 e4 40 60 bd d6 bc 21 be 5f a6 39 3e 7d 99 72 3d
       -0.054749385 -0.15794691 0.18129872 0.05922841
000090 20 97 f9 bd ae 5e 87 3c 53 c4 50 bc fd c0 1e be
       -0.12187028 0.016524639 -0.01274212 -0.15503307
0000a0 aa 31 05 be d9 7e d3 3c 83 bb c9 3d 19 49 8f bd
       -0.13007227 0.025817322 0.09850218 -0.06996364
0000b0 e7 ba a6 bd 44 22 10 3e 30 46 06 be 0e ee 2e be
       -0.081411175 0.14075571 -0.13112712 -0.17082998
0000c0 34 eb da 3d ab ea 00 3d d6 27 45 3e cc 60 19 3e
       0.10689393 0.031473797 0.19253477 0.14978331
0000d0 e4 6e e0 bb 2a 3b 2e 3e 58 43 0c 3e 8f c5 7b 3e
       -0.0068491567 0.17014757 0.13697565 0.24587081
0000e0 fa bf 0b 3e a3 72 4d be c8 f9 55 3e 99 55 ee bd
       0.13647452 -0.20063262 0.20896065 -0.1163742
0000f0 a6 b1 f1 3c f8 00 fe bc e0 cf 5a be 8a 5f ca 3d
       0.029503655 -0.031006321 -0.2136836 0.09881504
000100 34 8c 8f 3d cd 47 a2 be 49 cd c0 bc db d2 ef bb
       0.070091635 -0.31695405 -0.023535388 -0.007318837
000110 25 b8 2a be 59 a5 f2 3d bd be 33 be 41 bb 63 3d
       -0.16671808 0.11847944 -0.1755323 0.0555985
000120 89 fe 8a 3d 9d c8 38 3e 49 17 00 be 78 a6 da 3c
       0.0678683 0.18045278 -0.12508883 0.026690707
000130 ed dc 86 bd 7d 61 65 be 5f 29 11 be 69 8e b3 3d
       -0.06585107 -0.2240047 -0.14175938 0.08767397
000140 4d fa 22 3e 82 40 db 3d f5 18 32 be 37 77 19 be
       0.15915795 0.10705663 -0.17392333 -0.14986883
000150 aa 49 82 bd 66 f7 c6 bc 1c fa 3c be 67 68 e9 bd
       -0.063617066 -0.02428789 -0.18454784 -0.11396866
000160 64 36 12 3d 1c 4f 41 3e ae f3 30 3d 61 c4 01 be
       0.035696402 0.18877834 0.04320114 -0.12672569
000170 a1 cc 7c 3d ee 5b 43 bd 38 64 78 be 2e 40 3a bd
       0.061718587 -0.047695093 -0.2425698 -0.045471363
000180 7c f0 5c be 53 6f a6 bd b3 3b 5b 3e 2a c8 86 bc
       -0.21576113 -0.08126702 0.21409492 -0.016452868
000190 f0 cb 42 3e 58 49 91 3d 69 e6 a0 3d 37 d8 15 bf
       0.19023108 0.07094067 0.07856447 -0.5853304
0001a0 e6 d6 c2 3d a8 b5 93 be b3 cc 73 be 86 ca 79 be
       0.09513645 -0.2884953 -0.23808555 -0.24393663
0001b0 68 3c 9a be ed 2b 36 3e 2d 7b c6 bc 74 df 34 bd
       -0.3012421 0.17790194 -0.024228657 -0.044158414
0001c0 e2 ef fe 3c 94 e9 b5 3d 32 25 4c 3e 4b ba f0 bd
       0.031120244 0.08882442 0.19936064 -0.117542826
0001d0 d1 49 6e be 5f 7c 6d be 3e 78 a2 bd 02 ea bf bd
       -0.23270346 -0.23191975 -0.079330906 -0.09370805
0001e0 c5 20 2e 3e 2d d9 b1 bd 8a 1f e1 bc c5 9c 85 3b
       0.17004688 -0.08684001 -0.02748086 0.0040775263
0001f0 ff 16 a2 bd 62 8c 74 be 1a b4 05 3e 23 76 87 3d
       -0.079145424 -0.23881677 0.13056985 0.0661433
000200 78 c7 c1 bc 10 b5 59 3d 96 a7 01 be 10 e5 22 be
       -0.023654684 0.05315119 -0.12661585 -0.15907693
000210 ac 36 52 3e b1 1c ce bd 5d 89 38 bd 78 73 59 3d
       0.20528668 -0.10064066 -0.045052875 0.053088635
000220 3e f2 4f bd 51 89 a1 3d e4 ec 81 3e 10 bf 32 be
       -0.05076813 0.07887519 0.25376046 -0.17455697
000230 7a 12 38 bc 9a 12 c4 3d af 52 5f bd f0 27 33 3d
       -0.011234874 0.095738605 -0.054522213 0.04373926
000240 a9 5f 46 bd 77 d4 e9 bb a1 6e d8 3d f1 5a 10 be
       -0.048431072 -0.0071359235 0.10567976 -0.14097191
000250 24 91 33 3b 57 6b 4d be f9 c2 2f be dc 40 42 3e
       0.0027399743 -0.20060478 -0.1716422 0.18970054
000260 ff 9f ed bd 6d b4 46 bd a0 ef bc bd 58 4a 21 3e
       -0.116027825 -0.04851191 -0.09225392 0.15751016
000270 ea 5e 69 3b 9b c6 b9 bd a8 63 6e 3d 23 2c 13 3e
       0.0035609552 -0.09071084 0.05820051 0.14372306
000280 32 67 39 be 13 4f cf bd 66 f8 dc be e7 52 c5 3c
       -0.18105772 -0.10122504 -0.43158263 0.024087382
000290 23 9c 48 3e ab 6d 67 3e 88 fa 24 3d 42 0a 42 3e
       0.19590811 0.22600429 0.040277988 0.18949226
0002a0 6d 13 c5 3c 50 30 e6 3d 3d 77 15 be 68 15 1a 3e
       0.024057114 0.11239684 -0.14596267 0.15047228
0002b0 da 20 da bd a4 1a a0 bd c3 e3 c1 bc 5d 72 90 bd
       -0.10650797 -0.07817581 -0.023668176 -0.07053063
0002c0 dd b0 8d bd 33 5b b2 3d c9 ea 36 be 58 1c be 3b
       -0.069184996 0.08708801 -0.17863001 0.0058017187
0002d0 d7 21 e9 3d 32 6e 14 3e dd 1f ad be f8 8e a8 be
       0.113834076 0.14495161 -0.33813372 -0.32921576
0002e0 03 b6 59 3e 36 60 da bd 7a ae 8d 3c 04 62 7a be
       0.21260838 -0.10662882 0.017295111 -0.24451452
0002f0 e7 2b 34 bc 73 5b 96 3e e1 ee 2d 3e d5 29 02 3e
       -0.010996795 0.29366645 0.16985656 0.1271127
000300 f1 d4 8b 3d 7c e0 44 bd 1e 12 8d bd bc 83 a3 be
       0.06827725 -0.048065647 -0.06888221 -0.31936443
000310 61 13 cc bd f5 ad d2 3c ab fb 04 3e d5 77 94 3d
       -0.09964634 0.025717715 0.12986629 0.07249419
000320 6b a4 72 3d 2e 43 38 3e 06 e2 ef 3d e5 0b 83 bd
       0.059238832 0.17994377 0.117130324 -0.06398753
000330 25 6a e0 bd 31 15 3f bd 78 17 ce bd 19 a9 1e be
       -0.109577455 -0.04665107 -0.1006307 -0.15494193
000340 a4 ee 8c bc a5 3f 35 be 07 b3 c7 bd 5d a6 42 bd
       -0.017203636 -0.1770006 -0.09750944 -0.047521938
000350 57 1c 4b 3c 73 03 65 3d 6a 0b 5d 3e 54 29 33 bd
       0.012396893 0.055911493 0.21586385 -0.043740585
000360 6c 91 f5 3d 3b 57 c1 bd ad 22 2a 3e 57 c2 ec 3d
       0.11990628 -0.09440466 0.1661479 0.11560505
000370 4d 38 9f 3d c8 7d 20 3e 5a 9b c6 3d ee 28 7c bd
       0.077744104 0.15672982 0.096976 -0.06156247
000380 ad 55 17 3d 7e 5b 93 bd a5 62 de bd 68 da 18 3e
       0.03694694 -0.07195185 -0.10858659 0.14927065
000390 ca 14 48 3e 38 df 79 3c f2 0e 82 3d b1 c0 da bd
       0.1953918 0.015250973 0.06350507 -0.10681284
0003a0 5a 41 a5 3d 04 e1 9b 3a 2b 8b 33 3e ec d9 a7 3d
       0.080691054 0.0011892621 0.17533557 0.08195862
0003b0 7e ea 5d 3c c9 a9 ae 3c b1 d9 a1 be bf 11 a5 3d
       0.013544677 0.021321194 -0.31611398 0.080600254
0003c0 ea f3 62 3d 6b 33 d5 3d 77 9e cb bd ff a5 44 3e
       0.055408396 0.10410198 -0.09942334 0.19203947
0003d0 0d a3 82 be eb c8 29 3e c7 c3 63 be 52 86 d9 3d
       -0.25515023 0.1658055 -0.22242652 0.10621323
0003e0 36 c2 93 3e 9c a6 e5 bd b5 9d 15 3e 28 35 79 be
       0.2885911 -0.11213419 0.14610942 -0.24336684
0003f0 1c 9e 74 3e f0 4b f1 bb f6 47 e7 bc 18 ce 8f 3d
       0.23888439 -0.007363789 -0.028232556 0.07021731

prop_h_to_h.4.bias f4 [20]
000000 e1 57 34 3d 73 d4 cf 3d 80 3b 82 3c 67 f1 0a bc
       0.04402912 0.10147943 0.015897512 -0.008480406
000010 56 e6 e7 bd fd e8 e2 bc 60 59 07 3d 23 ab 48 be
       -0.1132323 -0.027698988 0.03304422 -0.19596533
000020 67 aa ec 3d a6 55 bd bd 1c 84 24 be 7c a4 de bd
       0.11555939 -0.09244852 -0.1606602 -0.10871217
000030 f9 0e 00 be c8 09 1d 3d c7 07 5e 3d 01 c4 e3 3d
       -0.12505712 0.038339406 0.054206636 0.11121369
000040 49 0c ed bd be 6b f2 bd 4d 73 08 3d 38 77 1f 3e
       -0.11574609 -0.118369564 0.033313084 0.15572822

prop_h_to_out.weight f4 [1, 20]
000000 c7 38 03 be db 8b 4a bb 04 bf b2 bd 34 d6 af bc
       -0.12814628 -0.0030906114 -0.087278396 -0.021464445
000010 16 c7 80 bb 6e 19 2e bd 0d 46 dc 3d d3 91 ba bd
       -0.003929983 -0.04250472 0.107555486 -0.09109845
000020 60 cc af bc 2b 64 b1 bc df 2d f9 3b 03 cd 14 bc
       -0.021459758 -0.02165421 0.007604345 -0.009082082
000030 0f da fb 3d 80 63 c9 bc 72 8b 80 3d 17 dc bb bd
       0.12297451 -0.024583578 0.06276597 -0.09172838
000040 80 f0 09 3d 23 e0 ef bc 24 6d 99 bc 95 b4 27 3b
       0.033676624 -0.029281681 -0.0187288 0.0025589813
