model-prob-all-pmt-chnge/just_k/just_ddpg/Q.pth (torch, 13056 bytes, 13 tensors)

prop_in_to_h.weight f4 [20, 3]
000000 05 b5 ab be 94 a2 7e be 5f f9 a2 3e d2 08 6f 3e
       -0.33536544 -0.24866706 0.3183088 0.23343208
000010 2c 78 72 3e 1b fd b0 3e 3c ff 1f 3e 82 50 3b be
       0.23678654 0.34568104 0.15624708 -0.1829243
000020 4d 60 03 bf 6e 00 db bb 31 91 29 be 84 d7 10 3f
       -0.5131882 -0.006683401 -0.16559292 0.5657885
000030 05 b3 b4 be 34 f9 a5 3e 17 ac 81 3e 9b 23 08 be
       -0.3529283 0.3241669 0.25326607 -0.13294832
000040 81 a5 ec 3e c6 ce 4d 3e 94 a1 20 be 42 08 9d 3e
       0.4622002 0.20098409 -0.15686637 0.30670363
000050 1d 76 fe be e4 d2 90 be 1b 05 07 3c 91 b6 ea 3e
       -0.49699488 -0.28285897 0.008240963 0.45842412
000060 42 3f 3d bf 0c 6b 51 be 5c 25 07 3f 56 71 0e bf
       -0.7392465 -0.20450991 0.5279138 -0.55641687
000070 64 2a 36 be 6e 49 91 3d dd a8 f8 3e 23 8f 55 3e
       -0.17789608 0.07094084 0.48566332 0.20855384
000080 35 c7 73 3e b7 83 0b 3d db 08 70 3d a8 91 5f be
       0.2380646 0.03406116 0.058602195 -0.21832907
000090 2b b9 8a 3e ff 36 6e be 0f 9e b9 be 6d a5 aa be
       0.27094397 -0.23263167 -0.36253402 -0.33329335
0000a0 88 b0 8e be 02 ca 4c be bf 73 ea be 3a 8a e8 3e
       -0.27869058 -0.19998935 -0.45791432 0.45417958
0000b0 45 cf ce be 26 41 7e 3e e0 5c 55 3e ba bc 38 bd
       -0.4039251 0.2482954 0.2083621 -0.04510186
0000c0 f2 c0 42 3e 61 9f bd 3e f5 c2 2b be 7a 43 85 3e
       0.19018915 0.3703566 -0.16773589 0.26028043
0000d0 73 9b 1e bd cf b7 e5 bd fd 62 99 be 45 27 0e 3f
       -0.038722467 -0.11216699 -0.29958335 0.5552867
0000e0 ed 62 1b be 4b 2d 3d 3f f6 c2 ce bd c9 90 1f 3d
       -0.15174456 0.73897237 -0.100957796 0.038956437

prop_in_to_h.bias f4 [20]
000000 c9 fe d7 3e 5b 12 bf 3e e6 31 af 3e 08 cb ec bc
       0.42186573 0.37318692 0.34217757 -0.028905407
000010 45 cd ca 3e 57 cb c7 3e 96 8d 28 3d 2c 01 43 3e
       0.39609733 0.39022323 0.041150652 0.19043416
000020 62 13 46 be cd 07 f7 bd eb 79 a9 3d f7 02 b7 3d
       -0.19343331 -0.12062035 0.08275207 0.089361124
000030 be 70 84 be 8c a6 07 3f 36 ff 09 3f 57 72 10 be
       -0.25867265 0.52988505 0.53905046 -0.14106117
000040 5a 42 04 bf c6 9b 10 bd 56 a3 39 be e7 6d 8a 3e
       -0.51663744 -0.035304807 -0.18128714 0.27036974

prop_h_to_h.0.weight f4 [20, 20]
000000 41 10 29 bd 16 64 ba bd 0e cc 25 be ba 4f 11 be
       -0.041275267 -0.09101121 -0.16191122 -0.1419057
000010 7e 2f 02 3e 01 43 d2 bc 92 49 ec bd 94 eb d0 3d
       0.1271343 -0.025666716 -0.1153747 0.10201183
000020 e6 ae 5f 3d 0a 17 05 be 29 f6 c4 3c ad e5 56 3e
       0.054610156 -0.1299707 0.02404316 0.20986052
000030 15 b2 4b 3a 9f ca b2 3d 38 52 d0 3d e3 19 05 bd
       0.0007770372 0.08730053 0.10171932 -0.03249539
000040 e5 96 50 be 5e e6 ee bb 40 f8 9a 3d 09 8f 7a bd
       -0.20370062 -0.0072906455 0.07566881 -0.061171565
000050 0d 54 fd 3d c7 8d c7 bd eb 8f 5d 3e 7a 82 36 3e
       0.12369547 -0.09743839 0.21636932 0.1782321
000060 d4 d1 29 3e 0c c0 8d 3d 44 86 02 3e 2d a9 aa bd
       0.1658395 0.06921396 0.12746531 -0.08333049
000070 eb 0f 24 be 3c 26 83 be aa 7e dc bd 75 75 b3 3d
       -0.16021697 -0.25615108 -0.10766347 0.087626375
000080 a4 2e df 3b 36 59 09 3e 90 f2 c4 3d ae e4 2d be
       0.00681098 0.13412938 0.096165776 -0.16981766
000090 2d 7e 56 bd 07 57 c1 3d 07 83 78 be bf 2e 23 bd
       -0.052366424 0.09440427 -0.24268733 -0.039839502
0000a0 2c d1 f6 bc ed 98 88 3e 8c bb 8a 3c ed 54 d3 3d
       -0.030129038 0.26679173 0.016935132 0.10318933
0000b0 0a f7 83 3e 5c a2 27 3e 98 3f 4a 3c cd 9c 44 3e
       0.25774413 0.16370529 0.0123442635 0.1920044
0000c0 98 7d 1d 3e ae af 11 be 98 81 c8 3d 7c a2 8d 3d
       0.15379941 -0.14227173 0.09790343 0.06915757
0000d0 5e d5 ab 3d 3e f6 80 3e ed 75 e9 3d de c9 07 bc
       0.08390306 0.25187868 0.11399446 -0.008287875
0000e0 6f ae 97 3b 9b b6 92 bd 94 0d 09 be 47 7e 35 3e
       0.0046289484 -0.071637355 -0.13384086 0.17723952
0000f0 99 03 be 3c f1 68 2d be d0 2c 7f bd 6a 54 08 be
       0.023195075 -0.16934563 -0.062298596 -0.13313451
000100 70 34 00 3d 21 ad c2 bb 8c 9b bb bd ac 0f 2d bc
       0.03130001 -0.0059410487 -0.091605276 -0.0105628185
000110 15 b3 95 3c e0 5b a8 be a0 82 48 be da 9f ff bd
       0.01827387 -0.32882595 -0.1958108 -0.12481661
000120 a6 1d 2a be ce 25 b2 3c f5 3a 2f bd dd 60 82 be
       -0.16612872 0.021746542 -0.042780835 -0.25464526
000130 ca be 1c 3e 7c 51 0e bc e0 63 10 3e f7 42 94 3e
       0.15307155 -0.00868642 0.141006 0.2895734
000140 33 70 80 3b 51 6e 96 bc 83 3c 6b be 94 6b 10 be
       0.003919625 -0.01836315 -0.22972302 -0.14103538
000150 8c 05 f1 bc f3 a0 49 be 6c 76 51 bd 62 13 82 be
       -0.02942159 -0.19690304 -0.051138327 -0.25405413
000160 3a 2e 7f 3b a1 c6 26 3e bd ac 1f 3d 87 53 c9 bd
       0.0038937465 0.16286708 0.038983095 -0.09830385
000170 c0 7e 92 3d c2 2a 72 be 77 6d ba bd a2 67 2e ba
       0.07153082 -0.23649123 -0.0910291 -0.0006653016
000180 63 e3 37 3e 54 8f 12 3e 04 00 a8 3e 52 5b 28 be
       0.17957835 0.14312488 0.32812512 -0.16441086
000190 8c 92 16 be c8 84 93 be c2 a6 da bd 84 9e 34 3e
       -0.1470434 -0.28812242 -0.10676338 0.17638594
0001a0 cd fb 89 bb cf 5c 29 3b 0c d4 84 3d 28 64 02 be
       -0.004210925 0.0025842672 0.06485757 -0.12733519
0001b0 58 5f 52 3e 33 f2 34 bd cd 2f 5e be a0 42 b7 bd
       0.20544183 -0.04417629 -0.21697922 -0.089482546
0001c0 f0 9d 32 3e 3c 68 84 3b 25 e7 c1 bd 78 9e f4 3d
       0.17443061 0.004040746 -0.094679154 0.11944288
0001d0 5e c1 60 3e 3a a4 a8 bd d3 03 d7 3d b5 7f d1 bd
       0.21948764 -0.08234449 0.10498776 -0.10229436
0001e0 a7 33 1e be e2 03 7b be 19 c9 31 be 8f e7 1b 3d
       -0.15449391 -0.245132 -0.17361869 0.03806263
0001f0 20 f1 3e bd ac 11 0f 3e 2e 12 43 be c4 37 80 3d
       -0.046616673 0.13971585 -0.19049904 0.062606364
000200 ab e1 ef 3c 9b 4a 2b be 81 62 8d bd 6f 0c 2b 3e
       0.029282412 -0.16727678 -0.06903554 0.16703962
000210 29 49 a4 bc 31 57 b6 bd 16 87 c0 3d 56 e5 e0 bd
       -0.020054417 -0.08903349 0.094007656 -0.10981242
000220 fd 40 80 3e 25 0d fc 3c 2c 85 1f 3e 92 e2 12 be
       0.25049582 0.030767987 0.15578145 -0.14344242
000230 3d 95 62 3e 89 da 62 3e e1 3d 37 3e 87 9e 49 3e
       0.22127242 0.22153677 0.17894699 0.1968938
000240 cf 66 54 bd 40 a7 b6 3c 97 39 55 3d d4 64 16 3e
       -0.05185586 0.022296548 0.052056875 0.146869
000250 d6 82 6b 3e 69 ed bc 3d f1 22 30 3e ba 46 a5 3c
       0.22999129 0.0922497 0.17200829 0.020175327
000260 10 a1 cc 3a f7 1a 0a 3e dd db 50 be 93 ec 3a be
       0.0015611965 0.13486849 -0.20396371 -0.18254308
000270 68 41 23 3e de d6 f7 3c 16 8c aa bd 21 ad 25 be
       0.15942919 0.030253824 -0.083275005 -0.16179325
000280 c8 07 97 bc 46 c4 c5 bd 41 09 78 3e 13 ad 7e 3e
       -0.018436328 -0.09656577 0.2422228 0.2487071
000290 fd 79 78 3e 20 63 46 bc 5e d0 57 3e 9a 80 c3 bb
       0.24265285 -0.012108594 0.2107558 -0.0059662582
0002a0 d5 b3 09 bb 7a b5 86 bd 45 f6 75 3d aa 49 7f 3e
       -0.002101173 -0.06577583 0.060049314 0.24930444
0002b0 72 cc fe 3d dd 64 f6 3d 78 6d 08 3d 1c 9c 1e be
       0.124413386 0.12030957 0.033307523 -0.15489239
0002c0 49 ed 81 3d c6 3a d7 3d 05 e3 de bd c0 44 89 3e
       0.06344087 0.10509257 -0.10883144 0.26810265
0002d0 50 6c 8a 3d 28 df 90 be be b8 2d be 5d 82 36 3d
       0.0675894 -0.28295255 -0.16965005 0.044557918
0002e0 fe af eb bd 5e 82 a3 bd f7 49 ac 3d 3d 7c 7b be
       -0.11508177 -0.0798385 0.08412545 -0.24559112
0002f0 be 78 fe bd 7a 73 34 3e b2 4c 86 bc 1f ee 07 be
       -0.124253735 0.17622176 -0.016393993 -0.1327443
000300 bd 49 3c 3e 1c 91 68 be 37 04 80 be 31 e6 08 3e
       0.18387504 -0.22711605 -0.25003216 0.13369061
000310 5a 37 11 be 45 05 f1 bc 1c 7f 48 bd 94 5f 91 be
       -0.14181271 -0.029421458 -0.048949346 -0.28393233
000320 e5 9a c2 3d 6a 29 43 3e a3 4a 1a 3e 6e 5c 67 3d
       0.095022 0.19058767 0.15067534 0.056484632
000330 da 01 29 be 75 ff ed 3c 1b 7b 0a 3e 98 b0 88 bd
       -0.16504613 0.029052475 0.13523524 -0.066743076
000340 d9 83 a4 bd 0e 80 a3 3d 31 92 6b 3d bc 50 39 3c
       -0.080329604 0.07983409 0.057512466 0.0113107525
000350 bd 7f e7 bc 3e 91 f8 bd 59 6c bb bd 23 55 99 bd
       -0.028259153 -0.12137078 -0.09151525 -0.07486942
000360 91 b2 21 be d1 d6 cd bb 88 2b 5f be 72 5c 8c 3e
       -0.15790774 -0.0062817116 -0.2179395 0.2741428
000370 0e e2 18 be 74 c2 17 bd 25 5b 54 3e 60 a2 18 3e
       -0.14929983 -0.03705068 0.20737894 0.14905691
000380 92 61 26 3e a5 90 1f 3e f5 0a 54 3e 04 ca f3 bb
       0.16248158 0.15582521 0.20707305 -0.0074398536
000390 14 ad a8 3d 47 a4 a5 3d 9b 56 29 bc b3 fb b7 3d
       0.08236137 0.08087974 -0.01033559 0.08983555
0003a0 4c 6f 10 3e da b7 31 be ce a9 63 3e ac d0 88 3d
       0.14104956 -0.1735529 0.22232744 0.06680426
0003b0 9e 41 37 be a8 f4 37 3e 92 64 96 bd 12 75 4a 3b
       -0.17896125 0.17964423 -0.07343401 0.0030892533
0003c0 3c 5f 71 be 80 b1 6b bb de 30 af 3c b7 8a 95 bd
       -0.23571485 -0.0035963953 0.021385606 -0.073018484
0003d0 61 1c 2b be 0d 9a 58 3d d5 a5 c9 bd ab 3f 3e be
       -0.16710044 0.05288129 -0.09846083 -0.18578975
0003e0 0d 58 22 be 20 c9 07 3e 0b fd 85 bd bb 6a ec bd
       -0.15853901 0.13260317 -0.06542405 -0.11543795
0003f0 7d 57 0d be b0 d5 c5 3b 97 6b 89 be db fa b0 3c
       -0.13802905 0.0060374364 -0.26839897 0.021603992

prop_h_to_h.0.bias f4 [20]
000000 a5 03 6d 3e ef fc e0 3d 37 47 8a 3e 64 22 80 3e
       0.23145922 0.10985743 0.27007458 0.25026238
000010 d0 7b 00 be 27 29 62 be 75 03 15 3e 79 fb 04 bd
       -0.1254723 -0.22086011 0.145521 -0.032466386
000020 b5 f3 94 3e 00 92 b7 bd 0d b0 4d 3e 7e 15 33 be
       0.29092184 -0.08963394 0.2008669 -0.17488667
000030 30 82 b7 3d af 17 45 3e e0 4e 00 be 64 5e 81 37
       0.08960378 0.19247316 -0.12530088 1.5421952e-05
000040 c3 d9 51 be 68 ec 81 be 1a 6c 27 be ae aa 6a be
       -0.20493226 -0.25375676 -0.16349831 -0.22916672

prop_h_to_h.1.weight f4 [20, 20]
000000 05 af 0d 3e 7e f3 38 be 9c f7 66 3d 36 e7 22 3e
       0.13836296 -0.18061635 0.056388482 0.15908512
000010 11 06 9a bc fa a3 86 bd 72 ab a2 bd 52 da d6 3d
       -0.01880172 -0.06574245 -0.07942857 0.1049086
000020 2e 41 04 bd c8 fb 46 3e f2 4d 13 be 42 5f 69 3e
       -0.032288723 0.19431984 -0.14385203 0.22790244
000030 2f 9f 85 3d 99 bf fd bc 6a c4 17 be 53 0e 04 be
       0.065245025 -0.03097515 -0.1482102 -0.1289609
000040 ca bd 59 3e 52 83 4b 3e 61 da bb bd e0 b0 4d 3e
       0.21263805 0.19874313 -0.09172512 0.20087004
000050 ea 12 f1 3b 97 dc 21 3e 35 44 f0 bd 9b 7b 36 bd
       0.007356991 0.15806805 -0.117317595 -0.044551473
000060 d3 f2 74 be 74 00 d6 bd 31 b0 e4 3d 7d c1 3f be
       -0.23920755 -0.10449305 0.11166418 -0.18726154
000070 0f 1d d5 bd 66 ee 58 3c 1c 0e 03 be e5 84 9e bd
       -0.10405933 0.013240432 -0.12798351 -0.07740191
000080 a5 b0 3c 3e 79 40 40 3d 6a 80 6d be 50 06 e7 bc
       0.1842676 0.046936486 -0.23193517 -0.028201252
000090 e2 ad 4b be 57 b5 61 be c7 9c 0f be 3f 61 bb 3c
       -0.1989055 -0.22041832 -0.1402465 0.022873519
0000a0 a3 31 19 3e 9b e4 7c be 1d 42 2e be 82 66 31 be
       0.14960341 -0.24696581 -0.17017408 -0.1732426
0000b0 dc c3 f8 3d 75 57 46 3c a7 09 f5 3d e6 21 25 3e
       0.12146732 0.012105812 0.11964732 0.16126212
0000c0 9f 0d a7 be 4a ed 7d 3d a1 23 89 bc 4b fe 73 3e
       -0.3262758 0.061993875 -0.016740622 0.23827474
0000d0 67 83 e9 3d 54 da 9b be 28 a4 b0 bd 24 29 72 bd
       0.11402016 -0.3044001 -0.0862506 -0.059121266
0000e0 55 f8 03 3e a3 e1 fc 3b a1 9b ee bd 9e 65 0e bc
       0.128877 0.0077173277 -0.116507776 -0.00869122
0000f0 d6 82 34 ba 25 42 09 be de 21 57 be 39 89 fa 3c
       -0.0006885951 -0.13404138 -0.21009013 0.030583011
000100 35 fc 39 bd 0c 9f 2c 3c 9a e7 41 3e 4c 07 46 be
       -0.04540654 0.010535967 0.18936005 -0.19338721
000110 6c 09 16 be ca 00 39 3e ca 88 fc 3d 10 a8 68 3e
       -0.14652032 0.18066707 0.12330778 0.22720361
000120 43 83 7d 3d df c1 2f be 76 62 4b be f7 73 0d 3e
       0.06189276 -0.171638 -0.19861779 0.13813768
000130 df d4 ea 3d b3 63 3c 3e 00 33 9f bd 49 00 13 3c
       0.11466383 0.18397407 -0.07773399 0.008972236
000140 c5 29 40 3b 91 11 d9 bc 56 cf 0d be 69 ef 18 bd
       0.0029321772 -0.026497634 -0.13848624 -0.037337694
000150 db 8d 36 3d 14 20 69 3e 1e 87 a3 3c 93 11 36 3c
       0.044568878 0.22766143 0.01996189 0.011112588
000160 0b 4a 8c be 72 ae 59 39 01 27 40 3d 36 54 0d be
       -0.2740024 0.00020759719 0.046912197 -0.13801655
000170 d5 85 aa bd 6a 52 61 be 05 8a 0e be 03 0a 91 3c
       -0.08326308 -0.22004095 -0.13919838 0.01770497
000180 bf d2 18 3e 84 7b 2e bb d4 b5 6f 3d 1d 02 f6 bd
       0.14924143 -0.0026623914 0.058523014 -0.12012122
000190 b0 5e 42 3e cd 6b 5c 3e 1c f8 46 3d 3c 91 51 bd
       0.18981433 0.21525498 0.04857646 -0.051163897
0001a0 6d c4 57 3d 46 1f 96 3d d1 d6 42 3e 55 3e 01 be
       0.05267756 0.07330184 0.19027258 -0.12621434
0001b0 8b 5a 86 3d b9 ee ad 3d d1 35 28 3e 0f 0e 98 3a
       0.065602385 0.08492798 0.1642678 0.001160087
0001c0 d2 c7 22 be 06 90 41 bd d2 d9 b5 bd bc f8 ec bd
       -0.15896538 -0.047256492 -0.088794366 -0.1157088
0001d0 04 66 9e be 1e 2c 02 bc dc 79 44 3e 4a fc 54 be
       -0.30937207 -0.007945089 0.1918711 -0.20799366
0001e0 ea b3 80 3e 0c a2 97 3c b3 72 9a bd a5 b4 3d 3d
       0.25137264 0.018509887 -0.075414084 0.046314854
0001f0 56 43 bc bd 09 3a 3b 3e 7b d3 62 3d 0a c4 03 be
       -0.09192531 0.18283857 0.055377465 -0.12867752
000200 37 8c 0c 3e 85 bf 12 3e 9d 45 01 3e 87 e0 87 3d
       0.13725363 0.14330871 0.12624212 0.06634622
000210 3b 3c 9f 3d b9 5d f2 bd fe c0 7f 3d 8f b8 de 3c
       0.0777516 -0.118342824 0.06243991 0.027187614
000220 b0 31 94 ba c3 f1 1d 3e d4 be 12 be e5 71 8a bc
       -0.0011306312 0.15424256 -0.14330608 -0.016900012
000230 89 f0 ba 3d 0e 52 4f be c5 69 8e 3d ed 98 12 3e
       0.0912791 -0.20246145 0.06953768 0.14316149
000240 c2 ae 96 3d 9f b4 47 3e 8d 4b 50 3e 24 9b 64 be
       0.07357551 0.19502495 0.2034132 -0.22324806
000250 da 16 55 bd c2 0d 2d 3e 8e db 08 be 66 be d3 3c
       -0.052023746 0.1689978 -0.13365003 0.025847625
000260 9c 62 79 3b 96 e4 39 be 69 04 17 be 1c d1 12 3e
       0.003805316 -0.18153605 -0.14747776 0.14337581
000270 27 98 7e 3e 39 fc f8 bd 02 e6 49 bc 30 4c 58 3e
       0.24862729 -0.12157483 -0.012322905 0.21122813
000280 35 b1 fe bd 1c 34 97 3d 5d 34 7c be 5b a5 6a 3d
       -0.12436143 0.07382986 -0.2462935 0.0572866
000290 a2 91 5e 3e 81 bb 6a 3e 35 14 a4 3c 34 1b 25 3d
       0.21735242 0.2292309 0.020029167 0.040309146
0002a0 64 f1 a8 bd b0 73 67 3e f4 0b 25 be 2a 59 13 3e
       -0.082491666 0.22602725 -0.16117841 0.14389482
0002b0 95 93 28 3b 5f 87 19 be 6f f5 e1 3c 55 e1 8c 3c
       0.0025722731 -0.14993046 0.027582852 0.01719729
0002c0 bb 1c 58 3e 00 32 56 3e 2e 5b 3f bd 59 be 72 3e
       0.2110471 0.20917511 -0.046717815 0.23705424
0002d0 f0 0f 60 3d c6 be 80 3c 9d 1f 2b 3e 94 b9 d8 3d
       0.0547027 0.015715968 0.16711278 0.10582271
0002e0 be 37 9c be 2b 4d 7d be ba 40 22 3e b4 44 9a 3a
       -0.30511278 -0.24736468 0.15845004 0.0011769743
0002f0 22 cf e7 3d 9f c2 3f be f5 79 fb 3d c2 4e 13 3e
       0.11318804 -0.18726586 0.12279121 0.14385512
000300 8b 33 c8 bd f9 e8 73 3e 48 2d a6 3d a9 28 61 be
       -0.09775456 0.23819341 0.081141055 -0.21988167
000310 9e c0 47 3d 29 4b dd bd 3f 45 c2 bd a8 9c bb bc
       0.04876768 -0.10805351 -0.09485864 -0.022901848
000320 52 6f 79 be c1 ac 1e be 7d a6 85 3c 47 35 24 be
       -0.24358872 -0.15495588 0.01631474 -0.16035949
000330 fb f9 91 3c 44 6c 79 3e ee 75 1e 3e c4 a8 8d bd
       0.017819395 0.24357706 0.15474674 -0.06916955
000340 a1 35 81 3e 4a 37 2c be 5d 11 0f 3e 0e 82 20 bd
       0.25236228 -0.16817966 0.13971467 -0.03918653
000350 ee b3 83 3d 21 96 99 bd 14 69 75 3e 0d 94 73 3e
       0.06430803 -0.07499338 0.23965865 0.23786946
000360 d7 3e b5 3b 5e a2 34 be 61 d1 02 be 07 6f 14 3e
       0.0055311727 -0.17640063 -0.12775184 0.14495479
000370 fd 58 d9 bd 18 f5 94 be 88 17 95 be 42 1f 5f bc
       -0.10612676 -0.29093242 -0.29119515 -0.013618292
000380 bc e6 96 3c f4 44 33 bc 62 b5 3c be a4 1e 5e 3d
       0.01842057 -0.010941733 -0.18428567 0.05422844
000390 1c 6c 6e 3d 4a 7d 1e 3d b6 f6 82 bc e8 11 15 be
       0.05820857 0.038693704 -0.015986782 -0.14557612
0003a0 71 ef 1c 3e 16 78 11 be 62 9e fd 3d 7e 25 58 3e
       0.15325715 -0.14205965 0.12383725 0.21108052
0003b0 19 df 48 3d 42 f3 b8 3d 69 e5 52 3e dc 98 cc 3d
       0.049040888 0.09030773 0.20595326 0.09990093
0003c0 74 86 59 bd 19 98 2f be 60 9c d0 3d 7f 7f 09 be
       -0.05310674 -0.17147864 0.10186076 -0.13427542
0003d0 50 69 eb 3d d3 4c 02 3e 4a 14 6a 3d 4c b1 4f be
       0.11494696 0.12724619 0.057148255 -0.20282477
0003e0 ec a8 34 be f9 2d f9 bd 25 65 85 3d f2 2e d2 bb
       -0.17642564 -0.12166972 0.065134324 -0.0064142877
0003f0 e1 b8 25 3e 4b 8c 92 bd 5a b9 41 3d e8 3f 29 3e
       0.16183807 -0.07155665 0.047295906 0.16528285

prop_h_to_h.1.bias f4 [20]
000000 22 fd a0 be 6d 68 b4 bd c4 ef ba bd ea f2 98 be
       -0.31443125 -0.0880898 -0.09127763 -0.2987283
000010 67 7d 16 bc 48 b4 7c bd cb f0 ab bd 44 19 e9 bd
       -0.009185172 -0.061695367 -0.08395537 -0.11381772
000020 dd ae 8a bd b9 8d 66 3e ab 53 45 be 71 0b 27 be
       -0.06771634 0.22515 -0.19270198 -0.16312958
000030 82 40 6b be d7 0c 86 3e 37 99 e1 bd 8a a1 d1 bb
       -0.22973827 0.2618167 -0.110155515 -0.006397431
000040 d4 fa 0a 3e 00 d2 51 be c0 2f 66 3e 34 8b a2 3e
       0.13572246 -0.20490265 0.22479153 0.3174683

prop_h_to_h.2.weight f4 [20, 20]
000000 ed 46 02 3d 74 94 49 3b 08 af 82 be ff 60 57 be
       0.03180592 0.003075865 -0.25524163 -0.21033095
000010 d1 06 02 be 75 4c ae bd bf 8f f1 3c fd b7 a0 be
       -0.12697913 -0.08510677 0.029487489 -0.31390372
000020 48 20 4f be d4 27 8d 3e f5 09 ff bd fd 2a 9d 3d
       -0.20227158 0.2756945 -0.12453071 0.07674215
000030 ec 41 fd bc 79 51 27 3e 8b b1 27 3d f2 32 83 bd
       -0.030915223 0.16339673 0.040940803 -0.064062014
000040 fc 7e bc bd c0 d2 42 be da ea 97 bd 8c 7a 84 3e
       -0.09203908 -0.19025707 -0.07417841 0.25874746
000050 f8 a8 86 3d 96 59 06 be 1b b0 67 3e e9 58 7e bb
       0.06575197 -0.13120112 0.22625773 -0.0038810319
000060 3f f4 c2 3c 3b 9e d9 bd 77 c7 3c 3c f7 13 c5 bd
       0.023798106 -0.10625883 0.0115221655 -0.096229486
000070 26 dc 89 3e 7c ab 65 be 35 9f fc 3d 88 32 69 3e
       0.26925772 -0.22428697 0.12335054 0.22773182
000080 70 85 93 3d e0 f5 94 bd 97 a0 50 be 0f 5c 0c 3e
       0.072031856 -0.072734594 -0.2037376 0.13706993
000090 fc 9c 5d 3d 2f 8a cd bd 6c 97 52 3d ad 1b 9c bd
       0.05410479 -0.10036122 0.05141394 -0.07622466
0000a0 0a 57 8f 3e a2 fd 2b 3e 87 bb 86 3e 8a 02 69 3e
       0.27996093 0.16795972 0.26314947 0.22754875
0000b0 88 d7 96 bb 91 65 d9 bd 85 dd db bd 25 c9 f6 bd
       -0.00460333 -0.106150754 -0.10735611 -0.12050084
0000c0 3f d9 54 3e c9 21 43 be 1a fe 64 3c 8d 55 7b 3e
       0.20785998 -0.19055857 0.013976598 0.24544354
0000d0 ac c2 59 3e 83 a0 ff 3c ba b1 04 be 80 32 bb bd
       0.21265668 0.031204468 -0.12958422 -0.091404915
0000e0 87 8a 61 bd 26 2c 2e 3e 31 4f 99 be 49 6f f1 bd
       -0.05506375 0.17009029 -0.2994323 -0.11788804
0000f0 8d 5b 32 3d d6 51 d3 3d 42 26 8c bd de b9 ee bc
       0.04354434 0.10318343 -0.068432346 -0.029141363
000100 da c3 6f 3d 90 0b 51 bd fe f5 23 bd 17 60 f0 3d
       0.058536388 -0.051036417 -0.04002952 0.11737078
000110 07 ed c0 3d 99 54 69 bc e6 ef 32 3e 59 f0 1f bd
       0.094202094 -0.014241361 0.17474326 -0.039047573
000120 2c 9a 43 3e fb d3 41 be 4c 69 68 3e 20 77 14 be
       0.1910178 -0.1892852 0.22696418 -0.14498568
000130 c9 54 40 3e 32 3b 23 be 59 31 c6 bd 6a 48 cf 3c
       0.18782343 -0.1594055 -0.09677381 0.025303084
000140 04 d7 fd 3d 83 85 a1 bd 96 56 32 bd 6a 09 5c 3e
       0.123945266 -0.078867935 -0.043539606 0.21487966
000150 80 c1 18 3e c9 d6 63 3d 85 ce 7e bd 3b 53 46 3e
       0.14917564 0.055624757 -0.06220867 0.19367687
000160 cc c4 93 3e 98 06 c1 bd 04 95 07 3e 15 db f3 3d
       0.28861082 -0.09425086 0.13240439 0.11907021
000170 b9 d3 d6 bd 0a ef 85 3b 52 dd 90 3d e2 42 20 be
       -0.10489602 0.0040873336 0.070734635 -0.15650514
000180 9f 6f 05 bc b0 b7 3d 3e 8e 9d 11 3c cc 9a 35 be
       -0.008144288 0.18527102 0.008887662 -0.17734832
000190 4c 2a 24 3c 00 83 02 3e 4a 1b 8f 3e b2 05 94 3d
       0.01001985 0.12745285 0.27950507 0.07227649
0001a0 2b bd 9a bd 28 d7 03 be cf 49 20 3e 94 7f 6f 3e
       -0.07555612 -0.12875044 0.15653156 0.23388511
0001b0 1f a4 5d 3e cb e5 09 bd ca 82 7b 3e 5b 57 56 3d
       0.21644638 -0.033666413 0.24561611 0.052329402
0001c0 84 ce 05 bb 93 18 4b be 0c df 90 3d a5 35 97 bd
       -0.0020417282 -0.19833593 0.07073793 -0.07383279
0001d0 4d 43 92 bd ca 61 78 3e 1e 90 5f be 44 90 c2 3a
       -0.07141743 0.24256054 -0.2183232 0.001484402
0001e0 b9 6f 85 3d dd 99 05 3d 1a a9 94 be 9e a1 88 be
       0.0651545 0.03261744 -0.29035264 -0.26685804
0001f0 77 12 59 3d e6 9e 20 3d 60 3c 01 3e 31 f7 c2 bc
       0.052996125 0.039214037 0.12620687 -0.02379951
000200 77 de 18 3e 9d c5 23 bc c3 cb aa 3d d2 87 2d 3d
       0.14928614 -0.009995845 0.08339646 0.042365856
000210 c8 26 ce bd 95 96 35 3e 9d b0 10 3e 9f 32 75 3d
       -0.10065991 0.17733224 0.14129873 0.05986273
000220 bf 9f 92 3c c1 a4 fa 3d 23 f4 26 3d 4d 23 55 3e
       0.017898438 0.122384556 0.04076017 0.20814247
000230 96 4e 18 3d 56 5f 79 bb 2d 15 25 3e a0 0c 14 be
       0.03718432 -0.003805121 0.16121359 -0.14457941
000240 8b 26 0a 3d a9 96 f2 3d 9b 42 09 be f8 8e c2 b9
       0.033728164 0.118451424 -0.13404314 -0.00037109083
000250 18 7b 4a 3e a1 47 9d bd 49 64 cf bd 3a b7 68 3c
       0.19773519 -0.07679678 -0.1012655 0.014203841
000260 bb be 58 bd a2 6c 45 3e d5 00 ab bd 47 9b 02 3e
       -0.05291627 0.19279721 -0.08349768 0.12754546
000270 e4 e8 52 bd 4f 7a 1a be 06 7d 20 3e c3 f3 13 be
       -0.051491633 -0.1508572 0.15672693 -0.14448456
000280 76 26 8f 3d 11 97 23 bd d7 3d 8f 3d 8d 6c 1c be
       0.06989758 -0.03993899 0.06994217 -0.15275784
000290 48 f3 c9 bd e5 f5 2f 3d 93 da 99 bd 7d 0f 5b be
       -0.09860855 0.042959113 -0.07512393 -0.21392627
0002a0 1e b9 80 be e9 52 7f 3e da 1f 28 bc 75 ca 88 be
       -0.25141233 0.24933971 -0.0102615 -0.26716962
0002b0 ae 95 a3 bd dd 94 08 3e 82 90 07 bb 82 78 77 3e
       -0.079875335 0.13338037 -0.0020685499 0.24167064
0002c0 ab 2d 4e 3e 0a e9 8f be 00 77 94 3d 40 fc 17 3e
       0.20134608 -0.28107482 0.0724926 0.1484232
0002d0 36 ae 65 3c 5e d2 18 3e 34 57 b9 3c ff 17 95 bd
       0.014018586 0.14923999 0.02262459 -0.072799675
0002e0 99 bd 97 3d 12 34 21 3e 30 60 69 bd 7a df a8 3d
       0.0740921 0.1574252 -0.056976497 0.0824575
0002f0 a2 bd f8 bd 89 bf e4 3b 12 54 96 be 67 79 4d be
       -0.121455446 0.0069808406 -0.29361016 -0.20065843
000300 54 8c eb bd 98 1f e0 3d b0 66 bd 3d 2a 03 9b bd
       -0.11501375 0.10943526 0.09248102 -0.07568963
000310 04 3a d8 bc c1 c7 5f bc 53 65 84 3e 07 c9 a2 3d
       -0.026394852 -0.013658465 0.25858554 0.07948499
000320 3f 80 37 be 54 28 19 3e 45 e2 8b bd fa cd aa bd
       -0.17920016 0.1495679 -0.06830267 -0.08340068
000330 06 bc 6c be c3 4d e3 bd 90 20 13 be ab 01 d4 3d
       -0.231186 -0.11098816 -0.1436789 0.10351881
000340 3a 8b ba 3d 69 09 8d 3e 6c 1c 8e bc 75 27 5a be
       0.091085866 0.27546242 -0.017347537 -0.21304114
000350 7d 9f bf 3d a4 50 c8 bd db c1 ec bd 1b 1a 83 bd
       0.09356592 -0.09781006 -0.115604125 -0.064014636
000360 69 d3 78 3b d9 f4 08 be 9c db 9b 3c 04 57 15 3e
       0.0037967807 -0.13374652 0.019025616 0.14583975
000370 08 f0 dc 3c c4 cb 99 bb de f9 78 be 9b da a6 be
       0.026969925 -0.00469348 -0.24314067 -0.32588658
000380 c2 09 9e 3d 79 8b 17 be 49 a8 5c be ec 1a b7 bd
       0.07716705 -0.14799298 -0.2154857 -0.08940682
000390 6a a3 c8 3d c1 a3 3b 3d 95 e2 a3 bd d4 1b e4 bd
       0.09796794 0.045810465 -0.080022015 -0.1113812
0003a0 eb bd 0a be cf ef a0 3e 4d a6 b5 bd 8e a6 48 bd
       -0.1354901 0.3143296 -0.0886961 -0.048986964
0003b0 0c da 54 3c e1 89 54 3d 12 0f 44 3e bd e3 65 3e
       0.01299144 0.051889304 0.19146374 0.22450157
0003c0 9b d1 98 bc 31 ad af 3b 40 c3 1c bc 49 7e 91 3c
       -0.018654635 0.005361222 -0.009568036 0.017760413
0003d0 3c 34 95 bc fb b5 51 be 3d c6 3f 3e 5a e7 eb 3c
       -0.018213384 -0.20479576 0.18727966 0.02879684
0003e0 1c da 24 be 68 6e ab 3d 4d 96 cd 3d e8 b5 25 be
       -0.16098827 0.08370668 0.10038433 -0.16182673
0003f0 4b 51 11 3e 70 4d 16 be 26 a4 32 3e 7e 81 1c 3e
       0.14191167 -0.14677978 0.1744543 0.15283772

prop_h_to_h.2.bias f4 [20]
000000 b9 c2 51 3e 10 97 ac be 6a be 1f be 95 8c 65 3e
       0.20484437 -0.33709002 -0.15599981 0.22416909
000010 27 fd 6e be 23 66 7a be d7 70 e4 3d 56 1d 23 3e
       -0.23338757 -0.24453025 0.11154335 0.1592916
000020 66 f1 e1 3d 71 9c 64 3e 13 d6 3a 3e ad db 15 3e
       0.11032371 0.22325303 0.18245725 0.14634581
000030 88 bb 1b bd 08 fa 8f be 95 45 0e be ac 2e 4a 3e
       -0.03802064 -0.28120446 -0.13893731 0.19744366
000040 e5 ca f8 3d a6 f0 9b 3e 4d 86 30 3e af cf 8c 3e
       0.12148074 0.30457038 0.17238732 0.275022

prop_h_to_h.3.weight f4 [20, 20]
000000 85 48 97 3e 1e b2 00 3b 5c 66 92 be cb 97 54 3d
       0.29547516 0.0019637416 -0.2859372 0.051902574
000010 96 fc ac bd 65 ec a1 be 9e 81 63 3e 2e 98 75 3e
       -0.084466144 -0.31625667 0.22217414 0.23983833
000020 6b 10 af 3d ac 2b 5d 3e d5 c4 49 3e fd c7 a2 3e
       0.08548053 0.21598691 0.19703992 0.31793204
000030 7c ee 52 be 39 d2 a4 3d 55 95 38 bd 09 2a f1 3d
       -0.20598787 0.08047909 -0.04506429 0.11775596
000040 38 95 12 3e d8 27 c4 3d 48 08 8b 3e e3 24 ac bb
       0.14314735 0.09577912 0.27154756 -0.0052534207
000050 b1 39 f1 3d fe f3 ec 3d 28 d6 4f 3d 36 4e d5 3d
       0.11778582 0.11569975 0.050741345 0.10415308
000060 a6 9e c3 3d 53 df bb 3d 1f b4 33 bd 10 12 18 be
       0.09551744 0.09173455 -0.04387295 -0.1485064
000070 77 bf b6 bd c8 22 17 3e 9b d4 46 be 50 6a 1d 3d
       -0.08923238 0.14759362 -0.1941704 0.038431466
000080 b5 65 0a 3e 7b d7 63 3e 3b 9b 96 bd c2 c0 e1 3d
       0.1351536 0.22250168 -0.073538266 0.11023094
000090 2e d2 81 be 27 26 39 bc 9c 18 43 be dd c2 56 3d
       -0.25355667 -0.0113006 -0.19052356 0.05243193
0000a0 7f 94 41 be 5e 5c 6a 3e 7f a4 a4 3d 52 49 ac 3d
       -0.18904303 0.22886798 0.08039188 0.08412422
0000b0 94 59 ea 3d 70 99 96 3e f1 57 83 3c 77 e9 43 be
       0.11442867 0.2941394 0.016033145 -0.19132029
0000c0 20 33 52 be 71 79 a5 be 49 f3 02 be 0f d5 9a 3d
       -0.20527315 -0.32319215 -0.12788118 0.07560169
0000d0 c6 ef 17 3e b2 28 80 3d 8a a2 04 3e 62 9c 57 bd
       0.1483756 0.06257762 0.12952629 -0.052639373
0000e0 0c de 8a be 0d 2f 85 be 23 e7 15 3d 24 a3 9e bd
       -0.27122533 -0.2601246 0.036597382 -0.0774596
0000f0 21 75 ff 3a 62 15 53 3d 81 23 02 be ab 0c 0c 3e
       0.0019489863 0.051534064 -0.12708856 0.13676707
000100 bd 1f 64 3d 1a dc ce 3d c2 12 6f bb 21 9b 9d 3d
       0.05569433 0.10100575 -0.0036479686 0.07695604
000110 46 db 07 3e 5a b9 1a be a1 6a 1f be de fa 22 be
       0.1326724 -0.15109769 -0.1556802 -0.1591601
000120 01 6c 27 3e 67 ac f7 3d ba 1f 02 be 90 0f 3e 3e
       0.16349794 0.1209343 -0.12707415 0.18560624
000130 63 42 86 3d 43 ea 1d be 3d ac bd 3d 7e 62 0d bd
       0.06555631 -0.15421395 0.092613675 -0.034517758
000140 d8 c1 91 be 31 8d 2a 3e 9e 83 97 3d 41 b5 cb 3d
       -0.28468204 0.16655423 0.07398151 0.09946681
000150 01 ac 14 3e 33 f8 85 3c ff f2 d2 bd 6a 75 93 be
       0.1451874 0.016353702 -0.10300254 -0.28800517
000160 ed 7f 83 be 2c 49 9d be 19 81 4e be 33 85 a2 be
       -0.25683537 -0.30719888 -0.20166434 -0.31742248
000170 fc a5 03 3e ec 58 a7 3e 3c f0 22 bb f7 7c 9c be
       0.12856287 0.3268503 -0.002486243 -0.3056409
000180 9a dd 5f bd 13 bb a9 3d fb d7 c8 bd 4a a4 8b be
       -0.054654695 0.08287635 -0.0980682 -0.2727378
000190 c4 10 71 3e 0d 07 76 be 98 14 67 3d 0c de 99 bd
       0.23541552 -0.24026127 0.056416124 -0.07513055
0001a0 08 4c 16 be fe 30 cf bc 51 28 9b 3e 61 64 61 3c
       -0.14677441 -0.025291916 0.30304196 0.013756842
0001b0 78 96 98 3e e7 5b 5a bd 12 0e 8a 3d d4 59 9f 3e
       0.298023 -0.0533103 0.06740965 0.3112322
0001c0 6c f4 6f bd 5e 9c b5 bb ca 32 89 be fd 81 42 bd
       -0.05858271 -0.005542322 -0.2679656 -0.047487248
0001d0 44 bc 78 bd 0e 51 48 3e ba 09 d3 bc 82 1a 7a bd
       -0.06072642 0.1956217 -0.025761474 -0.061060436
0001e0 d3 1e 78 be b4 29 8b 3e 38 34 51 3e 79 ef 07 be
       -0.24230509 0.27180254 0.20430076 -0.13274945
0001f0 9a 88 01 bd 57 6c 9d 3d f5 95 70 be c9 42 a0 bc
       -0.031624414 0.0768668 -0.23494704 -0.019563096
000200 d6 09 74 3d 70 1d 73 be d0 69 91 be f9 27 ec bd
       0.059579693 -0.23741698 -0.2840104 -0.11531062
000210 f2 c6 45 bd 05 a8 3e bd d0 a3 ea 3d 0c 4c b4 3d
       -0.048285432 -0.046546955 0.11457026 0.08803567
000220 70 aa df bd 98 ba 64 be 2b 26 88 be 2f 99 13 be
       -0.1092118 -0.22336805 -0.2659162 -0.14413904
000230 c1 00 e5 bc 1f 4d a5 3d 07 a1 94 be b1 c3 20 3e
       -0.027954461 0.0807135 -0.29029104 0.1569965
000240 5c 1f af be ef 65 59 be c1 b4 c8 3c 98 73 06 bd
       -0.34203613 -0.21230291 0.024500253 -0.032825083
000250 85 8a e3 3c 23 f4 18 3c b8 c1 89 3e 41 a5 22 3e
       0.027776012 0.0093355505 0.26905608 0.15883352
000260 87 96 cb 3d 47 49 ab be 4e db 9e be 10 c7 a1 3e
       0.0994082 -0.33454344 -0.3102669 0.31597185
000270 6f e3 bb 3d 0a 77 61 bd e9 f4 3e 3e 83 6c ea bc
       0.09174239 -0.055045165 0.18648113 -0.028616196
000280 65 7f 2c 3c 7a 7c a2 be 58 1f 85 be 61 64 83 3e
       0.01052842 -0.31735593 -0.26000476 0.2566252
000290 1a b5 92 be 91 7a 54 be fe 16 1e bd 37 7e 3d 3e
       -0.28653795 -0.2074988 -0.038596146 0.18505178
0002a0 0f f5 38 3e fe 67 1f 3e 14 b1 17 3b 7b 93 32 bd
       0.18062232 0.15567014 0.0023146318 -0.04359768
0002b0 ed a6 18 3e 58 7f 82 be 88 65 3c be f0 8a d8 3d
       0.14907427 -0.2548778 -0.18398106 0.10573375
0002c0 e3 f0 0b 3e bf ca 81 3e ca d3 f3 bd 74 10 c2 3d
       0.1366611 0.25349995 -0.1190563 0.094757944
0002d0 66 0f 80 be 59 71 7e 3e d2 64 a9 bd 49 4f 1e be
       -0.25011748 0.24847926 -0.08271183 -0.15459932
0002e0 dc eb f4 3d 1b 3b 3f 3e bf 65 d7 ba 5a d1 21 be
       0.11959049 0.1867489 -0.0016433521 -0.15802518
0002f0 b5 86 80 be 78 d2 ba bd 7b a6 88 be 55 b1 34 be
       -0.25102773 -0.09122175 -0.26689515 -0.17645772
000300 d8 43 99 3d d7 1a aa bd 4a b9 5f 3e ec 1f 33 bb
       0.07483643 -0.083059005 0.21848026 -0.002733226
000310 ce 81 99 be 7f 72 d7 bd c7 3d b2 3c 83 1d 19 bd
       -0.29981846 -0.10519885 0.021757973 -0.03738166
000320 b2 be 6a bd 59 8c 17 bc ee 44 36 be be 72 51 3e
       -0.057310767 -0.00924977 -0.17799732 0.20453927
000330 d5 65 b3 3d 6a 51 cb 3d ab 75 18 be ca 08 fa bb
       0.08759657 0.09927638 -0.14888637 -0.0076304423
000340 55 c4 da ba c0 d7 83 3e 0f ea 82 3d 99 c4 85 3d
       -0.0016690592 0.25750542 0.063922994 0.06531639
000350 96 ec 8a 3d 31 6b c7 3c 3e 4a 68 bd 8b 72 2a 3e
       0.067834064 0.024343105 -0.056711428 0.16645257
000360 d2 72 02 3d 1e ae 19 be 15 d2 21 3d 84 57 60 3e
       0.031847782 -0.15007827 0.03950699 0.21908385
000370 26 b9 52 bc fb 15 38 3d fd 87 46 bd 86 96 28 bd
       -0.012861526 0.044942837 -0.048469532 -0.041159175
000380 7c 9a ef 3d 30 f3 05 be 82 70 77 be e8 e2 0b 3e
       0.116993874 -0.1308105 -0.24164012 0.13660777
000390 52 b5 0b be fa 35 05 b9 61 4e 75 be 8c 83 cb bd
       -0.13643387 -0.00012703976 -0.2395568 -0.099372
0003a0 87 fc c8 3d 70 ea 77 3e cc 4b 2c 3e 2a 25 17 be
       0.09813791 0.24210525 0.16825789 -0.1476027
0003b0 98 62 f4 bd e8 6c 84 be 4c ff 7d be c7 14 4b be
       -0.11932868 -0.2586434 -0.2480442 -0.19832145
0003c0 ca 43 40 bd 1a f5 1c be 3c 45 dc bd 41 60 07 3c
       -0.04693965 -0.15327874 -0.10755393 0.008262695
0003d0 77 50 4e 3d c8 39 a7 3d 20 18 54 3e 72 40 92 3d
       0.050369706 0.08165318 0.20712328 0.07141198
0003e0 a2 56 8e bb ac c9 bf 3d fa cf 48 3e da 13 8b bd
       -0.0043438235 0.09364638 0.19610587 -0.06790896
0003f0 41 b1 c5 3d 78 a3 4f bd 67 6c c2 bc 7f 74 45 3e
       0.09652949 -0.050693005 -0.02373333 0.19282721

prop_h_to_h.3.bias f4 [20]
000000 8c 03 53 3e 1b 55 bc bd 8d 81 8b be f9 9d b0 3d
       0.20606822 -0.0919592 -0.27247277 0.08623881
000010 19 ec ac be d8 4d 15 3e 50 5d 8c be 24 23 99 3e
       -0.33773878 0.14580476 -0.27414942 0.29909623
000020 b1 f4 a6 3e 88 e4 98 be 38 89 8b 3e 37 1f cd bd
       0.3260856 -0.29861856 0.27253127 -0.100157194
000030 83 68 3c 3e 68 c8 53 3e 0d 12 fd 3d 17 1f 9e be
       0.18399243 0.20681918 0.123569585 -0.30883095
000040 b2 35 56 be 15 9d 8b be 65 12 c2 bd 42 e4 87 3e
       -0.2091892 -0.27268282 -0.09476165 0.26541334

prop_h_to_h.4.weight f4 [20, 20]
000000 d7 8d f7 bd 3e b2 8a bd 34 04 5f 3e 59 4f 38 bd
       -0.12087601 -0.06772278 0.21778947 -0.044997547
000010 5b 92 f6 3d 85 5f 4b be cb c4 be 3d 3d 92 85 3d
       0.12039634 -0.19860657 0.09314879 0.06522033
000020 1e 07 80 bd e2 1a 75 3e c8 78 03 bd 06 48 52 3e
       -0.062513575 0.23936036 -0.032097608 0.20535287
000030 91 98 6c be 4d 1a 3f 3c 04 a8 06 3e c5 22 16 3e
       -0.23105074 0.011663985 0.1315003 0.14661701
000040 d0 49 c9 3c 5d 60 ff 3d b8 ec 78 3e 91 91 49 be
       0.02457133 0.12469552 0.24309051 -0.19684435
000050 e6 64 02 3e c7 4e 26 be fe 65 61 be 47 76 d4 3d
       0.12733802 -0.16240989 -0.22011563 0.10374122
000060 d7 84 5e be 20 10 cc bd 92 3f f2 bd 1d a8 11 3d
       -0.21730362 -0.09964013 -0.11828531 0.035560716
000070 a0 da ea bd 98 48 2f be 6e 2b 33 be cd 07 85 3d
       -0.11467481 -0.17117536 -0.17497036 0.064956285
000080 9a 25 de 3d 94 21 1b be 7a b3 44 be 67 94 ac 3b
       0.10847016 -0.15149528 -0.1920909 0.0052667144
000090 5e 7a 4f 3d fc bf 79 bd a8 3a 4a be 20 2f 1a bd
       0.050653808 -0.060974106 -0.19748938 -0.0376426
0000a0 f4 4e 06 be b9 d2 61 3e d4 74 4a 3d a8 47 92 3d
       -0.13116056 0.2205304 0.049427822 0.071425736
0000b0 24 26 e5 3d cb d7 82 be 49 98 a6 3e 47 8a aa bc
       0.11188915 -0.25555262 0.3253806 -0.020817889
0000c0 e8 9c bf bc 2f 3a f4 3d f8 9f bc bd 65 26 7e 3e
       -0.023390248 0.1192516 -0.09210199 0.24819334
0000d0 2b e2 78 3c ab 83 65 be 9f fa 2d be 7d f2 1a 3e
       0.015190641 -0.22413509 -0.16990136 0.15131564
0000e0 27 41 ce 3c 57 91 b4 3d c4 48 06 3e b7 48 8b be
       0.025177551 0.08816784 0.13113695 -0.27203915
0000f0 70 7d 91 3e a3 a3 95 3d 7f d4 e6 bd 0e d0 b2 bd
       0.28416014 0.07306602 -0.11270999 -0.087310895
000100 1d 58 4f bd 8b 5b 07 3e d9 6d 80 bd 72 37 d8 3c
       -0.05062114 0.13218515 -0.06270952 0.026393626
000110 44 aa 86 3e 00 d5 9d be 57 45 a1 3e 3e 63 36 be
       0.26301777 -0.3082657 0.31498215 -0.17811295
000120 9b cf 1e 3d 84 fa a9 3e 0f b0 4e 3d 6e e9 5b bd
       0.038772207 0.3319894 0.05046087 -0.053689413
000130 2c 7e 4e 3d d5 e1 ca bd 4d aa b2 bc 1d 15 38 3e
       0.050413296 -0.09906355 -0.021809721 0.17976804
000140 03 20 a1 be 10 29 f4 bd b7 d1 87 3e 9a 62 5a 3d
       -0.31469736 -0.119218946 0.26527187 0.05331669
000150 2b 5b a8 bd 77 04 04 be 73 09 8d 3d 58 0d 66 be
       -0.08220514 -0.12892328 0.06886568 -0.22466028
000160 8b 1e 2c be 70 8f 99 bd e5 91 f2 bc 39 34 a7 bd
       -0.16808526 -0.07498062 -0.029610584 -0.081642576
000170 1f 6f c6 bd 77 c7 38 be c0 59 1a bd 22 86 48 3e
       -0.096891634 -0.1804484 -0.03768325 0.19582418
000180 af a2 62 3e b1 cc 3e 3d ec 6b 93 3e e4 ee 37 be
       0.22132371 0.046581928 0.28793275 -0.17962223
000190 35 82 7b 3c 68 8a 7a bc 49 57 9d 3e 65 da 1b 3c
       0.015350868 -0.015291788 0.30730656 0.0095125185
0001a0 45 0c 37 3e f2 18 88 be 52 ad 9d 3e e2 a2 96 be
       0.17875774 -0.26581532 0.30796295 -0.29421145
0001b0 a0 65 94 be ba 85 a2 bd d5 6b 9b be fc 15 e0 bd
       -0.28983784 -0.079356626 -0.30355707 -0.10941693
0001c0 4c 37 89 3c 4e 67 4a be 29 f4 62 be 3b d6 a2 3d
       0.01675 -0.1976597 -0.22163452 0.079510175
0001d0 66 59 4e 3e 67 2e 9f 3e 25 7e 7d bd 28 d1 74 be
       0.2015129 0.3109009 -0.06188788 -0.23907912
0001e0 90 c3 ef bd 49 95 44 3e 04 d1 ca 3d e1 dd 18 be
       -0.117072225 0.19197573 0.09903148 -0.1492839
0001f0 94 1f b7 3d 89 c6 9b be 6d 65 90 3d e6 3c 02 3d
       0.0894157 -0.30424908 0.070505954 0.03179636
000200 84 32 02 be 5f c3 39 3d c7 b9 aa be 58 cb d2 bc
       -0.12714583 0.045352336 -0.33344862 -0.025731727
000210 5e 61 41 be 4d fa 93 bc 4c 54 82 be f7 62 87 3c
       -0.18884799 -0.018063689 -0.25454938 0.016526682
000220 09 4a 9d 3e 21 8a 99 3d c4 a9 5e 3e e0 61 0a be
       0.30720547 0.07497049 0.21744448 -0.13513899
000230 d1 21 ba 3c c8 b9 20 bd 40 25 b2 3c 89 71 46 3e
       0.022721203 -0.039239675 0.021746278 0.19379248
000240 a5 78 4b 3e d1 da 87 3c f4 88 7c 3e 79 eb 4c be
       0.19870241 0.016583832 0.24661618 -0.200117
000250 0f 38 0e 3c 30 fc 0a 3e 53 46 cf 3d 4f ef 2c 3c
       0.008680358 0.13572764 0.10120835 0.0105551025
000260 98 c1 1f bd 13 10 59 be b9 89 33 bc 5e c6 6c 3e
       -0.039002985 -0.21197538 -0.010958129 0.23122546
000270 75 8d c9 3d 3f bf 8c 3c 95 d3 03 3e 5b 7d 1d bd
       0.09841434 0.017181037 0.12873681 -0.038449626
000280 1c e4 72 bc af 90 e3 bd 84 ed 32 be de a5 fe bd
       -0.014824893 -0.111115806 -0.17473418 -0.124339804
000290 0c 31 b2 bd e0 9a 83 3e ec ec 97 be 59 e1 c6 3c
       -0.08700761 0.25704098 -0.29672945 0.024277376
0002a0 53 a9 99 3e 03 d1 24 bd b0 56 60 3d b0 34 95 be
       0.30011997 -0.04023839 0.05477017 -0.2914176
0002b0 db 73 64 3e 36 b0 10 bd 4b b5 44 3e b3 1c 45 be
       0.2230982 -0.035324298 0.19209783 -0.19249229
0002c0 c1 49 1d 3d a3 7c 7e 3d 15 ef ae be a7 b0 a5 3e
       0.038400415 0.06213058 -0.3416678 0.32361338
0002d0 fb ff 45 3d 45 1a 14 3d 43 d8 7a bd b6 c0 21 be
       0.048339825 0.036157865 -0.0612414 -0.1579617
0002e0 88 18 9f 3e 9e 1a 6a be 97 70 7a 3e 5d 21 b2 3d
       0.31073403 -0.22861716 0.24457012 0.0869777
0002f0 5c b7 aa 3b 30 16 6e 3e 12 a9 3a bd 70 78 80 3e
       0.0052098464 0.23250651 -0.045571394 0.25091887
000300 5b 60 aa be 2b 97 5a be a9 1c b9 bd f7 31 ff bc
       -0.33276638 -0.21346729 -0.090386696 -0.031151755
000310 84 77 e0 3c c3 eb 9a 3d 8c 10 a4 3e d1 44 91 bd
       0.02740074 0.07564499 0.32043874 -0.07093204
000320 ca f9 09 be 3e 8c 2f 3d 91 73 8a 3d 23 b0 d9 3b
       -0.13474193 0.042858355 0.06760324 0.0066433116
000330 7d 18 6d bd 0a f4 67 3d 3e 1d 33 3e f9 b8 9f be
       -0.057884682 0.05662922 0.17491624 -0.3119581
000340 f2 b5 81 be 43 a0 8c 3d ff d7 6d 3d fa fd 49 3d
       -0.25334126 0.06866505 0.058067318 0.049314477
000350 c2 9b a4 3d 00 b9 90 be 3c a0 cd 3d e6 db 79 bd
       0.08037521 -0.28266144 0.10040328 -0.061000727
000360 20 7f db 3d ba 8c ad bd 70 99 82 3e 32 80 61 be
       0.107176065 -0.08474107 0.2550769 -0.22021559
000370 de 06 1c 3d 94 74 e3 bd 1b a4 8d bd ac 24 b8 bd
       0.038092487 -0.1110622 -0.06916066 -0.089913696
000380 6a 54 16 bc 9d 83 67 3c 66 1c 36 be 06 59 85 3e
       -0.009175399 0.0141305 -0.1778427 0.26044482
000390 2d 15 00 3e 50 b0 0a 3d d0 57 9b 3e 8e 13 6c be
       0.12508078 0.03385955 0.30340433 -0.23054335
0003a0 3b e8 84 bd 3f a6 75 3e cf 64 0c 3d 58 5a f3 bd
       -0.06489607 0.23989199 0.034275826 -0.11882466
0003b0 7d 19 aa be 47 cf c7 bd 1a 3f 6c be 12 65 8b 3e
       -0.3322257 -0.09756332 -0.23070946 0.27225548
0003c0 a9 87 28 3c 65 35 4f be c8 a4 48 3a ca 2e 40 3d
       0.01028625 -0.20235212 0.0007653949 0.04691962
0003d0 57 b2 0d 3d 2c 5c 15 3e 5e 43 73 be e0 6b 94 3e
       0.034593906 0.14585942 -0.23756167 0.28988552
0003e0 37 55 92 3e 24 0d a8 bd 3c 18 11 bd a4 68 2e 3d
       0.2858064 -0.082056314 -0.035423502 0.04258026
0003f0 fd 08 9e 3e 97 af 57 3e 82 80 32 3e 7b d1 4c bc
       0.30866233 0.21063076 0.17431834 -0.012501116

prop_h_to_h.4.bias f4 [20]
000000 69 f6 d6 bc 4c ae 45 3e 07 96 79 3d 51 d9 32 3e
       -0.026240544 0.1930477 0.060934093 0.17465712
000010 f6 35 1b be 67 52 8e be d6 01 86 be e9 84 9f be
       -0.15157303 -0.27797243 -0.26173276 -0.3115609
000020 e1 06 1c 3e f2 c8 73 be 52 fb a0 be e9 a6 08 3e
       0.15236999 -0.23807123 -0.31441742 0.13344921
000030 2a 21 24 3e 66 6f 2a 3e 43 87 38 3e 1f 4d c6 3d
       0.16028276 0.16644058 0.18020348 0.096826784
000040 f6 57 d5 bd 0c d3 6e 3e 78 b7 7e 3c a6 f5 f4 3d
       -0.10417168 0.23322695 0.015546672 0.11960916

prop_h_to_out.weight f4 [1, 20]
000000 7e 54 49 3e 64 31 81 bd 20 22 07 3e 01 83 68 be
       0.19661137 -0.06308249 0.13196611 -0.22706224
000010 73 51 aa 3e 9b 9e aa 3e 5b d8 27 3e 30 db 8c 3e
       0.33265266 0.3332413 0.16391127 0.27510977
000020 2f f0 52 be c4 e3 47 3e aa e2 68 3e 04 bd 2d be
       -0.20599435 0.1952048 0.22742715 -0.16966635
000030 3b 27 43 be a8 15 9b be 27 07 a1 be 2e fb 5d 3e
       -0.19057934 -0.3028996 -0.3145077 0.21677849
000040 9e ae 71 3b 1f bf 55 be f0 28 96 be f9 f7 9d be
       0.0036877762 -0.20873688 -0.29328108 -0.3085325
